ddqn_ckpt/stability10.pth (torch, 72325 bytes, 6 tensors)

net.0.weight f4 [128, 3]
0	0xbd8c7818	-0.068588436
1	0xbf134a01	-0.57534796
2	0xbe66da42	-0.22544196
3	0xbd3f9520	-0.046773076
4	0xbf0838ef	-0.53211874
5	0x3ee8ba38	0.45454574
6	0x3e3b663e	0.18300721
7	0x3ee506a2	0.44731623
8	0xbf020da2	-0.5080205
9	0xbe8fca1f	-0.28083894
10	0x3e16a9ea	0.14713255
11	0x3b327332	0.0027229306
12	0xbe98758e	-0.29777187
13	0x3ede902c	0.4346937
14	0x3e7d2fbd	0.24725242
15	0xbd22fc50	-0.039791405
16	0x3f0e89dc	0.55679107
17	0xbf0f6229	-0.56009156
18	0xbf0230bc	-0.5085561
19	0x3def19f0	0.11674869
20	0x3f059de5	0.5219405
21	0x3eac7e01	0.33689883
22	0xbea1f518	-0.31632304
23	0x3ed71569	0.42008522
24	0x3e9c731c	0.3055657
25	0x3d0a21e5	0.03372373
26	0x3ebd50c6	0.36975688
27	0x3e1661d1	0.14685751
28	0x3d72daef	0.059290823
29	0xbdcc9dad	-0.09991012
30	0xbe9d0c72	-0.30673558
31	0xbeba55f6	-0.36393708
32	0xbd9b6f48	-0.075895846
33	0xbecb8e7e	-0.3975715
34	0x3e7f4e37	0.2493218
35	0x3e26554c	0.16243476
36	0xbf101b46	-0.56291616
37	0xbed96fa8	-0.42468
38	0x3ed33fa6	0.41259497
39	0xbe9af7fc	-0.30267322
40	0xbbc32000	-0.0059547424
41	0xbebd5637	-0.3697984
42	0xbe0b5765	-0.13607557
43	0x3e927eb0	0.2861228
44	0x3e19e5f2	0.15029123
45	0x3eade93d	0.3396701
46	0x3cb7fc01	0.022459032
47	0xbed21429	-0.41031006
48	0xbce2e579	-0.027697312
49	0x3eb12553	0.3459879
50	0x3e0ddb6c	0.13853234
51	0x3dff52a7	0.124669366
52	0x3de78a2d	0.11305652
53	0x3ef3a209	0.4758456
54	0x3eac0727	0.33599207
55	0xbd4bff53	-0.049804043
56	0xbe8d3af1	-0.2758403
57	0x3effd3ba	0.49966222
58	0xbe9ff77c	-0.31243503
59	0xbec8a8ea	-0.3919137
60	0x3e578d20	0.21049929
61	0xbedf9144	-0.43665516
62	0xbf1ba92c	-0.6080501
63	0xbeef5ecd	-0.46752015
64	0x3e3b4f28	0.18291914
65	0xbea611e1	-0.32435516
66	0x3f09881a	0.537233
67	0x3d07cc5f	0.033153888
68	0xbe3b6d22	-0.1830335
69	0xbeae5c57	-0.34054825
70	0xbe2887aa	-0.16458002
71	0x3f01e8ad	0.5074566
72	0xbebcb10e	-0.36853832
73	0xbf08d8ce	-0.5345582
74	0x3e2fe78c	0.17178172
75	0x3e4d8ffb	0.20074455
76	0xbf1204af	-0.57038397
77	0xbeb7bd52	-0.35886627
78	0x3f071221	0.5276204
79	0xbe89b196	-0.268933
80	0x3e7e2791	0.24819781
81	0xbe8de5ab	-0.27714285
82	0xbf027b15	-0.5096906
83	0xbf0e943f	-0.55694956
84	0x3ef6a6e7	0.4817421
85	0x3e3d9294	0.18512946
86	0x3e32b324	0.17451149
87	0x3e4df625	0.20113428
88	0x3e6891fc	0.22711939
89	0x3ec71b07	0.38887808
90	0x3eef0d0c	0.4668964
91	0x3ee83fcd	0.45361176
92	0x3e47f1b3	0.19525795
93	0x3e221aca	0.15830532
94	0x3e7f12c3	0.24909501
95	0xbea935cd	-0.3304886
96	0x3e8a8488	0.27054238
97	0x3e1a343f	0.15058993
98	0x3e843e20	0.25828648
99	0xbe1db096	-0.15399393
100	0x3ef66b3b	0.48128685
101	0x3d8d5b65	0.06902198
102	0xbe0c22b0	-0.13685107
103	0xbc85b020	-0.016319335
104	0xbe6bf9be	-0.23044488
105	0xbdbbee4a	-0.091763094
106	0x3efec507	0.49759695
107	0x3e4dec7b	0.20109741
108	0xbd95b8e6	-0.07310657
109	0x3ca61c77	0.020277245
110	0x3e0713b2	0.13191107
111	0xbebefa68	-0.3730042
112	0xbea5e6f2	-0.3240276
113	0x3f001067	0.5002503
114	0xbbe24c71	-0.006906085
115	0x3e40c618	0.18825567
116	0xbe8793b9	-0.2647989
117	0xbece2b73	-0.40267524
118	0x3df883d1	0.12134517
119	0x3ea1289a	0.3147629
120	0xbf0b3566	-0.54378355
121	0xbf122dd8	-0.571012
122	0xbe452c1c	-0.19255108
123	0x3ecdcbf4	0.40194666
124	0xbefb1a47	-0.49043486
125	0x3ef98a64	0.48738396
126	0x3f0a245f	0.5396175
127	0xbe01a047	-0.12658797
128	0x3d2e6743	0.042578947
129	0x3aaaeb17	0.0013040033
130	0x3f10a029	0.56494385
131	0x3d8801b4	0.0664095
132	0x3e364bad	0.17802306
133	0xbdf7a3e9	-0.1209181
134	0x3d94641a	0.07245655
135	0xbe39983c	-0.18124479
136	0x3d29f1cc	0.04149036
137	0xbd919add	-0.07109616
138	0x3e1d8877	0.15384088
139	0x3e44b09e	0.19207999
140	0xbec7b3e2	-0.39004427
141	0x3edbbe98	0.4291885
142	0x3ea520c7	0.3225157
143	0x3ed38bc6	0.41317576
144	0x3ef7316b	0.4827989
145	0x3e285239	0.16437615
146	0x3ea7a51a	0.3274315
147	0x3eaa9361	0.33315566
148	0x3eb43724	0.3519832
149	0xbeace34d	-0.33767167
150	0x3ea63a2d	0.3246626
151	0xbd25e7f9	-0.04050443
152	0x3e6d6645	0.23183544
153	0x3e6deee1	0.23235656
154	0xbf086262	-0.5327512
155	0xbeb3672e	-0.35039657
156	0xbec43e7f	-0.3832893
157	0xbe1788de	-0.14798304
158	0x3e45ee7d	0.19329257
159	0x3e3678bf	0.17819498
160	0x3efc9edb	0.49339947
161	0xbec663f3	-0.3874813
162	0x3e76d04c	0.24102896
163	0x3f018873	0.5059883
164	0xbed522c6	-0.41628093
165	0xbede8230	-0.434587
166	0x3e0e4884	0.1389485
167	0xbe6ff3f0	-0.23432899
168	0x3e486c1d	0.19572492
169	0xbe4e55c8	-0.2014991
170	0x3e22895b	0.1587271
171	0xbede885a	-0.43463403
172	0x3ef68f04	0.48155987
173	0xbeb2e963	-0.34943685
174	0xbf07a170	-0.5298071
175	0xbe99188e	-0.29901546
176	0x3c48e580	0.012261748
177	0x3f10fdec	0.56637454
178	0x3dd1c96f	0.102434985
179	0xbe0b45f8	-0.1360091
180	0xbed06f5f	-0.4070997
181	0x3e8a8fc0	0.27062798
182	0x3d4506c9	0.048102174
183	0xbe2b35a8	-0.16719687
184	0xbe25ca7a	-0.1619052
185	0x3dad5e50	0.08465254
186	0x3eb8f4ec	0.3612436
187	0xbe99285e	-0.2991361
188	0xbdbb82f1	-0.091558345
189	0x3e8ee7c1	0.2791119
190	0xbefd65bd	-0.49491683
191	0xbdd23697	-0.102643184
192	0x3f01deb9	0.5073047
193	0x3edbf415	0.42959657
194	0xbeddd9db	-0.43330273
195	0xbe96f27e	-0.29481882
196	0x3d9dc377	0.077032976
197	0x3eb3b9f4	0.35102808
198	0xbe17041b	-0.1474766
199	0xbee1a5da	-0.44071847
200	0x3d6f9fc8	0.05850199
201	0x3ece60a6	0.40308112
202	0xbe9e05b4	-0.30863726
203	0xbf0a00a4	-0.5390723
204	0x3d2f0a3f	0.04273438
205	0x3ef60312	0.48049217
206	0xbeede9b3	-0.4646736
207	0x3e25dbf7	0.16197191
208	0x3ec072b1	0.37587503
209	0x3cee133a	0.029061902
210	0xbe9e6ce6	-0.30942458
211	0xbe55ea4a	-0.20890155
212	0xbec26e22	-0.3797465
213	0x3d868bc7	0.06569629
214	0xbe97343c	-0.2953204
215	0xbcf4ec11	-0.029897721
216	0xbdf9e56d	-0.122019626
217	0xbecd2f6d	-0.40075245
218	0x3f0e1f05	0.5551608
219	0x3e18627e	0.14881322
220	0x3e92f965	0.28705898
221	0x3eb0d875	0.34540144
222	0x3e83727c	0.25673282
223	0xbe3cdf54	-0.18444568
224	0xbe54a69e	-0.20766684
225	0xbea2fd56	-0.31833905
226	0xbf037c05	-0.51361114
227	0xbee1b5aa	-0.4408391
228	0xbe3d5d96	-0.18492731
229	0x3f108a93	0.5646145
230	0xbf0962af	-0.53666204
231	0xbeba2feb	-0.36364684
232	0xbee5f368	-0.44912267
233	0xbecf1ed0	-0.40453196
234	0x3ef89bc1	0.4855633
235	0xbf0ae300	-0.54252625
236	0xbef95383	-0.48696527
237	0xbe36ad8d	-0.17839642
238	0x3e398575	0.18117316
239	0xbe1d88cb	-0.15384214
240	0xbebf2251	-0.3733087
241	0x3ef5124e	0.47865528
242	0x3db18a5e	0.086689696
243	0xbed8fe76	-0.42381638
244	0xbe4feb21	-0.20304538
245	0x3ebb8bb5	0.36630026
246	0x3e5d23e9	0.2159573
247	0xbeeb7743	-0.45989427
248	0xbec06c3a	-0.3758257
249	0xbdb0ea7f	-0.086384766
250	0x3e9e0cac	0.30869043
251	0xbec05fff	-0.3757324
252	0x3f0ae3eb	0.54254025
253	0x3d610737	0.05493852
254	0x3e6cb8d9	0.23117389
255	0x3e3e5fcb	0.1859123

net.0.bias f4 [128]
0	0x3e07b710	0.13253427
1	0xbebe9a20	-0.37226963
2	0x3ef6ffef	0.48242137
3	0xbeae1356	-0.33999127
4	0x3ed32e0e	0.41246074
5	0xbc7e3f2d	-0.015517992
6	0xbdb0008d	-0.08593855
7	0x3e5329f0	0.20621467
8	0x3d9a3f4a	0.07531603
9	0x3ef659ec	0.4811548
10	0xbd3d1ed0	-0.046171963
11	0xbe8d7cda	-0.27634317
12	0x3d768810	0.060188353
13	0xbead15d4	-0.33805716
14	0x3eac6ee4	0.33678353
15	0x3e7b536f	0.24543546
16	0x3eab6b27	0.33480188
17	0xbb2d38f5	-0.0026431654
18	0x3e34b487	0.1764699
19	0xbe3c7f5f	-0.18407963
20	0xbe44d3e2	-0.19221452
21	0x3d87f6e5	0.06638888
22	0x3eee3c6c	0.46530473
23	0xbe8de891	-0.27716497
24	0x3ee84f7c	0.45373142
25	0xbe1ab4b8	-0.15108001
26	0x3c2e0d12	0.010623233
27	0x3eecdebc	0.46263683
28	0x3ca72974	0.020405509
29	0x3edda58d	0.43290368
30	0x3da9a864	0.08284071
31	0x3f161f03	0.5864107
32	0x3e29d0ae	0.16583511
33	0xbec1eed5	-0.37877527
34	0xbec2b94e	-0.38032
35	0x3eef7df6	0.46775788
36	0x3e6c1e80	0.2305851
37	0xbe2cec1d	-0.16886945
38	0xbd93899f	-0.072039835
39	0xbe9b8448	-0.3037436
40	0xbeccbf50	-0.3998971
41	0x3e8dc85d	0.27691928
42	0xbf0d3a8d	-0.55167466
43	0x3da5c2e0	0.0809381
44	0x3f1e0138	0.6172061
45	0x3ebe2cca	0.37143546
46	0x3f0679a8	0.5252938
47	0x3e6c4378	0.23072612
48	0xbea23bb7	-0.31686184
49	0x3eea56cf	0.45769355
50	0x3f1c04b7	0.60944694
51	0x3e95d3dd	0.292632
52	0x3ef3a756	0.47588605
53	0xbefc7b9b	-0.49313053
54	0xbeffd106	-0.4996416
55	0xbe08eb70	-0.13371062
56	0x3ebaf09d	0.36511698
57	0x3eec142b	0.46109137
58	0xbe2d9268	-0.16950381
59	0xbe2d4ea1	-0.16924526
60	0x3ec4b544	0.38419545
61	0xbc90f2a0	-0.017693818
62	0x3e362062	0.1778579
63	0xbf05f594	-0.5232785
64	0x3dc99682	0.0984316
65	0x3ea0d481	0.31412128
66	0x3f247f13	0.642564
67	0x3e200ea6	0.15630588
68	0x3efb3c67	0.4906952
69	0x3e58f676	0.21187767
70	0xbee9497b	-0.45563874
71	0x3d2c6ad9	0.042094085
72	0xbe77ad07	-0.24187098
73	0x3d169f7f	0.0367732
74	0xbe2cd040	-0.16876316
75	0x3edcfb04	0.4316026
76	0xbee440a6	-0.44580573
77	0xbeb1ae60	-0.3470335
78	0xbe0df420	-0.13862658
79	0x3f21bd60	0.6317959
80	0xbe3e20b6	-0.18567166
81	0x3e8612e6	0.26186293
82	0x3ea74f9d	0.32677928
83	0x3f37f853	0.7186329
84	0xbd13fa13	-0.03612716
85	0x3e74294f	0.23843883
86	0xbe99d845	-0.30047813
87	0xbde39371	-0.111121066
88	0xbefd5397	-0.49477836
89	0xbec64de8	-0.38731313
90	0x3e915758	0.2838695
91	0xbed0cf3e	-0.40783113
92	0x3ec9f789	0.39446667
93	0x3f2212b3	0.6330978
94	0x3e83d728	0.2575009
95	0x3eb1ac5d	0.34701815
96	0xbf06490f	-0.5245523
97	0xbe589a4f	-0.21152614
98	0xbf002a31	-0.5006438
99	0xbf0107d7	-0.5040259
100	0x3ebc471d	0.36773005
101	0x3d1a7a4a	0.03771428
102	0x3f2c897f	0.673973
103	0xbe8b9be6	-0.2726738
104	0xbec1cce7	-0.3785164
105	0xbef941a3	-0.4868289
106	0x3e406c8c	0.18791407
107	0xbea0099a	-0.31257325
108	0x3d6e9880	0.058250904
109	0x3efd52a5	0.49477115
110	0x3f1aa9d3	0.6041538
111	0xbdf01a6f	-0.11723792
112	0xbec03842	-0.3754292
113	0xbee1398b	-0.43989214
114	0x3f007ad8	0.50187445
115	0x3dc5c1bf	0.09656095
116	0x3d15bc60	0.0365566
117	0xbf0f9a11	-0.5609446
118	0x3e8deaf0	0.27718306
119	0x3ed69535	0.4191071
120	0x3e395031	0.18096997
121	0xbdd51020	-0.10403466
122	0xbec1c96f	-0.37848994
123	0x3de95aee	0.113942966
124	0x3e5bbed8	0.2145952
125	0x3e999cd9	0.30002478
126	0xbda2666e	-0.07929693
127	0x3f0c2094	0.5473721

net.2.weight f4 [128, 128]
0	0x3d695efa	0.056975342
1	0x3ca37950	0.019955307
2	0xbdec458e	-0.11536704
3	0xbd07ecb6	-0.03318473
4	0x3d0e51a2	0.03474582
5	0xbcd1f012	-0.02562717
6	0x3ccfb335	0.025354007
7	0x3c1bcfbb	0.009509976
8	0xbd6c2d69	-0.057660494
9	0xbd4e27ab	-0.0503308
10	0xbc3b4c10	-0.011431709
11	0x3d8bd3e3	0.068275236
12	0xbc9fbe8c	-0.01950004
13	0x3d9df97f	0.07713603
14	0x3d9ca538	0.076487005
15	0xbcf01048	-0.029304639
16	0x3c6d5d7d	0.014487621
17	0xbcce95b3	-0.025217867
18	0x3d90f48d	0.07077894
19	0x3d2d946e	0.04237788
20	0x397e1000	0.00024229288
21	0x3de8d8b9	0.113694616
22	0xbd304fa5	-0.043044705
23	0xbcb33f6e	-0.021880832
24	0x3c93ce10	0.018042594
25	0xbdab7fd1	-0.083739884
26	0x3ddd0033	0.107910536
27	0x3bedf500	0.0072618723
28	0x3d9b8aa5	0.07594804
29	0xbcdf20f4	-0.027237393
30	0x3b8bf986	0.004271689
31	0xbcf08c5d	-0.029363805
32	0xbd1b47c6	-0.037910245
33	0xbcfdc13c	-0.03097593
34	0x3d7a643a	0.06113074
35	0x3da1ed95	0.07906643
36	0x3cc35f40	0.02384913
37	0x3d4a2310	0.049349844
38	0x3dc897d2	0.097945824
39	0x3b014326	0.0019723861
40	0xbd86bd8d	-0.06579123
41	0x3d25edaa	0.040509857
42	0xbd0235ea	-0.031789698
43	0x3d0c1e12	0.034208365
44	0xbdad3a18	-0.08458346
45	0xbd443326	-0.04790034
46	0xbc48fde5	-0.012267564
47	0xbdaa48a5	-0.08314637
48	0xbda9d3ac	-0.08292326
49	0x3da159e4	0.078784734
50	0xbbad55cb	-0.0052897683
51	0xbd9c0bee	-0.07619463
52	0x3c492511	0.012276904
53	0x3aa377f4	0.0012471662
54	0x3db0ba5a	0.08629294
55	0x3daa9a29	0.08330185
56	0xbd4daccf	-0.05021363
57	0xbd426844	-0.047462717
58	0xbd4f79a1	-0.050653104
59	0xbc74c18c	-0.014938723
60	0xbd427d9e	-0.04748308
61	0x3da32929	0.07966835
62	0xbd0a623f	-0.0337851
63	0x3d3a86c2	0.04553867
64	0x3ce13248	0.027489796
65	0x3ca4a56c	0.02009841
66	0x3d307e52	0.04308922
67	0x3d99496f	0.074847095
68	0x3d261a7b	0.040552597
69	0x3d1d2922	0.038369305
70	0xbd97e2ab	-0.0741628
71	0xbc005688	-0.007833131
72	0xbae926e7	-0.0017788083
73	0x3d8c5f4e	0.068541154
74	0x3d1ab33e	0.037768595
75	0x3d8cc757	0.068739586
76	0x3e78ccfb	0.24296944
77	0xbd28e014	-0.041229323
78	0x3c4d71e8	0.012539364
79	0x3dc321c5	0.095279254
80	0x3d0773f2	0.03306956
81	0x3d483b29	0.048884545
82	0x3d1328bc	0.03592752
83	0xbda4e3ab	-0.08051237
84	0x3c91934e	0.017770436
85	0xbd7abad2	-0.061213322
86	0x3d9e0cb2	0.07717265
87	0x3b927837	0.004469897
88	0x3d8c46d3	0.06849446
89	0xbd7e8003	-0.0621338
90	0xbdaec825	-0.08534268
91	0x3c2d6520	0.010583192
92	0xbc26ab09	-0.010172614
93	0xbca02762	-0.01955003
94	0x3d3bdd07	0.045865085
95	0xbd7ef792	-0.06224782
96	0x3d9e9ff5	0.07745353
97	0xbdb0b6a0	-0.08628583
98	0x3ca0c0ca	0.019623179
99	0xbd53aef6	-0.051680528
100	0x3c936070	0.01799032
101	0x3db1c754	0.08680597
102	0xbc5fb39b	-0.013653661
103	0x3cac1420	0.02100569
104	0xbd647e28	-0.055784374
105	0xbd39ae42	-0.0453322
106	0xbdacf7e2	-0.084457174
107	0x3da497b8	0.080367506
108	0x3cda6b77	0.026662571
109	0x3ccb4172	0.02481148
110	0xbd958d6f	-0.07302367
111	0xbd9914f3	-0.07474699
112	0xbda49939	-0.080370374
113	0xbd4e71eb	-0.05040161
114	0xbc7e4369	-0.0155190015
115	0xbc8b7fa1	-0.017028632
116	0x3d1f3086	0.038864635
117	0xbd2df60a	-0.04247097
118	0x3db10658	0.08643788
119	0xbd26d291	-0.040728156
120	0xbdaf6d5c	-0.085657805
121	0x3d88ef33	0.06686249
122	0xbd68ae72	-0.05680699
123	0x3bc6b61b	0.006064189
124	0xbd50a06e	-0.050934248
125	0xbcae89b9	-0.021305906
126	0x3cac4c6d	0.021032536
127	0xbdb201f4	-0.08691779
128	0x3da2c769	0.07948191
129	0xbd6b0716	-0.057379805
130	0x3d6185c8	0.055059224
131	0xbd59fd81	-0.053220276
132	0xbcb91f9c	-0.02259808
133	0xbb40959a	-0.0029386044
134	0xbd122e2e	-0.03568857
135	0xbd1f4bca	-0.038890637
136	0xbd99fb65	-0.07518653
137	0xbd78a938	-0.060708255
138	0xbb87e4c0	-0.004147142
139	0xbcdab9c1	-0.026699902
140	0xbc4b5f70	-0.012412891
141	0x3cb8b650	0.02254787
142	0xbc472b46	-0.012156313
143	0xbdab5c21	-0.083671816
144	0xbd087c79	-0.03332183
145	0x3cd6f793	0.0262411
146	0x3d024c46	0.03181102
147	0x3d2f318e	0.04277187
148	0x3ba06380	0.004894674
149	0x3d7784a2	0.060429223
150	0xbd753ab3	-0.059870433
151	0xbd99b21c	-0.07504675
152	0xbcc10ebc	-0.023566596
153	0x3a1c4280	0.0005960837
154	0x3d858862	0.065201536
155	0xbd50c8b0	-0.05097264
156	0xbd8057b6	-0.062667295
157	0xbb513f7c	-0.0031928709
158	0x3cb1a778	0.0216863
159	0xbda51a86	-0.080616996
160	0xbd152dbb	-0.036420565
161	0xbd8fe8e7	-0.070268445
162	0x3ca93608	0.020655647
163	0x3bf3571b	0.0074261553
164	0xbda2a983	-0.07942488
165	0xbd74bfc7	-0.059753206
166	0x3b85ee00	0.0040872097
167	0xbcc6f49a	-0.024286557
168	0xbd8c032a	-0.06836541
169	0xbcd3a414	-0.025835074
170	0xbda57c44	-0.080803424
171	0xbc32cf80	-0.01091373
172	0xbc28cc50	-0.010302618
173	0x3b69ae0a	0.0035656714
174	0x3bf60030	0.0075073466
175	0xbc84a5d9	-0.016192364
176	0x3d8eda73	0.0697526
177	0xbd03064e	-0.031988434
178	0x3d209329	0.039202843
179	0x3d08b00a	0.03337101
180	0xbc40ebf5	-0.011775007
181	0xbd864412	-0.06555952
182	0xbd999161	-0.07498432
183	0x3cc86df8	0.0244665
184	0x3cdd6048	0.02702345
185	0x3d57e614	0.052709654
186	0xbd204132	-0.039124675
187	0x3d947707	0.07249265
188	0x3db3404c	0.08752498
189	0xbc665530	-0.014058396
190	0xbd0d1553	-0.034444164
191	0xbce37074	-0.027763583
192	0xbd9b2e35	-0.07577173
193	0x3d4d4a3f	0.050119635
194	0x3c1dd310	0.009632841
195	0x3d26cb66	0.04072132
196	0x3d659029	0.056045685
197	0xbd1d0b78	-0.038341016
198	0x3a57c200	0.00082305074
199	0x3d9255c3	0.07145264
200	0xbd8d57e7	-0.06901532
201	0x3d9d7d9a	0.07689972
202	0x3d3c42fe	0.045962326
203	0xbce367a8	-0.027759388
204	0xbd93cde3	-0.07217004
205	0x3d415fca	0.047210492
206	0x3d2cbb2a	0.04217068
207	0xbd27d167	-0.040971186
208	0x3d28e436	0.041233264
209	0x3ccf8cb5	0.025335649
210	0x3db23027	0.087005906
211	0x3d3930ce	0.04521256
212	0x3c539c2a	0.01291565
213	0xbdb4cbc2	-0.08827926
214	0x3d91564e	0.070965394
215	0x3d99bbed	0.07506547
216	0xbcc8b490	-0.024500161
217	0xbbe27f00	-0.0069121122
218	0xbb85bb11	-0.004081138
219	0xbbb0db70	-0.0053972527
220	0x3d4159a6	0.047204636
221	0x3c532cb1	0.012889073
222	0xbd9f3818	-0.07774371
223	0x3ce1b9dd	0.027554447
224	0xbd5e6253	-0.054292988
225	0x3ccebc00	0.02523613
226	0x3d1a0c9c	0.03760968
227	0xbd2cdfcd	-0.04220562
228	0x3d720ce6	0.059094332
229	0x3abd725b	0.0014453636
230	0xbd3961e7	-0.045259383
231	0x3d996b66	0.07491188
232	0x3d675746	0.056479715
233	0x3d82c1cf	0.06384622
234	0xbd748c1a	-0.059703924
235	0xbd8bf465	-0.06833724
236	0xbda12c0f	-0.07869732
237	0x3d669ef9	0.056303952
238	0x3d4fd403	0.0507393
239	0xbd5fee00	-0.054670334
240	0x3d0dedcc	0.03465061
241	0x3c8abb58	0.016935036
242	0xbd1d7d96	-0.038449846
243	0x3b0ced6d	0.0021503821
244	0xbd5a6ab6	-0.053324424
245	0xbcd3ff3c	-0.025878541
246	0x3d0bc77b	0.034125786
247	0x3c3f16d4	0.0116631575
248	0xbd8801be	-0.06640957
249	0x3cb63798	0.022243306
250	0xbc972c2c	-0.01845368
251	0xbd869265	-0.06570891
252	0xbda75d92	-0.08172144
253	0x3b4a5059	0.0030870645
254	0xbd873db5	-0.066035666
255	0xbd5d4ec9	-0.054030214

net.2.bias f4 [128]
0	0xbb594045	-0.003314988
1	0xbd7a9d58	-0.06118521
2	0x3c7121f5	0.014717569
3	0x3d443832	0.047905155
4	0x3c9aaa03	0.018879896
5	0x3c07de37	0.008292726
6	0xbc4ead88	-0.012614615
7	0x3df7f2d1	0.121068604
8	0xbdacfd5a	-0.084467605
9	0x3d8f610c	0.07000932
10	0xbdc91c05	-0.098197974
11	0x3dc77eff	0.097410195
12	0x3e161fbb	0.14660542
13	0xbccfa614	-0.025347747
14	0xbb8fcf28	-0.0043887086
15	0x3dcde1f1	0.100528605
16	0xbcd3bd90	-0.025847226
17	0x3c7ed892	0.015554564
18	0xbc47199f	-0.012152105
19	0xbbc31610	-0.005953558
20	0x3e1a5a15	0.15073426
21	0x3daa1071	0.08303917
22	0xbdd8fd42	-0.1059518
23	0x3d9423db	0.072334014
24	0xbd2d6490	-0.042332232
25	0x3e488663	0.19582514
26	0x3c756ee5	0.014980053
27	0xbcacfdd0	-0.021117121
28	0xbd3df350	-0.04637462
29	0xbd80ea74	-0.062947184
30	0xbe001cb7	-0.12510954
31	0xbdee8dc7	-0.11648136
32	0x3c90087b	0.017582169
33	0xbaf1c280	-0.0018444806
34	0xbdb4152f	-0.08793103
35	0x3b605d61	0.0034235346
36	0x3db270b1	0.087129004
37	0x3d28965a	0.04115901
38	0x3da124c9	0.07868344
39	0x3ddaa669	0.106762715
40	0x3cc672ec	0.02422472
41	0x3e5e218a	0.21692482
42	0x3c319cab	0.010840575
43	0xbcd2740a	-0.025690097
44	0xbd9b3b27	-0.07579642
45	0xbc344598	-0.011002921
46	0x3e3d552a	0.18489519
47	0x3e4dc974	0.2009638
48	0xbc040843	-0.00805861
49	0xbdb0b053	-0.08627381
50	0x3c302216	0.010750314
51	0x3e3d959b	0.18514101
52	0x3e4d3ada	0.20041981
53	0x3c417d38	0.01180964
54	0x3def4704	0.11683467
55	0xbd4c000f	-0.049804743
56	0x3ccd39e9	0.025052028
57	0x3dcda190	0.10040581
58	0xbda26715	-0.079298176
59	0xbcad4863	-0.02115268
60	0x3df21f6c	0.118223995
61	0xbcddf1d0	-0.027092844
62	0x3e265af1	0.16245629
63	0x3d1105f2	0.03540606
64	0xbd4edc38	-0.050502986
65	0x3dc286e9	0.09498388
66	0xbd48583c	-0.04891227
67	0x3d982752	0.07429375
68	0x3d2290b8	0.039688796
69	0x3d18f328	0.037341267
70	0xbce878ec	-0.028377973
71	0xbd2c5627	-0.04207435
72	0x3d335f2b	0.04379193
73	0xbe02cf16	-0.1277431
74	0x3cc26a48	0.02373232
75	0x3da32154	0.07965341
76	0xbcd9b2b3	-0.026574468
77	0x3e5c17a5	0.21493395
78	0xbd6f7c4d	-0.05846815
79	0xbdacf554	-0.0844523
80	0x39e97700	0.00044529885
81	0xbd976c4f	-0.07393705
82	0x3d9de329	0.07709343
83	0xbcf508b3	-0.029911375
84	0xbd8b9182	-0.06814863
85	0xbcef3134	-0.029198267
86	0xbdf25ee0	-0.11834502
87	0xbd4a9ed7	-0.049467888
88	0x3e296144	0.1654101
89	0x3e524781	0.20535089
90	0xbdb850ed	-0.0899981
91	0x3e1b69fe	0.15177152
92	0xbdb1081b	-0.08644124
93	0x3d59c2dd	0.05316435
94	0x3d8fa357	0.070135765
95	0xbdad6d78	-0.08468145
96	0xbdfa6c0c	-0.122276396
97	0x3e404d5f	0.18779515
98	0x3e3a4457	0.18190132
99	0xbd845fa5	-0.06463555
100	0x3e18aeba	0.14910403
101	0xbe07dae8	-0.132671
102	0xbd989fe4	-0.07452372
103	0x3c8338e6	0.016018342
104	0x3e373d0a	0.17894378
105	0x3db9ccd8	0.09072274
106	0xbd0d96bd	-0.034567583
107	0xbdd88362	-0.10571934
108	0x3e26416c	0.16235894
109	0x3d8e056f	0.0693463
110	0xbe09130c	-0.13386172
111	0x3e3c135c	0.1836676
112	0x3a948340	0.001133062
113	0xbdb4b1bd	-0.088229634
114	0xbd4bc9f4	-0.049753144
115	0x3d3219af	0.043481525
116	0xbcd66438	-0.026170835
117	0x3c5d3738	0.013501935
118	0xbd04192f	-0.03225058
119	0x3d46422d	0.048402954
120	0x3d6cfb7f	0.057857033
121	0x3daa440c	0.0831376
122	0xbd9de1a7	-0.077090554
123	0xbd93d669	-0.0721863
124	0x3cc90a84	0.024541147
125	0x3d86bd2a	0.06579049
126	0x3d91c240	0.07117128
127	0x3d46f780	0.04857588

net.4.weight f4 [2, 128]
0	0x3dc083a7	0.09400111
1	0x3d66286d	0.056190897
2	0xbcfb3d71	-0.030668946
3	0xbd97aca7	-0.07405978
4	0x3c88a27c	0.016679041
5	0xbb036837	-0.002005113
6	0x3a2a8838	0.00065052835
7	0xbdce3248	-0.10068184
8	0xbd2115d2	-0.03932745
9	0x3da69291	0.08133424
10	0x3da59f02	0.08086969
11	0xbdb7523b	-0.08951231
12	0xbdf205df	-0.11817526
13	0x3d85638e	0.06513129
14	0x3aa39d5f	0.0012482813
15	0xbd9e7f6e	-0.07739149
16	0x3d37feb6	0.044920646
17	0xba875b38	-0.0010326868
18	0x3da445c2	0.08021118
19	0xbd87014f	-0.065920465
20	0xbe133310	-0.14374948
21	0x3da6ec9d	0.08150599
22	0xbcdc062c	-0.026858412
23	0xbdddd39a	-0.108313754
24	0x3da370f5	0.07980529
25	0xbd54f1bf	-0.05198836
26	0x3cb85da7	0.022505594
27	0xbc8b7244	-0.01702226
28	0x3d83abbd	0.06429241
29	0x3b0af086	0.0021200492
30	0x3a2f1b5a	0.0006679796
31	0x3d7cca5e	0.06171643
32	0xbc19d794	-0.009389777
33	0xbda7df48	-0.081968844
34	0x3c935fde	0.017990049
35	0x3d07c716	0.033148848
36	0xbd8486c6	-0.064710185
37	0xbd2b6950	-0.04184848
38	0x3d8a7d1b	0.06762143
39	0xbd83ce87	-0.06435876
40	0x3ca31ec0	0.019912124
41	0xbdabfdeb	-0.083980404
42	0x3d90c157	0.07068127
43	0xba1db3f0	-0.00060158875
44	0x3d00e43e	0.03146767
45	0x3db4f047	0.08834892
46	0xbd7580d3	-0.05993731
47	0xbdcad58d	-0.09904013
48	0x3d868a71	0.06569374
49	0x3d5d94ba	0.054096915
50	0x3dd823a2	0.105536714
51	0xbe278da4	-0.16362625
52	0xbddb11f1	-0.106967814
53	0xbd9ce849	-0.076614924
54	0xbe45f35f	-0.1933112
55	0x3d75b40e	0.059986167
56	0xbcb4a624	-0.022051878
57	0xbde6df16	-0.11273019
58	0xbd1068e6	-0.03525629
59	0x3d767bf8	0.06017682
60	0xbde14e68	-0.11001283
61	0xbdbbb422	-0.09165217
62	0xbde6c1b5	-0.112674154
63	0x3db00349	0.085943766
64	0xbd3ec3dc	-0.046573505
65	0xbdbad6b4	-0.091229826
66	0x3dea11d2	0.1142918
67	0x3d6ce287	0.05783322
68	0x3d836885	0.0641642
69	0xbddd7a6b	-0.10814365
70	0x3d59d79d	0.05318414
71	0x3db69550	0.08915198
72	0xbd979ec0	-0.07403326
73	0x3cc3146e	0.023813453
74	0x3d8d90c1	0.06912375
75	0xbcdc241a	-0.026872683
76	0x3c20b68b	0.009809147
77	0xbe078400	-0.13233948
78	0xbda8cebe	-0.08242558
79	0x3cdc4014	0.026886024
80	0x3da7f359	0.08200712
81	0x3e0b23c9	0.1358787
82	0x3affacc0	0.001950644
83	0x3d68931c	0.05678092
84	0x3cf680d9	0.030090736
85	0x3cb274ba	0.021784175
86	0x3db1938f	0.08670723
87	0x3df42b6e	0.11922346
88	0xbd94ee85	-0.072720565
89	0xbdc8e7fa	-0.09809871
90	0x3b880a95	0.004151652
91	0xbbdb17a5	-0.0066861683
92	0x3d0853d2	0.033283062
93	0xbd8b6f5c	-0.068083495
94	0xbdce2538	-0.10065693
95	0x3d0fe950	0.035134614
96	0x3de2ad41	0.11068202
97	0xbd2ba8ed	-0.041909147
98	0xbe27e7ba	-0.1639699
99	0x3d4fd5bf	0.050740954
100	0xbdf33a9f	-0.118764155
101	0x3dbb3fbb	0.09143015
102	0x3d61c2cb	0.05511741
103	0xbc89b5b1	-0.01681027
104	0xbd17e6d7	-0.03708538
105	0x3ca84cd8	0.020544454
106	0x3d085838	0.033287257
107	0x3dbf0587	0.09327226
108	0xbd18585d	-0.037193645
109	0xbdd8fdae	-0.105952606
110	0xbc4d0df5	-0.012515535
111	0xbdaf756b	-0.085673176
112	0xbdaac9dc	-0.08339283
113	0xbd3aae19	-0.04557619
114	0xbd59d0ac	-0.05317752
115	0xbdedc096	-0.116089985
116	0xbc900f31	-0.017585369
117	0x3bba1130	0.0056783184
118	0x3d5ee4e6	0.054417513
119	0x3d4e5d92	0.050382204
120	0xbd64f9c2	-0.05590225
121	0x3c8a3df6	0.016875248
122	0x3cfe7844	0.031063206
123	0x3ba489f0	0.0050213262
124	0x3cdae0e3	0.026718562
125	0x3cecb2ac	0.028893791
126	0xbca8753c	-0.020563714
127	0xbdc805f2	-0.09766759
128	0xbd6aae82	-0.05729533
129	0xbd980f86	-0.07424836
130	0xbd140acc	-0.03614311
131	0x3d84212d	0.0645164
132	0xbcbd601b	-0.023117116
133	0xbdd8a95b	-0.10579177
134	0xbdc008a8	-0.09376651
135	0xbd0ff736	-0.035147868
136	0x3d5efb22	0.054438718
137	0x3d8837a4	0.066512376
138	0x3ded618e	0.11590873
139	0xbdb774c7	-0.089578204
140	0xbe0473cd	-0.129348
141	0xbc9c1ff9	-0.019058215
142	0xbdf42d79	-0.11922736
143	0xbda91ef1	-0.08257855
144	0x3ce363d0	0.027757555
145	0x3db753c5	0.08951525
146	0xbd5c4f42	-0.053786524
147	0x3baf7a40	0.0053551495
148	0xbcdde358	-0.027085945
149	0x3d98364f	0.074322335
150	0x3d63329e	0.055468194
151	0xbd625e1d	-0.055265535
152	0xbbd73bff	-0.0065684314
153	0xbdbc0d60	-0.091822386
154	0xbd526be8	-0.05137244
155	0xbd6d8c46	-0.057995103
156	0x3c082aa9	0.008310952
157	0x3d9cdcc7	0.076592974
158	0x3d12c90f	0.035836276
159	0xbc1f5a77	-0.009726158
160	0x3dcb482a	0.099258736
161	0xbd9ac53f	-0.07557153
162	0x3dabb142	0.083834186
163	0xbd03220f	-0.032014903
164	0xbd7bdde7	-0.06149092
165	0xbdb44817	-0.088028125
166	0xbda56a73	-0.08076944
167	0x3c56a7fd	0.013101575
168	0xbd93bb19	-0.072134204
169	0xbe436db0	-0.19084811
170	0x3d7cd284	0.0617242
171	0x3cd551cd	0.026039982
172	0x3a396100	0.0007071644
173	0x3d76295e	0.060098045
174	0xbdff199d	-0.12456057
175	0xbd918fd3	-0.071075104
176	0xbdb6e262	-0.08929898
177	0x3d93c1d6	0.07214706
178	0x3db109ee	0.08644472
179	0xbd90d44f	-0.07071745
180	0xbd2531db	-0.04033075
181	0x3dc0fe52	0.09423508
182	0xbe4c6a01	-0.19962312
183	0xbdbfafb6	-0.09359686
184	0x3d5af540	0.053456545
185	0xbdc964df	-0.09833693
186	0x3da5face	0.08104478
187	0xbc5990fb	-0.013279195
188	0xbdddb059	-0.10824651
189	0xbd09200f	-0.03347784
190	0xbd876f8e	-0.06613074
191	0xbd195952	-0.037438698
192	0x3d895455	0.06705538
193	0xbd860816	-0.06544511
194	0x3d004f12	0.031325407
195	0xbdb55326	-0.0885375
196	0xbcf41502	-0.029795174
197	0xbdd4ef98	-0.103972614
198	0x3d866f04	0.06564143
199	0x3cdac790	0.026706487
200	0xbdbe58c1	-0.09294272
201	0x3ded000b	0.11572274
202	0xbc4b3d18	-0.012404703
203	0xbd9d591b	-0.07683011
204	0xbd42522a	-0.04744164
205	0xbe1492f6	-0.14509186
206	0xbd91b9c4	-0.0711551
207	0x3d37dbba	0.044887282
208	0xbd295780	-0.041343212
209	0xbb83e53d	-0.00402513
210	0x3d4d510e	0.050126128
211	0x3d8eb3db	0.069678985
212	0x3ddc20e4	0.10748461
213	0x3d948bd2	0.07253231
214	0x3e03da5e	0.12876269
215	0x3d01031e	0.031497113
216	0xbe0d8c9d	-0.13823171
217	0xbd1ea8dd	-0.03873526
218	0x3c16c93e	0.009203253
219	0xbde12f4c	-0.10995349
220	0xbd3f2ccd	-0.046673585
221	0x3ca14b1f	0.01968914
222	0xbd3af611	-0.045644823
223	0x3dccb386	0.09995179
224	0x3db76afb	0.08955952
225	0xbddf046e	-0.10889517
226	0xbd876dba	-0.066127256
227	0x3ddb7740	0.107161045
228	0xbd566d14	-0.05235012
229	0x3d83b3b6	0.064307615
230	0x3d31752d	0.04332464
231	0x3d82c5a7	0.063853554
232	0xbd4e8768	-0.050422102
233	0xbd7820c1	-0.06057811
234	0xbcf168a6	-0.029468846
235	0x3e17cee2	0.14825013
236	0xbc7fe1a4	-0.015617762
237	0xbc817221	-0.015801491
238	0x3dd38d0a	0.103296354
239	0xbdb16f62	-0.08663823
240	0x3d379832	0.04482288
241	0xbdad60ce	-0.0846573
242	0x3d94742b	0.0724872
243	0xbdc80589	-0.09766681
244	0x3d457d06	0.048214935
245	0x3d226442	0.039646395
246	0xbd311087	-0.043228652
247	0x3d98a0bb	0.07452532
248	0xbd18379d	-0.037162412
249	0x3d336558	0.04379782
250	0x3d7f26fe	0.062293045
251	0xbc9831f4	-0.018578507
252	0xbd5fe57c	-0.054662213
253	0x3bf6a639	0.0075271395
254	0xbdde89db	-0.108661376
255	0xbd833644	-0.06406835

net.4.bias f4 [2]
0	0xbd635e79	-0.055510018
1	0xbe08a36e	-0.13343593
