trained_network/SD2/ablation_12_div_njob.pth (torch, 61321 bytes, 26 tensors)

feature_exact.j_encoder.linears.0.weight f4 [8, 13]
-0.31192714 -0.291389 -0.22628924 0.17934842 0.029073153 -0.13428907 -0.1047257 0.079485476
0.25932756 -0.16522023 -0.22008617 -0.24150746 0.099596776 -0.06806036 -0.30470052 -0.018759847
0.16816387 0.092612214 0.006231994 -0.06303919 0.22289495 -0.1603504 0.101782426 0.06807103
-0.022675605 0.05613801 -0.15684015 -0.023273407 0.16128428 -0.10432687 -0.14812846 0.15902136
0.012068583 0.025997154 0.27168015 0.1214674 -0.18000673 0.21531817 0.10017798 -0.21734393
0.069708414 -0.07068558 -0.00050496217 0.25231308 0.23594344 -0.27328 0.013986392 -0.2913398
-0.30998173 -0.28012565 -0.09589119 0.0098279 -0.22652766 0.32767484 -0.13936941 -0.2882171
0.0022771184 -0.20031722 0.07001978 -0.27118456 0.12334763 0.2482911 0.045334574 -0.14380944
0.03965009 0.24697712 0.2914321 -0.30458018 0.21529011 -0.1708195 -0.092673205 0.20990816
0.116137765 -0.2240658 0.07639051 -0.2405853 0.32630104 0.2314176 -0.117625214 -0.038666103
0.18011548 0.025817186 -0.019360201 0.10616431 0.0038223711 0.04601335 0.07168538 0.06489015
-0.23867661 0.2050331 0.05431216 -0.015993752 0.20607871 0.2692452 -0.18685646 0.023829313
0.31446382 0.07560178 -0.051688954 -0.19797039 -0.07104746 -0.251051 -0.05821181 -0.15986377
00000000: eab4 9fbe f030 95be 5eb8 67be 1da7 373e
00000010: d22a ee3c 1383 09be 6e7a d6bd 48c9 a23d
00000020: 95c6 843e 7e2f 29be 455e 61be bb4d 77be
00000030: 65f9 cb3d 3b63 8bbd b501 9cbe 40ae 99bc
00000040: 2633 2c3e 79ab bd3d c135 cc3b b11a 81bd
00000050: 933e 643e e532 24be 4e73 d03d d368 8b3d
00000060: 31c2 b9bc f8f0 653d b49a 20be dfa7 bebc
00000070: b527 253e 53a9 d5bd fdae 17be 7fd6 223e
00000080: 4ebb 453c fcf7 d43c a919 8b3e e6c3 f83d
00000090: af53 38be 5e7c 5c3e 1d2a cd3d 688f 5ebe
000000a0: 49c3 8e3d 9ac3 90bd 705f 04ba 2e2f 813e
000000b0: 289b 713e 5beb 8bbe 2e27 653c 7e2a 95be
000000c0: edb5 9ebe a16c 8fbe 9a62 c4bd 3305 213c
000000d0: def6 67be ffc4 a73e dbb6 0ebe 3191 93be
000000e0: b53b 153b f51f 4dbe 8866 8f3d b4d8 8abe
000000f0: af9d fc3d 0640 7e3e bfb0 393d c842 13be
00000100: 2268 223d 92e7 7c3e 9736 953e eff1 9bbe
00000110: 0375 5c3e 4feb 2ebe 73cb bdbd 2af2 563e
00000120: a3d9 ed3d 8171 65be a172 9c3d fe5b 76be
00000130: ee10 a73e bcf8 6c3e 7de5 f0bd 5960 1ebd
00000140: 3170 383e 907e d33c 4999 9ebc ac6c d93d
00000150: bf80 7a3b 7f78 3c3d c9cf 923d 21e5 843d
00000160: a467 74be 32f4 513e 6d76 5e3d 5405 83bc
00000170: 4c06 533e 82da 893e 4d57 3fbe b135 c33c
00000180: 6701 a13e 1bd5 9a3d ccb7 53bd c0b8 4abe
00000190: 5581 91bd c289 80be 826f 6ebd 54b3 23be

feature_exact.j_encoder.linears.0.bias f4 [8]
0.17876208 -0.10210225 0.16947107 -0.23050477 -0.022081017 -0.07321259 -0.0053512002 -0.08641691
00000000: 680d 373e fc1a d1bd d389 2d3e 7109 6cbe
00000010: 40e3 b4bc 7bf0 95bd 1f59 afbb 59fb b0bd

feature_exact.j_encoder.linears.1.weight f4 [8, 8]
0.32097727 0.13952614 -0.22572094 0.36081174 0.011312301 0.39485696 -0.04237622 -0.04561068
0.15008225 -0.22281218 -0.08618898 0.2933042 0.08109468 -0.1593366 -0.21359232 -0.34651187
-0.32282048 0.07432552 0.064340755 -0.10432836 0.29988217 -0.11775973 0.1791453 0.015170823
-0.12086781 0.110463 0.15499514 -0.28935426 -0.33776444 0.004194699 0.08403457 0.09392073
-0.012511555 -0.33683476 0.06386331 0.053816747 -0.26253283 -0.101291716 0.020542594 -0.21993576
-0.13312119 -0.3217213 0.20419961 0.12518111 -0.23979136 0.16622223 -0.24544205 0.3603184
0.073022045 -0.18656628 -0.014775018 -0.27720857 -0.081444465 0.12137401 0.27131358 -0.033290595
-0.061971575 -0.093454905 0.0010018559 -0.18066937 -0.01828507 -0.0063665435 -0.1863803 0.27119347
00000000: 2257 a43e f1df 0e3e 6423 67be 51bc b83e
00000010: 3b57 393c b12a ca3e b092 2dbd 44d2 3abd
00000020: 29af 193e e028 64be d983 b0bd f82b 963e
00000030: f814 a63d 2229 23be f2b7 5abe 016a b1be
00000040: ba48 a5be fa37 983d 16c5 833d 1baa d5bd
00000050: 288a 993e 032c f1bd de71 373e 0b8f 783c
00000060: 8b89 f7bd 6d3a e23d 0cb7 1e3e 3e26 94be
00000070: 76ef acbe b073 893b 511a ac3d 8359 c03d
00000080: 44fd 4cbc 9b75 acbe c4ca 823d f36e 5c3d
00000090: b46a 86be 0872 cfbd f148 a83c d736 61be
000000a0: ec50 08be a7b8 a4be b419 513e 7a2f 003e
000000b0: de8b 75be 2936 2a3e 2955 7bbe a77b b83e
000000c0: 958c 953d 3b0b 3fbe eb12 72bc 48ee 8dbe
000000d0: 5bcc a6bd f092 f83d 9de9 8a3e b85b 08bd
000000e0: e8d5 7dbd 4965 bfbd b550 833a 6401 39be
000000f0: 92ca 95bc 709e d0bb 7ada 3ebe dfd9 8a3e

feature_exact.j_encoder.linears.1.bias f4 [8]
0.29203805 0.10388337 0.034609206 -0.28677022 0.24145532 0.26493973 -0.062210184 -0.08501888
00000000: 0386 953e cec0 d43d 62c2 0d3d 8cd3 92be
00000010: 1040 773e 2ea6 873e 1bd0 7ebd 611e aebd

feature_exact.j_encoder.linears.2.weight f4 [8, 8]
-0.26552406 -0.04592238 -0.34617922 0.12170217 -0.2785204 0.30671695 -0.21675447 0.13927995
-0.24233522 -0.22553524 -0.3756175 -0.32311025 0.049311604 0.3394158 0.0011801001 0.30454752
-0.18283635 -0.194428 -0.020440293 0.2024499 0.20557396 -0.14611825 -0.021357331 0.3276607
0.078161664 -0.054164365 0.08923498 0.0083677545 -0.09924991 0.04870284 -0.29610318 -0.28106073
-0.026160445 0.0040792148 0.4448932 0.20959584 0.21216846 0.23796567 -0.07620867 0.083353736
-0.21254817 0.20548315 -0.38222227 0.32295802 0.33410367 0.023803206 0.082158744 0.32115486
-0.35272408 0.18256338 0.16071345 0.026206933 0.38098505 0.18563518 0.20346953 -0.32103562
0.17341751 -0.41752288 -0.23384643 -0.19153394 -0.3346512 -0.011624272 -0.05360955 0.25702077
00000000: c5f2 87be 1b19 3cbd 673e b1be fd3e f93d
00000010: 3a9a 8ebe 010a 9d3e e2f4 5dbe 679f 0e3e
00000020: b926 78be b6f2 66be f050 c0be b56e a5be
00000030: f7fa 493d e8c7 ad3e 97ad 9a3a a7ed 9b3e
00000040: 7439 3bbe 2218 47be 6772 a7bc 074f 4f3e
00000050: fb81 523e 06a0 15be 92f5 aebc 25c3 a73e
00000060: 3913 a03d 74db 5dbd d4c0 b63d e818 093c
00000070: 8943 cbbd a17c 473d d69a 97be 31e7 8fbe
00000080: 6e4e d6bc efaa 853b 0bc9 e33e 4ba0 563e
00000090: b042 593e 46ad 733e 4b13 9cbd 5db5 aa3d
000000a0: 3aa6 59be 2d6a 523e a3b2 c3be c15a a53e
000000b0: a30f ab3e f1fe c23c d842 a83d 696e a43e
000000c0: 4098 b4be e5f1 3a3e 1192 243e ecaf d63c
000000d0: 7910 c33e 2617 3e3e 515a 503e c85e a4be
000000e0: 5c94 313e 8fc5 d5be 7075 6fbe 7921 44be
000000f0: 6757 abbe bb73 3ebc b095 5bbd 3a98 833e

feature_exact.j_encoder.linears.2.bias f4 [8]
-0.25050735 -0.14946552 0.26187468 -0.036665943 -0.16709201 -0.2646841 0.16954549 -0.25022608
00000000: 8042 80be 7d0d 19be 7014 863e 072f 16bd
00000010: 2b1a 2bbe ad84 87be 559d 2d3e a21d 80be

feature_exact.m_encoder.linears.0.weight f4 [8, 8]
0.12862718 -0.33815512 0.008256213 0.05021697 0.32211056 0.063041545 0.21014659 -0.38926396
0.08693793 0.11201606 -0.32572845 -0.18769954 -0.046653494 -0.21880426 0.29006103 0.11584841
0.071729854 0.256682 0.27783713 -0.059322227 -0.21069181 0.09510567 -0.13299122 -0.27131727
0.03999891 -0.11581706 0.0077546057 -0.3282565 0.11398881 -0.10447164 -0.0035186666 0.09149847
0.08761703 0.0030687947 0.109267354 -0.0058816224 0.18821852 0.1457536 -0.09183426 -0.22031885
0.24319638 -0.033641923 0.041336965 -0.13624217 0.30007988 0.34584427 -0.21551237 -0.02372654
0.2069647 0.24663861 0.12407349 -0.07312692 -0.37991038 -0.08176292 0.08918766 -0.24043328
-0.25845098 -0.21883593 -0.0047917017 -0.004294674 0.38072684 -0.29106337 0.11354552 -0.0070800814
00000000: d8b6 033e ab22 adbe 1145 073c 4fb0 4d3d
00000010: adeb a43e ed1b 813d ab30 573e 9b4d c7be
00000020: 830c b23d ad68 e53d e1c5 a6be 4f34 40be
00000030: bc17 3fbd 390e 60be e182 943e ee41 ed3d
00000040: 1ae7 923d d36b 833e ab40 8e3e ddfb 72bd
00000050: 98bf 57be c3c6 c23d da2e 08be 19ea 8abe
00000060: e6d5 233d 7f31 edbd 591a fe3b 3c11 a8be
00000070: f772 e93d 3af5 d5bd 6e99 66bb 8d63 bb3d
00000080: 8f70 b33d d51d 493b 90c7 df3d a0ba c0bb
00000090: 5bbc 403e 6f40 153e 9a13 bcbd 449b 61be
000000a0: 7908 793e 1dcc 09bd f350 293d 1183 0bbe
000000b0: 12a4 993e 8012 b13e 46af 5cbe 295e c2bc
000000c0: 8eee 533e d58e 7c3e 3e1a fe3d 91c3 95bd
000000d0: 9d83 c2be 5173 a7bd 05a8 b63d 2434 76be
000000e0: b053 84be 8716 60be b503 9dbb 56ba 8cbb
000000f0: a1ee c23e 4206 95be 8e8a e83d 0700 e8bb

feature_exact.m_encoder.linears.0.bias f4 [8]
-0.26701397 0.110941246 -0.35632822 -0.16042751 -0.017937033 -0.32037416 -0.091836154 -0.30803978
00000000: 0eb6 88be 2a35 e33d a770 b6be 1c47 24be
00000010: aff0 92bc 1508 a4be 9814 bcbd 64b7 9dbe

feature_exact.m_encoder.linears.1.weight f4 [8, 8]
-0.0122053325 -0.27506006 -0.3452758 0.08485945 -0.22712252 -0.3328064 -0.070197135 0.30323482
-0.24786691 0.007716941 -0.19303776 0.030976852 0.22550736 0.26888514 -0.122704744 0.32231173
-0.07607361 0.07210039 0.078154124 -0.14417021 -0.21622416 0.1279168 0.23843808 0.16454464
0.27188963 0.28947878 0.23051712 -0.15421823 -0.32731664 0.23224767 -0.009383352 -0.3126752
-0.10052772 0.25135612 -0.007731639 0.15134408 0.33709544 -0.069854945 -0.317912 0.30873948
-0.0055356515 0.24846373 -0.041588727 0.2695781 0.3332929 0.33190966 -0.22095896 0.17170236
-0.2862756 -0.15102777 0.009892484 -0.1784713 0.10799306 0.3732678 0.019301543 0.20565818
0.25418723 -0.050212547 -0.11225525 0.31687182 0.08375206 0.3020732 -0.039968345 0.08877957
00000000: e0f8 47bc acd4 8cbe fdc7 b0be cbca ad3d
00000010: ce92 68be 9a65 aabe 84c3 8fbd 9841 9b3e
00000020: d3d0 7dbe 65de fc3b b1ab 45be 2bc3 fd3c
00000030: 67eb 663e 50ab 893e a04c fbbd 0b06 a53e
00000040: 7bcc 9bbd 5fa9 933d 450f a03d 5ba1 13be
00000050: de69 5dbe 9ffc 023e 1d29 743e 647e 283e
00000060: 1e35 8b3e 9036 943e ae0c 6c3e 62eb 1dbe
00000070: 0c96 a7be 55d2 6d3e a1bc 19bc f716 a0be
00000080: 7ae1 cdbd c0b1 803e b059 fdbb f1f9 1a3e
00000090: c697 ac3e 1c10 8fbd 5dc5 a2be 1a13 9e3e
000000a0: 6964 b5bb 476d 7e3e f158 2abd 2406 8a3e
000000b0: 5ea5 aa3e 10f0 a93e 1143 62be bed2 2f3e
000000c0: b792 92be 06a7 1abe 1614 223c 2ec1 36be
000000d0: 772b dd3d f51c bf3e 451e 9e3c 0f98 523e
000000e0: d424 823e acab 4dbd 15e6 e5bd 063d a23e
000000f0: 3386 ab3d 57a9 9a3e d9b5 23bd 10d2 b53d

feature_exact.m_encoder.linears.1.bias f4 [8]
-0.18405858 -0.059759777 0.20517072 -0.23641285 -0.19014035 -0.21075471 -0.106503464 -0.048175056
00000000: da79 3cbe abc6 74bd 4618 523e 3616 72be
00000010: 27b4 42be 15d0 57be 7d1e dabd 3553 45bd

feature_exact.m_encoder.linears.2.weight f4 [8, 8]
-0.028182589 -0.045003932 0.2676793 -0.065455236 0.30332386 0.08888261 -0.20927706 -0.34052292
-0.10134603 0.258223 0.2589393 0.2480557 0.1876772 -0.3297337 -0.35356218 0.23120283
0.2183725 0.14547214 -0.26661092 -0.23647384 0.012724987 -0.26716095 -0.08685032 0.17123139
-0.12637585 0.018824974 -0.10988823 0.31656545 0.15504007 0.1523262 0.13508658 0.29655167
0.20446174 -0.036377832 -0.2710303 -0.19318694 0.048647564 -0.23312956 -0.32760262 -0.091524236
0.19305931 0.3516871 0.16023992 -0.06450075 -0.24504174 0.2705063 0.330008 0.09572067
-0.2106805 0.2853367 0.19269715 -0.1916845 -0.26442418 0.21884191 0.1913712 -0.053052425
0.14836767 -0.21148147 0.34551206 -0.21839279 -0.29565933 0.33652493 -0.27116245 0.37773412
00000000: 2cdf e6bc 0b56 38bd 430d 893e 650d 86bd
00000010: 444d 9b3e 1608 b63d ba4c 56be 0559 aebe
00000020: 828e cfbd ce35 843e b193 843e 5002 7e3e
00000030: 742e 403e dbd2 a8be 1a06 b5be 6fc0 6c3e
00000040: 0a9d 5f3e a6f6 143e 3a81 88be 3326 72be
00000050: 777c 503c 52c9 88be 95de b1bd 4857 2f3e
00000060: ac68 01be d536 9a3c 150d e1bd de14 a23e
00000070: d3c2 1e3e 66fb 1b3e 2354 0a3e 9fd5 973e
00000080: 6b5e 513e ec00 15bd 7cc4 8abe ccd2 45be
00000090: ab42 473d 84b9 6ebe 88bb a7be 0f71 bbbd
000000a0: 57b1 453e 5510 b43e ef15 243e f818 84bd
000000b0: 39ec 7abe cd7f 8a3e cff6 a83e 3309 c43d
000000c0: a1bc 57be a717 923e 6752 453e f148 44be
000000d0: 9b62 87be 1818 603e d0f6 433e 804d 59bd
000000e0: b2ed 173e 998e 58be f5e6 b03e 5ca2 5fbe
000000f0: a960 97be ff4c ac3e ced5 8abe 5e66 c13e

feature_exact.m_encoder.linears.2.bias f4 [8]
-0.18010625 -0.087421745 -0.17809246 -0.20589848 -0.19778007 -0.18067597 -0.2407815 0.3153004
00000000: c66d 38be 2c0a b3bd df5d 36be 0dd7 52be
00000010: dc86 4abe 1f03 39be 6d8f 76be 0e6f a13e

feature_exact.j_ln.weight f4 [8]
1.0018097 1.004738 0.99824125 1.011075 1.0389396 1.0044262 1.0260986 1.1174825
00000000: 4d3b 803f 419b 803f bd8c 7f3f e86a 813f
00000010: f9fb 843f 0a91 803f 3357 833f ab09 8f3f

feature_exact.j_ln.bias f4 [8]
0.0010355413 0.009027081 0.00062143884 0.0017430957 0.0014912687 0.011207704 0.022323668 -0.04391817
00000000: 00bb 873a 52e6 133c 0ee8 223a 9678 e43a
00000010: ad76 c33a 85a0 373c 20e0 b63c 8ae3 33bd

feature_exact.m_ln.weight f4 [8]
1.0039251 0.9910495 0.9934177 0.9929457 1.0014927 1.0060749 1.0048687 1.0051063
00000000: 9e80 803f 6cb5 7d3f 9f50 7e3f b031 7e3f
00000010: ea30 803f 10c7 803f 8a9f 803f 53a7 803f

feature_exact.m_ln.bias f4 [8]
-0.0052622096 -0.0064138537 0.004545095 -0.0032967965 -0.009328112 -0.009469512 -0.007832329 0.0057828906
00000000: 9d6e acbb 4e2b d2bb 05ef 943b 110f 58bb
00000010: f0d4 18bc 0326 1bbc 2b53 00bc 677e bd3b

actor.linears.0.weight f4 [64, 40]
-0.019099168 -0.10023039 -0.0039280937 0.009720355 0.16838261 -0.19088121 0.091442026 -0.06885772
0.13835754 0.15543206 0.1290283 -0.11635361 0.09207508 0.07483963 0.046324257 -0.06630602
0.011464484 0.13415056 -0.11301288 0.11104101 0.00056486455 -0.10405021 -0.081864126 -0.18666364
-0.10874797 0.064991236 0.016933335 -0.063684314 -0.08899071 0.0026047598 -0.030011369 0.022933925
-0.05727667 -0.2137685 -0.029630378 0.0054117297 -0.08783729 -0.13545737 -0.07958065 0.050680578
-0.033080567 -0.10182375 0.06361621 -0.07289382 0.13913365 0.11197242 -0.06753112 -0.07319749
0.12166935 0.112293795 0.09570353 -0.042651206 -0.08328904 0.052727118 -0.026522947 0.15613808
-0.027365165 -0.15659498 -0.009152365 0.014128679 0.018876567 0.070591174 -0.072298445 0.07404071
-0.084046625 -0.13122748 -0.0042402823 -0.06085847 -0.028935552 -0.14223036 -0.10192636 -0.059176706
-0.19420457 -0.1638695 -0.08948075 -0.11533306 -0.1489196 -0.19261914 -0.08001851 0.11549981
-0.046296053 -0.048103083 0.08269993 0.049166914 -0.00143469 0.10036971 -0.14114372 0.045042988
-0.0896106 -0.014129715 -0.0840877 -0.13034248 0.021343384 0.122643635 0.07752062 0.04632517
-0.07827148 -0.069131866 0.006285348 0.06220034 -0.05411704 0.07662673 0.0706259 0.032871354
0.0515322 0.07879444 0.08399843 0.10838365 -0.14908846 -0.048145458 -0.120964795 0.15862866
-0.07680202 0.07091554 0.015960427 -0.14174113 0.035585176 0.11966204 0.016749252 0.048645254
0.017795624 0.12450245 0.0948241 -0.09067883 0.13728708 0.011910896 -0.13090472 0.080895655
0.06946856 0.0050964816 0.036665034 -0.05885793 0.0761701 -0.083761655 -0.015098854 -0.054124113
-0.0053595123 0.10833599 -0.06504947 -0.116068445 0.039255157 0.036012407 0.11345669 0.0441607
-0.0012728776 -0.0040637827 -0.049104802 0.042085737 0.032884035 0.028978588 0.10075618 -0.019879363
-0.0077819675 0.021686753 -0.042891342 -0.08380692 0.0996619 -0.017688688 -0.021429965 0.026772005
-0.12539081 0.08631267 -0.07748857 -0.018767014 -0.07966248 0.040364597 -0.081516504 0.1298245
0.022132901 0.061297603 -0.082489796 -0.093029544 -0.1015864 -0.015133399 -0.09119002 -0.05478509
0.13366488 0.12027818 0.052454364 -0.056097373 0.10328532 -0.11568874 -0.116413094 -0.085662745
0.021030443 0.06751442 0.049273368 -0.0788926 -0.092827804 0.17944533 -0.116526514 0.0010552708
0.16077022 0.09720119 -0.09864474 -0.022467429 0.0848627 0.10475222 -0.053724036 -0.07687374
0.0023607404 0.117743276 -0.13715073 -0.11457901 0.13172626 -0.015202631 0.069462836 0.09864636
0.116630174 0.062041767 0.11143236 -0.119863294 0.040240802 0.018041834 0.022627985 0.15164618
-0.0049599726 -0.0038496938 -0.07037087 0.13981919 -0.10402319 -0.04555989 0.037139505 0.010313804
0.10947496 -0.02980119 0.057216886 -0.1724604 0.07609126 -0.054634865 -0.0704258 0.104887344
-0.20645072 -0.15930766 -0.04732341 0.07877559 -0.11599491 0.09052496 -0.18351875 0.09748376
-0.04093214 -0.07188998 0.059158795 0.14927642 0.09773999 0.08359906 -0.057171445 0.07748127
0.082402624 -0.11932307 0.11057678 -0.14110747 0.035946194 0.07544235 0.13770844 0.06486219
00000000: dc75 9cbc 9745 cdbd 3db7 80bb 2042 1f3c
00000010: 7e6c 2c3e 5d76 43be f545 bb3d 4705 8dbd
00000020: 99ad 0d3e 9529 1f3e ff1f 043e cd4a eebd
00000030: dc91 bc3d 8545 993d 81be 3d3d 73cb 87bd
00000040: 88d5 3b3c c45e 093e 4c73 e7bd 7869 e33d
00000050: 6b13 143a 4718 d5bd 61a8 a7bd c124 3fbe
00000060: 41b7 debd 201a 853d c7b7 8a3c ec6c 82bd
00000070: c340 b6bd 9eb4 2a3b 67da f5bc eddf bb3c
00000080: f19a 6abd 21e6 5abe 68bb f2bc e154 b13b
00000090: 09e4 b3bd 56b5 0abe 2efb a2bd 7096 4f3d
000000a0: 7d7f 07bd f888 d0bd 3749 823d 5b49 95bd
000000b0: 0d79 0e3e cc51 e53d c14d 8abd 91e8 95bd
000000c0: c82d f93d 4afa e53d 3600 c43d 08b3 2ebd
000000d0: 7293 aabd 64f8 573d a746 d9bc a9e2 1f3e
000000e0: e92c e0bc 6f5a 20be cdf3 15bc fa7b 673c
000000f0: 08a3 9a3c 1b92 903d 3511 94bd a8a2 973d
00000100: a320 acbd 7f60 06be 11f2 8abb bb46 79bd
00000110: 400a edbc d6a4 11be c4be d0bd 4663 72bd
00000120: 90dd 46be 68cd 27be af41 b7bd bd33 ecbd
00000130: 617e 18be f43d 45be bfe0 a3bd 2a8b ec3d
00000140: eea0 3dbd bd07 45bd 955e a93d 3f63 493d
00000150: 350c bcba a28e cd3d fb87 10be ff7e 383d
00000160: c385 b7bd 5280 67bc 2c36 acbd 8078 05be
00000170: 52d8 ae3c 962c fb3d 21c3 9e3d 76bf 3d3d
00000180: cc4c a0bd 0295 8dbd 52f5 cd3b c9c5 7e3d
00000190: d4a9 5dbd 7aee 9c3d 50a4 903d 1da4 063d
000001a0: 6e13 533d fb5e a13d 5e07 ac3d 3ff8 dd3d
000001b0: a5aa 18be 2c34 45bd 64bc f7bd 8d6f 223e
000001c0: 614a 9dbd 2b3c 913d 71bf 823c 9624 11be
000001d0: c3c1 113d 5f11 f53d ba35 893c 3f40 473d
000001e0: 21c8 913c 24fb fe3d 2333 c23d d3b5 b9bd
000001f0: fc94 0c3e eb25 433c e30b 06be 9fac a53d
00000200: 8845 8e3d 6300 a73b 132e 163d 0315 71bd
00000210: 12ff 9b3d 3b8b abbd 2f61 77bc 3fb1 5dbd
00000220: d99e afbb 42df dd3d a838 85bd 4bb5 edbd
00000230: 04ca 203d bf81 133d fb5b e83d dae1 343d
00000240: afd6 a6ba 7b29 85bb 1e22 49bd 1862 2c3d
00000250: 69b1 063d 8164 ed3c 4259 ce3d 0cda a2bc
00000260: e0ff febb 6ba8 b13c d5ae 2fbd f6a2 abbd
00000270: 8a1b cc3d dee7 90bc e58d afbc f750 db3c
00000280: 7366 00be b2c4 b03d 54b2 9ebd 48bd 99bc
00000290: 1526 a3bd 5955 253d 20f2 a6bd b7f0 043e
000002a0: 0f50 b53c 3213 7b3d 69f0 a8bd 4686 bebd
000002b0: 880c d0bd 13f2 77bc d5c1 babd 5566 60bd
000002c0: 72df 083e 6854 f63d 63da 563d 5cc6 65bd
000002d0: 4187 d33d 38ee ecbd fd69 eebd f36f afbd
000002e0: 0948 ac3c 0045 8a3d dfd2 493d 7292 a1bd
000002f0: 811c bebd 84c0 373e 74a5 eebd 0351 8a3a
00000300: f3a0 243e 6b11 c73d 4106 cabd 9d0d b8bc
00000310: 7fcc ad3d 5588 d63d bc0d 5cbd fb6f 9dbd
00000320: a7b6 1a3b 6323 f13d 3e71 0cbe 66a8 eabd
00000330: 40e3 063e 7514 79bc 8842 8e3d 1a07 ca3d
00000340: cddb ee3d 821f 7e3d a636 e43d e37a f5bd
00000350: 8ad3 243d 78cc 933c 535e b93c 2349 1b3e
00000360: 4487 a2bb 254b 7cbb 9a1e 90bd c32c 0f3e
00000370: 1c0a d5bd 029d 3abd 981f 183d 3bfb 283c
00000380: 6834 e03d a021 f4bc 415c 6a3d 7699 30be
00000390: bcd5 9b3d cfc8 5fbd 673b 90bd 2dcf d63d
000003a0: d167 53be 8c21 23be 31d6 41bd 1955 a13d
000003b0: bd8e edbd 2665 b93d 57ec 3bbe 91a5 c73d
000003c0: 76a8 27bd 0e3b 93bd 7e50 723d ebdb 183e
000003d0: e72b c83d fc35 ab3d 9b2c 6abd 80ae 9e3d
000003e0: b5c2 a83d a75f f4bd 1476 e23d 7a7e 10be
000003f0: 513c 133d 8581 9a3d 7103 0d3e 78d6 843d

actor.linears.0.bias f4 [64]
0.059150957 -0.08791026 0.08507879 -0.088737324 -0.003294471 0.062454786 -0.086423784 0.15493056
-0.0780077 0.03467695 0.18006153 0.019919856 0.09096128 0.09370194 -0.11668784 -0.05009713
0.068119034 -0.026753774 0.0043221293 0.107162975 0.06118221 0.12366576 0.007518957 0.04169293
0.049300916 0.06738267 -0.1158933 -0.020699233 -0.013293549 0.055966206 0.0130239995 0.0042571975
-0.06695872 -0.032135867 0.036856685 -0.030137401 -0.026224667 0.094227344 -0.027491897 -0.1606945
0.11813545 0.090356 -0.04625951 0.05061085 0.02170926 0.053647354 -0.015817365 0.004552265
0.08006208 0.068738416 -0.032408413 0.11785509 0.15194947 -0.070628904 0.08413015 0.13740973
0.032322876 -0.15120809 0.111502066 -0.024707045 0.118834585 -0.13179164 0.04742221 0.0717165
00000000: 4648 723d 4b0a b4bd ca3d ae3d eabb b5bd
00000010: 0de8 57bb 97d0 7f3d f4fe b0bd 1ea6 1e3e
00000020: 80c2 9fbd 6b09 0e3d 0d62 383e f72e a33c
00000030: e849 ba3d cde6 bf3d 09fa eebd a632 4dbd
00000040: fe81 8b3d bb2a dbbc a6a0 8d3b 4378 db3d
00000050: 329a 7a3d 7944 fd3d 9561 f63b 35c6 2a3d
00000060: c2ef 493d edff 893d 7759 edbd 7091 a9bc
00000070: 30cd 59bc d23c 653d 9d62 553c f67f 8b3b
00000080: a721 89bd e6a0 03bd 09f7 163d b6e2 f6bc
00000090: 1dd5 d6bc 44fa c03d b036 e1bc 198d 24be
000000a0: 00f1 f13d 910c b93d 9d7a 3dbd 534d 4f3d
000000b0: 9ed7 b13c 54bd 5b3d 6b93 81bc 2b2b 953b
000000c0: 96f7 a33d bac6 8c3d afbe 04bd 025e f13d
000000d0: a498 1b3e e3a5 90bd 6e4c ac3d 23b5 0c3e
000000e0: fe64 043d 4bd6 1abe 325b e43d 6e66 cabc
000000f0: 8c5f f33d 63f4 06be cb3d 423d 1ae0 923d

actor.linears.1.weight f4 [64, 64]
-0.09542466 -0.012558933 -0.030554527 0.047574565 0.112575695 -0.02759265 0.03649365 0.014759141
0.0872594 0.12411693 0.025898773 -0.07593682 -0.14209306 -0.06316165 0.014619297 0.091558225
0.1363353 -0.09560628 -0.15075257 0.17026006 0.058674064 -0.045827612 0.093385614 0.06866188
0.0436778 0.08269671 0.1457235 -0.00016411282 0.052161187 -0.080566235 0.17019306 -0.12656657
0.038429298 0.0053601814 0.05589182 0.15830164 0.03997781 0.022006795 0.09781758 0.01230797
0.050766923 0.008821399 -0.015034205 -0.0053456593 -0.039140724 -0.12051746 -0.016314777 -0.1024094
-0.14079753 0.049326137 0.13494173 -0.052521247 -0.15417464 -0.12938757 0.019688778 0.0465773
-0.03408365 -0.011711321 0.12374245 -0.097960986 -0.06280145 0.01149495 -0.07316796 -0.096884206
0.10050129 0.01874028 -0.032913785 -0.07455559 -0.031560745 0.063539796 0.08027323 0.13848251
-0.13220511 0.022254588 0.18397552 -0.015753044 0.017709002 -0.0024911633 -0.06778257 -0.10889042
0.031069687 0.091228016 0.064210154 -0.1774316 0.042035915 -0.12827794 0.0018027442 -0.07318169
0.09680466 0.07460212 0.011800547 0.033422776 0.04821369 0.002236549 0.05863049 0.08185498
-0.02862204 -0.18989022 0.023977686 0.004809892 -0.062715 -0.011327753 0.00117835 -0.024816543
-0.072383285 -0.11331501 -0.029566757 -0.05616463 0.080775514 0.13137881 -0.058394797 -0.06163449
0.1602184 0.14064352 -0.115024686 0.0988878 0.16857788 0.08313649 -0.06563363 0.104024336
0.074375525 -0.10444142 -0.031344723 -0.031062897 -0.07060305 -0.04503223 0.1213304 0.14659506
0.0937521 -0.051778212 0.093557484 -0.10535854 0.020954434 0.1284 0.083818346 -0.05796779
0.021519497 0.015360553 -0.01164534 -0.038075935 0.02441074 -0.11176707 0.047013465 0.056882333
-0.05963677 -0.051377136 0.124262996 0.06381732 0.08817248 0.07093089 -0.004048545 0.08031218
0.084975615 0.09099553 -0.17077869 -0.0052266186 -0.05235073 0.10354321 0.028815756 -0.070787966
0.0017285923 0.035478935 0.12532392 -0.09682889 -0.108617365 0.07378395 -0.04248887 0.041293006
-0.07142067 -0.13369015 -0.06721265 0.13807194 -0.085737966 -0.01702799 0.101285145 -0.034368027
0.018355351 -0.025828749 -0.030291667 0.047067296 0.16331047 0.14435452 0.017340105 -0.11072251
-0.062283956 -0.13893646 -0.008928557 -0.026790282 -0.06461274 0.07170059 0.0077272453 0.0416273
0.0014293824 -0.08431669 -0.00812332 0.07914273 -0.072198935 -0.032862447 -0.08623508 -0.1599705
-0.054895688 0.11096076 -0.16365051 -0.11326179 -0.089129604 0.103699476 0.022387248 0.057142485
0.01874188 -0.09431141 -0.11018718 -0.035226375 -0.055591963 0.038983535 0.08770459 0.021615082
0.115665615 0.060133386 0.061832845 -0.03257854 -0.05869581 0.017671816 0.02112285 0.0007546129
0.11064933 0.0037279103 0.033818282 0.111968204 0.04200896 -0.054648634 -0.01548984 0.061302222
-0.09800919 -0.00199344 0.072803915 -0.121103 0.094883256 0.096836306 -0.088360615 -0.10160852
-0.13293847 0.050640214 -0.037396044 -0.17523207 -0.17375924 -0.06647509 0.12163757 0.13492711
0.0020500135 -0.104750074 -0.0057423078 0.056674547 -0.00072880543 -0.14425053 -0.09533931 -0.09083192
00000000: 016e c3bd fcc3 4dbc 7d4d fabc 8cdd 423d
00000010: 168e e63d fb09 e2bc 5e7a 153d 53d0 713c
00000020: 0eb5 b23d 0431 fe3d aa29 d43c c384 9bbd
00000030: d880 11be e55a 81bd c785 6f3c e182 bb3d
00000040: 7b9b 0b3e 3acd c3bd e25e 1abe a758 2e3e
00000050: 3754 703d bcb5 3bbd f540 bf3d 9a9e 8c3d
00000060: 7ee7 323d e55c a93d 8b38 153e b315 2cb9
00000070: f8a6 553d e9ff a4bd 1747 2e3e ab9a 01be
00000080: 0a68 1d3d 76a4 af3b d2ee 643d d319 223e
00000090: c6bf 233d 9847 b43c 9554 c83d 5ea7 493c
000000a0: faf0 4f3d a187 103c 0752 76bc a42a afbb
000000b0: 0652 20bd dcd1 f6bd 91a6 85bc 05bc d1bd
000000c0: 3a2d 10be 340a 4a3d 2a2e 0a3e 8520 57bd
000000d0: f5df 1dbe 2d7e 04be 5c4a a13c d7c7 3e3d
000000e0: 4c9b 0bbd d7e0 3fbc ae6c fd3d c59f c8bd
000000f0: 0c9e 80bd 5155 3c3c 15d9 95bd 3a6b c6bd
00000100: 9fd3 cd3d 3785 993c 9bd0 06bd 9ab0 98bd
00000110: d745 01bd 2721 823d 4b66 a43d 5cce 0d3e
00000120: c760 07be 414f b63c 1464 3c3e 870c 81bc
00000130: 7812 913c c942 23bb 97d1 8abd f101 dfbd
00000140: db85 fe3c c1d5 ba3d 9d80 833d a1b0 35be
00000150: da2d 2c3d 4b5b 03be 0f4a ec3a 48e0 95bd
00000160: 8641 c63d ffc8 983d 1557 413c 52e6 083d
00000170: b87b 453d 1193 123b 8626 703d 95a3 a73d
00000180: c578 eabc 9572 42be da6c c43c 4c9c 9d3b
00000190: b970 80bd 0a98 39bc dd72 9a3a 104c cbbc
000001a0: b03d 94bd b311 e8bd fc35 f2bc e20c 66bd
000001b0: a26d a53d 2b88 063e 622f 6fbd 7274 7cbd
000001c0: 4b10 243e db04 103e 1092 ebbd b085 ca3d
000001d0: ae9f 2c3e 7743 aa3d ed6a 86bd b60a d53d
000001e0: 3252 983d 62e5 d5bd 5363 00bd 9e77 febc
000001f0: 5598 90bd b773 38bd 137c f83d 041d 163e
00000200: 1a01 c03d 6415 54bd 119b bf3d 38c6 d7bd
00000210: a2a8 ab3c 4a7b 033e f4a8 ab3d a26f 6dbd
00000220: a849 b03c d4aa 7b3c 19cc 3ebc 83f5 1bbd
00000230: 08f9 c73c 22e6 e4bd 3191 403d 73fd 683d
00000240: b045 74bd d570 52bd 997d fe3d a8b2 823d
00000250: c693 b43d 3744 913d a8a9 84bb b67a a43d
00000260: b207 ae3d dd5b ba3d 9ce0 2ebe 0e44 abbb
00000270: b86d 56bd 760e d43d 050f ec3c 48f9 90bd
00000280: ef91 e23a 5c52 113d ea54 003e 3a4e c6bd
00000290: c872 debd 0a1c 973d cf08 2ebd db22 293d
000002a0: 0045 92bd 12e6 08be c9a6 89bd bb62 0d3e
000002b0: 6397 afbd 497e 8bbc 966e cf3d 7dc5 0cbd
000002c0: f65d 963c d096 d3bc 3b26 f8bc a3c9 403d
000002d0: dc3a 273e acd1 133e d60c 8e3c 7cc2 e2bd
000002e0: 761d 7fbd 5c45 0ebe 1549 12bc 4b77 dbbc
000002f0: af53 84bd c2d7 923d d534 fd3b 6381 2a3d
00000300: 1d5a bb3a 3bae acbd ac17 05bc 9515 a23d
00000310: 09dd 93bd c69a 06bd 059c b0bd 4fcf 23be
00000320: 4dda 60bd 653f e33d 0094 27be ccf5 e7bd
00000330: 9589 b6bd 6460 d43d 7665 b73c 3d0e 6a3d
00000340: 9288 993c 5726 c1bd d1a9 e1bd 8849 10bd
00000350: 66b4 63bd 33ad 1f3d 779e b33d 1d12 b13c
00000360: 18e2 ec3d 6d4e 763d 7044 7d3d 1371 05bd
00000370: 056b 70bd 7cc4 903c d409 ad3c 37d1 453a
00000380: 1e9c e23d f54f 743b 0a85 0a3d 964f e53d
00000390: 9611 2c3d 3fd7 5fbd 19c9 7dbc 0a18 7b3d
000003a0: 0bb9 c8bd 60a4 02bb 381a 953d da04 f8bd
000003b0: 2752 c23d 1d52 c63d 69f6 b4bd 2118 d0bd
000003c0: 0621 08be 1d6c 4f3d 982c 19bd 0970 33be
000003d0: f1ed 31be 1824 88bd 1e1d f93d 552a 0a3e
000003e0: 8559 063b 3587 d6bd f829 bcbb 9223 683d
000003f0: 4e0d 3fba 69b6 13be 4241 c3bd 1606 babd

actor.linears.1.bias f4 [64]
-0.0719286 0.13572109 0.02992834 -0.0020435213 0.009238236 -0.13687076 -0.079326265 -0.0580609
-0.026026867 0.08509997 0.04598739 0.058118783 -0.011237602 -0.020442912 -0.095610335 0.004852743
-0.006025592 -0.04553023 -0.1046583 0.00989994 0.030045962 -0.09323434 0.09198804 -0.10823278
0.1429438 0.0070104925 0.031090466 -0.021747062 -0.010260045 -0.008069936 -0.063727245 0.05314615
-0.0408973 -0.028705414 0.092753254 -0.092727885 0.038984187 0.009983052 0.040702555 -0.054871988
0.038770393 0.14518678 0.029965874 0.14236309 0.063123144 -0.057083927 0.015382061 -0.06488518
0.088276654 -0.0033075311 -0.081746615 0.015303935 -0.14913838 0.04499252 -0.07784194 0.099222675
-0.032293927 -0.11463961 0.1220047 -0.09084015 0.04173368 -0.019072387 -0.010068137 0.05901764
00000000: 4d4f 93bd 78fa 0a3e 472c f53c 99ec 05bb
00000010: f85b 173c d927 0cbe cf75 a2bd 44d1 6dbd
00000020: 4c36 d5bc e548 ae3d 465d 3c3d f60d 6e3d
00000030: eb1d 38bc e577 a7bc 5acf c3bd c203 9f3b
00000040: 5472 c5bb e87d 3abd 1757 d6bd 5c33 223c
00000050: f322 f63c a5f1 bebd 3a64 bc3d 26a9 ddbd
00000060: dc5f 123e 46b8 e53b 6fb1 fe3c e526 b2bc
00000070: bf19 28bc c437 04bc 6e83 82bd c7af 593d
00000080: ed83 27bd 9e27 ebbc 6bf5 bd3d 1ee8 bdbd
00000090: e2ad 1f3d f48f 233c b9b7 263d 73c1 60bd
000000a0: b4cd 1e3d d8ab 143e fe7a f53c a1c7 113e
000000b0: b546 813d d6d0 69bd 0a05 7c3c 85e2 84bd
000000c0: 64ca b43d 2ac3 58bb c56a a7bd 5bbd 7a3c
000000d0: bbb7 18be 144a 383d 986b 9fbd 4235 cb3d
000000e0: a346 04bd 2cc8 eabd 9add f93d 670a babd
000000f0: eff0 2a3d b23d 9cbc d4f4 24bc 7bbc 713d

actor.linears.2.weight f4 [1, 64]
-0.09146711 0.06838256 0.101308644 -0.1195845 0.115561344 0.08094687 -0.17309523 -0.15829551
-0.18017593 0.12074504 -0.14787662 -0.070507385 -0.17508547 0.10351276 -0.0506827 -0.09526086
0.13024428 0.111803725 -0.13787839 0.07289682 0.13848911 -0.09078117 -0.17584653 -0.094255604
0.14088753 -0.06639266 -0.16265444 -0.06931764 0.12220167 -0.09090654 0.105596796 0.1538857
-0.10162164 -0.12445095 -0.14342666 -0.10229201 0.14379886 -0.077048466 -0.07449062 -0.054915868
-0.12644324 0.15243931 0.17423046 0.08284571 -0.17154378 -0.090861 0.15637176 0.087911695
0.09696061 0.14488196 0.08110049 0.13106638 -0.06764545 -0.13554585 -0.15869519 -0.085479245
0.05850612 -0.044432644 0.17323701 0.1725747 0.10218877 -0.11199392 -0.093772724 0.13450842
00000000: 1c53 bbbd 280c 8c3d e87a cf3d b8e8 f4bd
00000010: 6dab ec3d 79c7 a53d e03f 31be 3818 22be
00000020: 0a80 38be 2d49 f73d f86c 17be 2d66 90bd
00000030: 9b49 33be 7ffe d33d aa98 4fbd 2018 c3bd
00000040: c25e 053e 5af9 e43d fe2f 0dbe ee4a 953d
00000050: 17d0 0d3e 7aeb b9bd 1d11 34be 1509 c1bd
00000060: d244 103e e0f8 87bd e38e 26be 68f6 8dbd
00000070: df44 fa3d 352d babd 2243 d83d 3794 1d3e
00000080: 021f d0bd 24e0 febd 70de 12be 797e d1bd
00000090: 0240 133e 96cb 9dbd 8a8e 98bd 76ef 60bd
000000a0: 567a 01be 0d19 1c3e 7869 323e 03ab a93d
000000b0: 2ca9 2fbe 5515 babd eb1f 203e 0c0b b43d
000000c0: 4993 c63d f05b 143e 0418 a63d 4436 063e
000000d0: b389 8abd 88cc 0abe fe80 22be be0f afbd
000000e0: 1da4 6f3d 01ff 35bd 0b65 313e 6cb7 303e
000000f0: 5948 d13d 115d e5bd ea0b c0bd 93bc 093e

critic.linears.0.weight f4 [64, 16]
-0.06650502 0.023435108 -0.244194 -0.118510365 -0.021919008 -0.0007181673 0.0387006 -0.24873039
0.009741431 0.23303623 -0.23546495 -0.14218964 0.06940569 -0.17787723 -0.13967669 -0.20436391
-0.13000388 0.10355923 0.1361747 0.031927187 0.15581845 0.24075381 -0.0436923 0.052657396
0.028289672 -0.22375564 0.13370788 -0.008446321 0.054109003 -0.24875832 -0.20838147 -0.124779396
-0.1822673 -0.14690624 -0.22224854 0.18518797 -0.24022502 0.15201011 -0.14822319 -0.17774093
0.14220762 0.024247244 -0.10671629 0.0007047104 0.08261305 0.07343709 -0.013798058 -0.018004049
0.0088727195 -0.22284839 0.12257841 0.035827328 -0.12955137 0.1855901 0.19361454 -0.021729523
0.11555447 -0.22742482 -0.13207777 -0.22290115 -0.052893244 0.20283684 -0.1640228 -0.061793234
-0.12953088 0.16691618 0.22042046 0.09668178 0.23080023 -0.09062485 0.07498115 0.0049992288
0.09127309 0.10197792 0.04075309 0.18659662 0.14950438 -0.10564853 -0.2450105 0.099147
-0.02117331 0.21846311 -0.05768311 0.085824855 -0.15053788 0.13869308 -0.04122414 -0.19212258
0.1080213 0.1715413 -0.1901311 0.076558016 -0.1919646 0.1813224 -0.14911292 -0.05051396
0.22215572 -0.106692 -0.23334162 0.01303953 0.1803392 0.094529286 -0.17001478 0.07043856
0.1423343 0.096354544 -0.24556948 -0.0808031 -0.03480015 -0.1709914 0.20782976 -0.17482422
-0.03445108 0.2286572 0.043187715 -0.19404759 -0.16054551 0.14396551 -0.010403877 0.084921226
0.09508489 -0.2396392 0.16476272 0.041063473 0.24594918 0.064328514 0.11965503 0.15088059
0.0003040467 0.08746942 0.013032735 -0.18924212 0.1214685 0.08913263 -0.013276956 -0.12865235
0.24703616 0.19699065 0.03017118 0.096838 -0.2080067 -0.001286909 0.18818474 0.15021317
0.095098644 -0.11911566 -0.20746504 -0.03150541 0.091785334 0.09809536 -0.09290299 -0.26149184
0.13722064 -0.23881418 -0.23145117 0.09319709 -0.13716197 -0.23431697 0.1552653 -0.16356094
-0.040825527 0.021162907 0.123668976 -0.12604226 -0.079067744 0.072873324 -0.17568113 0.13360544
-0.08484024 0.1255 -0.19319475 -0.1608975 -0.07923236 -0.012944811 0.19677866 0.09995342
-0.13906433 -0.17045242 -0.12632383 0.07602743 0.22210537 0.22683905 -0.1680631 -0.016643396
-0.058189873 0.11696803 -0.08794219 0.06414483 0.05028768 -0.0056072404 0.20147602 -0.21721682
0.020193374 0.061563116 -0.25728095 -0.04793897 0.029439433 0.12002244 0.0545302 0.06421613
-0.103116095 -0.033483043 -0.164589 0.24876992 -0.067454174 -0.21181348 0.08560418 -0.061821602
-0.22038063 0.20335542 -0.08545697 -0.012069825 0.2374151 0.00659708 -0.19900674 -0.2625214
-0.15570267 0.23326036 -0.16392964 -0.08847212 0.15496324 -0.019806776 0.10402052 -0.10295961
-0.21945457 0.020430101 -0.053807437 0.18827477 0.15375227 0.021613415 -0.09757809 0.19834062
0.23300838 -0.06476659 0.23851767 -0.21282119 -0.05150173 0.16994867 0.092922166 -0.018492687
-0.22219509 -0.13140915 0.11149747 0.21158503 -0.006135358 0.1678205 0.2124642 -0.13245806
-0.2127259 -0.082922 0.12642574 -0.08703538 0.23528047 0.102735184 0.01907815 -0.09790543
00000000: c933 88bd fcfa bf3c fe0d 7abe 90b5 f2bd
00000010: 7e8f b3bc 6443 3cba 8584 1e3d 2eb3 7ebe
00000020: 869a 1f3c 0da1 6e3e b91d 71be 299a 11be
00000030: 9224 8e3d 7325 36be 6807 0fbe c644 51be
00000040: bd1f 05be dd16 d43d 6171 0b3e 15c6 023d
00000050: df8e 1f3e 2b88 763e b2f6 32bd 48af 573d
00000060: bebf e73c 3320 65be b8ea 083e 7062 0abc
00000070: 67a1 5d3d 80ba 7ebe f461 55be 578c ffbd
00000080: 47a4 3abe 976e 16be 1f95 63be eaa1 3d3e
00000090: 8cfd 75be 8aa8 1b3e d2c7 17be b801 36be
000000a0: e09e 113e 28a2 c63c 128e dabd 50bc 383a
000000b0: 0831 a93d 2f66 963d 4011 62bc 3a7d 93bc
000000c0: e25e 113c 5e32 64be 640a fb3d adbf 123d
000000d0: 1da9 04be 550b 3e3e e442 463e 1d02 b2bc
000000e0: d2a7 ec3d 0de2 68be 653f 07be 3340 64be
000000f0: 96a6 58bd 76b4 4f3e 98f5 27be e71a 7dbd
00000100: bea3 04be 13ec 2a3e e7b5 613e 1901 c63d
00000110: e556 6c3e 8599 b9bd b88f 993d 92d0 a33b
00000120: 63ed ba3d cdd9 d03d b6ec 263d 2f13 3f3e
00000130: ad17 193e 425e d8bd 08e4 7abe 950d cb3d
00000140: a673 adbc cbb4 5f3e 2045 6cbd f1c4 af3d
00000150: 9a26 1abe 8f05 0e3e a5da 28bd c8bb 44be
00000160: 453a dd3d 86a8 2f3e bab1 42be 73ca 9c3d
00000170: 5e92 44be 94ac 393e 0fb1 18be bae7 4ebd
00000180: ca7c 633e 5681 dabd 1bf1 6ebe c1a3 553c
00000190: d7aa 383e 9298 c13d 5b18 2ebe 1742 903d
000001a0: 15c0 113e 8855 c53d 9176 7bbe 187c a5bd
000001b0: 9a8a 0ebd 5f18 2fbe 53d1 543e 1f05 33be
000001c0: 931c 0dbd 1d25 6a3e 9ae5 303d 69b4 46be
000001d0: 0b66 24be b26b 133e 0675 2abc 2eeb ad3d
000001e0: debb c23d fa63 75be 8fb7 283e 2c32 283d
000001f0: 1ada 7b3e abbe 833d b20d f53d 7180 1a3e
00000200: 7568 9f39 2b23 b33d 4187 553c b0c8 41be
00000210: 7ac4 f83d 2b8b b63d 9787 59bc 71bd 03be
00000220: 0cf7 7c3e ebb7 493e 8d29 f73c 0053 c63d
00000230: b5ff 54be 80ad a8ba 80b3 403e 7bd1 193e
00000240: 14c3 c23d e9f2 f3bd b771 54be d10b 01bd
00000250: f3f9 bb3d 38e6 c83d ec43 bebd 42e2 85be
00000260: 9183 0c3e b48b 74be 8901 6dbe 1ede be3d
00000270: 3074 0cbe caf0 6fbe defd 1e3e 857c 27be
00000280: ab38 27bd d55d ad3c 2946 fd3d 3911 01be
00000290: 45ee a1bd 9c3e 953d c1e5 33be ddcf 083e
000002a0: b8c0 adbd 1283 003e d8d4 45be 50c2 24be
000002b0: 9344 a2bd 7916 54bc 5880 493e 61b4 cc3d
000002c0: e166 0ebe 148b 2ebe 095b 01be 45b4 9b3d
000002d0: 976f 633e 7f48 683e bc18 2cbe bb57 88bc
000002e0: 8158 6ebd ef8c ef3d 091b b4bd 5d5e 833d
000002f0: 74fa 4d3d f1bc b7bb bb4f 4e3e 166e 5ebe
00000300: 936c a53c 9b29 7c3d 54ba 83be a75b 44bd
00000310: f72a f13c 53ce f53d 0f5b 5f3d bf83 833d
00000320: 882e d3bd 8425 09bd 058a 28be 8bbd 7e3e
00000330: 6a25 8abd a2e5 58be 3f51 af3d a638 7dbd
00000340: 76ab 61be 673c 503e 1004 afbd 84c0 45bc
00000350: f21c 733e 512c d83b 6cc8 4bbe 3469 86be
00000360: 8570 1fbe cedb 6e3e 2cdd 27be df30 b5bd
00000370: afae 1e3e d241 a2bc b608 d53d 7ddc d2bd
00000380: b3b8 60be 075d a73c 3065 5cbd 1acb 403e
00000390: 3c71 1d3e 9e0e b13c 06d7 c7bd ce19 4b3e
000003a0: c099 6e3e 59a4 84bd fa3d 743e cced 59be
000003b0: 7af3 52bd 0607 2e3e fa4d be3d fa7d 97bc
000003c0: 1c87 63be 1f90 06be c958 e43d bfa9 583e
000003d0: 1d0b c9bb 23d9 2b3e 3790 593e 16a3 07be
000003e0: d1d4 59be 02d3 a9bd c075 013e 9b3f b2bd
000003f0: 5ded 703e d366 d23d c849 9c3c a482 c8bd

critic.linears.0.bias f4 [64]
-0.15480411 0.14851584 0.1208123 -0.0628509 0.17112665 0.093344815 0.0036872567 -0.2303517
0.20297639 0.042080488 -0.20244966 0.19905911 0.08832703 0.037148453 0.10066696 0.18286987
0.00418469 0.18514793 -0.01752454 0.12026524 0.15182342 -0.12802173 0.08487366 0.13243768
0.22904009 0.21938606 -0.046533328 -0.22173625 -0.19847612 0.013557362 0.009812358 -0.05318858
0.19364178 -0.20688899 0.2584994 -0.24252635 -0.11777917 -0.06628084 -0.1321364 0.14852248
-0.09709337 0.0697507 0.2023297 0.033218395 -0.15155308 -0.16788706 -0.043299872 -0.022089498
0.031115942 0.103929594 -0.030656978 -0.055972975 -0.08365359 0.046137933 0.037692856 0.14446963
-0.00419799 0.1596174 -0.18242134 0.0054253805 0.19449615 -0.026664425 -0.21502766 -0.17858025
00000000: f884 1ebe 8914 183e 706c f73d f9b7 80bd
00000010: d33b 2f3e 912b bf3d e7a5 713b 51e1 6bbe
00000020: 0bd9 4f3e 975c 2c3d f74e 4fbe 27d6 4b3e
00000030: cde4 b43d fa28 183d 7b2a ce3d 3d42 3b3e
00000040: b91f 893b 6b97 3d3e a08f 8fbc 9f4d f63d
00000050: 9977 1b3e 2118 03be 3ed2 ad3d be9d 073e
00000060: 7c89 6a3e bda6 603e bb99 3ebd d40e 63be
00000070: 533d 4bbe b31f 5e3c 03c4 203c 45dc 59bd
00000080: 084a 463e b5da 53be 095a 843e d458 78be
00000090: 3536 f1bd 40be 87bd c44e 07be 4716 183e
000000a0: e4d8 c6bd 74d9 8e3d 842f 4f3e 0310 083d
000000b0: bb30 1bbe 96ea 2bbe 355b 31bd 09f5 b4bc
000000c0: dce6 fe3c 0ad9 d43d 5824 fbbc eb43 65bd
000000d0: 9352 abbd 21fb 3c3d d363 1a3d d9ef 133e
000000e0: 4b8f 89bb be72 233e a9cc 3abe 64c7 b13b
000000f0: 002a 473e 5a6f dabc 3630 5cbe bedd 36be

critic.linears.1.weight f4 [64, 64]
0.017379055 0.04222412 -0.062026273 0.07956053 -0.05681232 -0.019179748 0.052270886 -0.015347563
-0.0063861413 -0.013471195 -0.06922471 -0.07364258 0.11815489 -0.08162874 -0.12226732 0.036430404
-0.005804699 0.11692162 0.06869375 0.060054146 -0.0859216 0.005839628 0.040490042 0.03832076
0.058478147 0.012729725 -0.041346826 -0.084094696 0.0964342 0.1172301 0.10681817 0.06694829
0.13160107 -0.093476065 0.11324964 -0.04585106 0.08056465 0.10268017 0.0666372 -0.10633509
-0.0465477 -0.042403623 -0.14607029 0.01843489 -0.077723704 -0.01953622 -0.09031482 0.044538554
0.08652854 -0.13205987 0.114039645 -0.06788256 0.024427185 0.11061964 0.04862746 0.09144385
-0.10965141 -0.09674266 0.12593214 0.01171334 0.11040736 0.07248729 0.081785604 0.06573406
0.107925266 0.06337029 0.034011826 -0.07562751 0.068506524 0.13476534 -0.0019332293 0.12287176
0.112815306 4.7018675e-05 -0.12294436 0.0805332 0.0819963 -0.018495748 -0.10490137 -0.124056816
0.07641824 -0.08699344 -0.10355518 -0.12913036 0.05594588 -0.061783545 -0.07736356 -0.08702541
-0.03367526 -0.052043833 0.035652865 -0.07989328 -0.1221344 0.11026605 -0.035311915 -0.08155375
0.1001628 -0.14260814 0.08457708 -0.018500071 -0.08042075 -0.095974095 0.07307755 0.113513336
0.059865776 0.026973633 -0.14259438 0.0010858983 -0.09719297 0.008707444 -0.104540795 0.116788544
-0.12002869 -0.11019911 0.0060606687 0.06697803 -0.09078496 0.023761613 -0.09819227 0.02717307
0.083947346 -0.085183755 -0.030144446 -0.03489718 -0.060078677 0.11301549 0.024953876 0.04758533
0.0014303201 0.09963313 -0.008340922 0.15529066 0.014982234 0.11374683 -0.043402947 0.035180517
0.0299987 0.09111871 -0.05628944 0.081044234 -0.06261633 0.090492204 -0.13901024 -0.048639935
-0.09653788 0.09006377 -0.062352683 0.028537704 -0.08567925 -0.051292907 -0.058879167 0.0888656
-0.07954932 0.053655535 0.12409853 -0.041696325 0.14252146 -0.022824287 0.09074542 0.08632338
0.06242533 -0.16526172 -0.06274682 -0.051536273 -0.007437384 0.12099764 -0.06727596 -0.10629533
-0.05790677 -0.08276809 -0.1341636 -0.005344895 0.020046243 -0.11402094 -0.014472003 0.02131748
-0.040416893 0.092338584 -0.02159542 0.09548564 -0.033437997 -0.124694765 0.050497577 -3.7420345e-05
0.03009055 -0.0009802985 0.1368203 -0.027853508 -0.089061834 0.0950189 0.016235128 0.079257384
-0.030283418 -0.03163469 -0.006226719 0.04452688 0.008730049 -0.031217255 0.09223059 0.07128774
0.03975173 -0.0783571 0.11106067 -0.020779183 -0.039118864 0.110257976 0.031216264 -0.035777792
0.0102994805 0.05015091 -0.112970516 -0.029195605 0.102038294 -0.03631683 0.05864847 0.08044154
0.030698257 -0.094552845 0.09227464 -0.039436184 0.051649004 -0.06871465 0.015303096 -0.106445126
0.029514221 -0.019535847 -0.07128243 0.05795272 -0.07232079 0.00395585 -0.06045981 -0.08819517
-0.101648405 -0.051266912 -0.10297624 0.06808126 0.021202965 -0.0893794 0.09735601 0.09432954
-0.00093693915 -0.049658626 0.075258665 0.13363513 -0.08428615 -0.045388542 -0.029888552 0.12131044
0.08325234 0.13469802 -0.11080946 -0.11801036 -0.111514784 0.017914714 -0.10660905 -0.07031877
00000000: 855e 8e3c 33f3 2c3d 430f 7ebd a2f0 a23d
00000010: 09b4 68bd d91e 9dbc ff19 563d 5874 7bbc
00000020: d642 d1bb 49b6 5cbc afc5 8dbd ecd1 96bd
00000030: 31fb f13d f82c a7bd 4a67 fabd 0c38 153d
00000040: 5835 bebb 9a74 ef3d 4faf 8c3d 56fb 753d
00000050: aaf7 afbd 5a5a bf3b e3d8 253d 3bf6 1c3d
00000060: c886 6f3d 5690 503c 4a5b 29bd d739 acbd
00000070: 4b7f c53d 5616 f03d 7cc3 da3d 2f1c 893d
00000080: 6ec2 063e 6170 bfbd 6def e73d 52ce 3bbd
00000090: 14ff a43d fb49 d23d 1679 883d 36c6 d9bd
000000a0: cda8 3ebd 6caf 2dbd 7393 15be c404 973c
000000b0: 9b2d 9fbd 6c0a a0bc faf6 b8bd 0f6e 363d
000000c0: e035 b13d b43a 07be 9e8d e93d 0306 8bbd
000000d0: 851b c83c 8d8c e23d 962d 473d ea46 bb3d
000000e0: eb90 e0bd 0421 c6bd 5bf4 003e 4fe9 3f3c
000000f0: 411d e23d 3774 943d 367f a73d 949f 863d
00000100: ec07 dd3d 48c8 813d fc4f 0b3d 99e2 9abd
00000110: 264d 8c3d edff 093e 6964 fdba 30a4 fb3d
00000120: b60b e73d eb35 4538 41ca fbbd 97ee a43d
00000130: aded a73d 6584 97bc 88d6 d6bd 8011 febd
00000140: 2b81 9c3d 9e29 b2bd bd14 d4bd c03a 04be
00000150: 8227 653d be10 7dbd c970 9ebd 613a b2bd
00000160: 12ef 09bd ea2b 55bd bd08 123d 179f a3bd
00000170: 9a21 fabd 2bd3 e13d 3aa3 10bd a705 a7bd
00000180: 2722 cd3d de07 12be c036 ad3d 768d 97bc
00000190: a2b3 a4bd 118e c4bd afa9 953d ae79 e83d
000001a0: d135 753d cff7 dc3c 4304 12be b354 8e3a
000001b0: 1c0d c7bd aba9 0e3c 7c19 d6bd d52e ef3d
000001c0: 9ad1 f5bd 12b0 e1bd 9398 c63b c72b 893d
000001d0: 77ed b9bd b7a7 c23c 0719 c9bd 0f9a de3c
000001e0: 96ec ab3d d274 aebd 7cf1 f6bc 58f0 0ebd
000001f0: 0f15 76bd aa74 e73d 126c cc3c d6e8 423d
00000200: 9479 bb3a 740c cc3d 5da8 08bc 8404 1f3e
00000210: 0b78 753c 19f4 e83d 4ac7 31bd 7219 103d
00000220: d5bf f53c 729c ba3d c18f 66bd 85fa a53d
00000230: fe3c 80bd fa53 b93d b358 0ebe ab3a 47bd
00000240: a7b5 c5bd 5b73 b83d 8765 7fbd e7c7 e93c
00000250: 9a78 afbd 8318 52bd 482b 71bd 2bff b53d
00000260: c1ea a2bd e8c5 5b3d 5f27 fe3d c4c9 2abd
00000270: 25f1 113e 00fa babc bcd8 b93d 50ca b03d
00000280: b4b1 7f3d 5e3a 29be 6881 80bd b317 53bd
00000290: 4db5 f3bb 9ccd f73d fbc7 89bd 5eb1 d9bd
000002a0: a62f 6dbd 5182 a9bd 2f62 09be 3b24 afbb
000002b0: 0538 a43c d083 e9bd fb1b 6dbc ffa1 ae3c
000002c0: 2f8c 25bd 031c bd3d e1e8 b0bc fa8d c33d
000002d0: 48f6 08bd f85f ffbd 8cd6 4e3d caf3 1cb8
000002e0: 7580 f63c 5c7d 80ba 9f1a 0c3e 0a2d e4bc
000002f0: 0d66 b6bd 4599 c23d 88ff 843c b251 a23d
00000300: ee14 f8bc 6093 01bd 8109 ccbb d161 363d
00000310: 7b08 0f3c 54bb ffbc 64e3 bc3d 4eff 913d
00000320: b6d2 223d b079 a0bd c773 e33d 1b39 aabc
00000330: 1a3b 20bd efce e13d 40b9 ff3c bc8b 12bd
00000340: 27bf 283c 0a6b 4d3d 165d e7bd 9f2b efbc
00000350: 74f9 d03d f5c0 14bd 6139 703d 89be a43d
00000360: e97a fb3c eca4 c1bd 7dfa bc3d d687 21bd
00000370: e88d 533d 44ba 8cbd d6b9 7a3c e7ff d9bd
00000380: cfc7 f13c a409 a0bc 86fc 91bd d55f 6d3d
00000390: ec1c 94bd 13a0 813b b5a4 77bd ab9f b4bd
000003a0: 0a2d d0bd 41fd 51bd 35e5 d2bd 306e 8b3d
000003b0: d7b1 ad3c 8c0c b7bd 9662 c73d d92f c13d
000003c0: ec9c 75ba d866 4bbd 3721 9a3d a6d7 083e
000003d0: 389e acbd 56e9 39bd d6d8 f4bc 9c71 f83d
000003e0: 3480 aa3d 47ee 093e 12f0 e2bd 6aaf f1bd
000003f0: dd61 e4bd e1c1 923c d855 dabd 4a03 90bd

critic.linears.1.bias f4 [64]
-0.12934653 0.05340528 0.05121075 0.08456646 -0.115790166 -0.046174914 -0.0030677211 0.05171076
-0.05458965 0.10577346 -0.105259106 -0.0761405 -0.1137773 -0.0030502188 -0.010089484 -0.106232606
0.005579317 0.09363982 0.10424152 0.026887847 -0.069460414 -0.11715757 0.078794785 0.10598379
0.009555997 0.017047329 -0.06776909 0.10820248 0.0030294613 0.07231065 -0.049741905 -0.065719604
-0.07031077 -0.01730453 -0.11023957 -0.017851047 0.022592127 -0.07803413 -0.0703692 -0.01565005
0.07393618 0.038753677 -0.118447475 -0.033420134 0.007431768 -0.045281015 -0.11212971 -0.008992715
0.13225512 0.06655287 -0.053391993 -0.01922628 -0.026402265 -0.084640004 -0.1103571 -0.10727911
-0.113933854 0.05099106 0.08496643 0.0038217271 -0.06344399 -0.10729383 0.11687598 0.036883097
00000000: 6b73 04be 7fbf 5a3d 5dc2 513d 2e31 ad3d
00000010: 6523 edbd e821 3dbd d20b 49bb a9ce 533d
00000020: 6699 5fbd c19f d83d 1692 d7bd 8def 9bbd
00000030: 1304 e9bd 2ee6 47bb 5d4e 25bc 7b90 d9bd
00000040: b4d2 b63b 3cc6 bf3d 947c d53d e743 dc3c
00000050: 4341 8ebd 4ff0 efbd 295f a13d 070e d93d
00000060: c290 1c3c d7a6 8b3c 85ca 8abd 4399 dd3d
00000070: ed89 463b 9b17 943d 2bbe 4bbd 0098 86bd
00000080: 18ff 8fbd 3bc2 8dbc 49c5 e1bd 5c3c 92bc
00000090: 2013 b93c 5cd0 9fbd ba1d 90bd 8934 80bc
000000a0: da6b 973d 2dbc 1e3d 9794 f2bd 8de3 08bd
000000b0: 3086 f33b 9678 39bd 43a4 e5bd 2e56 13bc
000000c0: e36d 073e df4c 883d 90b1 5abd 6e80 9dbc
000000d0: 9049 d8bc bd57 adbd e702 e2bd 26b5 dbbd
000000e0: 2756 e9bd 00dc 503d e102 ae3d f175 7a3b
000000f0: ecee 81bd debc dbbd ac5c ef3d bb12 173d

critic.linears.2.weight f4 [1, 64]
0.050929163 0.11589466 0.0087891985 0.03963742 0.06716485 -0.064810015 0.055822797 0.12814115
0.049852874 -0.10869543 0.13122891 0.062144097 0.050953317 -0.00859261 -0.016920129 0.12552924
0.053370446 -0.06856398 0.11136866 0.01520706 -0.029528862 0.014377103 0.06859813 -0.10909207
0.036243953 -0.03139748 0.057568774 -0.012726911 -0.079884335 0.034688532 0.09234053 -0.015543601
-0.048095405 0.115184575 0.0672148 0.06784472 0.03754336 0.033788282 0.081564315 0.027989909
0.1003438 0.095098756 0.06168696 0.051108267 0.0029505852 0.062598385 -0.053969752 0.12141357
-0.040270936 0.020180361 -0.03660872 -0.08216279 0.063694075 0.07212378 -0.045311593 0.04740526
-0.09376228 0.05896894 0.07261905 0.0373543 -0.017216757 0.07987324 0.08804997 0.036197618
00000000: 199b 503d 2e5a ed3d 9200 103c d95a 223d
00000010: ba8d 893d 1dbb 84bd 72a6 643d 6f37 033e
00000020: 8732 4c3d b69b debd df60 063e cf8a 7e3d
00000030: 6db4 503d 05c8 0cbc 159c 8abc bd8a 003e
00000040: f89a 5a3d 466b 8cbd 4115 e43d 0827 793c
00000050: 83e6 f1bc f18d 6b3c 2d7d 8c3d aa6b dfbd
00000060: 8a74 143d a59a 00bd 3ccd 6b3d 8984 50bc
00000070: 669a a3bd 9015 0e3d 081d bd3d 96aa 7ebc
00000080: b0ff 44bd e4e5 eb3d eaa7 893d 2cf2 8a3d
00000090: 11c7 193d 9565 0a3d 310b a73d 184b e53c
000000a0: 0d81 cd3d 23c3 c23d 77ab 7c3d e756 513d
000000b0: 9b5e 413b 9533 803d 630f 5dbd aea7 f83d
000000c0: 23f3 24bd 4951 a53c 06f3 15bd f744 a8bd
000000d0: 0a72 823d a2b5 933d a698 39bd 052c 423d
000000e0: 7006 c0bd 6a89 713d 4cb9 943d d300 193d
000000f0: 280a 8dbc 9594 a33d 8b53 b43d f443 143d
