trained_network/SD2/curriculum_train_hard.pth (torch, 61355 bytes, 26 tensors)

feature_exact.j_encoder.linears.0.weight f4 [8, 13]
00000000: 129e e6bd 8991 7cbe a979 f0bd ea8d 2fbd
00000010: ff35 4ebe 7db1 223e ddab 10be bd40 46be
00000020: 3c7b 5ebe 592c 66bc f14e c3bd 330d eebd
00000030: a35b 533d 8527 4c3e 585f 673e 57e4 09be
00000040: 607e 34bd 0e49 623e dfc9 2f3e 7641 eb3d
00000050: d521 743e b009 3b3d 6c3f 8f3d 147d 393e
00000060: e5a0 45bb 4140 c7be 4185 30be d47e eb3d
00000070: 9607 a7be 4a8c 043c c015 c3bd 83c8 7f3c
00000080: d342 303e 38ad 8f3d 85a9 17bd f7bc d43d
00000090: 36a5 4dbe 8dfd 023e 25c9 2f3d 1d4c cebd
000000a0: fbb6 493e a027 3bba 7089 1f3e e4c6 eebd
000000b0: 1293 a1be 04b3 94be c4fc 743e 2a31 093e
000000c0: bce6 2f3e 22fe 513d c030 83bd 0b81 733e
000000d0: 3eac 8ebe 889c 98be d76c a83e f182 b8bd
000000e0: aeb2 293e de3c 8a3d 5804 87bd f7a0 0ebe
000000f0: 8bf6 2a3e 1fc1 63be 3e41 a0be 5e05 de3d
00000100: 6678 473c 517d a2be 4980 febc dbb5 91be
00000110: 1024 cc3d c2b8 033e a8ec cf3d 8163 61be
00000120: 0de4 86bd f673 15be 779e 053d 24a7 94be
00000130: 322b b93d eeed 92be e9fb ba3e dd3e 14be
00000140: 9068 703d 95af 2b3e 50d7 2bbe f137 f2be
00000150: a410 9d3c 7d92 34bd d8aa 003c fca9 f53d
00000160: 603b 01bc 4b74 8ebe 9de9 493e 1f80 a93e
00000170: d5a6 37be 6a5a 2f3d 116a 693d 19e0 92be
00000180: 2df6 58be c48c 8b3e bb85 c23b f757 8ebe
00000190: f557 e3bd 0f99 8e3e 65d7 5b3e 99af 9abd
-0.11260618 -0.24664892 -0.11741955 -0.04285995 -0.20137785 0.15888019 -0.1412806 -0.19360633
-0.21726698 -0.014048659 -0.09536541 -0.11623611 0.051601063 0.1993695 0.22594965 -0.13466011
-0.044065833 0.2209818 0.17166851 0.11487095 0.23841031 0.045663536 0.06994519 0.1811412
-0.0030155715 -0.3891621 -0.17238332 0.114988 -0.32622975 0.008090088 -0.09525633 0.015611771
0.17212991 0.07015461 -0.0370269 0.10387605 -0.20082554 0.12792034 0.042916436 -0.10073111
0.19698708 -0.00071393885 0.15579772 -0.11659029 -0.31557518 -0.29042828 0.23924547 0.13397661
0.17177862 0.05126775 -0.06405783 0.23779695 -0.27865785 -0.29806924 0.32895538 -0.0900935
0.16572067 0.06749891 -0.065926254 -0.1392859 0.16695611 -0.22241639 -0.31299776 0.108408675
0.012174701 -0.31736234 -0.03106703 -0.28459057 0.09967816 0.12863448 0.101525605 -0.22010614
-0.06586466 -0.14595017 0.032621827 -0.29033768 0.09041442 -0.2869715 0.36520317 -0.14477105
0.05869347 0.16766198 -0.16781354 -0.47308305 0.019172974 -0.044085015 0.007853232 0.119953126
-0.007887691 -0.278231 0.19718023 0.3310556 -0.17934735 0.042810835 0.05698592 -0.28686598
-0.21187659 0.27255833 0.005936352 -0.27801487 -0.11100761 0.2785115 0.21468885 -0.07553024

feature_exact.j_encoder.linears.0.bias f4 [8]
00000000: 07ca 903e 18af 083e ef19 79bd 16ee 8ebc
00000010: fc21 edbc bc62 5bbd fc30 983e d0a4 f2bd
0.28279135 0.13348043 -0.060815748 -0.017447513 -0.02894687 -0.053560957 0.29724872 -0.11847842

feature_exact.j_encoder.linears.1.weight f4 [8, 8]
00000000: c4a7 f8bc 3027 b2be a190 953e cadd ddbd
00000010: 0f65 c93e a129 933e 34cc a0be 0433 aebd
00000020: 9a78 1ebe 32fe d93d e478 ef3d 70ff 813e
00000030: c7e8 06bd b550 1bbe 972f c73e 60d5 913e
00000040: 8eb7 873d 13fe d0be b76b 6ebe ef58 a03e
00000050: 5efc ae3e 43b7 b33b 4f5d 3dbe 7939 c4bd
00000060: 4548 813e ad49 773d 2a81 bbbe 71fa 99bc
00000070: 27b2 3ebd 2bc6 353e 577d 143d 3634 c6be
00000080: f90c 97be 78d9 9d3e c34b 9fbe 0075 06bf
00000090: f1c1 51be d484 5b3d 107a c43e 1336 183e
000000a0: d956 90bd 4368 0fbd 79ae 3f3e de89 39be
000000b0: 38ab 17bd 8b07 633e ee8b 9abd e331 7a3e
000000c0: fe9f 033c 1520 8d3e a5c5 063e 1fa1 b13e
000000d0: b5d3 1dbe 6651 7ebd b300 82bd f010 0bbd
000000e0: 2433 1d3e 767c b9be 9a7c 31be 1323 c13e
000000f0: 1355 343e 3f86 223e deaf 813d 5d01 583e
-0.030353434 -0.34795523 0.29211906 -0.108333185 0.39334914 0.28742698 -0.31405795 -0.08505824
-0.15475693 0.10644187 0.1169298 0.25390196 -0.032936838 -0.15167506 0.38903496 0.28483105
0.06626807 -0.40818843 -0.23283277 0.3131785 0.34176916 0.005484493 -0.18492626 -0.095812745
0.2525045 0.060372997 -0.36621982 -0.018796178 -0.046556618 0.17751376 0.036252346 -0.3871171
-0.29502085 0.30829978 -0.3111249 -0.5252228 -0.20484139 0.05359347 0.38374376 0.14864378
-0.07047815 -0.03501154 0.187189 -0.18118998 -0.03702852 0.22170846 -0.07546221 0.24433093
0.008033751 0.2756354 0.13161333 0.34693238 -0.15412791 -0.062089346 -0.063477896 -0.0339517
0.1535154 -0.3622777 -0.17332688 0.37722072 0.17610578 0.15871523 0.06332372 0.2109427

feature_exact.j_encoder.linears.1.bias f4 [8]
00000000: e02f 503e 84ae 9fbe fb2c ac3c aea4 aa3e
00000010: 9ee8 73be 482f 023e 972c 903e 416d 8cbc
0.20330763 -0.31187832 0.021017542 0.33328766 -0.23819205 0.12713349 0.2815902 -0.01714194

feature_exact.j_encoder.linears.2.weight f4 [8, 8]
00000000: 194d d3bd d0a7 f0bc 9a54 d9bb 3718 963d
00000010: 78c6 e83d f8af 4dbe cfc4 b63e b3fb 07bd
00000020: a5a4 99be ff6e 5abe ae6e 553d 54c8 56bd
00000030: 816f 9e3c 1901 f9bd 9612 1b3e 7f95 35bc
00000040: fd0b a2be 7c0a e93d f6c3 aebe f6f8 8e3e
00000050: c04e 09be 3a00 abbd 3d51 953d 1c2f 8e3e
00000060: 5ccc 61bc db73 143e 161f 223e 732a 84be
00000070: decd 0a3f 4d68 35be 68ad ab3c 80f9 a33e
00000080: 558b 443c 9abc 7a3e 24ca a23e 0efc 8bbe
00000090: cadd 8d3d ad20 3e3e b24a 87bd b17a 3b3d
000000a0: 19ae aebd 17c3 513e c538 c83e 88a6 b6be
000000b0: 2bee 923e f604 153d 580b 6a3e 3daf 5c3e
000000c0: 11f4 99be 2212 1c3e 20d9 7bbd df24 253d
000000d0: 43c6 243e 842b f5bd f0f8 17be 32c1 cebe
000000e0: f6ea 97be b0d5 f0be 4260 12be cafa 993e
000000f0: f209 e8bd 09d1 06bd fe31 853e e7f3 85be
-0.103174396 -0.029376894 -0.0066323997 0.07328837 0.1136598 -0.20086658 0.35697028 -0.033199023
-0.30008426 -0.21331404 0.052107506 -0.05243714 0.019340279 -0.121584125 0.15143809 -0.011083006
-0.3164977 0.11378953 -0.3413388 0.27924317 -0.13408947 -0.083496526 0.072908856 0.27770317
-0.013781633 0.1449732 0.15832171 -0.25813636 0.5422038 -0.17715569 0.02095671 0.3202629
0.01199611 0.24486008 0.31794846 -0.2734074 0.069270685 0.18567152 -0.06606044 0.045771305
-0.085293 0.20484577 0.39105812 -0.35673928 0.28697333 0.036381684 0.2285589 0.21551223
-0.3006902 0.15241292 -0.061486363 0.040318366 0.16091256 -0.119711906 -0.14841056 -0.4038177
-0.29671448 -0.4703803 -0.14294532 0.3007415 -0.11330022 -0.032914195 0.26014704 -0.26162645

feature_exact.j_encoder.linears.2.bias f4 [8]
00000000: 552a 9abe ec4d 5b3d 65e2 78be f663 c1bc
00000010: fffc b5bd b5f7 b8be c8c1 aa3e 353c 8ebe
-0.30110422 0.05354111 -0.24305113 -0.023607235 -0.08886146 -0.36126485 0.33350968 -0.2778031

feature_exact.m_encoder.linears.0.weight f4 [8, 8]
00000000: 78dd a83e fca1 eebc 5ead 31bd 2768 9b3e
00000010: 0650 0dbe 2d6f 433d 7d70 0cbd ebeb 43be
00000020: 9f29 7bbe e56e cabd 5970 e4bd ee8e 703e
00000030: 518c 363e ba3f 4d3e 8de1 ea3b a4f0 b73e
00000040: e3f4 943d 9676 70be 4c35 ccbd 99b2 a43e
00000050: d99f a13e 95bd 6cbe 11a4 f63d 4f8a 91bc
00000060: f1e5 c53d faba f93d 410d 37be 87e1 a03e
00000070: 7d1d 573e 85a4 92be dcfd b83e 6781 bebe
00000080: 9e02 ae3d b3b2 ab3e 8d67 67bc 3cf4 1a3e
00000090: f407 ebbd cf56 2cbe f259 a93e fb70 cb3e
000000a0: 0f1a ac3e 1353 b03e aff6 fc3d 7360 9bbd
000000b0: 4f37 c33d 6ccf 893e b49d 6ebe 944e 58bc
000000c0: 31a1 b83e 7907 80bc 97d2 5b3e d462 15bb
000000d0: 8366 6e3e d802 c0be a5c6 cebe 8314 33bb
000000e0: e5e3 c83d fc52 35be f8a8 633e 34ac 73be
000000f0: abda 963e 1027 b8bc 3751 ecbc 6e45 9cbc
0.32981467 -0.029129975 -0.043378226 0.303529 -0.13800058 0.047713447 -0.034286965 -0.19132964
-0.24527596 -0.09884433 -0.11154241 0.23492023 0.17826964 0.20043841 0.007168001 0.35925782
0.07273271 -0.23482737 -0.09971103 0.3216751 0.31567267 -0.23119195 0.12043012 -0.017766146
0.096629985 0.12193866 -0.1787615 0.31422064 0.21007343 -0.28641143 0.3613118 -0.372081
0.08496593 0.33534774 -0.0141238095 0.1513223 -0.11476126 -0.1682999 0.33076435 0.39734635
0.3361363 0.3443838 0.12351739 -0.075867556 0.09532034 0.26916063 -0.23302346 -0.013202328
0.3606048 -0.015628563 0.21467052 -0.0022794502 0.23281293 -0.3750217 -0.4038593 -0.0027325458
0.098090924 -0.17707437 0.22232425 -0.23796159 0.29463705 -0.022479564 -0.02884732 -0.019076075

feature_exact.m_encoder.linears.0.bias f4 [8]
00000000: 0303 a4be 32f1 e53c 2c2d d93e d558 c3be
00000010: 615b a5be 63b6 1fbe 00dd de3d 7775 a2be
-0.32033548 0.028069112 0.42417276 -0.3815371 -0.3229628 -0.15596919 0.10881996 -0.31730244

feature_exact.m_encoder.linears.1.weight f4 [8, 8]
00000000: ed17 73bd 0667 933e 92d8 9bbe 759f 5b3e
00000010: d0cb 0d3d b102 b6bc ae2a fabd 0be0 b13e
00000020: d3b5 1c3e b7f6 3b3e 2fee 183e 8723 0d3e
00000030: f7e8 52bc 8ad9 82bd bc1a a63e 81b1 f8bd
00000040: 5133 d13d 6f3d aa3c 6f05 d63d 99b0 443d
00000050: ab50 af3e b3dc 8bbe 2abd d73d 5e72 c3bd
00000060: 5a02 86be 3018 ccbd fe0a 1b3e 4642 803e
00000070: a561 083e 4a5a f9bd bae8 8d3e 7bd1 bc3e
00000080: 39cb bb3e b15c 2e3e 5935 b73e 4065 823d
00000090: d7c0 cf3e 9367 813e 12c9 e13e c23e 82be
000000a0: 1750 bf3e 84c4 da3e 21db 1dbe f7e8 873d
000000b0: a54e 40be 1eac 88be fbfb 3a3e e276 debe
000000c0: f651 a2bd c4bc 1bbe ffa6 21bd c2d4 3fbe
000000d0: c05a 2dbe 9f02 693e 7e11 5bbc df4a aa3e
000000e0: fbf3 a83c ff4f b03e 5085 5b3e b86a 89be
000000f0: cdeb 8cbe 2a01 653d 355f 2b3e dd69 ebbc
-0.05934899 0.28789538 -0.30438668 0.21447547 0.0346182 -0.02221808 -0.12215172 0.34741244
0.15303735 0.18355833 0.1493461 0.13783084 -0.012872926 -0.063891485 0.32442272 -0.12143231
0.10214866 0.020781247 0.10450255 0.04801998 0.34241232 -0.27316818 0.10534127 -0.09543298
-0.2617367 -0.09965551 0.15140912 0.25050563 0.13318498 -0.121754244 0.2771662 0.3687857
0.36678484 0.17027546 0.3578289 0.06366968 0.40576813 0.25274333 0.44098717 -0.25438505
0.3736579 0.42728055 -0.15415622 0.066362314 -0.1878 -0.26693815 0.18260185 -0.43450075
-0.07925789 -0.15208727 -0.0394659 -0.18733504 -0.1692915 0.22754906 -0.01337087 0.33260247
0.020624151 0.34436032 0.21437573 -0.26839232 -0.27523652 0.055909313 0.16735537 -0.028737003

feature_exact.m_encoder.linears.1.bias f4 [8]
00000000: d20b c93c 9a4e 15be fbd7 14bd 1c9a d93e
00000010: e892 903e 0ff7 9d3e f34c f33d 96ba 86be
0.02454177 -0.14580765 -0.036338788 0.4250039 0.2823708 0.30852553 0.11879911 -0.2631423

feature_exact.m_encoder.linears.2.weight f4 [8, 8]
00000000: 8dab b23e 3980 0c3e a7a7 0ebe 974e f1bd
00000010: cc7d adbe 31e9 36bd e68f 593e 63e2 ccbe
00000020: 0544 833e 5150 a0bd f79e 7abe 323d 86be
00000030: 2ef6 183c d80d 27bd e860 773d 5078 8abe
00000040: d064 a2bd d321 37be de8b 123d 7b50 5c3e
00000050: 3584 d23e a090 b1bd fd35 d2bd 5877 433d
00000060: ffc3 54be 1a8c 493e 4af5 b03e 0bea 003c
00000070: d08d 7d3e 686f 54be 30d9 883e c8a8 243e
00000080: 2b9b 81be 9f5d 663d 364d 04bd 7ab2 9a3e
00000090: 4f83 2e3d 8eb9 83bd 4d02 783d 4015 263e
000000a0: 10b0 99bd e2d4 af3d b1a9 21bd 1016 96be
000000b0: 54fa 15be 14c3 9b3e 6f09 dabd 83b8 55be
000000c0: 8b4f 743b 9218 d5bd 3d20 bbbc ae23 913e
000000d0: 5aa1 a83e 461e c43e 9a33 29be fa20 cd3d
000000e0: d1b5 4cbe b5a0 6abe 86e7 973e aa68 8d3e
000000f0: 8aee 4f3c 7166 8c3d a794 30be a492 ab3e
0.34896508 0.13720788 -0.13931142 -0.11782568 -0.33885038 -0.044655982 0.21246299 -0.4001647
0.25637832 -0.07827819 -0.24474703 -0.26218563 0.009336038 -0.040784687 0.06039515 -0.27044916
-0.07929385 -0.17883997 0.03577792 0.21515076 0.4111649 -0.08670163 -0.10264204 0.047721237
-0.20777892 0.19682351 0.3456214 0.0078683 0.24761128 -0.20745623 0.267282 0.1608001
-0.25313696 0.056241628 -0.032300197 0.30214292 0.042605694 -0.06431876 0.06054907 0.16219044
-0.075042844 0.08585526 -0.03946847 -0.29313707 -0.14646274 0.3042227 -0.106463306 -0.20871167
0.0037278857 -0.10405077 -0.02284252 0.28347534 0.329356 0.38304347 -0.1652359 0.100160554
-0.19991232 -0.22912867 0.29668826 0.27618915 0.0126911495 0.06855477 -0.17244206 0.33510315

feature_exact.m_encoder.linears.2.bias f4 [8]
00000000: 7415 f23d 7fe0 df3d 684d 2fbd a027 1dbd
00000010: 0de0 e9bd ffe5 8e3e 286c 8b3e 024d 6d3e
0.11820498 0.10931491 -0.04279843 -0.038367867 -0.114196874 0.27909848 0.27230954 0.23173907

feature_exact.j_ln.weight f4 [8]
00000000: c12a 883f 2f8f 823f c647 843f 281b 913f
00000010: ceaf 983f de7e 8c3f 906f 783f 9903 8e3f
1.0638047 1.0199946 1.0334404 1.1336412 1.1928651 1.0976217 0.9704523 1.1094848

feature_exact.j_ln.bias f4 [8]
00000000: c2fc 5bbd 11ab 1e3d 8977 ffbc 5414 323d
00000010: 4d8b 323d 8824 b7bb 1855 0d3c 2062 0bbd
-0.053707846 0.03873736 -0.031184928 0.043476418 0.04358988 -0.0055890717 0.008626245 -0.034029126

feature_exact.m_ln.weight f4 [8]
00000000: 63d7 753f 0460 883f 9476 813f decb 8e3f
00000010: 5c4e 853f f3a1 863f 33dc 823f 17e8 823f
0.9603178 1.0654302 1.0114312 1.1155965 1.0414538 1.0518173 1.022345 1.0227078

feature_exact.m_ln.bias f4 [8]
00000000: 3bc4 253d cbc2 2ebd acca 603c 4d4c 2f3d
00000010: d550 26bd dff0 3f3d b1b3 ed3c e3fd 5a3d
0.040470343 -0.042666238 0.013720196 0.042797375 -0.04060443 0.046860572 0.029016348 0.05346478

actor.linears.0.weight f4 [64, 40]
00000000: 6a82 163e fa14 36bd d4b3 90bd ab8d e33c
00000010: bbc7 0fbd 3897 6b3d fa73 15bd c513 7d3d
00000020: 38e7 923d 0ce1 a8bd 1b17 85bd 7a17 24bd
00000030: 595c c83c b12d c83d 9961 2e3e c64a 503d
00000040: c298 563d 3dd1 2bbc ac16 21be 6eab f13c
00000050: 86b8 ef3d 1caf 593e 0235 053e 4b00 863c
00000060: 22dd 97bc e485 61bd 00d5 ffbd 8c55 bb3d
00000070: cc6b 23bd 546b 27be 2087 d73d 7605 003c
00000080: 7248 44be e3fc 94bd 5ac2 be3d 9728 25be
00000090: 7648 783d 98f9 5bbd 788e 39be cd73 9f3d
000000a0: 3562 223c 3bc0 173e 3588 363e efdd 0bbe
000000b0: a033 edbc 2eec 09bd ae86 483c bfb8 7a3d
000000c0: 7aaa 1a3d 996c 053d ddba 9b3c 6163 323d
000000d0: 0985 113e a141 ddbd 85d7 a1bd 1439 01be
000000e0: 577e ed3d 3dcf 96bc ccd2 17bc dfb6 27be
000000f0: bd50 fdbc 630d a6bd fdf8 133e 7f74 8f3d
00000100: f52f 12bd 0431 12be fbc6 f3bc bd3f 043e
00000110: 7220 d2bd edf1 1f3e d792 03be 2f58 acbd
00000120: ae4c 1c3e b943 253d 02aa 59bb 9feb 683d
00000130: daa3 793e 9f40 453c c1b2 123e c7a5 99bc
00000140: f932 56bd a841 bebc 93ff 413d a1fc 1e3c
00000150: 5c13 d03d 7fa8 21be e0ce 653d 2f55 853c
00000160: 076c 8bbd 83e8 743d 072f ba3d b4bf efbb
00000170: a048 013e 41fd cd3d 3fea e03d 10ba 33be
00000180: 55f1 d73d f47a a43d 8113 0a3e 937f 88bd
00000190: b4ab 6f3d 1772 8e3e 26bb 29be a7ee adbc
000001a0: defb 27bd 16a1 363d cd2e f53d 2bfc 153b
000001b0: 7add 493e a492 ebbc 2285 8b3d 35fa 93bc
000001c0: 2fc9 cf3d 1a82 babd fbb4 05be b5ba 97bd
000001d0: 3e2a fc3c 2799 f23d b4e1 ef3d 6922 853d
000001e0: da15 efbd cff6 d83d d0c6 0e3e e532 a73d
000001f0: 3ba6 6cbd 26d9 1bbd da94 143e 3e74 14be
00000200: dea6 f03d 1467 1bbe 132b c5bd f14a 16be
00000210: 0779 89bd e631 52bd 10fa c03d 48e6 96bd
00000220: a50f 16be 6735 f1bd 3adb 6f3c 2b37 463e
00000230: 9883 033e b6b0 173e 9494 f8bb d032 e3bd
00000240: 725d acbc fb06 2abe f2f8 9abd b173 983d
00000250: e485 1ebd 324f 28be d4ec 183e 9848 a2bc
00000260: 4550 943d ac3e 02be 0f9f 53be a3dd 4cbe
00000270: 94e6 a3bd f884 4ebc fab0 f1bd 95e9 08bd
00000280: e454 bebd bd85 edbd f770 8c3c b953 993c
00000290: 0797 6f3d f355 7e3d 795f a93d f864 2a3c
000002a0: 2794 b9bc 1d74 103e 8f12 f7b9 48e1 73bd
000002b0: 496e 1abe eb56 313d 318d 293d 18c6 71bd
000002c0: b368 40bd c9e2 06be c2ec b73d 007b 78bd
000002d0: 677e 37bb bd9b 403e 8ec2 7bbd 32ba 50bc
000002e0: 0580 2bbe d929 5ebd c9fe 89bd 4d34 8f3d
000002f0: 788e 6e3d 6475 943d 5efc 293e 715a d13d
00000300: aaa5 f7bd a48c 9cbd 9b13 b5bd 1ac1 a1bd
00000310: 4357 e7bd 59ff 57be 0987 80bc 3a55 0a3e
00000320: e829 18bc 5b96 ba3d 7864 9c3d 7df6 84bd
00000330: bb0e 573e 8f24 06be 664a 9cbd 475d 1fbd
00000340: 3933 213e 9e83 e7bd b94b c3bd cb3c 023d
00000350: c9aa 07bd f751 b0bb 9b09 a93d 6d09 cabc
00000360: d55f 73bd e178 ea3d 4fbd 083d 8517 9cbd
00000370: 2173 8cbd d945 cd3d 140a 13be ce00 74bd
00000380: 063e d03c 165d b8bc 15c4 073e d6cf fc3d
00000390: cbee f5bd 28cf f73d 1963 d73c 6c85 04be
000003a0: 7ea8 0ebe ab79 64bd 10f5 fcbd e2ac 85bd
000003b0: 38ef 16bd bd46 55bd 8638 163c af65 b1bd
000003c0: e8c9 41bc 30f3 50bd 350a 4ebc c291 7abd
000003d0: 2e03 333d 19b3 49bb eb49 db3c cb72 0d3e
000003e0: cec2 89bd 2106 ca3c 231c e33d 534b 793d
000003f0: 35ff 583e 66c3 63bd 99ae b2bd 4c41 cb3d
0.14698187 -0.0444536 -0.070655495 0.027777513 -0.035102587 0.05751726 -0.036487557 0.06178643
0.07173008 -0.08246049 -0.06498548 -0.04006145 0.024458097 0.0977434 0.17029418 0.05085256
0.052391775 -0.010486898 -0.15731305 0.02950069 0.11705117 0.21258205 0.13008502 0.016357562
-0.018538062 -0.05505933 -0.124917984 0.09147176 -0.039897725 -0.16349536 0.1052382 0.007813802
-0.1916826 -0.07274797 0.09314413 -0.16128765 0.06061598 -0.053704828 -0.18120754 0.07785759
0.00991111 0.14819424 0.17825396 -0.1365888 -0.02895528 -0.033672504 0.012239141 0.061211344
0.037760235 0.03257427 0.019010002 0.043551806 0.14210905 -0.10803533 -0.07902435 -0.1261943
0.11596363 -0.018409366 -0.0092665665 -0.16378354 -0.030922288 -0.08108022 0.1445045 0.07004642
-0.035690267 -0.1427651 -0.029757967 0.12914939 -0.10260095 0.15619631 -0.12848984 -0.08415257
0.15263626 0.04034779 -0.0033212905 0.05686533 0.2437891 0.012039333 0.14326002 -0.018755807
-0.052294705 -0.023224667 0.047362875 0.009703786 0.101599425 -0.15786932 0.056105494 0.01627597
-0.06807714 0.059792053 0.09091001 -0.007316554 0.1262536 0.1005807 0.10982179 -0.17551446
0.10544077 0.08031264 0.13484003 -0.06664958 0.05851336 0.2782142 -0.16575298 -0.021231962
-0.041011684 0.044587217 0.11971817 0.00228859 0.19713393 -0.028756447 0.068125024 -0.018063644
0.101457946 -0.09106846 -0.1305732 -0.074086584 0.030781861 0.11845618 0.11712971 0.06500704
-0.1167409 0.1059395 0.13943028 0.08164004 -0.057775717 -0.038048886 0.14509907 -0.14497468
0.117505774 -0.1517604 -0.096273564 -0.14677025 -0.06712537 -0.051317118 0.09422696 -0.073681414
-0.14654405 -0.11777764 0.01463967 0.19356982 0.12843168 0.14813504 -0.0075860713 -0.11093676
-0.021040652 -0.16604225 -0.07567014 0.074439414 -0.038701907 -0.1643646 0.14934093 -0.019810006
0.07241873 -0.1271922 -0.20666145 -0.20006423 -0.08002964 -0.012604944 -0.11801334 -0.033425886
-0.09293535 -0.11597774 0.01714371 0.01871668 0.05849364 0.062093686 0.08270163 0.010400049
-0.022653652 0.14106794 -0.00047125338 -0.059541017 -0.15081133 0.043295782 0.041394416 -0.059026808
-0.04697485 -0.13172449 0.08980705 -0.060664177 -0.0027998926 0.1880941 -0.06146484 -0.012739705
-0.16748054 -0.054239128 -0.067380495 0.069923975 0.058241338 0.07248953 0.16600177 0.102223285
-0.12092145 -0.076440126 -0.0884163 -0.07898159 -0.11295941 -0.21093501 -0.01568939 0.13509074
-0.009287335 0.09110709 0.076363504 -0.064923264 0.21001713 -0.13099883 -0.07631378 -0.038907316
0.15742196 -0.11304401 -0.09535927 0.031796258 -0.033121858 -0.0053808647 0.08253785 -0.024662698
-0.059417564 0.11448837 0.033383664 -0.076216735 -0.068578966 0.10023088 -0.14359313 -0.05957108
0.0254202 -0.022505324 0.13258393 0.12344329 -0.12008437 0.12100059 0.02629237 -0.12941521
-0.13931462 -0.055780094 -0.123514295 -0.065271154 -0.03684923 -0.052069414 0.00916875 -0.08661973
-0.011827923 -0.05101317 -0.012575676 -0.06117416 0.043704204 -0.0030776917 0.026768645 0.13813321
-0.06726609 0.024661126 0.11089351 0.06086285 0.21191104 -0.05560627 -0.08724708 0.09924564

actor.linears.0.bias f4 [64]
00000000: 7452 863d 0753 1d3d 5c04 943d db5b 2d3d
00000010: 498b 143e 83cd 01bd bcc9 62bd 45c9 7b3d
00000020: 309b 00be d267 a03b dfb2 97bb 7ddf f0bc
00000030: d3a9 803d eca2 723b c14b 0e3e 3bd3 a5bc
00000040: 288e 883d afac d1bd 0cdc 81bb 2784 12bb
00000050: bf89 fe3d c376 f4bc ffa4 ae3d 2d38 dcbd
00000060: ce97 033e 4311 7bbd 6a4b cabd 8312 a63d
00000070: 2bb0 033d 95e8 723d 72e7 3fbe 16f9 aa3b
00000080: c328 123d d78d 4c3e 021c 1abd f7bc c33d
00000090: 90c3 c2bd 0b73 353e 8a97 98bd ed71 033e
000000a0: 4151 6fbd 6577 ffbd 58c2 3f3d 95c9 01bd
000000b0: 0ae4 22be 0c7f e8bd 1ca2 cb3c a301 86bd
000000c0: 9f8c 233d 0d44 763d 7188 1f3e 4c35 81bb
000000d0: 3b2b 1abe 9c3f b33c df8b a93d 9108 e53d
000000e0: 57a3 653d 0b11 b1bd 6eaa 01be b295 08bd
000000f0: 0162 873c f83a fc3c 249d 8abc 5310 febd
0.065586954 0.03840926 0.07227394 0.04232393 0.14506258 -0.031690132 -0.05536817 0.061471242
-0.125592 0.004895189 -0.0046294774 -0.029403443 0.062823914 0.0037023379 0.13896085 -0.020242324
0.06667739 -0.10238015 -0.003962999 -0.00223566 0.12428617 -0.029841786 0.08527564 -0.10752902
0.12850878 -0.06129576 -0.09877665 0.081089996 0.03215043 0.05930384 -0.18740633 0.0052176816
0.035683405 0.19975983 -0.037624367 0.095575266 -0.09509957 0.17719667 -0.07450779 0.12836428
-0.0584271 -0.124739446 0.0468162 -0.031686384 -0.15907302 -0.11352357 0.024857573 -0.06543281
0.03992903 0.060123492 0.15579392 -0.003943121 -0.15055554 0.021880917 0.082786314 0.111832745
0.056063976 -0.08645829 -0.1266267 -0.033345886 0.016526224 0.030789837 -0.016920634 -0.12405457

actor.linears.1.weight f4 [64, 64]
00000000: 1f25 f0bd 7ada cbbb d95c cbbd abcb 3b3d
00000010: da54 3d3d e1e1 c33d 2ab5 d93d afb9 b5ba
00000020: d2f8 3d3e 7c7b 0dbe e7f1 c93d 6d73 70bd
00000030: 854e 85bd 5067 9c3d eac1 933d f01b 093e
00000040: ba50 14be d923 11bd 3ef0 993c 9c57 f2bd
00000050: 5749 0ebd 3682 063e 6b23 73bd 5d38 16be
00000060: adbb eabc f39b 2f3e ca3c 4b3d 20e5 033e
00000070: 2b00 843d 7f36 e2bc f70d 7a3d 13eb 97bd
00000080: 0270 aa3d 88f5 b83c ff23 283e 47ce f8bd
00000090: cb28 1f3e 4bf2 103d e904 f8bd a248 a7bc
000000a0: c28d 94bd 47dc e1bc 8116 f1bd 79f0 303d
000000b0: ecab cebd 6399 043e 61b4 a13d 5c0f 523c
000000c0: 3f1c afbd 1cf7 243d 30cf 1dbd a1f3 0dbc
000000d0: ed5f f4bd c7bb 4dbd 07c7 c83d c36e 32bc
000000e0: 79c5 6c3d f8b8 143d 0249 edbd 1465 293e
000000f0: f807 72bd b58f 44bc 69ce d53d 8811 003e
00000100: deb9 6b3d e4c4 f8bd a549 79bd 3247 38bd
00000110: 3fbb b2bd 32f6 a0bd abc4 17be 85e4 113d
00000120: 19f4 233d 9e09 393d 0c40 6ebd e692 033e
00000130: 82c5 9b3d 27bf c0bc ebb5 883d b488 503c
00000140: c0d5 73bc 7479 5d3d b60c 29be 5dda 84bd
00000150: d6bb ce3d 9e42 e1bd 2fb4 d7bd 3f2c bfbd
00000160: 34f8 26bd c40e d8bc 51d2 93bd d9d9 38be
00000170: 2ff7 863d 6182 9dbd b7e1 3cbe 28c3 8a3c
00000180: f38e c43c 149d 843d 532a b1bd 0f5b 863d
00000190: 973f 8a3a db08 2a3d 5d73 513e 9b84 98bb
000001a0: 0546 cb3d 95c3 2abe e0a2 2c3e 700a f73a
000001b0: 0dae 0cbe 5a23 483d 3726 68bc 8386 0c3e
000001c0: 9459 693e 8487 033e fed6 493b 69b4 9537
000001d0: d353 bbbd e88b 573d 1790 0e3c d876 313e
000001e0: 7795 0bbd ab0e 2fbe 83c6 263e 7d9d 23be
000001f0: ff0d bcbd 6d76 7e3b 85cd 52be 61e1 64be
00000200: 2e73 973d 12c6 bfbc 32c8 9f3d 4ad9 8cbd
00000210: 2b12 323e ffeb 7cbd 23b7 78bd c22d b83d
00000220: 14e5 37be bbff 5b3e 8783 6cbd 3f28 f23d
00000230: ea9c c4bb 726d 45be d63b f73c 9531 cbbb
00000240: 26fa 023e 266e adbd 3e5b 03be 0e65 063e
00000250: e24c 9eba ad64 823d 45de 723d a19b 52bd
00000260: ca7a 3d3b e7a9 abbc 385e 45be 7488 aebc
00000270: de8d 123d cec6 c7bd dae6 23be 5b38 88bd
00000280: a0c9 8fbd 9cb1 173e 3839 2cbd 2732 ed3d
00000290: dde9 06bb 2433 8cbb eb14 653d 7f2c fe3b
000002a0: 678f 0f3c 116f f1bc 14da e93c 584b 023e
000002b0: e495 ca3d cd47 01be e666 963c c299 5a3d
000002c0: de5e 133e 68aa b43d de4b a0bb 378d 8a3d
000002d0: c4c3 7abd 635a 13bc fea4 513d 4023 473d
000002e0: 9785 b03d 0115 e4bd a435 27bc 828a 5bbe
000002f0: a6c3 ee3c 6a97 313a 402d 1dbc c366 0dbe
00000300: d44e 43bd 4d32 b93b 6c66 25bc 8c59 943d
00000310: 797e 093e d392 93bd 9221 59be 7626 f13d
00000320: d5d1 ac3c d7c6 803e 5687 043d f167 943d
00000330: a998 c93d df11 adbd 9424 2d3d 9080 47be
00000340: 30af fb3d 4cc0 bcbd 25c9 6dbd 1cd5 8c3d
00000350: 6e57 c33d 3c36 ebbc 689a f6bb a74b 1bbd
00000360: 45c5 a6ba beec eebc 1d3f 27bd fad3 dbbd
00000370: 13cc b0bd 49b1 bc3c 51f2 53be db04 2abc
00000380: c3b5 f8bd 300a ddbc 4fdc 7cbe f4ec e13d
00000390: 3e8d fbbd 824c 4b3d 49bd aa3d 5f69 ccbd
000003a0: 3100 283d 7dfd fe3c feb2 053a 2b05 3f3e
000003b0: fab0 593d da02 743c 2b78 3dbe c48d 4a3d
000003c0: 8c21 a13d b48e 873d 8bce ee3d cd31 4fbd
000003d0: 1ef9 c13a 4b58 323e df20 52bd da45 50bb
000003e0: 2597 0e3d a734 2dbe 877d 89bd 42d3 173c
000003f0: 9e56 d6bc 5522 9ebd 772a 54be e8ac a4bc
-0.1172583 -0.006221113 -0.09929819 0.04584853 0.0462235 0.09564567 0.106302574 -0.0013864542
0.18551949 -0.13816637 0.09860592 -0.05870383 -0.06509117 0.07636893 0.072147205 0.13389564
-0.1448392 -0.035434578 0.018791314 -0.118331164 -0.03473791 0.13135609 -0.05935995 -0.14669938
-0.028653944 0.17149334 0.04961852 0.12880373 0.064453445 -0.027613876 0.061048474 -0.07417884
0.08322145 0.022578016 0.16419981 -0.12148719 0.15542905 0.03538732 -0.121103115 -0.020420376
-0.07253601 -0.027570857 -0.117718704 0.043198083 -0.10091385 0.12949137 0.07895733 0.012821045
-0.085503094 0.040274724 -0.038527668 -0.008664043 -0.11932359 -0.050227907 0.098035865 -0.010890665
0.057805512 0.036309212 -0.11586191 0.16542464 -0.05908963 -0.011997153 0.1043976 0.12506688
0.057550304 -0.12146929 -0.06086125 -0.044989772 -0.087271206 -0.07859458 -0.14821117 0.035618324
0.04002771 0.045175187 -0.05816655 0.12849006 0.07606031 -0.023528649 0.06675323 0.012727905
-0.014882505 0.054070905 -0.16508755 -0.06486962 0.100944206 -0.10999034 -0.10532414 -0.09334611
-0.04076405 -0.026374228 -0.07217849 -0.18051852 0.06590115 -0.076908834 -0.18445478 0.01693876
0.023993945 0.06475273 -0.08650651 0.06560337 0.0010547516 0.04151235 0.20454164 -0.0046544797
0.099254645 -0.16676171 0.16859007 0.0018847715 -0.1373827 0.04886184 -0.014169267 0.13723187
0.22788078 0.12844664 0.0030798311 1.7846194e-05 -0.091468476 0.05262366 0.008701346 0.17330492
-0.034078088 -0.17095439 0.16286664 -0.15978046 -0.09182357 0.0038827911 -0.20586212 -0.223516
0.07395016 -0.023409877 0.07801856 -0.06877382 0.17389743 -0.0617485 -0.060721528 0.089931026
-0.1795848 0.21484272 -0.05774262 0.118240826 -0.006000151 -0.19280031 0.0301799 -0.006200979
0.12790737 -0.08468275 -0.12827775 0.13124487 -0.0012077356 0.06366859 0.059294004 -0.05141795
0.00289123 -0.02095504 -0.19274223 -0.0213053 0.035779826 -0.09754716 -0.16006032 -0.06651374
-0.07020879 0.14813846 -0.042046756 0.115818314 -0.002058617 -0.0042785574 0.055928152 0.007756769
0.008762217 -0.029471906 0.02854637 0.12724054 0.098918706 -0.12625046 0.018359613 0.05336929
0.14391658 0.08821565 -0.0048918566 0.06765216 -0.061221853 -0.008993718 0.05118274 0.0486176
0.0861923 -0.11136819 -0.01020566 -0.21439555 0.029146027 0.00067745766 -0.009593308 -0.13808732
-0.0476826 0.0056517483 -0.01009522 0.07243642 0.13427152 -0.07205739 -0.21204212 0.11774914
0.02109615 0.25151703 0.03235563 0.07246388 0.09843571 -0.08450674 0.04227121 -0.19482636
0.12289274 -0.09216365 -0.058053154 0.06876585 0.0953816 -0.028712384 -0.007525731 -0.037913945
-0.0012723586 -0.029165622 -0.040831674 -0.10733791 -0.08632674 0.023033755 -0.20697905 -0.010377134
-0.12144043 -0.026982397 -0.24693416 0.11031523 -0.12282799 0.04963351 0.083368845 -0.099810354
0.041015808 0.031126732 0.0005100219 0.18654315 0.053147294 0.014893258 -0.18502872 0.049451604
0.07867727 0.06619015 0.11660489 -0.050584603 0.0014798974 0.17416494 -0.05130088 -0.0031779916
0.03481211 -0.16914617 -0.067133956 0.009266676 -0.02616435 -0.07721392 -0.20719324 -0.02010198

actor.linears.1.bias f4 [64]
00000000: 90d6 2bbe 66cd 40bd 2799 e83d e8d7 073e
00000010: 511f 423d 61ef a63d a5dc 04bd e547 663c
00000020: 83a2 fa3d 4823 c7bc 28fa 05be b8ab d5bb
00000030: 2f46 d43d a0fb 0c3e fdf7 e63d 74a7 a2bc
00000040: ab67 8a3d 35e7 2f3d 60ee 783d c62e 77bd
00000050: 3eda cdbc a003 1e3e 04bf 8abd e1ab 773d
00000060: ed84 bdbd 8a42 fdbd ed0b aa3d 4aeb 413d
00000070: 716e 8e3d 5527 ecbc 108c e23d e40a 403d
00000080: 59ed 773c ca39 f93c cace 383d 75b6 6bba
00000090: 4814 f53c fbae 0cbd 4104 d53c 6d06 93bd
000000a0: 1f10 f43c f340 8ebd e58e f83d 48d2 edbc
000000b0: a048 35bd 33e2 48bd 2276 afbd ac67 e33c
000000c0: 8b6d e7bc a9dc 53bd 467d fabd 1a1d 0ebe
000000d0: 78a3 11bd 9fb8 0a3d 6f0a a8bd 896b 5d3c
000000e0: 95a9 183d 1778 f43d 5046 653d 04c6 3b3c
000000f0: d07a adbd f74a 2ebe d01e e53d c314 af3d
-0.16781068 -0.047070883 0.113573365 0.13265955 0.047393147 0.08151127 -0.032436986 0.014055227
0.12238028 -0.024308816 -0.13083708 -0.0065207146 0.10364949 0.13767862 0.11277769 -0.019855238
0.06758054 0.042945106 0.060774207 -0.06034734 -0.02512848 0.1543107 -0.067747146 0.06046665
-0.09253869 -0.12366207 0.08303056 0.04734353 0.06954659 -0.028827349 0.11061871 0.046885386
0.015132272 0.030423064 0.045119084 -0.0008991727 0.029916897 -0.034346562 0.026003005 -0.0717896
0.029792843 -0.06945982 0.1213663 -0.029030934 -0.044258714 -0.049043845 -0.08567454 0.027759396
-0.028250476 -0.05172411 -0.12230925 -0.13878289 -0.035556287 0.033867475 -0.08205115 0.013514408
0.0372711 0.11936968 0.05597526 0.011460785 -0.0847069 -0.17020784 0.11187518 0.08548882

actor.linears.2.weight f4 [1, 64]
00000000: 3852 04be b41a 003e bdd4 d13d 717a 513e
00000010: dd1c 463e 01bf 683e 250d 493e 41e5 403e
00000020: af1d 2e3e f3fa 193e bbc9 42be d86f 5cbe
00000030: 59ed 043e f76a 183e f398 403e 63e4 353e
00000040: a1cd 023e 4d8e 523e 7db1 663e 20ca febd
00000050: a84c 36be 6d6e 373e d95b 53be c085 5d3e
00000060: cc4a 4abe ced9 2ebe 4e3d 053e cf3c 613e
00000070: c2db 63be 9984 2ebe 2e57 803e 00f9 593e
00000080: 2823 85be 47b2 2bbe 6fe1 4abe 929e 343e
00000090: f98f 26be b4c1 2fbe ac7a 18be 824a 2fbe
000000a0: 8613 703e de13 5dbe 93ed 443e 8e16 0b3e
000000b0: 73c8 363e 6df0 363e 7ce2 823e ca57 73be
000000c0: 33ba 3f3e 5756 85be 7f56 47be e567 46be
000000d0: 5838 18be a232 443e c2be 81be 5e2f edbd
000000e0: 63fc fa3d c860 3b3e 23da 53be 59c5 6f3e
000000f0: 21e3 143e fd01 20be b695 433e 03c2 183e
-0.12921989 0.12510186 0.10245655 0.20456864 0.19346948 0.22729112 0.1963392 0.18837453
0.17003511 0.15037136 -0.19022267 -0.2152704 0.12981166 0.14884554 0.18808345 0.17762904
0.12773754 0.20562096 0.22528644 -0.12440896 -0.1780268 0.17913218 -0.20640506 0.21633053
-0.19755095 -0.17075273 0.13011667 0.21995853 -0.222518 -0.1704277 0.25066513 0.21286392
-0.26003385 -0.16767226 -0.19812559 0.17638615 -0.16265859 -0.17163736 -0.14890546 -0.17118266
0.23444948 -0.2158961 0.19231252 0.13582823 0.17849903 0.17865153 0.2556342 -0.23763958
0.18723373 -0.26042435 -0.1946659 -0.1937557 -0.14865243 0.1915994 -0.2534085 -0.115813
0.1225517 0.18298638 -0.20688681 0.23415126 0.14539768 -0.15625758 0.19100079 0.1491776

critic.linears.0.weight f4 [64, 16]
00000000: e5ed 723c 959a 12be a289 053d 1b57 7bbe
00000010: f545 adbe f208 71be cd1f 96bd 2229 6c3d
00000020: 23ca 7b3e fac2 1ebe 8191 bebb 7b1e 053e
00000030: d1e0 2dbe 243c 18be 3a1b cf3c ca61 45be
00000040: 77ad 12be 7fb1 1d3e 9300 3e3e a0a7 803e
00000050: 5df2 97bd a73e 993e 3ae0 bc3d b41e a0be
00000060: d9b9 23be 841f 44bc ec59 de3c 9693 883e
00000070: 1688 303d 9895 2fbc 2767 d9bd cfb1 153e
00000080: 8a88 89be 88d9 69be f8f7 1cbe d655 8ebd
00000090: a9f4 0b3d cd97 0f3e 6bb6 15bd 42cd 0cbd
000000a0: f983 d43d 521c 84be fbc5 293e 2f5b 813e
000000b0: ebcd 61be db75 6e3e 24bf 07bc fc50 f5bd
000000c0: 01d3 9cbd e92d b5bd bb62 713e 2836 be3d
000000d0: 3d34 2dbe dc24 16be 76fc 43be 8561 433e
000000e0: ec5f c03d e8d1 a9bd 5114 9c3e 4ff7 90be
000000f0: 02ab 6a3d 676d a3bc 4f8a 2dbd f4d2 6b3e
00000100: b901 75be 829b 6a3e 259d 6c3e 0117 a03d
00000110: ee30 763e 9365 e53d 865c 34be a7e6 c6bd
00000120: e41b 5e3c f13a 3c3e a0da b1bd f0dc e23d
00000130: b48e 04be 0532 fabd 9003 f23d a467 38bd
00000140: d70a f6bd 27e5 893e 6bc2 263e cdb8 d93d
00000150: f4fd 9b3d 3b48 a3bd b988 873e 4a68 ccbd
00000160: f9cb 27be 253b 92be b933 eebd fef2 ddbc
00000170: 7f7c b33c b76d 553e 4ee4 483e 1955 29be
00000180: 6294 05be bd3a 753e a3af 5f3d 800e 973e
00000190: ed85 2d3e 4b58 253d f5ca cdbd b5c0 82be
000001a0: 53ae 393e 4af3 623d df8a 0cbd dcf0 47bd
000001b0: 3316 5b3d 396f 803e 5542 dabd c1fd 033e
000001c0: 9b35 783d 01ed 03be 69bc 083e 5f88 80be
000001d0: f6a0 683d 3c8b 693b 0152 183e c249 243e
000001e0: c72c 723e 2c67 e7bd 8327 acbd 307a 80be
000001f0: 0eb8 633e 47da 273e 8655 debd 08ff 2cbe
00000200: 0f80 86bc 95ee 82be 85a9 db3d 25a9 d73d
00000210: f2a7 b6be 8bd9 da3d 254b bb3c 92d1 ecbd
00000220: 968c 8fbd 627d 773d 1881 753d eeb1 e4bd
00000230: 8910 593e 0335 03be d3e4 283d 36a2 513e
00000240: 53c9 273e 55e0 4cbd e384 2a3e 4b71 17be
00000250: 6427 c8be 4f7e b83d b34e c63d b9a0 653e
00000260: dea2 6b3d db41 1f3e 0cfd 843e 8012 22be
00000270: 9872 29be 6097 543e 3687 56be dddf 0abe
00000280: eb0d 8cbe 5914 c13d 1ed7 383e fe64 07be
00000290: 3466 c43e 5a1b b93d 18be cc3d 193d 86bd
000002a0: b7e5 453e e81f 84be d041 2f3e 34f8 8d3e
000002b0: 49a4 13be 279d 323e 2a62 813d 4309 46bd
000002c0: 9a96 403e 39ce 163e ce39 aebd 6584 833d
000002d0: 5e36 a23d 33a1 afbd d14d 00bc 5158 8bbe
000002e0: bea4 1fbe 1fa4 8cbe adc9 443e 29b4 683e
000002f0: 3e50 f1bc 58f9 093e 44ab 623e c921 0cbe
00000300: 4839 e1bc 2904 273e d86f eabd 9dea 203d
00000310: c185 c53c ee32 debd 2a83 15be c91f 983e
00000320: 55da 7e3e 73ca 083e 3bcf 35be abe4 8abd
00000330: 1b25 113e e8e9 60be 23d3 813d b91c a53c
00000340: ca2b 143c 0f9a d6bd d2e0 7ebe e435 2e3e
00000350: 128b ebbd b3ce 4d3e 5e0c 3ebe 1b6e 50bd
00000360: 64ad 203e a1f7 82be 34bc 3cbd 49e8 873e
00000370: f24f 82be 2125 5dbb 4e19 5ebe f1e8 3bbd
00000380: ec25 d7bd e682 b33d 561a 4bbe e0fe 493e
00000390: d6cd 03be 49ca a03e b861 46be c0f9 04be
000003a0: f786 1abe b3c0 84bd 1cec 2b3d 4d4b 31bd
000003b0: 1d9c b63d 6441 aa3d 947f 193e 0bc8 15be
000003c0: 12cb e3bd 8346 373e c8ea 36be 219a af3e
000003d0: b1a4 ba3d ec06 7a3e 441c 37bc 5235 e43c
000003e0: 58a0 1dbe 2d17 f63d 1de3 6b3d 4e4f 923d
000003f0: b27f 31be fb48 053c b584 6e3e adf9 0a3e
0.014827226 -0.14316781 0.03260196 -0.24544947 -0.33842435 -0.23538569 -0.07330284 0.057656415
0.24588828 -0.15504065 -0.0058156853 0.12999909 -0.16980292 -0.14866692 0.025281537 -0.19275585
-0.14323984 0.1539974 0.18554907 0.25127888 -0.07419274 0.29930612 0.09222455 -0.31273425
-0.15988864 -0.011970405 0.027142487 0.266751 0.04309853 -0.010716818 -0.10615378 0.1461861
-0.26861984 -0.22836888 -0.15328968 -0.06949966 0.034168873 0.14022751 -0.03655092 -0.034375437
0.10376734 -0.25802857 0.1657943 0.2526488 -0.22051208 0.23287146 -0.008285318 -0.11978337
-0.07657433 -0.08846647 0.23572819 0.09287673 -0.16914459 -0.14662498 -0.19139275 0.1908017
0.09393296 -0.082919896 0.3048425 -0.2831368 0.057291992 -0.019949628 -0.04236823 0.23029691
-0.23926438 0.22910884 0.23106821 0.07816888 0.24042103 0.11201014 -0.1761342 -0.09711962
0.013556454 0.1838186 -0.086842775 0.11077297 -0.12945062 -0.12216572 0.11817086 -0.045020714
-0.12013786 0.26932642 0.16285102 0.10630951 0.07616797 -0.07972761 0.264715 -0.09980829
-0.16386403 -0.2856075 -0.11630959 -0.027093407 0.02190995 0.20842634 0.19618341 -0.16536368
-0.13044885 0.23948188 0.05461086 0.2950325 0.1694562 0.040367406 -0.100484766 -0.2553765
0.18132906 0.0554078 -0.034312125 -0.048813686 0.053487968 0.25084856 -0.10657183 0.12889768
0.060597997 -0.12883379 0.13353123 -0.25104043 0.05679413 0.0035635969 0.14875032 0.16043761
0.23649894 -0.11298975 -0.08405974 -0.25093222 0.2223818 0.1639186 -0.10856156 -0.16894162
-0.016418485 -0.2557265 0.10725693 0.10530309 -0.35675007 0.10686024 0.02286298 -0.1156341
-0.070092365 0.06042231 0.059937567 -0.1116675 0.21197714 -0.12813191 0.04123385 0.20472035
0.16385393 -0.050018627 0.16652255 -0.14789312 -0.39092553 0.090084665 0.096829794 0.22424592
0.05752837 0.15552466 0.2597431 -0.1582737 -0.1654762 0.2076087 -0.20950016 -0.1356196
-0.2735437 0.09427709 0.1805081 -0.13222119 0.38359225 0.0903842 0.09997195 -0.06554622
0.1932591 -0.25805593 0.17114949 0.27728426 -0.14418139 0.17442761 0.063175514 -0.048348676
0.1880745 0.14727105 -0.08507119 0.06421737 0.07920526 -0.08575668 -0.007831053 -0.27215818
-0.15590188 -0.27468964 0.19217558 0.22724976 -0.029457208 0.13474023 0.22135645 -0.13684763
-0.027493134 0.1631018 -0.11447114 0.039286245 0.02411163 -0.10849558 -0.14600816 0.2971175
0.24887975 0.13358478 -0.17754833 -0.06781896 0.14174311 -0.21964228 0.06339099 0.020155298
0.009043643 -0.10478603 -0.2489045 0.17012745 -0.11501135 0.2009838 -0.18559405 -0.050886255
0.15691143 -0.2557955 -0.046077922 0.26544407 -0.25451618 -0.0033744054 -0.2168934 -0.045876447
-0.1050528 0.08765201 -0.19834265 0.19726133 -0.12871489 0.3140433 -0.19373214 -0.12985897
-0.15090548 -0.06482067 0.04197322 -0.043284703 0.08916495 0.083132535 0.14990073 -0.14627092
-0.11122717 0.17897992 -0.17863 0.3429728 0.09113444 0.24416703 -0.011176173 0.027857456
-0.15393198 0.12016139 0.05758964 0.071440324 -0.17333868 0.008135076 0.23292811 0.13571806

critic.linears.0.bias f4 [64]
00000000: 0027 17be 6e5f 12be 0e6c adbd 5723 083d
00000010: be56 b33d 0a9b 1dbe 0248 bf3d 9afa 39bd
00000020: ceff 57be 589e 06be cac9 a3bd 1502 04be
00000030: 6ea2 8cbe 9b4e 843e 9ae4 87bd b406 303d
00000040: b9dd aebd 5b6c a83b da1c aa3d 180b c9bd
00000050: 9afd 693d 69df 193c 7569 17be d95d 71bc
00000060: 6e16 14be b1ea ddbc ac36 213e d0c3 5c3e
00000070: bc3e d33d 8997 ffbd 12dc fcbd 646d d13d
00000080: e92e 603e 733f 843e 1172 113d 1807 a03c
00000090: d9fc 5a3d 9764 313e d2b5 753e 462f c73c
000000a0: 51ec 293e ef01 0abe 6cfb c1bc 5a3f 75bd
000000b0: 70a2 08bd 61e4 62bc e8da e63a 1cda b03d
000000c0: e37b 58be 87e5 893e e0a4 15be 11b6 183e
000000d0: 86c1 f1bd 39be 2d3e 2bda 94bd d72b c63d
000000e0: f54a b33d 4a13 d2bd 7e44 24be 38bd 53be
000000f0: 5b69 373e 3e09 0abe c465 b63c 9c01 10bd
-0.14760971 -0.14294216 -0.084678754 0.033236828 0.08756779 -0.15391174 0.09339906 -0.045405008
-0.21093675 -0.13146341 -0.079974726 -0.12891419 -0.27467674 0.2584122 -0.06635399 0.042975143
-0.08538384 0.00513987 0.08306284 -0.09816569 0.05712662 0.009391644 -0.14786322 -0.014731848
-0.14461681 -0.027089449 0.15743512 0.21559072 0.103147 -0.12480075 -0.123466626 0.10225943
0.21892895 0.25829658 0.035509173 0.019534633 0.05346379 0.17323528 0.2399514 0.024314534
0.16594054 -0.134773 -0.023679458 -0.05987487 -0.033358037 -0.013848395 0.0017612847 0.08635351
-0.21141009 0.26932928 -0.14613676 0.14913203 -0.1180449 0.16967095 -0.07268175 0.096763305
0.08754531 -0.10257585 -0.16041753 -0.2067765 0.17911284 -0.13480088 0.022265323 -0.035157785

critic.linears.1.weight f4 [64, 64]
00000000: 29c8 ea3d 7266 ddbc bb72 1d3d d7e2 ac3d
00000010: 9826 0fbe 625b f4bd af78 b9bc edf8 243e
00000020: 84b7 cebd 0732 90bd 9231 e3bd 9441 16be
00000030: 7a12 e3bc 0c9f 82bd 4ee1 56be 13e1 4d3c
00000040: 3048 253e 39d7 1bbe 4521 473c beaa 253c
00000050: db70 fbbd 5fac 263e f318 8e3c a331 9cbd
00000060: 0583 903d fe4c cd3d a3c7 d13d fb0d 823c
00000070: 9514 893c 7f0f 483d 374c 54be 97f2 af3d
00000080: 9a33 853d 517a 7dbd 61c8 e0ba 13d6 1abc
00000090: 950f 053d 2ab4 743c 4e77 0abe 0da5 86bd
000000a0: e050 8939 abdc 1ebe 9cd6 c3bd e78e fe3d
000000b0: 0c97 6e3d 7c8c 1dbe 3a9b fbbd e6fc a9ba
000000c0: 13b1 0f3d 3e68 e1bd 7b06 083c 4acf d33d
000000d0: 4249 c03d ad34 a33c 8020 8cbd 520b 69be
000000e0: ab90 4abd 2005 c5bd a6d9 4e3d 1a4f e13d
000000f0: e4fe 50bd d16f c1bd 3489 11bd 817a 103d
00000100: 158b 06be 57ea 3c3e 4290 d43c c96b e7bd
00000110: 56de 503d 27dd 563c a673 633e e56f 6cbc
00000120: babb 003e ea50 603d 939b 373d cc0d 8f3c
00000130: 8974 1f3c f3e8 4a3e ddd4 a43d 704c d8bc
00000140: 202b 98bd ec18 753d e394 d03d 278d 003c
00000150: 4459 f13c b025 d0bd 0860 83bc 426b 643e
00000160: 7d76 00be 9509 8ebd 4893 fe3c bad3 bd3c
00000170: 9eae 6c3d af86 543c 812d 3c3e f0ac 5fbe
00000180: a96e dbbd cda1 ab3d dcb8 13be 14a3 b63d
00000190: 0a5f 0c3e 2e34 ba3c 445d d93d f91f 373e
000001a0: 4ec0 d8bd b216 a73c e0c0 8f3d f841 0cbe
000001b0: 00ec 9a3d 8e10 273e 150e a6bd f206 d3bd
000001c0: e985 31be 51e9 b13d 1d4b 983b 4a15 72bd
000001d0: 5bf1 0fbe 5a3f bf3c fbdd 313e 8102 603c
000001e0: 8f8b 42bc bb3f 7e3e bb67 c7bd e234 593d
000001f0: c864 9cbd a8d6 58bd 2578 15be 1e2f a2bd
00000200: 1ff1 0e3e dd87 1cbd 58f7 45bc 34a5 253e
00000210: 2cb2 e4bd 9424 1b3d 5ba0 9fbd 6080 14bc
00000220: 7306 ca3d 76bd 3ebd 7f55 4dbd 0bc9 2ebe
00000230: b782 173e cce0 2abe 1d34 24bc f72f d3bb
00000240: 9c49 ec3b 22f7 bbbd ad4a b1bd 73d6 be3d
00000250: ccd6 5ebe 2213 c53d dcd7 8abd 34ae 16be
00000260: 7b8e e9bc c722 083e 5a25 e63d 9c38 fc3a
00000270: 20b5 a5bc 2b52 2d3d 6eee a4bd e578 683d
00000280: 5263 2bbd 8cef 84bd 49f2 2d3d 3df3 043e
00000290: 4de7 f7bc e5b6 af3d 9478 19bd 5edc 05be
000002a0: 04de 933d e167 8b3d e1e5 0a3d 711c 5dbb
000002b0: 5dc8 34be eb41 6dbd 9e68 ffbd e466 7abd
000002c0: 1244 ac3d 7e91 103d 79b2 93ba febb 26bd
000002d0: 4e66 013c 3151 23be 5065 80bc c6e2 64bd
000002e0: 5da0 f73b 9b27 1abe 1f24 943d ea04 c23d
000002f0: 2182 c3bd fddc 8ebb bceb 2cbd bfe2 b03d
00000300: dd95 cfb9 70b0 533d 2a70 a13d 4832 883d
00000310: 27ed 003d 8d96 5a3d a75b 0b3e 18f0 1cbe
00000320: 0d3f e5ba 671d 1abe 3463 aa3c 0e0a d63a
00000330: 127e 7a3d 7084 673d 56e6 473d 0f46 a5bd
00000340: 4ff5 c2bb b972 583d 4f2f a53d 7f65 463d
00000350: 4da2 433e 3b4c 87bd 36be 1abe df34 5dbc
00000360: 8e43 ba3d eef9 46bd 31b4 a3bd c685 8e3d
00000370: 3f5e b53d 219e 973c 6256 043e 8143 33be
00000380: 6261 30bd c59a 273e 6c05 f4bd 4bb2 ed3c
00000390: 4255 ca3d 995a b1bd 9d17 8f3d 6ba5 ce3c
000003a0: 8836 15be 29d2 733c 8802 be3d 4068 fdbd
000003b0: edfe 28bb 5147 99bd 3b66 7bbd 0843 d0bd
000003c0: 0bdf 203d 36cb 1e3c 0fb0 b53d 156e 0ebe
000003d0: e2ef 24be c647 0c3e f597 e73d 0135 033e
000003e0: 28a6 1f3e fab0 1e3c ea5b 2cbd baeb f2bd
000003f0: ed79 5cbd d2ef 2fbd 25a2 ab3d be32 043e
0.11463959 -0.027026389 0.038439494 0.08441704 -0.13979566 -0.119314924 -0.022640554 0.16110583
-0.100935966 -0.07040792 -0.11093439 -0.14673454 -0.027718771 -0.06377992 -0.20984384 0.012565869
0.16140819 -0.1521882 0.012153928 0.010111509 -0.12277385 0.16276692 0.017345881 -0.07626655
0.0705624 0.10024451 0.10243156 0.015875807 0.016733447 0.048842903 -0.20732199 0.08591192
0.06503983 -0.06188423 -0.0017149561 -0.009450453 0.032485563 0.014935533 -0.13522074 -0.0657445
0.00026190933 -0.15513866 -0.09562418 0.124296 0.05824952 -0.15385622 -0.122854665 -0.0012969046
0.03508098 -0.11006211 0.008302326 0.103422716 0.09388973 0.019922579 -0.068421364 -0.22758225
-0.049454372 -0.09620118 0.050500534 0.110014156 -0.051024333 -0.094451554 -0.035531238 0.03527308
-0.13138993 0.18448769 0.025947694 -0.11299855 0.050993286 0.01311425 0.22212085 -0.014430975
0.12571612 0.054764666 0.0448261 0.017462634 0.009732374 0.19815426 0.08048413 -0.026403636
-0.074301004 0.05983822 0.10184648 0.007846153 0.02946151 -0.10163438 -0.016037002 0.2230654
-0.125452 -0.069354214 0.031076089 0.023172248 0.057783715 0.012971564 0.18376733 -0.21843314
-0.10714466 0.083804704 -0.14425987 0.089178234 0.1370813 0.02272996 0.10613492 0.1788329
-0.10583554 0.020396564 0.0701921 -0.1369704 0.07564545 0.16314909 -0.08108155 -0.10304059
-0.17336239 0.0868708 0.004647626 -0.059102334 -0.14056914 0.023345638 0.17369835 0.013672472
-0.011874094 0.24828999 -0.09736582 0.05302895 -0.0763641 -0.052939087 -0.14596613 -0.07919143
0.13959168 -0.038215507 -0.012082897 0.16176301 -0.11166796 0.03787668 -0.07794257 -0.00906381
0.09864511 -0.046567403 -0.050130364 -0.1706888 0.14795958 -0.16687316 -0.01002219 -0.006444927
0.0072109234 -0.09177996 -0.086568214 0.09318247 -0.21761626 0.0962279 -0.06779453 -0.1471489
-0.028510323 0.13294517 0.11237593 0.0019242945 -0.020227969 0.04231469 -0.08053289 0.05675592
-0.041842766 -0.064910024 0.04246739 0.12983413 -0.03026166 0.08579806 -0.037468508 -0.13072345
0.072200805 0.06806923 0.033910636 -0.0033738876 -0.17654558 -0.057924192 -0.12471126 -0.06113328
0.08411421 0.035295002 -0.0011268399 -0.040706627 0.0078979265 -0.15948941 -0.01567331 -0.05588033
0.0075569586 -0.15054171 0.07233452 0.094735935 -0.095463045 -0.00435984 -0.042217 0.086369984
-0.00039593774 0.051681936 0.07882722 0.066502154 0.031476166 0.053366233 0.13609181 -0.15325963
-0.0017490104 -0.15050279 0.020799257 0.0016329901 0.061155386 0.056522787 0.04880365 -0.08070003
-0.005949653 0.052843783 0.08065664 0.048436638 0.19104882 -0.06606337 -0.15111622 -0.013501375
0.09094916 -0.048578195 -0.07993353 0.06959109 0.08855867 0.018508019 0.12923577 -0.1750622
-0.04306162 0.16367634 -0.11915097 0.02901568 0.09879543 -0.08659858 0.06986926 0.025225362
-0.14571583 0.014881649 0.092778265 -0.123734 -0.0025786713 -0.07484306 -0.06137679 -0.10169035
0.03927521 0.009692004 0.08871471 -0.1390918 -0.16107133 0.13699254 0.113082804 0.12813188
0.15590727 0.009685749 -0.042079844 -0.118613675 -0.053827215 -0.04295332 0.08380536 0.12909982

critic.linears.1.bias f4 [64]
00000000: 3dcc edbd d6b8 9fbc 3098 873d 4c25 5e3d
00000010: b72e 6a3d f363 8c3b f075 853d 256a 983c
00000020: d243 a1bd 43e6 f3bd b47f 1cbb 5635 b33d
00000030: 0587 2a3d cd66 023d 821e cb3c 8328 27be
00000040: 06af 75bd 58ad 0bbe 4440 e23d d8ed c73d
00000050: 9477 88bd 741b 6d3d 02d2 39bc 8f1b 07be
00000060: 5fca a33d cbef 47bc 5efa 93bd 208b 813c
00000070: a9c6 0b3e d67f 033d 69d9 653d 936d e3bd
00000080: 424a dfbd 9254 c7bd d02f 07be 88e7 bf3d
00000090: 4560 073d 7795 e739 6f56 013d 0446 e03d
000000a0: 1f92 d93d cba3 60bd 2757 60bd 4df3 023e
000000b0: d781 383d 1ab3 4b3d 336b 9b3d dabc 40b9
000000c0: 5470 eebc 480d 483d cbd0 f53d 0983 923d
000000d0: 168f 86bd afce c9bb f47d fd39 775c 3abd
000000e0: 3ad7 a53d 9555 3e3d b121 1cbd 2e35 8d3d
000000f0: 4f38 a53d ee47 d03d 10a6 8dbd 4690 893c
-0.11611221 -0.019497316 0.06620824 0.054234788 0.057173457 0.004284376 0.065166354 0.018605301
-0.07874264 -0.11909153 -0.0023879828 0.087504074 0.04163267 0.03183632 0.02479482 -0.16324048
-0.05998137 -0.13640344 0.11047414 0.09762162 -0.06663433 0.05788751 -0.011341574 -0.13194107
0.079975836 -0.012203167 -0.07225488 0.01581341 0.13650002 0.032104336 0.05611554 -0.11104884
-0.109028354 -0.097329274 -0.13201833 0.09370333 0.033050794 0.00044171113 0.03157657 0.109508544
0.106235735 -0.054843705 -0.054770615 0.12788124 0.0450457 0.04973135 0.07588806 -0.000183809
-0.029106297 0.04884079 0.12002715 0.07153899 -0.0657026 -0.006158672 0.00048349763 -0.045498338
0.08097692 0.046468336 -0.038118068 0.06894909 0.08067381 0.101699695 -0.069164395 0.016792428

critic.linears.2.weight f4 [1, 64]
00000000: e9df cc3e 1080 c8be 6bed d43e 717e efbe
00000010: ff32 eabe f1ed e53e c5f9 c5be 0482 f33e
00000020: 7740 e23e 6c6a e43e 03f6 fabe 393f f0be
00000030: d7d6 efbe 9d83 cd3e 723f cb3e fd98 ed3e
00000040: e98c da3e b927 d43e feed cbbe f240 c6be
00000050: 44a3 cabe 09da f63e 8176 ec3e 84be c73e
00000060: 6c97 d0be fe34 fdbe be0d f4be 697a f3be
00000070: 193b d5be 57ce d0be 87b6 c23e ffe8 cb3e
00000080: 88d8 c93e cfe2 d83e 48d0 e03e 9ddd f1be
00000090: 9d83 e63e 31ee f93e abae c1be 555c d9be
000000a0: 2f71 e0be 652c cf3e 4e06 d1be ea87 e6be
000000b0: 38e6 bdbe 47ee f2be 7a6a e23e f2fb db3e
000000c0: 3a98 00bf 272b fbbe c017 d0be 5c77 cabe
000000d0: fc7d ffbe 2ae3 d2be a34f e43e 587b f6be
000000e0: a233 d9be d47c d63e e914 e73e 6c34 e53e
000000f0: a236 d2be 4a6d c7be 7e63 c5be ef21 e9be
0.4001458 -0.39160204 0.41587386 -0.46776155 -0.45742032 0.44908097 -0.38667122 0.47560132
0.44189808 0.44612443 -0.49015817 -0.46923235 -0.46843597 0.40139475 0.39696842 0.46405783
0.4268563 0.41436556 -0.3983001 -0.38721424 -0.39577687 0.48213223 0.4618416 0.3901254
-0.40740526 -0.49454492 -0.47666734 -0.4755433 -0.4164665 -0.40782425 0.38029882 0.398262
0.39423013 0.4236054 0.43908906 -0.4723939 0.45022288 0.48814538 -0.37828574 -0.42453256
-0.43836352 0.40463558 -0.40825123 -0.4502557 -0.37089705 -0.47447416 0.4422186 0.42965657
-0.5023228 -0.4905636 -0.4064312 -0.3954419 -0.49900806 -0.41188937 0.44592008 -0.4814098
-0.42422205 0.4189211 0.4513314 0.44766557 -0.41057307 -0.38950568 -0.3855247 -0.45533702
