trained_network/SD2/curriculum_train_fix1_2_hent.pth (torch, 61657 bytes, 26 tensors)

feature_exact.j_encoder.linears.0.weight f4 [8, 13]
0	0xbc1e2455	-0.009652217
1	0x3e4d78a2	0.20065549
2	0x3e7c9596	0.24666438
3	0x3e4b7972	0.19870546
4	0x3ea65312	0.32485253
5	0xbdab32e9	-0.0835932
6	0xbe2498ef	-0.16073965
7	0x3ba1f108	0.0049420632
8	0x3e7b434a	0.24537387
9	0xbcf3c4fa	-0.029757012
10	0xbc8696d8	-0.01642935
11	0xbe2a5830	-0.16635203
12	0xbcac2c5c	-0.021017246
13	0xbe9cd086	-0.3062784
14	0xbe78120d	-0.24225636
15	0xbda982fd	-0.08276937
16	0xbad489df	-0.0016215405
17	0x3d64d035	0.055862624
18	0x3e2a487f	0.16629218
19	0xbd36295c	-0.044473037
20	0xbb9ff15c	-0.004881067
21	0xbd794e24	-0.060865536
22	0xbda9c54f	-0.08289587
23	0xbe4c7613	-0.19966917
24	0x3e3af8ef	0.18259023
25	0xbe075fd7	-0.13220154
26	0x3e107107	0.14105617
27	0x3e4e6da9	0.2015902
28	0xbe7619e9	-0.24033321
29	0x3dbc7f52	0.09203972
30	0xbd3e60cc	-0.04647903
31	0x3df22969	0.118243046
32	0xbe58a6d3	-0.21157388
33	0x3e5441c4	0.20728213
34	0xbe34d05e	-0.17657611
35	0x3e8ce020	0.27514744
36	0x3c01fba4	0.007933531
37	0xbdc4fb4f	-0.09618246
38	0x3df0e1d6	0.11761825
39	0x3dd54357	0.10413235
40	0x3e81c7c4	0.25347722
41	0xbebe6235	-0.371843
42	0xbe05ee84	-0.13079268
43	0xbe68b494	-0.22725135
44	0xbce0f160	-0.027458847
45	0x3e2d3e8e	0.16918394
46	0xbdb88e32	-0.090114966
47	0xbeac2c4a	-0.3362754
48	0xbd973e77	-0.07384961
49	0xbe5553eb	-0.20832793
50	0x3e8d9f88	0.27660775
51	0x3e1fed20	0.156178
52	0xbe2703a6	-0.16309986
53	0xbed39a1f	-0.41328523
54	0x3e8431f1	0.25819352
55	0xbd07f165	-0.033189196
56	0x3e8b5f10	0.27220964
57	0x3d705f0a	0.058684386
58	0xbe8a3c8c	-0.2699932
59	0xbd8c031c	-0.068365306
60	0x3e02a9c5	0.12760074
61	0xbe217ccc	-0.15770262
62	0x3e67dee9	0.22643627
63	0x3db73032	0.089447394
64	0xbe874ee6	-0.26427382
65	0x3cedc998	0.029026791
66	0xbd9f5762	-0.07780339
67	0xbd4b5b3c	-0.049647555
68	0xbdfa0d0d	-0.122095205
69	0xbe1d80ee	-0.15381214
70	0x3e74e98c	0.23917216
71	0x3e40897a	0.18802443
72	0xbe3e972e	-0.18612358
73	0xbd12e99a	-0.03586731
74	0x3d89bb8a	0.06725223
75	0xbe00dd4d	-0.1258442
76	0x3e99b408	0.30020165
77	0xbe46dab3	-0.19419365
78	0x3e90b1ad	0.28260556
79	0xbe1f1bd8	-0.15537965
80	0x3e0d5a0a	0.13803878
81	0x3db7ff0c	0.08984193
82	0xbe79e00d	-0.24401875
83	0x3d85b8ab	0.06529363
84	0xbd481c36	-0.04885503
85	0xbe235c8a	-0.1595327
86	0xbdcb5ded	-0.09930024
87	0xbd012af3	-0.0315351
88	0x3ca0b15c	0.019615822
89	0x3dc90857	0.09816044
90	0xbe90b6e0	-0.28264523
91	0xbd9f32cf	-0.07773363
92	0xbd71a003	-0.05899049
93	0x3d8cf01c	0.06881735
94	0xbdb06908	-0.08613783
95	0xbce4dd16	-0.027937453
96	0x3d3eb5e3	0.04656018
97	0x3e1910a3	0.14947753
98	0xbd3c38f3	-0.04595275
99	0x3d8974f5	0.06711761
100	0x3df994e5	0.121866025
101	0xbc8dacdc	-0.01729434
102	0x3e545211	0.20734431
103	0xbded0225	-0.11572675

feature_exact.j_encoder.linears.0.bias f4 [8]
0	0xbc5783bd	-0.013153967
1	0x3d7ad82e	0.06124132
2	0x3ca9b96a	0.020718295
3	0xbc4a109b	-0.012333061
4	0x3bdbb540	0.0067049563
5	0xbe60f1f7	-0.21967302
6	0x3e8e8973	0.2783924
7	0x3ea1ec22	0.31625468

feature_exact.j_encoder.linears.1.weight f4 [8, 8]
0	0xbe8cb3c2	-0.27480894
1	0x3ec2d934	0.38056338
2	0x3dc3a431	0.095528014
3	0x3eafe52d	0.34354535
4	0xbe20443c	-0.1565103
5	0xbe8c272f	-0.27373645
6	0xbdf5d5c6	-0.12003665
7	0xbe15ba09	-0.14621748
8	0x3e956bc8	0.29183793
9	0xbdc9cdb7	-0.0985369
10	0xbda0669f	-0.078320734
11	0xbe850dcf	-0.25987098
12	0x3dcfcfd8	0.10147065
13	0xbc96da8d	-0.01841476
14	0xbe1ccf55	-0.15313466
15	0x3eb6312c	0.3558439
16	0xbec6f895	-0.38861528
17	0x3d97ee85	0.07418541
18	0xbe7f42fe	-0.24927899
19	0xbe9f8654	-0.31157172
20	0x3e544e9c	0.20733112
21	0x3e9b0bb0	0.30282354
22	0x3db93c7b	0.09044739
23	0x3eb7c447	0.35891935
24	0x3e0b3254	0.13593417
25	0xbe17f4bd	-0.14839454
26	0xbd841321	-0.06448961
27	0xbdded527	-0.10880499
28	0xbe906f9e	-0.28210157
29	0x3eaa1ca1	0.33224967
30	0xbdd73d31	-0.10509718
31	0xbdc6b56e	-0.09702574
32	0x3d9b87ba	0.07594247
33	0x3e6ab4ba	0.22920504
34	0x3e7d4367	0.24732743
35	0x3e62d340	0.22150898
36	0x3da7b071	0.081879504
37	0xbe2591fd	-0.16168971
38	0xbe2dc04e	-0.1696789
39	0xbea4a6f4	-0.32158625
40	0xbdf490d9	-0.1194169
41	0x3d37b962	0.04485453
42	0xbe8d7d06	-0.27634448
43	0x3de3751d	0.11106322
44	0xbe4ff759	-0.203092
45	0xbe5f137d	-0.21784778
46	0xbd7a13f6	-0.061054192
47	0x3caa22bb	0.020768514
48	0xbd069a69	-0.0328621
49	0x3e56664b	0.20937459
50	0xbccc6e7d	-0.024955029
51	0xbe8b5b39	-0.27218035
52	0xbe80243d	-0.25027648
53	0x3e73c023	0.23803763
54	0x3d3adbe5	0.045619864
55	0x3d90ef23	0.07076862
56	0x3ea7fde0	0.3281088
57	0x3e4c5ed3	0.19958048
58	0x3e34bfb7	0.17651258
59	0x3ecb510d	0.39710274
60	0x3e713c96	0.23558268
61	0xbe000b55	-0.12504323
62	0xbe550037	-0.20800863
63	0x3d3dd408	0.046344787

feature_exact.j_encoder.linears.1.bias f4 [8]
0	0x3baf029f	0.0053408886
1	0xbd954f0e	-0.07290469
2	0x3e47cd50	0.19511914
3	0x3dd1d8ba	0.102464154
4	0x3e3b0130	0.18262172
5	0x3ec23937	0.37934276
6	0xbe0a0277	-0.13477503
7	0xbc9ccd4a	-0.019140858

feature_exact.j_encoder.linears.2.weight f4 [8, 8]
0	0xbd976a90	-0.07393372
1	0xbf003c93	-0.5009243
2	0x3e9980b3	0.29981002
3	0xbd770945	-0.060311574
4	0xbe437b37	-0.19089971
5	0x3d839fe2	0.064269796
6	0x3de4e048	0.11175591
7	0xbe20c1ce	-0.1569893
8	0x3ea03097	0.3128707
9	0xbe29b381	-0.16572382
10	0x3ce0a539	0.027422534
11	0x3eb6b57a	0.3568533
12	0x3e3a6118	0.18201101
13	0x3de992b6	0.11404936
14	0x3ccb6494	0.024828233
15	0x3eaa3452	0.33243042
16	0xbde6f4be	-0.112771496
17	0xbdb842fe	-0.08997153
18	0xbc97e571	-0.018542023
19	0x3e0b3db5	0.13597758
20	0x3e1ddd86	0.15416536
21	0xbe864ef8	-0.26232123
22	0x3e8a6f96	0.27038258
23	0xbe71c41c	-0.23609966
24	0x3d2d3143	0.042283308
25	0x3dd939bc	0.10606715
26	0x3c8fdee4	0.017562337
27	0xbdc8a37e	-0.09796809
28	0x3e6bb26f	0.23017286
29	0xbe88d51d	-0.26725093
30	0x3e95cf95	0.29259935
31	0x3de39d55	0.11113993
32	0x3cb83d53	0.02249018
33	0x3e69caea	0.22831312
34	0x3ece7006	0.40319842
35	0x3dba9cbf	0.09111928
36	0x3e0277d4	0.12741023
37	0xbda1c702	-0.07899286
38	0xbe200929	-0.15628494
39	0xbe5ba0cb	-0.21448056
40	0x3da325c8	0.079661906
41	0x3dfd06c3	0.12354805
42	0x3e9627d6	0.29327267
43	0xbe9ae991	-0.30256322
44	0x3e0a04c6	0.13478383
45	0x3e745801	0.23861696
46	0x3df9952e	0.12186657
47	0xbdf45803	-0.119308494
48	0xbe28cd65	-0.16484602
49	0xbd95fb79	-0.07323355
50	0x3eb85d69	0.36008766
51	0xbea126b4	-0.3147484
52	0xbe8dbaae	-0.27681488
53	0x3ee0e31f	0.4392328
54	0x3e97bebe	0.29637712
55	0xbdea571e	-0.114423975
56	0x3ba56719	0.0050476906
57	0x3dd4c840	0.10389757
58	0xbe44575b	-0.19173948
59	0xbdc7c211	-0.09753812
60	0x3e5692a2	0.20954373
61	0xbed704aa	-0.41995746
62	0xbe2a21d9	-0.16614474
63	0x3e083c9d	0.13304372

feature_exact.j_encoder.linears.2.bias f4 [8]
0	0x3e97914d	0.29603043
1	0x3e81ce13	0.25352535
2	0x3e98b4fb	0.29825577
3	0xbd91d94c	-0.07121524
4	0xbd0a761d	-0.033804048
5	0x3e3f1952	0.18662003
6	0x3d97adc2	0.074061885
7	0x3db478e2	0.08812119

feature_exact.m_encoder.linears.0.weight f4 [8, 8]
0	0xbe99223f	-0.2990894
1	0xbe03b216	-0.12860903
2	0xbe773bfe	-0.24143979
3	0x3e14dd37	0.14537512
4	0xbe69598c	-0.22788066
5	0x3d3fdd17	0.046841707
6	0xbdfe7b54	-0.12425867
7	0x3e3897b1	0.18026616
8	0x3e823074	0.25427592
9	0xbe2662fa	-0.16248694
10	0xbeac1789	-0.33611706
11	0xbe59a6f5	-0.21255095
12	0x3c2c6414	0.010521907
13	0xbeae8b84	-0.34090817
14	0xbe68d168	-0.22736132
15	0x3e992661	0.29912093
16	0x3ccd9f76	0.025100451
17	0xbe8f6e0d	-0.2801365
18	0x3c53c127	0.012924469
19	0xbd3464c9	-0.04404143
20	0x3de02bc5	0.109458484
21	0x3e8ca0be	0.27466387
22	0x3ddc4236	0.10754816
23	0xbe53f6c4	-0.20699602
24	0xbe227eae	-0.15868637
25	0xbe9a1af2	-0.30098683
26	0xbdc77938	-0.097399175
27	0x3e95e5af	0.29276797
28	0xbe371909	-0.17880644
29	0xbe1b60ed	-0.15173693
30	0xbe119ec5	-0.14220722
31	0x3c595fa2	0.01326743
32	0xbea8d3f4	-0.32974207
33	0x3e191e7b	0.14953034
34	0x3ebced15	0.3689963
35	0x3e832605	0.25614944
36	0xbe7b899a	-0.2456421
37	0x3e91cbaf	0.2847571
38	0x3db81bd3	0.08989682
39	0xbc6cc790	-0.014451876
40	0x3e58dc67	0.21177827
41	0x3e90725f	0.28212258
42	0x3d31e885	0.04343464
43	0xbd98e063	-0.07464673
44	0xbead6f1f	-0.3387384
45	0x3eba3e96	0.36375874
46	0xbd907071	-0.070526965
47	0x3eb3c8d6	0.35114163
48	0xbe33a09a	-0.17541733
49	0xbe89bfcf	-0.2690415
50	0x3e238ea8	0.15972388
51	0x3e94c307	0.29055044
52	0x3def8bea	0.11696608
53	0xbea05fb1	-0.31323007
54	0xbe78749c	-0.24263233
55	0x3e4018dd	0.18759485
56	0x3c76f6f9	0.015073531
57	0x3e95eff5	0.29284635
58	0xbe8addf2	-0.27122456
59	0x3e55c465	0.208757
60	0x3e923585	0.28556457
61	0x3e7e0d2f	0.24809717
62	0x3e908fb8	0.2823465
63	0x3e35fd70	0.1777246

feature_exact.m_encoder.linears.0.bias f4 [8]
0	0x3c16736c	0.009182792
1	0x3e8ca820	0.2747202
2	0xbe695a42	-0.22788337
3	0x3c236b71	0.0099743465
4	0xbe01103a	-0.12603846
5	0xbe7643a5	-0.24049242
6	0x3e9e616a	0.30933696
7	0xbe1c8d70	-0.15288329

feature_exact.m_encoder.linears.1.weight f4 [8, 8]
0	0xbe99fd54	-0.30076087
1	0xbe338e21	-0.17534687
2	0x3eb0754e	0.34464496
3	0x3de139eb	0.10997375
4	0xbdab3d19	-0.08361263
5	0xbe7ac149	-0.24487795
6	0xbe52fcd3	-0.20604257
7	0xbd4ce183	-0.050019752
8	0x3e56fd39	0.20995034
9	0x3eb939f1	0.36177018
10	0xbae61dbb	-0.0017556468
11	0xbcae19bc	-0.021252505
12	0x3eb7fd61	0.359355
13	0x3d789161	0.06068552
14	0x3dc52294	0.09625736
15	0x3e9b07be	0.30279344
16	0x3defde57	0.1171233
17	0xbe3c0a55	-0.18363316
18	0x3e8f4dad	0.2798895
19	0x3e1fe7a5	0.15615709
20	0xbe7307ce	-0.23733446
21	0xbddc027e	-0.10742663
22	0xbdf7550f	-0.120767705
23	0x3e23c01f	0.15991257
24	0x3c728a3e	0.014803467
25	0xbdfd793a	-0.12376638
26	0x3e8c5acc	0.27413023
27	0xbccccdc4	-0.02500046
28	0xbd726d74	-0.059186414
29	0x3ebbfe34	0.3671738
30	0x3e360515	0.17775376
31	0x3e913d74	0.28367198
32	0x3e9f3804	0.31097424
33	0x3d6ebedc	0.058287486
34	0x3ebe48d6	0.37164944
35	0x3e9d70ab	0.3075002
36	0x3db3e33b	0.08783575
37	0x3d9d5142	0.07681514
38	0xbe8d2059	-0.27563742
39	0x3e92b888	0.2865641
40	0xbda2c72c	-0.07948145
41	0x3da3617a	0.079775766
42	0xbe264e89	-0.16240896
43	0xbd3358dd	-0.04378592
44	0xbe1e1f63	-0.1544166
45	0xbdef5dd7	-0.116878204
46	0xbe8c0057	-0.2734401
47	0xbcb475f0	-0.022028893
48	0xbe9650eb	-0.2935861
49	0xbe8f2cd2	-0.27963883
50	0x3e4f90ae	0.20270035
51	0xbdb76cb4	-0.0895628
52	0xbe202fdb	-0.15643255
53	0xbea86681	-0.32890704
54	0x3e86f142	0.2635594
55	0x3e378c82	0.17924693
56	0xbdf998c4	-0.12187341
57	0x3c784743	0.015153709
58	0x3e5da49e	0.21644828
59	0xbe751a03	-0.23935704
60	0xbd23b264	-0.03996505
61	0x3e621fc9	0.22082438
62	0xbe94c382	-0.2905541
63	0xbeab6b78	-0.3348043

feature_exact.m_encoder.linears.1.bias f4 [8]
0	0xbcdee9ae	-0.027211037
1	0xbe6e1e52	-0.23253754
2	0x3e9c72d2	0.3055635
3	0xbca9de0a	-0.02073576
4	0xbe3934a1	-0.18086483
5	0xbe5af877	-0.21383844
6	0x3dca319a	0.09872742
7	0x3ea0905f	0.31360146

feature_exact.m_encoder.linears.2.weight f4 [8, 8]
0	0x3e4e2235	0.20130236
1	0xbea35754	-0.31902564
2	0xbe4eccb0	-0.2019527
3	0xbe80a32f	-0.251245
4	0xbe9794d5	-0.29605737
5	0x3e94df3b	0.2907656
6	0x3db0f5cf	0.08640634
7	0xbe507a19	-0.20359077
8	0x3e840190	0.25782442
9	0x3d46fc49	0.04858044
10	0x3dc3f307	0.09567838
11	0x3e5716d2	0.21004799
12	0x3e261cdf	0.16221951
13	0x3e839b32	0.25704342
14	0xbe133740	-0.14376545
15	0xbe428af2	-0.18998316
16	0xbecc92c6	-0.3995573
17	0xbebd5ce5	-0.36984935
18	0x3c55621d	0.01302388
19	0x3daab291	0.0833484
20	0xbe4dc80e	-0.20095846
21	0x3e4e4e75	0.20147116
22	0x3e313346	0.17304716
23	0x3e77aa71	0.24186112
24	0xbe171bf1	-0.14756753
25	0x3cb2b108	0.02181293
26	0xbe72d079	-0.23712339
27	0x3e0f73a7	0.14008962
28	0x3e0de33b	0.13856213
29	0xbd0bc7ef	-0.03412622
30	0xbd89d3e5	-0.06729869
31	0x3e9f8709	0.3115771
32	0xbeba19bb	-0.36347756
33	0xbe2e3519	-0.17012443
34	0xbe996ba7	-0.29964945
35	0x3e956c8e	0.29184383
36	0x3df40da6	0.11916666
37	0xbe9f60f3	-0.31128654
38	0x3e06575d	0.13119264
39	0x3eb4b0ca	0.3529113
40	0x3d18a4ac	0.03726642
41	0xbd2688cd	-0.040657807
42	0x3e8d9408	0.27652
43	0xbe2cb2c2	-0.16865066
44	0xbe98960c	-0.29801977
45	0xbe025d71	-0.12730958
46	0x3ea7e409	0.32791165
47	0x3d171ec2	0.036894567
48	0x3cbba5c3	0.02290619
49	0xbdae3480	-0.08506107
50	0x3dd8de7a	0.10589309
51	0x3e254ade	0.16141841
52	0x3e44c486	0.19215593
53	0x3ea99366	0.3312027
54	0x3e92153f	0.28531834
55	0x3db8d2b4	0.090245634
56	0xbe6e4b38	-0.23270881
57	0x3dc30b54	0.09523645
58	0x3bc91ba4	0.006137328
59	0x3e50f338	0.2040528
60	0xbe580433	-0.21095352
61	0x3de134ab	0.10996374
62	0xbe880de7	-0.26573107
63	0xbd971e89	-0.07378871

feature_exact.m_encoder.linears.2.bias f4 [8]
0	0x3d628056	0.055298172
1	0xbe10e729	-0.1415068
2	0x3e8e9882	0.2785073
3	0x3dbc3be1	0.091911085
4	0x3d272a67	0.040811922
5	0xbe603e4b	-0.21898763
6	0xbe648b49	-0.22318758
7	0x3ea0ad0b	0.3138202

feature_exact.j_ln.weight f4 [8]
0	0x3f9263e9	1.143674
1	0x3f839545	1.0279928
2	0x3f7c76b9	0.98618656
3	0x3f84edc1	1.0385057
4	0x3f83a33e	1.0284193
5	0x3f87fba9	1.0623676
6	0x3f895379	1.0728599
7	0x3f8fc724	1.1232648

feature_exact.j_ln.bias f4 [8]
0	0x3cb01637	0.021494968
1	0x3c8f33a2	0.017480675
2	0xbc6eeb3e	-0.014582453
3	0xbd129e36	-0.035795413
4	0xbcb1f381	-0.021722557
5	0x3d3bc75c	0.04584442
6	0x3b9becca	0.004758452
7	0xbdabd1da	-0.083896354

feature_exact.m_ln.weight f4 [8]
0	0x3f843ad8	1.0330458
1	0x3f7e706d	0.993903
2	0x3f807738	1.0036383
3	0x3f794861	0.97376066
4	0x3f84ec2e	1.0384576
5	0x3f82b184	1.0210423
6	0x3f83dabd	1.0301129
7	0x3f82bfba	1.021476

feature_exact.m_ln.bias f4 [8]
0	0xbcdf97c7	-0.027294053
1	0x3afdfa78	0.0019377014
2	0x3bae4c06	0.0053191213
3	0xbc4ebc39	-0.012618118
4	0xbc88f64e	-0.01671901
5	0xbca865fa	-0.020556439
6	0xbcf2b886	-0.029629003
7	0x3ca5c656	0.020236176

actor.linears.0.weight f4 [64, 40]
0	0x3b955cc5	0.004558178
1	0xbe1f250f	-0.1554148
2	0xbe07364f	-0.13204311
3	0xbc81ab82	-0.015828852
4	0xbc1cdf3f	-0.00957471
5	0x3c082b4d	0.008311105
6	0xbe050c0e	-0.1299288
7	0x3d1ab79d	0.037772764
8	0xbcd63469	-0.026148038
9	0xbdc2ee82	-0.09518148
10	0xbdeecbab	-0.1165994
11	0x3db2dd49	0.08733613
12	0x3d33a248	0.043855935
13	0xbd0aadba	-0.033857085
14	0xbe0cad87	-0.1373807
15	0xbe10888c	-0.14114588
16	0x3d3d4b3c	0.046214327
17	0x3dbb39e3	0.091419004
18	0x3d4dedc3	0.050275575
19	0xbcfece52	-0.03110424
20	0xbc08d0f5	-0.0083506005
21	0x3cb1e701	0.021716597
22	0x3db7a3ad	0.089667656
23	0xbcdb4895	-0.026768008
24	0xbac74b14	-0.001520487
25	0x3d9045c5	0.070445575
26	0x3e2c5393	0.16828756
27	0xbdc112f9	-0.09427447
28	0xbaaffd79	-0.0013426981
29	0xbda4dd66	-0.08050041
30	0xbdcf21d4	-0.10113874
31	0x3d80ab60	0.06282687
32	0xbe53967f	-0.20662878
33	0xbe248cb7	-0.16069303
34	0xbd3eacbe	-0.04655146
35	0x3cc4c32b	0.024018845
36	0xbdae441e	-0.08509086
37	0xbd87c4b9	-0.06629319
38	0x3d738906	0.059456848
39	0x3dadb740	0.08482218
40	0xbe204451	-0.1565106
41	0x3b62e3cd	0.0034620643
42	0xbd4148a7	-0.047188427
43	0xbe0c89d9	-0.1372446
44	0x3e23832b	0.15968005
45	0xbd48528d	-0.04890685
46	0x3e180d9d	0.14848943
47	0xbe07a2b2	-0.13245657
48	0x3df3988c	0.118943304
49	0x3de79b99	0.11308975
50	0xbd03456d	-0.03204863
51	0xbdfbbdba	-0.12292047
52	0x3d8e3b0d	0.06944857
53	0x3e0982bf	0.13428782
54	0xbe21e430	-0.15809703
55	0xbd3b3cd5	-0.04571231
56	0xbd5ac202	-0.053407677
57	0xbdc445ba	-0.09583612
58	0xbe015fdf	-0.12634228
59	0xbd80f2f0	-0.06296337
60	0xbe11e49a	-0.14247361
61	0x3d94ef4a	0.07272203
62	0x3d33011a	0.043702222
63	0x3d25e4bb	0.040501337
64	0xbd612388	-0.054965526
65	0xbdd4d2fe	-0.10391806
66	0xbcc2468c	-0.02371528
67	0x3cc9bc84	0.024626024
68	0x3ce6a5ed	0.028155291
69	0xbd51906f	-0.051163133
70	0xbde37fb5	-0.111083426
71	0x3e3ed14e	0.18634531
72	0x3d88f01b	0.066864215
73	0xbdaf876d	-0.08570752
74	0xbd3aa144	-0.04556395
75	0xbd8199ac	-0.06328139
76	0xbe0dec74	-0.13859731
77	0xbe31fe58	-0.1738218
78	0xbe306f1e	-0.17229888
79	0xbcc8bdfd	-0.024504656
80	0x3dcf4ba4	0.10121849
81	0x3b2af324	0.0026084865
82	0xbe18ff55	-0.14941151
83	0x3cc86de0	0.024466455
84	0x3e09ed6d	0.13469477
85	0xbd56b082	-0.052414425
86	0x3cdfd173	0.027321553
87	0x3dcead76	0.10091679
88	0x3d8de493	0.06928363
89	0x3c08e5b7	0.00835555
90	0x3d59a1cb	0.053132813
91	0xbd02cd75	-0.03193422
92	0xbbbdeac4	-0.0057958085
93	0x3dba3e9a	0.090939716
94	0xbd90b0e1	-0.07064987
95	0xbdafbb79	-0.085806794
96	0xbcaa2914	-0.02077154
97	0xbdeaae23	-0.11458995
98	0xbe0bd932	-0.13657072
99	0xbe27213a	-0.16321269
100	0x3ca21211	0.019784005
101	0xbd99c2c5	-0.075078525
102	0xbdb03b6f	-0.08605086
103	0xbade47cf	-0.0016958656
104	0x3c5a9368	0.013340808
105	0x3d96907a	0.073517755
106	0xbde88133	-0.11352768
107	0xbd439f28	-0.047759205
108	0xbe270e56	-0.16314062
109	0x3d7cc841	0.061714415
110	0xbd9d1c2e	-0.076713905
111	0x3c882fa5	0.016624281
112	0xbe07afc5	-0.13250645
113	0x3d0563e9	0.032565985
114	0x3cabf972	0.020992968
115	0xbdd087f6	-0.101821825
116	0xbc80affd	-0.015708918
117	0x3cf5b8b2	0.029995296
118	0xbd870707	-0.06593137
119	0xbda32737	-0.07966464
120	0x3d81437b	0.06311699
121	0xbd885dca	-0.06658514
122	0x3df782e1	0.1208551
123	0xbd044a8c	-0.032297656
124	0xbd2eb1e0	-0.042650104
125	0x3cc3aad3	0.023885166
126	0x3dc7bfb5	0.09753362
127	0x3dfef3ad	0.12448821
128	0xbc206ba0	-0.009791285
129	0x3d448ae7	0.04798403
130	0xbd1b6fc7	-0.037948396
131	0x3d09e11d	0.03366195
132	0x3dbe9c3e	0.093071446
133	0xbd6c7785	-0.05773117
134	0xbe09559b	-0.13411562
135	0xbd31a6dc	-0.04337202
136	0x3d83f628	0.06443435
137	0x3a75f915	0.00093831244
138	0xbc9f5c47	-0.019453181
139	0x3df63325	0.12021474
140	0x3cc72bab	0.024312815
141	0xbd4f547a	-0.050617673
142	0x3b66f191	0.00352392
143	0xbd4d62de	-0.050143115
144	0xbe22991e	-0.15878722
145	0xba979cd5	-0.0011567125
146	0x3d2541cd	0.040345956
147	0xbd8eefa5	-0.06979302
148	0xbd0ce89d	-0.034401525
149	0xbe1cd9c6	-0.15317449
150	0xbe257052	-0.16156128
151	0x3bf9ee3f	0.007627278
152	0xbdae7483	-0.085183166
153	0x3beb8342	0.007187278
154	0xbe062c88	-0.13102925
155	0xbcb14701	-0.021640303
156	0xbe455af7	-0.19272982
157	0xbdd957b1	-0.10612429
158	0xbe3ab8a0	-0.18234491
159	0x3db6b059	0.089203544
160	0x3cdcc1e5	0.026947925
161	0x3b9280e7	0.0044709328
162	0xbd8f61c2	-0.07001068
163	0x3dc0d11c	0.094148844
164	0x3cfb9acb	0.03071346
165	0xbcb2a48c	-0.021806978
166	0xbddfa62d	-0.109203674
167	0xbdb594bf	-0.08866262
168	0xbd14d679	-0.03633735
169	0xbe0658d5	-0.13119824
170	0x3de1c523	0.11023929
171	0xbd592027	-0.05300918
172	0x3ddcfcce	0.10790406
173	0xbd7edbab	-0.06222121
174	0x3d9be139	0.07611317
175	0x3d7e1f7c	0.062041745
176	0xbe21486b	-0.15750282
177	0xbe1ec866	-0.15506133
178	0xbe35a6ad	-0.17739363
179	0xbcc634b9	-0.024195062
180	0x3e4a1ef0	0.19738364
181	0xbd532f1a	-0.05155859
182	0xbd8cd47e	-0.06876467
183	0xbca3840d	-0.019960428
184	0x3e017cb5	0.12645228
185	0x3d38eaf6	0.04514595
186	0x3d1703e0	0.03686893
187	0x3db5cff3	0.08877554
188	0x3e2fda8d	0.17173214
189	0xbd02b6db	-0.031912666
190	0x3e3e4d73	0.18584232
191	0x3c719a76	0.014746299
192	0xbd1ecb37	-0.03876802
193	0x3e3d0e94	0.18462592
194	0x3e36c954	0.17850238
195	0x3ce6a229	0.028153496
196	0x3e1442cf	0.1447861
197	0x3e1be2c1	0.15223219
198	0xbd9c049c	-0.07618067
199	0xbe2cfc05	-0.16893013
200	0x3e194980	0.14969444
201	0x3c683070	0.014171705
202	0x3d9d842e	0.07691227
203	0x3d072322	0.03299249
204	0x3c521a76	0.012823692
205	0xbbf32d58	-0.007421177
206	0xbd2cbfd6	-0.042175137
207	0x3e1cd21e	0.15314528
208	0x3d487164	0.048936263
209	0x3def33ec	0.11679825
210	0xbd960929	-0.07325966
211	0xbdda43c1	-0.10657454
212	0xbad02cca	-0.0015882489
213	0x3db273de	0.08713506
214	0x3d789bff	0.060695644
215	0x3e22f55b	0.15913908
216	0xbe12ecdf	-0.14348172
217	0xbe2149b1	-0.15750767
218	0x3e1854b3	0.1487606
219	0xbe173f4e	-0.14770243
220	0x3dc2954b	0.095011316
221	0xbc82a021	-0.015945496
222	0xbda14332	-0.078741446
223	0xbe1261e2	-0.14295152
224	0x3db39354	0.08768335
225	0xbdb1fcb4	-0.086907774
226	0xbc5ec191	-0.0135959545
227	0xbca49eaf	-0.020095197
228	0x3e01b2af	0.12665819
229	0xbdd469ed	-0.10371766
230	0x3ddfcf5e	0.10928224
231	0x3d83f1ba	0.0644259
232	0x3d9f9a07	0.0779305
233	0x3df47617	0.11936586
234	0xbd868eb7	-0.065701894
235	0x3d19c43f	0.03754067
236	0x3ddb03ab	0.10694059
237	0x3ded15cf	0.11576425
238	0xbc218807	-0.009859092
239	0x3c138478	0.009003751
240	0xbd37b25a	-0.044847824
241	0xbd63a5bf	-0.05557799
242	0x3e0ba168	0.1363579
243	0x3dcda614	0.100414425
244	0xbdfe1a02	-0.12407304
245	0xbd115f9c	-0.03549157
246	0x3d17ecf9	0.03709123
247	0xbdcb9591	-0.09940637
248	0xbe1c4bb7	-0.15263258
249	0xbc98b623	-0.018641537
250	0x3e003e64	0.125238
251	0x3c4e98e8	0.012609698
252	0x3c564ccd	0.013079834
253	0xbd0da560	-0.034581542
254	0xbd97162c	-0.07377276
255	0xbbde0961	-0.0067760204

actor.linears.0.bias f4 [64]
0	0xbcc6ab77	-0.024251683
1	0x3e1eec0e	0.15519735
2	0xbdb645ae	-0.08900009
3	0x3e352cf1	0.17692925
4	0xbca9c3c5	-0.020723233
5	0xbe13783e	-0.14401338
6	0xbcad7646	-0.021174561
7	0x3df89c7d	0.12139223
8	0xbd5cca96	-0.05390414
9	0x3e2fd692	0.17171696
10	0xbdd20899	-0.10255546
11	0x3caa012c	0.020752512
12	0xbd027b29	-0.031855736
13	0x3dd8f986	0.10594468
14	0x3dcc0611	0.099620946
15	0xbd28ef9a	-0.041244127
16	0x3c7ca8dc	0.015421119
17	0xbdc5aa80	-0.09651661
18	0x3d93d871	0.07219017
19	0xbde6c111	-0.11267293
20	0x3c389886	0.011266833
21	0xbdd0cfbb	-0.101958714
22	0x3da57169	0.08078272
23	0x3d50caa7	0.050974514
24	0x3dfaf99d	0.12254641
25	0xbcd019a8	-0.025402859
26	0x3d55d2a0	0.05220282
27	0x3e183ccd	0.14866944
28	0x3db3a80b	0.08772286
29	0xbda081dc	-0.07837269
30	0x3e109e62	0.14122918
31	0x3e007563	0.1254478
32	0x3d078f58	0.033095688
33	0x3d66d89b	0.056358915
34	0x3cf597fd	0.0299797
35	0x3c9ac763	0.018893903
36	0xbdc00eff	-0.0937786
37	0x3bbb9a3d	0.0057251737
38	0x3dfcd950	0.123461366
39	0xbcfb9b2a	-0.030713636
40	0x3e1839c7	0.1486579
41	0x3e17d6eb	0.14828078
42	0x3d189a39	0.037256453
43	0xbc23557d	-0.009969112
44	0xbbf9a98b	-0.007619088
45	0x3e2aab76	0.1666697
46	0x3deb4b68	0.11488992
47	0x3e409e5e	0.18810412
48	0xbdf7f83c	-0.12107894
49	0xbe33dc3b	-0.1756448
50	0xbd0e1bb4	-0.03469439
51	0xbd965f4e	-0.07342397
52	0x3d3b62b1	0.045748416
53	0x3e0f4440	0.13990879
54	0x3d6c256c	0.057652876
55	0x3d28ddd7	0.041227188
56	0x3da0b15c	0.078463286
57	0xbdcdaec2	-0.10043098
58	0xbbe9bad5	-0.007132868
59	0xbde7548b	-0.11295422
60	0xbdb778a0	-0.08958554
61	0xbc758a7a	-0.014986629
62	0x3db18db8	0.08669609
63	0x3d895fb3	0.06707706

actor.linears.1.weight f4 [64, 64]
0	0x3d4dd71d	0.050253976
1	0x3dbc228f	0.09186279
2	0xbdce9a6b	-0.10088047
3	0x3d836d37	0.064173155
4	0xbd95dbf9	-0.07317347
5	0x3cffabdc	0.031209879
6	0xbded45fd	-0.11585615
7	0x3df8d769	0.12150461
8	0x3d04417c	0.032289013
9	0xbda08c75	-0.0783929
10	0x3dbd9805	0.09257511
11	0x3d0c7338	0.03428957
12	0x3dc622ca	0.09674604
13	0xbc68c7fd	-0.014207837
14	0xbdd21323	-0.10257556
15	0x3c859c33	0.016309833
16	0x3c3563e7	0.011071182
17	0xbd9dfb34	-0.07713929
18	0xbd3af1f4	-0.0456409
19	0xbc82e383	-0.015977627
20	0x3bf707d4	0.007538775
21	0xbd9d4f8e	-0.076811895
22	0xbdb9087e	-0.09034823
23	0x3ddfdb6c	0.10930523
24	0x3cc61ca9	0.024183588
25	0xbd696215	-0.056978304
26	0xbda82ce5	-0.08211688
27	0xbdea98bc	-0.11454913
28	0xbd0d69b5	-0.03452464
29	0x3d5210c7	0.05128553
30	0x3df015bf	0.11722898
31	0x3dc50118	0.09619349
32	0xbd4104ba	-0.04712365
33	0x3d4164dc	0.047215328
34	0x3dc72e18	0.097255886
35	0xbbc104e1	-0.005890474
36	0x3d9e441c	0.077278346
37	0xbdd42a31	-0.1035961
38	0xbd02eef2	-0.031966157
39	0x3cb00507	0.021486772
40	0xbce7c578	-0.028292403
41	0xbc377415	-0.01119711
42	0x3d3e2bbf	0.04642844
43	0xbdd3199e	-0.103076205
44	0xbd4b1fee	-0.049590997
45	0xbb7ed1ad	-0.00388823
46	0x3cff3f5d	0.031158144
47	0x3d66f966	0.05639019
48	0x3d37be69	0.044859324
49	0x3d06f52c	0.032948658
50	0x3d4f10d7	0.05055317
51	0xbcd6fa5b	-0.026242426
52	0xbd330504	-0.043705955
53	0xbd3166d4	-0.043310955
54	0x3c539ba5	0.0129155265
55	0x3dae0c38	0.08498424
56	0xbd8df2c4	-0.069310695
57	0x3d9dba8e	0.07701598
58	0x3d68e065	0.056854624
59	0xbc80afb7	-0.015708787
60	0x3e004e5a	0.12529889
61	0x3d90e366	0.07074623
62	0xbd9348f9	-0.07191653
63	0x3c52359c	0.012830164
64	0xbd40174b	-0.046897214
65	0xbdb7279d	-0.089431025
66	0x3cbceca2	0.023062054
67	0x3d9cd271	0.07657326
68	0x3cc804db	0.024416378
69	0x3de7d1e2	0.11319329
70	0x3da54e26	0.08071546
71	0x3dc7e04b	0.09759577
72	0xbd1073e4	-0.035266772
73	0x3d762cd5	0.06010135
74	0x3d980867	0.074234776
75	0xbda0a3be	-0.07843731
76	0xbdabb655	-0.083843865
77	0xbdc634a5	-0.0967801
78	0x3d901172	0.070345774
79	0xbd4c23fe	-0.049839012
80	0x3c3f8d2a	0.011691371
81	0x3db9f2d2	0.090795174
82	0xbd43612a	-0.047700085
83	0x3c201602	0.009770872
84	0x3dc7e9f8	0.09761423
85	0x3c9abc4a	0.018888611
86	0x3d9cb05b	0.07650825
87	0x3d6fe35c	0.058566436
88	0x3cff75f9	0.031184183
89	0x3c0dd672	0.008657085
90	0x3db5866e	0.08863531
91	0x3d747a13	0.05968673
92	0x3dd452fc	0.103673905
93	0xbce94fbd	-0.028480405
94	0x3d7772e5	0.060412306
95	0xbd4f6284	-0.05063106
96	0x3db2c906	0.087297484
97	0xbe008122	-0.1254926
98	0x3ca9e5c8	0.020739451
99	0x3dae7072	0.08517541
100	0xbd0ebafa	-0.034846283
101	0x3d7deda0	0.061994195
102	0x3bdbe8dc	0.0067111086
103	0xbdc02c21	-0.09383417
104	0xbdd57d50	-0.10424292
105	0x3d58b6c7	0.052908685
106	0x3d8ab850	0.06773436
107	0x3d92bb00	0.07164574
108	0xbda367d2	-0.079787865
109	0xbe056cde	-0.13029811
110	0x3da60a47	0.08107429
111	0xbdf02353	-0.117254876
112	0xbde998f7	-0.11406129
113	0x3d999e6f	0.07500922
114	0xbdbcf8b4	-0.09227124
115	0xbdc3bb6f	-0.095572345
116	0x3e1ac4e6	0.15114173
117	0xbda0181b	-0.07817098
118	0xbdbb222d	-0.09137378
119	0xbdc30fa0	-0.095244646
120	0x3d83166e	0.064007625
121	0x3dbcd15d	0.092196204
122	0xbca46420	-0.020067275
123	0x3d23d5c3	0.03999878
124	0x3d70fa2a	0.058832325
125	0x3d8b838f	0.06812202
126	0x3d99bbf7	0.075065546
127	0xbdf5fbd0	-0.1201092
128	0xbd888832	-0.06666602
129	0xbd3f4c14	-0.046703413
130	0xbdacd836	-0.084396765
131	0xbcbf3031	-0.02333841
132	0xbd97dd6a	-0.07415278
133	0x3e0a126e	0.13483593
134	0xba59d403	-0.0008309485
135	0x3e04808f	0.12939666
136	0xbdc717ea	-0.09721358
137	0xbd9f7376	-0.07785694
138	0x3d30b09a	0.04313717
139	0xbd36111f	-0.04444992
140	0x3d0e1fa5	0.034698147
141	0x3d7069a4	0.058694497
142	0x3d90c3aa	0.0706857
143	0xbe17831b	-0.14796107
144	0x3e255744	0.1614657
145	0x3ab80147	0.0014038467
146	0xbcd38c5f	-0.02582377
147	0x3d94a76e	0.07258497
148	0xbd447b0f	-0.04796892
149	0x3d77585d	0.060387004
150	0xbdb8c3b0	-0.090216994
151	0x3d8003a8	0.062506974
152	0xbba3e04a	-0.0050011026
153	0x3d8536ef	0.065046184
154	0x3d8147d5	0.06312529
155	0xbce7f2b6	-0.028313976
156	0xbd1d3734	-0.038382724
157	0xbdce6bfd	-0.10079191
158	0x3b0154f4	0.0019734474
159	0xbd53ce5c	-0.05171047
160	0x3d724ab3	0.05915327
161	0xbe29401d	-0.16528364
162	0xbc5452bc	-0.012959179
163	0xbdd628f0	-0.10457027
164	0xbd964bfb	-0.07338711
165	0xbdb42990	-0.0879699
166	0x3da0a8cb	0.07844695
167	0xbd5f239f	-0.05447733
168	0x3c049d83	0.008094194
169	0x3d85f579	0.06540961
170	0x3dbb7048	0.09152275
171	0xbdac6189	-0.08417041
172	0x3d3374b7	0.04381248
173	0xbde300dd	-0.11084149
174	0x3e005880	0.1253376
175	0xbdbbb20d	-0.0916482
176	0x3d5a0411	0.053226534
177	0x3d1d7d2f	0.038449463
178	0x3b994873	0.004677826
179	0x3d3da6b1	0.046301547
180	0x3daf99a3	0.08574226
181	0x3cdfd4cc	0.02732315
182	0xbdb4d78d	-0.088301755
183	0xbe09fff1	-0.1347654
184	0x3da16cd4	0.078820854
185	0x3e0c679f	0.13711403
186	0x3dd388fe	0.103288636
187	0xbdc74d79	-0.097315736
188	0x3d7ff847	0.062492635
189	0xbe04f56a	-0.12984243
190	0x3da69111	0.08133138
191	0xbdc759e9	-0.09733946
192	0xbc9d2daf	-0.019186823
193	0x3dec711c	0.115450114
194	0x3d4f0605	0.05054285
195	0x3d6870c8	0.05674818
196	0xbe0c291f	-0.13687561
197	0xbe16eb9f	-0.1473832
198	0xbd3929d8	-0.04520592
199	0x3d666895	0.05625208
200	0xbce48e58	-0.027899906
201	0x3d05d4fe	0.03267383
202	0x3d138520	0.03601563
203	0x3dce852d	0.10083995
204	0x3e1aafe0	0.15106153
205	0x3e057d4b	0.13036077
206	0x3dbde0c0	0.09271383
207	0x3c879814	0.016552009
208	0xbdf9f748	-0.12205368
209	0xbd03e05f	-0.0321964
210	0xbd67b869	-0.05657235
211	0xbc00b757	-0.007856212
212	0x3d084a87	0.0332742
213	0x3c63579f	0.013875871
214	0xbd4844b9	-0.048893664
215	0xbdd54040	-0.10412645
216	0x3d42b0c5	0.04753186
217	0xbcfb0845	-0.030643592
218	0xbace8bad	-0.0015758179
219	0x3dc4a07d	0.09600923
220	0xbde309df	-0.11085867
221	0x3cd6a437	0.02620135
222	0xbcce0058	-0.025146648
223	0x3e0928df	0.13394497
224	0xbcf788a8	-0.03021653
225	0x3b3d979a	0.0028929473
226	0x3ca38fbc	0.019965999
227	0x3d23a579	0.03995273
228	0x3d163e23	0.036680352
229	0x3d808afa	0.06276508
230	0x3d670d9f	0.056409474
231	0xbab2b3b6	-0.001363388
232	0xbbc834da	-0.006109816
233	0x3e37bf01	0.17943956
234	0x3d2c3da8	0.042050987
235	0xbd1c91a4	-0.03822483
236	0x3d5e3c8b	0.054256957
237	0x3d1ea60b	0.03873257
238	0xbe17f2c9	-0.14838709
239	0x3db12867	0.08650284
240	0xbd73af50	-0.059493363
241	0xbd47efbb	-0.04881261
242	0xbbcb4dcc	-0.0062043425
243	0x3becacd8	0.007222753
244	0xbd8c113d	-0.068392254
245	0x3e1ce2bf	0.15320872
246	0x3c473dc4	0.012160722
247	0x3e21345e	0.15742633
248	0xbd7eb261	-0.062181834
249	0xbd164667	-0.036688235
250	0x3da629e4	0.08113459
251	0xbd5c923a	-0.05385039
252	0xbd5706aa	-0.05249659
253	0x3e163b40	0.1467104
254	0xbdea9e23	-0.114559434
255	0xbd92ab3f	-0.07161569

actor.linears.1.bias f4 [64]
0	0xbd5347c4	-0.051582113
1	0x3b155e8a	0.0022791945
2	0x3dd1cdb1	0.10244311
3	0x3da48eb8	0.08035034
4	0x3d97ffd9	0.07421846
5	0xbcfb0c4c	-0.030645512
6	0x3ca88f9c	0.02057629
7	0xbd24550a	-0.040120162
8	0x3b163548	0.0022919942
9	0x3ba29b49	0.004962359
10	0xbba988f5	-0.0051737973
11	0xbd5be8f7	-0.05368897
12	0x3d62cdc2	0.055372007
13	0x3da6df0b	0.08148011
14	0xbaf21c34	-0.001847154
15	0x3cad6d45	0.021170268
16	0xbdc4a245	-0.09601263
17	0x3c8d7d37	0.017271621
18	0xbd7a0f85	-0.061049957
19	0x3d2babef	0.041912016
20	0xbd02fe84	-0.031981006
21	0x3b839f71	0.0040168096
22	0x3dd0121d	0.10159705
23	0xbba5e495	-0.0050626495
24	0xbde1540b	-0.11002358
25	0xbd845cec	-0.06463036
26	0x3da1d571	0.07902039
27	0x3d48ae1f	0.04899418
28	0xbdbe47a3	-0.09291007
29	0xbd8fde4b	-0.07024821
30	0x3c1445bf	0.009049832
31	0xbdb3e85a	-0.08784552
32	0xba5b59bc	-0.00083675585
33	0xbc437cc1	-0.011931599
34	0x3d7c2ef6	0.061568223
35	0xbd4021b7	-0.046907153
36	0xbca3336d	-0.019921983
37	0xbda85018	-0.08218402
38	0x3d722731	0.059119407
39	0xbcba3a87	-0.022732986
40	0xbd093efd	-0.033507336
41	0x3cdc0e33	0.02686224
42	0xbc334f04	-0.010944132
43	0xbdb5fc47	-0.08886009
44	0x3e039cdd	0.12852807
45	0xbdb9c395	-0.090705074
46	0xbc31db52	-0.010855513
47	0x3c56b210	0.013103977
48	0x3e1ae2bf	0.1512556
49	0xbdac20c6	-0.084046885
50	0x3c1edb84	0.009695891
51	0xbda585c8	-0.080821574
52	0xbd86e961	-0.06587482
53	0x3e02a60e	0.12758657
54	0xbd90cc7f	-0.070702545
55	0x3d061f6e	0.032744817
56	0x3ccbb8f1	0.02486846
57	0xbd53f53f	-0.051747557
58	0xbd4d70af	-0.05015629
59	0x3ca5a41f	0.02021986
60	0xbdda92fe	-0.10672568
61	0x3d089059	0.033340786
62	0x3dc15ba5	0.09441308
63	0x3d3121b8	0.043245047

actor.linears.2.weight f4 [1, 64]
0	0x3b85dfdb	0.0040855235
1	0xbe027c65	-0.12742765
2	0xbe09ce9f	-0.13457726
3	0x3dd59c5c	0.10430214
4	0x3daaafb8	0.08334297
5	0xbd5f2b58	-0.054484695
6	0x3e00ecfd	0.12590404
7	0x3db29e9d	0.08721659
8	0x3e0eb590	0.13936448
9	0xbd84231b	-0.06452008
10	0xbe04e366	-0.1297737
11	0x3d0b5fba	0.03402684
12	0xbdaae6e7	-0.083448224
13	0xbd428832	-0.047493167
14	0x3e215cd9	0.15758075
15	0x3d7b39e9	0.061334524
16	0xbdb4bdd2	-0.08825268
17	0x3db5b3e2	0.088722005
18	0xbe2066ef	-0.15664266
19	0x3defe812	0.11714186
20	0xbd6f1e7f	-0.058378693
21	0xbd8c60ed	-0.068544246
22	0xbdf8e860	-0.12153697
23	0x3e138249	0.14405169
24	0xbe1e40f0	-0.15454459
25	0x3e25ae9b	0.16179888
26	0x3d8124ed	0.06305871
27	0xbd6604ef	-0.05615705
28	0x3e314882	0.17312816
29	0x3dcfa595	0.10139004
30	0x3d9779ad	0.07396255
31	0x3e27a4dd	0.16371484
32	0xbd8c6d39	-0.0685677
33	0x3d4159e0	0.047204852
34	0xbdd1253a	-0.102121785
35	0x3d95d3bb	0.07315775
36	0xbe1817e5	-0.14852865
37	0xbd7f16d9	-0.06227765
38	0x3e03d86a	0.12875524
39	0xbd492db8	-0.049115866
40	0x3d7a5d07	0.061123874
41	0x3dddcde0	0.10830283
42	0xbde049ed	-0.109516
43	0xbe0eca4e	-0.1394436
44	0x3db4b442	0.08823444
45	0xbdc26f0b	-0.09493836
46	0x3e01d44b	0.1267864
47	0x3d9623e1	0.07331062
48	0x3e1d7e63	0.15380244
49	0xbc3aff69	-0.011413434
50	0x3d69c13c	0.05706905
51	0x3da1237f	0.078680985
52	0xbd567d28	-0.052365452
53	0x3e0fc684	0.14040571
54	0xbdd047dc	-0.10169956
55	0x3e21b3eb	0.1579129
56	0xbd8096cc	-0.06278762
57	0xbdb62672	-0.088940516
58	0x3e0c2929	0.13687576
59	0xbe06a541	-0.13148977
60	0xbe1ab35e	-0.15107486
61	0xbe318c71	-0.1733873
62	0x3e27cc02	0.16386417
63	0x3e155875	0.14584525

critic.linears.0.weight f4 [64, 16]
0	0x3d49d5a9	0.049276028
1	0x3e07de78	0.13268459
2	0xbe6f71a5	-0.23383196
3	0xbe4834d0	-0.19551396
4	0x3db1ca03	0.08681109
5	0x3da1186c	0.07865986
6	0x3e85c6c3	0.26128206
7	0xbe1cbf3a	-0.15307322
8	0xbd8b389b	-0.06797906
9	0xbe24652b	-0.16054218
10	0xbe415111	-0.1887858
11	0x3d325a5c	0.043543205
12	0x3d5615d9	0.05226693
13	0xbd924413	-0.071418904
14	0x3df600ef	0.12011897
15	0xbe4f1fac	-0.20226926
16	0x3e070d10	0.13188577
17	0x3d90e8cd	0.07075653
18	0xbdffdc83	-0.12493231
19	0xbb93c33d	-0.004509358
20	0x3e36d368	0.17854083
21	0x3d94618e	0.072451696
22	0xbe211566	-0.15730819
23	0xbe976637	-0.2957017
24	0x3dbba5f1	0.0916251
25	0xbcbb4d99	-0.02286415
26	0xbe836eb6	-0.25670403
27	0xbe1b5cfc	-0.1517219
28	0xbcb1fddb	-0.021727493
29	0xbe2cb36c	-0.16865319
30	0x3de5de41	0.11224032
31	0xbe21e475	-0.15809806
32	0x3e592b5b	0.21207945
33	0xbe893c8a	-0.26804
34	0xbdfda01a	-0.123840526
35	0x3c8b455d	0.017000848
36	0x3db0d038	0.086334646
37	0xbe0dd9be	-0.13852593
38	0xbdde95ed	-0.1086844
39	0xbcf398d6	-0.029735964
40	0x3e1414c5	0.14461048
41	0xbc99b083	-0.018760925
42	0xbd510f12	-0.051039763
43	0xbe5c26fc	-0.21499246
44	0x3e428dd8	0.18999422
45	0x3c9cf7f2	0.019161198
46	0x3e86e804	0.2634889
47	0x3c018157	0.007904372
48	0x3e11535b	0.14191954
49	0x3e6fd795	0.23422082
50	0xbe4b0639	-0.19826593
51	0xbe699668	-0.22811282
52	0xbe8be34e	-0.27321857
53	0xbe113283	-0.14179425
54	0x3d631c6f	0.05544704
55	0x3c701e19	0.014655613
56	0xbdcebccb	-0.10094603
57	0x3e14aaf9	0.14518346
58	0x3e4d31e2	0.2003856
59	0xbe517015	-0.20452912
60	0xbe01160e	-0.1260607
61	0x3e383210	0.17987847
62	0xbce134b7	-0.027490957
63	0xbd4ad046	-0.04951503
64	0xbe3e510c	-0.18585604
65	0x3e31fa34	0.17380601
66	0xbdb5a8b2	-0.08870067
67	0x3e78f6dd	0.24312921
68	0xbe47dc0b	-0.19517533
69	0xbd13254f	-0.035924252
70	0xbc3ba91f	-0.011453896
71	0xbe0b2440	-0.13588047
72	0x3d55045e	0.052006118
73	0x3d9ff694	0.07810703
74	0xbd6ef45c	-0.058338508
75	0xbe2db194	-0.16962272
76	0xbe469615	-0.19393189
77	0xbe094691	-0.13405825
78	0x3d2639e8	0.040582567
79	0x3e40e173	0.18836002
80	0xbe825f31	-0.2546325
81	0x3e2b69ba	0.1673955
82	0xbe1c53fe	-0.15266415
83	0xbe699851	-0.2281201
84	0x3d63ee0a	0.055646934
85	0xbd129632	-0.03578777
86	0xbdb635ed	-0.08897004
87	0x3d923f79	0.07141013
88	0xbdcfad6d	-0.101405
89	0x3c5c735f	0.013455241
90	0xbde3ce24	-0.111233026
91	0x3da18174	0.07886019
92	0x3d492756	0.04910978
93	0xbe2b2c00	-0.16716003
94	0x3d1523fe	0.036411278
95	0x3e11ceb0	0.14239001
96	0x3e108783	0.14114194
97	0x3d7e7864	0.062126532
98	0x3e853b0d	0.26021615
99	0xbd7cfcde	-0.06176459
100	0x3d90c32c	0.07068476
101	0xbe27e7fc	-0.16397089
102	0xbe81a483	-0.25320825
103	0x3eb45e74	0.35228312
104	0xbd9b348a	-0.075783804
105	0x3e3c8ae3	0.18412356
106	0x3e1b635e	0.15174624
107	0x3c79530b	0.015217553
108	0xbe2d08bf	-0.16897868
109	0x3e0c37bb	0.13693134
110	0x3e692209	0.2276689
111	0x3e843c18	0.25827098
112	0xbe70864f	-0.23488735
113	0x3dad6fdc	0.08468601
114	0x3d4b2a90	0.049601138
115	0xbda4a20f	-0.08038723
116	0xbda0fe08	-0.078609526
117	0x3e2ee7e4	0.17080647
118	0xbc8faf28	-0.017539576
119	0xbda59f5f	-0.08087038
120	0xbe1839b0	-0.14865756
121	0xb99ae6d2	-0.00029545143
122	0x3e1d13aa	0.15339532
123	0x3e2ba0e3	0.16760592
124	0x3e18af30	0.14910579
125	0x3e0ea02d	0.1392829
126	0xbe393ae3	-0.1808887
127	0x3d874c4f	0.066063516
128	0x3e991dcc	0.29905546
129	0xbe494fff	-0.19659422
130	0xbdba1573	-0.09086122
131	0x3c372ff4	0.0111808665
132	0xbe5ad6fc	-0.21371073
133	0x3e2393bd	0.15974326
134	0x3e87814d	0.26465836
135	0x3bc5329a	0.006017995
136	0xbe1151d7	-0.14191376
137	0xbdb0086e	-0.08595358
138	0xbd0362ae	-0.03207653
139	0xbdd4eb49	-0.103964396
140	0xbe404829	-0.18777527
141	0x3d3f581a	0.04671488
142	0xbdf6c1a5	-0.120486535
143	0xbdf2f538	-0.11863178
144	0xbe944a75	-0.28963056
145	0x3e78e4e6	0.24306068
146	0xbd38baf5	-0.04510017
147	0x3c063ae2	0.00819275
148	0xbe392088	-0.18078816
149	0xbe2915f1	-0.16512276
150	0x3e38ff43	0.18066125
151	0xbc81ec96	-0.015859883
152	0x3da00c9c	0.07814905
153	0xbe8245ab	-0.25443777
154	0x3e6a422f	0.2287681
155	0xbd217777	-0.03942057
156	0x3d45927e	0.04823541
157	0xbe55c161	-0.2087455
158	0x3dd1372b	0.102156006
159	0xbe3a54bd	-0.18196388
160	0x3de465fb	0.11152264
161	0x3e811f7c	0.25219333
162	0x3e25a546	0.16176328
163	0xbe6f112e	-0.23346397
164	0xbdb1f8f0	-0.08690059
165	0x3d7aa470	0.061191976
166	0x3dede727	0.116163544
167	0xbd90716d	-0.07052884
168	0x3e1bdf9e	0.15222022
169	0xbe1cd598	-0.15315855
170	0xbe21bd16	-0.15794787
171	0xbd8de992	-0.069293156
172	0xbe305b49	-0.17222323
173	0xbcee80de	-0.029114183
174	0xbe22d280	-0.15900612
175	0x3d83b0e3	0.06430223
176	0x3ea5d796	0.32391042
177	0xbe66d2fd	-0.22541423
178	0x3e4291c9	0.19000925
179	0x3c8c4981	0.017124893
180	0x3de71d2a	0.112848595
181	0xbd7c92b9	-0.061663363
182	0x3ddc4ec3	0.1075721
183	0xbe95eea0	-0.2928362
184	0xbd9891f8	-0.07449716
185	0x3e56335e	0.20918033
186	0xbd05374b	-0.032523435
187	0x3d590066	0.052978896
188	0xbc452757	-0.012033305
189	0x3dee3b85	0.11632446
190	0xbcc68fcc	-0.02423849
191	0x3d4d0563	0.050053965
192	0xbe74a703	-0.23891835
193	0xbdebdd90	-0.11516869
194	0xbd16b755	-0.036795933
195	0xbd153051	-0.03642303
196	0x3e03c242	0.12867072
197	0xbe2a5f84	-0.16637999
198	0x3c8e970e	0.017406013
199	0x3d60b999	0.0548645
200	0xbda0e67e	-0.07856463
201	0x3e17866b	0.1479737
202	0xbdb1a287	-0.08673578
203	0x3dfb8ccb	0.122827135
204	0xbdb24438	-0.08704418
205	0xbd0e1c33	-0.03469486
206	0xbe174560	-0.14772558
207	0xbdf17f9f	-0.1179192
208	0x3e0f1281	0.13971902
209	0x3db8961b	0.09013005
210	0xbda5244d	-0.080635644
211	0xbe34d476	-0.17659172
212	0xbdc725ca	-0.097240046
213	0x3e6b9b4f	0.23008464
214	0x3e7a8424	0.2446447
215	0xbe762a2e	-0.24039528
216	0xbd4f0af5	-0.05054756
217	0xbde35e68	-0.11101991
218	0x3daccad8	0.08437127
219	0x3e7f2e0c	0.24919909
220	0x3e6d3fe4	0.23168904
221	0xbe08ac89	-0.13347067
222	0xbe6cbc64	-0.2311874
223	0xbd1c4e30	-0.038160503
224	0x3e3554a4	0.17708069
225	0x3e2b3ae0	0.16721678
226	0xbde2d2f2	-0.11075391
227	0xbcfa1fef	-0.030532805
228	0x3c9c86d2	0.019107256
229	0xbdce4243	-0.10071232
230	0x3bcfe914	0.0063449237
231	0x3d2b1458	0.04176745
232	0xbe278855	-0.163606
233	0x3d5660a5	0.05233826
234	0x3e234023	0.15942435
235	0x3d218a18	0.039438337
236	0xb930b4c2	-0.00016852006
237	0x3d622d27	0.055218842
238	0xbe887fa2	-0.26659876
239	0x3e14dbe6	0.1453701
240	0x3da66c8b	0.08126172
241	0x3d97a0a9	0.0740369
242	0x3e2adf62	0.16686776
243	0x3e4964df	0.19667386
244	0xbd4ac861	-0.049507502
245	0xbc17dc5b	-0.009268845
246	0xbd5617d5	-0.05226882
247	0xbe0c9f53	-0.13732652
248	0x3e7bd658	0.24593484
249	0xbddac16f	-0.10681426
250	0xbe57faa2	-0.21091703
251	0xbc047088	-0.00808347
252	0x3d76704c	0.06016569
253	0x3d332842	0.043739565
254	0xbe17f291	-0.14838625
255	0xbe89140b	-0.26773104

critic.linears.0.bias f4 [64]
0	0xbe422bb2	-0.18961981
1	0xbdfe1034	-0.12405434
2	0x3ccedf9b	0.025253108
3	0xbca1ce3b	-0.019751659
4	0x3e1bebf1	0.15226723
5	0xbc240237	-0.010010294
6	0x3dbc50b4	0.091950804
7	0xbdf1dae5	-0.11809329
8	0xbe6bbf57	-0.23022209
9	0xbe4b1883	-0.19833569
10	0xbe4e9656	-0.20174536
11	0x3b6c1ab1	0.0036026652
12	0xbe63c9f3	-0.22245006
13	0xbdb12ef2	-0.08651532
14	0x3e00969d	0.12557454
15	0xbe84c8bf	-0.25934407
16	0x3d8999e6	0.06718807
17	0x3cc64a51	0.024205359
18	0x3dd2003d	0.10253952
19	0xbdc61060	-0.09671092
20	0xbe0f03af	-0.13966249
21	0xbe5df240	-0.21674442
22	0x3d25f6a4	0.040518418
23	0x3d8c06e0	0.06837249
24	0x3cc9ef96	0.024650376
25	0x3e132e8b	0.14373223
26	0x3df8c534	0.121469885
27	0xbc2281cf	-0.009918644
28	0xbdd6f8b4	-0.10496655
29	0x3c1aaae1	0.009440155
30	0xbd8028bc	-0.062577695
31	0x3e61ec8f	0.22062896
32	0x3e82bbde	0.25533956
33	0xbc07bf01	-0.008285285
34	0x3e41097a	0.18851271
35	0xbd8f0108	-0.069826186
36	0xbe81bb82	-0.2533837
37	0xbd953797	-0.072859935
38	0xbe2424e1	-0.16029693
39	0x3ad975a6	0.0016590848
40	0x3e2c9af9	0.16855992
41	0xbe41dd4b	-0.18932073
42	0x3e19a2d9	0.15003528
43	0xbd7280af	-0.059204753
44	0x3dbcb89b	0.09214898
45	0x3db7cd46	0.089747
46	0xbcb4b5a8	-0.022059277
47	0xbd4bb9cf	-0.049737748
48	0x3dc8cefc	0.09805104
49	0x3c146511	0.009057299
50	0xbe171073	-0.14752369
51	0xbe65192d	-0.22372885
52	0x3e4fd530	0.20296168
53	0xbcd106d5	-0.025515953
54	0x3dc48def	0.09597384
55	0x3cf850a6	0.030311894
56	0x3e409b77	0.18809305
57	0x3e6d3f6e	0.23168728
58	0x3e1c3a89	0.15256704
59	0xbe5a9da7	-0.21349202
60	0xbd5d5626	-0.054037236
61	0x3c86d123	0.016457146
62	0x3e4cbf91	0.19994952
63	0xbd67fcd7	-0.05663761

critic.linears.1.weight f4 [64, 64]
0	0xbd855afd	-0.06511495
1	0x3c5aa68b	0.013345371
2	0x3d32f9f0	0.04369539
3	0x3b3d4ddc	0.002888552
4	0x3c698822	0.014253648
5	0xbdc184f4	-0.09449187
6	0xbd344712	-0.04401309
7	0x3d0957fd	0.033531178
8	0xbd7c8a8f	-0.061655577
9	0xbe144448	-0.14479172
10	0x3d550310	0.052004874
11	0xbc7ccd53	-0.0154298125
12	0xbd9fdeac	-0.07806143
13	0x3d4b38c3	0.04961468
14	0x3dbe8ae1	0.09303833
15	0x3d6352a4	0.055498734
16	0x3cff7fdf	0.031188903
17	0xbe3e33b4	-0.1857441
18	0x3e075208	0.13214886
19	0xbd4467bc	-0.04795049
20	0x3c5838c4	0.013197128
21	0x3ce6d19a	0.028176118
22	0x3dc0ac35	0.09407846
23	0x3d3c1ad7	0.045924034
24	0x3d2f7299	0.0428339
25	0xbc094f4a	-0.00838072
26	0x3e126a2d	0.14298315
27	0x3dead9e8	0.114673436
28	0x3c989dc8	0.018629923
29	0xbde985b5	-0.11402456
30	0x3dbec665	0.093151845
31	0xbb402b71	-0.0029322768
32	0x3d570347	0.05249336
33	0xbd87f84c	-0.06639156
34	0x3d2f865e	0.042852752
35	0xbc75a636	-0.014993241
36	0xbe38b389	-0.18037237
37	0x3dcc08d9	0.09962625
38	0x3c8cbcf6	0.017179947
39	0xbde4594f	-0.11149847
40	0xbb15ccb8	-0.0022857618
41	0x3dd9e0bc	0.10638568
42	0x3cf5594f	0.029949812
43	0x3e00a505	0.1256295
44	0xbe080a06	-0.13285074
45	0x3bdbc335	0.00670662
46	0xbbd1b67a	-0.0063999267
47	0xbd882679	-0.06647963
48	0x3d97fe7a	0.074215844
49	0xbda9a6de	-0.082837805
50	0x3da55862	0.08073498
51	0xbc4134d0	-0.011792377
52	0x3d817776	0.063216135
53	0x3d917548	0.07102448
54	0xbe20e269	-0.15711369
55	0xbd35819a	-0.04431305
56	0xbdcbe20e	-0.09955226
57	0x3d96615c	0.073427886
58	0x3ddddd6b	0.10833248
59	0x3db2b1a8	0.087252915
60	0x3d31c154	0.043397263
61	0xbd1a6734	-0.03769608
62	0x3dc951fd	0.09830091
63	0x3dd3c3a0	0.10340047
64	0xbd82253e	-0.0635476
65	0x3c7964bc	0.015221771
66	0x3db72b63	0.08943822
67	0x3d7f980a	0.062400855
68	0x3c908623	0.017642086
69	0x3dee0d98	0.116236866
70	0x3db435bf	0.08799314
71	0xbdc84a7b	-0.09779831
72	0x3d5df923	0.054192673
73	0xbd618fc0	-0.05506873
74	0x3d93bccf	0.07213747
75	0xbe0c46e8	-0.13698924
76	0xbdb49537	-0.08817523
77	0x3d1fbba4	0.038997307
78	0xbc9fcf32	-0.019507978
79	0xbdcc7fb7	-0.09985297
80	0xbd9bf62a	-0.076153114
81	0x3dda6f46	0.10665755
82	0xbdd7b55c	-0.105326384
83	0xbdae79d1	-0.085193284
84	0x3b01d103	0.0019808419
85	0x3ce63166	0.028099727
86	0x3d7df5f0	0.062002122
87	0x3e14a8b1	0.14517476
88	0xbd0f206e	-0.034943037
89	0xbd6b38ca	-0.057427205
90	0x3d2385eb	0.039922636
91	0xbe1284b8	-0.1430844
92	0xbdc5b89f	-0.09654354
93	0xbda1cced	-0.079004146
94	0x3cf89d24	0.030348368
95	0xbda7708c	-0.081757635
96	0xbd6bd71c	-0.05757819
97	0xbe0123da	-0.12611333
98	0x3cbdbaae	0.023160305
99	0x3dd79000	0.10525513
100	0x3d50dd2f	0.050992187
101	0xbd8dd540	-0.0692544
102	0xbe003328	-0.12519515
103	0xbdc98657	-0.098400764
104	0x3da438e4	0.080186635
105	0x3d8d1661	0.06889034
106	0x3d85469c	0.06507608
107	0x3d98bc01	0.07457734
108	0xbc3e9ab3	-0.011633563
109	0xbd645588	-0.05574563
110	0xbde04e90	-0.109524846
111	0x3d87dc56	0.066338226
112	0x3b284b8b	0.0025679793
113	0xbe04d65c	-0.12972397
114	0x3d419eef	0.04727071
115	0xbda04f65	-0.07827643
116	0x3d636168	0.055512816
117	0x3cf35bcd	0.02970686
118	0x3db20dcd	0.086940385
119	0x3decc669	0.11561281
120	0x3e0fbe74	0.14037496
121	0xbbddec18	-0.0067725293
122	0xbd78d42f	-0.06074923
123	0x3cb880fb	0.02252244
124	0xbe0ec102	-0.13940814
125	0xbe2d22b2	-0.16907766
126	0x3cec9ddc	0.028883867
127	0x3cb3280b	0.02186968
128	0xbccfd7f1	-0.025371524
129	0xbd914abd	-0.07094333
130	0xbe053600	-0.1300888
131	0xbd039d74	-0.03213258
132	0x3c292d8a	0.010325799
133	0x3db9d4f1	0.090738185
134	0xbd04472f	-0.03229445
135	0xbd7a73d5	-0.061145622
136	0xbb089b1f	-0.0020844413
137	0x3d433efa	0.04766748
138	0xbd293d74	-0.041318372
139	0xbc929a05	-0.017895708
140	0xbd09b9b6	-0.033624373
141	0x3d824b57	0.06362026
142	0xbdaed45f	-0.085366
143	0xbdad48f6	-0.08461182
144	0xbe084fa5	-0.13311632
145	0x3d92b50f	0.071634404
146	0xbe00dd11	-0.1258433
147	0x3dbf12c6	0.093297526
148	0x3d7ce68f	0.061743315
149	0x3c51f65d	0.012815085
150	0x3d72dd36	0.059292994
151	0x3d9ae76d	0.07563672
152	0x3ddd5289	0.10806758
153	0x3c87ce9e	0.016578015
154	0xbb952e0d	-0.004552609
155	0xbde1681b	-0.11006185
156	0x3da52bca	0.08064993
157	0x3e21404e	0.15747187
158	0xbd9c0170	-0.07617462
159	0xbca2b617	-0.019862218
160	0x3dbdaf44	0.09261945
161	0xbdb1e3b4	-0.08686009
162	0x3c5c4179	0.013443344
163	0x3df73bbd	0.12071941
164	0x3d5f6242	0.054537065
165	0x3daaf9f5	0.08348457
166	0xbd3925da	-0.045202114
167	0xbdf741ab	-0.12073072
168	0x3d14a253	0.036287617
169	0x3d396df9	0.045270894
170	0x3d9d7a4e	0.076893434
171	0xbd778e1e	-0.060438268
172	0x3b97b5a3	0.004629807
173	0x3dd1ecfe	0.10250281
174	0xbdcc8a7a	-0.0998735
175	0x3de36a0b	0.111042105
176	0xbc956476	-0.01823638
177	0xbd353037	-0.044235434
178	0x3dc062bf	0.09393834
179	0x3db3f46b	0.087868534
180	0xbd1a05e7	-0.037603285
181	0x3d98d747	0.07462936
182	0x3d3a24f1	0.045445386
183	0xbd4cb99e	-0.049981706
184	0x3e0d132b	0.13776843
185	0x3d31a385	0.043368835
186	0x3d44c642	0.048040636
187	0x3db3ae7b	0.08773514
188	0xbcb1aaed	-0.02168795
189	0xbdb5279c	-0.088454455
190	0x3dd576d3	0.104230545
191	0x3dc10a4f	0.09425794
192	0x3d4dfcfc	0.050290093
193	0xbe13ac98	-0.14421308
194	0xbe0d0a90	-0.1377356
195	0x3d8424c4	0.06452325
196	0xbc359219	-0.011082196
197	0x3e165d8a	0.1468412
198	0xbd0b8670	-0.034063756
199	0xbd42d297	-0.047564115
200	0xbcb43dcc	-0.022002123
201	0x3e0bad2f	0.13640283
202	0x3dcabe61	0.09899593
203	0x3c959235	0.018258194
204	0xbd9d2e7b	-0.07674881
205	0xbd3415d0	-0.043966115
206	0x3bdf54aa	0.0068155127
207	0x3d7012c9	0.058611665
208	0xbd271390	-0.04079014
209	0xbda44a95	-0.08022038
210	0xbe16ef11	-0.14739634
211	0x3e007dd1	0.12547995
212	0xbceedf85	-0.029159317
213	0x3bac99df	0.0052673663
214	0x3c94a121	0.018143238
215	0x3c881ec0	0.016616225
216	0x3caebe7b	0.021331063
217	0xbdfae086	-0.12249856
218	0xbd9daceb	-0.07698997
219	0xbd89478e	-0.06703101
220	0xbdcae40d	-0.099067785
221	0x3cea62e2	0.028611604
222	0xbcf76596	-0.030199807
223	0xbbdbc878	-0.0067072473
224	0xbd75074e	-0.05982142
225	0xbdbeca88	-0.093159735
226	0xbdc4e8a5	-0.09614686
227	0xbce4f5f0	-0.027949303
228	0x3dc52774	0.09626666
229	0x3e16660b	0.14687364
230	0x3d6f4af6	0.058421098
231	0xbd4407d2	-0.04785902
232	0xbdbdda7c	-0.09270188
233	0xbb4dc797	-0.0031399482
234	0xbdb1258f	-0.08649742
235	0xbe029802	-0.12753299
236	0x3df6b24f	0.120457284
237	0x3d2045bb	0.039129
238	0x3d91c3ec	0.07117447
239	0xbd37e82d	-0.044899154
240	0xbdc898d2	-0.09794773
241	0xbcc27051	-0.023735197
242	0x3cef98d8	0.029247686
243	0xbd1079ff	-0.035272595
244	0x3e11e8c5	0.14248951
245	0xbd0d95dd	-0.03456675
246	0x3db075c5	0.08616213
247	0xbd161185	-0.0366378
248	0x3d386819	0.04502115
249	0x3df76f69	0.12081797
250	0x3d416382	0.04721404
251	0x3d2f09b2	0.042733856
252	0xbe00ef52	-0.12591293
253	0x3cab0498	0.020876214
254	0xbd0e4b4c	-0.034739777
255	0xbc18569b	-0.009297992

critic.linears.1.bias f4 [64]
0	0xbdf23307	-0.11826139
1	0xbd797392	-0.060901232
2	0xbd86699f	-0.065631144
3	0x3d222786	0.039588474
4	0xbdc0d246	-0.094151065
5	0xbdc74dc2	-0.09731628
6	0xbd2c9ed2	-0.04214365
7	0x3e00e3fb	0.12586968
8	0xbe07cce2	-0.1326175
9	0x3dd68b27	0.1047576
10	0xbda5bb15	-0.08092324
11	0xbc37c714	-0.0112168975
12	0xbda4d5e2	-0.080486074
13	0x3d4d1948	0.05007294
14	0x3c2a492b	0.010393421
15	0x3e018783	0.1264935
16	0x3e120593	0.14259939
17	0xbdb4ed69	-0.08834345
18	0xbc2fde54	-0.0107341595
19	0xbbae62f6	-0.0053218557
20	0x3dba9f72	0.09112443
21	0x3d8c8349	0.06860978
22	0x3dcf961f	0.10136055
23	0xbdca5905	-0.098802604
24	0x3dc0ee79	0.09420485
25	0xbd6138c3	-0.054985773
26	0xbce327e7	-0.027728988
27	0x3d582ad3	0.052775215
28	0x3da0e61f	0.07856392
29	0xbd411022	-0.047134526
30	0xbcbbe24c	-0.022935055
31	0x3d0fbb32	0.035090633
32	0xbd9e13c8	-0.07718617
33	0xbd8331aa	-0.06405957
34	0xbdf09f6e	-0.11749159
35	0x3d4117fa	0.047142006
36	0xbdc49485	-0.0959864
37	0xbd5bcaa6	-0.053660057
38	0xbd18777e	-0.03722333
39	0xbd9a11dd	-0.075229384
40	0x3d77351e	0.06035339
41	0xbd8ff7aa	-0.0702966
42	0x3db9bda6	0.09069376
43	0x3d5e5f2d	0.054289985
44	0xbc2e1163	-0.0106242625
45	0xbd3cc198	-0.046083063
46	0x3d465db2	0.0484292
47	0xbdf0127a	-0.11722274
48	0x3b3de315	0.0028974463
49	0xbcd3f927	-0.025875641
50	0xbd99c5aa	-0.075084046
51	0x3d1274fb	0.035756093
52	0xbd0d7250	-0.034532845
53	0x3dd2a858	0.10286015
54	0x3d7ca8b8	0.06168434
55	0xbd804b00	-0.06264305
56	0xbd369cb0	-0.044583023
57	0xbc43696a	-0.011926988
58	0x3ccacee0	0.024756849
59	0x3d01bd83	0.031674873
60	0x3d4f5fba	0.0506284
61	0x3d23e302	0.040011413
62	0xbdb1a15e	-0.086733565
63	0xbd51e3ba	-0.051242568

critic.linears.2.weight f4 [1, 64]
0	0x3d22db8e	0.039760165
1	0xbdf3b930	-0.11900556
2	0xbdb54e6a	-0.08852847
3	0xbe105dae	-0.14098236
4	0x3e015ed9	0.12633838
5	0x3dab5bca	0.08367117
6	0xbdb1565c	-0.0865905
7	0xbe029fad	-0.12756224
8	0x3d8a5de9	0.06756193
9	0xbe153b2c	-0.14573354
10	0x3e08ad11	0.1334727
11	0xbd9f4829	-0.07777435
12	0x3d7e7fd6	0.062133633
13	0x3d9ee11e	0.077577814
14	0xbe1b20a3	-0.15149169
15	0xbdc70b66	-0.09718971
16	0xbd6eb32b	-0.058276337
17	0xbdcd2c66	-0.10018234
18	0x3d50a88d	0.050941993
19	0x3d8e43f7	0.06946557
20	0xbc9cf27c	-0.019158594
21	0xbd3c31ba	-0.04594586
22	0xbe020fa0	-0.12701273
23	0x3d93987f	0.07206821
24	0x3e1afc4a	0.15135303
25	0x3d57858e	0.052617602
26	0xbdbef6f3	-0.093244456
27	0xbdb29863	-0.08720472
28	0xbe0cd859	-0.13754405
29	0x3e222cb4	0.15837365
30	0x3db2e9d9	0.08736009
31	0x3d619472	0.05507321
32	0xbdff198a	-0.12456043
33	0xbdec67f9	-0.11543269
34	0x3e0e6e7c	0.13909334
35	0x3d46518c	0.048417613
36	0x3e1557e3	0.14584307
37	0x3d70ef7a	0.058822133
38	0xbdd38106	-0.10327344
39	0x3d1c25e1	0.03812206
40	0xbde58940	-0.11207819
41	0xbd894ca8	-0.06704074
42	0x3e0b9475	0.1363085
43	0xbd64580b	-0.055748027
44	0x3e07e680	0.13271523
45	0x3e130877	0.14358698
46	0xbe25b478	-0.16182125
47	0x3e210687	0.15725146
48	0x3dcdfdf7	0.100582056
49	0xbdeae760	-0.114699125
50	0xbdb22d12	-0.08700003
51	0xbd97e207	-0.07416158
52	0x3d8a8344	0.06763318
53	0xbe08cd62	-0.13359597
54	0x3d3f16d0	0.046652615
55	0x3dc900f4	0.09814635
56	0x3d4b4c62	0.04963339
57	0x3d1df70f	0.03856569
58	0xbd594f2a	-0.053054012
59	0x3e070ba0	0.13188028
60	0x3e1e396d	0.15451594
61	0xbe0b1a11	-0.13584162
62	0xbd1d8d8f	-0.03846508
63	0x3da10c30	0.07863653
