trained_network/SD2/dynamic_PPO_dynamic_final.pth (torch, 61491 bytes, 26 tensors)

feature_exact.j_encoder.linears.0.weight f4 [8, 10]
0	0xbe41b06d	-0.18914957
1	0xbd7ca019	-0.06167612
2	0x3e990eb8	0.29894042
3	0x3e98c8bf	0.29840657
4	0xbe5ff746	-0.21871671
5	0x3c65255e	0.01398596
6	0x3e5ba6f0	0.214504
7	0x3d5fafba	0.054610945
8	0x3e82e43f	0.25564763
9	0xbdbd02c4	-0.09229043
10	0x3dd07238	0.101780355
11	0x3e2106e6	0.15725288
12	0x3e39f6cb	0.1816055
13	0x3e16b0e9	0.14715923
14	0xbe477039	-0.19476403
15	0x3d8c3ed1	0.06847919
16	0xbd0584e4	-0.032597438
17	0xbe0618f1	-0.13095452
18	0xbd3189ee	-0.04334443
19	0x3ea914f5	0.330238
20	0xbe07d9d2	-0.13266686
21	0x3b9395ea	0.004503955
22	0xbd77052e	-0.060307674
23	0x3e714cd8	0.2356447
24	0xbd9ddfb2	-0.07708682
25	0x3e0edae2	0.13950685
26	0x3d05b922	0.03264726
27	0xbe33288d	-0.17495938
28	0xbd123bfd	-0.03570174
29	0xbc10e029	-0.008842506
30	0xbda05472	-0.07828607
31	0x3e1834e7	0.1486393
32	0x3d79cf61	0.060988788
33	0x3e059787	0.13046084
34	0x3e35ab78	0.17741191
35	0x3ebbb1b4	0.36659014
36	0x3e7b1ea9	0.24523415
37	0x3c992000	0.018692017
38	0x3e86ad11	0.26303914
39	0xbe9d75aa	-0.30753833
40	0x3e95e82a	0.2927869
41	0x3d2f719f	0.042832967
42	0x3e4fac30	0.20280528
43	0xbcaa0559	-0.020754503
44	0xbecd4ef2	-0.40099293
45	0x3e8a39ea	0.2699731
46	0xbe203b86	-0.15647706
47	0x3e6a47ec	0.22878999
48	0xbe8a5dbe	-0.27024645
49	0xbd3f89e2	-0.046762355
50	0xbe6744c7	-0.2258483
51	0xbe7f08e9	-0.24905743
52	0xbdbe79ae	-0.09300552
53	0xbe34e4ea	-0.17665449
54	0xbe492d0f	-0.19646095
55	0x3aebac69	0.0017980459
56	0xbe1ca758	-0.15298212
57	0xbe6d6b16	-0.23185381
58	0xbcdf1bc7	-0.027234925
59	0x3ea263db	0.3171681
60	0x3e37d153	0.17950945
61	0xbddbd212	-0.10733427
62	0x3e9865b9	0.29765108
63	0xbdb92b1c	-0.090414256
64	0xbe48d118	-0.19611013
65	0x3e51fefd	0.20507427
66	0x3e0babe8	0.13639796
67	0x3c94831b	0.018128922
68	0x3de1f84f	0.11033689
69	0xbdf4cea7	-0.11953478
70	0x3e20b97f	0.15695761
71	0xbde1d3fb	-0.1102676
72	0x3e64782d	0.22311468
73	0x3d8d1845	0.06889395
74	0xbdc3b942	-0.095568195
75	0x3bff1451	0.0077844043
76	0xbdc5ef4f	-0.09664785
77	0x3e49e1f9	0.19715108
78	0xbc43ec74	-0.01195823
79	0xbe7aabee	-0.24479648

feature_exact.j_encoder.linears.0.bias f4 [8]
0	0x3e0d0e75	0.13775046
1	0x3e9cf124	0.30652726
2	0x3ea61dd7	0.3244464
3	0xbdc70ef2	-0.097196475
4	0xbd981204	-0.07425311
5	0xbe9df2fb	-0.30849442
6	0xbe1f9d8e	-0.15587446
7	0x3e8b1235	0.27162328

feature_exact.j_encoder.linears.1.weight f4 [8, 8]
0	0x3c43fd61	0.011962266
1	0x3e7fe209	0.2498857
2	0xbe05bb12	-0.13059643
3	0xbd8404f9	-0.06446261
4	0xbdd0b756	-0.101912186
5	0x3e58f9e1	0.21189071
6	0xbd9cb6af	-0.07652032
7	0x3eb23323	0.3480464
8	0x3e83da1c	0.25752342
9	0x3dfa9587	0.12235551
10	0x3e25ea20	0.16202593
11	0xbe494965	-0.19656904
12	0xbe855a25	-0.26045337
13	0x3e71aebb	0.2360181
14	0x3e88b04f	0.26697013
15	0x3e8fd671	0.28093293
16	0xbe3244cb	-0.17409055
17	0xbc745dbd	-0.014914927
18	0x3e801531	0.25016168
19	0xbe82bd73	-0.25535163
20	0xbd238bb2	-0.039928146
21	0x3d49cbcc	0.04926662
22	0x3db2e35b	0.08734771
23	0x3de83896	0.11338918
24	0x3e9329f3	0.28742942
25	0xbea7f6ae	-0.3280539
26	0x3e0d4b9f	0.13798378
27	0xbc86527b	-0.016396752
28	0x3dc5ed5e	0.09664415
29	0xbeb1cc92	-0.34726387
30	0x3d96f0b2	0.07370128
31	0xbe97a888	-0.29620767
32	0x3ca46f97	0.020072741
33	0x3ea3b588	0.31974435
34	0xbe740b15	-0.23832352
35	0x3d8887f0	0.06666553
36	0xbe3bb1ca	-0.1832954
37	0x3e1766b8	0.14785278
38	0xbd277aba	-0.040888526
39	0x3ea99332	0.33120114
40	0xbe3d81d4	-0.18506557
41	0xbd269876	-0.04067274
42	0xbe6dfe03	-0.23241429
43	0xbe089b69	-0.13340534
44	0xbeb6e378	-0.3572042
45	0xbd7d55d5	-0.061849434
46	0x3dd1f143	0.10251095
47	0xbea3de36	-0.3200547
48	0x3e8c27bb	0.27374062
49	0x3e60f2cb	0.21967618
50	0x3e87d4bf	0.265295
51	0x3e77ff68	0.24218524
52	0x3cf80b6a	0.03027888
53	0xbe465feb	-0.19372527
54	0xbe287e56	-0.16454443
55	0x3e6d1eac	0.23156232
56	0xbdc19370	-0.094519496
57	0xbe3bc7d2	-0.18337944
58	0xbdf50931	-0.11964644
59	0xbdf3075c	-0.11866638
60	0xbd2dda18	-0.04244432
61	0x3e7beb3c	0.24601454
62	0xbcb09f9e	-0.021560486
63	0xbe7ea38a	-0.24867073

feature_exact.j_encoder.linears.1.bias f4 [8]
0	0x3e4212f5	0.18952544
1	0x3e9722b3	0.2951866
2	0x3d178be0	0.03699863
3	0x3e8570bb	0.2606257
4	0xbe8a352b	-0.2699369
5	0x3d9b6e31	0.07589377
6	0x3e74cc08	0.23905957
7	0xbd6a1ccb	-0.057156365

feature_exact.j_encoder.linears.2.weight f4 [8, 8]
0	0x3d0dd81c	0.034629926
1	0xbea26bbb	-0.31722817
2	0xbe82976f	-0.2550616
3	0x3e60cfb4	0.21954232
4	0xbbe039c3	-0.0068428232
5	0x3dfffed8	0.124997795
6	0xbe14d564	-0.14534527
7	0x3cd44e7f	0.025916336
8	0x3da48604	0.08033374
9	0xbbcf9055	-0.0063343444
10	0x3e6815f2	0.22664621
11	0x3e55cc06	0.2087861
12	0x3e628d31	0.22124173
13	0x3e81b04c	0.25329816
14	0x3cbde1ed	0.023179019
15	0xbe424381	-0.18971063
16	0xbe530abe	-0.20609567
17	0x3e70bee6	0.23510322
18	0x3e1d45b6	0.15358624
19	0x3e2d6dcf	0.1693642
20	0xbe15570d	-0.14583988
21	0x3e88a150	0.26685572
22	0xbd121679	-0.035665963
23	0x3eb33902	0.3500443
24	0xbeba5832	-0.36395413
25	0xbe8e2cc9	-0.27768543
26	0xbd47a6f4	-0.048743203
27	0xbe230cbc	-0.15922827
28	0x3ced55e1	0.028971614
29	0xbe03e83a	-0.12881556
30	0x3e6805af	0.22658418
31	0x3e9d9668	0.30778813
32	0xbe91ed55	-0.28501382
33	0xbe0e060e	-0.13869497
34	0xbdd45482	-0.10367681
35	0x3e5b7c1a	0.2143406
36	0xbe6313b5	-0.22175486
37	0x3dfdc37d	0.12390802
38	0xbd54d10a	-0.051957168
39	0xbe871ad7	-0.26387665
40	0x3e54f47d	0.2079639
41	0xbe735ae6	-0.23765144
42	0x3d1042da	0.035220005
43	0x3d3cfcbd	0.046139468
44	0xbead61f2	-0.3386379
45	0xbe450c24	-0.19242913
46	0x3e93fe38	0.2890489
47	0x3e82d84c	0.25555646
48	0x3e84cdfd	0.25938407
49	0xbe6baa63	-0.23014216
50	0x3dd89653	0.10575547
51	0x3ca5aaae	0.020222988
52	0xbeaf955c	-0.3429364
53	0x3e017733	0.12643127
54	0xbeace2e5	-0.33766857
55	0x3e0c1905	0.13681419
56	0xbea80bc0	-0.32821465
57	0xbcb7ad03	-0.022421366
58	0xbdc22863	-0.094803594
59	0x3e3faffc	0.18719476
60	0x3ea6acc5	0.32553688
61	0xbe294896	-0.16531596
62	0xbe8a1076	-0.26965684
63	0xbd1ae7e0	-0.03781879

feature_exact.j_encoder.linears.2.bias f4 [8]
0	0x3e0bc639	0.13649835
1	0xbe937de6	-0.2880699
2	0xbe378fee	-0.17925999
3	0x3e90e253	0.28297672
4	0x3e805da9	0.25071457
5	0x3d7fb0c3	0.062424432
6	0xbde6f3e9	-0.11276991
7	0x3eb534bc	0.35391796

feature_exact.m_encoder.linears.0.weight f4 [8, 8]
0	0xbcf41d26	-0.029799055
1	0x3e6a5ce2	0.22886994
2	0x3e0d9b65	0.1382881
3	0xbe416d30	-0.18889308
4	0xbe4942a0	-0.19654322
5	0xbe58ad59	-0.21159877
6	0xbe3fe62b	-0.18740146
7	0x3ec23b5c	0.37935913
8	0xbe918373	-0.284206
9	0x3eb3ed63	0.3514205
10	0xbe880a89	-0.26570538
11	0x3e4728d0	0.19449162
12	0x3e46d3f0	0.19416785
13	0x3dd6e655	0.10493151
14	0xbe266a85	-0.16251571
15	0xbeaf7e08	-0.34275842
16	0x3e1b6747	0.15176116
17	0xbe9a7508	-0.30167413
18	0x3ec2ec6e	0.38071007
19	0x3df58f24	0.119901925
20	0xbdf01df6	-0.117244646
21	0xbed44e4f	-0.41465995
22	0x3df7ae81	0.12093831
23	0xbce70239	-0.028199302
24	0x3d785213	0.060625147
25	0x3e2ae45a	0.16688672
26	0x3e84162b	0.25798163
27	0x3e2059d1	0.15659262
28	0xbe87f133	-0.26551208
29	0xbe59d9d2	-0.21274498
30	0x3e475e46	0.19469556
31	0xbe73725b	-0.23774092
32	0x3d75c1dc	0.05999933
33	0xbe5c483e	-0.21511933
34	0xbeab90ba	-0.33508855
35	0x3e1523ab	0.14564388
36	0x3e83856d	0.25687733
37	0x3e935c4a	0.28781348
38	0xbd216b46	-0.039408945
39	0x3ef360ec	0.47534883
40	0x3e832cbe	0.25620073
41	0x3e7f4964	0.2493034
42	0x3bf19b7d	0.007373272
43	0xbe8e168b	-0.27751574
44	0x3d967161	0.07345844
45	0xbe94422c	-0.28956735
46	0x3e99311d	0.29920283
47	0x3e119e52	0.1422055
48	0x3e70c235	0.23511584
49	0x3e8ea209	0.27857998
50	0xbe647cf0	-0.22313285
51	0x3ea875b0	0.32902288
52	0x3cea8943	0.028629905
53	0x3e11dc10	0.14244103
54	0xbdc1dc25	-0.09465817
55	0x3e4db461	0.2008834
56	0xbe3295f6	-0.17440018
57	0x3e32f1f9	0.17475118
58	0x3e88f016	0.2674567
59	0xbe78832f	-0.24268793
60	0xbe7215fa	-0.23641196
61	0xbe9ce3e9	-0.30642632
62	0xbe726d05	-0.236744
63	0xbe7fbb65	-0.24973829

feature_exact.m_encoder.linears.0.bias f4 [8]
0	0x3e9dc478	0.30813956
1	0x3eb90e62	0.36143786
2	0xbde3fd73	-0.11132326
3	0x3cea4b73	0.02860043
4	0xbe27b8ab	-0.16379039
5	0x3dc7c62e	0.09754597
6	0x3e90f375	0.28310743
7	0x3d8f6e9e	0.070035204

feature_exact.m_encoder.linears.1.weight f4 [8, 8]
0	0x3ce06e1c	0.027396254
1	0xbe775ed4	-0.24157268
2	0xbdd5f5aa	-0.10447247
3	0x3e86d29e	0.26332563
4	0x3e387eb4	0.18017083
5	0x3e49d895	0.19711526
6	0xbc74d4ef	-0.014943345
7	0x3e327159	0.17426051
8	0x3defe956	0.11714427
9	0xbe873356	-0.26406354
10	0x3e59ea36	0.2128075
11	0x3e02abcd	0.1276085
12	0xbbce53aa	-0.0062965946
13	0x3e70c4cc	0.23512572
14	0x3e8766d9	0.26445654
15	0xbde9eafc	-0.11421773
16	0xbe7e33b5	-0.24824412
17	0xbcb6cc64	-0.022314258
18	0x3e6cb1b9	0.23114671
19	0xbdd65c0b	-0.104667746
20	0x3d8c25b8	0.06843132
21	0x3e8c070d	0.2734913
22	0x3d79384f	0.060844716
23	0xbe0aea05	-0.13565834
24	0x3ccf109b	0.025276473
25	0xbea4868e	-0.32133907
26	0xbd862bf4	-0.06551352
27	0x3e449886	0.19198808
28	0xbdae1d86	-0.08501725
29	0x3ca9969e	0.020701703
30	0x3d2d54f2	0.04231734
31	0xbe0b7805	-0.13620003
32	0x3e417e9b	0.18895952
33	0xbe3ea114	-0.18616134
34	0xbe1609b4	-0.14652139
35	0xbdea3707	-0.11436277
36	0x3e29bc1f	0.16575669
37	0xbe1e046a	-0.15431371
38	0x3ea42e98	0.32066798
39	0x3e404eb1	0.18780018
40	0x3ca82c2c	0.020528875
41	0x3d83cdb2	0.06435718
42	0x3e79e87f	0.24405096
43	0x3de501d7	0.111819915
44	0x3dd56c27	0.10421019
45	0x3e344d38	0.17607582
46	0xbe32a08b	-0.17444055
47	0x3deb5b03	0.114919685
48	0xbe928f7d	-0.28625098
49	0xbe85c082	-0.26123434
50	0xbe8de8b5	-0.27716604
51	0xbe690688	-0.22756398
52	0xbe95c7ff	-0.29254147
53	0xbc482a86	-0.01221717
54	0xbe823951	-0.25434354
55	0x3e832b2d	0.25618878
56	0xbdb50816	-0.08839433
57	0xbea3b7c1	-0.3197613
58	0xbe19fe36	-0.1503838
59	0x3d141050	0.03614837
60	0xbe13477f	-0.14382742
61	0x3dfbe3e3	0.12299325
62	0xbdcbfc80	-0.0996027
63	0x3cc5d3ba	0.02414881

feature_exact.m_encoder.linears.1.bias f4 [8]
0	0x3de8e938	0.11372608
1	0xbe4a467d	-0.19753452
2	0xbe0bb49c	-0.13643116
3	0xbe99119f	-0.29896256
4	0x3c938756	0.01800887
5	0x3ca26e2b	0.019827923
6	0xbea70d6f	-0.32627437
7	0x3ea0a919	0.3137901

feature_exact.m_encoder.linears.2.weight f4 [8, 8]
0	0xbe7ed56e	-0.24886104
1	0xbe4fd533	-0.20296173
2	0xbe39df83	-0.18151669
3	0x3e4b100b	0.19830339
4	0xbe859393	-0.26089153
5	0x3ded3750	0.11582816
6	0xbc4633c6	-0.012097305
7	0x3e3493a4	0.17634445
8	0x3e41d589	0.18929113
9	0xbdfd630a	-0.12372406
10	0xbe856169	-0.2605088
11	0xbdd29263	-0.10281827
12	0x3e346dbd	0.17619987
13	0xbd8224c8	-0.06354672
14	0x3d3c028c	0.045900866
15	0xbe4ebe09	-0.2018968
16	0x3ddde188	0.10834032
17	0xbd924c3e	-0.07143448
18	0xbeba0641	-0.36332896
19	0x3d92dce0	0.07171035
20	0x3e8a85d2	0.27055222
21	0xbe191445	-0.14949138
22	0xbdca808f	-0.09887802
23	0x3e2aaa64	0.16666561
24	0x3d8b8faf	0.06814515
25	0xbe0a3468	-0.13496554
26	0x3e77611a	0.24158135
27	0x3d9f61f7	0.07782357
28	0xbe7ddcbd	-0.24791236
29	0x3db8f238	0.090305746
30	0xbeae4c50	-0.34042597
31	0xbdef4787	-0.11683565
32	0xbdfb16b5	-0.122601904
33	0x3e53d0ad	0.20685072
34	0xbde3bc3e	-0.11119889
35	0x3eb4b416	0.35293645
36	0xbd1f67b4	-0.03891726
37	0xbc92cf35	-0.01792107
38	0xbe16f44a	-0.14741626
39	0xbe4b17fa	-0.19833365
40	0x3e251664	0.16121823
41	0xbdfe762b	-0.124248825
42	0xbe61cf8b	-0.22051828
43	0x3e3963a4	0.18104416
44	0xbe39ed46	-0.18156919
45	0xbcae15aa	-0.021250565
46	0x3d5dab0b	0.054118197
47	0xb8bd1a42	-9.017113e-05
48	0xbe76e814	-0.24111968
49	0xbe7f6274	-0.249399
50	0xbe218825	-0.15774591
51	0xbe92f045	-0.28698936
52	0xbe3ef85f	-0.18649434
53	0x3ee42b05	0.4456407
54	0xbe8d47b8	-0.2759378
55	0xbe09f2f2	-0.13471583
56	0xbe07a2f1	-0.13245751
57	0xbe9bf9ff	-0.3046417
58	0x3e541a9f	0.2071328
59	0xbd9a2e0a	-0.075283125
60	0x3e9d441a	0.3071602
61	0x3da332db	0.07968684
62	0x3ea9e5a0	0.33183002
63	0x3d937b4b	0.07201251

feature_exact.m_encoder.linears.2.bias f4 [8]
0	0x3e8f574b	0.27996287
1	0xbe56cebb	-0.20977299
2	0xbeae098f	-0.33991668
3	0x3e0db970	0.1384027
4	0xbde4b553	-0.11167397
5	0x3e3e1c19	0.18565406
6	0x3e834ac8	0.2564299
7	0xbe84cea7	-0.25938913

feature_exact.j_ln.weight f4 [8]
0	0x3f8531b1	1.040579
1	0x3f8d28d6	1.1028087
2	0x3f7f5b47	0.99748653
3	0x3f8d1215	1.1021143
4	0x3f89dc1d	1.0770298
5	0x3f8f0d11	1.1175863
6	0x3f8bf7c6	1.093499
7	0x3f8ab69d	1.0836979

feature_exact.j_ln.bias f4 [8]
0	0x3c0b15ce	0.008489085
1	0xbdd75616	-0.105144665
2	0xbb7140d3	-0.003681232
3	0x3dd43f3b	0.10363623
4	0x3db149a1	0.08656622
5	0x3daf056a	0.085459545
6	0xbdbc3147	-0.091890864
7	0x3db47119	0.08810634

feature_exact.m_ln.weight f4 [8]
0	0x3f8b43f6	1.0880115
1	0x3f8de81c	1.1086459
2	0x3f9145f2	1.1349471
3	0x3f938db4	1.1527619
4	0x3f94bd60	1.1620293
5	0x3f8b489b	1.0881532
6	0x3f94d4b2	1.162741
7	0x3f8b3705	1.0876166

feature_exact.m_ln.bias f4 [8]
0	0x3db14f36	0.086576864
1	0xbdd5c82d	-0.10438571
2	0xbdd8a45a	-0.105782226
3	0x3e04816f	0.1294
4	0xbe089367	-0.1333748
5	0x3dc8cf33	0.09805145
6	0x3de3201e	0.1109011
7	0xbdc5ba4f	-0.09654676

actor.linears.0.weight f4 [64, 40]
0	0xbe150d08	-0.14555752
1	0xbd9cf314	-0.07663551
2	0x3dc9b0a5	0.098481454
3	0xbd7e378b	-0.06206469
4	0x3d117f24	0.03552164
5	0x3d5c7cb7	0.053829875
6	0xbd69ba4c	-0.057062432
7	0xbe1a4975	-0.15067084
8	0x3e18843e	0.14894196
9	0xbdead69c	-0.11466715
10	0x3c796449	0.015221664
11	0x3e0c7a9d	0.13718648
12	0xbc0fdf57	-0.008781276
13	0xbd227db4	-0.03967066
14	0xbd4fc028	-0.050720364
15	0x3e12395a	0.1427969
16	0x3ddcdba2	0.10784079
17	0xbdf429c5	-0.119220294
18	0x3dd56441	0.104195125
19	0x3d3b146c	0.045673773
20	0x3d9afbf2	0.07567586
21	0x3de92145	0.11383299
22	0xbd9daa17	-0.07698458
23	0xbd8f80b0	-0.07006967
24	0x3e19d293	0.15021734
25	0xbde16fa7	-0.11007624
26	0x3e18fefe	0.14941022
27	0x3df7affe	0.12094115
28	0x3e050db9	0.12993516
29	0xbe081b8a	-0.13291755
30	0xbd1fc80c	-0.03900914
31	0xbd3ea1f6	-0.046541177
32	0x3da855cd	0.0821949
33	0xbe075fca	-0.13220134
34	0xbe2811f0	-0.16413093
35	0x3d8cae81	0.068692215
36	0x3dcee0a5	0.10101441
37	0xbc74e015	-0.014946003
38	0x3e0ae80a	0.13565078
39	0xbd894b57	-0.06703823
40	0xbd5cf326	-0.053942822
41	0xbd26e41f	-0.040744897
42	0x3e328e56	0.1743711
43	0x3d1d3cc3	0.038388025
44	0x3dfc41fa	0.123172715
45	0x3dfc22bd	0.12311313
46	0x3e2feb43	0.17179589
47	0x3cc8828a	0.024476308
48	0x3e00dd9e	0.1258454
49	0xbd33bbdd	-0.043880332
50	0x3d952eb9	0.07284302
51	0x3d1f0d8c	0.03883128
52	0x3ca7bee3	0.020476764
53	0x3e043917	0.12912403
54	0xbe0ef104	-0.13959128
55	0xbdf6263f	-0.120190136
56	0xbd07b548	-0.033131868
57	0xbdf41540	-0.119181156
58	0xbe0ca041	-0.13733007
59	0x3cab4112	0.020905051
60	0xbd12c69d	-0.035833944
61	0x3ca04118	0.01956229
62	0x3c4e7d7c	0.01260316
63	0x3ca49ab1	0.020093294
64	0xbe06d88f	-0.13168548
65	0x3be6f0c4	0.0070477445
66	0x3e173f32	0.14770201
67	0xbd94f8ae	-0.072739944
68	0x3b12067c	0.0022281697
69	0xbc05d9d8	-0.008169614
70	0x3cb505e2	0.022097532
71	0xbd7669b9	-0.06015942
72	0xbdc5b03e	-0.09652756
73	0x3d440542	0.047856577
74	0xbd03fb71	-0.032222215
75	0xbd639476	-0.055561505
76	0x3d8f0d76	0.06984989
77	0x3d2c7962	0.042107947
78	0x3e0542bd	0.1301374
79	0xbd06cfc0	-0.03291297
80	0x3ddf9242	0.10916568
81	0x3d85da19	0.065357395
82	0x3e0b0440	0.1357584
83	0xbe15160b	-0.1455919
84	0xbd78ede4	-0.060773745
85	0xbe2da649	-0.16957964
86	0xbd792864	-0.060829535
87	0xbe063b8a	-0.1310865
88	0xbd60c3e3	-0.054874312
89	0x3e1f8038	0.15576255
90	0x3d34f18c	0.04417567
91	0xbb8cfa70	-0.0043023154
92	0xbd99ed96	-0.07516019
93	0x3d3f07f7	0.046638455
94	0xbdf283e3	-0.11841562
95	0x3c73bf39	0.014877134
96	0x3e35d68d	0.17757626
97	0xbd2ed0b8	-0.04267952
98	0xbe079fe9	-0.13244595
99	0x3e00554c	0.12532538
100	0xbc4781ed	-0.012176973
101	0x3bad5d43	0.0052906587
102	0x3e158029	0.1459967
103	0x3b899c92	0.004199573
104	0xbddcb84c	-0.10777339
105	0xbe0e1762	-0.13876107
106	0x3d4180bb	0.047241908
107	0x3dc07c16	0.093986675
108	0x3e164b3f	0.14677142
109	0xbe14645a	-0.14491406
110	0x3d6af8ce	0.057366185
111	0x3d8106aa	0.06300099
112	0x3d27e4ad	0.040989567
113	0xbcdfd1dd	-0.02732175
114	0x3e08cbba	0.13358966
115	0xbdd9f4bf	-0.10642385
116	0xbdedad82	-0.116053596
117	0x3ddb6e14	0.10714355
118	0x3dc95f33	0.09832611
119	0xbde8c014	-0.11364761
120	0xbe09359b	-0.13399355
121	0xbdad5004	-0.084625274
122	0xbd5fd9ac	-0.054650947
123	0xbd9afc0c	-0.075676054
124	0xbce924f2	-0.02846
125	0x3d3d1d27	0.04617038
126	0x3d26f3a8	0.040759712
127	0x3e044e51	0.129205
128	0x3e281fed	0.16418429
129	0xbdc23048	-0.09481865
130	0x3dbcda2d	0.09221301
131	0xbd80b803	-0.062850975
132	0xbdcafc53	-0.09911408
133	0xbb712ab9	-0.0036799146
134	0xbe140d21	-0.14458133
135	0x3ddab8b4	0.106797606
136	0xbc965d1e	-0.018354949
137	0xbe0d917e	-0.13825032
138	0x3dce3167	0.100680165
139	0xbd9c032a	-0.07617791
140	0xbd7eb69a	-0.06218586
141	0xba912bf8	-0.0011075726
142	0xbd0a8230	-0.033815563
143	0xbe189974	-0.14902288
144	0x3df962eb	0.1217707
145	0x3d8ea06c	0.06964192
146	0x3e23d8bf	0.16000651
147	0x3d21f22b	0.03953759
148	0xbdc1d1e1	-0.09463859
149	0xbd1f1110	-0.03883463
150	0xbc8edff2	-0.01744077
151	0xbdda83ad	-0.106696464
152	0x3e0f2950	0.13980603
153	0xbd58fad2	-0.052973576
154	0x3d756309	0.0599089
155	0xbe166bae	-0.14689514
156	0xbc9bd9b4	-0.019024707
157	0xbd8338fc	-0.06407353
158	0x3e2b3568	0.16719592
159	0x3d429674	0.047506765
160	0x3d25cf4a	0.04048089
161	0x3de6ea48	0.11275154
162	0xbd5b5d32	-0.053555675
163	0x3ccdc8f2	0.025120232
164	0x3dd39328	0.10330802
165	0x3dda3284	0.10654166
166	0x3d1845af	0.03717583
167	0xbdf7ba08	-0.120960295
168	0x3ce998ac	0.028515182
169	0xbdc73bd8	-0.09728211
170	0x3d0bbdd2	0.034116574
171	0xbda07a98	-0.07835883
172	0x3d6c6da5	0.057721753
173	0xbe00c2d5	-0.12574323
174	0x3de7223b	0.11285826
175	0x3e3d0e76	0.18462548
176	0xbdda9d06	-0.10674481
177	0xbd713869	-0.058891688
178	0xbd92b746	-0.07163863
179	0xbdb490ab	-0.08816656
180	0xbe28c020	-0.1647954
181	0x3d815fbc	0.06317088
182	0x3b6460d4	0.0034847753
183	0x3dc6e464	0.09711531
184	0x3d5923d8	0.0530127
185	0x3d861947	0.0654779
186	0x3e03ad37	0.12859045
187	0xbd8178e4	-0.06321886
188	0x3d29921c	0.041399106
189	0x3c4b67e6	0.012414908
190	0xbde5d4f3	-0.112222575
191	0xbe1346ae	-0.14382431
192	0xbd3ea7e5	-0.046546835
193	0xbb914907	-0.0044337544
194	0x3daea0eb	0.085267864
195	0xbdaaca50	-0.08339369
196	0xbde2c276	-0.11072247
197	0x3d844c8c	0.06459913
198	0xbc1c38ba	-0.009535009
199	0xbd1b44f6	-0.037907563
200	0x3db27028	0.08712798
201	0xbe290830	-0.1650703
202	0xbd097a96	-0.033564173
203	0x3dfd401f	0.12365746
204	0x3e093d7d	0.13402362
205	0x3d841e5e	0.064511046
206	0xbd64a862	-0.055824645
207	0xbd8c80ff	-0.068605416
208	0x3d9e8639	0.07740445
209	0xbe1915dc	-0.14949745
210	0xbd6c5109	-0.05769447
211	0xbdc8df64	-0.098082334
212	0xbda322af	-0.079656
213	0x3e1ccca9	0.15312447
214	0x3dca531c	0.09879133
215	0x3d8c5317	0.06851786
216	0xbe3fcfc8	-0.18731606
217	0x3e063304	0.13105398
218	0x3d02aa33	0.031900596
219	0xbb8bcd86	-0.0042664437
220	0xbe196d8d	-0.14983197
221	0xbc993dd6	-0.018706243
222	0xbd0f502c	-0.034988567
223	0xbc13cc17	-0.009020827
224	0xbda6d4c5	-0.08146051
225	0x3c6df12d	0.014522833
226	0xbe0688b2	-0.13138083
227	0x3c26dfc7	0.010185189
228	0xbe156f7c	-0.14593309
229	0x3d865ceb	0.065606914
230	0xbd2da95b	-0.042397838
231	0xbe1be1ac	-0.15222806
232	0x3de8a712	0.11359991
233	0xbd2ae51d	-0.041722406
234	0x3ccef2b8	0.025262222
235	0x3d499ad4	0.04921992
236	0x3e07ef23	0.13274817
237	0xbdf2a7c3	-0.11848404
238	0x3bb1aa44	0.0054219086
239	0xbcd5f824	-0.0261193
240	0xbe696b40	-0.22794819
241	0xbe01dd6c	-0.12682122
242	0xbd360876	-0.044441663
243	0x3e0fd8a0	0.1404748
244	0xbd9f729f	-0.07785534
245	0x3e1c1546	0.1524249
246	0xbd8bf811	-0.06834424
247	0x3e132564	0.14369732
248	0x3df47ead	0.11938224
249	0xbc90eaee	-0.017690148
250	0xbdc223d0	-0.09479487
251	0x3db60476	0.088875696
252	0x3d3bc37e	0.045840733
253	0xbce9b480	-0.028528452
254	0x3c92eda9	0.01793559
255	0x3cd73f16	0.026275199

actor.linears.0.bias f4 [64]
0	0x3ddab237	0.10678523
1	0xbd6e1591	-0.058126036
2	0x3da58b5b	0.080832206
3	0x3d9db124	0.076998025
4	0x3d7e454d	0.06207781
5	0x3dd02ef0	0.101652026
6	0xbdb5aac2	-0.0887046
7	0xbe1d36d8	-0.15352952
8	0x3e219e8d	0.15783139
9	0x3d98f53c	0.0746865
10	0x3c3dc845	0.0115833925
11	0xbcd4686d	-0.0259287
12	0x3de048d2	0.10951389
13	0xbdb16308	-0.08661467
14	0x3d885182	0.066561714
15	0xbded7c86	-0.115960166
16	0xbd23c2fa	-0.039980866
17	0x3d91b1c0	0.07113981
18	0x3d2d7be3	0.042354476
19	0x3d828a7d	0.06374071
20	0xbdc7cdf2	-0.09756078
21	0xbcdeb7d8	-0.027187273
22	0x3d966fe4	0.0734556
23	0xbdb3c6c1	-0.08778144
24	0xbc58c583	-0.013230684
25	0x3e0475de	0.12935588
26	0x3e17b4a2	0.14815
27	0xbdb9b42d	-0.09067569
28	0xbdc99331	-0.09842528
29	0xbd561f41	-0.0522759
30	0x3e15d204	0.14630896
31	0xbcdd4f3e	-0.027015325
32	0x3dfdf61f	0.124004595
33	0x3e0095aa	0.12557092
34	0x3e0b606f	0.13611005
35	0xbc89e2ab	-0.016831717
36	0xbd002d50	-0.031293213
37	0xbc71e098	-0.01476302
38	0xbc99344d	-0.018701697
39	0x3dc1e76f	0.094679706
40	0x3e1186dc	0.14211601
41	0x3da52260	0.08063197
42	0xbdd0b47a	-0.10190673
43	0xbc6f66b2	-0.014611887
44	0xbdb59355	-0.08865992
45	0xbd59fed2	-0.05322153
46	0xbe0c5361	-0.13703682
47	0xbe07fe80	-0.13280678
48	0xbe180011	-0.14843775
49	0xbc95d22f	-0.0182887
50	0xbdf3374e	-0.11875783
51	0x3dd6a98c	0.10481557
52	0xbdfea96d	-0.12434659
53	0xbbd7ad4e	-0.006581939
54	0xbd5cce9b	-0.05390797
55	0x3e2a5f6b	0.16637962
56	0x3da83dbf	0.08214902
57	0x3d8bde80	0.06829548
58	0xbdf86ca5	-0.12130097
59	0xbc4e5692	-0.012593882
60	0xbe2d22f4	-0.16907865
61	0x3dd84f6b	0.10562023
62	0x3de46b6f	0.11153304
63	0x3d8e0665	0.069348134

actor.linears.1.weight f4 [64, 64]
0	0xbe05321d	-0.13007398
1	0xbda923bc	-0.08258769
2	0xbde91aca	-0.11382063
3	0xbe122a53	-0.14273958
4	0xbdf311a8	-0.11868602
5	0xbd0173de	-0.03160464
6	0xbd00fe3d	-0.03149246
7	0xbd8e8a89	-0.06960017
8	0x3d987fe3	0.074462675
9	0x3dba4fcc	0.09097251
10	0xbd149539	-0.036275122
11	0x3c24decb	0.010062884
12	0x3d94dc8d	0.07268629
13	0xbdee3220	-0.11630654
14	0x3dd061ce	0.10174905
15	0x3db2814d	0.087160684
16	0xbcb04df0	-0.021521538
17	0xbca8b7f7	-0.020595534
18	0xbdac94f1	-0.08426846
19	0xbdf68139	-0.12036366
20	0xbd9403fe	-0.07227324
21	0x3dd72e49	0.10506875
22	0xbdf4d1d6	-0.119540855
23	0xbdb2390a	-0.087022856
24	0x3e00b595	0.12569268
25	0x3e0d3cd9	0.13792743
26	0x3d32cffe	0.043655388
27	0xbe0a5ebb	-0.135127
28	0xbda5888f	-0.08082687
29	0x3d6ca403	0.0577736
30	0xbc50f8f5	-0.0127546685
31	0x3dc916aa	0.09818776
32	0x3b38749a	0.0028145672
33	0x3deadd7e	0.114680275
34	0x3b8bacd6	0.004262547
35	0xbdda8c95	-0.10671345
36	0xbddf6469	-0.109078236
37	0x3d1302ea	0.03589145
38	0xbd2d8fa1	-0.042373303
39	0x3d80ecb7	0.0629515
40	0xbde7472a	-0.1129287
41	0x3d1235c4	0.035695806
42	0xbd64265d	-0.05570065
43	0xbb18a3fe	-0.0023291106
44	0xbd179b35	-0.03701325
45	0x3b706ca1	0.0036685842
46	0x3dd724ad	0.10505042
47	0xbcfb1f18	-0.030654475
48	0x3d68de9a	0.056852914
49	0xbd99c535	-0.075083174
50	0xbd4707a2	-0.048591264
51	0x3e07beab	0.13256328
52	0x3d32a03e	0.04360985
53	0x3d500ac6	0.050791524
54	0x3cb975a0	0.022639096
55	0xbc75a784	-0.014993552
56	0xbe0e9771	-0.13924958
57	0xbc68db80	-0.014212489
58	0x3d5248cc	0.051338956
59	0xbd5ac3ab	-0.05340926
60	0xbdf7c6b2	-0.12098445
61	0xbd31b406	-0.043384574
62	0xbd1da36d	-0.038485933
63	0x3c8283b4	0.015931942
64	0xbcbe8969	-0.023258882
65	0x3d5ed969	0.054406557
66	0x3dc8f9a8	0.09813243
67	0xbc1ab71b	-0.00944307
68	0xbd9805e2	-0.07422997
69	0xbd646a79	-0.055765603
70	0x3d455eea	0.04818622
71	0x3e055c78	0.13023555
72	0xbd8a2f81	-0.06747342
73	0xbcfa8a6d	-0.030583585
74	0xbdf3bd86	-0.11901383
75	0xbd72542b	-0.0591623
76	0xbdd273f0	-0.102760196
77	0x3d8a1e13	0.067440175
78	0x3bf63127	0.0075131836
79	0xbd8066fd	-0.062696435
80	0x3de1e54a	0.110300615
81	0xbd92a720	-0.07160783
82	0x3db554d7	0.088540725
83	0xbdc50610	-0.09620297
84	0xbcb7a032	-0.022415254
85	0xbc5ee952	-0.013605433
86	0x3d92b7ec	0.071639866
87	0x3dcbf1a8	0.09958202
88	0x3c8df610	0.017329246
89	0xbc3d0845	-0.011537616
90	0xbd1c3e99	-0.038145635
91	0x3db51a1a	0.08842869
92	0xbdd0d528	-0.10196906
93	0x3c792246	0.015205925
94	0xbc42c7d1	-0.01188846
95	0xbe076481	-0.13221933
96	0x3cab6858	0.020923778
97	0xbbad70a4	-0.005292969
98	0x3daae4d6	0.08344428
99	0xbdb184bc	-0.08667895
100	0xbdc60cc7	-0.09670406
101	0xbc2b0123	-0.010437283
102	0x3de39eaf	0.11114251
103	0xbcb7f533	-0.022455787
104	0xbcbdf219	-0.02318673
105	0x3d860374	0.065436274
106	0xbd6ad076	-0.05732771
107	0xbd7b813d	-0.061402548
108	0xbd2352ed	-0.039874006
109	0xbddfdfc6	-0.10931353
110	0x3e02d0a6	0.12774906
111	0x3d74089a	0.059578516
112	0x3da6ea32	0.08150138
113	0xbcf2e6f5	-0.029651145
114	0xbdc498d9	-0.09599466
115	0xbe0dd12d	-0.13849325
116	0xbdc2e696	-0.09516637
117	0xbcfac18c	-0.030609868
118	0xbcac9bd6	-0.021070402
119	0xbccc0f5c	-0.024909668
120	0x3da7997f	0.08183574
121	0xbd367d09	-0.044552837
122	0xbbe74bb5	-0.0070585855
123	0xbde9006b	-0.11377033
124	0x3d0f32a5	0.034960408
125	0x3d70366a	0.058645643
126	0x3ca0e1d3	0.019638931
127	0xbd7df0cf	-0.06199723
128	0xbd0cca97	-0.034372892
129	0x3c609424	0.0137071945
130	0x3dcf05a4	0.10108498
131	0xbd0939ba	-0.033502318
132	0x3dd36439	0.1032185
133	0x3d800b4f	0.06252157
134	0x3dbb93cc	0.091590494
135	0xbc447f54	-0.011993248
136	0x3d8b659e	0.06806491
137	0x3e035a36	0.12827381
138	0x3d244114	0.040101126
139	0x3cc22ee3	0.023703998
140	0x3d36d14c	0.044633195
141	0xbc79595e	-0.015219061
142	0x3db6c3ec	0.08924088
143	0xbaa4bff3	-0.0012569412
144	0x3e088904	0.13333517
145	0x3dd4fb46	0.10399489
146	0x3d2c9d7f	0.042142387
147	0x3e0210cb	0.12701719
148	0x3d3f482d	0.04669969
149	0x3db574e9	0.088601895
150	0xbc2d8f28	-0.010593213
151	0x3d8145d2	0.06312145
152	0x3d9f1ca3	0.07769134
153	0xbe01e5a6	-0.1268526
154	0x3ce4cccf	0.027929692
155	0x3d7004ee	0.05859845
156	0xbdc808e8	-0.09767324
157	0x3dd2a3f2	0.10285176
158	0x3dc9c73a	0.098524526
159	0xbe05ebe1	-0.13078262
160	0x3d5ed5dc	0.05440317
161	0xbba9748d	-0.0051713646
162	0xbe01393f	-0.12619494
163	0x3dbd975e	0.092573866
164	0xbda448dd	-0.0802171
165	0x3cdac9d0	0.02670756
166	0xbd8b77bf	-0.06809949
167	0x3d01f5e8	0.031728655
168	0x3e094a41	0.13407232
169	0x3d459372	0.048236318
170	0x3b177e23	0.0023115955
171	0x3d5f02a2	0.05444587
172	0x3ca19b80	0.019727468
173	0x3d576d21	0.052594308
174	0x3e07ba6e	0.13254711
175	0xbd721601	-0.059103016
176	0xbd87f2d6	-0.06638114
177	0x3c2ac70b	0.010423432
178	0x3d255b92	0.04037053
179	0xbd0bd3ed	-0.034137655
180	0xbdcf760e	-0.10129939
181	0xbcb02f54	-0.021506943
182	0x3d85ad84	0.06527236
183	0xbc822358	-0.015885994
184	0xbd42de95	-0.047575552
185	0xbdc165ea	-0.09443267
186	0xbdf78b34	-0.12087098
187	0xbd637c08	-0.055538207
188	0x3cdf4e39	0.02725898
189	0x3dc6f5b3	0.09714832
190	0xbc57b0a0	-0.013164669
191	0xbd494050	-0.0491336
192	0xbd169a1c	-0.036768064
193	0xbab58f10	-0.001385184
194	0xbdc80f27	-0.09768515
195	0x3c10220a	0.008797178
196	0x3db4bd62	0.088251844
197	0xbdff6aad	-0.12471519
198	0x3dc17738	0.09446567
199	0xbc114210	-0.008865848
200	0xbd212fd2	-0.039352246
201	0x3c4f2d29	0.012645044
202	0x3de1df90	0.11028969
203	0x3d8c9f87	0.06866365
204	0xbce7981c	-0.028270774
205	0xbd7da4c1	-0.0619247
206	0xbd808a5d	-0.06276391
207	0xbd934cba	-0.07192369
208	0xbda397a6	-0.07987909
209	0xbdec47dc	-0.115371436
210	0xbdec51e9	-0.115390606
211	0xbd87ce67	-0.06631165
212	0xbd2f1faf	-0.042754825
213	0xbd9a5bd9	-0.0753705
214	0x3d5952cb	0.053057473
215	0xbd1ea487	-0.038731124
216	0xbcf3c302	-0.029756073
217	0x3da28a59	0.07936544
218	0x3d20eca9	0.039288197
219	0xbdbe89de	-0.0930364
220	0x3ca27470	0.019830912
221	0x3d4d9e6a	0.050199904
222	0xbc186559	-0.009301507
223	0x3b77f20f	0.0037833487
224	0x3c755499	0.014973783
225	0x3c8bb24b	0.01705279
226	0x3d297048	0.041366845
227	0xbdea4e2e	-0.11440693
228	0xbd749a32	-0.059717365
229	0xbc22cb02	-0.009936096
230	0x3cdf1953	0.027233755
231	0x3dc98195	0.09839169
232	0xbda5d7aa	-0.08097775
233	0x3d156e2f	0.036482032
234	0xbde04b50	-0.10951865
235	0xbcba7bbf	-0.022764085
236	0xbdeef475	-0.1166772
237	0x3d4bdd78	0.049771756
238	0x3ae44569	0.0017415705
239	0x3cefbefc	0.029265873
240	0x3d9e38ce	0.077256784
241	0x3d3dc17f	0.04632711
242	0x3d1457f9	0.03621671
243	0xbdb83c1a	-0.089958385
244	0x3d6ed36e	0.058307104
245	0x3d7bf9b3	0.06151743
246	0xbddf1311	-0.108923085
247	0xbd7a86d6	-0.061163746
248	0xbd0efe30	-0.03491038
249	0x3dae8852	0.08522095
250	0x3cce2e03	0.025168424
251	0x3c6f3da1	0.014602096
252	0xbd7e45f3	-0.062078428
253	0x3dd916e2	0.10600068
254	0xbcc0a33f	-0.023515342
255	0xbcb79cd6	-0.022413652

actor.linears.1.bias f4 [64]
0	0xbd53bf28	-0.051695973
1	0x393d8925	0.00018075535
2	0xbdca2629	-0.0987056
3	0xbb373aed	-0.0027958706
4	0x3d8c2899	0.06843681
5	0xbdde32e9	-0.10849554
6	0x3de37fd7	0.11108368
7	0x3db6e02f	0.089294784
8	0x3d693f58	0.056945175
9	0xbde9f255	-0.11423174
10	0x3e05eff6	0.13079819
11	0xbd28d53f	-0.041218992
12	0xbd25e51d	-0.040501703
13	0x3dc27b0a	0.09496124
14	0xbd3ff60c	-0.046865508
15	0x3cca09e1	0.024662914
16	0xbdd571bd	-0.104220845
17	0x3d921f67	0.07134896
18	0x3dadd20e	0.084873304
19	0x3cd5d2fd	0.026101584
20	0xbd8b7884	-0.06810096
21	0x3d3f43c5	0.04669549
22	0xbe104584	-0.14089018
23	0xbde45f1a	-0.11150952
24	0x3c151d7d	0.009101269
25	0xbd59daab	-0.053187054
26	0x3d56e502	0.052464493
27	0xbd422f1e	-0.047408216
28	0xbdde0a61	-0.10841823
29	0x3de51dd4	0.1118733
30	0xbc691ee3	-0.014228555
31	0xbce02424	-0.027360983
32	0xbd8a70ee	-0.06759821
33	0xbd430868	-0.04761544
34	0x3d845c5f	0.06462931
35	0x3b556b67	0.0032565237
36	0xbd6b2bf4	-0.057414964
37	0xbdb38ce3	-0.087671064
38	0xbdd6f14e	-0.10495244
39	0xbd4d1f88	-0.0500789
40	0x3e26854e	0.16261789
41	0xbc5859da	-0.013205016
42	0x3d8bf674	0.068341166
43	0x3dbe0750	0.092787385
44	0x3dba1386	0.09085755
45	0xbdd953c0	-0.10611677
46	0x3d558bcd	0.052135278
47	0x3d95df43	0.073179744
48	0x3de70505	0.11280254
49	0x3ddee3f7	0.108833246
50	0xbbc553d1	-0.0060219546
51	0xbd9c6fcf	-0.07638513
52	0xbcf5a82b	-0.029987415
53	0x3c2047ae	0.009782715
54	0x3d02b1a4	0.031907693
55	0x3b818d9c	0.0039536487
56	0xbcac1701	-0.021007063
57	0xbcf08750	-0.029361397
58	0xbd62d019	-0.05537424
59	0xbd98ad6d	-0.07454953
60	0x3d96c05e	0.0736091
61	0x3d8081ae	0.062747344
62	0x3e0c673a	0.13711253
63	0xbc9dd1db	-0.019265106

actor.linears.2.weight f4 [1, 64]
0	0x3d8b3c22	0.06798579
1	0xbc020412	-0.007935541
2	0xbdce9367	-0.100867085
3	0xbdc30430	-0.09522283
4	0xbdeacfa4	-0.114653856
5	0xbb7f52ce	-0.0038959268
6	0xbd71109b	-0.058853727
7	0x3e02ef93	0.12786703
8	0xbd9a05d2	-0.075206414
9	0x3d971a4b	0.07378062
10	0x3d7ce563	0.061742198
11	0xbdd704cc	-0.10498962
12	0x3dc68b72	0.09694566
13	0x3d044212	0.032289572
14	0xbd5ef9ce	-0.05443745
15	0xbdbd1667	-0.092327885
16	0xbc66d657	-0.014089189
17	0xbdeef0bd	-0.11667011
18	0xbb06329f	-0.002047695
19	0x3db5dc70	0.08879936
20	0xbd5455d4	-0.051839665
21	0x3c7dc039	0.015487724
22	0x3dcef47e	0.10105227
23	0xbd9282d0	-0.07153857
24	0x3dd04a78	0.10170454
25	0xbdbf5599	-0.09342498
26	0xbccb9545	-0.02485145
27	0x3de1f552	0.11033119
28	0x3de174a8	0.110085785
29	0x3b1dd83b	0.0024085182
30	0x3d255f78	0.04037425
31	0x3d21379e	0.03935968
32	0xbdba384c	-0.09092769
33	0x3bedcb84	0.007256927
34	0x3d13abbc	0.03605245
35	0xbdd34961	-0.1031673
36	0xbcfa74ba	-0.030573238
37	0xbd1b5f0e	-0.037932448
38	0x3cb4fa71	0.022092076
39	0x3dd59a9c	0.1042988
40	0xbc1171ab	-0.008877198
41	0x3db16d8d	0.08663473
42	0x3c245015	0.010028859
43	0xbba297ce	-0.004961944
44	0xbd1edd6b	-0.03878538
45	0x3daac7b7	0.08338874
46	0xbdddbc01	-0.108268745
47	0x3c8087b0	0.0156897
48	0xbd8280b5	-0.06372205
49	0x3d42c573	0.047551583
50	0x3dad82c4	0.08472207
51	0xbe0b9e43	-0.13634591
52	0xbd86ab91	-0.065756924
53	0xbd907d41	-0.0705514
54	0xbd7e4065	-0.06207313
55	0xbdc4006d	-0.09570394
56	0x3de4fbd8	0.11180848
57	0xbdd351d6	-0.10318343
58	0x3a8ca462	0.0010730142
59	0xbdc0a21a	-0.094059184
60	0xbd97b196	-0.07406919
61	0xbd2ba4c1	-0.04190517
62	0xbc89f27c	-0.016839258
63	0xbdf696db	-0.12040492

critic.linears.0.weight f4 [64, 16]
0	0xbe82d243	-0.25551042
1	0xbe7b5499	-0.2454399
2	0x3e03a4c7	0.12855826
3	0x3e097fc0	0.13427639
4	0x3e9427bf	0.28936574
5	0xbde8ced8	-0.11367577
6	0xbd28fe55	-0.041258175
7	0x3df0f5e3	0.11765649
8	0x3d987fcd	0.07446251
9	0xbe8d0c36	-0.2754838
10	0xbe1a450b	-0.150654
11	0x3d51d789	0.05123094
12	0xbe8056e9	-0.25066307
13	0xbce6a9ac	-0.028157078
14	0x3da597e0	0.080856085
15	0xbe122784	-0.14272887
16	0xba1cc246	-0.0005979877
17	0x3e2e861a	0.17043343
18	0xbce1951b	-0.02753692
19	0x3dfc7b8a	0.12328251
20	0x3e5aa01e	0.21350142
21	0x3cbbf398	0.022943303
22	0xbe23c228	-0.15992033
23	0x3e34ecfb	0.17668526
24	0x3e7c321f	0.24628495
25	0xbe49764a	-0.1967403
26	0xbe9010de	-0.2813787
27	0x3e39e68d	0.18154354
28	0xbe95b17e	-0.29236978
29	0xbd968278	-0.07349104
30	0x3e1a7d7b	0.1508693
31	0xbe4ca626	-0.19985256
32	0xbd89efa8	-0.06735164
33	0xbe3d42cb	-0.18482511
34	0xbe2ae1cd	-0.16687699
35	0x3ca5a325	0.020219395
36	0x3e81e4fc	0.25370014
37	0xbddf3bff	-0.10900115
38	0xbde6d4a2	-0.11271025
39	0xbd6033f8	-0.05473706
40	0x3ded60a7	0.115907006
41	0xbce7ad0c	-0.028280757
42	0xbe11b969	-0.14230885
43	0x3cd6addf	0.026205955
44	0xbdbcd36b	-0.09220012
45	0x3e4358e2	0.19076875
46	0x3eb7e157	0.35914108
47	0x3d019f2b	0.031645935
48	0xbe5d8a77	-0.21634851
49	0x3e85d3f9	0.26138285
50	0x3c9c1eae	0.019057598
51	0xbcf11bbb	-0.029432168
52	0xbc07778a	-0.008268246
53	0xbc3d2bfc	-0.011546131
54	0x3e7837c7	0.24240027
55	0xbe7fd72e	-0.24984428
56	0xbe4b309c	-0.19842762
57	0x3e8d2d85	0.2757379
58	0xbb7bbaea	-0.003841097
59	0xbd93551e	-0.07193969
60	0x3e811d34	0.25217593
61	0xbdddeec8	-0.108365595
62	0xbe412bae	-0.18864319
63	0x3d8311a2	0.063998476
64	0x3db055c0	0.086101055
65	0x3dcf37c2	0.10118057
66	0x3e1c36b7	0.15255247
67	0xbda52088	-0.080628455
68	0xbc0b8589	-0.008515724
69	0xbd9e6813	-0.07734694
70	0x3e6c6704	0.23086172
71	0x3c092d48	0.008372612
72	0xbe75ae45	-0.2399226
73	0x3e9ee255	0.31032053
74	0x3c9babde	0.019002851
75	0xbda96122	-0.0827048
76	0xbc8e9a53	-0.017407572
77	0xbcbb10c7	-0.022835148
78	0x3d36bd3d	0.044614065
79	0xbe39733d	-0.18110366
80	0x3e2f80fa	0.17139044
81	0x3c73647e	0.014855502
82	0xbe01b963	-0.12668376
83	0xbe1d15b0	-0.15340304
84	0xbcca5bc9	-0.02470197
85	0x3dcba754	0.09944025
86	0xbe88dcfd	-0.267311
87	0x3e0a452d	0.13502951
88	0x3e009293	0.12555914
89	0xbd0c0b08	-0.034190208
90	0xbe41a078	-0.1890887
91	0x3e4a140e	0.19734213
92	0x3e0d287b	0.13784973
93	0x3d85d8cf	0.065354936
94	0x3ea96d86	0.33091372
95	0x3e15c54e	0.14626047
96	0x3cdec59f	0.027193842
97	0x3e20fd39	0.15721597
98	0x3db88dd2	0.09011425
99	0xbe9dda97	-0.30830833
100	0x3e244ce2	0.16044953
101	0xbc839ac1	-0.016065003
102	0x3c5d55a0	0.013509184
103	0xbe845829	-0.2584851
104	0x3e2dcd87	0.16972934
105	0xbcdbd0e7	-0.02683301
106	0xbdcf1f0e	-0.10113345
107	0xbe943ad8	-0.28951144
108	0x3e942d87	0.28940985
109	0xbd397525	-0.045277733
110	0xbe935b2f	-0.28780505
111	0x3e3e1a21	0.18564655
112	0xbe521c72	-0.20518664
113	0x3e0013eb	0.12507598
114	0xbdff6e79	-0.12472243
115	0xbcee8a57	-0.0291187
116	0xbe329ac2	-0.17441848
117	0xbe85bc04	-0.26120007
118	0x3e419935	0.189061
119	0xbda11360	-0.078650236
120	0x3d00c275	0.03143545
121	0xbe1ed02d	-0.155091
122	0x3e427e0f	0.189934
123	0x3e25091e	0.16116759
124	0x3da7bb0e	0.08189975
125	0xbe253c80	-0.1613636
126	0xbbaecec6	-0.005334708
127	0x3e0c501a	0.13702431
128	0x3c959fe5	0.01826472
129	0x3e28a93c	0.16470808
130	0x3de032f4	0.109472185
131	0x3980e669	0.0002458573
132	0xbe844744	-0.2583562
133	0xbe940f39	-0.28917864
134	0x3e8e5757	0.2780101
135	0xbe02c2b1	-0.12769581
136	0xbb0a8e1d	-0.0021141835
137	0x3dd53687	0.10410791
138	0x3e76ea2f	0.24112771
139	0x3d9034d8	0.07041329
140	0x3ea22774	0.31670725
141	0x3e26a7f1	0.16275002
142	0x3db65dc9	0.08904607
143	0x3d9b45e4	0.0758169
144	0x3dfa2322	0.12213732
145	0xbe02c1d3	-0.1276925
146	0x3e155291	0.14582278
147	0xbe146c59	-0.14494456
148	0xbcfd732e	-0.030938711
149	0x3ea47fe1	0.32128814
150	0xbe92f291	-0.28700688
151	0xbe46e64a	-0.19423786
152	0x3d7d8f0e	0.061904006
153	0xbe90b491	-0.2826276
154	0xbd896648	-0.06708962
155	0xbd850cef	-0.064966075
156	0x3d893081	0.066987045
157	0x3e941a70	0.2892642
158	0x3d67c4ed	0.056584287
159	0xbd742551	-0.0596059
160	0xbdc4946a	-0.0959862
161	0x3da30e3e	0.07961701
162	0xbc4baa5e	-0.012430755
163	0x3e8cc0a9	0.27490738
164	0xbe0301dc	-0.12793678
165	0xbe03a7e0	-0.12857008
166	0xbea0d6d9	-0.31413916
167	0xbd0f6abf	-0.03501391
168	0xbd0a3d87	-0.033750083
169	0x3d5ce3b8	0.053928107
170	0xbe9363e8	-0.2878716
171	0x3c19d182	0.009388329
172	0xbe9c3956	-0.30512494
173	0xbe143e02	-0.14476779
174	0x3d6e1b35	0.058131415
175	0xbe969c78	-0.2941625
176	0xbcff6652	-0.03117672
177	0x3e4f71e1	0.20258285
178	0x3d954b51	0.07289756
179	0xbe0397d1	-0.12850882
180	0x3d5ba727	0.053626206
181	0x3da74e46	0.08169226
182	0x3e99b6eb	0.30022368
183	0x3e193b78	0.14964092
184	0x3e2b75a4	0.16744095
185	0x3e83d9dd	0.25752154
186	0xbca442af	-0.020051328
187	0xbe994756	-0.29937238
188	0x3e997c51	0.29977658
189	0xbda06071	-0.07830895
190	0xbe2e80f5	-0.1704138
191	0x3e97003a	0.2949236
192	0xbe082c85	-0.13298233
193	0xbc46bcb1	-0.0121299485
194	0xbe88fa51	-0.26753476
195	0xbe475160	-0.19464636
196	0x3e73f8b4	0.23825341
197	0x3e40986e	0.18808147
198	0xbe59de16	-0.21276125
199	0xbba5c2fa	-0.0050586434
200	0xbd0873d7	-0.0333136
201	0x3e29c0de	0.16577479
202	0xbe955d49	-0.29172733
203	0x3dbc08e7	0.091813855
204	0x3df13a70	0.11778724
205	0xbc0ce1b7	-0.0085987365
206	0x3e9897c6	0.29803294
207	0xbe5bf27e	-0.21479222
208	0x3df75fea	0.12078841
209	0xbdd9a800	-0.106277466
210	0x3e3cc94a	0.1843616
211	0x3e57e327	0.21082745
212	0x3d83fb50	0.064444184
213	0x3e4c50a3	0.19952635
214	0xbdfabdb1	-0.12243212
215	0x3d4e40fa	0.050354935
216	0xbe53c36f	-0.20680021
217	0xbd0fbdc0	-0.03509307
218	0xbd2ccb5f	-0.042186137
219	0x3d5eb3b8	0.054370612
220	0xbe2d531a	-0.16926232
221	0x3e79b7bb	0.24386494
222	0x3e97366c	0.29533708
223	0x3e3a1e07	0.18175517
224	0x3e3ab0ea	0.1823155
225	0xbe4c4b37	-0.19950567
226	0x3d8106f1	0.06300152
227	0xbd19c1b4	-0.037538245
228	0x3e752dbb	0.23943226
229	0x3e81ffd3	0.2539049
230	0x3e06b626	0.13155422
231	0x3d73a424	0.05948271
232	0x3e44d6f2	0.1922262
233	0xbe87f9c1	-0.26557735
234	0x3d6a0de2	0.057142146
235	0xbd526e31	-0.051374618
236	0xbcb40107	-0.021973146
237	0x3e733c9e	0.23753592
238	0x3e03940c	0.12849444
239	0xbce5e1d7	-0.02806179
240	0x3dbe2e68	0.09286195
241	0x3d8cbbe0	0.06871772
242	0xbe8f0ddd	-0.27940264
243	0x3e17fa00	0.14841461
244	0x3e8e4ab9	0.27791384
245	0x3dabbff9	0.08386225
246	0xbe271535	-0.16316684
247	0x3b85b647	0.004080567
248	0xbd8ea277	-0.069645815
249	0x3d0086b4	0.031378463
250	0xbe9548a9	-0.29156998
251	0xbe240763	-0.16018443
252	0xbd3e3742	-0.046439417
253	0x3e2b0f24	0.16704994
254	0x3cfd4302	0.03091574
255	0xbe1d3695	-0.15352853

critic.linears.0.bias f4 [64]
0	0xbe2f10c6	-0.17096242
1	0xbc357a2d	-0.011076492
2	0x3ddf542b	0.10904726
3	0x3deae5d6	0.11469619
4	0xbe0c340f	-0.13691734
5	0x3e3d0f0a	0.18462768
6	0xbe2a106b	-0.16607825
7	0xbd80f4e8	-0.06296712
8	0xbe762f5b	-0.24041502
9	0x3e38f9ba	0.18064013
10	0x3d2911dc	0.041276798
11	0x3bfbb9b2	0.0076820487
12	0x3e1a9bd2	0.15098503
13	0x3e87f135	0.26551214
14	0x3e6bab80	0.23014641
15	0x3d06acf2	0.032879777
16	0xbe639da0	-0.22228098
17	0x3e273676	0.16329369
18	0xbe86d382	-0.26333243
19	0x3e0d18e7	0.1377903
20	0xbbbd2184	-0.0057718176
21	0x3e2acef0	0.16680503
22	0x3e2ff4e5	0.17183264
23	0x3e6f305a	0.23358288
24	0xbe6efcae	-0.23338577
25	0xbe3b1df2	-0.18273142
26	0x3d8b1387	0.06790834
27	0x3d5ca927	0.053872254
28	0xbe1e0e12	-0.15435055
29	0xbe261819	-0.1622013
30	0x3e624d30	0.22099757
31	0xbe01d997	-0.1268066
32	0x3e980ea6	0.29698676
33	0x3e8951e5	0.26820293
34	0xbe2e51a8	-0.17023337
35	0xbe41d9b0	-0.18930697
36	0x3dff1f0f	0.12457096
37	0xbe62d7ec	-0.2215268
38	0x3dc5f84d	0.096665
39	0x3dd03d78	0.10167974
40	0xbd5a67a7	-0.053321507
41	0xbdf01a4d	-0.117237665
42	0xbd918dbf	-0.07107114
43	0xbe23bc31	-0.15989758
44	0x3d7915bf	0.060811754
45	0xbc4f86c5	-0.012666409
46	0x3d8d09df	0.068866484
47	0x3e30d4ae	0.17268631
48	0xbd349197	-0.044084158
49	0xbe207fde	-0.15673777
50	0x3e09a21f	0.1344075
51	0xbe091fd1	-0.13391043
52	0x3e5670c4	0.20941454
53	0xbb3c0354	-0.0028688507
54	0x3e946c38	0.28988814
55	0xbc0639e1	-0.00819251
56	0x3d3d2b8a	0.0461841
57	0x3e4172fa	0.18891516
58	0xbe3eaee8	-0.18621409
59	0x3e6ef15e	0.23334262
60	0x3d6981c3	0.057008516
61	0x3cc8d090	0.024513513
62	0x3d73ba5b	0.059503894
63	0xbe23498c	-0.15946025

critic.linears.1.weight f4 [64, 64]
0	0xbdc61f26	-0.0967391
1	0xbdb38669	-0.08765871
2	0xbddcd40c	-0.10782632
3	0xbd1e4584	-0.038640514
4	0x3da4ffd9	0.080566116
5	0xbdc08a56	-0.094013855
6	0x3e57818a	0.21045509
7	0x3ce75376	0.02823804
8	0x3d8ed2db	0.06973811
9	0xbe35825f	-0.17725514
10	0xbcd63bf8	-0.026151642
11	0x3c0d9829	0.008642235
12	0xbe0b6957	-0.13614403
13	0xbd843c14	-0.064567715
14	0xbe216236	-0.15760121
15	0x3cebbb93	0.028775966
16	0x3e3b5182	0.18292812
17	0xbe22026c	-0.15821236
18	0x3bfe8b78	0.007768091
19	0xbd09946a	-0.033588804
20	0xbe4ba5bc	-0.19887441
21	0xbd9f6995	-0.0778381
22	0xbcd41401	-0.025888445
23	0xbe3355f0	-0.17513251
24	0xbc524b19	-0.0128352875
25	0x3e1bc3b1	0.15211369
26	0xbd96a9f0	-0.07356632
27	0xbde86550	-0.11347449
28	0xbb157ab5	-0.0022808735
29	0x3ca79d64	0.020460792
30	0xbddcde76	-0.107846186
31	0xbe2beec8	-0.16790307
32	0x3cae80f1	0.021301718
33	0xbd9248f8	-0.07142824
34	0x3da5a5f8	0.08088297
35	0x3e145645	0.14486034
36	0x3d78f58e	0.060781054
37	0x3e50ac22	0.20378163
38	0x3da716a2	0.08158614
39	0xbe30636a	-0.17225423
40	0xba762f3f	-0.00093911955
41	0xbe1728cb	-0.14761655
42	0x3e7d9572	0.2476404
43	0x3c0e671e	0.008691577
44	0xbe3cc16b	-0.18433158
45	0x3c5e78c3	0.0135785965
46	0x3e1cb378	0.15302837
47	0xbe4a39ce	-0.19748613
48	0xbd8563cb	-0.065131746
49	0x3e16cf5c	0.14727539
50	0x3d33ecbd	0.043926943
51	0x3c21601a	0.009849573
52	0xbe3d2192	-0.18469837
53	0xbd9dc4a9	-0.077035256
54	0xbddf0c2d	-0.10890994
55	0x3dd74f72	0.105132
56	0xbe2e84d2	-0.17042854
57	0xbd943467	-0.072365575
58	0x3a6eb432	0.00091058307
59	0x3cb19a49	0.021680014
60	0xbe337fa3	-0.17529158
61	0x3df8ecb3	0.12154522
62	0x3cfc55e1	0.030802669
63	0xbda2cf50	-0.07949698
64	0x3dcaa272	0.09894265
65	0xbd92348e	-0.0713893
66	0x3e0e70a2	0.13910154
67	0xbe09207e	-0.13391301
68	0xbd94e701	-0.07270623
69	0x3e08e616	0.13369021
70	0x3d14d579	0.036336396
71	0x3d718e03	0.058973324
72	0xbe2994df	-0.16560696
73	0x3e2afb93	0.1669753
74	0x3e86b74a	0.26311713
75	0x3d330fa5	0.04371609
76	0x3db119a6	0.0864747
77	0x3e2f770b	0.17135255
78	0x3dc576f5	0.0964183
79	0xbd3be62d	-0.04587381
80	0x3b3fd56c	0.0029271496
81	0x3ddd7297	0.10812872
82	0xbe027962	-0.12741616
83	0x3e09763a	0.13424006
84	0x3d4459c0	0.047937155
85	0x3d508aa2	0.05091346
86	0xbd2252ab	-0.03962962
87	0x3e168d08	0.14702237
88	0xbc7dac86	-0.015483027
89	0x3cd11a9e	0.025525387
90	0x3e2feaa5	0.17179354
91	0x3de9961e	0.11405586
92	0xbdd25131	-0.10269392
93	0x3d89299d	0.0669739
94	0x3e045b96	0.12925562
95	0x3e4733d2	0.19453362
96	0x3cb74830	0.022373289
97	0x3e58ec4e	0.21183893
98	0x3b9bab2d	0.0047506304
99	0xbe2e4085	-0.170168
100	0xbe331e37	-0.17491995
101	0xbdb25ca4	-0.08709076
102	0xbdb14c57	-0.08657139
103	0xbcfcff8e	-0.030883577
104	0xbe2df4cd	-0.16987915
105	0x3dc92204	0.09820941
106	0xbe480781	-0.19534113
107	0xbdaa2470	-0.08307731
108	0x3d278eaa	0.04090754
109	0xbe272a99	-0.16324843
110	0xbded948d	-0.116005994
111	0xbd24168a	-0.040060557
112	0x3e597e4e	0.21239588
113	0x3cb06b4b	0.021535536
114	0x3e02a103	0.12756734
115	0xbdfd7568	-0.12375909
116	0x3e01605b	0.12634413
117	0x3e08862b	0.13332431
118	0xbc4baf07	-0.0124318665
119	0x3d6b6587	0.05746987
120	0xbd0d1d99	-0.034452055
121	0x3e36cf99	0.1785263
122	0x3c940fe9	0.018073993
123	0x3e22c451	0.15895201
124	0x3d6ed931	0.0583126
125	0xbe27ac50	-0.16374326
126	0x3d94b445	0.07260946
127	0x3e356304	0.17713553
128	0xbe159291	-0.14606692
129	0xbe2856e6	-0.16439399
130	0xbdebd18b	-0.115145765
131	0x3dfa9a2e	0.12236439
132	0x3e25bbf7	0.16184984
133	0xbe034e9b	-0.12822954
134	0x3d824855	0.063614525
135	0xbd41d7e8	-0.047325045
136	0x3e2133ea	0.1574246
137	0xbe3277c4	-0.174285
138	0xbe865199	-0.2623413
139	0x3c8bee25	0.01708133
140	0xbe4aaab6	-0.19791684
141	0xbb90e3dc	-0.004421694
142	0xbd6fb239	-0.058519576
143	0xbd8a2836	-0.06745951
144	0xbd300d50	-0.042981446
145	0xbe089b49	-0.13340487
146	0x3e038329	0.12843002
147	0xbdc69e7a	-0.09698196
148	0x3ce051a4	0.02738268
149	0x3c8ff873	0.017574525
150	0xbdb25258	-0.08707112
151	0xbe3784d1	-0.17921759
152	0x3d1e8ac0	0.03870654
153	0x3cb84dc3	0.022498017
154	0xbe4bc253	-0.19898348
155	0xbe1806e5	-0.1484638
156	0x3e2b5526	0.167317
157	0x3de6df7f	0.11273097
158	0xbd3ae095	-0.045624334
159	0x3c608fc7	0.013706154
160	0xbcb855ec	-0.022501908
161	0xbd5bf249	-0.053697858
162	0x3d447602	0.047964104
163	0x3d9b729c	0.075902194
164	0x3e4f6f03	0.20257191
165	0x3d363338	0.04448244
166	0x3be431b5	0.0069639334
167	0xbd2bfea8	-0.041990906
168	0x3c2a59ec	0.010397416
169	0xbe164b86	-0.14677247
170	0x3e742e32	0.23845747
171	0x3df8a3d3	0.12140622
172	0xbe03d621	-0.12874652
173	0x3e4389f3	0.19095592
174	0x3e38d3fa	0.18049613
175	0xbe2c678d	-0.16836376
176	0x3c65423b	0.013992841
177	0xbd072547	-0.032994535
178	0x3d3d3d20	0.04620087
179	0x3d6166ac	0.055029556
180	0xbe129d83	-0.14317898
181	0xbdcacae1	-0.09901977
182	0x3d1bb5cb	0.03801517
183	0x3e1f166f	0.15535901
184	0xbd4f9ce4	-0.050686732
185	0xbe0a9b49	-0.13535799
186	0x3e07b646	0.13253126
187	0xbdb519d6	-0.088428184
188	0xbdacb8f5	-0.08433715
189	0xbd356c49	-0.044292722
190	0x3c110ee1	0.008853645
191	0xbe142bd6	-0.14469847
192	0x3e152c16	0.14567599
193	0x3e2e4dda	0.17021886
194	0x3e58db4b	0.21177404
195	0xbd84d0c9	-0.06485135
196	0xbdcbfd27	-0.09960394
197	0x3e36e245	0.17859752
198	0xbd730195	-0.05932768
199	0xbb7e31c8	-0.0038786996
200	0xbc8981d6	-0.016785543
201	0xbd31ca34	-0.043405727
202	0x3e5454d8	0.2073549
203	0xbe0b40a7	-0.13598882
204	0x3ddc4bd9	0.10756654
205	0x3cc19f22	0.02363545
206	0x3db9d0b4	0.0907301
207	0xbcafbd55	-0.021452585
208	0xbe0b9b80	-0.13633537
209	0x3e53b1e8	0.20673335
210	0xbdd1dc2e	-0.10247074
211	0x3ce76630	0.028246969
212	0x3cd7cbd3	0.026342308
213	0xbdc6be2f	-0.097042434
214	0x3dc7912d	0.09744487
215	0x3e09ca0c	0.13455981
216	0x3d491104	0.049088493
217	0x3c64392b	0.0139296455
218	0x3dfcd29f	0.1234486
219	0x3e102168	0.14075243
220	0x3bac4b04	0.005257966
221	0xbe1d9559	-0.15389003
222	0x3d919570	0.07108581
223	0x3d019f8c	0.031646296
224	0xbccfd9ab	-0.025372347
225	0x3e683cf8	0.22679508
226	0xbe42e649	-0.1903316
227	0x3d1aa99a	0.0377594
228	0xbc0b4b9a	-0.008501912
229	0xbdd674f2	-0.10471524
230	0xbdd0a029	-0.10186798
231	0x3df0b958	0.117541015
232	0xbd43b499	-0.047779653
233	0x3b232da2	0.0024899025
234	0xbd995126	-0.07486181
235	0x3b0fa8a2	0.0021920581
236	0x3e289a4a	0.16465107
237	0xbe36ad94	-0.17839652
238	0xbe153853	-0.14572267
239	0x3cc0efc4	0.02355183
240	0x3dda5cee	0.10662256
241	0xbe17ab87	-0.14811526
242	0x3d384981	0.044991974
243	0xbdf3704f	-0.118866555
244	0x3d4c55b5	0.049886424
245	0x3db28028	0.0871585
246	0xbbae82c1	-0.0053256457
247	0xbdb104df	-0.08643507
248	0x3de0cf69	0.1097706
249	0x3dc448f3	0.095842265
250	0xbb8697d9	-0.004107457
251	0x3def77fc	0.11692807
252	0x3aa55e72	0.0012616648
253	0xbd6ab135	-0.057297904
254	0x3e25b942	0.16183951
255	0x3dea9aa8	0.114552796

critic.linears.1.bias f4 [64]
0	0xbe0d3c66	-0.13792571
1	0x3dfd6f8f	0.12374794
2	0xbda16efa	-0.07882495
3	0x3d1f037f	0.038821694
4	0x3c258764	0.01010308
5	0xbd3cf5c5	-0.04613282
6	0x3e260735	0.16213687
7	0xbdeeec16	-0.116661236
8	0x3d997e8b	0.07494839
9	0x3dbd8bf8	0.092552125
10	0xbdb82389	-0.08991153
11	0xbe09a782	-0.13442805
12	0x3db88e47	0.09011512
13	0x3e27b49f	0.16377495
14	0x3dc89ee0	0.09795928
15	0x3d1c3e91	0.038145605
16	0x3e00fd07	0.12596522
17	0xbdfbbb7d	-0.1229162
18	0x3dbef2d2	0.09323658
19	0x3d9fe4e2	0.07807328
20	0xbce6117b	-0.028084507
21	0xbd85b7ad	-0.06529174
22	0x3d9057dd	0.070480086
23	0xbd2d6b1c	-0.042338476
24	0x3c0160c9	0.007896611
25	0xbbae1ee0	-0.005313739
26	0x3d857707	0.06516843
27	0xbb4bc58c	-0.003109309
28	0x3d71645c	0.0589336
29	0x3dfd8823	0.12379482
30	0x3c780914	0.015138883
31	0xbe31356e	-0.17305538
32	0xbe201705	-0.15633781
33	0xbc9ff85f	-0.019527612
34	0x3c0f0e0b	0.008731375
35	0x3d88d3d7	0.0668103
36	0x3c1e6272	0.009667026
37	0xbd443254	-0.04789956
38	0x3db26fb0	0.08712709
39	0xbd710363	-0.05884112
40	0xbd422b3f	-0.047404524
41	0xbe0dec2a	-0.1385962
42	0x3dc6adcd	0.097011186
43	0xbe36a3e8	-0.17835963
44	0xbc371fb4	-0.011176992
45	0x3e36e226	0.17859706
46	0x3aec368c	0.0018021627
47	0x3d246035	0.040130813
48	0x3d8ad8b3	0.06779613
49	0x3def19ec	0.11674866
50	0xbe040179	-0.12891187
51	0xbda8050f	-0.0820409
52	0x3cfc9c07	0.030836118
53	0x3e063108	0.13104641
54	0xbd787c5d	-0.060665477
55	0x3bcad64f	0.0061900984
56	0x3df85a65	0.121266164
57	0x3d560788	0.052253276
58	0x3d0b0d53	0.033948254
59	0x3d5a29ce	0.053262524
60	0xbca730ea	-0.020409066
61	0x3d87baac	0.06627402
62	0x3e1f6b04	0.15568167
63	0x3d85ae6e	0.065274104

critic.linears.2.weight f4 [1, 64]
0	0x3f0b44fa	0.54402125
1	0xbf21a955	-0.63149005
2	0x3f0ba50b	0.5454871
3	0xbf170ee8	-0.5900712
4	0xbf07a8bc	-0.52991843
5	0xbf1e75ef	-0.618987
6	0xbf0db997	-0.5536131
7	0x3f126515	0.5718549
8	0xbf0d54f8	-0.5520778
9	0xbf205193	-0.6262447
10	0x3f03e8ee	0.515273
11	0x3f10ac95	0.5651334
12	0xbf17bd92	-0.59273636
13	0xbf1c145f	-0.60968584
14	0xbf0a7cb9	-0.5409656
15	0x3f073678	0.5281749
16	0xbf09d10a	-0.53834593
17	0x3f03d82f	0.51501745
18	0xbf0498ec	-0.5179584
19	0xbf159914	-0.58436704
20	0xbf1889f1	-0.5958548
21	0x3f14214f	0.57863325
22	0x3f1f75ba	0.6228901
23	0xbf176aa4	-0.59147096
24	0xbf13df26	-0.5776237
25	0xbf16596d	-0.587302
26	0x3f1ad0e1	0.60474974
27	0x3f03787d	0.51355726
28	0xbf07d337	-0.53056663
29	0xbf1170ff	-0.56813043
30	0x3f07a963	0.5299284
31	0x3f093dde	0.53610027
32	0x3f1d07c8	0.6134
33	0xbf18d346	-0.5969738
34	0xbf0a5c90	-0.5404749
35	0xbf10f743	-0.5662729
36	0xbf0ad3cf	-0.54229444
37	0xbf0c1ab1	-0.5472823
38	0xbf17c3dd	-0.5928324
39	0xbf101e0d	-0.56295854
40	0xbf09757f	-0.5369491
41	0x3f1ceae2	0.612959
42	0xbf1bb220	-0.6081867
43	0x3f0d4fb2	0.5519973
44	0x3f21deeb	0.6323077
45	0xbf07949d	-0.5296114
46	0x3f1fd3e6	0.62432706
47	0xbf07e92f	-0.53090185
48	0xbf0ef597	-0.5584349
49	0xbf1376a5	-0.5760291
50	0x3f1dafcd	0.61596376
51	0x3f1af3e5	0.60528404
52	0x3f18809f	0.5957126
53	0xbf1ea506	-0.61970556
54	0x3f177c32	0.5917388
55	0xbf05b9c1	-0.5223656
56	0xbf1220bb	-0.5708119
57	0xbf09ab43	-0.5377695
58	0x3f11bf38	0.569324
59	0x3f182925	0.5943778
60	0xbf1a6943	-0.60316867
61	0xbf07b473	-0.5300972
62	0xbf0d676f	-0.5523595
63	0x3f14ed95	0.5817502
