trained_network/SD2/dynamic_PPO_dynamic.pth (torch, 61223 bytes, 26 tensors)

feature_exact.j_encoder.linears.0.weight f4 [8, 10]
000000 8a d9 4f be 94 97 c7 bd 5f 71 9b 3e 31 cd 98 3e
       -0.20297828 -0.09745708 0.30359933 0.2984405
000010 55 9a 60 be b1 5a 21 3d f3 ad 55 3e 21 67 83 3d
       -0.21933873 0.03939313 0.20867138 0.06416155
000020 a4 89 89 3e 1b aa d6 bd b6 bc db 3d 70 e6 2b 3e
       0.26862824 -0.10481664 0.10729353 0.16787124
000030 f4 7b 3e 3e 39 24 d0 3d f6 15 66 be e6 41 af 3d
       0.18601972 0.10163159 -0.22469315 0.08557491
000040 3b a0 f2 bc 7f f7 fe bd b8 0c 22 bd 13 4e 9f 3e
       -0.02961742 -0.1244955 -0.03956291 0.31114253
000050 4a 50 f3 bd 58 14 56 bc 12 ae 80 bd 20 eb 57 3e
       -0.11880548 -0.013066374 -0.06283201 0.21085787
000060 b0 d9 cf bd a3 2c 1d 3e 66 2e 50 3d 9d 22 1a be
       -0.101489425 0.15349059 0.0508255 -0.15052266
000070 f3 94 a2 bc ac 3e 4e bd c8 a3 c1 bd e3 38 14 3e
       -0.019846415 -0.050352737 -0.09455067 0.14474826
000080 a3 41 8e 3d ba e7 12 3e df b6 41 3e 1f 83 bf 3e
       0.06946113 0.14346209 0.18917416 0.37404725
000090 00 aa 6b 3e 94 fb 1e bc 12 c8 73 3e 7e 41 98 be
       0.23014069 -0.009703536 0.2380679 -0.29737467
0000a0 ab 9f 9b 3e b6 a0 13 3d f0 48 6b 3e 47 3e c6 3c
       0.30395254 0.036041938 0.22977042 0.024199618
0000b0 45 5c b4 be dc b0 87 3e da 24 20 be c4 9d 4f 3e
       -0.35226646 0.2650212 -0.15639058 0.20275027
0000c0 6c 73 8e be ed 22 aa bb 97 f8 66 be 51 42 7a be
       -0.27822435 -0.0051921518 -0.22555767 -0.2443936
0000d0 0e cf c8 bd cb 02 3d be d9 5e 50 be 87 af 9f bb
       -0.098051175 -0.18458097 -0.20348682 -0.0048732194
0000e0 58 14 1f be 2d 18 65 be 8d f9 9f bc b1 8c a2 3e
       -0.15535104 -0.22372504 -0.019528175 0.31747964
0000f0 f2 8f 28 3e f2 e4 e5 bd d2 5a 9a 3e fc ce d7 bd
       0.16461161 -0.112253085 0.30147415 -0.10537526
000100 60 70 4f be ed dd 58 3e f0 ea 07 3e c6 e5 03 3d
       -0.20257711 0.21178408 0.13273215 0.03220155
000110 f3 80 ff 3d 6f 59 09 be 3f 4a 1b 3e 2b 32 b1 bd
       0.12475767 -0.13413022 0.15165041 -0.08652147
000120 4c 1c 67 3e 43 42 3e 3d c9 23 06 be d5 e1 44 b8
       0.22569388 0.04644991 -0.13099588 -4.6940364e-05
000130 03 52 dc bd a6 89 68 3e 8c 8b 66 3c 8f e8 87 be
       -0.1075783 0.22708759 0.0140713565 -0.26544616

feature_exact.j_encoder.linears.0.bias f4 [8]
000000 a1 da 0d 3e 92 ad 9a 3e 28 4a a5 3e dc 14 d9 bd
       0.13852932 0.3021055 0.3228314 -0.10599682
000010 81 55 dc bd 5c 62 9e be 87 10 14 be 4b 22 8a 3e
       -0.10758496 -0.30934417 -0.1445943 0.26979288

feature_exact.j_encoder.linears.1.weight f4 [8, 8]
000000 53 4f 16 3b 9f ec 7e 3e 99 00 0d be 3a 84 ab bd
       0.0022935465 0.24894951 -0.13769759 -0.083748296
000010 54 c3 f9 bd cb 89 65 3e 4a f3 b6 bd f0 6b ac 3e
       -0.12195459 0.22415845 -0.089331225 0.336761
000020 ac 8a 86 3e fb 0b f3 3d 8b ec 24 3e 9f 43 34 be
       0.26277673 0.118675195 0.16105859 -0.1760392
000030 fa 60 66 be a7 19 73 3e f3 69 8e 3e e4 0a 92 3e
       -0.22497931 0.23740254 0.27815208 0.28523934
000040 10 b9 33 be dd bd f8 bc e3 06 75 3e b6 33 82 be
       -0.17551064 -0.030363971 0.23928408 -0.25430077
000050 cf d7 24 bc 03 22 28 3d e7 48 b5 3d 9a b8 ec 3d
       -0.010061218 0.04104806 0.08851796 0.115586475
000060 c0 54 94 3e b1 1f a2 be 06 0b 1a 3e a5 68 81 bd
       0.2897091 -0.31664804 0.15043268 -0.063187875
000070 2d 00 a6 3d cf 22 a7 be 3a 7e 95 3d 0e 76 9b be
       0.08105502 -0.32643744 0.072994664 -0.30363506
000080 be db 52 3c c0 0e b1 3e 33 05 5c be 92 48 0c 3d
       0.012869773 0.34581566 -0.21486358 0.034248896
000090 92 ad 43 be 9f b9 28 3e 3a 4d 60 bd 9e 20 a3 3e
       -0.1910918 0.16477059 -0.05476115 0.31860822
0000a0 c9 03 3d be c6 46 26 bd f7 b9 6d be 29 f1 07 be
       -0.18458475 -0.04059484 -0.23215471 -0.13275589
0000b0 91 c9 b6 be e6 de 7e bd 43 ed d4 3d 15 94 a3 be
       -0.35700658 -0.06222429 0.103968166 -0.31948915
0000c0 34 6d 8c 3e 66 e3 5e 3e 71 13 87 3e 26 c2 8c 3e
       0.27427065 0.21766433 0.2638202 0.27491874
0000d0 77 0f 65 3d e3 a2 4a be 6c 0f 1d be 4b 02 6e 3e
       0.05592295 -0.19788699 -0.15337914 0.23243062
0000e0 67 fc c0 bd 54 21 3b be 33 52 f4 bd 5c 07 f3 bd
       -0.09423142 -0.18274432 -0.11929741 -0.11866638
0000f0 47 80 23 bd 56 57 7c 3e ca 09 b0 bc f1 8d 7e be
       -0.039917257 0.24642691 -0.021489043 -0.24858834

feature_exact.j_encoder.linears.1.bias f4 [8]
000000 44 60 3b 3e b9 28 97 3e 97 04 ff 3c ea 7f 86 3e
       0.18298441 0.29523256 0.031130118 0.26269466
000010 80 42 8c be 77 eb 9b 3d fc 76 73 3e 13 88 68 bd
       -0.27394485 0.07613271 0.23775858 -0.056770395

feature_exact.j_encoder.linears.2.weight f4 [8, 8]
000000 70 fc 30 3d 6c ef 9d be 9a e1 68 be a0 39 62 3e
       0.043209493 -0.30846727 -0.2274231 0.22092295
000010 7d 48 a2 bc 46 2f 0d 3e b0 53 0c be d6 41 d2 3c
       -0.019809956 0.13787565 -0.13703799 0.025666159
000020 53 ed a6 3d b7 8d 7e bb 33 53 6d 3e de 2a 56 3e
       0.08150735 -0.0038841793 0.23176269 0.2091479
000030 a2 b5 65 3e 12 f0 80 3e ac 7b d5 3c 18 6f 42 be
       0.22432569 0.2518316 0.026059948 -0.18987691
000040 cb 8b 52 be 8a 92 71 3e 1a 59 1d 3e c7 5c 2e 3e
       -0.2056114 0.23591056 0.15366021 0.17027579
000050 8d c3 12 be b4 9f 87 3e 28 9b 0e bd cc 4c b3 3e
       -0.14332409 0.2648903 -0.034815937 0.3501953
000060 25 1c b9 be 19 2e 8d be a7 8d 3c bd 0a c4 20 be
       -0.36154285 -0.27574232 -0.046033528 -0.15699783
000070 ce e1 fe 3c 9b db 04 be 0f 39 6b 3e 22 62 9d 3e
       0.031113531 -0.12974398 0.22970985 0.30738932
000080 a3 ba 92 be f3 7d 0f be 00 b8 dc bd f9 f3 5b 3e
       -0.28658018 -0.1401289 -0.10777283 0.21479787
000090 3e 64 65 be 1b 96 f8 3d 08 10 5a bd 97 46 87 be
       -0.2240152 0.12138005 -0.053237945 -0.26421043
0000a0 dd 75 52 3e ec d5 75 be d1 28 00 3d 80 62 34 3d
       0.20552774 -0.24007386 0.031288926 0.04403925
0000b0 38 be ac be 4b da 46 be 2d 93 92 3e 7e dd 82 3e
       -0.33738875 -0.1941921 0.2862791 0.2555961
0000c0 90 de 83 3e f0 1c 6e be 95 50 cc 3d 85 f1 9e 3c
       0.2575574 -0.23253226 0.09976307 0.019402275
0000d0 63 5d ae be b0 7f 01 3e 45 1e ae be c0 55 0c 3e
       -0.34055623 0.12646365 -0.3400747 0.13704586
0000e0 56 88 a7 be 38 15 b0 bc d9 8c b6 bd 34 84 3f 3e
       -0.32721204 -0.021494493 -0.08913583 0.18702775
0000f0 dc 9c a4 3e 26 dd 27 be b1 4f 8a be cb 0e 19 bd
       0.32150924 -0.16392955 -0.27013925 -0.037367623

feature_exact.j_encoder.linears.2.bias f4 [8]
000000 f4 3a 13 3e 6a 03 93 be 20 1a 37 be 23 2e 92 3e
       0.14377958 -0.28713542 -0.1788106 0.28550825
000010 be b5 7f 3e f7 ba 75 3d f6 70 ea bd f3 9d b5 3e
       0.24971673 0.059992757 -0.11447327 0.35472068

feature_exact.m_encoder.linears.0.weight f4 [8, 8]
000000 73 79 fb bc 41 fc 6a 3e 88 5c 0c 3e 2c e9 48 be
       -0.03069756 0.2294779 0.13707173 -0.19620198
000010 ad b0 2b be 0e cf 58 be ed cf 44 be bb 56 c2 3e
       -0.16766615 -0.21172735 -0.19219942 0.37956795
000020 74 8b 90 be 85 43 b4 3e 17 45 87 be 26 2b 37 3e
       -0.28231394 0.35207763 -0.264199 0.17887554
000030 df 29 5f 3e 3d c9 d3 3d 0f 19 34 be b3 60 b0 be
       0.21793316 0.103411175 -0.17587684 -0.34448776
000040 03 e3 0e 3e f1 45 9f be 1b 5c b9 3e 85 9f da 3d
       0.13953786 -0.3110805 0.36203083 0.10674957
000050 99 23 af bd 4e 6a cf be 34 5e c3 3d 2e f1 9f bc
       -0.085517116 -0.40510792 0.09539452 -0.019524183
000060 a3 08 7b 3d 63 05 2a 3e 18 58 85 3e 16 e3 22 3e
       0.061287533 0.16603617 0.26043773 0.15906939
000070 eb 91 8d be 36 b7 5a be c1 ba 49 3e 7a d5 74 be
       -0.2765039 -0.21358952 0.19700147 -0.2390956
000080 ee 28 d2 3d 58 0c 4f be 72 c5 ab be a6 8b 0d 3e
       0.10261713 -0.20219553 -0.33549076 0.13822803
000090 d4 3e 86 3e ae 84 75 3e 5c 03 81 bd 9c c6 d9 3e
       0.2621981 0.23976395 -0.06299469 0.4253434
0000a0 66 34 82 3e 08 60 7c 3e de 11 d8 3b 09 c5 8a be
       0.25430602 0.24646008 0.006593927 -0.2710345
0000b0 10 fa 84 3d b3 6c 93 be c8 aa 9b 3e 42 95 12 3e
       0.06493008 -0.28793868 0.30403733 0.1431475
0000c0 ee b7 6f 3e 90 2a 8e 3e eb cf 64 be a4 ec a6 3e
       0.23410007 0.27766848 -0.2234494 0.32602417
0000d0 93 3d 0b 3d 79 13 12 3e 3f fe c2 bd 6c df 4d 3e
       0.03399427 0.1426524 -0.0952115 0.2010476
0000e0 cb 3b 32 be bb a6 34 3e 37 84 89 3e 49 1c 77 be
       -0.17405622 0.17641728 0.26858684 -0.24131884
0000f0 ea a2 82 be 34 01 9d be db 8d 70 be 76 ea 7f be
       -0.2551492 -0.3066498 -0.23491614 -0.24991783

feature_exact.m_encoder.linears.0.bias f4 [8]
000000 b0 61 9c 3e ae 48 ba 3e 48 36 08 be 4c ac ee 3c
       0.3054328 0.36383575 -0.13301957 0.029134892
000010 00 2c 47 be 88 3e c4 3d ad de 8f 3e 96 5e 8f 3d
       -0.19450378 0.095822394 0.28099576 0.07000463

feature_exact.m_encoder.linears.1.weight f4 [8, 8]
000000 60 2c cf 3c b0 36 7e be 3f a6 ca bd 73 59 89 3e
       0.025289714 -0.24825549 -0.0989499 0.26826057
000010 ea d9 34 3e dc 41 49 3e 45 0c 7f bc da f1 31 3e
       0.17661253 0.1965403 -0.01556689 0.17377415
000020 86 d3 e7 3d bc d1 88 be 9c 05 50 3e 25 a7 f4 3d
       0.11319642 -0.26722515 0.2031464 0.11945943
000030 c3 c4 94 bc 7f 2a 6b 3e 44 b1 83 3e 79 3f f0 bd
       -0.01816023 0.2296543 0.2572118 -0.117308564
000040 ca fe 7b be 92 c0 9e bc 53 5f 79 3e 83 3a b8 bd
       -0.24608913 -0.019378934 0.2435277 -0.08995535
000050 e0 36 95 3d 90 e5 8f 3e da 90 83 3d c7 c9 fb bd
       0.07285857 0.2810483 0.064241126 -0.12294345
000060 3d 9e c4 3c aa c4 a6 be 55 f2 91 bd 83 7f 41 3e
       0.024001235 -0.32571918 -0.07126299 0.18896298
000070 86 1d ae bd 67 30 98 3c e3 fe 1e 3d af c9 0a be
       -0.08501725 0.018577768 0.038817298 -0.13553499
000080 2f ac 41 3e 83 b7 40 be e5 83 16 be 8e 98 e9 bd
       0.18913339 -0.18820004 -0.14698751 -0.114060506
000090 48 b0 18 3e d5 13 1e be f0 d4 a3 3e c6 56 40 3e
       0.14910996 -0.15437253 0.31998396 0.18783101
0000a0 b6 0e 75 bc 86 5b d9 3d 5a ac 5c 3e 34 e6 38 3d
       -0.014957121 0.1061316 0.21550122 0.045141414
0000b0 38 4a b4 bc 45 03 fb 3d da b6 2d be 75 e2 e4 3d
       -0.022008047 0.12256483 -0.16964284 0.11176006
0000c0 7d 8f 92 be 82 c0 85 be b5 e8 8d be 88 06 69 be
       -0.28625098 -0.26123434 -0.27716604 -0.22756398
0000d0 ff c7 95 be 86 2a 48 bc 51 39 82 be 2d 2b 83 3e
       -0.29254147 -0.01221717 -0.25434354 0.25618878
0000e0 81 40 bb bd 23 9d a9 be c1 d8 05 be 4b 23 61 3d
       -0.091431625 -0.33127698 -0.13070966 0.0549653
0000f0 71 00 09 be 03 b5 fa 3d 52 56 b3 bd 4c a6 91 3c
       -0.13379075 0.122415565 -0.08756699 0.017779492

feature_exact.m_encoder.linears.1.bias f4 [8]
000000 33 7e e5 3d 17 bb 51 be 4a eb 05 be b7 83 9a be
       0.11205711 -0.20481525 -0.13078037 -0.30178615
000010 77 1b 8b 3c 90 b3 9b bd 6f 0d a7 be 67 66 a3 3e
       0.01698087 -0.07602608 -0.32627437 0.31914064

feature_exact.m_encoder.linears.2.weight f4 [8, 8]
000000 01 e3 7c be 91 19 4c be ad 0b 39 be 7a 74 5c 3e
       -0.2469597 -0.19931628 -0.1807086 0.21528807
000010 c7 32 85 be 7f d4 33 3d c6 33 46 bc 8b fc 37 3e
       -0.26015303 0.043903824 -0.012097305 0.17967431
000020 14 53 40 3e e6 85 03 be 11 c2 86 be 6f 47 fa bd
       0.18781692 -0.12844047 -0.26319936 -0.12220656
000030 5e 38 36 3e 02 fb c3 3c 8c 02 3c 3d 5d 2d 55 be
       0.1779494 0.0239234 0.045900866 -0.20818086
000040 73 ac e2 3d dc 0f 86 bd 2d 44 bc be 28 0e 8e 3d
       0.11068048 -0.06545994 -0.36770764 0.06936294
000050 61 6e 89 3e 82 91 4a bc 8f 80 ca bd c4 2b 2d 3e
       0.26842025 -0.012363793 -0.09887802 0.16911227
000060 01 20 89 3d 34 92 fd bd ed ae 78 3e cf 6e 7e 3d
       0.066955574 -0.12381402 0.24285479 0.062117394
000070 59 37 85 be fd 3f 0c 3e 50 4c ae be 47 59 fa bd
       -0.2601879 0.13696285 -0.34042597 -0.122240596
000080 f5 fb 08 be 09 c4 35 3e 6c d1 dc bd 33 15 a9 3e
       -0.13377364 0.17750563 -0.107821316 0.33023986
000090 60 05 d7 bc e8 8b 03 be 4a f4 16 be 6c 40 4e be
       -0.02624768 -0.12846339 -0.14741626 -0.20141762
0000a0 5d 29 2d 3e 05 40 d8 bd 9d 60 68 be 92 11 49 3e
       0.1691031 -0.10559086 -0.22693105 0.19635609
0000b0 ea df 46 be b8 4e 6c bd 0b ab 5d 3d b3 19 fc 3b
       -0.19421354 -0.05769226 0.054118197 0.0076934933
0000c0 d4 2e 7b be ee 54 84 be bc c0 20 be 5d 3e 93 be
       -0.24529582 -0.25846046 -0.15698522 -0.28758517
0000d0 ff 97 3e be fa c1 b0 3e b8 47 8d be 7e d1 0e be
       -0.1861267 0.34522992 -0.2759378 -0.13947102
0000e0 48 64 03 be ab 4e 95 be 61 7a 5d 3e ba 63 62 bd
       -0.12831223 -0.2916158 0.21628715 -0.055270888
0000f0 d7 96 9e 3e 9e 62 71 3e a0 e5 a9 3e da ac 98 3d
       0.30974457 0.23572776 0.33183002 0.07454844

feature_exact.m_encoder.linears.2.bias f4 [8]
000000 2c e5 90 3e 7c ef 58 be 27 56 ae be 40 47 01 3e
       0.28299844 -0.21185106 -0.34050104 0.12624836
000010 5c 99 c6 bd 71 8c 30 3e 2d 6d 81 3e 1c 8d 85 be
       -0.0969722 0.17241074 0.25278607 -0.2608422

feature_exact.j_ln.weight f4 [8]
000000 42 51 7e 3f f8 d2 8a 3f 55 4b 7e 3f 3f b4 8a 3f
       0.9934274 1.0845633 0.993337 1.0836257
000010 49 92 87 3f 6b c2 8b 3f 1a 1f 8a 3f 56 47 89 3f
       1.0591518 1.0918707 1.0790741 1.0724895

feature_exact.j_ln.bias f4 [8]
000000 88 09 bd 3c d7 8b b0 bd c2 0f 3d 3b cf 38 af 3d
       0.023075834 -0.08620422 0.0028848504 0.08555757
000010 0d 56 8a 3d dd 24 8f 3d 80 ea 9d bd 33 20 99 3d
       0.06754694 0.06989453 -0.07710743 0.07476845

feature_exact.m_ln.weight f4 [8]
000000 6f 94 89 3f 27 55 8b 3f 3e d0 8d 3f f2 1a 8f 3f
       1.0748423 1.0885361 1.1079175 1.1180098
000010 87 e2 8e 3f 29 b8 89 3f f1 38 8f 3f 03 a9 89 3f
       1.1162881 1.0759326 1.1189252 1.0754703

feature_exact.m_ln.bias f4 [8]
000000 87 3f 94 3d 10 a6 ad bd 14 cd b1 bd ac 02 d4 3d
       0.072386794 -0.084789395 -0.08681694 0.10352072
000010 37 89 d0 bd 41 05 a8 3d 7f 61 b0 3d 9f e3 a5 bd
       -0.10182422 0.08204127 0.08612346 -0.08100056

actor.linears.0.weight f4 [64, 40]
000000 92 25 a7 bd 97 a0 99 bd 5d e4 85 3d 77 8b 9a bd
       -0.08161463 -0.07501333 0.065376975 -0.07546132
000010 85 9b 15 3d a6 21 24 3d d3 ce 43 bd c3 45 22 be
       0.036525268 0.040071152 -0.047804665 -0.15846924
000020 1f af 08 3e 1e 64 d0 bd 94 a4 c3 3c 90 68 24 3e
       0.13348053 -0.10175346 0.023882188 0.16055512
000030 64 61 4e 3a 27 36 05 bd 41 d3 76 bd ee 8f f8 3d
       0.00078727887 -0.032522347 -0.06026006 0.121368274
000040 2f 9a 04 3e f7 8b de bd 4d 15 ec 3d b0 c2 0e 3d
       0.12949441 -0.1086654 0.115275 0.034853637
000050 c2 54 84 3d 55 e1 d0 3d f0 fe 88 bd eb df a3 bd
       0.06461479 0.10199229 -0.066892505 -0.08001693
000060 42 68 10 3e 76 35 ce bd a8 41 24 3e 2e 85 de 3d
       0.14102271 -0.100687906 0.16040671 0.10865246
000070 1b bb 11 3e 29 c2 13 be 42 ef 4e bd 21 1e 12 bd
       0.14231531 -0.14429535 -0.050521143 -0.035673264
000080 7c ec c0 3d a2 d9 ef bd 72 ec 1b be c3 81 a0 3d
       0.09420106 -0.11711432 -0.15226915 0.0783725
000090 7a a3 cf 3d 00 7d 3b bb 1f d9 0c 3e 30 36 b3 bd
       0.101386026 -0.0028608441 0.137547 -0.0875057
0000a0 8a e1 35 3c 5d 4c 23 bd 39 d7 27 3e 81 31 04 3d
       0.011101136 -0.039867748 0.16390695 0.032273773
0000b0 1d 19 ff 3d 29 de ec 3d 64 51 33 3e 03 8d b4 3c
       0.12455962 0.11565811 0.17511517 0.022039896
0000c0 57 e7 f0 3d 6c 9d 17 bd 96 bd 9e 3d 9d 4b 5f 3d
       0.117628746 -0.037015364 0.077510044 0.05451547
0000d0 e8 01 00 3d 9b f9 11 3e 85 4b 15 be 4e 67 0b be
       0.031251818 0.14255373 -0.1457959 -0.13613626
0000e0 7e dd 5e bc 5a 8e eb bd a3 1a 08 be 4e e2 87 3c
       -0.013602613 -0.11501761 -0.13291411 0.016587403
0000f0 b4 0f 25 bd 9c 15 6e 3c f9 7e 87 3c 32 35 85 3c
       -0.04029818 0.014531519 0.016540037 0.016260717
000100 01 7c 0a be 1b 96 30 3c da cc 1b 3e e2 88 9f bd
       -0.13523866 0.010777975 0.15214863 -0.0778978
000110 2f 82 0b 3c 4e 1d 4e bc 6f 11 8b 3c 03 0b 66 bd
       0.008514925 -0.012580229 0.016976086 -0.056162845
000120 44 91 b3 bd 6b cd 6f 3d 8c 18 c0 bc cb 8a 45 bd
       -0.087679416 0.05854551 -0.023449205 -0.048228066
000130 74 a7 90 3d c3 f9 50 3d fe 54 08 3e 32 a0 22 bd
       0.07063189 0.05101944 0.13313672 -0.039703555
000140 33 f6 b7 3d f3 00 78 3d 6f 1c 09 3e ab 97 11 be
       0.08982506 0.06054778 0.13389753 -0.14218013
000150 c2 f6 66 bd bb 84 25 be cd 4c 87 bd e0 2f 01 be
       -0.05638767 -0.16163914 -0.066064455 -0.12615919
000160 cc f1 50 bd 9a 6a 1a 3e d8 57 11 3d 83 e7 21 3b
       -0.051011845 0.15079728 0.035484165 0.0024704642
000170 6e 4c a2 bd 4e 42 52 3d 68 51 b7 bd 61 6e 18 3c
       -0.07924734 0.051332764 -0.08951074 0.00930366
000180 65 e4 18 3e 2a e7 44 bd a5 82 0d be d0 12 06 3e
       0.14930876 -0.048072018 -0.13819368 0.13093114
000190 fb 2e d1 bb e7 52 41 3c 94 42 10 3e 46 2f 16 3c
       -0.0063837743 0.011799551 0.14087898 0.009166544
0001a0 9d 24 d3 bd 45 20 13 be 45 d0 29 3d c7 fb cd 3d
       -0.10309718 -0.14367779 0.041458387 0.10057788
0001b0 78 ae 0d 3e af a6 0e be 6d 58 83 3d 2d 71 6d 3d
       0.13836086 -0.13930772 0.0641335 0.05796926
0001c0 22 46 3c 3d 65 ae b9 bc 1f e5 0d 3e 08 1b d1 bd
       0.04596532 -0.022666166 0.13856934 -0.10210234
0001d0 ab a3 e1 bd a1 b1 e5 3d 9e 35 cf 3d 7a f5 12 be
       -0.11017545 0.11215521 0.101176485 -0.14351454
0001e0 ab 30 6e bd 6b 40 b3 bd 9b 41 89 bd 35 f2 a5 bd
       -0.058151882 -0.08752521 -0.067019664 -0.08102838
0001f0 3c bc b2 bc 3a 6b 2f 3d 22 1f 24 3d 29 85 06 3e
       -0.021818273 0.04282687 0.040068753 0.13136734
000200 43 a6 1f 3e e5 39 b6 bd 06 26 c5 3d bf cb 06 bd
       0.15590768 -0.08897761 0.09626393 -0.03290915
000210 de d5 bb bd 33 ad a0 3c 8d aa 1a be 8e 04 a2 3d
       -0.09171651 0.019613838 -0.15104122 0.07911025
000220 20 d3 4c bc 61 56 0d be 87 7d ce 3d 0c bb 9c bd
       -0.012501508 -0.13802482 0.10082536 -0.07652864
000230 35 94 7f bd d0 45 ab ba 79 09 09 bd 14 d9 18 be
       -0.0623972 -0.001306707 -0.0334563 -0.14926559
000240 b0 f0 f8 3d c1 ee 8e 3d 5d 28 24 3e 68 c9 20 3d
       0.121552825 0.069791324 0.16031022 0.039254576
000250 af 56 c1 bd 1f ea 20 bd 9c 8b 90 bc b5 b2 d9 bd
       -0.09440362 -0.039285775 -0.017644696 -0.10629789
000260 5b ad 1d 3e c3 91 18 bd c8 9f 97 3d bd c0 0a be
       0.15398161 -0.037248384 0.07403523 -0.13550086
000270 43 44 3f bc 2c 17 4c bd f4 1c 31 3e e2 53 30 3d
       -0.01167399 -0.049826786 0.17296201 0.043048747
000280 0c 82 e8 3d fb 42 e9 3d 2f d4 65 bd 6f 91 a9 3c
       0.113529295 0.11389729 -0.056110557 0.020699231
000290 81 57 d4 3d 25 d1 d0 3d 48 b9 1f 3d 4f b7 f9 bd
       0.103682525 0.10196141 0.038995057 -0.121931665
0002a0 94 16 c7 3c 3c 08 c0 bd e3 17 14 3d 2f 72 88 bd
       0.024302758 -0.093765706 0.036155593 -0.06662404
0002b0 61 b9 7e 3d a5 e4 fb bd 20 33 e2 3d 26 48 2d 3e
       0.06218851 -0.1229947 0.110449076 0.16922054
0002c0 cf 28 a5 bd 0c 5f 67 bd 82 8d 8d bd 12 c0 b9 bd
       -0.08064424 -0.05648713 -0.06911756 -0.09069838
0002d0 9b 69 2b be 20 6e 76 3d 16 21 bd 3b 2d 68 c2 3d
       -0.16739504 0.060163617 0.0057717664 0.09492526
0002e0 3a bb 50 3d 09 95 8a 3d cb 52 06 3e 12 a5 87 bd
       0.050959803 0.067667075 0.1311752 -0.066232815
0002f0 3f fb 39 3d ca c8 21 3c 5a 2c ec bd ac fb 10 be
       0.045405623 0.009874532 -0.11531897 -0.14158505
000300 ab 7d 35 bd 19 e1 b0 ba 4f 35 b3 3d 72 e1 a6 bd
       -0.0443093 -0.0013494819 0.08750402 -0.08148469
000310 69 4e e2 bd fb e9 88 3d db 1e 12 bc ac 4d 25 bd
       -0.11050112 0.06685253 -0.008918489 -0.040357277
000320 62 4a 12 3e 52 17 2b be a7 52 68 bd b9 1b e5 3d
       0.14286187 -0.16708115 -0.05671945 0.11186928
000330 fa 9c 12 3e 30 97 6c 3d da d2 64 bd f3 b5 96 bd
       0.14317694 0.05776137 -0.055865146 -0.07358923
000340 92 9c 5f 3d 6b cd f2 bd fc dd 60 bd 11 53 c3 bd
       0.054592676 -0.118555866 -0.0548992 -0.09537328
000350 a7 c1 9c bd 5b b7 1e 3e d0 7e c3 3d 88 e2 84 3d
       -0.07654124 0.15499632 0.09545672 0.0648852
000360 eb 93 38 be 0b 3d 0b 3e 42 64 18 3d 07 11 16 bc
       -0.18025176 0.13597505 0.03720499 -0.009159333
000370 20 c1 1e be 3b 70 c7 bc fd 53 f8 bc f3 b0 5f bc
       -0.15503359 -0.024345508 -0.030313486 -0.013653028
000380 50 4c b0 bd ad 8d 9f 3c 34 12 01 be 8b 12 9b 3b
       -0.086083055 0.019476736 -0.126046 0.004732435
000390 e1 e5 0c be 5f f3 7b 3d df d0 49 bd e6 35 18 be
       -0.13759567 0.061511394 -0.04927146 -0.1486431
0003a0 7a df ea 3d 74 c6 1e bd c3 be d7 3c 7a b7 4e 3d
       0.11468406 -0.03876348 0.02633608 0.050467946
0003b0 68 9d 02 3e 3c 66 f0 bd 5c 2c aa 3b 9f 5e cd bc
       0.12755358 -0.1173825 0.0051932763 -0.025069533
0003c0 5f 0e 2a be 7c 38 ff bd e4 db 57 bd cc 7f 0a 3e
       -0.16607045 -0.124619454 -0.05269994 0.13525313
0003d0 dd 36 a3 bd 08 f0 14 3e a1 39 82 bd c4 4a 0f 3e
       -0.07969449 0.1454469 -0.06358648 0.13993365
0003e0 fe 57 e9 3d 7c 63 46 bc 62 c7 b8 bd 70 cc ac 3d
       0.11393736 -0.01210868 -0.09022404 0.08437431
0003f0 54 15 80 3d f3 1d 09 bd cb e7 46 3c 48 f8 ee 3c
       0.06254068 -0.033475827 0.012140225 0.029171124

actor.linears.0.bias f4 [64]
000000 f9 ea c5 3d 1b 57 7e bd 49 18 b0 3d 6e 0d 9d 3d
       0.09663958 -0.06209479 0.08598382 0.07668577
000010 3e d4 74 3d b7 82 c6 3d e7 78 bf bd bd ea 26 be
       0.059772722 0.09692901 -0.09349232 -0.16300483
000020 1c 05 1e 3e 9c 16 98 3d 6f dd 8d 3c 65 66 c7 bc
       0.15431637 0.074261874 0.017317502 -0.024340818
000030 07 6b f4 3d cb 87 bb bd f5 9e 90 3d 31 ef d9 bd
       0.11934476 -0.0915676 0.07061569 -0.10641325
000040 ee 8e 7c bd a9 e9 96 3d 2d 52 0f 3d ea 2c 8a 3d
       -0.061659746 0.07368786 0.03499048 0.06746848
000050 a9 8c e2 bd 49 24 da bc 14 4a a1 3d 13 24 b5 bd
       -0.11061985 -0.02662863 0.078754574 -0.08844771
000060 a5 69 f3 bc cb c2 05 3e a8 be 0c 3e 49 9b c4 bd
       -0.029713461 0.13062589 0.13744605 -0.09599931
000070 62 5f b5 bd 7b 02 56 bd f1 a0 0c 3e 1d be a3 bc
       -0.088560835 -0.05224846 0.1373327 -0.019988114
000080 98 77 13 3e 15 10 f5 3d e9 24 0c 3e 11 e6 4f bc
       0.1440109 0.11965958 0.13685955 -0.012689129
000090 39 2e e7 bc cd 19 85 bc 6f 15 d3 bc a7 c6 c9 3d
       -0.028220283 -0.016247654 -0.025767056 0.09852343
0000a0 06 d3 0d 3e 57 44 b9 3d ee 23 ba bd a0 b6 a8 bc
       0.1385003 0.09046238 -0.09088884 -0.020594895
0000b0 66 71 a9 bd 2c e9 22 bd c5 c1 10 be 7b 3b 05 be
       -0.08273582 -0.03977315 -0.14136417 -0.13010971
0000c0 8a b8 18 be 6c 2b bb bc 9e c4 f6 bd 39 e9 cb 3d
       -0.14914146 -0.022847854 -0.120492205 0.09956593
0000d0 52 23 03 be c2 f1 75 bb 75 b5 7c bd 0b 56 21 3e
       -0.12806442 -0.0037528132 -0.06169649 0.15755479
0000e0 c9 ee a2 3d 09 cf 87 3d d0 13 fd bd 6b 3b dd bb
       0.07955701 0.06631286 -0.123572946 -0.006751468
0000f0 67 b4 24 be 4d a0 cc 3d 56 ab e4 3d 98 83 74 3d
       -0.16084443 0.099915124 0.11165492 0.05969581

actor.linears.1.weight f4 [64, 64]
000000 12 9f 01 be 36 b3 b2 bd d6 b8 ef bd 07 2a 11 be
       -0.12658337 -0.08725588 -0.117051765 -0.14176188
000010 99 54 e7 bd 55 2d 03 bd ed a8 00 bd c0 ac 27 bd
       -0.112954326 -0.032025654 -0.0314111 -0.04093623
000020 55 74 a5 3d 2a 74 b3 3d 33 b5 10 bd 46 92 94 3c
       0.08078829 0.08762391 -0.035329055 0.018136155
000030 77 7e ab 3d 6b 2c f5 bd 78 d5 be 3d 8f 38 b4 3d
       0.08373731 -0.11971363 0.0931806 0.0879985
000040 e8 3c c3 bc d4 ce 3a bd d3 47 a5 bd a2 b8 d4 bd
       -0.023832753 -0.045607403 -0.0807034 -0.103867784
000050 f1 20 9d bd 54 03 e2 3d f1 5f 03 be 64 c9 9c bd
       -0.07672299 0.11035791 -0.12829567 -0.076556
000060 a5 c8 00 3e d1 19 03 3e 0a 2a 35 3d fd d4 0e be
       0.1257654 0.12802817 0.044229545 -0.13948436
000070 0f 8c ad bd f7 1c 62 3d f7 4c 33 bc 9b ba c0 3d
       -0.0847398 0.055203404 -0.010943643 0.09410592
000080 d1 3f f4 3b 49 78 ee 3d 50 d6 50 3a 9c 92 e1 bd
       0.0074538966 0.11644036 0.00079665054 -0.11014292
000090 62 d8 d5 bd b3 b2 19 3d 5d 49 48 bd 3d b9 72 3d
       -0.10441662 0.037523936 -0.04889809 0.05925869
0000a0 37 0d ec bd 0e cb 10 3d e6 0a 23 bd d8 5b df bb
       -0.11525958 0.035349898 -0.039805315 -0.0068163686
0000b0 f4 9d 01 bd f0 c6 f2 b8 33 a1 e2 3d ce 4c 08 bd
       -0.031644776 -0.00011576514 0.110659026 -0.03327637
0000c0 54 fa 88 3d 84 ca 90 bd db e8 3c bd ad a5 00 3e
       0.06688371 -0.07069877 -0.046120506 0.125632
0000d0 13 15 29 3d 30 73 52 3d 85 c0 e5 3c 42 5a cb bc
       0.041279864 0.051379383 0.028045902 -0.024823312
0000e0 23 9a 10 be ab 05 a0 bc 7a 06 25 3d 6b 60 74 bd
       -0.14121298 -0.019533953 0.04028938 -0.059662264
0000f0 20 2c 02 be 74 a9 3b bd 82 58 1b bd 40 5c 62 3c
       -0.12712145 -0.0458159 -0.037926205 0.013815939
000100 17 76 cf bc 9d ee 7f 3d eb 0c d9 3d ab 09 19 bc
       -0.025324864 0.06248342 0.10598167 -0.009340684
000110 4e ad ab bd 3c 6f 55 bd 18 a0 4a 3d e2 1e c8 3d
       -0.083826646 -0.052108034 0.049469084 0.097715154
000120 15 af a3 bd 58 79 c7 bc 50 10 fb bd eb e0 92 bd
       -0.079923786 -0.024349853 -0.12258971 -0.07171806
000130 78 e8 e2 bd 14 d4 93 3d 50 81 46 3c 7c e4 86 bd
       -0.11079496 0.07218185 0.012115791 -0.06586549
000140 c5 b7 eb 3d a9 b4 43 bd ad 3a a8 3d 17 6b da bd
       0.11509661 -0.047779713 0.082143165 -0.10664957
000150 62 92 67 bc 05 70 c8 bc 0e fd a6 3d 60 e6 c4 3d
       -0.0141340215 -0.024467478 0.08153735 0.09614253
000160 16 3e 8a 3c 5e ed a0 3b c7 bf 1a bd 17 c5 c8 3d
       0.016875308 0.004911109 -0.03778055 0.09803217
000170 c9 5e ba bd 79 81 99 3c 70 bf a2 bc 4d 6b f0 bd
       -0.0910011 0.018738495 -0.019866675 -0.11739216
000180 d0 a9 51 3c 3a 1b 30 bc a9 9a c0 3d 6e 6f a0 bd
       0.012796834 -0.010748679 0.09404499 -0.078337535
000190 4c 43 d9 bd 0e f1 69 bc 4f 9d f9 3d 14 db 69 bc
       -0.10608539 -0.014278663 0.12188207 -0.014273424
0001a0 94 0a 9f bc 20 4e 84 3d 6d 38 92 bd f6 4e 63 bd
       -0.019414224 0.06460214 -0.071396686 -0.055495225
0001b0 e3 6f 46 bd 00 77 d7 bd 8c f2 ec 3d 74 81 8b 3d
       -0.048446547 -0.10520744 0.115697 0.068118006
0001c0 a3 53 90 3d 42 ab 28 bd 06 d3 cd bd d2 ce 05 be
       0.070472024 -0.04117895 -0.10050015 -0.13067177
0001d0 f6 3c c0 bd 74 d8 06 bd 10 5f 09 bd 2b 15 73 bc
       -0.093866274 -0.03292127 -0.033537924 -0.01483659
0001e0 3c e9 af 3d 9a 57 0b bd cc 37 57 3c d0 63 bf bd
       0.08589408 -0.03401909 0.013135862 -0.093452096
0001f0 cc 32 53 3d 32 3a 7f 3d a0 82 8c 3c 67 3d 6a bd
       0.051562116 0.06231136 0.01715213 -0.057187464
000200 19 fe 16 bd 23 8c 85 3c 8c 95 d3 3d 9b d1 0c bd
       -0.03686342 0.016302174 0.10331258 -0.034379583
000210 aa 57 cc 3d 52 08 99 3d ba c3 b9 3d da de 1b bd
       0.09977658 0.0747229 0.09070535 -0.038054325
000220 3c f0 7d 3d c2 57 05 3e 75 24 21 3d ac 02 94 3c
       0.061996683 0.13021758 0.03934141 0.01806768
000230 e7 79 2c 3d 64 a8 69 bc 48 23 bf 3d 59 91 bf ba
       0.042108443 -0.014261339 0.09332901 -0.001461546
000240 67 79 0a 3e d3 81 05 3e fc fe 22 3d c5 47 f6 3d
       0.13522874 0.13037805 0.039793953 0.12025408
000250 fb 20 4b 3d a5 7f af 3d 7e 51 b3 bb a8 92 80 3d
       0.049592 0.08569268 -0.005472361 0.062779725
000260 28 89 9c 3d 22 77 f4 bd cb 6d dc 3c 57 f2 7a 3d
       0.07643348 -0.11936785 0.026907822 0.06126627
000270 bc e8 c0 bd 16 3d d2 3d d2 14 c8 3d 8a 4e f9 bd
       -0.094193906 0.102655575 0.09769596 -0.12173183
000280 55 d1 50 3d d9 a1 c5 bb 93 94 fd bd 84 41 cc 3d
       0.050980885 -0.0060312566 -0.12381854 0.099734336
000290 41 e8 aa bd 77 f4 d6 3c 67 65 83 bd 2f 58 0f 3d
       -0.0834508 0.026239617 -0.06415825 0.034996208
0002a0 65 91 0a 3e a6 b5 47 3d 68 20 db bb 91 ae 65 3d
       0.13532026 0.048757218 -0.0066872127 0.056074683
0002b0 0d f8 84 3c f0 55 6a 3d 12 5c 00 3e a2 3d 6a bd
       0.016231561 0.057210863 0.12535122 -0.057187684
0002c0 9b 4c 91 bd 01 54 ad 3b 2f 92 20 3d e7 62 dd bc
       -0.070946895 0.005289555 0.03920191 -0.0270247
0002d0 27 fd cc bd 36 3a c1 bc 85 89 77 3d 38 bd 38 bc
       -0.100092225 -0.023587327 0.060433883 -0.011275582
0002e0 74 eb 3e bd 2f 9d b8 bd c5 8a dc bd c2 09 2c bd
       -0.046611264 -0.090143554 -0.10768656 -0.042001493
0002f0 4c 97 0b 3d ac 54 ca 3d 0a 58 57 bc 8f 2f 44 bd
       0.034079835 0.09879431 -0.013143549 -0.047896918
000300 83 64 14 bd 62 94 0d 3b d4 2c c4 bd 38 49 13 3c
       -0.036228668 0.0021603336 -0.09578863 0.008989625
000310 e8 ad ac 3d a7 25 f2 bd 96 98 c5 3d 5f 7d 22 bd
       0.084316075 -0.11823588 0.09648244 -0.039670344
000320 48 9f 2f bd 1f 8b 72 3c 2a 1a df 3d 42 16 80 3d
       -0.04287651 0.014803677 0.10893662 0.06254245
000330 d0 3c 10 bd ce dd 70 bd a2 9a 82 bd 78 ca 96 bd
       -0.035214245 -0.05880528 -0.0637715 -0.073628366
000340 cc 77 9f bd 73 0b c1 bd a7 d5 f1 bd 9e d7 94 bd
       -0.07786521 -0.09426012 -0.11808329 -0.07267688
000350 45 b8 20 bd 45 06 9f bd d5 96 77 3d 97 5e 1a bd
       -0.039238233 -0.07764868 0.06044658 -0.037687864
000360 ef ab ae bc a5 28 b4 3d 56 59 31 3d a2 77 b6 bd
       -0.021322219 0.08796815 0.043298088 -0.08909537
000370 f9 f2 b7 3c 59 d2 4c 3d 95 01 01 bc 8e 0c 33 3c
       0.022454726 0.05000529 -0.007873912 0.010928286
000380 bb 04 57 3c 3c a1 89 3c 4b 93 31 3d 07 f2 e0 bd
       0.013123686 0.016800515 0.04335336 -0.10983663
000390 01 90 81 bd 23 29 3c bc 77 9f fe 3c f2 68 cd 3d
       -0.06326295 -0.011484417 0.031081898 0.10029782
0003a0 6a c5 a1 bd 5f 02 16 3d 1f 80 f7 bd a7 92 9c bc
       -0.07898982 0.036623355 -0.12084984 -0.019112898
0003b0 a9 e2 f6 bd 8c 7e 51 3d 3e a8 18 bb c2 da f7 3c
       -0.12054951 0.051146075 -0.002329364 0.030255679
0003c0 10 ba 93 3d 28 dc 30 3d dd dc 0f 3d fa 1e a4 bd
       0.07213223 0.043178707 0.03512274 -0.08013721
0003d0 dd 3f 6f 3d 7d be 66 3d a6 95 e7 bd 96 45 61 bd
       0.058410514 0.056334008 -0.1130784 -0.054998003
0003e0 ee ff 0b bd a1 ad b8 3d db a8 09 3d 04 a5 9a 3c
       -0.03417962 0.09017492 0.0336083 0.018877514
0003f0 df 71 68 bd ca 2b de 3d fd 07 c7 bc f3 2a ac bc
       -0.05674922 0.10848196 -0.024295801 -0.021016574

actor.linears.1.bias f4 [64]
000000 21 53 51 bd aa 86 58 3a 04 39 ba bd 8c 74 c0 3b
       -0.05110467 0.00082598126 -0.09092906 0.0058732685
000010 be 1b 4b 3d 87 55 ce bd 68 61 ef 3d 49 99 c5 3d
       0.049587004 -0.10074907 0.11688501 0.096483774
000020 3a fb 77 3d 3f 22 07 be f6 86 05 3e 3d 45 29 bd
       0.060542323 -0.13196658 0.13039765 -0.041325796
000030 cd 2c 22 bd f8 f6 c4 3d c4 1c 6b bd da 7e 92 3c
       -0.039593507 0.09617418 -0.05740048 0.017882753
000040 61 f0 de bd cf be 8c 3d 60 23 a8 3d 51 56 01 3d
       -0.108856924 0.06872331 0.08209872 0.03157646
000050 4f 7f 82 bd 7d a8 31 3d 94 7e 0d be 9b 7e f8 bd
       -0.063719384 0.043373574 -0.13817817 -0.12133523
000060 f7 79 8b 3c b0 3a 63 bd b7 98 1e 3d 34 1c 46 bd
       0.01702593 -0.05547589 0.03871986 -0.04836674
000070 01 94 c9 bd 69 8e e0 3d e0 e2 8d bc 99 59 ef bc
       -0.09842683 0.109646626 -0.017320096 -0.029217528
000080 06 30 70 bd b3 74 71 bd ac 86 91 3d a1 23 90 3b
       -0.05863955 -0.058949184 0.07105765 0.0043987785
000090 c7 63 7a bd ef 43 8e bd e6 60 d1 bd b0 5c 31 bd
       -0.06113031 -0.06946551 -0.1022356 -0.043301284
0000a0 99 ba dd 3d 8d 21 34 bb d7 82 5f 3d 03 54 c6 3d
       0.10826606 -0.0027485818 0.054568138 0.09683993
0000b0 6d 78 bf 3d 05 29 d5 bd 73 87 71 3d b2 20 97 3d
       0.09349141 -0.104082145 0.058967065 0.07379283
0000c0 d0 a3 db 3d 55 f6 be 3d f5 4b 94 3a de 31 a2 bd
       0.10724604 0.09324328 0.0011314141 -0.07919668
0000d0 66 27 02 bd 9a 67 23 3c 65 60 b6 3c 5d 97 c4 3a
       -0.031775855 0.009973431 0.022262761 0.0014998723
0000e0 b5 dd 3b bc ec 30 be bc e2 68 63 bd 8a c5 8b bd
       -0.011466433 -0.023216687 -0.055519946 -0.06824787
0000f0 4e 19 97 3d ee 10 76 3d 70 05 07 3e 19 7a a7 bc
       0.07377873 0.06007474 0.13185668 -0.020443963

actor.linears.2.weight f4 [1, 64]
000000 fa c6 8f 3d cd 24 31 bc 85 b6 bd bd f2 02 d4 bd
       0.07020374 -0.010811997 -0.092633285 -0.10352124
000010 de a5 f1 bd a2 cd 00 bc 5d 91 80 bd 24 fd ef 3d
       -0.11799215 -0.007861527 -0.06277726 0.117182046
000020 d5 7f 92 bd ef 58 8f 3d e3 1e 7b 3d 21 83 d8 bd
       -0.07153288 0.069993846 0.061308753 -0.10571886
000030 11 74 bf 3d 03 a5 fb 3c 77 d9 6e bd a8 94 bf bd
       0.0934831 0.030718332 -0.05831286 -0.09354526
000040 cc cb 81 bc 72 3c ec bd a1 45 90 bb 72 cb a9 3d
       -0.015844248 -0.115349665 -0.0044028317 0.08290757
000050 85 1f 6f bd 25 89 a7 bb fb 86 c6 3d 64 3e 9a bd
       -0.05837967 -0.0051127844 0.09693714 -0.07531431
000060 22 64 d7 3d 30 e6 b8 bd 98 b2 f9 bc 53 ca e0 3d
       0.10517146 -0.0902828 -0.030480668 0.1097609
000070 76 36 e6 3d 92 db 8c 3b e3 94 24 3d 4c f2 32 3d
       0.11240856 0.0042986358 0.040181052 0.043688104
000080 4d 63 bd bd 5d e5 3f 3c c5 f8 1b 3d 97 32 d7 bd
       -0.09247456 0.011712399 0.038079042 -0.10507696
000090 1e ee 0a bd 9a e0 e6 bc ba d2 b9 3c 2e e8 de 3d
       -0.033918492 -0.02818327 0.02268349 0.108841285
0000a0 cf 08 8a ba 01 04 b4 3d 8c fb b9 3c dd 69 fb bb
       -0.001053119 0.08789826 0.022702955 -0.007672532
0000b0 ed b9 1c bd cc ae b1 3d da 21 fc bd 84 63 87 3c
       -0.03826325 0.08675918 -0.12311144 0.016526945
0000c0 2e 3b 8a bd fb c9 4a 3d 43 f0 b0 3d 45 cf 0e be
       -0.06749569 0.04950903 0.08639576 -0.13946255
0000d0 90 22 83 bd c1 ee 94 bd 9d 29 87 bd 38 09 c0 bd
       -0.06403077 -0.07272101 -0.06599734 -0.09376758
0000e0 d8 99 e9 3d 6d 68 e0 bd 39 55 d9 3a 2c f3 cf bd
       0.114062965 -0.10957418 0.0016581184 -0.10153803
0000f0 f8 0a 97 bd eb 84 3a bd c1 61 97 bc 03 b7 f8 bd
       -0.07375139 -0.045536917 -0.01847923 -0.12144282

critic.linears.0.weight f4 [64, 16]
000000 d4 c8 75 be 51 2f 74 be 2a 4f 09 3e 5e 42 02 3e
       -0.24002391 -0.23846175 0.13409105 0.1272063
000010 c6 a5 90 3e 2f ea 00 be e7 64 0c bd 64 73 e4 3d
       0.28251475 -0.12589334 -0.034275915 0.111548215
000020 22 e1 8a 3d 2a 0f 89 be 77 c5 0d be 30 bd 21 3d
       0.06781222 -0.26769382 -0.13844858 0.039487064
000030 51 16 74 be 86 8b 09 bd b4 fb 7a 3d 08 98 0c be
       -0.23836638 -0.033580326 0.0612752 -0.1372987
000040 0b 87 89 3c 4b 4b 34 3e 38 ac b9 bc 01 8a f0 3d
       0.016788026 0.17606847 -0.022665128 0.11745072
000050 3e c6 54 3e 50 cb 58 3c 9d 07 1e be 70 f6 2f 3e
       0.20778748 0.013232067 -0.15432592 0.17183852
000060 4f ca 76 3e 6b 26 43 be 86 02 8b be bf d0 2f 3e
       0.24100612 -0.19057624 -0.27150363 0.17169474
000070 91 80 90 be 7e 76 9f bd e2 ad 09 3e ad 1f 48 be
       -0.28223088 -0.077862725 0.13445237 -0.19543333
000080 4d 92 b5 bc 61 4e 34 be aa fe 21 be 6f be 31 3c
       -0.022164488 -0.17608024 -0.15819803 0.010848626
000090 63 38 7a 3e b1 34 fa bd 1e 94 d5 bd 7d 90 7e bd
       0.24435572 -0.12217081 -0.10428642 -0.062149514
0000a0 f5 36 dd 3d 26 ae 9c bc 7b 49 04 be 61 2f 4a 3c
       0.10801498 -0.01912601 -0.12918656 0.012340398
0000b0 3f 38 9e bd 26 3a 3c 3e c8 b8 ad 3e 3c 03 1e 3d
       -0.07725572 0.18381557 0.3393004 0.038577303
0000c0 5e 1e 6c be e2 6a 82 3e d9 be 64 3c b6 9c ba bc
       -0.23058459 0.2547217 0.013961517 -0.022779804
0000d0 a3 c6 f1 ba 60 7a 43 3a 60 54 71 3e 5e d3 79 be
       -0.0018446039 0.0007456895 0.23567343 -0.24397036
0000e0 1f 94 44 be a2 4a 89 3e 30 b3 84 bc a3 b1 77 bd
       -0.19197129 0.26814753 -0.016198725 -0.060472142
0000f0 8b 0a 76 3e 95 70 d3 bd 57 17 2c be f8 04 71 3d
       0.2402746 -0.10324208 -0.16805778 0.05884263
000100 17 36 7d 3d c4 93 bb 3d 77 03 14 3e 8d f3 90 bd
       0.061819162 0.091590434 0.14454447 -0.070777036
000110 04 84 90 3a 4b fc 7a bd ca ac 62 3e 21 c7 88 3c
       0.0011025672 -0.06127576 0.22136226 0.016696515
000120 4f 7a 6c be b2 82 99 3e ef 54 44 3b 97 db 88 bd
       -0.23093532 0.29982525 0.002995785 -0.066825084
000130 15 f8 0b bd 93 31 7b bc c6 c4 8e 3d be 21 41 be
       -0.034172136 -0.015331644 0.06971125 -0.18860528
000140 f2 e0 3d 3e 7c 9a b2 3c d8 ac f8 bd 69 31 24 be
       0.18542841 0.02180218 -0.12142342 -0.16034473
000150 11 8e 00 bd 3a 76 b1 3d d6 43 85 be de fc 03 3e
       -0.031385485 0.08665128 -0.26028317 0.1288943
000160 df 5d f3 3d 53 4d d7 bc 97 7e 34 be 83 df 3d 3e
       0.11883139 -0.026281988 -0.17626415 0.18542294
000170 8c c7 19 3e d8 b9 75 3d 5e 96 9e 3e 83 47 1b 3e
       0.15017527 0.059991688 0.30974096 0.15163998
000180 ca 4c 81 3b 28 d6 18 3e 10 9a aa 3d ed a6 99 be
       0.0039459215 0.14925444 0.08330166 -0.30010167
000190 9f 88 2c 3e cf e2 2d bb 56 0e b8 3b c9 d0 80 be
       0.16848992 -0.0026532894 0.0056169434 -0.2515929
0001a0 5c 6e 35 3e 3a 6f 11 bd b2 83 ea bd cf 62 8d be
       0.1771788 -0.035506465 -0.114509 -0.27614447
0001b0 3c fe 8c 3e d9 fc 1f bd 03 85 88 be d8 b3 37 3e
       0.27537715 -0.039059494 -0.2666398 0.17939699
0001c0 89 4a 5a be 7c 9b f1 3d 0c d1 03 be cb a1 b9 bc
       -0.21317495 0.117972344 -0.12872714 -0.022660157
0001d0 93 88 2c be 3f da 78 be 6b c0 39 3e 07 1c 93 bd
       -0.16848974 -0.24302004 0.18139808 -0.0718308
0001e0 1f a9 20 3d b9 94 28 be a3 c3 30 3e e2 3b 31 3e
       0.039223786 -0.16462983 0.1726213 0.17308
0001f0 34 e0 8e 3d 78 b6 1f be 29 24 c6 3c d1 e7 06 3e
       0.06976357 -0.1559695 0.024187164 0.13174368
000200 84 0a c6 3b aa 95 23 3e 64 0f d8 3d 50 7e ac 3b
       0.006043734 0.15975061 0.105498105 0.005264081
000210 60 c8 81 be 02 7c 8f be fe ca 8b 3e 1d a7 fc bd
       -0.25348186 -0.28024298 0.27303308 -0.12336562
000220 1f 80 2b 3b 97 dd c9 3d 68 b7 6d 3e d5 c9 a1 3d
       0.0026168895 0.09856718 0.23214495 0.078998245
000230 97 97 9d 3e 4b 92 2a 3e c4 14 d5 3d 2a 62 93 3d
       0.30779716 0.16657369 0.10404351 0.07196458
000240 94 a4 08 3e c7 78 f7 bd 2f 30 1a 3e 65 42 1b be
       0.13344032 -0.12083583 0.15057443 -0.15162046
000250 14 b6 18 bd cf 82 9d 3e de 54 8f be 73 3a 4d be
       -0.03728302 0.30763862 -0.27994436 -0.20041828
000260 8f 8e 61 3d e1 8f 8c be 63 5a 5b bd 48 36 9d bd
       0.055067595 -0.2745352 -0.053552996 -0.07676369
000270 c9 1a a2 3d 60 67 91 3e 76 c1 0a 3d 78 97 5e bd
       0.07915265 0.2839918 0.033875905 -0.05434367
000280 03 9b 98 bd f2 3f b7 3d d6 1b 95 bb 21 9d 87 3e
       -0.07451441 0.089477435 -0.0045504374 0.26487067
000290 ca f8 0c be 2d d3 14 be 97 ce 9b be 38 c0 32 bd
       -0.1376678 -0.14533682 -0.30431053 -0.043640345
0002a0 90 86 30 bd 6d d5 84 3d 5f de 8a be 52 14 e0 bb
       -0.04309708 0.0648602 -0.2712278 -0.00683836
0002b0 8d 78 93 be bf 23 1c be 87 22 04 3d b6 ab 92 be
       -0.2880291 -0.15248011 0.03225949 -0.2864663
0002c0 c2 90 48 bd 63 3d 49 3e 9e a4 8a 3d 46 5b fa bd
       -0.048966177 0.19652323 0.067696795 -0.1222444
0002d0 44 c7 74 3d a9 5c bc 3d 51 a4 96 3e 00 95 1e 3e
       0.059760347 0.09197361 0.29422238 0.15486526
0002e0 5d 3f 31 3e 10 7a 80 3e 02 82 f8 bc 04 01 94 be
       0.17309327 0.25093126 -0.03033543 -0.28907025
0002f0 73 f5 93 3e c5 b0 96 bd a2 8b 1d be d0 91 94 3e
       0.288982 -0.07357935 -0.15385297 0.29017496
000300 cf 31 f4 bd 12 d3 ec ba 7b 74 85 be 06 a7 51 be
       -0.11923563 -0.0018068275 -0.2606543 -0.2047387
000310 91 41 6a 3e de 57 2e 3e 86 2d 4f be 41 46 6c bc
       0.22876574 0.17025706 -0.2023221 -0.014421047
000320 71 37 32 bd bd 28 36 3e 16 7b 8c be 8b 9b 9b 3d
       -0.043509904 0.17788978 -0.27437657 0.07598027
000330 b2 ce 09 3e f5 30 89 bc 89 a9 8b 3e 95 d9 53 be
       0.13457754 -0.016746977 0.27277783 -0.2068847
000340 b6 26 07 3e 73 7d c4 bd 64 b6 42 3e 28 42 4e 3e
       0.13198361 -0.0959424 0.19014889 0.20142424
000350 9c b4 64 3d f6 a6 32 3e 10 ec e3 bd 89 74 25 3d
       0.055836305 0.17446503 -0.1112901 0.04039434
000360 56 60 5f be 36 f2 ad bc 79 1c 97 bc 38 79 19 3d
       -0.21814093 -0.02123366 -0.018446194 0.03746912
000370 91 9f 1b be e9 a0 71 3e 4c 21 84 3e 5e ff 41 3e
       -0.15197589 0.23596539 0.25806653 0.18945071
000380 e2 1b 4b 3e 43 11 44 be cc 7f 8d 3d 8b a2 3a bd
       0.19834855 -0.1914721 0.06909141 -0.04556517
000390 4f 42 6d 3e 3c 0c 75 3e d1 02 0f 3e f1 93 56 3d
       0.23169826 0.23930448 0.13965918 0.05238718
0003a0 02 e7 3c 3e a3 50 83 be fb c5 92 3d b1 12 85 bd
       0.18447497 -0.25647458 0.07166668 -0.06497706
0003b0 99 08 ff bb 19 dd 6c 3e 57 02 d7 3d 16 e5 b2 bc
       -0.0077830073 0.23131217 0.10498493 -0.021837752
0003c0 a6 41 e8 3d ba c1 ae 3d 6c b0 89 be 09 b5 07 3e
       0.113406464 0.08533044 -0.26892412 0.13252653
0003d0 6c b4 86 3e f0 42 5c 3d c7 9e 15 be f2 cc 38 bc
       0.26309526 0.053774774 -0.1461135 -0.0112793315
0003e0 ed 11 b1 bd f4 9d 52 3d 6e 7a 86 be e4 f9 3d be
       -0.08645997 0.051420167 -0.2626528 -0.18552357
0003f0 3f 02 a1 bc 5a aa 1d 3e 1e 2e 29 bc 04 3e 10 be
       -0.019654391 0.15397015 -0.010325937 -0.14086157

critic.linears.0.bias f4 [64]
000000 a4 a1 35 be 91 3a 85 bc 3f d3 ce 3d 69 69 f7 3d
       -0.17737442 -0.016263278 0.10098886 0.12080652
000010 5f 2b 03 be 3a 86 36 3e 5d 8e 22 be c2 75 67 bd
       -0.12809514 0.17824641 -0.1587462 -0.056508787
000020 60 85 71 be 60 89 32 3e 6a e6 03 3d 81 31 59 3c
       -0.23586035 0.17435217 0.03220216 0.013256432
000030 d2 ee 10 3e 10 1f 83 3e bf 1e 64 3e 9c d2 90 3c
       0.14153603 0.25609636 0.22277354 0.017678551
000040 f6 87 5b be 0c 02 1b 3e 68 b4 83 be de 7f 06 3e
       -0.21438584 0.151375 -0.25723577 0.13134715
000050 2a fa 70 bc 6f d7 35 3e 74 e5 26 3e 10 36 68 3e
       -0.014708081 0.17757963 0.16298467 0.22676873
000060 63 37 67 be e4 ab 34 be ea 74 83 3d 36 f0 39 3d
       -0.22579722 -0.17643696 0.06418784 0.0453951
000070 0d 1d 19 be 26 61 1e be 2c bf 5b 3e 14 ce 06 be
       -0.14952488 -0.15466747 0.21459645 -0.1316455
000080 b2 06 95 3e d6 0d 84 3e 9d 8c 25 be ce d6 3d be
       0.2910667 0.25791806 -0.16166921 -0.18538973
000090 36 75 0b 3e 51 95 58 be f9 6b d0 3d c0 51 c3 3d
       0.13618931 -0.2115071 0.10176844 0.09537077
0000a0 7f 6c 36 bd 31 2e 04 be 8c 09 73 bd 5e 5c 18 be
       -0.044537064 -0.12908246 -0.059335276 -0.14878985
0000b0 eb 66 5a 3d 23 fa fd bb 11 4b 94 3d 53 cb 2a 3e
       0.053320806 -0.007750766 0.0724088 0.16679125
0000c0 12 4d 51 bd b1 c8 1a be f7 b2 00 3e bd 90 00 be
       -0.05109889 -0.1511562 0.1256827 -0.12555213
0000d0 8c c8 4f 3e 3a f8 2c bc bc 54 90 3e e0 65 e5 3a
       0.20291346 -0.010557229 0.28189647 0.0017501675
0000e0 3b f2 22 3d e4 14 3c 3e 0b 39 37 be 32 3a 67 3e
       0.03978179 0.18367344 -0.17892854 0.22580793
0000f0 57 bc 52 3d bb 87 fe 3c d6 7f 4a 3d 78 6e 27 be
       0.051449146 0.03107058 0.04943832 -0.16350734

critic.linears.1.weight f4 [64, 64]
000000 7e 80 a1 bd d8 ba 9b bd 76 50 ae bd 99 41 4a bd
       -0.07885836 -0.07603997 -0.085114405 -0.049378965
000010 f1 88 71 3d 18 b0 98 bd 5a ce 41 3e 85 83 8c 3c
       0.058968488 -0.07455462 0.18926373 0.017152557
000020 92 bd 6f 3d 08 f6 27 be 76 ab d3 3b cd eb 9d bb
       0.058530398 -0.16402447 0.0064596487 -0.0048193694
000030 17 ea e1 bd 62 83 3d bd 85 4e 12 be f9 c8 61 3d
       -0.11030977 -0.046267875 -0.14287765 0.055123303
000040 38 f7 2b 3e 2d df 07 be 21 da 8a bc b7 2d bb bc
       0.16793525 -0.13268729 -0.016949715 -0.022848947
000050 ae 90 39 be 50 4d c9 bd 2e bf c1 bb cc e7 21 be
       -0.18121597 -0.09829199 -0.005912683 -0.1581108
000060 a0 41 d3 bc b2 e6 0c 3e ec 5d 70 bd ad 64 c4 bd
       -0.025788128 0.13759878 -0.05868332 -0.09589515
000070 ba 81 8e bc 1f 2e 2a 3c 4f 24 c5 bd 31 12 1b be
       -0.017395843 0.010386973 -0.09626066 -0.15143658
000080 9e dd 1e 3d 0d a8 18 bd fb 14 88 3d 1c f7 05 3e
       0.03878557 -0.03726964 0.06644627 0.13082546
000090 4f 26 0d 3d 67 cc 3d 3e 87 be 88 3d 56 7e 24 be
       0.034460362 0.18535005 0.06676965 -0.16063818
0000a0 9e 04 b8 bc 6c 6c f0 bd 74 34 58 3e 20 af 68 bc
       -0.02246314 -0.1173943 0.2111376 -0.014201909
0000b0 b0 07 25 be a0 95 93 39 4f 97 0c 3e c5 21 3e be
       -0.16116214 0.00028149504 0.13729595 -0.1856757
0000c0 43 2d 39 bd 8d f8 03 3e 76 2f 63 3d b1 ee 83 bc
       -0.04520918 0.12887783 0.055465184 -0.016105028
0000d0 d2 8d 2f be 45 1e 5b bd 03 1b c9 bd 70 ac ad 3d
       -0.17143944 -0.053495664 -0.09819605 0.084801555
0000e0 50 75 1e be cc a9 75 bd 53 cd 3d bc e3 fd 14 3d
       -0.15474439 -0.059976384 -0.011584598 0.036374938
0000f0 7e 12 22 be f8 c1 d8 3d 24 d5 32 3d 49 3f 88 bd
       -0.15827367 0.105838716 0.043660298 -0.06652696
000100 00 0b a9 3d eb 59 a4 bd a4 2f f1 3d e4 eb 00 be
       0.08254051 -0.08024963 0.11776665 -0.12589985
000110 1f f6 4c bd bc 4a e7 3d ab 8b 5d 3d 3f 65 88 3d
       -0.050039407 0.11293551 0.054088276 0.06659936
000120 99 e1 20 be 01 68 1f 3e d8 bf 64 3e 0b 03 5d 3d
       -0.15711059 0.15567018 0.22338808 0.05395798
000130 d7 9b 88 3d 2f 17 23 3e 88 82 ac 3d ef dc 79 bd
       0.06670349 0.15926813 0.08423334 -0.061001714
000140 b7 d2 72 3c 1c 5b a4 3d bb 8b ce bd 4e 48 01 3e
       0.014820746 0.0802519 -0.10085245 0.12625238
000150 2f 5e 04 3d 64 9b 7a 3d df 17 62 bd 51 88 06 3e
       0.032316383 0.06118335 -0.055198546 0.13137938
000160 ab c9 a1 bb 3f 8b 1e 3d 39 c1 21 3e 63 2b cc 3d
       -0.004937371 0.038707014 0.15796365 0.09969213
000170 33 1b b9 bd c8 07 98 3d ff 22 f6 3d 21 60 37 3e
       -0.09038391 0.07423359 0.12018394 0.17907764
000180 d8 71 9e 3b cc c1 2e 3e 5c 2c 90 3c 8e ad 21 be
       0.0048353486 0.17066115 0.017599277 -0.15788862
000190 89 51 1f be 5b 91 94 bd 1e 63 95 bd f7 f6 23 bd
       -0.15558447 -0.07254287 -0.07294296 -0.040030446
0001a0 22 f6 15 be b9 06 99 3d 7a 08 21 be d4 5f 84 bd
       -0.14644673 0.07471985 -0.1572589 -0.0646359
0001b0 59 87 70 3c 20 68 1c be 9f 70 d3 bd a1 38 48 bd
       0.014680707 -0.15274096 -0.10324215 -0.04888213
0001c0 86 bb 44 3e 6b 8b 1b 3d 53 10 f3 3d 02 cc bd bd
       0.1921216 0.037974756 0.11868348 -0.09267427
0001d0 c7 1c ed 3d ef 6c da 3d bd 3e a3 bc 48 40 96 3d
       0.115777545 0.10665309 -0.019927377 0.073364794
0001e0 e5 c2 48 bd be 6a 2c 3e 17 b7 e4 3c 0f 8b 16 3e
       -0.04901399 0.16837594 0.027919335 0.14701484
0001f0 27 c5 2e 3d c9 fa 19 be f8 6c 80 3d 6e 46 2a 3e
       0.042668488 -0.15037073 0.06270784 0.1662843
000200 76 f6 03 be 0f 59 1d be e6 fe bd bd 52 72 e6 3d
       -0.12886986 -0.15366004 -0.09277134 0.112522736
000210 ec e4 0f 3e 03 07 df bd f5 ad 31 3d 5e b6 6a bd
       0.1405217 -0.10890009 0.04337879 -0.057302825
000220 e0 a3 16 3e d9 b3 25 be 46 f3 69 be b3 7c 97 3b
       0.14710951 -0.16181888 -0.22846708 0.0046230196
000230 46 5a 31 be 96 db 43 3c dd 13 37 bd eb 23 36 bd
       -0.17319593 0.011954209 -0.044696677 -0.044467848
000240 2e 3a 69 bd 04 95 dc bd d9 df d3 3d 5a 79 b2 bd
       -0.05694025 -0.1077061 0.1034543 -0.08714552
000250 b2 a4 35 3d 7c ea 1b 3a 96 c6 8b bd 78 b6 26 be
       0.04434652 0.00059477217 -0.06824987 -0.16280544
000260 a2 d4 d9 3c 25 80 0d 3c 17 22 3d be e4 29 07 be
       0.026590649 0.008636509 -0.18470035 -0.13199574
000270 d5 c3 1c 3e 99 1b d4 3d 6b fa 0e bd 41 ae f2 3c
       0.15309079 0.10356826 -0.034906786 0.029624106
000280 b6 9d af bb 6d 79 91 bc d7 4e 0c 3d 78 27 80 3d
       -0.005359377 -0.017758096 0.034254875 0.06257528
000290 cf 03 36 3e 24 59 de 3c 86 13 ed bb e9 bb ff bc
       0.1777489 0.027142115 -0.0072349934 -0.031217532
0002a0 98 31 35 bc e3 db f0 bd 00 01 4e 3e 2b 20 cc 3d
       -0.011059187 -0.1176069 0.20117569 0.09967073
0002b0 24 e8 d7 bd ba e2 36 3e 69 a8 29 3e dc 4c 21 be
       -0.10542324 0.17859927 0.1656815 -0.15751976
0002c0 a2 5f 09 3d c5 cd 4f bd 09 d1 68 3d 64 a9 e8 3c
       0.03353847 -0.050733346 0.056839976 0.028401084
0002d0 38 fc 05 be ee 33 9a bd 33 6e 43 3d 31 66 0b 3e
       -0.13084495 -0.07529436 0.047712516 0.13613202
0002e0 b7 a7 11 bd f3 7f fd bd d5 ab f7 3d 3f e4 98 bd
       -0.035560336 -0.1237792 0.12093321 -0.074654095
0002f0 6d 22 8b bd f3 5a 72 bd 16 ec a9 3c d1 af 07 be
       -0.067936756 -0.059168767 0.020742457 -0.13250662
000300 4e ec 03 3e 8b 86 23 3e 7d e2 42 3e 56 f2 61 bd
       0.12883112 0.15969293 0.19031711 -0.05516275
000310 f6 6d a1 bd 53 b4 23 3e 0e 9a 22 bd d7 df c1 3b
       -0.078823015 0.15986757 -0.0396977 0.0059165764
000320 7d 6b d9 bb 82 2f 64 bd 02 83 33 3e b1 84 fd bd
       -0.006635128 -0.05570937 0.17530444 -0.123788245
000330 5a 49 ac 3d 7c 5c fa 3b d4 f5 9d 3d 8b ec 31 bd
       0.08412428 0.0076404195 0.077129036 -0.043438476
000340 09 18 fb bd dd 67 3a 3e 62 fb a0 bd 87 12 98 3c
       -0.12260444 0.18203683 -0.078604475 0.018563522
000350 52 28 21 3c 80 b2 a5 bd 27 47 a2 3d c8 c2 f2 3d
       0.009836273 -0.08090687 0.079237275 0.11853558
000360 93 e2 79 3d f0 e4 e1 3c 19 11 e0 3d 66 0c ff 3d
       0.061007094 0.027574986 0.10940761 0.12453537
000370 44 fd 9c 3c dd 5b 14 be bd d5 77 3d ee dd 83 3c
       0.019163735 -0.14488168 0.06050657 0.016097035
000380 3c 41 2c bd 22 d8 45 3e 46 0b 35 be 16 50 50 3d
       -0.0420544 0.1932073 -0.17680082 0.050857626
000390 ad 4c 78 3c 01 fb b3 bd 19 0c b4 bd f3 fd da 3d
       0.015155 -0.087881096 -0.0879137 0.10692968
0003a0 56 fc dc bc f5 62 cd bc 69 26 22 bd 2c 45 be 3c
       -0.026975792 -0.0250716 -0.039587412 0.023226343
0003b0 08 94 11 3e 8c 37 2a be bd 69 06 be 36 43 53 3c
       0.14216626 -0.16622752 -0.13126273 0.012894442
0003c0 a6 4a b3 3d 09 06 06 be d5 4e 0d 3d 65 75 bf bd
       0.087544724 -0.1308824 0.03449901 -0.09348563
0003d0 45 8b 1a 3d 9d b0 83 3d 2b 01 73 bc 36 12 8b bd
       0.037730474 0.06430171 -0.014831821 -0.06790583
0003e0 1e 8c c2 3d b6 e5 ac 3d c1 9f ef 3b 5a ca d3 3d
       0.094993815 0.084422514 0.0073127453 0.1034133
0003f0 4e 02 72 bc 33 ee 2e bd ba c0 19 3e 35 05 d2 3d
       -0.014771057 -0.042707633 0.15014926 0.102548994

critic.linears.1.bias f4 [64]
000000 19 e2 03 be 3a 4f f0 3d 8a 8a 90 bd fa 90 fb 3c
       -0.12879218 0.11733861 -0.07057674 0.030708779
000010 97 71 aa 3a a9 30 5b bd 31 4e 1d 3e b8 db dc bd
       0.0013003823 -0.053513203 0.15361859 -0.107840955
000020 95 38 89 3d 77 02 af 3d ca 6f a2 bd 99 01 02 be
       0.06700245 0.08545392 -0.07931478 -0.12695922
000030 b5 4d a8 3d 83 e9 1f 3e 2a dc b8 3d b5 ef 41 3d
       0.082179464 0.15616421 0.09026368 0.047347743
000040 15 cd ef 3d 34 25 ea bd 46 68 ae 3d c9 cd 91 3d
       0.11709038 -0.11432877 0.08515982 0.071193285
000050 87 d8 0f bd 4b 64 66 bd c7 a3 9f 3d 90 3f 47 bd
       -0.035118606 -0.05624799 0.0779491 -0.048644602
000060 bc 20 13 39 8d 18 55 bc b9 4f 94 3d 17 03 10 3c
       0.00014031207 -0.013006342 0.072417684 0.008789799
000070 df 99 52 3d 5d 51 f0 3d 32 d8 c4 3c 5f 4b 28 be
       0.051416274 0.11734269 0.024028871 -0.16435002
000080 39 70 19 be de 43 dc bc e7 b8 6e ba e2 0c 6c 3d
       -0.14984216 -0.02688783 -0.0009106532 0.057629474
000090 4c 9b 1f 3b a2 e3 65 bd d1 b4 a1 3d 73 9a 89 bd
       0.0024354039 -0.05612529 0.07895816 -0.06718912
0000a0 46 79 66 bd bf d4 05 be 8f 15 b5 3d 0a 40 2e be
       -0.056268 -0.13069437 0.088420026 -0.17016616
0000b0 91 53 94 bb 4f 9c 2d 3e 53 85 18 3c ff 27 fc 3c
       -0.0045265635 0.16954158 0.009309131 0.03078079
0000c0 31 49 73 3d 13 79 e0 3d a0 4f f8 bd 56 f1 98 bd
       0.059395973 0.10960593 -0.12124562 -0.07467906
0000d0 71 02 1c 3d 9b 1a fd 3d 83 fa 55 bd 7d 22 12 bb
       0.038088266 0.1235859 -0.05224086 -0.0022298389
0000e0 10 49 ea 3d 8c b7 32 3d cd f8 2e 3d 20 a0 79 3d
       0.11439717 0.043632075 0.042717744 0.060943723
0000f0 bf 59 e3 bc de 4d 6b 3d 8e 23 18 3e e9 55 93 3d
       -0.027752755 0.057447307 0.14857313 0.071941204
