trained_network/SD2/s1_a10.pth (torch, 59885 bytes, 26 tensors)

feature_exact.j_encoder.linears.0.weight f4 [8, 14]
000000 87 51 20 3d b8 93 3c 3e 11 44 66 be c8 ae 94 3e
       0.03914025 0.18415725 -0.22486903 0.29039598
000010 c0 20 f5 bd e1 05 c7 3c a8 24 92 bd c0 49 a1 3d
       -0.11969137 0.024294795 -0.07135898 0.07875395
000020 3e e2 ff 3d 86 3f 96 3e 3d f2 cb 3b c4 1e cf bc
       0.12494324 0.2934534 0.0062239454 -0.025283225
000030 63 b7 88 be b3 ca 1d be a0 ac 74 bd f7 83 f0 3d
       -0.26702413 -0.15409355 -0.05973494 0.1174392
000040 05 f8 67 bc 40 4e 00 bf fd 61 88 bd 09 dd 86 3d
       -0.014158254 -0.501194 -0.06659315 0.06585128
000050 28 2a 2d bc 95 36 a7 bd 4f 35 68 3d ed c7 da be
       -0.010569133 -0.081647076 0.056691464 -0.42730656
000060 8c 16 8c 3d 26 98 1b bd 6a 7c 55 3d cc 9b c7 bb
       0.06840238 -0.037986897 0.052120604 -0.0060915705
000070 d1 6c a9 bb 5a 20 a3 bd f5 c7 54 be 53 db c3 bd
       -0.0051704426 -0.07965155 -0.20779403 -0.09563317
000080 ae 14 c7 3d f8 8e 98 bc e1 cd ef 3c a9 69 e2 bd
       0.09720741 -0.01862286 0.029272975 -0.11055309
000090 87 d7 f9 3c 02 1d c8 3d e7 32 a6 3d c2 3f 0a be
       0.03049828 0.09771158 0.081151776 -0.13500884
0000a0 be 93 ea 3e b6 35 be 3e 28 32 6f bb 93 62 02 3e
       0.45815843 0.37150353 -0.0036498401 0.12732916
0000b0 06 5e 48 3e a0 0c 2e be 3a 38 22 3e ca a6 f5 3d
       0.19567117 -0.16997004 0.15841761 0.11994703
0000c0 e3 7c 10 3e f9 c7 c4 bd d8 38 47 be 15 bb 93 3d
       0.1411014 -0.09608454 -0.19455278 0.072134174
0000d0 64 f1 c8 bd 16 8a c5 3b 32 6a 00 bf 1c b4 db 3e
       -0.098116666 0.006028424 -0.5016204 0.4291085
0000e0 e0 f3 7a 3d f2 0c 7a bc 6d 71 42 be 6e d4 ac bb
       0.061267734 -0.015261875 -0.18988581 -0.005274347
0000f0 da cf 04 bc d5 2e 20 bd 37 f0 3e bc 92 2c 20 3b
       -0.008106196 -0.039107163 -0.011653951 0.0024440628
000100 5d 59 cc 3d 02 0b 4a bb 43 2f 27 3e 09 ae 3c be
       0.09977982 -0.0030829315 0.16326623 -0.18425764
000110 61 0b b6 be 8b d0 4f 3e f7 10 80 bd eb 9d 85 be
       -0.35555556 0.20294397 -0.06253236 -0.26097044
000120 a6 9c b6 be f4 56 4a 3e d3 54 2c be dd 75 dd bd
       -0.35666388 0.19759732 -0.16829233 -0.10813496
000130 bc 27 a0 be da b4 cb 3d d6 ce 2a 3d 92 40 ce bc
       -0.31280315 0.09946604 0.04170116 -0.025177274
000140 bb b7 0d be 1f 19 45 3e 3e 21 1c 3e a2 7e 7f 3e
       -0.13839619 0.19247864 0.15247056 0.2495065
000150 2b 1b 47 be 5f 28 85 bd 09 8b 48 3d 74 64 40 be
       -0.19443958 -0.06501841 0.04896072 -0.1878832
000160 57 53 7b 3e e9 11 9f ba d0 e6 94 be b0 37 28 3e
       0.2454351 -0.0012136075 -0.29082346 0.16427493
000170 c6 c1 e8 bd d3 9c b5 bc 69 b8 ce bd 10 29 0d 3e
       -0.11365084 -0.022169506 -0.10093767 0.13785195
000180 5c 62 78 bd cd 25 64 bd 91 bc f8 3c 1d 6f c6 bc
       -0.060640678 -0.055700112 0.030363353 -0.024222905
000190 35 fc 57 3e bf 88 f2 3d 12 55 5d be 7f 82 ab bd
       0.21092303 0.118424885 -0.21614483 -0.083744995
0001a0 0f 06 cf 3d 19 17 46 be 44 bf e7 3d 77 c7 41 ba
       0.101085775 -0.19344749 0.11315778 -0.00073920883
0001b0 29 5f 2d 3d 29 69 b8 3d 71 75 cd be 9e 92 0d bf
       0.04232708 0.09004433 -0.40128663 -0.55301845

feature_exact.j_encoder.linears.0.bias f4 [8]
000000 ba 16 4e bc 64 5f 8f bc 36 da cc bd e5 1b 1b 3c
       -0.012578661 -0.01750154 -0.10002558 0.0094671
000010 07 3e 73 be b4 6f 44 3b a6 4c 86 3e 07 f5 04 bf
       -0.2375413 0.0029973807 0.26230353 -0.5193638

feature_exact.j_encoder.linears.1.weight f4 [8, 8]
000000 68 8c e6 3d bb 82 12 3d a6 65 ce 3e d1 74 42 3e
       0.11257249 0.035769206 0.40311927 0.18989874
000010 42 ed d8 bd ec 8c ff 3e e2 0e ef bd 06 2d eb be
       -0.10592128 0.49912202 -0.116727605 -0.45932788
000020 97 6d cf 3e 01 3b 2d 3d 6e d5 0e be 53 7f 8f 3e
       0.40513298 0.0422926 -0.13948604 0.28026828
000030 f5 53 29 3e b4 f9 4f 3e 2d 83 ff 3e 64 dd 8c bd
       0.16535933 0.20310098 0.49904767 -0.068781644
000040 5d db 16 3e 14 8d bc bc 63 aa 9d be 0b 2e d0 bd
       0.14732118 -0.02301649 -0.30794057 -0.10165032
000050 5d 4d f4 3c 41 d6 36 3d 16 b3 4a be 03 b6 f0 bc
       0.029822046 0.044637922 -0.19794878 -0.029383665
000060 24 1f 30 3d e3 da d0 3e f1 ee c1 bd 16 91 a9 3d
       0.042998448 0.40791997 -0.094694026 0.08279626
000070 73 f3 16 bf 24 a9 59 3d 24 4e 9d bd c3 bd 1b 3e
       -0.58965224 0.05313982 -0.0768092 0.15209107
000080 c2 44 ad 3d a4 03 90 3e 84 98 84 be 2d 5c 05 3e
       0.0846038 0.28127778 -0.2589761 0.13023444
000090 89 56 97 3e 5e 9b 96 3e f2 09 f6 bd d1 b5 0f bf
       0.2955821 0.2941541 -0.12013616 -0.56136805
0000a0 06 3b 51 3e 5f d8 86 bd 5f 3a 5b be 39 cf 85 3e
       0.20432672 -0.06584238 -0.21408986 0.2613466
0000b0 ef dd b1 39 c7 7f 3a bd ab 5a 85 3d 5e 98 9d bd
       0.00033925424 -0.045532014 0.06511434 -0.07695077
0000c0 55 37 a0 be 9e 8f 02 bf 49 8e 05 be 1a bd 07 be
       -0.31292215 -0.5100039 -0.13042559 -0.1325573
0000d0 0a b4 6a 3e 6f 86 3b bf a9 35 10 3c 70 bc 39 3f
       0.22920242 -0.73252004 0.008801856 0.7255316
0000e0 b4 1b 8d 3e 17 ce 8b 3e 88 55 f4 3c b7 6c 70 be
       0.27560198 0.27305672 0.02982594 -0.23478971
0000f0 1f 50 a2 3e fb fe 1a 3e 88 7d 17 bf 7f 4a 8b 39
       0.31701753 0.1513633 -0.5917592 0.0002656765

feature_exact.j_encoder.linears.1.bias f4 [8]
000000 23 72 9e bb 9f 50 70 bd 64 3a 99 3e a5 86 86 be
       -0.0048353835 -0.058670636 0.2992736 -0.262746
000010 84 a5 bb 3c 1a b9 54 bb 6f 9a de 3d 7b 06 54 be
       0.022906072 -0.0032458962 0.108692996 -0.20705597

feature_exact.j_encoder.linears.2.weight f4 [8, 8]
000000 7e 8a 11 bf 1d 6b be bd 79 af 3a bd 58 88 ad 3e
       -0.5685195 -0.09297774 -0.0455775 0.33893085
000010 bb df a7 3d e9 1e 43 be 87 cd ed bd e5 89 2c 3e
       0.0819697 -0.1905476 -0.11611467 0.16849478
000020 89 d7 88 3d 70 58 af 3d 4f 2d ac 3e d8 8c 31 bf
       0.06681735 0.0856179 0.33628318 -0.69355536
000030 c3 08 0f bd 21 c7 84 3e 7d 6c 98 be 60 24 98 3d
       -0.034920465 0.25933173 -0.2977027 0.07428813
000040 dd 2d 98 3c e9 a5 13 3e 9b c9 e1 bd 09 16 05 3e
       0.018576557 0.14418758 -0.11024781 0.12996687
000050 52 78 a7 3e 04 01 72 be 8f 8d 3f be 82 f2 be 3d
       0.32708985 -0.236332 -0.18706344 0.093235984
000060 36 8c 2f 3e bb ce d8 be 0b d8 d3 3d 6c 30 7c 3e
       0.1714333 -0.42345223 0.10343941 0.24627846
000070 55 f2 9f be 59 c3 2f 3e 11 1f cb 3e 0c 1e 9d be
       -0.31239572 0.17164363 0.3967214 -0.30686986
000080 c6 4b 2b 3e 30 bf 36 3e f1 e6 5b be fa fe cc be
       0.16728124 0.1784637 -0.21474816 -0.40038282
000090 a0 90 9c bd 73 ee 80 be f9 af 42 be 9b bc 8f be
       -0.076447725 -0.25181922 -0.1901244 -0.28073582
0000a0 00 0a 0b be 0a 52 98 3e 2a 8f d8 bd 2d da 06 3e
       -0.13578033 0.2975009 -0.105741814 0.13169165
0000b0 9a 8f 6e 3d 68 14 bf be 0b f4 bd 3e 64 e4 4a be
       0.058242418 -0.37320256 0.37100253 -0.19813687
0000c0 7d e6 14 3e 72 ef 9c be f7 13 c2 bd da 5f 83 3e
       0.1454105 -0.30651432 -0.09476464 0.25659066
0000d0 11 91 09 3d 1b 53 1b be 4a bc a7 3e de af a5 be
       0.03358561 -0.15168421 0.3276084 -0.3236074
0000e0 c8 67 87 bd 5f fb d5 bd 5f 79 ac 3e f1 4f b9 be
       -0.066115916 -0.10448336 0.3368635 -0.36193803
0000f0 78 01 12 3e 8c 1d 97 3e a3 06 83 be 9d 9b bc 3e
       0.14258373 0.2951473 -0.25591 0.36837474

feature_exact.j_encoder.linears.2.bias f4 [8]
000000 aa 9d 52 3e c1 c4 db bc 3e ad db bd 8e 41 85 3c
       0.20567957 -0.026827218 -0.10726403 0.01626661
000010 75 0a 7d be 6b ac a3 be d3 ea 90 3e 90 18 a0 be
       -0.2471102 -0.31967482 0.28304157 -0.3126874

feature_exact.m_encoder.linears.0.weight f4 [8, 8]
000000 6a 11 ef be c5 f4 55 be a4 79 a1 3e 15 92 af 3d
       -0.46692973 -0.20894153 0.31538117 0.08572785
000010 17 ae 60 bd 34 20 8f 3e 4b 95 9b be 78 4d 75 3e
       -0.054853525 0.27954257 -0.3038734 0.23955333
000020 07 8b 57 3e 85 f9 85 3e aa 3b 19 bd a4 c7 88 be
       0.21049128 0.2616693 -0.037410416 -0.26714814
000030 26 35 dc bd bf 5b 4f be eb 1e 86 be 8f 99 b6 be
       -0.10752325 -0.20249842 -0.26195464 -0.3566403
000040 30 6e 12 bd 7d 53 32 3e 9b 3b 44 3e 9b ed 1a be
       -0.035749614 0.17414661 0.19163363 -0.15129702
000050 70 6a de be 20 71 54 be 03 8f a9 3e 8e 6a 60 3e
       -0.4344058 -0.20746279 0.33116922 0.21915647
000060 54 ab b9 3d 1c 25 fb bd f3 13 8b 3e 09 5f 89 3e
       0.09065881 -0.122629374 0.27163658 0.2683032
000070 36 c6 44 3d 4a fb d2 bd 0d de 15 3e 2d 3b a8 bb
       0.04804059 -0.10301836 0.14635487 -0.0051340074
000080 cc e5 2f 3d e2 ca 8d be 3a c3 9f 3c 3b 57 98 be
       0.04294376 -0.2769385 0.019502271 -0.29754052
000090 71 e4 8d be c5 84 7a 3e 8f 61 51 be 33 96 3a be
       -0.2771335 0.2446471 -0.20447372 -0.18221359
0000a0 a7 db 5c 3e 5d 35 a1 be ee c2 48 3e 9c d5 bf 3e
       0.21568166 -0.31486025 0.1960561 0.3746766
0000b0 71 bd 08 be 1c 02 34 be 3a 0e bf be 1f 48 75 3d
       -0.13353516 -0.1757893 -0.37315542 0.059883233
0000c0 a8 c7 a0 be 91 c9 d2 3d 39 91 a0 bd 45 cb 04 3e
       -0.31402326 0.10292352 -0.07840199 0.12968166
0000d0 8a 7b 33 3e 83 f2 6b 3e b9 e4 a1 bd 8f 11 2a 3e
       0.17527595 0.2304173 -0.079049535 0.1660826
0000e0 ad d4 9e 3e 68 0c 78 bd 2c 14 86 be 42 73 04 be
       0.31021634 -0.060558707 -0.26187265 -0.12934592
0000f0 99 ea 0c bf 13 95 4a 3e 79 39 83 be 40 19 bf 3d
       -0.5504547 0.1978343 -0.25629786 0.09330988

feature_exact.m_encoder.linears.0.bias f4 [8]
000000 e2 a4 ca bc 64 49 64 3e ee eb f1 be e9 51 96 3d
       -0.024736825 0.22293621 -0.47250313 0.07339842
000010 57 f8 92 be 51 2b 22 be a8 7b a2 3e be 78 0c be
       -0.28705093 -0.15836836 0.31734967 -0.13717934

feature_exact.m_encoder.linears.1.weight f4 [8, 8]
000000 8d 81 6f 3e a8 9f 8c 3d cc 8a 69 3c 42 a2 4a 3e
       0.23389263 0.068663895 0.014254283 0.19788459
000010 45 31 0d 3c 72 a7 b7 3e d4 a7 84 3d f3 7e b0 be
       0.008617704 0.35869938 0.06477323 -0.34471855
000020 90 f4 1b 3e a7 db 0e bd 84 80 89 3d 5b 35 c7 3e
       0.15230012 -0.034877446 0.067139655 0.38907894
000030 a9 f2 c9 3d 6b f8 b4 3d d7 70 b0 bd 22 05 9d 3d
       0.09860737 0.088364445 -0.086152725 0.07666995
000040 07 18 26 bd 24 77 a3 3e 12 dd d8 bd dd 3a 83 3e
       -0.040550258 0.31926835 -0.10589041 0.25630847
000050 20 b4 0f 3e 0a 4e 6b bd b5 a1 54 be e8 22 88 bd
       0.14033556 -0.05744747 -0.20764811 -0.06647283
000060 bb 15 9f 3e b2 b4 03 bd e4 fa c5 bb 98 b6 bb 3d
       0.31071267 -0.032154746 -0.0060418714 0.09165686
000070 73 0e a1 3d 11 ec 60 3e 22 ed ac 3e 32 44 6a be
       0.07864084 0.21965052 0.33774668 -0.22877577
000080 6c 1b 0a be a7 1e 1d bc 00 1b d9 3e 18 f4 f7 3c
       -0.13487023 -0.009589828 0.42403412 0.03026776
000090 f4 bb a2 bd 88 be 23 3e da 13 90 be 12 af 88 3e
       -0.079460055 0.1599065 -0.28140146 0.26696068
0000a0 4c f4 bc 3e 5c a5 5a 3e ae 45 1e be 6c 91 a1 3e
       0.36905134 0.21352142 -0.15456268 0.3155626
0000b0 f5 3c cb bd f0 3b f7 bd d2 1f 7a be b3 c3 96 be
       -0.09923736 -0.12071979 -0.24426201 -0.29446182
0000c0 3a b8 d8 3e bd a3 16 3e e9 7c d0 3e 1b 0a 8e bd
       0.42328054 0.14710899 0.407203 -0.06935521
0000d0 16 16 34 be e9 12 63 be 19 0a 47 be 06 4a 7f 3e
       -0.1758655 -0.22175182 -0.19437446 0.24930581
0000e0 a5 aa ab be a0 05 00 be aa 1e 38 3e ab 23 63 3e
       -0.3352863 -0.12502146 0.17980447 0.22181575
0000f0 34 fb 36 3d 14 ae af be 3b 22 89 be 5b fa c3 3e
       0.04467316 -0.343125 -0.26783928 0.38276944

feature_exact.m_encoder.linears.1.bias f4 [8]
000000 06 bf 1f 3e 68 96 7b 3c aa 4d 71 be 35 4f d5 bd
       0.15600213 0.015355684 -0.23564783 -0.10415498
000010 10 89 7e bd 3a 93 52 be 5e 78 11 3e 13 7d 55 3e
       -0.06214243 -0.20563975 0.14206073 0.20848493

feature_exact.m_encoder.linears.2.weight f4 [8, 8]
000000 dc aa ec 3d 7d 73 61 3e 08 ab 3e 3c fc 9c 5d 3e
       0.11556026 0.22016712 0.011637457 0.21641916
000010 bc f3 6b 3d 59 96 d9 be 6b e0 9c bd 45 04 91 be
       0.05760549 -0.4249752 -0.07659992 -0.2832357
000020 94 58 28 3e f1 25 14 bd 58 82 f8 be e1 a1 36 3d
       0.1644004 -0.036168996 -0.48536944 0.044587974
000030 1a 11 d3 3e 46 21 b8 bd 74 51 64 3c 59 20 8d 3e
       0.41223985 -0.089907214 0.013935436 0.27563742
000040 c9 5b ac be 09 97 ae bd c8 a8 05 be f5 d0 c5 3d
       -0.33663777 -0.085249014 -0.13052666 0.09658996
000050 cb 1f 9a 3e 50 8f 5f 3e 39 09 38 be 3e bc 7f 3e
       0.3010238 0.21832013 -0.17972268 0.24974152
000060 c5 9a 12 bd 0a 58 83 3e 9d fb 30 3e 36 6f 09 bd
       -0.03579213 0.25653106 0.17283483 -0.033553325
000070 f9 0b 2a bd f4 de 03 3c ef c2 bb 3c 4e 57 3a be
       -0.041515324 0.008048762 0.0229201 -0.18197367
000080 71 6d 53 bd b9 bf 9f 3c 83 24 76 be 6d 0a 6b 3e
       -0.051618043 0.0195006 -0.24037366 0.22953196
000090 e5 9a eb bb 0f f3 95 bd 5f d5 cf bd 18 2c a5 3e
       -0.0071900957 -0.073217504 -0.10148119 0.32260203
0000a0 e2 e4 aa be 9f a1 86 be f8 0c df 3d aa db bb be
       -0.3337775 -0.26295182 0.108911455 -0.36691028
0000b0 d3 8f 6e be f3 1d 32 be 9e 00 c8 be ae 53 40 3c
       -0.23297052 -0.17394237 -0.3906297 0.011738701
0000c0 02 93 20 3e 13 7b 58 be 95 15 69 3e d7 2f d1 bd
       0.15681079 -0.21140699 0.22762139 -0.10214203
0000d0 bd b5 cb be 90 9d 77 3e ce 62 bc 3d 72 6e 50 3d
       -0.39787093 0.24181199 0.09198533 0.05088658
0000e0 76 18 81 3d 51 95 76 be d2 95 9e 3e 5f 2b 30 3e
       0.06303494 -0.24080397 0.3097368 0.17204045
0000f0 fe fe e3 3d f6 1b b8 bd 34 14 7e 3d 20 59 b2 be
       0.1113262 -0.08989708 0.062030986 -0.34833622

feature_exact.m_encoder.linears.2.bias f4 [8]
000000 a3 d3 cd bd 21 df da bd d3 78 e2 bd 4a f0 a1 bc
       -0.10050132 -0.1068709 -0.11058202 -0.019767899
000010 3c ce fd bd fb e0 8d 3e cb c3 92 3e 83 06 f5 bd
       -0.12392852 0.2771071 0.28665003 -0.11964133

feature_exact.j_ln.weight f4 [8]
000000 e8 fa 85 3f 4e f5 83 3f 9b 0f 95 3f 24 c4 a3 3f
       1.0467196 1.0309236 1.1645387 1.2794232
000010 13 1c 81 3f 37 3a 7c 3f cf fd 88 3f a7 72 86 3f
       1.0086693 0.9852633 1.0702456 1.0503739

feature_exact.j_ln.bias f4 [8]
000000 05 69 93 3c 6f c4 1b 3c ff 40 c3 bc 28 c0 1b 3d
       0.017994413 0.009507283 -0.023834703 0.03802505
000010 e0 da 64 bc 47 de 69 3d c7 89 c2 3c 81 27 cf 3b
       -0.0139681995 0.057096746 0.023747338 0.006321848

feature_exact.m_ln.weight f4 [8]
000000 8e e3 75 3f c3 2d 87 3f 3c ed 7c 3f 74 4d 76 3f
       0.96050346 1.056084 0.9879949 0.96211934
000010 c0 6c 7f 3f c5 dd 85 3f f6 fc 7a 3f 18 d0 86 3f
       0.99775314 1.0458304 0.9804224 1.0532255

feature_exact.m_ln.bias f4 [8]
000000 c9 6e 97 3b 99 b1 e0 3c a8 0a 85 3b 9b 9b f8 3a
       0.004621361 0.027428435 0.004060108 0.0018967272
000010 18 d5 27 3d 7d c6 28 3d 72 61 ec bb 8c 04 98 bc
       0.040974706 0.04120492 -0.007213765 -0.018556856

actor.linears.0.weight f4 [64, 40]
000000 6c 7c 45 3a e1 9f 36 3e 3e b0 9d bc aa 13 26 bd
       0.0007533494 0.17834426 -0.019249078 -0.040546097
000010 a2 b5 86 3d ce d4 d2 3d 5f a8 3d be 2d 54 b1 bd
       0.065776125 0.102944955 -0.1852126 -0.086586334
000020 48 db 02 bc fd 70 91 3c c8 d5 04 be ef 0e fc 3d
       -0.007986851 0.017754072 -0.12972176 0.12307536
000030 8c a1 cb 3d 53 67 e3 bd ed ca 2f 3d 98 4d 3e 3d
       0.09942922 -0.11103692 0.042918134 0.046460718
000040 21 c5 18 be ac 01 01 be 41 f8 8e 3d 01 df 05 bd
       -0.14918949 -0.12598294 0.069809444 -0.032683376
000050 c7 66 de bd de 30 d7 3d a1 3a 9f 3d e9 89 ca 3d
       -0.10859447 0.105073676 0.077748545 0.098895855
000060 6b 30 01 be f0 b6 84 3c a9 cf 1e bd d3 8f 4d be
       -0.12616126 0.016200513 -0.03877226 -0.20074396
000070 24 0d 2c 3e e4 8f 99 bd 33 39 9c bd 59 05 8d 3d
       0.16801888 -0.07498148 -0.076280974 0.068857856
000080 84 cf 5e 3c 40 1f 63 be 55 bc 05 be 5e 4e f9 bd
       0.01359928 -0.2217989 -0.13060124 -0.121731505
000090 03 49 f2 3b ef 61 b9 3d 1d aa c4 bd b0 7a e4 3d
       0.0073939576 0.090518825 -0.09602759 0.11156213
0000a0 1c a0 21 bd 7c f7 14 3d 2d 12 fd 3d 1d a9 2e 3c
       -0.039459333 0.036368832 0.123569824 0.010660437
0000b0 87 83 e9 3d cc 4f 04 3e 0b b7 be 3b 18 74 85 bd
       0.1140204 0.12921065 0.0058201603 -0.06516284
0000c0 c6 e9 fe 3c 7a db 00 bd aa 4e a5 3d 66 c1 ae 3d
       0.031117331 -0.03145931 0.080716446 0.085329816
0000d0 48 3a ab bd 75 36 7d ba f9 d9 6e bd de 57 f6 bc
       -0.08360726 -0.0009659299 -0.058313344 -0.030071195
0000e0 c3 c3 e5 3d ed 0e 3c 3d 95 c7 8b 3e 94 29 a5 be
       0.11218979 0.04591267 0.27300707 -0.32258284
0000f0 87 e9 41 bc 0b e8 ff 3d f3 3b 8e bd 75 fc c4 3d
       -0.011835462 0.124954306 -0.06945028 0.09618465
000100 1f 51 d0 3d 41 2e bb bd 57 91 f7 bd ec 54 18 bd
       0.101717226 -0.091396816 -0.12088268 -0.037190363
000110 77 be 97 bd 74 07 03 be b1 c2 cf bd eb a2 0c 3d
       -0.07409375 -0.12795812 -0.10144556 0.03433506
000120 ba 10 36 be 32 13 a8 be 80 d0 17 be 82 df 42 bd
       -0.17779818 -0.32827145 -0.1482563 -0.047576435
000130 9c 2f 66 be b3 46 c3 bd ec da 2a bd fe 47 1e 3d
       -0.22479099 -0.09534969 -0.041712686 0.038642876
000140 ca 6b 5c bd d3 ea 34 3c bd 51 92 3d 68 b6 f1 3d
       -0.053813733 0.011042315 0.071444966 0.11802369
000150 91 fb 3b 3c b7 63 3b bd 03 d4 06 bd b4 60 3d 3e
       0.011473552 -0.045749392 -0.032917034 0.1849392
000160 25 79 11 be 05 58 25 be c1 23 07 3e cb 6b 27 3e
       -0.14206369 -0.16146858 0.13197233 0.16349714
000170 49 6b 1a bd ee 1b fb 3b de 55 d5 bd 1e 51 08 3e
       -0.03769997 0.0076632416 -0.104167685 0.13312194
000180 92 5a dd bd f9 c0 49 be 67 00 39 be 27 81 84 3e
       -0.108082905 -0.1970252 -0.1806656 0.25879785
000190 60 54 7d bc 92 77 b8 3c c6 51 88 3d be 20 fe bc
       -0.015462011 0.022517953 0.06656222 -0.031021472
0001a0 fb 4e 23 be 07 52 37 bd 06 4c d8 3d 8f 94 a1 bc
       -0.15948097 -0.04475596 0.10561375 -0.019724159
0001b0 51 85 ba bd 39 aa 51 3e 1b 7b 55 3d db f8 32 3e
       -0.09107459 0.20475091 0.052119356 0.17477743
0001c0 1c 42 1c bd c7 49 07 3e e5 85 37 3e 1f 71 a6 3d
       -0.038148984 0.13211738 0.1792217 0.08127045
0001d0 bf e5 cf 3d 70 58 ff 3d 62 d8 36 be 41 66 01 be
       0.101512425 0.1246804 -0.17855981 -0.12636663
0001e0 7e fe 90 3c aa 0a e8 ba 61 28 19 3e 49 7f 86 bd
       0.017699476 -0.0017703373 0.1495681 -0.065672465
0001f0 21 6b 1b 3c b4 d3 91 3d 29 e2 62 bd 66 b9 5b bd
       0.009485991 0.07120457 -0.055391464 -0.053643607
000200 ca e2 90 3c 90 01 96 3d 24 10 d8 3d b9 75 36 3c
       0.017686266 0.07324517 0.105499536 0.011136466
000210 f0 98 0f be ab 44 c2 3c e2 c4 37 ba d3 48 ca 3d
       -0.14023185 0.023714384 -0.0007010234 0.09877171
000220 2d 6f 82 3d eb d9 51 be 04 d6 cb be e3 0f 80 3c
       0.06368861 -0.20493285 -0.39811718 0.015632575
000230 6e f8 6f bd a9 be 92 bd dd e3 ec bd 90 eb 08 bc
       -0.05858653 -0.07165272 -0.11566899 -0.008356944
000240 ba 5a 19 bd 6e d1 4c 3e 04 53 0d 3e a8 ad 53 3d
       -0.03744004 0.20001766 0.13801199 0.051679283
000250 38 6e 99 3d ab 5e f3 3a 0d 5f 9a bd 6d e5 e7 3d
       0.07491726 0.0018567642 -0.07537661 0.11323056
000260 8b 78 1e 3e 57 8d d8 3d b9 3f 08 3d e2 22 a9 bd
       0.15475671 0.105738334 0.033263896 -0.082586065
000270 a7 3b 06 be 9e a8 34 3e 70 e6 18 3d 3a f2 9e 3e
       -0.13108693 0.17642447 0.037329137 0.3104418
000280 01 e3 a0 3b 60 1f 42 3d ce 00 2e bd 92 97 37 3e
       0.0049098735 0.047393203 -0.042481236 0.17928913
000290 64 32 17 bc 00 f5 68 bd 84 46 32 bd be 57 1e 3d
       -0.009228323 -0.056874275 -0.04352428 0.038657896
0002a0 f7 50 09 3e 6f 69 15 be b0 b8 85 bd 2e 78 ed 3d
       0.13409792 -0.14591001 -0.06529367 0.11595188
0002b0 44 b5 24 3d 45 c4 87 bd f6 e7 91 bd 0c 37 cd 3c
       0.04021193 -0.06629232 -0.07124321 0.025050662
0002c0 34 6f 2a bd ff e3 81 3b 73 e6 e0 bd 2c c6 09 3e
       -0.041609958 0.003963947 -0.10981455 0.13454503
0002d0 8c f0 a0 3d b9 a6 b0 bb f7 ac 68 3d 45 07 70 bc
       0.07858381 -0.0053909686 0.056805577 -0.014650171
0002e0 8f 04 77 bd f8 75 56 be 27 61 bb 3c 1c a9 13 3e
       -0.06030708 -0.20943439 0.022873474 0.14419979
0002f0 77 39 2c be 3a 49 a8 bc cf b5 22 3d e9 50 21 be
       -0.16818796 -0.02054273 0.039724167 -0.15753521
000300 32 79 32 3e 89 54 83 3e 6f 99 32 bd 33 64 34 3d
       0.17429045 0.25650433 -0.043603357 0.04404087
000310 6d 46 5e 3e 17 9a 51 3e 15 95 eb 3c 4d 62 08 be
       0.21706553 0.20468937 0.028757611 -0.13318749
000320 57 f2 b4 3c e0 0b 91 bc 29 c9 42 be 24 8f 44 3c
       0.022088213 -0.017705858 -0.19022049 0.011997018
000330 d3 6c de 3d 59 ee d1 3c e2 69 45 3e 29 ec ca bc
       0.108606 0.025626348 0.19278672 -0.024770813
000340 06 ca 3a bd 37 48 22 3e 9a 4b 7c 3d 95 43 83 bd
       -0.04560282 0.1584786 0.061595537 -0.064093746
000350 7c 68 ac 3d 5b e1 50 bd 43 27 32 bd ab 99 24 3d
       0.08418366 -0.050996166 -0.043494474 0.04018561
000360 ef 45 dc 3d d2 b6 f0 bd d0 20 8b be 69 9c 58 3e
       0.10755526 -0.1175362 -0.2717347 0.21153416
000370 f5 ea 2c be ac d7 be bc b7 a7 34 3b ad 10 49 bd
       -0.16886504 -0.0232962 0.0027565786 -0.04908817
000380 93 68 e0 3c b2 e3 f0 bc 16 71 a0 3d 32 9e dd bd
       0.027393615 -0.029405449 0.078340694 -0.10821189
000390 67 78 21 bd 9a c1 b5 bd 6b 1a 94 3c ba 99 fd bd
       -0.039421465 -0.08874817 0.018079003 -0.12382837
0003a0 ef d4 8d 3d 72 bd ab 3e 91 72 2c 3e 64 32 de 3d
       0.069253795 0.33542973 0.16840579 0.10849455
0003b0 4e 29 33 3e 1c 72 51 3e de 65 0c be 55 e9 05 be
       0.17496225 0.20453686 -0.13710734 -0.1307729
0003c0 a3 b5 e0 bd df 55 94 3d 9e 85 8d bd 7c 91 eb bd
       -0.109721445 0.07242941 -0.06910251 -0.11502358
0003d0 a4 88 4f 3d 4f ce d5 3d ae 63 f5 3c ba c6 02 3e
       0.05066742 0.10439741 0.029954758 0.1277112
0003e0 87 fc 56 ba 0c b9 0d be de 09 b3 3c 2a 55 88 3b
       -0.00082010817 -0.13840121 0.021855291 0.004160543
0003f0 67 8e 9f bd 6a b4 f4 bc 40 84 17 be 26 a3 f0 bd
       -0.07790833 -0.029871184 -0.14796543 -0.11749868

actor.linears.0.bias f4 [64]
000000 88 de dd ba 61 c7 a0 3d 02 ab 17 3d 9f b3 de bd
       -0.0016927281 0.078505285 0.03702832 -0.10874104
000010 c9 02 94 3d 84 13 ab 3c ca b9 9f bd 1b 3d 65 bd
       0.07227094 0.02088333 -0.07799108 -0.055966478
000020 eb d2 2b be 11 69 ac bd 10 62 8b 3d 75 16 d4 bd
       -0.16779678 -0.08418477 0.06805813 -0.10355846
000030 a2 52 35 3d 5f 62 de bd 6f c6 1a 3d c5 4a 05 be
       0.044268258 -0.108586065 0.037786897 -0.13016804
000040 a0 b6 16 3e 11 02 42 be ab 88 3b bd 7d 35 9a bd
       0.14718103 -0.18946101 -0.045784634 -0.07529733
000050 dd 5f 0a 3d 2d a6 b9 ba 5d 1d 05 3e 40 04 9d bd
       0.03378283 -0.0014163904 0.12999482 -0.07666826
000060 89 79 59 3e 25 89 eb bb cb 95 d6 bd 8d e9 1e 3d
       0.21237768 -0.0071879798 -0.104777895 0.03879695
000070 e7 f8 5d be cd e6 99 3d 3f 34 23 3e 2f d9 02 3e
       -0.2167698 0.07514725 0.15937899 0.12778161
000080 dd ec e6 bb ae 72 1f bd ab f0 c6 bd 42 3e 0a bd
       -0.0070472793 -0.038927726 -0.097138725 -0.03375078
000090 16 ed bb bd 21 4f bf bd 7b 06 19 be 84 d9 13 3d
       -0.0917608 -0.093412645 -0.14943878 0.03609611
0000a0 eb 3c 19 bd e7 d8 b7 3d 91 41 21 be 3d 90 e2 bb
       -0.03741161 0.08976918 -0.15747668 -0.006914167
0000b0 a5 00 ba bc 4e ce d3 3c 47 24 de 3d 88 52 d3 bd
       -0.022705385 0.02585521 0.10846763 -0.10318476
0000c0 fa c8 cf 3d 68 7d 83 bc 94 3d 23 be d2 70 81 bd
       0.10145755 -0.01605101 -0.15941459 -0.06320347
0000d0 a3 d6 f2 bd 14 87 63 bd 40 b5 df bd 24 8e 5a bd
       -0.11857345 -0.055548742 -0.109232426 -0.053358212
0000e0 fe 44 10 3d 85 12 0e bd 7e 90 ff 3d 52 a3 9d bb
       0.035222046 -0.03468563 0.124787316 -0.004810729
0000f0 97 a9 d6 3d 2d a2 9c bd b5 df 37 be 18 fe 00 3e
       0.104815654 -0.0764812 -0.17956431 0.12596929

actor.linears.1.weight f4 [64, 64]
000000 5e bf b2 bd a1 f9 e4 3c fc 80 43 3e 60 9a 02 3d
       -0.08727907 0.027951064 0.19092172 0.031885505
000010 f2 bc b4 3d 0a 69 2a 3e 6d d0 ba bd 35 5b a1 bc
       0.08825101 0.16641632 -0.09121785 -0.019696811
000020 d2 a1 0c bc a9 4e 62 bd 38 6c 1f be 6a ac 37 bd
       -0.008583503 -0.055250797 -0.15568626 -0.04484216
000030 8d aa ca 3c f1 3a 81 3d a2 fe 1f be 8f 3e 8d 3d
       0.024739528 0.0631007 -0.15624478 0.06896698
000040 fc 93 f7 3d 62 f9 8c 3d e6 d4 03 be 41 73 d2 3d
       0.12088773 0.068835035 -0.12874183 0.10275889
000050 cf 92 40 be 15 5b 67 be a5 97 8b 3d bc 33 f4 bd
       -0.18806003 -0.22593339 0.06816033 -0.1192393
000060 8d 30 86 bc 22 be 3a bd 53 62 e4 3c dc af 22 be
       -0.016380573 -0.04559148 0.027878916 -0.15887398
000070 0e 1b de bd 8a 38 d6 bd 89 1e 8b bd 6f ae 3d bd
       -0.10845004 -0.10460003 -0.067929335 -0.04630893
000080 7e 3a 05 be 7f 84 ef 3c bc 68 a9 3d 0c 03 84 3d
       -0.13010594 0.029237984 0.082719296 0.06445894
000090 fa 1a 83 bd 4c b1 bf bc 70 49 32 be a8 68 e7 bd
       -0.0640163 -0.023399971 -0.17410827 -0.112992585
0000a0 ec c4 86 bd 78 7d 96 3d 29 7a a2 bd 50 80 94 3d
       -0.065805286 0.0734815 -0.079334565 0.07251036
0000b0 71 8b ce bd e8 14 7f 3c bf 9e ff bc 0f d5 86 3c
       -0.1008519 0.015568949 -0.031203626 0.016459016
0000c0 9c 15 42 3e 57 5e f9 bc 80 c0 2e 3e f0 ad 38 3b
       0.18953556 -0.030440493 0.1706562 0.0028179847
0000d0 89 99 d2 bc b4 34 00 be 04 72 18 be f0 24 b6 3d
       -0.025707977 -0.12520105 -0.14887244 0.08893764
0000e0 5f 22 54 3e 2b 26 58 be f8 12 11 be b1 f9 3c be
       0.20716237 -0.2110831 -0.14167392 -0.18454625
0000f0 d6 3d 24 be 00 18 a9 3d be 2d 55 3d d6 08 13 bc
       -0.16039214 0.08256531 0.052045576 -0.008974275
000100 30 3f 56 3c a5 ac 53 bd 52 2b 0a 3e 2c 11 82 bd
       0.0130765885 -0.05167832 0.13493088 -0.063509315
000110 17 79 39 3d bd 64 2d 3e e8 27 5b 3e 58 64 df bd
       0.045281496 0.1693296 0.21401942 -0.10907811
000120 0d f1 95 3d 50 1c 11 bc f9 23 80 3d 5e 25 89 bd
       0.073213674 -0.008856848 0.06256861 -0.0669658
000130 36 61 ed 3d 66 22 e8 3d 18 37 10 be d3 22 d0 bd
       0.11590807 0.11334686 -0.14083517 -0.10162892
000140 59 12 04 be 3e 41 d8 3c 72 41 81 3d bd 83 70 bd
       -0.12897624 0.026398297 0.06311311 -0.058719385
000150 da 2c 67 bd 14 97 63 be 07 14 4e 3e 63 42 60 be
       -0.05643926 -0.222256 0.20124827 -0.21900325
000160 dc 48 23 3e 44 5b 4a be 6e 31 a5 bd d4 84 40 3d
       0.15945762 -0.19761378 -0.080660686 0.047001675
000170 22 ca 23 be f8 2a 7c be 72 e4 18 3d 73 8d ff 3d
       -0.15995076 -0.24625766 0.037327237 0.12478151
000180 0b be 3a 3c 77 99 be 3c 80 c8 2c 3d 45 bb fe 3c
       0.011397849 0.023266537 0.0421834 0.031095156
000190 09 57 d6 3d 9d d7 1b 3e a6 6e 0c 3d aa ad 3b bc
       0.104658194 0.15218969 0.03428521 -0.011454979
0001a0 31 e9 cb bd a6 49 99 3d 71 3f 55 bd fd 05 4e 3e
       -0.09956587 0.074847504 -0.052062456 0.20119472
0001b0 47 cc b4 bd 73 67 55 be cf ef ff 3d 04 e8 ba bb
       -0.08828025 -0.20840244 0.12496912 -0.005703928
0001c0 c2 06 f8 3d fa ed ca bb 34 7a c5 bd 9e 34 15 3e
       0.12110664 -0.00619292 -0.09642449 0.14570853
0001d0 cd c8 15 3e a5 d5 62 be 7c 22 04 be 76 56 69 3d
       0.1462738 -0.22151811 -0.1290378 0.05696722
0001e0 c7 c2 7c 3e c3 a1 1f be 42 d4 76 bb e9 e0 d5 bd
       0.24683677 -0.15589051 -0.0037663137 -0.10443289
0001f0 7f 20 ad bc f6 7f 11 3e 7b 95 1d 3e 8f f2 b1 3d
       -0.02113366 0.1420897 0.15389054 0.086888425
000200 cb 7c ea 3d c2 fd d5 bc be d0 4a 3e e4 d5 16 3e
       0.114495836 -0.026121978 0.19806191 0.1473003
000210 0f 64 0c 3e 41 d9 8f 3d a6 ce c3 3d ee ba d0 ba
       0.13710044 0.0702386 0.095608994 -0.001592485
000220 52 d9 a1 bc cc bf 07 3d 7d 65 a2 bc 75 a9 a9 3d
       -0.019756947 0.033141896 -0.019823784 0.082842745
000230 da 26 e6 bd 99 3c be 3d 18 da 49 be c8 16 0f 3d
       -0.11237879 0.09288902 -0.19712102 0.034933835
000240 da 64 16 be 83 34 f8 3d 8e af 31 3d d6 65 f6 bd
       -0.1468691 0.12119391 0.043380313 -0.120311424
000250 f0 c3 12 be 72 27 d4 bd da 14 e5 bb df 18 93 be
       -0.14332557 -0.10359086 -0.006991011 -0.28729913
000260 13 f8 c4 3d 4a c9 1b bd ad 12 0c 3c 3b 89 02 3d
       0.09617629 -0.03803376 0.0085493745 0.031869154
000270 88 5d 1c be f5 19 34 bd 50 55 e4 3c 52 ec 79 bd
       -0.15270054 -0.043970067 0.027872711 -0.06101639
000280 4c 1b 33 3d 85 6f 4e 3e a7 28 0e 3d 2c 80 09 3d
       0.043727204 0.20159729 0.034706738 0.0335695
000290 de 22 4e 3d e0 b5 13 3b 60 fe ac bc c2 82 61 be
       0.05032622 0.0022538826 -0.02111739 -0.22022536
0002a0 3f 95 fe 3b ed fb 31 3d eb d1 37 be c1 0d 2e 3e
       0.0077692564 0.043453146 -0.17951171 0.16997434
0002b0 1a 38 05 be bd 2a 6d be 5f 96 c7 3d 85 4e 92 bc
       -0.13009682 -0.23160835 0.09745478 -0.017859707
0002c0 26 5f 12 3d 7c 8a 82 3d 62 a8 5e 3c 53 d9 f2 3d
       0.035735272 0.0637407 0.01358995 0.118578576
0002d0 9e 2c 8c bc 1c d8 07 be 06 2c 1f bd 94 72 63 bd
       -0.017111119 -0.13266033 -0.038860343 -0.055529192
0002e0 cd 27 85 3e 1a 1e 52 be 7d 13 81 bd fb fe 4f be
       0.26006928 -0.20519295 -0.06302545 -0.20312111
0002f0 92 42 56 bb e2 11 62 3e fe f0 c0 3d c8 bb 77 bc
       -0.0032693488 0.22077134 0.094209656 -0.015120454
000300 3a 27 d8 bd bd a6 d3 3c a2 39 b8 be a5 de 45 3d
       -0.10554357 0.025836343 -0.3598147 0.048308033
000310 69 f7 3b bd 28 20 ab bd 30 f7 90 bd 5b 61 a9 bd
       -0.045890246 -0.08355743 -0.07078397 -0.08270522
000320 4b 4d 60 bc 88 22 0c 3e 39 81 d8 bc c2 92 76 bd
       -0.013690303 0.13685048 -0.026428806 -0.060198553
000330 45 44 00 bd 16 7a 9b bd 2c 9d 44 3e de 87 6e bd
       -0.031315107 -0.075916454 0.19200581 -0.05823504
000340 17 5d 12 bd 88 e5 83 be a0 6d 0c 3e 88 bc 26 3e
       -0.03573331 -0.25761056 0.13713694 0.16282856
000350 2e 68 63 3e 8b dc a1 3d 96 fd 60 bd 5e 7d c0 3d
       0.2220771 0.07903393 -0.05492934 0.09398912
000360 b8 a0 6b 3d 45 35 84 3e 5b 86 03 bd 58 76 7a 3e
       0.05752632 0.2582189 -0.032110553 0.24459207
000370 17 1b 7d 3c c8 9e da 3d e2 a4 82 3e 37 2f ad 3d
       0.015448353 0.10674816 0.2551642 0.08456271
000380 39 a3 4a 3d 0d 5d 5b 3c 6a 95 1c bd 05 38 59 bd
       0.049472068 0.013388884 -0.03822843 -0.05303194
000390 78 6a 74 bc 32 36 a6 3b 66 ae fe 3d 56 13 05 3d
       -0.014917962 0.0050723786 0.124356076 0.032489143
0003a0 71 c5 ad 3a 72 a4 e9 3c fb 58 67 bd 25 cd d7 bd
       0.0013257695 0.028520796 -0.056481343 -0.10537175
0003b0 2e 4c 03 3d 1d ff f0 3d eb 20 5d 3d 8d 10 56 be
       0.032055072 0.11767409 0.05398647 -0.20904751
0003c0 47 ed 03 3c e6 22 7f bd c5 03 91 3c d2 f8 15 3d
       0.008052177 -0.06228914 0.017701993 0.036614247
0003d0 2c 51 8d bd 54 3f 24 3e 39 a9 09 3d 29 26 2e 3d
       -0.06900248 0.16039783 0.03360865 0.04251686
0003e0 0e 8f 34 be 45 ea 71 3e d6 cb cc bd 8d 88 cf 3d
       -0.17632696 0.23624523 -0.09999816 0.10133467
0003f0 91 f5 3b bd 21 a5 75 3d db 2c 0d be 8b c1 83 bd
       -0.045888487 0.059971932 -0.13786642 -0.064334

actor.linears.1.bias f4 [64]
000000 dc 57 94 bc 2c 6e 5f bc e0 7b b3 3c c3 27 b4 39
       -0.0181083 -0.013637107 0.021909654 0.000343619
000010 00 fe f9 3d 1e cf 73 3d 5c 99 c9 bc 63 41 29 be
       0.1220665 0.059523694 -0.02460926 -0.1652885
000020 94 6f 30 3e 68 f8 bd 3b 2a e9 08 be 00 a0 a2 3d
       0.17230064 0.0057974346 -0.13370195 0.07940674
000030 09 08 a5 bd 65 7c 80 bd 74 e3 ca bd b6 8d 15 3d
       -0.08058173 -0.062737264 -0.099066645 0.0365121
000040 83 f3 2f 3d 44 17 a9 bd 94 27 ee 3c a5 3d bc bb
       0.04295684 -0.08256391 0.029071607 -0.0057446533
000050 48 17 c8 3d a8 f9 30 3d 15 01 0f 3e bf 76 d2 bd
       0.097700655 0.04320684 0.13965257 -0.10276555
000060 3f b6 8a bc 4b eb 08 3d 88 65 5a 3c a5 1f 79 3d
       -0.016932605 0.033427518 0.013329871 0.060821194
000070 44 e9 c3 bc 61 17 f6 3b 8b 6d 9b 3c b5 dd 6e 3c
       -0.02391494 0.007510111 0.018973133 0.014579226
000080 e0 ca 9c 3c 3e 51 88 bd 66 71 8b bd 74 79 2e 3c
       0.019139707 -0.06656121 -0.068087384 0.010649074
000090 eb df 9d bd 77 1a 25 3e 8e df 0c bd 13 d0 9a 3d
       -0.077087246 0.16123377 -0.034392886 0.07559218
0000a0 1c 1e 9b bc 41 9d c7 3b 6d 10 c0 bd e2 51 d1 b9
       -0.018935256 0.006091744 -0.09378133 -0.00039924594
0000b0 27 5e 0a 3d 1f 7a dd bb 7b f1 b9 bd d0 ab 85 bd
       0.033781197 -0.0067589427 -0.09079262 -0.06526911
0000c0 bc 52 0e bd 19 45 f3 bb 9e ee 43 3d 54 b9 b5 bd
       -0.03474687 -0.0074240086 0.047834985 -0.08873239
0000d0 4c 6e 35 3d db 84 e8 3d 10 57 8f 3d 7d 6e 90 3b
       0.04429464 0.11353465 0.06999028 0.0044077025
0000e0 ba d8 06 be db d8 21 3d 0b fc b2 3d 40 b1 98 3d
       -0.13168612 0.03951345 0.0873948 0.07455683
0000f0 62 cf b9 3d 79 d0 52 3d 92 d5 3a bc 14 d5 ed 3d
       0.09072758 0.051468346 -0.011403458 0.11612907

actor.linears.2.weight f4 [1, 64]
000000 a0 8f 54 be ac 88 72 be a2 77 66 be dc c2 96 3e
       -0.20757914 -0.23684949 -0.22506574 0.2944554
000010 cc c8 9d be 2f 4f 82 be 49 aa 82 be 6e f4 77 be
       -0.30817258 -0.25451037 -0.25520542 -0.24214336
000020 cd 0f 5f 3e 84 51 9c 3e 7b b8 a0 be 91 c3 bb be
       0.21783371 0.3053094 -0.31390747 -0.36672643
000030 76 f3 84 be 02 a1 69 be be 0e 46 3e 97 a3 a1 3e
       -0.25966996 -0.22815326 0.19341561 0.31570122
000040 8e 1f a3 3e bc 6e 73 3e de 31 8e 3e d6 df 90 3e
       0.31860012 0.2377271 0.2777242 0.28295773
000050 05 5b b0 3e e1 66 79 3e 15 b2 c9 3d 5e ea 7f be
       0.34444442 0.24355651 0.098484196 -0.24991748
000060 a1 d5 a2 be 2c 82 93 be d2 00 86 be 3f f3 6c be
       -0.3180361 -0.2881025 -0.261725 -0.23139666
000070 ee 55 93 3e c2 aa 9e 3e 67 ce 8d be 95 be 39 be
       0.28776497 0.30989653 -0.27696535 -0.18139108
000080 3d 35 6b be e5 c5 3a 3e 8c 21 80 be 7a 7b a1 3e
       -0.22969528 0.18239553 -0.25025594 0.31539518
000090 92 ab 87 3e c9 7b b7 3e 1a b1 d6 be ab 49 81 3e
       0.26498085 0.35836628 -0.41931993 0.25251517
0000a0 77 31 4d 3e 5c ac 8a be b3 1c 63 3e ae d3 b4 be
       0.200384 -0.27084625 0.22178917 -0.3531775
0000b0 5f 70 94 be 45 09 8a be 21 7f 8e be d5 6a 87 be
       -0.28991982 -0.26960197 -0.27831367 -0.26448694
0000c0 45 68 91 3e 3d af 97 be b8 62 58 3e 40 9f 6f 3e
       0.28399864 -0.29625884 0.21131408 0.23400593
0000d0 7c 07 9c be 2f 5d a8 3e 04 94 a8 be 50 66 87 be
       -0.3047446 0.32883593 -0.32925427 -0.26445246
0000e0 ea 8f 7b be 60 8c b6 be 91 eb 92 be cb 9f 4f 3e
       -0.24566618 -0.35653973 -0.28695348 0.202758
0000f0 a3 bc 8f 3e b1 4a 73 be b7 65 b4 be a1 3a 8d be
       0.28073606 -0.23758961 -0.35233852 -0.27583793

critic.linears.0.weight f4 [64, 16]
000000 7a 0f 6f bd 8a 53 85 bc bd 6f 90 bd 4d 26 d9 3e
       -0.05836437 -0.016275186 -0.070525624 0.42412034
000010 09 d0 42 bd a4 32 07 3e 90 2a 49 3e 34 99 d3 3d
       -0.04756168 0.13202912 0.19645143 0.103319556
000020 37 1c f2 3c 8e 7c f6 bb 42 3a d1 3c 00 d1 0a be
       0.02955447 -0.0075221723 0.025540475 -0.1355629
000030 82 0e 4f be dc a4 4e bc 0c 2d ad bd 29 2d 27 be
       -0.20220378 -0.012612548 -0.08455858 -0.16325821
000040 78 c7 26 bd 8b 3c 8a be ed 45 a4 be 0e 32 fc 3e
       -0.040717572 -0.26999316 -0.320846 0.4925694
000050 e9 17 24 be 86 09 41 be d3 2a 56 bc 05 e6 9e bd
       -0.16024746 -0.18851289 -0.0130717335 -0.077587165
000060 c4 63 e9 3d a1 f8 1a bd 0e 24 20 3e b8 a6 54 be
       0.11395982 -0.037834767 0.15638754 -0.20766723
000070 39 1f 17 bd e5 4e 4a be 46 4a 28 3e a2 8e dd 3c
       -0.03689501 -0.19756658 0.16434583 0.027045552
000080 de f9 d6 3d 83 2b 5d 3d ac 2d 97 3e ee 32 a4 bd
       0.10496877 0.053996574 0.29527032 -0.080175266
000090 01 83 37 be d5 98 67 bc d6 df 3a be 07 48 4e be
       -0.17921068 -0.014135559 -0.18249449 -0.20144664
0000a0 1b 94 d7 bd 31 1d 50 bc bc 58 86 3c 6e 88 20 3d
       -0.10526296 -0.012702272 0.016399734 0.03919261
0000b0 71 22 78 bd 3c 21 23 3e 7d f7 a3 bd 6b e2 e0 3d
       -0.06057972 0.15930647 -0.08006189 0.10980686
0000c0 37 fa 15 be 91 08 db 3d 2a 14 02 3f 14 0b ad be
       -0.1464623 0.10694993 0.5081202 -0.33797514
0000d0 87 8f ed bd b6 e7 9d 3d b6 0a 96 3d 2e c6 67 be
       -0.11599641 0.07710211 0.07326262 -0.22634193
0000e0 34 5d 3f be e7 1f d9 bd 4e 70 01 3d ce 1a 32 3e
       -0.18687898 -0.10601788 0.031601243 0.17393038
0000f0 5f be a0 3d 81 aa b8 bc d8 aa 40 be c6 88 a7 3c
       0.078488104 -0.02254224 -0.18815172 0.02045096
000100 47 87 c3 bd 04 a2 48 be da 63 69 3e d4 2e d7 3c
       -0.095472865 -0.19593054 0.22791997 0.026267447
000110 ed 4e 88 3d 73 e1 65 bd 62 75 0c 3e 6e 49 83 be
       0.06655679 -0.05612321 0.13716653 -0.2564196
000120 a0 8c 6c 3d 34 ad 61 be c3 38 47 3e 1e b0 5e be
       0.057751298 -0.22038728 0.19455247 -0.21746871
000130 48 66 5a 3e d3 0c 49 3d 3b 03 32 bd d1 d7 9f 3e
       0.2132808 0.049084496 -0.043460112 0.31219342
000140 c5 31 e5 3b cf 0e 40 3e e2 e8 df bd 9f c4 c6 be
       0.0069944584 0.18755649 -0.10933091 -0.38821885
000150 ea f3 1c be 1b c3 4e be dc 85 77 be 4c 31 03 be
       -0.15327421 -0.20191614 -0.24172157 -0.12811774
000160 1b c4 22 3e 31 2f 85 bd 6d a8 02 be 4e bd 4f be
       0.15895121 -0.06503142 -0.12759562 -0.20287058
000170 f9 a3 35 bd 09 53 af bd 91 62 80 bd e7 60 b4 bc
       -0.04434583 -0.085607596 -0.062688 -0.022018863
000180 b5 15 19 be 36 81 61 3e db 5e c2 be 8a c7 63 3d
       -0.14949687 0.22021946 -0.37962994 0.055610217
000190 2b f0 77 be 70 ac 95 bd 8d 97 83 be 74 55 2c be
       -0.2421271 -0.073082805 -0.25701562 -0.16829473
0001a0 aa 80 f9 3d c9 cc cc bd 70 ae de 3b cf 1d c9 bd
       0.12182744 -0.09999997 0.006795697 -0.09820139
0001b0 5e 5d 4b be 93 7e 11 3e 9b c8 c6 3d e2 3e 8f 3c
       -0.19859836 0.1420844 0.09706231 0.01748604
0001c0 7c b0 51 3e 9d 30 4b bc c9 be ab 3e ca b1 81 be
       0.2047748 -0.012401727 0.33543995 -0.25330955
0001d0 06 e1 17 3e a4 76 11 3d 6f 37 89 be fa eb dc bd
       0.14831933 0.035513535 -0.26800105 -0.107871965
0001e0 5d 50 49 3e f9 19 01 be be de 34 3e 69 73 7c be
       0.19659562 -0.12607564 0.17663094 -0.246534
0001f0 68 94 24 be de 38 e0 3d fd 8b cb 3d 3c 0b 77 be
       -0.16072237 0.109483466 0.0993881 -0.2412538
000200 a8 8f 1b 3c f9 c8 fa 3d eb 77 ca 3c f5 19 bc be
       0.0094947 0.12245364 0.024715384 -0.36738554
000210 a2 ab 2c 3e 49 31 1d 3e fe d0 60 3e 52 1c 08 3e
       0.16862348 0.15350832 0.21954724 0.13292053
000220 c8 49 73 3e 1f 9e 86 be e3 41 ed bc 2c ea cc 3d
       0.23758614 -0.26292512 -0.028962081 0.10005602
000230 a1 0c f7 bd a3 8f 04 be 11 ce ef bc fc 7a e7 bc
       -0.12062956 -0.12945418 -0.029273065 -0.028256886
000240 cd 5f 1e 3e 34 e8 67 bd 7b 3f b6 3d 1f 7a 8d bd
       0.15466233 -0.05661793 0.08898827 -0.069080584
000250 fa 32 48 bd 81 88 17 3e 62 f7 53 3e 03 47 54 be
       -0.04887674 0.14798166 0.20699838 -0.20730214
000260 af 73 38 3e e1 b2 26 3d 06 c0 34 3e b3 17 b1 3d
       0.1801288 0.040697936 0.17651376 0.086470984
000270 5d ff 34 bc 4e 0a 58 3e cc ca cc bd e7 96 b9 3d
       -0.0110472115 0.21097681 -0.09999618 0.090619855
000280 ae 90 5c be 37 53 4a bd 65 83 72 bd 69 b5 eb bd
       -0.21539566 -0.049395766 -0.05920734 -0.115092106
000290 54 d1 3d 3c 87 c3 49 3e 8f bc ab 3a 1f d2 a0 bc
       0.011585552 0.19703494 0.001310246 -0.019631444
0002a0 36 94 93 3d e9 42 0e 3e eb d1 6f be ff a4 29 be
       0.07206003 0.13892712 -0.23419921 -0.16566847
0002b0 5f 4e a5 3d d0 ca 44 be e1 d0 21 3e 89 58 0c 3e
       0.08071589 -0.19217992 0.15802337 0.13705648
0002c0 e6 e5 60 be d3 1e e5 3b a1 16 93 3e ed f8 73 3e
       -0.219627 0.0069922 0.28728202 0.23825426
0002d0 28 17 e9 bc ff f4 07 be 52 ea 10 be bd 58 0f 3e
       -0.028453425 -0.13277052 -0.14151886 0.13998695
0002e0 57 f5 96 3c 50 36 fc 3d e5 b3 d4 bc 55 f1 0e bd
       0.018427534 0.12315047 -0.025964687 -0.03489812
0002f0 24 50 c0 3d 59 16 26 be 82 5b 86 be 08 74 9c be
       0.093902856 -0.16219462 -0.2624169 -0.30557275
000300 62 68 b7 3c a8 47 29 be 8b 99 07 be 9b 9e 53 3e
       0.02238864 -0.16531241 -0.13242166 0.20665972
000310 02 d4 d6 bd 4d f8 18 be 9d db 32 3c b5 5f 26 3e
       -0.10489656 -0.14938469 0.010916618 0.16247447
000320 83 14 f7 3d 2d 8b a3 bc 54 8d 63 3d c4 32 b1 bd
       0.12064459 -0.019963825 0.055554703 -0.08652261
000330 f2 73 0e 3e 77 9a 21 be c2 0b eb bc d8 ef 7e 3e
       0.13911417 -0.1578158 -0.02869213 0.2489618
000340 26 2b 21 3d 99 d3 03 3e 8b 4a 8e 3e c6 b9 70 be
       0.03934779 0.12873687 0.27791247 -0.23508367
000350 f6 66 79 3d 8d 61 86 3d 7e ac fa 3d a2 45 4c 3e
       0.060889207 0.06561575 0.122399315 0.19948438
000360 1b 9a 59 3e ae 49 91 3e c7 25 0c be aa 62 dc 3d
       0.21250193 0.28376526 -0.13686286 0.10761006
000370 09 20 0c be f1 6b 7c bd 7d 81 4c be 0e d3 8a be
       -0.13684095 -0.06162638 -0.19971271 -0.27114147
000380 d4 eb 97 be ba 19 81 be 23 50 b9 3e db be 18 be
       -0.2967211 -0.2521494 0.36193952 -0.14916556
000390 04 b1 72 3e 84 ba 09 3e 0a cb d0 bd 4d 5e 4d 3e
       0.23700339 0.13450056 -0.10194977 0.20055504
0003a0 1d 5b b2 bd 51 44 2c 3e 6e b4 d6 bd ad 80 a7 3d
       -0.08708785 0.16822936 -0.10483633 0.0817884
0003b0 5a d6 7c 3e e5 db 94 bd 32 c1 92 bd 89 8e cc bc
       0.24691144 -0.07268504 -0.07165755 -0.02497031
0003c0 7b 18 5d 3e a4 a4 24 3e c9 af 2e be 34 2a 1f be
       0.2159137 0.1607843 -0.17059244 -0.15543443
0003d0 d5 40 38 be 91 7b db 3d 0c ef 1e 3e df c7 59 be
       -0.17993481 0.10716928 0.15520877 -0.21267651
0003e0 20 20 37 3b b0 bc 51 be ca d4 06 3e 6a 61 f3 bc
       0.0027942732 -0.20482135 0.1316711 -0.029709537
0003f0 b4 32 37 3e 56 72 4a 3a 4b c9 ae bd ad 24 5b be
       0.17890435 0.0007722726 -0.08534487 -0.2140071

critic.linears.0.bias f4 [64]
000000 1c aa 50 bc d5 d0 ae bd 7d 71 43 3e 19 e9 23 3e
       -0.01273587 -0.08535925 0.19086261 0.16006888
000010 00 9e 1a be 67 35 0b bc a9 01 d1 3d 9f 0b e1 3d
       -0.15099335 -0.008496619 0.10205395 0.10988545
000020 da 89 7c 3e 1e cb 7d bd 62 94 01 be 8b 1a 26 be
       0.24661961 -0.061961286 -0.1265426 -0.16221063
000030 51 90 2e 3e be f9 f2 bb 24 d0 8d bc 03 f9 75 3d
       0.1704724 -0.0074150255 -0.017311163 0.06005193
000040 85 64 ce bc 31 d5 dd 3c 4f bf 29 bd b5 d1 04 be
       -0.025194416 0.027079197 -0.04144221 -0.12970622
000050 d7 cb d9 3d 37 5f 2c 3e 66 a2 2a be b1 1c 76 be
       0.106345825 0.16833197 -0.16663513 -0.24034382
000060 d8 f3 88 3d 4d f4 91 3c 35 ea 84 be 82 96 9d b8
       0.066871345 0.017816687 -0.25959936 -7.514378e-05
000070 6a 6f 1c be bd 48 b8 3d f2 61 cc bd 1d d0 c9 3d
       -0.15276876 0.08998249 -0.09979619 0.098541476
000080 35 31 d2 3b d6 93 60 be 23 30 57 be 5b 0d 19 bc
       0.0064145573 -0.21931395 -0.21014456 -0.009341563
000090 a9 e3 25 bc 7c 5a 4a bd 0e cb 01 3e 4d c1 55 be
       -0.010125079 -0.0494027 0.12675115 -0.2087452
0000a0 55 3b 10 3e a6 83 e7 3d 4d a8 85 3c e9 ff 03 be
       0.14085133 0.11304407 0.016315604 -0.1289059
0000b0 70 b5 cf 3d 06 7e 67 be 55 3e 09 be 1a f7 a7 bd
       0.10142028 -0.22606668 -0.13402684 -0.08201428
0000c0 d4 2e 58 3d f4 a7 c4 3d 4e dc 37 3e d3 d5 31 3c
       0.052779034 0.09602347 0.17955133 0.010854202
0000d0 b6 0e 86 bc 47 e6 50 3c 9c b8 43 be 48 66 0a 3e
       -0.016364437 0.012750215 -0.19113392 0.1351558
0000e0 2e a6 12 3e db 45 5f 3e ed 06 22 3d c0 f3 47 3e
       0.14321205 0.21803991 0.039557386 0.19526577
0000f0 61 0d 49 3e 18 1a 8f bd 78 83 d8 bd 18 8c 63 bd
       0.1963401 -0.06987399 -0.10571951 -0.055553526

critic.linears.1.weight f4 [64, 64]
000000 30 fe c9 be cf a4 12 be 29 2e cd 3d fd c1 c7 bc
       -0.39451742 -0.14320682 0.1001857 -0.024384493
000010 d1 78 45 bd 96 e8 12 3e a3 46 99 3c cd c3 b1 3d
       -0.048210923 0.14346537 0.01871044 0.08679924
000020 23 a0 65 3d 8c d2 04 be 05 ed ba bd 9c f0 a9 3d
       0.05606092 -0.12970942 -0.09127239 0.08297846
000030 56 b7 39 bc be 57 37 3e 25 72 d7 bd 6d dd 88 bc
       -0.011335215 0.17904565 -0.10519818 -0.016707147
000040 59 cb 0a 3d 27 a8 7a 3c b5 b5 f5 ba 1e 2e 90 be
       0.033885334 0.01529888 -0.001874617 -0.28160185
000050 4e c1 cd bd 09 00 28 be f7 99 5f bd 22 1d 4c 3d
       -0.100466356 -0.16406263 -0.05459019 0.04983247
000060 5f 03 e6 bd 48 5e 09 3f 10 02 60 be a2 63 5d bd
       -0.11231112 0.53659487 -0.21875787 -0.054050095
000070 06 43 98 bd 9e 6e 86 bd 1e 0b 91 3c 43 0c 2e bd
       -0.07434659 -0.06564067 0.017705496 -0.042492162
000080 52 67 95 3d 05 97 30 3e 6a 81 2e bc 4f 40 35 be
       0.072950974 0.1724511 -0.010650972 -0.17700313
000090 bf 76 78 3d 43 50 1c be c1 72 45 3e a8 96 69 be
       0.06066012 -0.15264992 0.19282056 -0.22811377
0000a0 d1 cc 2f be 31 f8 00 3e 5d 34 6b 3d 65 77 48 bd
       -0.17167975 0.12594678 0.057422984 -0.04894199
0000b0 44 c6 e3 bd b6 e5 04 3c 23 01 64 3e 89 cb e7 3d
       -0.111218005 0.008111408 0.22266059 0.11318118
0000c0 5c b3 96 3d ba 6c a2 3e 50 e5 84 3d 3a 6e e6 3d
       0.07358429 0.31723577 0.064890504 0.11251493
0000d0 32 69 3a 3e 34 70 00 bd aa 21 e7 3d 5c 42 b6 3d
       0.18204191 -0.031357005 0.11285718 0.08899376
0000e0 02 24 5b be 7e 9d 89 be e1 ae 67 3d 85 a1 cd 3d
       -0.21400455 -0.2687797 0.056563262 0.10040573
0000f0 4e 55 c5 3d 33 65 9c bd 17 f5 8a be 33 ae 2d be
       0.09635411 -0.0763649 -0.27140114 -0.16960983
000100 df 79 86 bd b8 2f 85 bd f1 c9 ca 3d da 40 b5 bd
       -0.06566214 -0.06503242 0.099017985 -0.0885026
000110 06 97 89 3d 74 df 4b bd cb e7 3e bd 2f 35 d3 bc
       0.067182586 -0.04977365 -0.046607774 -0.025782196
000120 da 68 de 3d 99 e9 b0 3b c2 3c 9b 3d 31 b7 c9 3b
       0.108598426 0.0053989408 0.07579948 0.0061558713
000130 a9 6e 8b bd 92 87 ee 3d 55 8c 85 3d 2f f3 a5 3d
       -0.06808216 0.11646952 0.06520907 0.08103024
000140 1a 9d e4 bd 8c 19 3c bd 47 3b 4e be 74 e3 7d bc
       -0.11162777 -0.0459228 -0.201398 -0.015496124
000150 89 71 04 3e d4 a4 70 bd 29 06 c5 3c bd 29 ff bd
       0.12933935 -0.058750942 0.024050789 -0.12459133
000160 67 a6 ba bd fb 12 a6 3e ee 80 23 be b8 82 0c 3d
       -0.0911377 0.32436356 -0.15967152 0.03430435
000170 f8 36 d6 bd 0d 9c bc bc e8 96 68 bd 21 f6 d2 bd
       -0.10459703 -0.02302363 -0.05678454 -0.103008516
000180 5e 5f c5 3b 91 44 85 3d b9 4d 13 be 54 15 e1 bc
       0.0060233315 0.06507219 -0.14385118 -0.02747599
000190 0f 37 59 3d 4a ec 8d bd a6 6c 39 3e 1c 32 9b bd
       0.053031024 -0.06929834 0.18107852 -0.07577917
0001a0 bc 4d cd bd 21 67 ed bc 8e 76 a6 3d 68 d1 5a 3d
       -0.10024592 -0.02897984 0.08128081 0.05342236
0001b0 a3 92 f7 3d 2a 92 ee bd 72 97 ac 3c 07 c7 ac bd
       0.120885156 -0.11648972 0.021068309 -0.08436399
0001c0 5b 1f 6b 3d 67 50 0e bc 6e 53 69 bc 0e b8 c4 bd
       0.05740295 -0.008686162 -0.014241083 -0.09605418
0001d0 53 99 74 3d 2b 87 e9 3b 88 9b b4 3d 4e b6 a6 3d
       0.059716534 0.007126709 0.08818728 0.081402406
0001e0 7d c4 83 bd ba 9a 1f 3d 62 04 85 bc 18 5a 95 bd
       -0.064339615 0.038965918 -0.016237441 -0.07292575
0001f0 49 c0 37 3c f8 a6 cf bd 74 b9 0b bb e8 27 13 be
       0.011215278 -0.10139269 -0.0021320255 -0.14370692
000200 46 2f 76 be da cf e9 bd 4e 0e 06 3d 87 26 09 3e
       -0.24041471 -0.11416598 0.032728486 0.13393603
000210 57 af 42 bd 1a bf fe 3d 9b e1 d4 3d b1 c7 26 3e
       -0.0475305 0.124387935 0.10394593 0.16287114
000220 19 98 24 bd 36 a1 d5 3c ec 93 4e 3d b6 1e a0 bb
       -0.040184114 0.026077848 0.050434038 -0.0048864735
000230 84 de cf 3d 45 0e 20 bb 59 bb fa 3c 8d 25 86 3d
       0.10149863 -0.0024422568 0.030606912 0.06550131
000240 e7 bd f1 bd 1d 91 e4 3d e5 49 0b be c8 ac 85 be
       -0.11803799 0.11160491 -0.13602407 -0.26108384
000250 19 0a 65 bd ae f5 f6 bd a0 06 5a 3d 4b b8 bc bd
       -0.055917833 -0.120585784 0.053228974 -0.092148386
000260 96 68 b0 3c fa 83 bf 3e bd cd 3c be eb 97 4e be
       0.021534245 0.37405378 -0.18437858 -0.2017514
000270 f6 c0 49 3d 64 7f 9c bd 64 5e 05 be 3e 31 0f be
       0.049256288 -0.07641485 -0.13024288 -0.13983628
000280 37 87 8d bd 24 77 0c 3e 48 1d 8a bc 14 d3 d6 bd
       -0.06910556 0.13717324 -0.016859666 -0.10489479
000290 7d 78 f3 bd f7 99 37 be c8 8a 7c bb 50 f0 b1 bd
       -0.11888216 -0.17929827 -0.0038534869 -0.08688414
0002a0 52 e2 9c 3b 99 67 c5 bd 0a 79 cd bd da d5 e6 3d
       0.0047877217 -0.096389 -0.10032852 0.11271258
0002b0 a5 c7 b6 3b d9 2e e1 3b 5b fc 28 3d e7 9c b8 3c
       0.0055779987 0.0068720398 0.04125629 0.022535754
0002c0 98 6c 73 3d 73 b2 38 3e 73 dd b2 bd 75 81 39 3b
       0.059429735 0.18036823 -0.08733644 0.0028305922
0002d0 cc 29 35 3e 34 61 e0 3d 69 50 a1 bc 7d c6 b7 bd
       0.17691725 0.1095604 -0.019691663 -0.089734055
0002e0 9c 3d 02 be 3a 95 44 be 92 5a e1 3b 69 5b 94 bd
       -0.12718815 -0.1919755 0.006877252 -0.072439976
0002f0 25 78 a5 3d e4 44 d6 3c 61 79 1c bd 68 d9 49 be
       0.080795564 0.026155896 -0.038201693 -0.1971184
000300 11 7f 0c 3d de 87 ff 3c a9 75 68 bd 62 c5 33 3b
       0.034300867 0.031192716 -0.056752834 0.0027430882
000310 1a 2b 22 3d 9a a7 e4 3c d3 e0 a8 3d 49 4c 2b 3d
       0.039591886 0.02791195 0.08246007 0.041820798
000320 8d d7 2d 3e cb 29 e6 3d 5a 8e 98 bd 76 c8 98 3b
       0.16976757 0.1123844 -0.074490264 0.0046625687
000330 6f 29 b8 bd 23 92 e7 3c 41 6e ae bd f7 97 a9 bd
       -0.08992278 0.028267926 -0.08517123 -0.08280938
000340 37 14 27 be f8 24 00 be 2b 1a 5c be ea a1 3f 3d
       -0.16316305 -0.12514102 -0.21494357 0.046785273
000350 3d 8f 1b 3e a1 d6 ed 3d 60 4c c6 bd 03 a1 c1 bd
       0.1519136 0.11613203 -0.09682536 -0.09454539
000360 7f 05 d4 bd 2d c1 b8 3d 0f 73 7c bd ef 4d 8f 3d
       -0.10352611 0.0902122 -0.061633166 0.069972865
000370 e2 fe 13 be 35 2b 3c 3d 54 e5 eb 3d e4 22 b5 bc
       -0.14452699 0.045939643 0.1151835 -0.022111364
000380 0c f5 16 3e 03 5a 73 3c ab b0 66 3c d3 ac 6f 3c
       0.14741915 0.014853003 0.014080207 0.014628607
000390 ec f6 a9 bd fb b5 8d bd b5 00 2d 3d 93 e2 25 be
       -0.0829905 -0.06919476 0.042237002 -0.16199712
0003a0 f9 77 c6 bd 45 21 08 be b3 cb ab 3d 8f 70 71 3c
       -0.09690852 -0.13293941 0.08388462 0.014736309
0003b0 af c7 67 3c 05 2b 16 bd a4 98 23 3d a6 4e 92 bd
       0.014146729 -0.03666212 0.03994049 -0.07143907
0003c0 d8 dd 78 bd a4 ad e9 3b ff 0b 13 bb a5 fb 02 bd
       -0.06075844 0.0071312953 -0.002243757 -0.03197827
0003d0 12 60 46 ba ce 79 01 3d 60 bf bf 3d 0f 26 c0 3d
       -0.0007567416 0.031610303 0.09362674 0.09382259
0003e0 b0 3a 2c 3d a5 65 de 3d 0c a8 1b 3e ac 6a 13 3e
       0.042048156 0.10859231 0.15200824 0.14396161
0003f0 48 36 9d 3d d9 19 a0 3d c5 67 24 bd 08 b2 12 3d
       0.07676369 0.0781743 -0.040138025 0.035814315
