trained_network/SD2/s1_a9.pth (torch, 59851 bytes, 26 tensors)

feature_exact.j_encoder.linears.0.weight f4 [8, 14]
0.18256947 0.24194801 -0.19077909 0.29401278 -0.08021675 0.022995472 -0.08223829 0.07001713
0.20438768 0.26218602 0.10491255 0.011331957 -0.35702518 -0.26811725 0.013768755 0.14687215
0.13418014 -0.45541394 0.182889 0.09146258 0.0032132699 -0.04342066 0.079950154 -0.2688429
0.018932188 -0.13065688 0.01687299 0.09707822 -0.030160338 -0.012657443 -0.3082062 -0.027841998
-0.10064755 -0.03932191 -0.030868474 -0.12865713 0.028284745 0.029641762 0.06905021 -0.08689633
0.44886905 0.28449908 -0.14316703 0.08580018 0.24164845 -0.17416206 0.22478744 0.12687975
0.08939028 -0.038725633 -0.16977686 -0.030329602 -0.08689994 0.0031074132 -0.5708968 0.14395699
-0.18631354 -0.16149196 0.020989526 -0.22262923 0.016124126 -0.031183861 -0.3571781 -0.17121758
0.1482901 -0.037405487 0.042568505 -0.16579913 -0.2125943 0.3144454 0.07207426 -0.24011374
-0.18754168 0.20251492 0.06184653 -0.16402426 -0.2601283 0.100793555 -0.05829459 0.03997931
-0.14214173 0.1890562 0.031809222 0.07928424 -0.0026919653 0.051964816 -0.17702217 -0.17192242
0.015991265 -0.08502642 -0.2145301 0.12469821 -0.14806378 -0.012286536 -0.10919558 0.16685145
-0.15086892 -0.37714767 -0.3095021 -0.13319133 0.026927106 0.42817092 -0.32014263 0.02849889
-0.0203535 -0.17761534 0.14074154 0.15911527 0.003163681 -0.061213408 -0.4120442 -0.20506255
00000000: 7ef3 3a3e 38c1 773e 985b 43be d888 963e
00000010: ae48 a4bd 0061 bc3c 8c6c a8bd 2465 8f3d
00000020: 014b 513e 3f3d 863e 64dc d63d aca9 393c
00000030: 01cc b6be aa46 89be 5896 613c a765 163e
00000040: 8566 093e 042c e9be 4147 3b3e bc50 bb3d
00000050: b995 523b ddd9 31bd e8bc a33d c7a5 89be
00000060: ad17 9b3c ebca 05be 3a39 8a3c f2d0 c63d
00000070: d012 f7bc 2a61 4fbc 34cd 9dbe e714 e4bc
00000080: 4d20 cebd 0310 21bd e2df fcbc b2be 03be
00000090: 69b5 e73c 48d3 f23c 326a 8d3d b4f6 b1bd
000000a0: 2ad2 e53e dda9 913e 619a 12be 01b8 af3d
000000b0: b172 773e 8a57 32be ae2e 663e c4ec 013e
000000c0: 4012 b73d c59e 1ebd fcd9 2dbe c975 f8bc
000000d0: 99f8 b1bd bea5 4b3b 4b26 12bf 7669 133e
000000e0: fac8 3ebe 265e 25be 3af2 ab3c ebf8 63be
000000f0: be16 843c 4c75 ffbc 0ce0 b6be a953 2fbe
00000100: 5cd9 173e 7f36 19bd 505c 2e3d 3fc7 29be
00000110: 52b2 59be fdfe a03e ab9b 933d 60e0 75be
00000120: ed0a 40be 1260 4f3e c952 7d3d faf5 27be
00000130: 892f 85be da6c ce3d 4fc6 6ebd 58c1 233d
00000140: 9a8d 11be f397 413e 634a 023d c75f a23d
00000150: af6b 30bb 0fd9 543d 4d45 35be 6e0c 30be
00000160: 1d00 833c 5522 aebd c7ad 5bbe c661 ff3d
00000170: 089e 17be 784d 49bc efa1 dfbd 1bdb 2a3e
00000180: 627d 1abe 8019 c1be 0f77 9ebe 4f63 08be
00000190: 3c96 dc3c 3839 db3e bce9 a3be 8176 e93c
000001a0: 62bc a6bc cce0 35be 8d1e 103e 1def 223e
000001b0: c255 4f3b e9ba 7abd 75f7 d2be ebfb 51be

feature_exact.j_encoder.linears.0.bias f4 [8]
-0.11914726 0.0020609281 -0.09949762 0.009089438 -0.019343577 -0.012168665 0.21128093 -0.024288218
00000000: 7b03 f4bd a310 073b 68c5 cbbd deeb 143c
00000010: 6c76 9ebc 155f 47bc 075a 583e 16f8 c6bc

feature_exact.j_encoder.linears.1.weight f4 [8, 8]
0.020704154 -0.029185694 0.34172115 0.18417063 -0.06842828 0.4971407 -0.3092307 -0.39226228
0.45805052 -0.10837449 -0.077993825 0.35447392 -0.011236395 0.07565743 0.44958875 0.33109158
0.03961421 0.11809204 -0.22701487 -0.043038175 -0.21109127 0.054806523 -0.09365061 -0.33618486
0.27186093 0.2770322 -0.18127751 0.09240203 -0.29715905 -0.03085038 0.022377752 0.21165654
0.17161678 0.2818821 -0.17310104 0.26697 0.19103305 0.27783036 -0.07724489 -0.004253466
-0.12536244 0.12051471 -0.08157154 0.1306734 -0.26652968 -0.17631158 0.18322222 -0.49081764
-0.18990864 -0.40684316 -0.09308537 -0.05523795 0.10929451 -0.35094392 0.00842772 0.44921076
0.16254658 0.16061436 -0.092785224 -0.05280834 0.26368243 -0.004537177 -0.229788 -0.31025967
00000000: c29b a93c d616 efbc 13f6 ae3e 3a97 3c3e
00000010: 2024 8cbd 3a89 fe3e 7c53 9ebe 9ad6 c8be
00000020: 9985 ea3e 72f3 ddbd 3abb 9fbd 9b7d b53e
00000030: db18 38bc 48f2 9a3d 7f30 e63e d684 a93e
00000040: 8342 223d 3dda f13d 9676 68be cc48 30bd
00000050: 4f28 58be ce7c 603d e4cb bfbd 6c20 acbe
00000060: 5b31 8b3e 2ad7 8d3e d0a0 39be 473d bd3d
00000070: 3b25 98be f0b9 fcbc 8c51 b73c 7ebc 583e
00000080: 4fbc 2f3e da52 903e 6641 31be 4bb0 883e
00000090: 2b9e 433e c83f 8e3e 9232 9ebd a960 8bbb
000000a0: 035f 00be 6bd0 f63d fb0e a7bd 3fcf 053e
000000b0: 9476 88be 068b 34be 9b9e 3b3e 734c fbbe
000000c0: 6977 42be bf4d d0be 8ba3 bebd 3041 62bd
000000d0: cdd5 df3d ecae b3be 6b14 0a3c f4fe e53e
000000e0: 9c72 263e 1778 243e 2e06 bebd 8f4d 58bd
000000f0: 6201 873e 99ac 94bb 8c4d 6bbe 5bda 9ebe

feature_exact.j_encoder.linears.1.bias f4 [8]
-0.07778908 -0.09973321 0.3397935 -0.42617118 0.05379584 0.024322826 0.122784205 -0.31849098
00000000: e24f 9fbd ed40 ccbd 6af9 ad3e 1c33 dabe
00000010: 0759 5c3d aa40 c73c 4976 fb3d 4011 a3be

feature_exact.j_encoder.linears.2.weight f4 [8, 8]
-0.6086925 -0.050068688 -0.009631889 -0.18315311 0.11853159 -0.1805123 -0.08791908 0.21638204
0.025806492 0.12231743 0.30179462 -0.56488484 -0.035588745 0.2981705 -0.2476093 0.111047275
-0.03394651 0.15001981 -0.14702529 0.035470713 0.29703146 -0.09612357 -0.18716079 -0.05801222
0.21993352 -0.45231614 0.117969915 0.41784868 -0.3078361 0.08339018 0.3802457 -0.0147406
0.16853791 0.23864654 -0.20697297 -0.70657486 -0.08915987 -0.1791697 -0.22434233 -0.34364465
-0.11027582 0.35812977 0.066319525 0.3279025 0.050142698 -0.21886933 0.26323923 -0.3793527
0.13041326 -0.39647996 -0.1614632 -0.044170674 -0.009798215 -0.30575997 0.26917762 -0.29523343
-0.10928131 -0.08989741 0.30430838 0.37002265 0.14570019 0.2828276 -0.22829302 0.28258097
00000000: 46d3 1bbf d314 4dbd 12cf 1dbc 7d8c 3bbe
00000010: b1c0 f23d 37d8 38be eb0e b4bd 4193 5d3e
00000020: 2368 d33c 9081 fa3d d384 9a3e 4b9c 10bf
00000030: 81c5 11bd cea9 983e 4b8d 7dbe c16c e33d
00000040: 7f0b 0bbd cb9e 193e cc8d 16be bd49 113d
00000050: 8214 983e 6fdc c4bd 14a7 3fbe 399e 6dbd
00000060: 4136 613e fb95 e7be 369a f13d 43f0 d53e
00000070: b19c 9dbe 78c8 aa3d 90af c23e 8f82 71bc
00000080: 3495 2c3e c25f 743e b9f0 53be 17e2 34bf
00000090: 7399 b6bd 4378 37be ffb9 65be 31f2 afbe
000000a0: 4ad8 e1bd c95c b73e 88d2 873d d6e2 a73e
000000b0: 6e62 4d3d 481f 60be 4bc7 863e 843a c2be
000000c0: 0e8b 053e 6cff cabe 9c56 25be 4fec 34bd
000000d0: b188 20bc 928c 9cbe a6d1 893e d628 97be
000000e0: e1ce dfbd 221c b8bd 4fce 9b3e 9c73 bd3e
000000f0: 6e32 153e c7ce 903e a5c5 69be 74ae 903e

feature_exact.j_encoder.linears.2.bias f4 [8]
0.23642386 -0.026827393 -0.11382112 0.01013895 -0.24660593 -0.2123183 0.2520198 -0.3350389
00000000: 1919 723e 1fc5 dbbc 0c1b e9bd d71d 263c
00000010: 4486 7cbe f869 59be bd08 813e 388a abbe

feature_exact.m_encoder.linears.0.weight f4 [8, 8]
-0.5283046 -0.12680824 0.24452743 0.07261662 -0.048202153 0.37295866 -0.26336813 0.2850884
0.22941881 0.17026441 -0.10407741 -0.18175116 -0.23028609 -0.17185995 -0.24693413 -0.37605557
0.064299084 0.22435896 0.294384 -0.23844287 -0.4219148 -0.30056983 0.32800293 0.15201338
0.17359442 -0.18971877 0.26261237 0.33397752 0.075566635 -0.122245595 0.11860914 -0.074925356
-0.091703616 -0.48407525 -0.06043521 -0.40525272 -0.11485588 0.21383753 -0.25844446 -0.12047031
0.2496463 -0.38889927 0.0322004 0.32940325 -0.211079 -0.1548158 -0.32308835 0.11485428
-0.19366285 0.16440943 -0.19308056 -0.020973159 0.1104804 0.0900286 -0.17528075 0.04086317
0.26142937 -0.023437086 -0.123575106 -0.1600904 -0.45129806 0.22490878 -0.18338808 0.16336833
00000000: f83e 07bf 05da 01be 6665 7a3e 06b8 943d
00000010: 9f6f 45bd 70f4 be3e 30d8 86be 1bf7 913e
00000020: c4ec 6a3e cb59 2e3e 8a26 d5bd fa1c 3abe
00000030: 1ed0 6bbe 0efc 2fbe 4ddc 7cbe 5b8a c0be
00000040: 3daf 833d 5bbe 653e 80b9 963e 5e2a 74be
00000050: 3705 d8be 4ae4 99be 00f0 a73e 65a9 1b3e
00000060: bcc2 313e a345 42be 2175 863e 1aff aa3e
00000070: aec2 9a3d e65b fabd 59e9 f23d 7772 99bd
00000080: 1bcf bbbd b6d8 f7be e98a 77bd 497d cfbe
00000090: 8f39 ebbd 3af8 5a3e d552 84be 23b9 f6bd
000000a0: 48a3 7f3e ce1d c7be 91e4 033d 8ba7 a83e
000000b0: 1825 58be 0888 1ebe d66b a5be b938 eb3d
000000c0: 8e4f 46be f25a 283e e9b6 45be e7cf abbc
000000d0: 8c43 e23d ea60 b83d cc7c 33be 2460 273d
000000e0: 12da 853e 22ff bfbc f214 fdbd bdee 23be
000000f0: 8a10 e7be 7d4e 663e 16ca 3bbe 074a 273e

feature_exact.m_encoder.linears.0.bias f4 [8]
0.03672973 0.25072083 -0.37390548 0.101179875 -0.14298111 -0.16200602 0.42357168 -0.19218422
00000000: ea71 163d 7b5e 803e 8a70 bfbe 6537 cf3d
00000010: a469 12be e8e4 25be 63de d83e f1cb 44be

feature_exact.m_encoder.linears.1.weight f4 [8, 8]
0.2800735 0.0914999 0.06493324 0.22351302 0.27788705 0.49160346 0.03722739 -0.3627326
0.055241298 0.036715716 0.0734546 0.34494814 0.29709 0.11580835 -0.13618366 0.23375873
-0.0039462545 0.26603618 -0.15306395 0.31704152 0.006133154 -0.03463454 -0.27123642 -0.1367815
0.29380244 -0.021031044 0.06343704 0.07270114 0.13437489 0.27094346 0.29592022 -0.21273986
-0.12538195 -0.033798963 0.37913224 0.06876404 -0.09267562 0.1895963 -0.33291927 0.17700966
0.46456227 0.19397095 -0.1705759 0.36755112 -0.11088229 -0.10018187 -0.11653834 -0.3450709
0.4742736 0.12580436 0.362375 -0.016361965 -0.031501085 -0.14188446 -0.21392274 0.18677402
-0.32116377 -0.20427217 0.278249 0.25593328 -0.036268648 -0.28164217 -0.34800312 0.28006944
00000000: cb65 8f3e 4d64 bb3d b8fb 843d 99e0 643e
00000010: 3647 8e3e 73b3 fb3e bf7b 183d 16b8 b9be
00000020: b344 623d 3863 163d 5e6f 963d 0b9d b03e
00000030: 2e1c 983e ee2c ed3d bb73 0bbe 735e 6f3e
00000040: 954f 81bb e535 883e ccbc 1cbe 4453 a23e
00000050: a0f8 c83b f3dc 0dbd 80df 8abe 7310 0cbe
00000060: 466d 963e 4c49 acbc 47eb 813d 56e4 943d
00000070: 9299 093e 1ab9 8a3e db82 973e 7ad8 59be
00000080: 2064 00be c870 0abd 9f1d c23e 29d4 8c3d
00000090: b7cc bdbd 8825 423e 6574 aabe 0542 353e
000000a0: 1bdb ed3e 52a0 463e 73ab 2ebe a92f bc3e
000000b0: 4116 e3bd 272c cdbd a7ab eebd 22ad b0be
000000c0: fdd3 f23e dcd2 003e 3789 b93e 8709 86bc
000000d0: 4807 01bd 294a 11be 900e 5bbe b041 3f3e
000000e0: 946f a4be b92c 51be a776 8e3e b009 833e
000000f0: 6f8e 14bd 6733 90be 772d b2be 4365 8f3e

feature_exact.m_encoder.linears.1.bias f4 [8]
0.183767 0.0542319 -0.2692487 -0.069500186 -0.028671293 -0.12111686 0.16264217 0.16036059
00000000: 6b2d 3c3e 4522 5e3d f7da 89be 1d56 8ebd
00000010: 0fe0 eabc 1e0c f8bd ab8b 263e 9135 243e

feature_exact.m_encoder.linears.2.weight f4 [8, 8]
0.14677994 0.25247827 0.0664551 0.20826186 0.1229524 -0.39668268 -0.10301045 -0.2604487
0.15505718 -0.05567084 -0.4668544 0.035157062 0.48021102 -0.055371948 0.016538803 0.28588566
-0.38819 -0.109881274 -0.20155872 0.046210628 0.18822195 0.19417398 -0.24001516 0.24140531
-0.007462536 0.3027705 0.1870698 -0.043165155 -0.028290274 0.03054595 0.07488199 -0.24828847
-0.06936838 -0.036471073 -0.28092018 0.21497968 -0.036193676 -0.15349323 -0.11819391 0.2961775
-0.39594427 -0.28540653 0.08886057 -0.36078754 -0.2100182 -0.13400084 -0.37033498 -0.014564591
0.19115256 -0.16552943 0.25335586 -0.0663705 -0.38350227 0.4447809 0.08903689 0.06568671
0.076847516 -0.21677978 0.29356185 0.18022147 0.080703996 -0.12512097 0.049562942 -0.26761544
00000000: 7b4d 163e d544 813e 9d19 883d 9942 553e
00000010: 78ce fb3d fe19 cbbe 25f7 d2bd 8859 85be
00000020: 4fc7 1e3e 1b07 64bd 8a07 efbe da00 103d
00000030: 38de f53e b2cd 62bd 627c 873c 9b5f 923e
00000040: d7c0 c6be 6f09 e1bd 6965 4ebe 5b47 3d3d
00000050: 41bd 403e 8bd5 463e 89c6 75be f432 773e
00000060: 4a88 f4bb bc04 9b3e 3a8f 3f3e f2cd 30bd
00000070: 01c1 e7bc 803b fa3c bb5b 993d 553f 7ebe
00000080: 0211 8ebd b162 15bd c5d4 8fbe a223 5c3e
00000090: d23f 14bd 542d 1dbe a60f f2bd 94a4 973e
000000a0: 35b9 cabe ce20 92be 88fc b53d 25b9 b8be
000000b0: 030f 57be 8437 09be 8c9c bdbe 53a0 6ebc
000000c0: 7fbd 433e 8c80 29be dcb7 813e 42ed 87bd
000000d0: 695a c4be 52ba e33e f958 b63d c186 863d
000000e0: 3b62 9d3d 85fb 5dbe bd4d 963e fa8b 383e
000000f0: 2348 a53d b61f 00be 8302 4b3d e404 89be

feature_exact.m_encoder.linears.2.bias f4 [8]
-0.08867374 -0.09989161 -0.13810936 0.0013143257 -0.12045309 0.25454786 0.3023945 -0.122542165
00000000: 949a b5bd f993 ccbd 8a6c 0dbe 7445 ac3a
00000010: 1cb0 f6bd 1954 823e 74d3 9a3e 63f7 fabd

feature_exact.j_ln.weight f4 [8]
1.0150772 1.0402482 1.1101305 1.2468396 1.0424292 1.0626087 1.0621538 1.0279806
00000000: 0dee 813f da26 853f c218 8e3f 7198 9f3f
00000010: 526e 853f 9003 883f a8f4 873f de94 833f

feature_exact.j_ln.bias f4 [8]
0.008682171 0.01058161 -0.015689759 0.031449743 -0.006735167 0.00071443274 0.019241711 0.027433496
00000000: aa3f 0e3c 7d5e 2d3c cf87 80bc 72d1 003d
00000010: adb2 dcbb c548 3b3a cba0 9d3c 36bc e03c

feature_exact.m_ln.weight f4 [8]
0.9342216 1.0073535 0.9769296 0.96993756 0.98225445 0.93508095 0.9763707 1.0443213
00000000: 2629 6f3f f6f0 803f 0f18 7a3f d44d 783f
00000010: 0775 7b3f 7761 6f3f 6ef3 793f 52ac 853f

feature_exact.m_ln.bias f4 [8]
-0.021537604 0.024652861 0.0059836786 -0.0114827305 0.057032153 0.05037739 -0.010379528 -0.026801066
00000000: a16f b0bc ccf4 c93c bc12 c43b 1022 3cbc
00000010: 8c9a 693d 8658 4e3d e50e 2abc e98d dbbc

actor.linears.0.weight f4 [64, 40]
0.00012526839 0.2557948 -0.091055125 0.0419867 -0.06530795 0.06992936 -0.18134196 0.016910257
0.02771557 -0.005160851 -0.17217131 0.1330669 0.07563088 -0.101540565 0.10333567 0.06615496
-0.095213264 -0.123815276 -0.12331764 0.09700816 -0.1445603 0.07908284 0.11712155 0.053233095
-0.14597401 0.017792031 -0.06096925 -0.19484909 0.13344261 -0.06249348 -0.04818774 0.030195056
-0.034506097 -0.19282492 -0.1680081 -0.16353694 -0.029524451 0.04268046 -0.03258901 0.12586366
-0.043106914 0.062347606 0.07608516 0.054295234 0.13166714 0.17932418 0.0029284141 -0.067415655
0.09769156 -0.14266464 0.018577708 0.17170787 -0.16343364 0.014941163 -0.037239198 0.07603938
0.17150432 0.065869436 0.20077986 -0.2988515 -0.05258164 0.16543175 -0.046507385 0.033413928
0.080217786 -0.15944552 -0.1431695 -0.13392618 -0.09490582 -0.09180745 -0.07765788 0.07801521
-0.08502711 -0.15767945 -0.06184678 0.059367366 -0.1513963 -0.00015674728 -0.09874216 -0.024117326
0.01921335 -0.078374125 0.080479644 0.085223295 0.10620193 -0.034520872 -0.022854127 0.032029994
-0.1510623 -0.1462994 0.15041332 0.09121255 -0.0063383835 0.020339759 -0.12486683 0.13343352
-0.07004818 -0.101191066 -0.14034843 0.25919074 -0.07298953 -0.07685982 0.12512274 -0.07065341
-0.09012499 0.030242655 0.043833226 0.010936729 -0.110150695 0.123416625 0.10563367 0.13907416
-0.02761653 0.062194716 0.19044332 0.09531209 0.06620799 0.1344517 -0.24744765 -0.11212573
0.11483562 0.0068316148 0.2403161 -0.19642074 0.021600872 0.10724523 -0.08137628 -0.119133055
-0.033930838 0.009008965 0.11492825 0.07932668 -0.18092678 0.03497273 0.0021200862 0.051571015
0.020023305 -0.23464301 -0.18805258 -0.083965465 -0.013800394 -0.0010861574 -0.15290868 -0.0032482005
-0.08046351 0.1158607 0.16365547 0.052648757 0.07593066 0.054680143 -0.090354584 0.13115153
0.2002142 0.21078949 0.08771329 -0.039553132 -0.07623448 0.22597592 0.073043644 0.19844477
0.0013138424 -0.023010654 -0.004353158 0.13269807 0.10781475 -0.061773464 -0.050087765 -0.02004801
0.09988905 -0.13534372 -0.039128676 0.06569595 0.0535622 -0.047671054 -0.10909275 0.05311696
-0.05512602 0.017286196 -0.071733505 0.09975603 0.079516605 -0.03002547 0.06413186 -0.016826278
-0.08910286 -0.12332691 0.03575599 0.11914188 -0.1559493 -0.0029153174 0.038257997 -0.10845163
0.20800278 0.17109327 -0.003981405 0.07425898 0.24001725 0.23894419 -0.0033468723 -0.1813317
0.040570203 -0.092194304 -0.18529928 0.0052161026 0.20160304 0.0025833044 0.2446907 -0.13090959
-0.14216635 0.16972755 0.11374948 -0.12025734 0.100533284 0.00013765876 -0.058815446 -0.02840322
0.10644099 -0.11297794 -0.29970476 0.22853206 -0.17140554 -0.026068753 -0.015585689 -0.0128231235
0.11717133 0.023464946 0.07293737 -0.06378388 -0.026232272 -0.16932058 0.0034303777 -0.15161191
0.046390194 0.2984984 0.14528777 0.08171315 0.15197104 0.18249677 -0.17957577 -0.12724775
-0.10113583 0.045394477 -0.0029357283 -0.18777955 0.16446912 0.13754931 0.077517845 -0.030427655
-0.11762352 -0.20976351 0.054108273 0.016203249 -0.11738512 0.028877147 -0.1398891 -0.11683601
00000000: 7a5a 0339 89f7 823e 1c7b babd 3ffa 2b3d
00000010: 2dc0 85bd 2037 8f3d b5b1 39be 6187 8a3c
00000020: c30b e33c 5b1c a9bb ad4d 30be b042 083e
00000030: 5de4 9a3d 80f4 cfbd a7a1 d33d 407c 873d
00000040: 2cff c2bd dd92 fdbd f58d fcbd 37ac c63d
00000050: 9e07 14be 2ff6 a13d 6cdd ef3d f20a 5a3d
00000060: 367a 15be 98c0 913c e4ba 79bd 8586 47be
00000070: 2ea5 083e 2af9 7fbd 8260 45bd 9f5b f73c
00000080: 4456 0dbd e573 45be 510a 2cbe 3a76 27be
00000090: 43dd f1bc b5d1 2e3d 0e7c 05bd 67e2 003e
000000a0: e090 30bd 3460 7f3d 89d2 9b3d ae64 5e3d
000000b0: c0d3 063e c2a0 373e a3ea 3f3b 3811 8abd
000000c0: 8312 c83d ae16 12be 4730 983c 30d4 2f3e
000000d0: 265b 27be c8cb 743c 2188 18bd 89ba 9b3d
000000e0: d49e 2f3e 8ee6 863d 3c99 4d3e 1003 99be
000000f0: d95f 57bd f166 293e 877e 3ebd 0bdd 083d
00000100: 3949 a43d b045 23be 079b 12be f223 09be
00000110: fc5d c2bd 8b05 bcbd 180b 9fbd 70c6 9f3d
00000120: b222 aebd b976 21be 0d53 7dbd 322b 733d
00000130: a207 1bbe 875c 24b9 5439 cabd b391 c5bc
00000140: 5165 9d3c 9d82 a0bd 83d2 a43d 8d89 ae3d
00000150: 6680 d93d c265 0dbd 9438 bbbc e231 033d
00000160: 13b0 1abe 83cf 15be f305 1a3e a5cd ba3d
00000170: 37b2 cfbb 919f a63c 2eba ffbd cca2 083e
00000180: 6c75 8fbd 433d cfbd 80b7 0fbe a6b4 843e
00000190: 897b 95bd ae68 9dbd 2d20 003e bcb2 90bd
000001a0: 7393 b8bd 72bf f73c 788a 333d f72f 333c
000001b0: b096 e1bd dbc1 fc3d 7756 d83d 7569 0e3e
000001c0: 103c e2bc e3bf 7e3d 9303 433e fc32 c33d
000001d0: 0e98 873d b5ad 093e eb62 7dbe 2da2 e5bd
000001e0: f02e eb3d bddb df3b 6c15 763e 8522 49be
000001f0: 50f4 b03c 63a3 db3d 9ba8 a6bd 08fc f3bd
00000200: 10fb 0abd 579a 133c 815f eb3d 0776 a23d
00000210: df44 39be 913f 0f3d 25f1 0a3b 213c 533d
00000220: ea07 a43c 4246 70be db90 40be 16f6 abbd
00000230: 0c1b 62bc 655d 8eba 1894 1cbe c3df 54bb
00000240: 0dca a4bd 6048 ed3d 4d95 273e 39a6 573d
00000250: 8981 9b3d 49f8 5f3d d30b b9bd 964c 063e
00000260: f404 4d3e 33d9 573e 06a3 b33d 7702 22bd
00000270: d320 9cbd 3b66 673e e897 953d 1b35 4b3e
00000280: 3c35 ac3a d780 bcbc f0a4 8ebb 01e2 073e
00000290: fbcd dc3d 2c06 7dbd d428 4dbd b93b a4bc
000002a0: a192 cc3d 8b97 0abe 6445 20bd 998b 863d
000002b0: 0a64 5b3d b942 43bd 056c dfbd 2b91 593d
000002c0: d2cb 61bd c89b 8d3c 04e9 92bd e44c cc3d
000002d0: 9ad9 a23d f9f7 f5bc 9157 833d 43d7 89bc
000002e0: 8f7b b6bd d292 fcbd df74 123d a800 f43d
000002f0: 2cb1 1fbe e90e 3fbb 6bb4 1c3d e31b debd
00000300: aefe 543e 1333 2f3e 7276 82bb 1815 983d
00000310: 15c7 753e c9ad 743e 3357 5bbb 04af 39be
00000320: f12c 263d 5ed0 bcbd 18bf 3dbe d7eb aa3b
00000330: 0771 4e3e a84c 293b 3390 7a3e 2a0d 06be
00000340: 0e94 11be 0fcd 2d3e 7df5 e83d 7b49 f6bd
00000350: 65e4 cd3d 7e58 1039 77e8 70bd dfad e8bc
00000360: bcfd d93d fa60 e7bd e772 99be 4f04 6a3e
00000370: ef84 2fbe 238e d5bc 1e5b 7fbc 1418 52bc
00000380: 86f7 ef3d 8f39 c03c 3060 953d 1fa1 82bd
00000390: 10e5 d6bc 6062 2dbe 30d0 603b 2740 1bbe
000003a0: a503 3e3d c8d4 983e 51c6 143e 3959 a73d
000003b0: 4c9e 1b3e 6fe0 3a3e b6e2 37be 3c4d 02be
000003c0: 4d20 cfbd 8fef 393d 5965 40bb 4849 40be
000003d0: 986a 283e bad9 0c3e adc1 9e3d 6b43 f9bc
000003e0: 9ae4 f0bd 3fcc 56be a3a0 5d3d adbc 843c
000003f0: 9c67 f0bd c48f ec3c 173f 0fbe b847 efbd

actor.linears.0.bias f4 [64]
0.033649616 0.12688234 0.09252554 -0.12795348 0.06627736 0.0017420154 -0.109344035 -0.03119764
-0.16401437 -0.04456115 0.10630041 -0.1054353 -5.004765e-05 -0.123634696 0.010085682 -0.16895816
0.147176 -0.17733951 -0.08555788 -0.06123754 0.014522347 -0.0447645 0.1368115 -0.07521975
0.19620137 -0.003071348 -0.14192797 -0.02819399 -0.23837161 0.101749286 0.15685204 0.134373
-0.064160995 -0.023744667 -0.10182614 -0.03850716 -0.124264255 -0.08830802 -0.11557197 -0.023516597
-0.07706897 0.107535146 -0.16295592 -0.02435492 -0.035544988 0.048718013 0.06249597 -0.07163451
0.10738461 0.005150139 -0.17232545 -0.12720913 -0.07526556 -0.06515128 -0.10010733 -0.033044208
0.035892557 -0.08450012 0.11210152 -0.026642265 0.059523944 -0.076134734 -0.10250813 0.053097773
00000000: 2ed4 093d 72ed 013e 087e bd3d 3d06 03be
00000010: 6dbc 873d 5654 e43a c4ef dfbd 3192 ffbc
00000020: 62f3 27be c185 36bd 08b4 d93d 76ee d7bd
00000030: 41ea 51b8 3034 fdbd 6b3e 253c 5e03 2dbe
00000040: 4eb5 163e 7d98 35be f838 afbd 37d4 7abd
00000050: 23ef 6d3c fb5a 37bd 5018 0c3e d00c 9abd
00000060: 03e9 483e ab48 49bb 9155 11be 15f7 e6bc
00000070: b017 74be ee61 d03d d29d 203e 1399 093e
00000080: d766 83bd 2d84 c2bc 398a d0bd afb9 1dbd
00000090: 427e febd d6da b4bd ffb0 ecbd e1a5 c0bc
000000a0: 56d6 9dbd 633b dc3d ebdd 26be f883 c7bc
000000b0: 9f97 11bd 8a8c 473d c6fb 7f3d 1db5 92bd
000000c0: 76ec db3d 7fc2 a83b 1576 30be 1c43 02be
000000d0: d424 9abd 096e 85bd 1205 cdbd 5d59 07bd
000000e0: 1304 133d 660e adbd 7b95 e53d e140 dabc
000000f0: 61cf 733d 87ec 9bbd c8ef d1bd 0d7d 593d

actor.linears.1.weight f4 [64, 64]
-0.0040665804 -0.00931177 -0.0559291 0.028685614 -0.10733353 -0.031900156 -0.2060015 -0.086113065
0.1558306 0.024985434 -0.008114706 -0.10770029 -0.07298203 -0.056377627 0.124947995 0.030426897
0.12613371 -0.08187435 -0.17051783 0.15705606 -0.011454407 -0.031807102 0.08238465 0.013646873
-0.20492423 0.21159525 0.15673153 0.04436517 0.019559924 0.0013950792 0.12703288 -0.042112324
-0.052052226 0.062170625 -0.039319456 -0.07712278 -0.07285242 -0.25577632 -0.036733907 0.110505424
0.12422402 -0.09791322 0.09231749 -0.061227955 0.08812835 0.30371413 -0.18987967 -0.14049058
-0.00964376 -0.21974163 0.2902812 -0.114985235 -0.17266089 0.026961755 0.05177068 0.088761665
-0.007591309 0.021270948 0.00074730685 0.013189183 -0.00079322327 -0.04482406 -0.14696863 -0.09553549
-0.022178896 0.12620455 0.051634993 -0.008339532 0.02671268 0.21435574 0.19977117 -0.007495388
0.0014606995 -0.09740963 -0.106544554 -0.02795117 0.1745984 0.08362047 -0.20616357 -0.024082303
-0.12370546 0.014611936 0.06346613 -0.100459784 -0.15013777 -0.15860187 0.008353487 -0.016047986
0.21878943 -0.22643125 -0.13127042 0.045240633 -0.1124023 -0.18843463 -0.026117261 0.101133935
0.04502688 -0.092797354 0.07947762 -0.023588326 0.13310133 0.11259075 -0.056562137 0.0070269746
-0.11646704 0.11603152 -0.0759454 0.12151334 -0.05265034 -0.27341473 0.21593322 0.01579019
0.24771497 0.06294877 -0.27643365 0.103787854 0.17709753 -0.1770804 -0.13331012 0.02334744
0.17036733 -0.12533775 -0.10124927 -0.13901804 0.021348683 0.13032319 0.15310378 0.08420347
0.05187784 0.07282735 0.078567035 0.1523826 0.14006299 0.1491841 0.0721688 0.07493364
-0.09293828 -0.023270667 -0.15362105 0.06766538 -0.036006693 0.07838698 -0.24876916 0.065323494
-0.17679986 0.06750462 0.07014109 -0.08895109 -0.14241515 -0.051030755 -0.10140349 -0.16043183
0.25213668 -0.016377 -0.051629342 0.082169056 -0.14039825 0.017436028 0.028806176 -0.07046013
0.061935 0.10487028 0.032814953 0.007840699 0.057411656 0.015796097 -0.1494485 -0.18620887
-0.007787559 0.08571751 -0.18846725 0.14292824 -0.093815774 -0.31549528 0.2114899 -0.0071587097
0.108255036 0.08623393 -0.23341207 0.12495929 -0.034000292 -0.14797474 -0.077209726 -0.094622605
0.2039467 -0.17315842 -0.18922897 -0.1545268 0.023769474 0.1940885 0.08538514 0.047899883
-0.060247343 0.03641734 -0.19276695 0.038887937 -0.03554917 -0.20186181 -0.050377853 -0.05270637
0.015852699 0.10441166 -0.050301127 -0.023198579 -0.06705856 -0.15627722 0.12594081 0.011496399
0.024208983 -0.10315982 0.15858306 0.065391906 0.044680633 0.09671426 -0.07309392 0.05706768
-0.03988983 0.17997089 0.06070309 0.19655846 0.08430219 0.081328146 0.12239254 0.10189901
0.09851925 0.014877005 -0.13917105 -0.12208219 -0.0024867915 -0.050302148 0.2006387 0.0090054525
0.05108048 0.07149491 -0.038575474 -0.1329666 0.1497391 0.10997536 0.02025149 -0.18085188
0.0763482 -0.00037336774 0.18165651 0.036680065 0.053886738 0.2636441 0.07295987 0.086712
-0.24637598 0.2579847 -0.06766719 -0.025688577 0.050678086 -0.0021711695 -0.17676124 -0.07174948
00000000: f340 85bb 6590 18bc e915 65bd 18fe ea3c
00000010: afd1 dbbd bda9 02bd 0ff2 52be 0c5c b0bd
00000020: 0f92 1f3e 41ae cc3c 8bf3 04bc f891 dcbd
00000030: 9a77 95bd 3aec 66bd bce4 ff3d d441 f93c
00000040: 3229 013e bdad a7bd 3a9c 2ebe 4ed3 203e
00000050: 44ab 3bbc 2a48 02bd 49b9 a83d 2297 5f3c
00000060: a8d7 51be 6dac 583e 3b7e 203e 41b8 353d
00000070: 223c a03c 17db b63a e814 023e f97d 2cbd
00000080: b734 55bd a0a6 7e3d 700d 21bd 8cf2 9dbd
00000090: a633 95bd 1df5 82be 4b76 16bd ab50 e23d
000000a0: 2a69 fe3d ba86 c8bd f410 bd3d 2aca 7abd
000000b0: a37c b43d 6b80 9b3e d16f 42be c3dc 0fbe
000000c0: dc00 1ebc f303 61be bd9f 943e 617d ebbd
000000d0: 04ce 30be e6de dc3c 7e0d 543d adc8 b53d
000000e0: 84c0 f8bb 6940 ae3c eae6 433a 7117 583c
000000f0: 50f0 4fba 6f99 37bd f27e 16be 1ca8 c3bd
00000100: 84b0 b5bc c43b 013e 377f 533d 88a2 08bc
00000110: 8dd4 da3c 1280 5b3e d090 4c3e df9b f5bb
00000120: f174 bf3a b37e c7bd 0834 dabd daf9 e4bc
00000130: ecc9 323e 3541 ab3d 8b1c 53be 4048 c5bc
00000140: 4a59 fdbd e766 6f3c 88fa 813d dcbd cdbd
00000150: b7bd 19be 8768 22be 10dd 083c 1177 83bc
00000160: 560a 603e 98dd 67be c16b 06be 3e4e 393d
00000170: 2d33 e6bd 02f5 40be def3 d5bc 4f1f cf3d
00000180: 1b6e 383d 8a0c bebd 2ac5 a23d 4e3c c1bc
00000190: b74b 083e fb95 e63d b3ad 67bd 8942 e63b
000001a0: 4586 eebd efa1 ed3d 4389 9bbd fcdb f83d
000001b0: e2a7 57bd 04fd 8bbe 991d 5d3e 6e5a 813c
000001c0: fea8 7d3e 49eb 803d b688 8dbe ba8e d43d
000001d0: 0e59 353e 9054 35be 7382 08be 2143 bf3c
000001e0: c674 2e3e 8a58 00be c75b cfbd bf5a 0ebe
000001f0: 6fe3 ae3c 7173 053e 3dc7 1c3e de72 ac3d
00000200: dc7d 543d 8126 953d c1e7 a03d 2f0a 1c3e
00000210: ac6c 0f3e b7c3 183e 3ccd 933d cf76 993d
00000220: 6d56 bebd 20a2 bebc d64e 1dbe 2694 8a3d
00000230: c17b 13bd 5a89 a03d 58bd 7ebe 53c8 853d
00000240: 060b 35be dd3f 8a3d 22a6 8f3d fd2b b6bd
00000250: 47d5 11be a005 51bd a2ac cfbd 3e48 24be
00000260: 0f18 813e 0f29 86bc 4a79 53bd 4048 a83d
00000270: 8fc4 0fbe 00d6 8e3c eefa eb3c 674d 90bd
00000280: 8eaf 7d3d 3bc6 d63d f968 063d 4676 003c
00000290: 7c28 6b3d d166 813c 0709 19be 8aad 3ebe
000002a0: c82e ffbb a98c af3d 8ffd 40be c85b 123e
000002b0: 7c22 c0bd 9988 a1be cf90 583e 9c93 eabb
000002c0: d1b4 dd3d 6a9b b03d 9303 6fbe a8ea ff3d
000002d0: e443 0bbd b186 17be 2220 9ebd 7fc9 c1bd
000002e0: 67d7 503e 7150 31be 3dc5 41be 463c 1ebe
000002f0: 33b8 c23c 23bf 463e 67de ae3d ab32 443d
00000300: ebc5 76bd 592a 153d b364 45be f548 1f3d
00000310: 029c 11bd ddb4 4ebe 0259 4ebd a2e2 57bd
00000320: 85dd 813c c8d5 d53d 8e08 4ebd f20a bebc
00000330: 0056 89bd 2307 20be a1f6 003e 645b 3c3c
00000340: eb51 c63c 7545 d3bd 9963 223e 31ec 853d
00000350: 0a03 373d 2012 c63d 44b2 95bd cdbf 693d
00000360: 8563 23bd 4a4a 383e cea3 783d 9f46 493e
00000370: a0a6 ac3d 5f8f a63d f1a8 fa3d 6eb0 d03d
00000380: 76c4 c93d aebe 733c db82 0ebe 3a06 fabd
00000390: 70f9 22bb a009 4ebd 3b74 4d3e 9b8b 133c
000003a0: c439 513d ec6b 923d 5101 1ebd 6528 08be
000003b0: 3555 193e c33a e13d 74e6 a53c 3c31 39be
000003c0: 725c 9c3d 92c0 c3b9 2a04 3a3e d63d 163d
000003d0: 57b8 5c3d 5cfc 863e fc6b 953d 1096 b13d
000003e0: fc49 7cbe 9216 843e 1995 8abd da70 d2bc
000003f0: d393 4f3d 2e4a 0ebb e600 35be 64f1 92bd

actor.linears.1.bias f4 [64]
-0.017179597 -0.046206728 0.015503185 -0.08772539 0.13670628 0.07196098 -0.062235244 -0.032623883
0.09307338 0.032770924 -0.062076323 0.054999743 -0.04129316 -0.07918051 0.014457861 0.005830857
0.0022030715 0.021485144 0.061147112 -0.017890805 0.09544847 0.020417482 0.050544932 -0.046112265
0.017425502 0.09876797 0.04161216 0.016756568 0.0020463383 -0.03099712 -0.005793003 -0.053864095
0.0052032024 -0.12066665 -0.031158755 -0.05354294 -0.054716147 0.018840678 -0.04980841 0.04086755
-0.012873351 -0.053149868 -0.06707931 0.016329728 0.068815105 -0.03555521 -0.07803835 -0.0953518
-0.098074704 0.023596484 -0.017304527 -0.059287645 -0.033374965 0.039695244 0.1397774 0.032601524
-0.061407045 0.07956079 0.003491057 0.09841394 0.07389984 0.08300947 0.027776556 0.026352435
00000000: 3abc 8cbc 4443 3dbd 1201 7e3c 5fa9 b3bd
00000010: bbfc 0b3e 4760 933d 62ea 7ebd 9fa0 05bd
00000020: 429d be3d ce3a 063d be43 7ebd 6947 613d
00000030: 0423 29bd 6429 a2bd aae0 6c3c c610 bf3b
00000040: 6861 103b 9d01 b03c 6575 7a3d bd8f 92bc
00000050: 7d7a c33d 9042 a73c 3408 4f3d 37e0 3cbd
00000060: edbf 8e3c dd46 ca3d 8371 2a3d 1245 893c
00000070: dc1b 063b aced fdbc 3bd3 bdbb 99a0 5cbd
00000080: a07f aa3b 1420 f7bd a540 ffbc d84f 5bbd
00000090: 0a1e 60bd c457 9a3c e703 4cbd bb64 273d
000000a0: bfea 52bc adb3 59bd e160 89bd ecc5 853c
000000b0: efee 8c3d 57a2 11bd 92d2 9fbd ce47 c3bd
000000c0: 64db c8bd 6a4d c13c 39c2 8dbc 9ad7 72bd
000000d0: 30b4 08bd 7b97 223d cf21 0f3e 2d89 053d
000000e0: f485 7bbd c4f0 a23d 38ca 643b 3f8d c93d
000000f0: cd58 973d de00 aa3d a98b e33c 10e1 d73c

actor.linears.2.weight f4 [1, 64]
0.19973159 -0.26161054 -0.23571831 0.27081922 -0.34470567 -0.25989532 -0.2742639 -0.21257932
0.2091688 0.274577 -0.31879464 -0.34414566 -0.26532257 -0.24185245 -0.17213283 0.32396734
0.3031103 0.27432325 0.28814602 0.26452315 0.29629406 0.26372206 0.23499382 -0.27845097
-0.27707836 -0.33494505 -0.19227508 -0.24291591 0.31223017 0.32534912 -0.21615978 -0.15353234
-0.26542047 0.18728983 -0.22668973 0.29266056 0.33513138 0.33934134 -0.38639456 0.23525542
0.20529498 -0.2627733 0.23711385 -0.30728573 -0.2294413 -0.25543272 -0.24857046 -0.24324451
0.28120783 -0.26938945 -0.16630732 0.22853704 -0.2554807 0.3112575 -0.30502495 -0.25670114
-0.22122419 -0.32718542 -0.30064204 -0.21088429 0.24957609 -0.22589932 -0.33095974 -0.27696016
00000000: 7086 4c3e d1f1 85be 2460 71be d1a8 8a3e
00000010: 437d b0be 0011 85be 516c 8cbe 65ae 59be
00000020: 5930 563e 5b95 8c3e 0d39 a3be dc33 b0be
00000030: 5cd8 87be 2ba8 77be 9743 30be 0cdf a53e
00000040: 4631 9b3e 1974 8c3e e087 933e 946f 873e
00000050: dbb3 973e 9406 873e 38a2 703e 2091 8ebe
00000060: 37dd 8dbe eb7d abbe c2e3 44be f3be 78be
00000070: a2dc 9f3e 2994 a63e fd58 5dbe 9537 1dbe
00000080: 31e5 87be e8c8 3f3e 5a21 68be 9bd7 953e
00000090: 5796 ab3e 26be ad3e 82d5 c5be cce6 703e
000000a0: d938 523e 398a 86be f9cd 723e 8e54 9dbe
000000b0: a9f2 6abe 14c8 82be 4189 7ebe 1715 79be
000000c0: 79fa 8f3e 6aed 89be 774c 2abe 9d05 6a3e
000000d0: 5ece 82be 255d 9f3e 3b2c 9cbe 556e 83be
000000e0: 9888 62be d984 a7be c1ed 99be 0df2 57be
000000f0: e090 7f3e 2752 67be 8e73 a9be b9cd 8dbe

critic.linears.0.weight f4 [64, 16]
-0.0484562 -0.004923797 -0.078399174 0.39419395 -0.053686954 0.11755869 0.19000956 0.11810661
0.042463407 -0.035546917 0.031102313 -0.12059906 -0.19252908 -0.009984773 -0.086390495 -0.14933003
-0.032668706 -0.2586615 -0.24296981 0.39041787 -0.16716294 -0.19577907 -0.01942643 -0.05793525
0.07524934 -0.061509162 0.1695075 -0.21637078 -0.022756621 -0.18169838 0.16136953 -0.03870483
0.09130765 0.040193707 0.3145069 -0.062305756 -0.16983835 0.0033859867 -0.18012927 -0.21188255
-0.12171178 -0.00072111207 0.012874278 0.022851521 -0.066527314 0.16581681 -0.08064783 0.08275746
-0.072331645 0.08742604 0.14583647 -0.29858392 -0.14850166 0.079687074 0.0492253 -0.20259082
-0.15265976 -0.14266631 0.039469596 0.19294807 0.05134564 -7.592316e-05 -0.19412197 -0.016951438
-0.075529665 -0.18043323 0.16296217 -0.0011625662 0.05319947 -0.073712975 0.1297301 -0.23566468
0.057409145 -0.22236393 0.2038643 -0.20892425 0.22501054 0.04426129 -0.04707566 0.32190827
-0.008645981 0.17305262 -0.069626704 -0.37624517 -0.14436254 -0.18580714 -0.23605032 -0.14092189
0.1526003 -0.04916376 -0.13244508 -0.21468736 -0.05171141 -0.08118891 -0.061991647 -0.03347164
-0.17370482 0.20746936 -0.22220105 0.07296225 -0.23377042 -0.04120782 -0.23416762 -0.21011838
0.15675953 -0.06116768 -0.021253694 -0.09007575 -0.2235821 0.11193302 0.11701572 0.046507843
0.20191662 -0.014803104 0.31589454 -0.21091303 0.14681777 0.03357994 -0.25316983 -0.12920518
0.20306718 -0.11271274 0.16376962 -0.2499025 -0.17726801 0.097608864 0.107368775 -0.2622279
-0.0047573345 0.103676446 0.055331867 -0.37413594 0.17841639 0.17900041 0.21764788 0.12950748
0.21301623 -0.23455575 -0.025327852 0.07329513 -0.12099891 -0.12488369 -0.035155043 -0.06390043
0.15432535 -0.07145637 0.102657884 -0.06155882 -0.04928383 0.16293557 0.20640953 -0.20601441
0.17279726 0.023911534 0.18292929 0.09965444 -0.0015638598 0.1862933 -0.10494725 0.033854347
-0.21273641 -0.034556862 -0.1215315 -0.14130779 0.014410474 0.18975425 -0.01681627 0.006533189
0.0710075 0.11293094 -0.21914168 -0.16840151 0.09255273 -0.18090898 0.14713745 0.18796146
-0.18147607 0.040942367 0.14688163 0.26749602 -0.056018062 -0.19291309 -0.13198851 0.14541622
0.034296524 0.08068981 -0.030210238 -0.003909241 0.08668938 -0.16012165 -0.2537179 -0.32380223
0.013269179 -0.18972866 0.048496578 0.13354346 -0.0956395 -0.107042655 0.007010459 0.15851672
0.1300482 -0.07316189 0.05814869 -0.098740436 0.14580265 -0.20949353 -0.026347104 0.31193984
0.031213218 0.115721524 0.23871905 -0.17514382 0.06748402 0.08262552 0.12342422 0.19009516
0.21296714 0.31074217 -0.14388233 0.09947413 -0.14526817 -0.061295368 -0.20057079 -0.25401053
-0.27837157 -0.27321365 0.12012552 -0.18936017 0.2422949 0.15446031 -0.15712145 0.27216998
-0.16507262 0.11284493 -0.048981316 0.046617508 0.29798055 -0.009891658 -0.11488819 -0.09077811
0.18694523 0.1421246 -0.05385135 -0.15511982 -0.15986003 0.13632908 0.15829985 -0.23066325
-0.00058423274 -0.17747343 0.1260959 -0.04069771 0.17267586 0.0007628979 -0.08532469 -0.1889487
00000000: 027a 46bd ce57 a1bb bf8f a0bd cad3 c93e
00000010: dae6 5bbd 9cc2 f03d de91 423e e1e1 f13d
00000020: 1cee 2d3d a599 11bd 47ca fe3c a4fc f6bd
00000030: 5826 45be 2c97 23bc 80ed b0bd f9e9 18be
00000040: 9fcf 05bd 486f 84be 14cd 78be dae4 c73e
00000050: c32c 2bbe 4f7a 48be 2d24 9fbc 834d 6dbd
00000060: 531c 9a3d 08f1 7bbd 6093 2d3e 4d90 5dbe
00000070: 186c babc 240f 3abe 0e3e 253e f588 1ebd
00000080: 81ff ba3d 28a2 243d 0c07 a13e 5234 7fbd
00000090: 1bea 2dbe 6ee7 5d3b cf73 38be bdf7 58be
000000a0: 0744 f9bd 0309 3dba a3ee 523c 1d33 bb3c
000000b0: 793f 88bd e2cb 293e b12a a5bd be7c a93d
000000c0: 9d22 94bd 6c0c b33d 2856 153e fedf 98be
000000d0: d210 18be fa32 a33d 78a0 493d f873 4fbe
000000e0: d752 1cbe 1e17 12be dfaa 213d 2e94 453e
000000f0: ce4f 523d f038 9fb8 e9c7 46be bedd 8abc
00000100: 4caf 9abd 7dc3 38be 8edf 263e 4061 98ba
00000110: b0e7 593d d4f6 96bd f8d7 043e 1552 71be
00000120: da25 6b3d 5fb3 63be cec1 503e 3df0 55be
00000130: 2a69 663e 544b 353d 68d2 40bd 29d1 a43e
00000140: dfa7 0dbc b534 313e 7298 8ebd 35a3 c0be
00000150: c6d3 13be 3a44 3ebe 2db7 71be d44d 10be
00000160: 4143 1c3e f05f 49bd af9f 07be 01d7 5bbe
00000170: 58cf 53bd 5f46 a6bd f4ea 7dbd 8f19 09bd
00000180: addf 31be d972 543e ac88 63be 3b6d 953d
00000190: 8361 6fbe 88c9 28bd a3c9 6fbe 4629 57be
000001a0: 9285 203e f68a 7abd 3a1c aebc a379 b8bd
000001b0: b5f2 64be 243d e53d f0a5 ef3d 027f 3e3d
000001c0: 3bc3 4e3e b888 72bc eebc a13e 96f9 57be
000001d0: 6657 163e 1f8b 093d 7a9f 81be 5d4e 04be
000001e0: d8f0 4f3e f0d5 e6bd 39b3 273e 71e6 7fbe
000001f0: bf85 35be 28e7 c73d 29e4 db3d bc42 86be
00000200: 6ae3 9bbb 5154 d43d aba3 623d bf8e bfbe
00000210: c9b2 363e e24b 373e 16df 5e3e 9c9d 043e
00000220: ed20 5a3e 622f 70be 5b7c cfbc c21b 963d
00000230: 47ce f7bd 05c3 ffbd bcfe 0fbd 3bde 82bd
00000240: 7707 1e3e b857 92bd 4c3e d23d 1a25 7cbd
00000250: d7dd 49bd 95d8 263e 055d 533e 71f5 52be
00000260: c4f1 303e 1fe2 c33c d151 3b3e a117 cc3d
00000270: 6dfa ccba acc3 3e3e 95ee d6bd dbaa 0a3d
00000280: 93d7 59be 7f8b 0dbd 82e5 f8bd fdb2 10be
00000290: e919 6c3c f04e 423e 46c2 89bc 5d14 d63b
000002a0: 616c 913d 5648 e73d ad66 60be 7271 2cbe
000002b0: 498c bd3d 3440 39be 33ab 163e f878 403e
000002c0: ddd4 39be 2fb3 273d 2368 163e 3df5 883e
000002d0: 3273 65bd 028b 45be ff27 07be fde7 143e
000002e0: 837a 0c3d b340 a53d 767b f7bc 1719 80bb
000002f0: 348a b13d eef6 23be 50e7 81be 68c9 a5be
00000300: f866 593c 3b48 42be 59a4 463d 9ebf 083e
00000310: a4de c3bd 2e39 dbbd feb7 e53b 3552 223e
00000320: 5b2b 053e e7d5 95bd 522d 6e3d 6d38 cabd
00000330: 4a4d 153e 7985 56be e2d5 d7bc 94b6 9f3e
00000340: ddb2 ff3c 68ff ec3d c472 743e e758 33be
00000350: 1035 8a3d 9237 a93d d6c5 fc3d 4ea8 423e
00000360: 0f14 5a3e 9919 9f3e e455 13be 18b9 cb3d
00000370: 2ec1 14be da10 7bbd 6e62 4dbe ab0d 82be
00000380: b886 8ebe a9e2 8bbe 5e04 f63d a2e7 41be
00000390: 271c 783e d82a 1e3e 72e4 20be dd59 8b3e
000003a0: cc08 29be 3e1b e73d a2a0 48bd 00f2 3e3d
000003b0: e890 983e 9f10 22bc 804a ebbd e0e9 b9bd
000003c0: 926e 3f3e 1c89 113e 3c93 5cbd bbd7 1ebe
000003d0: 59b2 23be da99 0b3e 5b19 223e fd32 6cbe
000003e0: 3227 19ba 98bb 35be 491f 013e a4b2 26bd
000003f0: f1d1 303e 36fd 473a b6be aebd c57b 41be

critic.linears.0.bias f4 [64]
-0.018904408 -0.094847545 0.19491047 0.16942385 -0.1576536 -0.0037655195 0.12754008 0.1231523
0.24458173 -0.06298476 -0.13684447 -0.1584713 0.16468649 -0.002476902 -0.06670405 0.06448617
-0.03550195 0.017670438 -0.03597503 -0.1428181 0.11340073 0.14895925 -0.1639978 -0.2580323
0.06432921 0.022338465 -0.26375648 -0.0070807864 -0.16322921 0.077246375 -0.06288728 0.14513236
-0.032730207 -0.2275999 -0.24482477 -0.011220818 -0.011787415 -0.062117472 0.12525068 -0.20457534
0.14510812 0.11234071 0.017509941 -0.12433024 0.106563866 -0.21633814 -0.12887147 -0.09860814
0.05475406 0.09944828 0.20440513 0.0101024825 -0.008639436 0.020453839 -0.1843854 0.1402443
0.12672919 0.22408083 0.039779328 0.20392811 0.21154742 -0.082141444 -0.11200697 -0.053118274
00000000: 6bdd 9abc 6e3f c2bd 9c96 473e 727d 2d3e
00000010: f26f 21be efc6 76bb de99 023e 4637 fc3d
00000020: a273 7a3e 27fe 80bd f520 0cbe 4d46 22be
00000030: 93a3 283e 8553 22bb 229c 88bd 5311 843d
00000040: 7e6a 11bd 98c1 903c 8e5a 13bd e83e 12be
00000050: a43e e83d c688 183e 0aef 27be cf1c 84be
00000060: 08bf 833d 28ff b63c 170b 87be f105 e8bb
00000070: 8f25 27be 5933 9e3d 0ccb 80bd 949d 143e
00000080: 1c10 06bd f30f 69be 58b3 7abe 86d7 37bc
00000090: 0020 41bc e46e 7ebd b741 003e 337c 51be
000000a0: 3997 143e e312 e63d 0271 8f3c daa0 febd
000000b0: 283e da3d bf87 5dbe e2f6 03be 11f3 c9bd
000000c0: cb45 603d 8aab cb3d 944f 513e e284 253c
000000d0: 6c8c 0dbc cf8e a73c 87cf 3cbe 349c 0f3e
000000e0: 4cc5 013e 7275 653e a6ef 223d 88d2 503e
000000f0: e39f 583e c639 a8bd e963 e5bd 8c92 59bd

critic.linears.1.weight f4 [64, 64]
-0.262878 -0.12905617 0.11030501 -0.04441225 -0.053985376 0.1401806 0.029952288 0.037792005
0.078732885 -0.13070047 -0.10970494 0.073907465 0.0011449837 0.17700793 -0.11580553 -0.015316956
0.028696503 0.014441773 0.037063207 -0.2859919 -0.092522785 -0.20573246 -0.048070077 0.037152775
-0.08435335 0.3449764 -0.17169714 0.039363105 -0.08590101 -0.029972456 0.032256454 -0.016423807
0.067573756 0.15553603 -0.023844207 -0.17527911 0.05249985 -0.013071416 0.18168794 -0.19009319
-0.14732802 0.116806395 0.049749985 -0.053456943 -0.09947798 -0.0012887632 0.24116215 0.09716398
0.07774222 0.29255512 0.06901757 0.116065644 0.13804595 -0.029152658 0.097239226 0.078045726
-0.11649961 -0.1417801 0.050454997 0.11106969 0.105972044 -0.07166426 -0.22230789 -0.100309
-0.03303382 -0.06857931 0.10115039 -0.08607761 0.078305125 -0.06708386 -0.049979124 -0.03518241
0.11582995 0.007818131 0.09780628 0.008589577 -0.06758082 0.12736782 0.0670351 0.07183325
-0.10323157 -0.03517727 -0.1622433 -0.045941193 0.12383936 -0.10383015 0.029930957 -0.12503253
-0.07520466 0.25539875 -0.16497591 0.07132045 -0.103816405 -0.01662733 -0.056709062 -0.09778313
-0.008087455 0.06479303 -0.14367071 -0.028388469 0.031906668 -0.03787744 0.17654502 -0.04271159
-0.06978479 -0.02621941 0.086425684 0.058438584 0.12038141 -0.11465253 0.027623402 -0.09598267
0.053094037 -0.0010263636 -0.058018807 -0.10677912 0.06153174 0.008320432 0.083420746 0.070921406
-0.07454255 0.07100977 -0.03589459 -0.074369036 0.008589092 -0.108637206 -0.024590006 -0.082507156
-0.17846422 -0.10601049 0.04095686 0.12037803 -0.045367036 0.11657523 0.11149159 0.13992578
-0.021870308 0.02637776 0.069073536 -0.012230277 0.11042768 -0.0033889473 0.022573674 0.06270591
-0.12254516 0.113109514 -0.09712804 -0.2726149 -0.05319614 -0.15010495 0.067773536 -0.10284666
0.048826262 0.24484472 -0.1717819 -0.12388901 0.040204328 -0.09509729 -0.1193047 -0.12596564
-0.07676608 0.12159796 -0.026854113 -0.097631715 -0.1405256 -0.108335 -0.021084389 -0.029701041
0.044448443 -0.10324291 -0.1045292 0.10945997 0.016022088 -0.0013467133 0.023477795 0.00306651
0.062169794 0.1566996 -0.10824882 -0.0020880012 0.13343288 0.11685491 -0.033715937 -0.09848019
-0.08775405 -0.094158 -0.005987236 -0.063759334 0.08811059 0.029530952 -0.021277804 -0.11992803
0.02858284 0.026352756 -0.05377724 0.01566394 0.056010485 0.0060494654 0.07859732 0.04289219
0.18693107 0.11668011 0.014901871 0.0043668766 -0.095584385 0.040906653 -0.08512949 -0.09385481
-0.14692964 -0.11583616 -0.16599339 0.007410968 0.1433063 0.04460462 -0.08841113 -0.09816616
-0.0814927 0.04097621 -0.07348682 0.13024902 -0.1465873 -0.033716477 0.11727315 -0.021001354
0.1310541 0.023887398 0.012479715 0.012654909 -0.097205535 -0.047363583 0.034197416 -0.08568128
-0.05029477 -0.1336691 0.08484454 0.017300647 0.017844694 -0.038056977 0.04731703 -0.1032526
-0.062678225 0.017435137 -0.043115966 -0.041706346 -0.005179484 0.040448852 0.087210655 0.09043733
-0.0050615803 0.16324699 0.12897031 0.14554235 0.07639926 0.074851364 -0.0848324 0.14088018
00000000: f297 86be 4d27 04be 98e7 e13d 9fe9 35bd
00000010: c51f 5dbd 818b 0f3e 805e f53c cacb 1a3d
00000020: b53e a13d 58d6 05be fcac e0bd cc5c 973d
00000030: 4713 963a 9141 353e 732b edbd f8f3 7abc
00000040: ee14 eb3c 309d 6c3c 97cf 173d 886d 92be
00000050: 967c bdbd 88ab 52be 21e5 44bd 822d 183d
00000060: 73c1 acbd bfa0 b03e 60d1 2fbe 353b 213d
00000070: deec afbd cc88 f5bc 581f 043d 388b 86bc
00000080: 1c64 8a3d d644 1f3e ed54 c3bc 5e7c 33be
00000090: 150a 573d 7e29 56bc 670c 3a3e caa7 42be
000000a0: 28dd 16be 3138 ef3d a4c6 4b3d abf5 5abd
000000b0: 1cbb cbbd b8eb a8ba 36f3 763e e9fd c63d
000000c0: 5037 9f3d c9c9 953e 1559 8d3d d3b3 ed3d
000000d0: eb5b 0d3e 8ed1 eebc 5c25 c73d 70d6 9f3d
000000e0: 5997 eebd cd2e 11be e6a9 4e3d 8178 e33d
000000f0: df07 d93d b6c4 92bd aea4 63be ce6e cdbd
00000100: 794e 07bd 4f73 8cbd f027 cf3d 7549 b0bd
00000110: 705e a03d 4363 89bd e9b6 4cbd 6e1b 10bd
00000120: 4138 ed3d 9e17 003c a94e c83d 4cbb 0c3c
00000130: d067 8abd b66c 023e b349 893d 501d 933d
00000140: 136b d3bd 0b16 10bd 1c23 26be d52c 3cbd
00000150: 7e9f fd3d e7a4 d4bd c431 f53c 8708 00be
00000160: e704 9abd a0c3 823e 72ef 28be 7510 923d
00000170: b29d d4bd 0a36 88bc c347 68bd 8642 c8bd
00000180: 3f81 04bc 35b2 843d 6a1e 13be ef8e e8bc
00000190: 91b0 023d 6025 1bbd 38c8 343e 59f2 2ebd
000001a0: 54eb 8ebd 17ca d6bc f3ff b03d 4c5d 6f3d
000001b0: 878a f63d f2ce eabd 794a e23c 9092 c4bd
000001c0: 2279 593d 0c87 86ba 21a5 6dbd 03af dabd
000001d0: b508 7c3d 6c52 083c 7fd8 aa3d 3e3f 913d
000001e0: c4a9 98bd 926d 913d 3506 13bd cb4e 98bd
000001f0: 43b9 0c3c 2f7d debd fb70 c9bc 83f9 a8bd
00000200: 53bf 36be 071c d9bd 61c2 273d c288 f63d
00000210: c9d2 39bd ffbe ee3d b455 e43d b448 0f3e
00000220: 5c29 b3bc 2c16 d83c 6d76 8d3d 8061 48bc
00000230: e827 e23d 1a19 5ebb 6dec b83c f56b 803d
00000240: f5f8 fabd f6a5 e73d 11eb c6bd 2e94 8bbe
00000250: 32e4 59bd 1db5 19be dacc 8a3d 45a1 d2bd
00000260: 0cfe 473d 93b8 7a3e 98e7 2fbe 85b9 fdbd
00000270: 4bad 243d 5ec2 c2bd 0656 f4bd 23fd 00be
00000280: 8937 9dbd 5a08 f93d 28fd dbbc 23f3 c7bd
00000290: f1e5 0fbe bede ddbd 2bb9 acbc 994f f3bc
000002a0: 920f 363d 0571 d3bd 6813 d6bd 8c2c e03d
000002b0: c140 833c 3384 b0ba 8154 c03c 80f7 483b
000002c0: c1a5 7e3d dc75 203e 8fb1 ddbd d9d6 08bb
000002d0: a1a2 083e a151 ef3d b919 0abd fbaf c9bd
000002e0: 65b8 b3bd e9d5 c0bd 9330 c4bb 4194 82bd
000002f0: 5373 b43d e5ea f13c ca4e aebc d49c f5bd
00000300: 8f26 ea3c bce1 d73c 8645 5cbd aa51 803c
00000310: 406b 653d 983a c63b a2f7 a03d b9af 2f3d
00000320: dc6a 3f3e fbf5 ee3d fa26 743c 0418 8f3b
00000330: bfc1 c3bd bc8d 273d 5f58 aebd f336 c0bd
00000340: b974 16be 823b edbd 2cfa 29be b5d7 f23b
00000350: e3be 123e 56b3 363d e510 b5bd 570b c9bd
00000360: a5e5 a6bd acd6 273d 4280 96bd 0060 053e
00000370: fb1a 16be 4a1a 0abd e82c f03d 080b acbc
00000380: 0c33 063e 81af c33c b877 4c3c 8956 4f3c
00000390: b213 c7bd 5100 42bd 9712 0c3d ab79 afbd
000003a0: e401 4ebd 8de0 08be f9c2 ad3d 16ba 8d3c
000003b0: 092f 923c a2e1 1bbd 81cf 413d 1976 d3bd
000003c0: 715d 80bd 22d4 8e3c 5e9a 30bd 46d4 2abd
000003d0: a9b8 a9bb b2ad 253d 809b b23d 3537 b93d
000003e0: 9ddb a5bb 382a 273e cb10 043e 0e09 153e
000003f0: 3777 9c3d ac4b 993d 9cbc adbd e542 103e

critic.linears.1.bias f4 [64]
0.06540747 -0.08124126 -0.01967559 0.009628595 -0.105961025 -0.14820164 -0.04254669 0.042638283
0.06970514 0.02107918 0.07696065 -0.14122014 -0.031226126 0.08918084 -0.06742867 0.053814497
0.1154867 -0.0749493 -0.016273119 -0.10073867 0.02870973 -0.13483013 0.12910041 0.097952634
-0.021313736 0.02192282 -0.05225937 -0.15266731 -0.14868511 -0.103286095 -0.10054359 0.0847898
-0.015871946 -0.15593487 -0.023183158 -0.07141677 -0.061755307 -0.032001536 0.09098744 0.03633815
0.113389775 0.014255534 0.14257415 0.081539236 -0.023806604 -0.011768229 -0.036062162 0.122127414
-0.14765592 0.096443504 0.1432222 0.027849438 -0.0557885 0.073829725 0.13555458 -0.019597502
0.015047613 0.13662215 0.16366929 -0.060281202 -0.022688301 0.05037185 -0.043623652 -0.0380022
00000000: 5af4 853d d161 a6bd b42e a1bc 41c1 1d3c
00000010: 1802 d9bd 2cc2 17be 7045 2ebd 7ba5 2e3d
00000020: 92c1 8e3d 3fae ac3c 8c9d 9d3d 039c 10be
00000030: efcd ffbc 72a4 b63d 0b18 8abd 976c 5c3d
00000040: 4a84 ec3d 057f 99bd 344f 85bc 1350 cebd
00000050: ab30 eb3c e910 0abe e632 043e 649b c83d
00000060: 259a aebc 7c97 b33c ec0d 56bd d254 1cbe
00000070: e940 18be a987 d3bd cce9 cdbd 46a6 ad3d
00000080: e205 82bc 64ad 1fbe 9bea bdbc f542 92bd
00000090: 22f3 7cbd 0b14 03bd 9f57 ba3d 50d7 143d
000000a0: e638 e83d 0b90 693c f5fe 113e 0bfe a63d
000000b0: 1106 c3bc 88cf 40bc ebb5 13bd f01d fa3d
000000c0: 1d33 17be 2c84 c53d d7a8 123e 8124 e43c
000000d0: 7b82 64bd 0a34 973d d2ce 0a3e f18a a0bc
000000e0: 438a 763c ade6 0b3e ec98 273e 6ce9 76bd
000000f0: d1dc b9bc b752 4e3d b7ae 32bd 32a8 1bbd

critic.linears.2.weight f4 [1, 64]
-0.049311582 -0.030967586 -0.12562296 -0.138772 0.04745339 0.06209964 0.10315135 -0.027476292
-0.0027597228 0.0647774 -0.11235711 0.090035 0.013251444 0.06834688 -0.112791225 -0.09072371
-0.1193543 -0.044147085 -0.044301897 0.09788529 0.06256322 0.058613915 -0.13425228 0.025145039
0.13322139 -0.04929965 0.11156165 0.15481436 0.11635074 0.13290468 0.00786101 -0.12718537
-0.03115013 0.07846143 -0.055723704 0.1246774 0.029057167 0.10768273 0.02771563 -0.0518074
-0.0769907 -0.12990165 -0.14964302 -0.061316054 -0.13625257 0.1303165 0.011634522 -0.021431452
0.12549278 -0.055786937 -0.13300873 0.13978516 -0.0258527 -0.033464193 -0.028522803 0.022434
0.098654866 -0.13582058 -0.14708468 -0.0908061 -0.022747418 -0.04516115 0.05075926 0.08294482
00000000: f1fa 49bd bcaf fdbc 4ea3 00be 3f1a 0ebe
00000010: 7c5e 423d 315c 7e3d 0441 d33d f615 e1bc
00000020: 77dc 34bb 03aa 843d 7c1b e6bd 4564 b83d
00000030: 961c 593c 73f9 8b3d 16ff e6bd 5acd b9bd
00000040: 0770 f4bd 93d3 34bd e875 35bd 1578 c83d
00000050: 2521 803d 2515 703d 6e79 09be f8fc cd3c
00000060: 306b 083e 6eee 49bd 6f7a e43d a887 1e3e
00000070: 4c49 ee3d 2a18 083e 77cb 003c e23c 02be
00000080: 8f2e ffbc 63b0 a03d 8a3e 64bd dd56 ff3d
00000090: 4c09 ee3c c388 dc3d e40b e33c ff33 54bd
000000a0: 4dad 9dbd f004 05be 053c 19be 8b26 7bbd
000000b0: cb85 0bbe b071 053e b99e 3e3c 0391 afbc
000000c0: 2e81 003e d880 64bd 7133 08be d723 0f3e
000000d0: 0bc9 d3bc c011 09bd a7a8 e9bc 82c7 b73c
000000e0: 900b ca3d 8d14 0bbe 5e9d 16be 8cf8 b9bd
000000f0: cb58 babc e6fa 38bd f1e8 4f3d f9de a93d
