trained_network/SD2/s2_a4.pth (torch, 59851 bytes, 26 tensors)

feature_exact.j_encoder.linears.0.weight f4 [8, 14]
0	0xbe277bef	-0.1635587
1	0x3dde216f	0.10846221
2	0xbe276320	-0.16346407
3	0x3e83644a	0.25662452
4	0xbdf25c97	-0.11834066
5	0x3e034726	0.1282011
6	0xbeb87bae	-0.3603186
7	0x3e13453a	0.14381877
8	0x3e1a773b	0.15084545
9	0x3e8b8a1f	0.27253816
10	0xbb71f4b5	-0.0036919538
11	0xbcadefb9	-0.021232473
12	0xbe874468	-0.26419377
13	0xbe3638cb	-0.17795102
14	0x3cb993b9	0.022653447
15	0x3dab5db7	0.08367484
16	0x3b97d708	0.004633788
17	0xbe97c7f6	-0.29644746
18	0x3cab2d0a	0.0208955
19	0x3db9df4c	0.090757936
20	0xbcc9babe	-0.024625178
21	0xbe1fb252	-0.15595368
22	0x3e0b0968	0.13577807
23	0xbe820735	-0.25396124
24	0x3d963f4e	0.07336293
25	0xbe991352	-0.29897553
26	0x3c84bb96	0.01620273
27	0xbec36970	-0.3816638
28	0x3e0a7dfa	0.13524619
29	0x3e39c33e	0.18140885
30	0xbee0d849	-0.43915012
31	0x3d93391e	0.071886286
32	0xbe5a8ddc	-0.21343178
33	0xbce13a9e	-0.027493771
34	0x3d95258f	0.07282554
35	0x3dc004ec	0.09375939
36	0xbe10a6da	-0.14126149
37	0x3dd3aad5	0.10335318
38	0x3df75275	0.12076274
39	0xbd5e3cb1	-0.0542571
40	0xbed21412	-0.41030937
41	0x3e4c4bfb	0.19950859
42	0xbecbc361	-0.397975
43	0x3eb03c7f	0.34421155
44	0x3de2f645	0.110821284
45	0xbdabfd81	-0.083979614
46	0x3d7057a8	0.058677346
47	0x3e19718a	0.14984718
48	0xbecf4fc2	-0.40490538
49	0xbdc14bfb	-0.0943832
50	0xbe3c2d2b	-0.18376605
51	0xbd395346	-0.04524543
52	0xbe1324df	-0.14369534
53	0x3d8dd363	0.069250844
54	0xbf205898	-0.62635183
55	0x3e94d731	0.29070428
56	0x3ea86e36	0.32896584
57	0xbde5c8db	-0.11219951
58	0xbdef337c	-0.11679742
59	0xbe3462c3	-0.176158
60	0xbd3c0183	-0.04589988
61	0xbd255d1d	-0.040372003
62	0xbc4a152d	-0.01233415
63	0xbdd0c6d7	-0.10194176
64	0x3d9c32a1	0.07626844
65	0xbde9aeef	-0.11410319
66	0x3d5a7544	0.05333449
67	0xbdab1e25	-0.08355359
68	0xbe598191	-0.21240832
69	0x3eb1f93e	0.3476047
70	0xbe44b9ec	-0.19211549
71	0xbe9d246e	-0.30691856
72	0x3dc1e480	0.09467411
73	0xbd96ea5b	-0.073689185
74	0x3db4db2d	0.08830867
75	0xbdb72cac	-0.08944067
76	0xbeebf62a	-0.46086246
77	0x3e17190b	0.14755647
78	0xbd2d29ec	-0.042276308
79	0x3d3ffc15	0.046871264
80	0xbe088c70	-0.13334823
81	0x3dbe61db	0.09296008
82	0xbe371de8	-0.17882502
83	0xbe0f7892	-0.14010838
84	0xbe8a13d7	-0.26968262
85	0x3de2c63c	0.110729665
86	0x3e2443f6	0.1604155
87	0xbe0259de	-0.12729594
88	0x3e6fa126	0.23401317
89	0x3c2dd93e	0.010610877
90	0xbf062a92	-0.5240871
91	0x3e58867c	0.21145052
92	0xbdb14a85	-0.086567916
93	0xbd50e339	-0.050997946
94	0xbe0d4b93	-0.1379836
95	0x3d96e686	0.073681876
96	0x3e68bee1	0.22729065
97	0xbec19e82	-0.37816244
98	0x3d1635b4	0.03667231
99	0xbe0dd238	-0.13849723
100	0x3e54c8b2	0.20779684
101	0x3d8d9f1f	0.069151156
102	0xbe9c398c	-0.30512655
103	0xba9520f8	-0.0011377623
104	0x3efa5a51	0.4889703
105	0xbe22fab2	-0.15915945
106	0x3d20d616	0.03926667
107	0xbd3956f7	-0.04524895
108	0x3d5f1ea6	0.054472588
109	0x3e174d64	0.14775616
110	0xbeaef1aa	-0.3416875
111	0xbe9d3609	-0.30705288

feature_exact.j_encoder.linears.0.bias f4 [8]
0	0x3d0cf862	0.034416564
1	0x3d02e979	0.031960938
2	0x3cdd492d	0.027012432
3	0x3dbb9bae	0.09160553
4	0xbeb6fd4a	-0.3574012
5	0x3e21ce15	0.1580127
6	0x3e63acb1	0.22233845
7	0xbea68d90	-0.3252988

feature_exact.j_encoder.linears.1.weight f4 [8, 8]
0	0x3e05db24	0.13071877
1	0xbc9e7a11	-0.019345315
2	0x3f05fc4f	0.5233812
3	0x3d567832	0.05236072
4	0xbe23a276	-0.15979943
5	0x3ea77b90	0.32711458
6	0xbef8beda	-0.48583108
7	0xbf15ccc5	-0.5851558
8	0x3e3d6dbd	0.18498893
9	0xbe95fb4e	-0.29293293
10	0xbf0bf1c4	-0.5466578
11	0x3e7497f8	0.23886096
12	0xbe654369	-0.22388996
13	0x3cf937ae	0.030422058
14	0x3e58beca	0.2116653
15	0x3e894a2e	0.26814407
16	0x3d51d2eb	0.051226538
17	0x3be6234a	0.0070232498
18	0xbd624458	-0.05524096
19	0xbc99fea7	-0.018798186
20	0xbdfcebe5	-0.12349681
21	0x3df964d3	0.12177434
22	0xbe8eaf28	-0.2786801
23	0xbedd1bd4	-0.43185294
24	0x3caae077	0.020858986
25	0x3e74f39f	0.23921059
26	0x3e86f7a7	0.2636082
27	0x3d296cba	0.041363455
28	0xbea0fbdc	-0.31442153
29	0xbde61c4e	-0.112358674
30	0xbe6da1f4	-0.23206311
31	0x3f456be7	0.7711777
32	0x3e1008bc	0.14065832
33	0x3e987bf8	0.2978208
34	0x3dd85df5	0.10564796
35	0x3ec82144	0.3908788
36	0x3dee62b1	0.11639918
37	0x3f07dc1e	0.5307025
38	0xbc3dacc7	-0.011576838
39	0x3d7ff71e	0.06249153
40	0x3d29f465	0.04149284
41	0x3da3db8f	0.08000862
42	0xbdf990a2	-0.1218579
43	0x3e43db68	0.19126666
44	0xbd567f29	-0.052367363
45	0xbddb7527	-0.107157044
46	0x3cafe738	0.021472558
47	0xbe9984a5	-0.29984012
48	0x3d08a29d	0.033358205
49	0xbdda776b	-0.106673084
50	0xbe3fb7ab	-0.18722408
51	0x3db11a15	0.08647553
52	0x3ec72fd1	0.3890367
53	0xbe5efd82	-0.21776393
54	0x3e965719	0.29363325
55	0x3ef156cc	0.47136533
56	0x3e99bc65	0.30026546
57	0x3e31bcd7	0.17357193
58	0x3ef501af	0.47852847
59	0x3bb8ee59	0.0056436476
60	0x3ea84a8a	0.3286937
61	0x3e1bc3c7	0.15211402
62	0xbe9a6721	-0.30156806
63	0xbefb22ac	-0.4904989

feature_exact.j_encoder.linears.1.bias f4 [8]
0	0x3abb0d8e	0.0014271007
1	0xbe939594	-0.28825057
2	0x3ed8614f	0.4226174
3	0xbea70836	-0.32623452
4	0x3d95bdba	0.07311578
5	0xbbcd37a9	-0.0062627387
6	0x3e2da0ab	0.16955821
7	0xbe4592ef	-0.19294332

feature_exact.j_encoder.linears.2.weight f4 [8, 8]
0	0xbee5b3a9	-0.44863632
1	0xbd872583	-0.06598952
2	0xbd0d12e6	-0.03444185
3	0x3e43bbcd	0.19114609
4	0x3dac6de3	0.08419397
5	0xbd88ff86	-0.06689362
6	0xbde01dbd	-0.10943172
7	0x3e66079c	0.2246384
8	0x3e3279c5	0.17429264
9	0x3e3ab22b	0.18232028
10	0x3ea692d9	0.3253391
11	0xbf028360	-0.5098171
12	0xbd6e4f2c	-0.058180973
13	0x3e3f0431	0.18653943
14	0xbe9c7571	-0.3055835
15	0x3e0098a1	0.12558223
16	0x3e761b70	0.24033904
17	0xbd302c65	-0.043011088
18	0xbe0d6c5d	-0.13810869
19	0xbc98b85c	-0.018642597
20	0x3ece6298	0.40309596
21	0xbcab205a	-0.02088945
22	0xbe1e1197	-0.15436397
23	0x3e83f5be	0.25773424
24	0xbe3c7cef	-0.18407033
25	0xbe1f26aa	-0.15542093
26	0x3db0e2bb	0.086369954
27	0x3eef9529	0.46793488
28	0xbed01fe6	-0.40649337
29	0x3b42a1f8	0.0029698592
30	0x3eb13f0b	0.3461841
31	0xbee8d5cc	-0.45475614
32	0xbd6b6cd2	-0.057476826
33	0x3dec5569	0.11539728
34	0xbe651ece	-0.22375032
35	0xbeaf5163	-0.3424178
36	0xbda2abb8	-0.07942909
37	0xbe46de4c	-0.19420737
38	0xbe45be7b	-0.19310944
39	0xbea4d599	-0.32194212
40	0x3e02cc1a	0.12773171
41	0x3e85d25c	0.26137054
42	0xbd02b1b8	-0.031907767
43	0x3e94c6ae	0.2905783
44	0x3e6f52e1	0.2337146
45	0xbd1e3ebb	-0.038634043
46	0x3e910891	0.28326848
47	0x3e232e61	0.15935661
48	0xbd2ac485	-0.041691322
49	0xbe946700	-0.28984833
50	0xbe65d66a	-0.22445074
51	0x3d7cfd8a	0.06176523
52	0xbd527469	-0.05138055
53	0xbe1cb94b	-0.15305059
54	0x3e9b6f5f	0.30358407
55	0xbecd26ea	-0.40068752
56	0x3ce94576	0.028475504
57	0xbe0d6242	-0.13807014
58	0x3eddd858	0.4332912
59	0xbd86dc87	-0.06585031
60	0x3e3efc4f	0.18650936
61	0x3e1cdf01	0.15319444
62	0xbea11f81	-0.31469348
63	0x3e6f7a6d	0.23386545

feature_exact.j_encoder.linears.2.bias f4 [8]
0	0x3e4c4b59	0.19950618
1	0xbd4e4e76	-0.050367795
2	0xbd979269	-0.074009724
3	0xbd24f135	-0.040269095
4	0xbe75e947	-0.2401477
5	0xbe530181	-0.20606042
6	0x3e31280a	0.1730043
7	0xbe5fc484	-0.21852309

feature_exact.m_encoder.linears.0.weight f4 [8, 8]
0	0xbef5c264	-0.4799987
1	0x3d2774da	0.040882923
2	0x3e5b2af3	0.21403103
3	0x3de41c52	0.11138214
4	0xbdb0db57	-0.08635586
5	0x3e8bb7e9	0.2728875
6	0xbeaa4107	-0.33252737
7	0x3e675253	0.22589998
8	0x3e81f494	0.2538191
9	0x3e39327a	0.18085662
10	0xbe95d305	-0.29262558
11	0xbe8bf5d6	-0.27335995
12	0xbdbb5266	-0.09146576
13	0xbe86dc1a	-0.263398
14	0xbe7886a2	-0.24270108
15	0xbecd298d	-0.40070763
16	0xbd10f2de	-0.035387866
17	0x3e99bd7f	0.30027387
18	0x3e921ab7	0.28536007
19	0xbead20a0	-0.33813953
20	0xbee5a10a	-0.44849426
21	0xbe2521d2	-0.16126183
22	0x3ed92945	0.424143
23	0x3e7fbf20	0.24975252
24	0x3e3e4749	0.1858188
25	0x3da2acb5	0.079430975
26	0x3ebe6b5b	0.3719128
27	0x3e91a0cc	0.2844299
28	0x3e661ec9	0.22472681
29	0xbd80da85	-0.06291679
30	0x3e2aa50a	0.1666452
31	0x3cd91228	0.026497915
32	0xbd601cfe	-0.05471515
33	0xbeb1a571	-0.34696534
34	0xbea35431	-0.3190017
35	0xbe980a55	-0.29695383
36	0xbe676871	-0.22598435
37	0x3dc2982a	0.09501679
38	0xbebdd0df	-0.37073418
39	0xbe5882e5	-0.21143682
40	0x3e6b657e	0.22987935
41	0xbe1221e8	-0.14270747
42	0x3d8941e3	0.0670202
43	0x3ee73bd3	0.4516283
44	0xbda4bc19	-0.08043689
45	0xbe3ec813	-0.1863101
46	0xbeab312b	-0.3343595
47	0x3d8b89ea	0.068134144
48	0xbe9e8da5	-0.3096744
49	0x3e6e7d39	0.23289956
50	0xbe1fe3fe	-0.15614316
51	0x3df72d7f	0.120692246
52	0x3deacd02	0.114648834
53	0x3e9ee726	0.31035727
54	0xbd0c5065	-0.034256358
55	0x3e34423a	0.17603388
56	0x3e82f105	0.25574508
57	0x3d261a46	0.0405524
58	0xbe5adc4f	-0.21373104
59	0xbdbf5940	-0.09343195
60	0xbdf2fcc2	-0.11864616
61	0x3ea7a4f7	0.32743046
62	0xbe4bb42c	-0.19892949
63	0x3e753ab0	0.23948169

feature_exact.m_encoder.linears.0.bias f4 [8]
0	0xbd6ebfe4	-0.05828847
1	0x3e6192a7	0.220286
2	0xbec2095f	-0.37897775
3	0x3d9b02ef	0.07568919
4	0xbe761e1a	-0.2403492
5	0xbe828d43	-0.254984
6	0x3e939d98	0.28831172
7	0xbe27efc3	-0.16400056

feature_exact.m_encoder.linears.1.weight f4 [8, 8]
0	0x3d20e4b1	0.039280597
1	0x3df570f3	0.11984434
2	0x3d92796c	0.07152066
3	0x3e33a848	0.17544663
4	0x3c91d0d7	0.017799778
5	0x3eb15518	0.34635234
6	0x3d1d64a1	0.038426045
7	0xbe8bd545	-0.2731115
8	0xbe076558	-0.13222253
9	0x3d7411cc	0.059587285
10	0x3e8735ee	0.26408333
11	0x3eba371e	0.36370176
12	0x3cfad97e	0.030621286
13	0x3d1e9c1e	0.038723104
14	0xbe8928a1	-0.2678881
15	0x3da00c0f	0.078148
16	0xbe2c60dc	-0.16833824
17	0x3eaea0ca	0.34107047
18	0xbd0d6102	-0.034516342
19	0x3e977fe2	0.29589754
20	0x3d8148c0	0.06312704
21	0x3c9a50ce	0.018837359
22	0xbe54a19d	-0.20764776
23	0xbe1a0371	-0.15040375
24	0x3ea3ca17	0.3199012
25	0xbd72b378	-0.059253186
26	0x3e0ca347	0.1373416
27	0x3d9623e6	0.07331066
28	0x3df90d91	0.12160791
29	0x3e30419d	0.1721253
30	0x3eb6f781	0.35735705
31	0xbeafdb50	-0.3434701
32	0xbc356c36	-0.011073163
33	0xbdf18e7e	-0.11794756
34	0x3f0736ee	0.5281819
35	0x3df5f541	0.12009669
36	0xbe22b030	-0.15887523
37	0x3e602e4f	0.21892665
38	0xbdb079ab	-0.08616956
39	0x3e228507	0.15871058
40	0x3e8a2bf6	0.26986665
41	0x3e65d1bb	0.22443287
42	0xbe9bac9b	-0.30405125
43	0x3e966f2f	0.293817
44	0xbe33ae72	-0.17547014
45	0xbe4f471e	-0.20241973
46	0xbea91b26	-0.33028525
47	0xbeb40722	-0.35161692
48	0x3ec53625	0.38517871
49	0x3dd2ded0	0.10296404
50	0x3ec5b467	0.386142
51	0xbb71ceed	-0.003689702
52	0xbef25700	-0.47332
53	0xbe8e2206	-0.27760333
54	0xbe7629fa	-0.2403945
55	0x3e476635	0.19472583
56	0xbd307a1c	-0.043085203
57	0xbe03b4b9	-0.12861909
58	0x3e4de3fd	0.20106502
59	0x3ea64f8b	0.3248256
60	0xbc45d39f	-0.01207438
61	0xbe91ebf9	-0.28500345
62	0xbe0f3b9e	-0.13987586
63	0x3eb6109b	0.35559544

feature_exact.m_encoder.linears.1.bias f4 [8]
0	0x3db5a8dc	0.08870098
1	0xbc87f481	-0.01659608
2	0xbe479d1c	-0.19493526
3	0xbe4171b0	-0.18891025
4	0x3d8352d5	0.06412283
5	0xbe3869eb	-0.18009154
6	0x3d42d841	0.047569517
7	0x3e9ffba7	0.31246683

feature_exact.m_encoder.linears.2.weight f4 [8, 8]
0	0x3e212bd1	0.15739371
1	0x3ea928f1	0.33039048
2	0x3e0976c9	0.13424219
3	0x3e30b22d	0.17255469
4	0x3e9af4e7	0.3026497
5	0xbe9745e3	-0.29545507
6	0xbd3e0a54	-0.04639657
7	0xbe816792	-0.2527433
8	0x3dc5fb72	0.096671
9	0xbdebda0a	-0.11516197
10	0xbf055816	-0.52087533
11	0x3e31158d	0.17293377
12	0x3e98a151	0.29810575
13	0xbe5a1256	-0.21296057
14	0x3d6643d5	0.056217033
15	0x3e950d9d	0.2911195
16	0xbe95edb3	-0.29282913
17	0xbd516c85	-0.051128883
18	0xbe5f544d	-0.21809502
19	0x3e4b2b99	0.1984085
20	0x3ea7db07	0.32784292
21	0x3e9e759d	0.30949107
22	0xbe3d6e56	-0.18499121
23	0x3ea7ca4b	0.32771525
24	0xbdb7bb6c	-0.08971295
25	0x3e29cd03	0.16582112
26	0x3e581094	0.21100074
27	0xbe7834c4	-0.24238878
28	0xbdc39d62	-0.09551503
29	0x3e01eee2	0.12688783
30	0x3e045a44	0.12925059
31	0xbe889629	-0.26677063
32	0x3c1dbc2c	0.009627383
33	0x3d53c6a9	0.05170313
34	0xbe480127	-0.1953169
35	0x3ebd537c	0.36977756
36	0xbe580553	-0.21095781
37	0xbe7d2290	-0.24720216
38	0xbe0d9596	-0.13826594
39	0x3e9881cf	0.29786536
40	0xbea2b164	-0.31775963
41	0xbe6a4bf0	-0.2288053
42	0x3c0545de	0.008134333
43	0xbe70e99f	-0.2352662
44	0xbe648e61	-0.22319938
45	0xbe589511	-0.21150614
46	0xbee26aa0	-0.44221973
47	0xbca63be5	-0.020292232
48	0x3bd79f08	0.0065802373
49	0xbea60fd9	-0.32433966
50	0x3e92f038	0.28698897
51	0xbeb7218f	-0.3576779
52	0xbefbefe6	-0.49206465
53	0x3ede8101	0.43457797
54	0x3c3bf3ea	0.011471728
55	0x3d9d710b	0.07687577
56	0x3dfa88ad	0.122331
57	0xbe1a2458	-0.15052927
58	0x3e93ab63	0.28841695
59	0x3d117e32	0.03552074
60	0x3e09e51c	0.13466305
61	0xbd9e7736	-0.077375814
62	0x3c40ed57	0.011775336
63	0xbe8fa1d4	-0.28053153

feature_exact.m_encoder.linears.2.bias f4 [8]
0	0xbdd0fa9e	-0.102040514
1	0xbda94100	-0.08264351
2	0xbcf71f1b	-0.0301662
3	0xbd661bee	-0.05617898
4	0xbd6a9052	-0.05726654
5	0x3e924d88	0.28574777
6	0x3e4077b0	0.18795657
7	0xbe153b23	-0.1457334

feature_exact.j_ln.weight f4 [8]
0	0x3f815adb	1.0105852
1	0x3f87c829	1.0607959
2	0x3f96769d	1.1754948
3	0x3f9accba	1.2093728
4	0x3f7b8707	0.9825291
5	0x3f841d04	1.0321355
6	0x3f85a79c	1.0441775
7	0x3f885c11	1.0653096

feature_exact.j_ln.bias f4 [8]
0	0xbd2b6f3f	-0.04185414
1	0xbcc01f21	-0.023452343
2	0xbce9e4b7	-0.028551443
3	0x3cecd490	0.028909951
4	0x3d42eeb1	0.047590915
5	0x3bebfdca	0.007201885
6	0x3bcaaf3b	0.00618544
7	0xba3c96c2	-0.00071940955

feature_exact.m_ln.weight f4 [8]
0	0x3f85bf3b	1.0448984
1	0x3f7ad526	0.9798149
2	0x3f7fa883	0.99866503
3	0x3f7c9abf	0.98673624
4	0x3f7e05ce	0.9922761
5	0x3f767964	0.9627898
6	0x3f75b4ed	0.95979196
7	0x3f7ff961	0.99989897

feature_exact.m_ln.bias f4 [8]
0	0x3cbb2cff	0.022848604
1	0x3c9d09e5	0.019169757
2	0xbb2508b5	-0.0025182192
3	0x3ca16d9e	0.01970559
4	0x3d3d8f1f	0.04627907
5	0xbd0d2d20	-0.034466863
6	0xbd3f2748	-0.04666832
7	0x3cbfacdb	0.023397854

actor.linears.0.weight f4 [64, 40]
0	0xbd59a42d	-0.053135086
1	0x3e35afa3	0.17742781
2	0xbcc5be4e	-0.024138596
3	0x3c98e139	0.018662082
4	0xbd1fc004	-0.03900148
5	0x3e136399	0.14393462
6	0xbe087b52	-0.13328293
7	0xbcdbf4af	-0.026850073
8	0x3eacaf2f	0.33727404
9	0xbd0df382	-0.034656055
10	0xbe8474dd	-0.2587041
11	0x3e3f81ec	0.18701905
12	0xbba07172	-0.0048963362
13	0xbe5d067b	-0.21584503
14	0x3da81c58	0.08208531
15	0x3d826f98	0.06368941
16	0xbd67552f	-0.05647772
17	0xbcae3921	-0.021267476
18	0x3baefda4	0.005340295
19	0xbe270c4d	-0.16313286
20	0xbe4fcc58	-0.20292795
21	0x3d4affa0	0.04956019
22	0x3e1bbb71	0.15208222
23	0x3d8c84d7	0.06861275
24	0xbe5204e0	-0.20509672
25	0x3e0dd76b	0.13851707
26	0xbd47bd83	-0.048764717
27	0xbe8fecac	-0.28110254
28	0x3d0c3c57	0.034237232
29	0xbcd139ee	-0.025540318
30	0x3c9d2aae	0.01918539
31	0x3c4c4588	0.012467749
32	0x3d3953e6	0.045246027
33	0xbdc87dcc	-0.09789619
34	0xbddeea6c	-0.10884556
35	0xbdba64cc	-0.09101257
36	0x3da72492	0.08161272
37	0x3e00364a	0.1252071
38	0xbe0abc84	-0.13548476
39	0x3dc1db95	0.0946571
40	0xbd33224f	-0.04373389
41	0xbe13e962	-0.14444497
42	0x3e266299	0.1624855
43	0x3d52bcb7	0.051449504
44	0x3dbdb24f	0.09262525
45	0x3e158bba	0.14604083
46	0x3df5a2ec	0.119939655
47	0xbdb56f63	-0.08859136
48	0x3dfeff59	0.124510475
49	0x3dc720be	0.09723042
50	0x3d92bc6a	0.071648434
51	0xbcfe67ed	-0.031055415
52	0xbcf4fd3c	-0.029905908
53	0xbc9e9ba5	-0.019361326
54	0xbdc93745	-0.09824995
55	0xbdeaa4e7	-0.11457234
56	0x3dd8c6dc	0.105848044
57	0x3cbba642	0.022906426
58	0x3e794d07	0.2434579
59	0xbe6c1f6c	-0.23058861
60	0xbc180083	-0.009277466
61	0x3e1954ec	0.14973801
62	0xbd5fad9c	-0.054608926
63	0x3d860489	0.06543834
64	0x3c075ad4	0.008261401
65	0x3b7b99f7	0.003839133
66	0xbdbf2756	-0.093336746
67	0xbdbb2dd8	-0.091396034
68	0x3c6469d5	0.013941248
69	0xbe14fadd	-0.14548822
70	0xbdd20e29	-0.10256607
71	0xbbed6d35	-0.0072456845
72	0xbdd11e6b	-0.1021088
73	0xbe74d338	-0.23908699
74	0xbd56d435	-0.05244847
75	0x3cd5b399	0.026086615
76	0xbdebe94d	-0.11519108
77	0xbcae9038	-0.021309003
78	0xbd0eb251	-0.034838025
79	0x3d4c9e8c	0.04995589
80	0x3dd2f904	0.10301402
81	0xbcf15050	-0.029457241
82	0x3d0a798e	0.03380733
83	0x3d8dc410	0.069221616
84	0x3d601ebd	0.054716814
85	0xbdb5294b	-0.08845767
86	0xbd591aa1	-0.05300391
87	0x3dc7437e	0.0972967
88	0xbe1a6b08	-0.15079892
89	0xbe5ab118	-0.21356618
90	0x3dbbd8fc	0.09172246
91	0x3e11bc79	0.14232053
92	0xbd67ad06	-0.056561492
93	0x3d8c97db	0.06864902
94	0xbe08417a	-0.13306227
95	0x3e763a36	0.24045643
96	0xbd8a8169	-0.06762964
97	0xbe84d04d	-0.2594017
98	0xbecf6a5a	-0.40510827
99	0x3f346378	0.7046428
100	0xbd3a336d	-0.0454592
101	0xbcd240e1	-0.025665702
102	0x3e1674ff	0.14693068
103	0xbe590e13	-0.21196775
104	0x3cf6d5cc	0.030131243
105	0xbdc2584b	-0.09489497
106	0x3d1d9e6b	0.038481157
107	0x3d4463a8	0.047946602
108	0xbdadc1b8	-0.084842145
109	0x3de623d7	0.11237305
110	0x3d87ee3d	0.06637237
111	0x3e32d54a	0.17464176
112	0xbdc1eca0	-0.09468961
113	0x3d15840d	0.036502887
114	0x3dfad473	0.12247553
115	0x3cba01cb	0.022705933
116	0x3d20fe4c	0.039305016
117	0x3d90176d	0.07035718
118	0xbe563c87	-0.20921527
119	0xbd403279	-0.046923134
120	0x3cb124ab	0.02162393
121	0x3e2e9517	0.17049061
122	0x3e0a73ec	0.13520783
123	0xbde37163	-0.11105611
124	0xbce0c914	-0.027439632
125	0x3d9547a1	0.07289053
126	0xbe2a4ca5	-0.166308
127	0xbc8c477f	-0.017123936
128	0xba00fa89	-0.0004920145
129	0x3e11f1b4	0.14252359
130	0x3e24f451	0.16108824
131	0x3db2a6ce	0.08723222
132	0xbd3bf904	-0.045891777
133	0xbd82b717	-0.06382578
134	0xbc6bc7c9	-0.014390894
135	0xbd3bdc66	-0.045864485
136	0xbd7741e1	-0.06036556
137	0xbdad692b	-0.08467325
138	0x3cf922f5	0.030412177
139	0xbebf1d83	-0.37327203
140	0x3c613386	0.013745194
141	0xbd789407	-0.060688045
142	0xbe43377f	-0.19064139
143	0x3e170d21	0.14751102
144	0x3ca4052f	0.020022003
145	0x3e07dd56	0.13268027
146	0x3e02c228	0.12769377
147	0x3e3cf289	0.18451895
148	0x3da8f3a4	0.08249596
149	0x3c146b64	0.009058807
150	0xbde49a8a	-0.111622885
151	0x3e2cb8ea	0.16867414
152	0x3e5bb17e	0.21454427
153	0x3e281a30	0.1641624
154	0x3db60ffc	0.088897675
155	0xbc9c4941	-0.019077899
156	0xbda2de14	-0.07952514
157	0x3e771488	0.24128926
158	0x3ce75729	0.028239803
159	0x3e2552e5	0.16144903
160	0x3c1b4ea5	0.0094792
161	0x3e415a35	0.18882068
162	0xbdcb56d3	-0.0992867
163	0x3e348036	0.17627034
164	0x3d192810	0.037391722
165	0xbdbfe609	-0.093700476
166	0xbe1d5aae	-0.15366623
167	0x3db59dd6	0.088679954
168	0x3df21aa7	0.1182149
169	0xbdef1698	-0.11674231
170	0x3b96c388	0.004600946
171	0x3ded24c1	0.11579276
172	0x3da6380a	0.08116157
173	0xbe2f773e	-0.17135331
174	0xbe0a50f8	-0.1350745
175	0x3d87ebcf	0.06636774
176	0xbdb41954	-0.087938935
177	0xbdbbb3c1	-0.09165145
178	0xbcbf2853	-0.023334658
179	0x3df6bd0f	0.12047779
180	0x3e04e37f	0.12977408
181	0x3d9f0d6b	0.07766231
182	0x3ca23237	0.019799335
183	0xbd106fd2	-0.03526289
184	0xbd99e1bd	-0.07513759
185	0xbe1c4187	-0.15259372
186	0x3e029131	0.12750699
187	0x3e0d2838	0.13784873
188	0xbe5e31c9	-0.21698679
189	0x3d281539	0.041035865
190	0xbcaffdb0	-0.021483272
191	0xbdda00ba	-0.1064467
192	0x3e12de9e	0.14342734
193	0x3e27e1dd	0.16394754
194	0xbdaa61b9	-0.0831942
195	0x3ca7c643	0.02048028
196	0x3e1ea229	0.15491547
197	0x3e3480b7	0.17627226
198	0x3d8ed14a	0.069735125
199	0xbe64e1e5	-0.22351797
200	0x3c56dd31	0.01311426
201	0x3e3921de	0.18079326
202	0xbe92268c	-0.28545034
203	0x3d49313b	0.049119215
204	0x3ddb746e	0.107155666
205	0xbd588d51	-0.052869145
206	0x3dd6ce66	0.10488586
207	0x3cd158e1	0.025555076
208	0x3deed2ee	0.116613254
209	0x3dcd7c37	0.10033458
210	0x3d6a44cb	0.057194512
211	0xbd1f4521	-0.038884286
212	0x3df09da0	0.117488146
213	0xbe35fcdc	-0.1777224
214	0xbde7c213	-0.113163136
215	0x3e3c9538	0.18416297
216	0x3d4780e3	0.0487069
217	0xbe906645	-0.28203025
218	0xbe446818	-0.19180334
219	0x3e886d2c	0.26645792
220	0xbdbf698e	-0.09346305
221	0x3dcd56dd	0.100263335
222	0xbd80324d	-0.06259594
223	0xbd89764b	-0.06712016
224	0x3dc773ce	0.09738885
225	0x3de86b0c	0.113485426
226	0x3e39b89b	0.18136828
227	0xbe43ed0c	-0.19133395
228	0xb991d150	-0.00027812505
229	0xbe0196ab	-0.12655132
230	0xbd862785	-0.065505065
231	0xbd7621ff	-0.060091015
232	0xbe078ef2	-0.13238123
233	0x3e2f420a	0.17115036
234	0xbd5b5af3	-0.053553533
235	0xbdb4aa9c	-0.08821604
236	0xbd4a3e3f	-0.04937577
237	0x3b92fee5	0.004485952
238	0xbe2a772c	-0.16647023
239	0xbe78fba0	-0.24314737
240	0xbe3f2caa	-0.18669382
241	0x3e70e568	0.23525012
242	0xbda732e4	-0.081640035
243	0xbe021463	-0.1270309
244	0x3da1f922	0.079088464
245	0x3dbcd32a	0.09219964
246	0xbd9b2cca	-0.07576902
247	0x3e1f9996	0.15585932
248	0xbde77c36	-0.11302988
249	0xbe0e6b3b	-0.13908093
250	0x3db0c5b3	0.08631458
251	0x3cfbdfda	0.03074639
252	0xbcc02545	-0.023455271
253	0xbcebfeb1	-0.02880797
254	0xbe1f3e11	-0.1555102
255	0xbe13bd72	-0.14427736

actor.linears.0.bias f4 [64]
0	0x3dba1437	0.09085887
1	0x3db0e206	0.086368605
2	0x3d96a0c8	0.07354885
3	0xbe199b73	-0.15000705
4	0x3c73ae7e	0.014873145
5	0xbd86cb6b	-0.06581768
6	0xbe026f44	-0.12737757
7	0xbd1e0978	-0.03858325
8	0xbe04493e	-0.12918565
9	0xbd38984b	-0.045067113
10	0x3dd2085c	0.10255501
11	0xbdc5ed7e	-0.09664439
12	0xbd63cc82	-0.055614956
13	0xbdc554b9	-0.096353
14	0x399bb123	0.0002969588
15	0xbe256731	-0.16152646
16	0x3dde17e7	0.10844403
17	0xbe2ab5a3	-0.16670851
18	0xbd7fc97b	-0.062448006
19	0xbdde844a	-0.10865076
20	0xbd3e4989	-0.046456847
21	0x3be2e7d0	0.006924607
22	0x3de12eda	0.10995264
23	0xbd353123	-0.044236314
24	0x3e11be51	0.14232756
25	0xbd3044f6	-0.043034516
26	0xbe5395cd	-0.20662613
27	0x3a959ff3	0.0011415466
28	0xbe73401e	-0.23754928
29	0x3e02df8c	0.12780589
30	0x3e183e4a	0.14867511
31	0x3dc191df	0.09451651
32	0x3ceaf761	0.028682413
33	0xbbb548d0	-0.0055323616
34	0xbd7e6385	-0.062106628
35	0xbdec39bd	-0.1153445
36	0xbdb97a76	-0.09056561
37	0xbe25ca5f	-0.1619048
38	0xbdabfc30	-0.0839771
39	0x3cd731bb	0.02626883
40	0xbdf72fd0	-0.120696664
41	0x3e0aa8f3	0.13541012
42	0xbe54cdfc	-0.20781702
43	0xbdab0a35	-0.08351556
44	0xbd29f66b	-0.041494768
45	0x3cd35c21	0.025800766
46	0x3e0a3b16	0.13499102
47	0xbd9088a0	-0.07057309
48	0x3e37e951	0.17960097
49	0x3b5d5884	0.0033774683
50	0xbdc45442	-0.095863834
51	0xbd477429	-0.048694763
52	0xbca6cf3b	-0.020362487
53	0xbcf71ba3	-0.030164545
54	0xbe05dff2	-0.1307371
55	0xbc43409c	-0.01191726
56	0x3d173a00	0.036920547
57	0xbd6a7780	-0.05724287
58	0x3e0e4f9e	0.13897559
59	0xbd827b09	-0.06371123
60	0x3da40bab	0.08010038
61	0xbd81cdcc	-0.06338081
62	0xbddcce03	-0.10781481
63	0x3d422438	0.047397822

actor.linears.1.weight f4 [64, 64]
0	0xbdad9d3b	-0.08477255
1	0x3dc5c992	0.09657587
2	0xbd440b67	-0.047862437
3	0xbaa702ca	-0.001274192
4	0xbdeec534	-0.11658707
5	0x3c567932	0.013090419
6	0xbe8f23ec	-0.27957094
7	0x3d1d93ef	0.03847116
8	0xbd79af28	-0.060958058
9	0x3d2fa39f	0.04288065
10	0xbe0aef53	-0.13567857
11	0xbd877f36	-0.066160604
12	0x3cb1a0d1	0.021683129
13	0xbd4eb419	-0.050464723
14	0x3dd4f08a	0.10397442
15	0xbd4aaa4f	-0.049478825
16	0x3e0caf7b	0.13738815
17	0xbe18cb21	-0.14921238
18	0xbe231ab7	-0.1592816
19	0x3d0704b0	0.032963455
20	0xbd87c8c6	-0.06630091
21	0x3d350699	0.044195745
22	0xbe00c68f	-0.12575744
23	0x3e35ae60	0.177423
24	0xbd90c30d	-0.07068453
25	0x3e0813f0	0.13288856
26	0x3e5e5441	0.21711828
27	0x3c3864d5	0.011254509
28	0x3d847594	0.06467739
29	0x3dafd212	0.085849896
30	0x3e21c4bf	0.15797709
31	0x3d476201	0.04867745
32	0xbc763bd5	-0.0150289135
33	0xbdde0682	-0.10841085
34	0xbd5aa049	-0.053375516
35	0xbcc084d7	-0.023500843
36	0xbdc3a5cf	-0.0955311
37	0xbd8a8abc	-0.06764743
38	0xbd50b960	-0.050958037
39	0x3e3e0acb	0.18558805
40	0x3e0028be	0.12515542
41	0x3d6c2832	0.05765552
42	0x3dd6978d	0.10478125
43	0x3c59e6e3	0.013299677
44	0x3dd1dae7	0.102468304
45	0x3e3873fc	0.18012995
46	0xbdbca7b0	-0.09211671
47	0xbe62c2b1	-0.22144581
48	0xbc520f3c	-0.012821015
49	0xbe382f70	-0.17986846
50	0x3d868788	0.06568819
51	0xbe249467	-0.16072236
52	0xbe10995a	-0.14120999
53	0x3dba357a	0.09092231
54	0xbce0ef2b	-0.027457794
55	0x3ddde6d7	0.10835045
56	0xbcdd7c75	-0.027036885
57	0x3cf2ec46	0.02965368
58	0xbda5a252	-0.08087601
59	0xbcf37f62	-0.029723827
60	0x3d19d7f0	0.03755945
61	0x3d8b5c5c	0.068047255
62	0xbe2436ea	-0.16036573
63	0x3db6dc08	0.089286864
64	0x3b232164	0.0024891729
65	0xbc07c8c7	-0.008287615
66	0x3e801f62	0.25023943
67	0xbd8bfb91	-0.06835092
68	0x3db717db	0.08940097
69	0x3de1f33b	0.11032721
70	0x3e47b76e	0.19503567
71	0xbdb71ec7	-0.08941417
72	0x3e2305fa	0.15920249
73	0xbd6643d5	-0.056217033
74	0x3d9232fe	0.07138632
75	0xbdf5bb32	-0.11998595
76	0x3db299c8	0.08720738
77	0x3e37d0b5	0.17950709
78	0xbe832758	-0.25615954
79	0xbd888236	-0.06665461
80	0xbe04900e	-0.12945578
81	0x3d084daf	0.03327721
82	0x3cca5d31	0.02470264
83	0x3cc9e95c	0.024647407
84	0xbe35d2d0	-0.177562
85	0xbe9b294c	-0.30304945
86	0x3e90a61e	0.28251737
87	0xbe455a39	-0.19272698
88	0x3d49fd35	0.049313743
89	0xbe9984cd	-0.2998413
90	0xbe8b328e	-0.27187008
91	0x3dc3601a	0.09539814
92	0xbe972903	-0.29523477
93	0xbe56f291	-0.20990969
94	0x3d0776cf	0.03307229
95	0x3d7529d3	0.05985434
96	0xbbb4a994	-0.0055133794
97	0x3c510365	0.012757157
98	0x3e804bd5	0.25057855
99	0xbdfc9c5f	-0.12334513
100	0x3db77e5c	0.08959648
101	0xba8e55cf	-0.0010859313
102	0xbd031966	-0.032006644
103	0x3c9c833a	0.019105542
104	0xbe8dadd9	-0.27671698
105	0xbd9431dc	-0.072360724
106	0xbe1b27f8	-0.15151966
107	0x3c425e48	0.011863299
108	0xbd3a55cb	-0.045491975
109	0xbe52fbc5	-0.20603855
110	0x3e3da8ee	0.18521473
111	0x3d512249	0.051058087
112	0x3e77cff3	0.2420042
113	0x3d6e3817	0.05815896
114	0xbd8bd6df	-0.06828093
115	0x3eb6b13e	0.356821
116	0x3e19c37c	0.15015978
117	0xbe9c2cd0	-0.3050294
118	0xbe503425	-0.20332392
119	0xbd3bb085	-0.04582264
120	0x3ea29b5a	0.3175915
121	0xbe03766b	-0.12838142
122	0xbd343184	-0.043992534
123	0xbe2eec1c	-0.17082256
124	0xbceffe6a	-0.029296119
125	0xbd576b89	-0.052592788
126	0x3e841f81	0.25805286
127	0xbe187ad6	-0.14890608
128	0x3dfa0c3f	0.12209367
129	0x3c8a0264	0.016846843
130	0x3b3507d2	0.002762307
131	0x3e2781f9	0.16358174
132	0x3e668505	0.2251168
133	0x3dc2a046	0.09503226
134	0x3e0f4ca5	0.13994081
135	0xbda92ca3	-0.08260467
136	0x3de537da	0.111922935
137	0xbd419d30	-0.047269046
138	0xbd1ec629	-0.0387632
139	0x3dc3954e	0.09549962
140	0xbcaa3def	-0.020781485
141	0x3e0a6770	0.13516021
142	0xbe38be38	-0.18041313
143	0x3e151dbb	0.14562123
144	0xbe1175d7	-0.14205109
145	0x3e1705f7	0.14748369
146	0x3dfa8d63	0.122339986
147	0x3d205508	0.039143592
148	0xbd9eacc0	-0.07747793
149	0xbe04a22b	-0.12952487
150	0x3d45a3c3	0.04825188
151	0xbe9115f7	-0.2833707
152	0x3db99e8f	0.09063446
153	0x3d0eabc4	0.034831777
154	0xbcbe3cad	-0.023222292
155	0x3d216714	0.039404944
156	0xbdfc852c	-0.12330088
157	0xbc48e6f9	-0.012262099
158	0x3c771bc4	0.015082303
159	0xbded50e2	-0.11587693
160	0x3d05d631	0.032674972
161	0x3e4d7221	0.20063068
162	0x3d49c71f	0.049262162
163	0x3bb4399e	0.0055000326
164	0x3db3c898	0.087784946
165	0xbe1a84bd	-0.15089698
166	0xbe25ca37	-0.1619042
167	0xbe96e326	-0.29470176
168	0x3c935adc	0.017987661
169	0xbe091665	-0.13387449
170	0xbdf16a8c	-0.117879
171	0x3e0d141b	0.13777201
172	0xbdc77b04	-0.0974026
173	0xbe04ffc5	-0.12988193
174	0x3d9b6f6d	0.07589612
175	0x3d2f7f75	0.042846162
176	0x3de16191	0.110049374
177	0x3d7510f6	0.05983063
178	0xbd95765b	-0.07297965
179	0x3e08a9f5	0.13346083
180	0xbd9bb052	-0.0760199
181	0xbe556ea9	-0.20842995
182	0xbcb7000a	-0.022338886
183	0xbe2a1db4	-0.16612893
184	0x3e348bfe	0.17631528
185	0xbe54c868	-0.20779574
186	0xbe003d65	-0.1252342
187	0xbdfcb421	-0.12339044
188	0xbd95e39e	-0.07318805
189	0x3cf9cae7	0.03049226
190	0x3dc4c3d8	0.09607667
191	0xbe0db9f2	-0.13840464
192	0xbe2f9019	-0.17144813
193	0x3ce7d02c	0.028297506
194	0xbdf5736e	-0.11984907
195	0x3b39952d	0.0028317675
196	0xbe195bbe	-0.14976403
197	0xbe14a3f2	-0.14515665
198	0xbe02a6f0	-0.12758994
199	0xbc16258a	-0.009164223
200	0xbe3878f2	-0.18014887
201	0x3e0bb800	0.13644409
202	0xbda5a15f	-0.0808742
203	0xbd7e6a0a	-0.062112845
204	0xbca995c9	-0.020701306
205	0xbe115dd9	-0.14195956
206	0x3e630b31	0.22172238
207	0xbdc3a255	-0.09552447
208	0x3d810677	0.06300061
209	0xbe529e15	-0.20568116
210	0x3cd3485b	0.025791338
211	0xbd26501c	-0.040603742
212	0x3dd4a9e5	0.10383967
213	0x3e0f87c5	0.14016636
214	0xbe42606f	-0.18982099
215	0x3e5ec71f	0.21755646
216	0x3ddc9a6d	0.10771642
217	0x3e40db47	0.18833648
218	0x3d9e7118	0.07736415
219	0x3e12c63a	0.1433343
220	0x3d6972f3	0.05699439
221	0x3dd987d5	0.10621611
222	0x3e269409	0.16267408
223	0x3e0c7da7	0.13719808
224	0x3db05e97	0.086117916
225	0xbd90f371	-0.07077683
226	0xbe298db7	-0.16557966
227	0xbcf886c9	-0.030337708
228	0xbd3dabd0	-0.04630643
229	0x3e099466	0.13435516
230	0x3e3d65b0	0.18495822
231	0x3d4827f4	0.048866227
232	0x3d27469b	0.04083882
233	0x3e45ef83	0.19329648
234	0xbd99869f	-0.0749638
235	0xbd000331	-0.031253044
236	0x3dd6aec1	0.104825504
237	0x3d7749e6	0.06037321
238	0x3ce918e2	0.028454248
239	0xbe78a806	-0.24282846
240	0x3c7e8213	0.015533942
241	0x3c23a2fb	0.009987588
242	0x3c961866	0.018322181
243	0xbd581aa7	-0.052759793
244	0x3d60370f	0.054740008
245	0x3e806ff0	0.25085402
246	0x3d92e2dc	0.07172176
247	0x3e064f92	0.13116291
248	0xbe516f82	-0.20452693
249	0x3e45b871	0.1930864
250	0xbd189885	-0.03725483
251	0xbc216bfc	-0.009852406
252	0x3d1bf50a	0.038075484
253	0x3e3681f4	0.1782301
254	0xbe374939	-0.17899026
255	0x3db0f0fd	0.08639715

actor.linears.1.bias f4 [64]
0	0x3da9d13e	0.08291863
1	0x3c888da1	0.016669096
2	0xbceef5b3	-0.029169893
3	0xbc0fa587	-0.008767492
4	0x3d7e9ee4	0.06216325
5	0x3e026b63	0.12736277
6	0xbcc3be41	-0.023894431
7	0xbc092699	-0.008371019
8	0x3dc0b0fd	0.09408758
9	0x3d8fc784	0.070204765
10	0xbd8fc9eb	-0.07020935
11	0x3df545cc	0.11976203
12	0x3baa00d6	0.005188088
13	0xbda928bd	-0.08259723
14	0xbd9092fe	-0.070592865
15	0xbc5bbfb1	-0.013412402
16	0xbce70ac8	-0.028203383
17	0xbbe2de78	-0.006923493
18	0x3bae1cab	0.005313476
19	0xbdc10de4	-0.094264776
20	0x3d999b25	0.075002946
21	0xbc8c68cc	-0.017139815
22	0x3da85cae	0.08220802
23	0xbdac1a6c	-0.08403477
24	0x3bd2a682	0.0064285407
25	0x3d67d8cd	0.05660324
26	0x3d075927	0.033044007
27	0x3d38e043	0.045135748
28	0xbcedbd47	-0.029020919
29	0x3d746ae6	0.05967226
30	0x3d64bea6	0.05584588
31	0xbd8cf458	-0.06882542
32	0xbd2643d0	-0.040592015
33	0x3b6c33dc	0.0036041653
34	0xbdc5700e	-0.09640513
35	0xbd0418a6	-0.03225007
36	0xbe08a536	-0.13344273
37	0x3dd68a85	0.10475639
38	0x3e0d2068	0.13781893
39	0x3d540294	0.05176027
40	0x3cd1de69	0.025618749
41	0x3d93a2f3	0.072088145
42	0xbd93d62f	-0.07218587
43	0x3db7ed28	0.08980781
44	0x3dadf114	0.08493248
45	0x3c5b2aab	0.013376872
46	0xbcd11e39	-0.025527107
47	0xbca12056	-0.01966874
48	0xbd59b7f6	-0.053153954
49	0x3cf31c66	0.029676627
50	0x3cbfcf25	0.023414204
51	0xbe15c687	-0.14626513
52	0x3d00a6d2	0.031409092
53	0x3ce8fc83	0.02844072
54	0x3dcd0d62	0.10012318
55	0xbd7c5086	-0.06160023
56	0xbd928b11	-0.07155431
57	0x3dbdd646	0.09269385
58	0x3e2b9935	0.16757663
59	0x3d9c6a71	0.076374896
60	0x3d6403e7	0.055667784
61	0x3ddf6c72	0.10909356
62	0x3d88f071	0.066864856
63	0x3d028e0b	0.031873744

actor.linears.2.weight f4 [1, 64]
0	0x3e33d3d8	0.1756128
1	0xbe8ea51b	-0.2786034
2	0xbe89f95f	-0.26948068
3	0x3eaae93d	0.33381072
4	0xbec7789e	-0.3895921
5	0xbe9e7557	-0.30948898
6	0xbeb126a6	-0.345998
7	0x3e879702	0.26482397
8	0x3e9a36d0	0.30119944
9	0x3eb14aaa	0.34627277
10	0xbeb8342c	-0.35977304
11	0xbeb43e48	-0.35203767
12	0xbe902db0	-0.28159857
13	0xbea3a496	-0.31961507
14	0xbe9b31b5	-0.3031136
15	0x3ed63a51	0.41841367
16	0x3eaa0d28	0.33213162
17	0x3ec966c0	0.39336205
18	0x3eb23355	0.34804788
19	0x3e9946ca	0.2993682
20	0x3eb5147a	0.35367185
21	0x3e8a9987	0.27070257
22	0x3ea03abb	0.31294808
23	0xbeb98e7f	-0.36241528
24	0xbea14731	-0.31499627
25	0xbeb35bd8	-0.3503101
26	0xbe91ef30	-0.28502798
27	0xbe9c9d82	-0.3058892
28	0x3eb87c6a	0.3603242
29	0x3eaa61d7	0.3327777
30	0xbe78b45b	-0.2428755
31	0xbe8e0816	-0.27740544
32	0xbec33894	-0.38129103
33	0x3e86a3cd	0.26296845
34	0xbe9805d7	-0.29691955
35	0x3eb79d12	0.35862023
36	0x3e9966a4	0.2996112
37	0x3ed66956	0.4187724
38	0xbec3feed	-0.3828043
39	0x3e8c72a8	0.27431226
40	0x3e94b106	0.29041308
41	0xbea31ee7	-0.31859514
42	0x3e8f6237	0.2800462
43	0xbe9614b9	-0.29312685
44	0xbe95a691	-0.29228643
45	0xbea13dd5	-0.31492487
46	0xbe91fbd4	-0.28512442
47	0xbe851e7e	-0.25999826
48	0x3eb614c9	0.35562733
49	0xbe942c70	-0.28940153
50	0x3e99b25b	0.30018887
51	0x3e829c3a	0.25509816
52	0x3e84fe57	0.25975296
53	0x3e8dcfb0	0.27697515
54	0xbeb1f6dc	-0.3475865
55	0xbeca7d12	-0.39548546
56	0xbe95fe11	-0.292954
57	0xbeb3c3a0	-0.35110188
58	0xbe916d11	-0.28403524
59	0xbea09848	-0.3136618
60	0x3eb4834a	0.35256416
61	0xbe8e1d0a	-0.2775653
62	0xbee75981	-0.45185474
63	0xbec3a06f	-0.3820834

critic.linears.0.weight f4 [64, 16]
0	0xbd7db86c	-0.061943457
1	0x3b46bc97	0.003032481
2	0xbe750d1a	-0.23930779
3	0x3eed1e1f	0.46312043
4	0xbce485b1	-0.02789578
5	0x3e1b3669	0.15157475
6	0x3e02883a	0.12747279
7	0x3e4fc277	0.20289026
8	0x3d5bcb71	0.053660814
9	0xbca56b9e	-0.020192917
10	0x3d390c64	0.045177832
11	0xbda58c2f	-0.080833785
12	0xbe4aa98f	-0.19791244
13	0xbd64abcd	-0.055827904
14	0xbde9f154	-0.11422983
15	0xbe3b9f49	-0.18322481
16	0xbca3832e	-0.019960012
17	0xbe20e408	-0.15711987
18	0xbf1a7bfa	-0.60345423
19	0x3f0901f2	0.53518593
20	0xbe28ca6e	-0.16483471
21	0xbe7c0bfb	-0.24613945
22	0xbd5deb37	-0.054179396
23	0x3ce17df1	0.027525874
24	0x3e18359d	0.14864202
25	0x3d4710ab	0.04859988
26	0x3e2cb42b	0.16865604
27	0xbe0f3fbf	-0.13989161
28	0xbd9e0429	-0.07715637
29	0xbe852fb9	-0.26012972
30	0x3e23157f	0.15926169
31	0xbde1f56e	-0.1103314
32	0x3d2eb2da	0.042651035
33	0xbcbd6036	-0.023117166
34	0x3f048f4e	0.51781166
35	0xbe27b055	-0.16375859
36	0xbe049801	-0.1294861
37	0x3cd05d6e	0.025435176
38	0xbe4161be	-0.18884942
39	0xbe67bd67	-0.22630845
40	0xbd13136b	-0.03590719
41	0x3c8bfb92	0.017087732
42	0x3c6d1e91	0.01447262
43	0x3db9d829	0.090744324
44	0xbd254e7a	-0.040358044
45	0x3dd62552	0.10456337
46	0xbdef6f80	-0.11691189
47	0x3e287f96	0.1645492
48	0xbdb049da	-0.08607836
49	0xbd5434a8	-0.05180803
50	0x3eabb225	0.3353435
51	0xbe57875f	-0.21047734
52	0xbe1152d2	-0.1419175
53	0x3e67dd04	0.22642905
54	0x3d680760	0.05664766
55	0xbea28fee	-0.31750435
56	0xbe3416b8	-0.17586792
57	0xbe0f2864	-0.13980252
58	0x3d1e7c92	0.03869302
59	0x3e10a409	0.14125074
60	0x3dbc7d1f	0.092035525
61	0x3cc49066	0.023994636
62	0xbe539a05	-0.20664223
63	0x3e24c2b0	0.16089892
64	0xbd239d05	-0.039944667
65	0xbe4e51e6	-0.2014843
66	0x3d34d241	0.044145826
67	0x3e63722f	0.22211526
68	0x3cdb16f0	0.026744336
69	0xbda7cb51	-0.081930764
70	0x3e249756	0.16073355
71	0xbea8b794	-0.3295256
72	0x3c9a5ded	0.018843615
73	0xbe4b9122	-0.19879583
74	0x3e0dd521	0.13850833
75	0xbe7b158e	-0.24519941
76	0x3e4746d6	0.19460616
77	0x3d8f5108	0.06997877
78	0xbcb25161	-0.02176732
79	0x3e69d3e4	0.22834736
80	0xbc97b947	-0.018520964
81	0x3e8c1569	0.27360085
82	0x3e2c2249	0.16809954
83	0xbf65c6ff	-0.8975677
84	0xbe12a55c	-0.14320892
85	0xbe67216b	-0.22571342
86	0xbe7e29e9	-0.24820675
87	0xbd6407c4	-0.05567147
88	0x3e1c75d4	0.15279323
89	0xbdb09965	-0.08623008
90	0xbdb1bc26	-0.086784646
91	0xbe531447	-0.20613204
92	0xbdace65d	-0.08442376
93	0xbda3f936	-0.080065176
94	0xbd60e4bf	-0.05490565
95	0xb9c3d6af	-0.0003735325
96	0xbe679b2a	-0.22617784
97	0x3e75eb44	0.24015528
98	0xbe9a72f6	-0.30165833
99	0x3d96f5b1	0.07371081
100	0xbe3cb6d7	-0.18429123
101	0xbda34a39	-0.07973141
102	0xbe91f1e0	-0.28504848
103	0xbdbb7867	-0.09153824
104	0x3e312786	0.17300233
105	0xbdbd744e	-0.09250699
106	0x3d5dc9c1	0.054147486
107	0xbda2018c	-0.07910451
108	0xbe1c2bc8	-0.15251076
109	0x3de6609f	0.11248898
110	0x3d809c10	0.062797666
111	0x3c850f36	0.016242605
112	0x3e287e25	0.1645437
113	0xbdbb1bbf	-0.091361515
114	0x3f066046	0.5249065
115	0xbe9c9145	-0.30579582
116	0x3e349afd	0.17637248
117	0x3d7440ae	0.059631996
118	0xbe7d11f0	-0.24713874
119	0xbe2c55dc	-0.16829628
120	0x3e74c1eb	0.23902099
121	0xbdb941e2	-0.09045769
122	0x3e2a7ed6	0.16649947
123	0xbe6f2082	-0.23352244
124	0xbe2217da	-0.15829411
125	0x3dba6d34	0.0910286
126	0x3da7059c	0.08155367
127	0xbe2b05e2	-0.16701463
128	0xbb6777c7	-0.0035319196
129	0x3d0f4937	0.034981932
130	0x3e95a691	0.29228643
131	0xbef2a114	-0.47388518
132	0x3e2ff411	0.17182948
133	0x3e3ecc8c	0.18632716
134	0x3e870c64	0.2637664
135	0x3ce1f802	0.02758408
136	0x3e74cbf9	0.23905934
137	0xbe9a6510	-0.3015523
138	0xbd821f3e	-0.06353615
139	0x3d8b7b89	0.06810672
140	0xbdee0a9c	-0.11623117
141	0xbe0bb9c8	-0.13645089
142	0xbcdeb481	-0.02718568
143	0xbc52ecc1	-0.012873829
144	0x3e0cd359	0.13752498
145	0xbe0ac01f	-0.13549851
146	0x3e913470	0.2836032
147	0xbd9d96f2	-0.07694806
148	0xbd275cbb	-0.04085992
149	0x3e2b23bb	0.16712849
150	0x3e73b57f	0.23799704
151	0xbe994489	-0.299351
152	0x3e4cdaea	0.20005384
153	0x3d941322	0.07230212
154	0x3e1b42ed	0.15162249
155	0x3df950f4	0.12173644
156	0xbb915f9d	-0.004436447
157	0x3e224497	0.15846477
158	0xbdd15165	-0.10220603
159	0x3ce155a3	0.027506655
160	0xbe198ccb	-0.14995115
161	0xbcf8a9f6	-0.030354481
162	0xbe38dd55	-0.18053181
163	0xbd4dfa2e	-0.050287418
164	0xbd35194c	-0.044213578
165	0x3e648c3a	0.22319117
166	0x3cdfc332	0.027314756
167	0xbd9abf8f	-0.07556068
168	0x3d4dac5f	0.050213214
169	0x3df78e74	0.12087718
170	0xbe6aaf44	-0.22918421
171	0xbe531a91	-0.20615603
172	0x3c0e9f49	0.008704969
173	0xbe1ac184	-0.15112883
174	0x3e531315	0.20612748
175	0x3e068dc6	0.1314002
176	0xbdd4f7ac	-0.10398802
177	0x3e10bdd6	0.14134917
178	0xbd052c00	-0.032512665
179	0x3e9839bf	0.29731557
180	0xbe043d5f	-0.12914036
181	0xbe47a593	-0.19496755
182	0xbdd4fb20	-0.10399461
183	0x3e1df148	0.15424073
184	0xbc4ae72a	-0.012384215
185	0xbdcdc6b6	-0.10047667
186	0xbdd2d709	-0.10294921
187	0xbd1fd182	-0.03901816
188	0xbc1341f5	-0.008987893
189	0xbde50a3b	-0.11183592
190	0xbe3bf4a1	-0.18355037
191	0xbe98f426	-0.2987377
192	0x3d11a44c	0.035557076
193	0xbdfec77a	-0.12440391
194	0xbe75c57c	-0.24001116
195	0x3ebc17be	0.36736864
196	0xbdeda928	-0.116045296
197	0xbe4fba2d	-0.20285864
198	0x3d104d18	0.035229772
199	0x3e2c1d6f	0.16808103
200	0x3e3447dc	0.17605537
201	0x3c8fbf80	0.017547369
202	0x3d43f2ac	0.04783885
203	0xbd31385f	-0.04326665
204	0x3dc5aebd	0.09652469
205	0xbe874e75	-0.26427045
206	0xbbae02d9	-0.005310398
207	0x3e3981e2	0.18115953
208	0x3d2f7a02	0.042840965
209	0x3df564c6	0.11982112
210	0x3eef3954	0.46723425
211	0xbebeb0e1	-0.37244323
212	0x3d2f33ff	0.042774197
213	0x3d4a4f4d	0.049392033
214	0x3e35682e	0.17715523
215	0x3e08058c	0.13283366
216	0x3e5bb7c4	0.2145682
217	0x3e4b0901	0.19827653
218	0xbe4f28ce	-0.2023041
219	0x3db842b5	0.08997098
220	0xbe27faa1	-0.16404201
221	0xbb8af66f	-0.004240803
222	0xbe311387	-0.17292605
223	0xbe6ccec1	-0.23125745
224	0xbe031ce9	-0.12803997
225	0xbe8cac26	-0.2747509
226	0x3dc02294	0.09381595
227	0x3da19372	0.07889451
228	0x3db4d301	0.08829308
229	0x3e10fcea	0.14158979
230	0x3c2acfd4	0.010425527
231	0xbc86d547	-0.01645912
232	0xbe2a3aae	-0.16623947
233	0x3e655a90	0.22397828
234	0xbe2e7132	-0.17035368
235	0x3d339791	0.043845717
236	0x3b92a320	0.0044750124
237	0xbb81d9fd	-0.003962754
238	0x3d7efec8	0.062254697
239	0xbe41f2ee	-0.18940327
240	0x3e1a4825	0.15066583
241	0x3da511d9	0.08060045
242	0x3c772de5	0.015086626
243	0xbd4582de	-0.048220508
244	0xbe0775f4	-0.1322859
245	0x3de1b3a6	0.11020593
246	0x3e3294f9	0.17439641
247	0xbe90d8cf	-0.28290412
248	0x3d405c28	0.046962887
249	0xbe327a2d	-0.17429419
250	0x3dce19ae	0.10063492
251	0xbc84925a	-0.016183067
252	0x3e20a5fc	0.15688318
253	0xbc5fe1b3	-0.013664651
254	0xbde1ed35	-0.11031572
255	0xbe226570	-0.15859008

critic.linears.0.bias f4 [64]
0	0xbce57f1d	-0.028014714
1	0xbd9e9c42	-0.077446476
2	0x3e0d9aad	0.13828535
3	0x3e15c2dc	0.14625114
4	0xbde14d74	-0.11001101
5	0xbcd9ce7e	-0.026587721
6	0x3d764eb1	0.06013364
7	0x3da1482a	0.07875092
8	0x3e73e3f9	0.23817433
9	0xbd9acf18	-0.07559031
10	0xbd8855ba	-0.06656976
11	0xbd9035db	-0.07041522
12	0x3e508fe8	0.20367396
13	0x3b585dba	0.003301485
14	0x3dde34e2	0.1084993
15	0x3cb92253	0.022599375
16	0x3c4c1bcf	0.012457802
17	0x3d235be5	0.03988256
18	0xbcdf82b6	-0.027284008
19	0xbdc7abaa	-0.09749539
20	0x3d9db2f7	0.077001505
21	0x3df6cc05	0.120506324
22	0xbe3c945f	-0.18415974
23	0xbe29ace2	-0.16569856
24	0x3da4aab0	0.080403686
25	0x3bd9e85b	0.0066500134
26	0xbe708c38	-0.23490989
27	0xbc3ad71e	-0.011403827
28	0xbd4ac457	-0.04950365
29	0x3d721b54	0.059108093
30	0xbdf93175	-0.12167636
31	0x3db27448	0.08713585
32	0xbe14e9c6	-0.14542302
33	0xbe3f0ea3	-0.18657927
34	0xbe0dba68	-0.1384064
35	0x3d46097d	0.048348892
36	0xbdab5e7f	-0.08367633
37	0xbcceda24	-0.025250502
38	0x3e153209	0.14569868
39	0xbe2ec3d9	-0.17066897
40	0x3e11b410	0.14228845
41	0x3e165b90	0.14683366
42	0x3c81c074	0.01583884
43	0xbd7a72a1	-0.061144475
44	0x3d824548	0.063608706
45	0xbe2f2dc8	-0.17107308
46	0xbe2ae3ec	-0.16688508
47	0xbd758667	-0.05994263
48	0xbc243a66	-0.010023689
49	0x3cb44d09	0.02200939
50	0x3e636ad7	0.22208725
51	0xbc61d838	-0.013784461
52	0xbcb43002	-0.021995548
53	0xbc842eeb	-0.016135653
54	0xbe2a5f1f	-0.16637848
55	0x3da756e9	0.08170874
56	0x3e212756	0.15737662
57	0x3e761579	0.24031629
58	0x3cbd1e3a	0.023085702
59	0x3de66552	0.11249794
60	0x3dcecf0a	0.10098083
61	0xbd8fe374	-0.07025805
62	0xbe16e7ad	-0.14736815
63	0xbc79e14d	-0.01525147

critic.linears.1.weight f4 [64, 64]
0	0xbdac44de	-0.08411573
1	0xbdf9b8d1	-0.12193454
2	0x3d98b99b	0.074572764
3	0xbdd33647	-0.10313087
4	0xbcd36d6b	-0.02580901
5	0x3d0d337d	0.03447293
6	0x3bddaec1	0.006765217
7	0xbdb9b5e0	-0.09067893
8	0x3d9d9f09	0.07696349
9	0xbdbd36b9	-0.09238953
10	0xbda31caa	-0.079644516
11	0x3dc431d3	0.09579816
12	0x3c43ef32	0.011958884
13	0x3d8110b4	0.06302014
14	0xbdb7a4b2	-0.0896696
15	0xbcec5076	-0.02884696
16	0x3dd70125	0.10498265
17	0x3d1eceba	0.03877137
18	0x3de3daed	0.11125741
19	0xbe1270d0	-0.14300847
20	0xbdf370fc	-0.118867844
21	0xbddd52c5	-0.10806803
22	0xbdc4a350	-0.09601462
23	0x3d8d7ef1	0.06908978
24	0x3ca2c910	0.019871265
25	0x3e19302b	0.14959781
26	0xbcefdccd	-0.02928009
27	0x3d2331ff	0.039842602
28	0xbd6e9dfe	-0.05825614
29	0x3cca25f6	0.024676304
30	0x3dcd45b5	0.10023061
31	0xbcc9af39	-0.024619685
32	0x3d728617	0.05920991
33	0x3dc3bcaf	0.09557473
34	0x3d0602f5	0.032717664
35	0xbdd598fb	-0.10429569
36	0x3c8194d4	0.015818037
37	0x3dbf1a38	0.09331173
38	0x3ddaf893	0.10691943
39	0xbdaa0221	-0.08301187
40	0xbd351244	-0.044206873
41	0x3da267ae	0.079299316
42	0x3d9eecb2	0.0775999
43	0xbd0af678	-0.033926457
44	0xbe1d8692	-0.15383366
45	0xbd027b6d	-0.03185599
46	0x3d05a50d	0.032628108
47	0x3d804c21	0.062645204
48	0x3d616e71	0.055036966
49	0x3db5824c	0.08862743
50	0x3cf7f0d0	0.030266196
51	0x3dd08240	0.10181093
52	0x3c53d5bb	0.012929375
53	0xbd17c42d	-0.037052322
54	0x3c117ab9	0.008879357
55	0x3c7be3eb	0.015374164
56	0xbda0149c	-0.07816431
57	0x3d1f8c57	0.038952198
58	0x3c52eda7	0.012874044
59	0x3dc5562c	0.096355766
60	0x3dab1b0a	0.08354767
61	0xbc2b9a1b	-0.010473753
62	0x3d107dec	0.03527634
63	0x3d51c332	0.051211543
64	0x3d79b4d0	0.06096345
65	0xbd8a3f9c	-0.06750414
66	0x3da342c1	0.07971717
67	0xbdf5d6e7	-0.1200388
68	0x3dc2de45	0.09515051
69	0xbe19a1b4	-0.15003091
70	0xbda348e6	-0.07972889
71	0xbd8ec457	-0.069710426
72	0x3db7c750	0.08973563
73	0x3cc3673f	0.023852943
74	0x3d623300	0.05522442
75	0x3d3002f7	0.042971577
76	0xbdc4f703	-0.09617426
77	0x3d4233cb	0.047412675
78	0x3dc5d2d6	0.096593544
79	0x3d884da4	0.06655434
80	0xbd673f0d	-0.056456614
81	0xbcf08714	-0.029361285
82	0xbdad40b7	-0.08459609
83	0x3d5a569b	0.05330525
84	0x3dd9355e	0.10605882
85	0xbd4b51cc	-0.049638554
86	0x3c6e166a	0.014531711
87	0xbdc43b24	-0.09581593
88	0xbd0fcb46	-0.035105966
89	0x3e60a824	0.2193914
90	0xbd46a288	-0.048494846
91	0x3bf94a40	0.0076077282
92	0xbdaa4684	-0.08314231
93	0x3d5327c8	0.05155161
94	0xbd2e6863	-0.04258002
95	0xbdd57da9	-0.104243584
96	0xbc667e66	-0.014068222
97	0x3d6cd003	0.057815563
98	0xbdc5c157	-0.09656017
99	0x3a712431	0.00091988133
100	0x3c225c2f	0.009909674
101	0xbceec5ce	-0.029147055
102	0x3e09e3e7	0.13465844
103	0xbd0a78d8	-0.03380665
104	0xbd07de6f	-0.033171114
105	0xbcc81881	-0.024425747
106	0x3dff96d4	0.1247994
107	0x3d89933a	0.06717534
108	0x3d64df3d	0.05587696
109	0xbddbd772	-0.10734452
110	0xbc9aaeca	-0.018882174
111	0xbd987f0a	-0.07446106
112	0x3d2ae9eb	0.041726988
113	0xbdbe800f	-0.09301769
114	0xbd2822e7	-0.04104891
115	0xbe0bd8ce	-0.13656923
116	0x3c8c59b4	0.017132618
117	0xbd16ea20	-0.036844373
118	0x3cec0569	0.028811174
119	0x3cf59346	0.029977452
120	0xbd9fe4f1	-0.07807339
121	0x3dc01cc4	0.093804866
122	0xbd3a88d1	-0.045540635
123	0xbdc9f2f2	-0.09860791
124	0xbcf57e56	-0.029967468
125	0xbdf024ac	-0.117257446
126	0x3dd560a5	0.10418824
127	0x3aa1add1	0.0012335127
128	0xbdd99f8e	-0.10626136
129	0xbdf7ed0b	-0.12105759
130	0x3d008e1c	0.031385526
131	0x3e6b0803	0.22952275
132	0xbb956ce0	-0.004560098
133	0x3dca2323	0.09869983
134	0x3d4d25a0	0.05008471
135	0x3e389169	0.1802422
136	0x3d0331d4	0.03202994
137	0x3dbf9041	0.09353686
138	0x3dcb1c1b	0.0991747
139	0xbc9389b3	-0.018009996
140	0xbd064a1c	-0.03278552
141	0x3a92b91b	0.0011194082
142	0x3e1b9c81	0.1519642
143	0x3d871961	0.065966375
144	0xbdb6563f	-0.08903169
145	0x3e219954	0.15781146
146	0xbdfb3c0e	-0.12267314
147	0xbecaf2f5	-0.39638487
148	0xbd8db115	-0.06918541
149	0xbdf60f7d	-0.12014673
150	0x3de7263a	0.11286588
151	0xbd990dd4	-0.07473341
152	0x3d894399	0.06702346
153	0x3e5e4dd2	0.21709374
154	0xbdf837c0	-0.121200085
155	0xba0c6701	-0.0005355925
156	0x3dadb7cd	0.08482323
157	0xbe6098db	-0.2193331
158	0xbe611ded	-0.21984072
159	0xbdd13d00	-0.10216713
160	0xbd7a29f1	-0.061075155
161	0x3de3011e	0.110841975
162	0x3d873bf7	0.06603234
163	0xbe80fc17	-0.2519233
164	0xbe0a39f5	-0.13498671
165	0xbd7fdacd	-0.062464524
166	0xbda01377	-0.078162126
167	0xbbbe85dd	-0.0058142976
168	0x3e127d88	0.14305699
169	0xbe0f4cbf	-0.1399412
170	0xbe3abfb4	-0.18237191
171	0x3dfb0176	0.12256138
172	0xbc83f405	-0.016107569
173	0xbd7a5a53	-0.061121296
174	0x3ce4a591	0.02791098
175	0xbd09e436	-0.033664905
176	0x3d6aca54	0.05732186
177	0x3d95e7c6	0.07319598
178	0xbe767e67	-0.24071656
179	0x3cdb0d78	0.02673982
180	0x3eabd10e	0.33557934
181	0x3e5acb1e	0.21366546
182	0xbe16199e	-0.1465821
183	0xbe0d002a	-0.13769594
184	0xbe72405d	-0.23657365
185	0xbe3cf5df	-0.18453167
186	0xbcaf003a	-0.021362413
187	0xbda4cf24	-0.080473214
188	0x3da527c2	0.08064224
189	0x3d9000c3	0.07031395
190	0x3cc8f3b7	0.024530275
191	0x3a95408e	0.0011387037
192	0x3dba81fd	0.091068245
193	0x3c8e1ca7	0.017347647
194	0xbd9d046a	-0.076668575
195	0x3d294330	0.04132384
196	0x3dd9e0a3	0.10638549
197	0xbd77e7c3	-0.06052376
198	0x3d3c53a9	0.045978222
199	0x3d17f9c9	0.037103448
200	0x3e1b59c9	0.15170969
201	0x3e16edcb	0.14739148
202	0xbd065e71	-0.03280491
203	0x3d0550ff	0.032547947
204	0xbde1fb25	-0.1103423
205	0x3c4fcaec	0.012682658
206	0xbd865a16	-0.06560151
207	0xbdc1dedc	-0.09466335
208	0xbdc0d04d	-0.0941473
209	0xbda1641d	-0.07880423
210	0xbdb4392d	-0.08799968
211	0x3b81eaa6	0.00396474
212	0x3dfc048c	0.12305555
213	0x3d89dc14	0.0673143
214	0xbe0d7b7c	-0.13816637
215	0xbd862d9e	-0.065516695
216	0xbd4a886b	-0.049446505
217	0x3d1c8d1b	0.038220506
218	0x3d6242ee	0.05523961
219	0x3cf6d5c0	0.03013122
220	0xbde70010	-0.11279309
221	0x3cbb9e4e	0.022902634
222	0x3ddfc0a3	0.109254144
223	0xbd5602c0	-0.052248716
224	0x3e0096c1	0.12557508
225	0x3d192b16	0.037394606
226	0x3d5dab43	0.054118406
227	0x3caad514	0.020853557
228	0xbdfa4b2f	-0.122213714
229	0xbd11a12d	-0.0355541
230	0xbab4d72c	-0.0013797036
231	0xbddfb79c	-0.109236926
232	0xbd4b5a6c	-0.04964678
233	0xbde7fe9d	-0.113278605
234	0x3e071e93	0.13195257
235	0x3d0f7ed6	0.03503307
236	0xbd47795d	-0.048699725
237	0xbd889844	-0.06669667
238	0x3d1002c5	0.03515889
239	0xbde5760c	-0.11204156
240	0xbd93ee60	-0.07223201
241	0xbd5b0eca	-0.0534809
242	0x3c27fcf8	0.010253184
243	0xbcdc1d70	-0.026869506
244	0x3da5e37d	0.081000306
245	0x3d859be2	0.06523873
246	0x3c947c27	0.018125607
247	0x3d0e53d4	0.034747913
248	0xbce043ef	-0.027376143
249	0x3dfd2d93	0.12362208
250	0x3df9b7b7	0.12193244
251	0x3e04054a	0.12892643
252	0x3d2f23c0	0.042758703
253	0x3d81443b	0.06311842
254	0xbd377a41	-0.044794325
255	0x3e2dc315	0.16968949

critic.linears.1.bias f4 [64]
0	0x3d0d5376	0.034503423
1	0xbde60a1f	-0.11232399
2	0xbd228379	-0.039676163
3	0xbc5741c8	-0.013138242
4	0xbdccdd02	-0.100030914
5	0xbe0582f8	-0.13038242
6	0xbc9c0fc7	-0.019050492
7	0x3d50d216	0.050981604
8	0x3da2b749	0.07945115
9	0x3d2c8a14	0.04212387
10	0x3d5b313c	0.05351375
11	0xbde7cb0a	-0.113180235
12	0x3c13868e	0.009004248
13	0x3dcdc5f4	0.10047522
14	0xbdc6606d	-0.096863605
15	0x3d100a9b	0.035166364
16	0x3dcb3c3c	0.09923598
17	0xbdc4e200	-0.096134186
18	0xbd4aff1e	-0.049559705
19	0xbdac3f36	-0.08410494
20	0x3d041983	0.032250892
21	0xbdd35f66	-0.1032093
22	0x3e02931e	0.12751433
23	0x3dd76835	0.10517923
24	0xbbddf0dd	-0.006773098
25	0xbc06497c	-0.008196231
26	0xbcb79a0d	-0.022412324
27	0xbe07ea2f	-0.13272928
28	0xbe020fec	-0.12701386
29	0xbdb2350f	-0.087015264
30	0xbd4c097b	-0.04981373
31	0x3d9c8800	0.076431274
32	0xbd4748af	-0.0486533
33	0xbe0ac37c	-0.13551134
34	0xbd6e7a8b	-0.058222335
35	0xbd02092f	-0.03174704
36	0xbca46d96	-0.020071786
37	0xbce17392	-0.027520929
38	0x3dab214f	0.083559625
39	0x3c02b4af	0.007977649
40	0x3dbab4cd	0.09116516
41	0xbbfe0d24	-0.0077530313
42	0x3e027cfe	0.12742993
43	0x3d39cadf	0.04535949
44	0xbd28f7f1	-0.04125208
45	0x3c800ce5	0.015631149
46	0x3c574ca3	0.01314083
47	0x3dd77bca	0.10521658
48	0xbe107054	-0.1410535
49	0x3d7453b3	0.059650134
50	0x3e10936c	0.14118737
51	0x3d433600	0.04765892
52	0xbd9aa133	-0.075502776
53	0x3d7b4a73	0.061350297
54	0x3dcc9c28	0.09990722
55	0xbaa60f17	-0.0012669292
56	0x3d0de8d7	0.03464588
57	0x3e11f436	0.14253315
58	0x3e1004c6	0.14064321
59	0xbd947666	-0.07249145
60	0xbd0403fa	-0.032230355
61	0xbb42c432	-0.0029718992
62	0xbd003d4a	-0.03130845
63	0xbd1fed1d	-0.03904449

critic.linears.2.weight f4 [1, 64]
0	0x3a129a37	0.0005592438
1	0xba1e3f1c	-0.0006036626
2	0xbe0e4933	-0.13895111
3	0xbdba0645	-0.09083227
4	0x3c0cc0a1	0.008590848
5	0x3d479524	0.048726216
6	0x3b961835	0.0045805224
7	0x3a300ebc	0.0006716063
8	0x3b83f299	0.0040267226
9	0x3c0dd078	0.00865566
10	0xbd99b9cb	-0.0750614
11	0x3ce38855	0.02777497
12	0x3a05a87c	0.00050986535
13	0x3dcb0029	0.0991214
14	0xbd6e7187	-0.058213737
15	0xbd31297b	-0.04325245
16	0xbdcd6c63	-0.10030439
17	0xba1fed6b	-0.00061007467
18	0x3a8a2006	0.0010538108
19	0x3d7f3945	0.062310476
20	0x3d36cc5c	0.044628486
21	0x3bc845ec	0.006111851
22	0xbdb82d9f	-0.089930765
23	0x3d813cb8	0.06310409
24	0x3dc23c45	0.09484152
25	0xb98904da	-0.0002613429
26	0x3d9d62a7	0.07684832
27	0x3db52999	0.08845825
28	0x3da9de84	0.082943946
29	0x3daa82a1	0.08325697
30	0x3a53a892	0.000807413
31	0xbdc1c51a	-0.09461422
32	0xb91125db	-0.0001384238
33	0x3d56860d	0.052373935
34	0xbbbe9c4d	-0.0058169723
35	0x3d901835	0.07035867
36	0x3aa44e93	0.0012535624
37	0x3d6f31d4	0.05839713
38	0x3bfba369	0.007679392
39	0x3a445c66	0.0007490575
40	0xbd57207b	-0.05252121
41	0xbccb14c2	-0.024790172
42	0xbdb42ce8	-0.08797628
43	0xbc0cb2de	-0.008587567
44	0xbe0dd6e7	-0.1385151
45	0x3d9ebdaf	0.07751023
46	0x351d9a68	5.871175e-07
47	0xbb24eab0	-0.0025164299
48	0x3e10bb46	0.14133939
49	0xbbae620c	-0.0053217467
50	0xbdf515bb	-0.119670354
51	0x3dc9f7c9	0.098617144
52	0x386a03e2	5.5793564e-05
53	0x38208934	3.8274753e-05
54	0xbc10d7ba	-0.008840496
55	0x3a550ab1	0.00081268983
56	0x3cf1283e	0.029438134
57	0xbda8324a	-0.08212717
58	0xbdf44600	-0.11927414
59	0xbd41d345	-0.047320623
60	0x3b131f8e	0.0022449228
61	0xbaea548a	-0.0017877978
62	0x3d082489	0.033237968
63	0x3cfc632d	0.03080901
