trained_network/SD2/s2_a10_dim128_mix_train_dur2_new_state_seed1.pth (torch, 421241 bytes, 26 tensors)

feature_exact.j_encoder.layers.0.weight f4 [64, 14]
000000 81 a6 20 3e 91 cb 80 be 44 53 6a 3e 2e bc d0 3d
       0.15688516 -0.2515531 0.22883326 0.101921424
000010 1d 9d 15 3e 20 95 b8 3d 65 d1 a5 bd b9 49 8c be
       0.14610715 0.09012818 -0.080965795 -0.27399996
000020 25 08 a5 3d 15 4d 87 be 6c 64 04 3e 82 f0 ab bc
       0.08058194 -0.26425996 0.12928933 -0.020988706
000030 b5 e2 a1 be 24 7b 01 3e ef ce 08 bd 8a ae c0 bd
       -0.31618276 0.1264463 -0.033400472 -0.09408291
000040 2b 89 50 3e 87 d7 a3 bd 82 af 91 be d0 4f 5a 3d
       0.20364825 -0.08000093 -0.28454214 0.05329877
000050 93 fc 1a 3b 96 c9 e7 3c e0 f3 64 bd 31 fe 93 be
       0.002364908 0.028294366 -0.05589664 -0.2890487
000060 5b f7 a7 bc ab d3 ce 3c b3 7a 4a be 51 86 ae 3b
       -0.02050369 0.025247416 -0.19773369 0.0053260704
000070 85 44 14 3e 46 66 89 3e e4 f8 54 be 85 0b 01 be
       0.14479263 0.2683584 -0.20798069 -0.1260205
000080 d8 90 da bd 3d d6 f3 bc 20 c5 00 be 3f 30 82 be
       -0.10672158 -0.029765243 -0.12575197 -0.25427434
000090 dc fa 0e bd 12 0d 27 3e 13 79 87 bd c0 76 c9 bd
       -0.034907207 0.1631358 -0.0661489 -0.09837103
0000a0 be 01 6b be e2 19 ac be d5 d2 62 3e 04 f1 28 be
       -0.22949883 -0.33613497 0.22150739 -0.1649819
0000b0 48 87 60 be 9d 2c ee 3d 36 f6 06 be 98 81 3a bc
       -0.21926606 0.11629603 -0.1317986 -0.011383437
0000c0 50 b1 37 be 58 e8 a4 bd 01 d2 5e 3e 5c 78 89 be
       -0.17938733 -0.080521286 0.21759798 -0.2684964
0000d0 cc 89 47 be a5 6d 87 3d 6e 24 9f 3c c5 29 db 3c
       -0.19486159 0.0661271 0.01942655 0.026753316
0000e0 b9 d9 29 3e 7b 9d 8b 3d 18 62 dc 3c 26 fc 8a be
       0.16586961 0.068171464 0.026902243 -0.271455
0000f0 8a 8b 70 3e 68 c9 5b bd a0 80 0b be 3b a6 5a bd
       0.2349073 -0.053658873 -0.13623285 -0.053381186
000100 87 3d 12 be 10 3d 30 be cb 59 2b 3e a5 b9 26 3e
       -0.14281283 -0.17210793 0.16733472 0.16281755
000110 35 03 82 be 53 8d 2a be ce d4 33 3d d3 39 06 be
       -0.25393072 -0.16655473 0.04390412 -0.13107996
000120 59 50 02 be 38 9f 62 be 00 a9 9c bd 8b 30 10 3d
       -0.12725963 -0.2213105 -0.07649422 0.035202544
000130 0b 56 f4 3d 58 c0 04 3e 38 52 71 3d e7 14 51 be
       0.11930474 0.12963998 0.0589163 -0.2041813
000140 b8 13 84 3d e5 74 48 bd 42 55 ff 3d c7 d1 42 3e
       0.064490736 -0.048939604 0.124674335 0.19025336
000150 b8 19 c8 3d ed d1 c7 3d f8 d2 84 be ce 19 8d be
       0.097705305 0.09756837 -0.25942206 -0.2755875
000160 7c c7 7d be 47 de c6 bd e3 95 af bd 02 37 0e 3d
       -0.24783128 -0.09710365 -0.085735105 0.03472043
000170 91 5f 04 be e9 14 60 3d e8 5a 34 bd 11 c0 9b 3d
       -0.1292708 0.05470744 -0.044032007 0.07604993
000180 83 9b 15 3e e3 26 c6 3d 1d 4e d2 3d 16 13 b2 bd
       0.14610104 0.09675386 0.10268805 -0.086950466
000190 b9 74 75 be 2d 2f 76 be 69 64 68 be 83 d9 e3 bd
       -0.23970307 -0.24041434 -0.22694553 -0.111254714
0001a0 ef 07 22 3e bc 3e 37 3e de a6 29 3e 58 31 8a 3e
       0.15823339 0.17895025 0.16567561 0.2699077
0001b0 19 92 c6 3c 12 18 1b bc fa f4 f3 bd 19 6e e4 bc
       0.024239587 -0.009466188 -0.1191196 -0.02788453
0001c0 bb 72 87 be 39 70 97 bd 9a 6b 8e bd a5 a6 4d be
       -0.2645472 -0.07394452 -0.06954117 -0.20083101
0001d0 82 ea 7e 3d a5 cc 4b be 65 c1 59 be 00 55 ec 3d
       0.062235363 -0.19902284 -0.2126518 0.1153965
0001e0 71 ee 64 be 10 66 6e 3d 62 62 25 be 5c 1f c1 bd
       -0.22356583 0.058202803 -0.16150811 -0.094298095
0001f0 97 5d c8 bd 63 22 8b 3e c8 7b af 3d 00 77 bd 3b
       -0.09783476 0.27174672 0.08568531 0.005782008
000200 c8 68 7f 3d 27 03 bd 3b 54 68 6d bb 36 3f e9 3c
       0.062355787 0.005768198 -0.0036225514 0.028472524
000210 51 2c 1c 3e 74 ff 8c 3e af 58 eb 3d dd ba 04 be
       0.1525128 0.27538645 0.114915244 -0.12961908
000220 48 ba 86 bd ad 28 c0 3c 3c 25 49 be 2e 29 05 bd
       -0.06578499 0.023456896 -0.1964311 -0.032509975
000230 34 20 92 bd bd 6e d6 bd 86 55 1b 3e d5 b4 48 be
       -0.071350485 -0.104703404 0.15169343 -0.19600232
000240 78 11 e2 bd 31 20 c2 bd 3e 8f 5d 3d 11 f3 c5 bd
       -0.11038488 -0.09478796 0.054091685 -0.09665502
000250 f8 aa 9e 3d 2e 10 12 3d 49 c6 7d 3e c9 fe 44 be
       0.077474535 0.03565996 0.24782671 -0.19237818
000260 3d 82 de 3b 07 32 37 be e5 6d 56 3e d4 37 0a 3e
       0.006790428 -0.17890178 0.20940359 0.13497859
000270 7e 7d 38 3d 4f 83 3d 3e 9d d1 bd bd 96 23 65 be
       0.045041554 0.18507122 -0.09268496 -0.22376856
000280 31 7d b1 3d 3b 52 da 3d b5 9d 08 be 15 c9 00 3e
       0.086664565 0.106602155 -0.1334141 0.12576707
000290 6d 76 63 3e 97 d1 90 3e a0 7a 1e bd 56 c2 c7 3d
       0.22213145 0.28284904 -0.038691163 0.097538635
0002a0 1d 77 2f 3e cc 87 7e bc da e1 19 bc ef 57 30 be
       0.17135282 -0.015535306 -0.009392226 -0.17221044
0002b0 b7 53 29 be c8 4d 13 bd 32 83 2b 3d 90 68 d4 3d
       -0.16535841 -0.03596285 0.041873164 0.10371506
0002c0 b9 ed bc bd 6f 12 ba bd c8 cf a0 3e 6a 65 38 3e
       -0.092250295 -0.09085547 0.31408525 0.18007436
0002d0 06 62 6f be ce eb 5a be 42 54 8c bc a5 7b 1b be
       -0.23377237 -0.21379015 -0.017130021 -0.15183885
0002e0 0a 72 7e 3d 3c ff 0d be 11 28 fb bd e0 04 13 be
       0.062120475 -0.13866895 -0.122635014 -0.14357328
0002f0 99 4c df bc f7 bb 18 3e 0b cb ed 3d c5 c9 98 3e
       -0.027258204 0.14915453 0.11610993 0.29841438
000300 42 be e5 bc 1e 13 46 3e 37 7d 4c bd c8 62 39 3d
       -0.028044824 0.1934323 -0.0499241 0.04526022
000310 9d c4 86 bd 16 5b ed 3d 4a 50 90 bd eb 6e d9 bd
       -0.0658047 0.11589639 -0.07046564 -0.10616859
000320 41 ff 3f be 84 94 b3 ba 87 ba 47 be 36 6b b5 bd
       -0.18749715 -0.0013700877 -0.19504748 -0.088583395
000330 37 60 61 3e 77 8f d5 bd c7 81 49 be 50 62 51 be
       0.2200936 -0.10427754 -0.19678412 -0.2044766
000340 e8 91 9b 3e 1e 0b 95 3d 9d a7 09 3e 99 e3 1a 3e
       0.30384755 0.07277511 0.13442846 0.15125884
000350 81 1b 75 be c1 51 1e bd a5 47 b7 bd 18 6a 3e be
       -0.23936273 -0.038652185 -0.08949212 -0.18595159
000360 df fb 24 be 22 94 7f bd 6f 45 98 3d ce 5c 97 3d
       -0.16111706 -0.06239713 0.074351184 0.07390748
000370 ed b0 b8 3c d3 cd 32 3d 62 30 64 bd de e9 21 be
       0.022545302 0.04365332 -0.055710204 -0.1581187
000380 ee 36 21 bc 39 c5 3b 3e 26 b7 89 bb 30 a2 d9 bc
       -0.009839756 0.18336953 -0.004202741 -0.026566595
000390 b1 ad a9 3d f2 4c 10 bc 0f a3 91 bc ce 62 30 be
       0.08285082 -0.008807408 -0.017777948 -0.17225191
0003a0 05 b0 28 3e 05 0f 45 3e 16 28 60 3e 88 12 7e be
       0.16473396 0.19244011 0.21890292 -0.24811757
0003b0 ae b3 b0 be 06 77 21 be 48 50 29 be 96 23 6f 3c
       -0.34512085 -0.1576806 -0.16534531 0.014595887
0003c0 ab be 74 bd d2 3f c7 bd 4e 7e 11 be b4 6c dc bd
       -0.059752148 -0.0972897 -0.14208338 -0.10762921
0003d0 48 3d ce 3c 92 e3 66 be d2 22 5e 3e 50 05 b9 3d
       0.025175706 -0.22547749 0.2169297 0.090342164
0003e0 41 18 48 3d aa b3 fa 3d 66 21 9d 3e 29 06 99 bd
       0.048851255 0.122412995 0.30689543 -0.07471878
0003f0 68 fd 87 bc 98 02 41 3e 6e e0 43 be d1 4b 7b be
       -0.016600326 0.18848646 -0.19128582 -0.2454064

feature_exact.j_encoder.layers.0.bias f4 [64]
000000 ec 11 9f 3d ef 2f dd bd 2e 3c c0 3d 5f a6 e5 bd
       0.0776709 -0.10800158 0.09386478 -0.112133734
000010 f9 8d 4f 3e 81 20 65 3d fc 12 7d be b0 cd 61 bc
       0.20269002 0.0559392 -0.24714273 -0.01378195
000020 8d d4 98 3b 2a a7 0e 3e f6 51 13 3e d6 7b 33 be
       0.00466401 0.13930956 0.14386734 -0.17527708
000030 4b 94 57 be 78 74 3c 3e ce 32 4b bd 20 3f 4d be
       -0.21052663 0.18403804 -0.049608998 -0.20043612
000040 cb bb 04 3e 22 b9 46 be 03 6b c0 bd 4f 51 c8 3c
       0.12962262 -0.1940656 -0.09395411 0.024452833
000050 58 d9 0a be 36 72 79 3e be 7a 7a 3e 5d f5 68 3e
       -0.13559473 0.24359974 0.24460885 0.22749849
000060 c7 76 e7 bb 5f ca fe 3c a7 24 40 bd 5d 02 ad 3d
       -0.00706372 0.031102357 -0.046909954 0.084477164
000070 79 21 04 3e fc c8 68 3e 40 2a 31 3e eb 83 b3 3d
       0.12903394 0.2273292 0.17301273 0.08765396
000080 f0 a7 46 3e 3f 40 56 3e 44 90 d8 3d 3b 3e 99 bd
       0.194 0.20922945 0.105743915 -0.07482573
000090 dc a4 86 3e cb 5d 6a 3c ec c9 46 bb 01 fd 6b be
       0.26297653 0.014304589 -0.0030332757 -0.23045732
0000a0 98 da 2a bd bb d4 8e be 67 9a 74 be f3 7c da bc
       -0.041712373 -0.27896675 -0.23887025 -0.026670909
0000b0 c8 ef d3 3b 87 92 3f 3c e1 e6 83 3c df 97 14 bd
       0.006467793 0.01169265 0.016101303 -0.036277648
0000c0 f5 18 41 bd 3a bb 6d be cc a3 39 be 87 03 4f 3e
       -0.04714294 -0.23215953 -0.1812889 0.2021619
0000d0 60 1f fb bc d9 e4 4e 3c 48 16 37 ba 4b 9a 05 3e
       -0.03065461 0.012627804 -0.0006984216 0.1304714
0000e0 5a 62 4a be a9 da 3d be 32 92 52 be 69 9a ed bc
       -0.1976408 -0.18540443 -0.20563582 -0.029004293
0000f0 a6 ee 1a 3d 5c a0 b7 3d e8 d9 0b be 1d ab 00 be
       0.03782525 0.08966133 -0.13657343 -0.12565275

feature_exact.j_encoder.layers.1.weight f4 [64, 64]
000000 ca ac d8 bd 44 ae 86 bd 20 62 4f bc ee 3d a2 3d
       -0.10579832 -0.06576207 -0.012657672 0.079219684
000010 6c 8c 34 3d 7b 77 84 3d b7 6e 46 bd a0 6b ec bd
       0.04407923 0.064681016 -0.04844543 -0.11543965
000020 42 1f ef bb cb 60 ca 3d ab 6c 65 3d af 2f 8e 3c
       -0.0072974274 0.09881743 0.056011837 0.017356722
000030 79 ff 96 3d a2 dd 8d 3c 03 c2 7c bd cf a5 94 bd
       0.07372946 0.017317597 -0.06170846 -0.07258188
000040 c2 d1 40 bd bf d1 f6 3d a3 1e 92 3c de 40 fb bd
       -0.04707504 0.12051725 0.017836874 -0.12268232
000050 c5 0c cc 3c 99 7f 0d bd e2 c7 38 3c e9 b1 92 3c
       0.024908433 -0.034545515 0.0112781245 0.0179071
000060 0f bd 61 bc 09 0a 77 3d c3 83 4c bd 09 40 0e be
       -0.013777985 0.060312305 -0.049930345 -0.13891615
000070 01 54 49 3d 97 8b 06 be 72 d1 86 3c 60 3f d9 bd
       0.049152378 -0.13139187 0.016457293 -0.10607791
000080 f2 03 9d 3c d4 53 9c 3d d3 09 01 be b0 40 99 3d
       0.01916692 0.076331764 -0.12601404 0.07483041
000090 ea e6 80 bd e5 df f3 bd 56 dd 59 bd 34 d9 d5 bd
       -0.06294043 -0.11907939 -0.053189598 -0.10441819
0000a0 4d c4 1f 3b 70 18 da bd e5 53 94 3d 2e b1 9b 3c
       0.002437848 -0.10649192 0.07242564 0.019005384
0000b0 3e f6 92 3d e3 96 b1 3d 76 59 1e bd 95 a1 ed 3d
       0.07175873 0.086713575 -0.038659535 0.11603085
0000c0 c7 f2 f6 bc 71 ba 18 bd 30 11 01 bd 6a 42 de bd
       -0.030145062 -0.03728718 -0.031510532 -0.10852511
0000d0 2e a1 1a bd 5b 6d 38 be 15 9c a7 bd 75 e3 fd bd
       -0.03775137 -0.18010466 -0.08184067 -0.123968996
0000e0 ff 80 d3 bd 83 2d 2a bd 47 0a 83 3d c0 fd 2a 3d
       -0.103273384 -0.04154731 0.063984446 0.0417459
0000f0 fb 88 1a 3c 8d 01 4a bc 75 6d fb 3d 03 04 77 3d
       0.009432073 -0.012329471 0.12276737 0.06030656
000100 9b 65 7f bc 57 7d 18 3e 47 b5 0d 3d 75 31 49 bd
       -0.0155881895 0.14891563 0.034596708 -0.04911943
000110 16 a4 be bd c2 c4 d3 bd a8 e7 3e bd f8 04 6f bc
       -0.09308641 -0.10340263 -0.046607643 -0.014588587
000120 63 35 a9 3d fd d5 46 bd d5 6e d5 bd 5b 2e dd 3d
       0.08262136 -0.04854392 -0.1042153 0.10799857
000130 34 8c 4c bd d1 8b cc 3d 61 28 7e bb 79 c0 05 3d
       -0.049938396 0.09987605 -0.0038781392 0.03265426
000140 e8 d0 bf bd f9 db 55 3d b6 8b 85 bd 3f 3b 84 3d
       -0.093660176 0.052211735 -0.06520788 0.06456613
000150 bf 43 1b bd ab 28 d8 3c 5b ee c1 bc 7b 68 ce 3d
       -0.037906405 0.02638658 -0.023673227 0.10078522
000160 a1 d1 44 3d d3 2c bd 3d fd 04 4e 3c 16 e1 2f be
       0.04805148 0.09237065 0.0125744315 -0.17175707
000170 68 f2 bd bc 40 4a 1f be 36 c0 ea 3d 25 4e 52 3d
       -0.023186877 -0.15555668 0.114624426 0.051344056
000180 82 38 0c bb 2a e7 0c bd d7 0e 91 3b 8a 69 b3 3d
       -0.0021395986 -0.034400143 0.004426818 0.08760364
000190 8c 02 96 3d ff 3f 3b bd 2b 69 98 3c 71 54 eb bd
       0.073247045 -0.04571533 0.018604835 -0.11490715
0001a0 cb 0c bf bd 83 eb c1 3d 2b fe b6 3b aa 3c 65 bc
       -0.09328612 0.094687484 0.0055844984 -0.013991514
0001b0 91 56 1b 3e 64 7d 05 3c 44 de ae ba 5b 94 a3 3d
       0.15169741 0.008147571 -0.0013341387 0.07987281
0001c0 0e 7c 03 3e 93 ab c4 bd 1b 34 1c 3b 71 b2 9f 3d
       0.12840292 -0.09603038 0.0023834768 0.07797707
0001d0 db be 24 3d cb 70 54 bc 5f 60 e2 bd ae 1a 70 bd
       0.040221076 -0.012966345 -0.110535376 -0.058619194
0001e0 cb 10 ea bc 06 32 12 3e 8b 79 de bd a8 00 78 bd
       -0.02857246 0.14276895 -0.10863026 -0.0605475
0001f0 db 47 03 be c8 50 a3 bd 81 c8 62 3d e1 47 b7 bd
       -0.1282038 -0.07974392 0.055366997 -0.08949257
000200 c6 56 3d 3c a0 bc 2a be 02 da 8a 3d e4 c8 56 3d
       0.011556333 -0.16673517 0.06779863 0.052437678
000210 15 7a d4 bc d9 11 a1 3d 81 5c 05 3e ab 86 de bc
       -0.02593712 0.07864732 0.13023569 -0.027163824
000220 9d 6b c6 bd 27 e7 44 3d 24 7a 46 bd 2b c4 18 3e
       -0.09688494 0.048072007 -0.048456326 0.14918582
000230 7a 6a 60 bd f0 cc b5 bd 8c aa 99 bd 6e 3e b3 3d
       -0.054789044 -0.08876979 -0.07503232 0.08752142
000240 ab 27 4a bd 58 d3 53 3d 17 aa a9 bd 58 22 8e 3d
       -0.049354237 0.051715225 -0.08284395 0.06940144
000250 03 8d bf 3d 22 15 ed 3b b7 87 ae 3c 62 6e a4 bc
       0.09353068 0.0072351852 0.021304948 -0.020072166
000260 b2 10 95 bd 1c 0e c3 bc 29 2f e1 3c 19 bd 80 3d
       -0.07278575 -0.023810439 0.027488308 0.062860675
000270 d8 8c f6 bc f9 77 b5 bd 83 8d df 3d c0 e6 b4 3d
       -0.030096456 -0.088607736 0.10915663 0.088330746
000280 41 c5 dc bc fd 80 f2 bc 37 82 a8 bc 7d 4a 0b 3c
       -0.026949527 -0.029602522 -0.020569904 0.008501646
000290 81 7e d4 3d c9 c2 7f bd 8b cf 2a 3d ac 41 b9 bc
       0.10375691 -0.06244162 0.041701835 -0.022614323
0002a0 7b fa 89 bd 8a b6 a8 3d 1f 3b 4d 3d 7c fa fa bd
       -0.067372285 0.082379416 0.05010521 -0.12254807
0002b0 9f da f0 bd 8d 2f 78 bc fe 6c b7 3d ff ad ba 3c
       -0.11760449 -0.015148056 0.089563355 0.022788046
0002c0 83 fb 89 3d e4 b5 1d 3d bd 12 33 be 4f 71 09 be
       0.06737425 0.038503543 -0.17487617 -0.1342213
0002d0 3a ec 5f bd 43 d2 1c bc 6d fb 9f bd 60 f8 57 3c
       -0.054668643 -0.009571615 -0.078116275 0.013181776
0002e0 11 0b ec bd 38 9e df bd fa 94 9a 3c 06 75 3a 3d
       -0.11525548 -0.1091885 0.018869866 0.04552176
0002f0 5f 9d 06 bc 8a 6a a3 3d e1 0d 83 bc dc 8e b6 3d
       -0.008216231 0.07979305 -0.015997829 0.08913967
000300 3a 34 29 bc 7c 72 16 bc b6 69 12 bb 74 50 4c 3d
       -0.010327393 -0.009182569 -0.002234084 0.049881414
000310 3e 78 d7 bd 20 65 71 3d c3 ae d2 bd bb 84 fa 3b
       -0.10520981 0.05893433 -0.102872394 0.0076452172
000320 95 05 b3 bd 3e 71 c6 bd 77 d1 07 bc 37 01 5f bc
       -0.08741299 -0.09689568 -0.008289686 -0.0136111295
000330 8f a9 8f bd de ee 3e 3c b5 6e 11 3d a8 e1 20 3d
       -0.070147626 0.01165363 0.03550597 0.039277703
000340 60 3c bb 3c 6c 09 0a 3e 3b 0d 67 bd 7d c7 65 3b
       0.022855937 0.13480157 -0.056409102 0.0035061531
000350 46 d8 e5 bd 8d df 69 bd 77 c6 30 bc ea ae c9 bd
       -0.112228915 -0.05709796 -0.010789505 -0.09847815
000360 06 0d 92 bd a7 0f cd 3d b8 82 79 bc 15 a0 bb 3d
       -0.0713139 0.10012751 -0.01522892 0.091613926
000370 5a c6 95 bc 2a 8f ac bc e5 2e c8 3d a3 d1 9d 3d
       -0.018283058 -0.02106436 0.097745694 0.07706001
000380 e5 1c aa 3b b3 d4 01 be 79 3d c6 bd a5 1d c0 39
       0.005191433 -0.12678795 -0.09679694 0.0003664318
000390 ef 76 d1 bd 41 33 c6 3d ec f1 5f 3d fa 49 aa 3d
       -0.10227763 0.09677745 0.054674074 0.08314891
0003a0 68 98 84 3d eb bf 10 bd 47 0a 6a 3c ee b8 9e bb
       0.06474382 -0.035339277 0.014284677 -0.0048438227
0003b0 96 a3 24 bd 78 1e cd 3d 9b 5f 16 3e 89 ef 19 3e
       -0.04019507 0.10015577 0.14684908 0.15032782
0003c0 2c cb f6 3c 78 53 67 bd d5 d6 c8 3d 51 4e bd 3d
       0.030126177 -0.056476086 0.09806601 0.09243453
0003d0 2c 74 b2 3c 80 a8 04 bd 63 6a 25 3c fb 8f d3 bc
       0.02178391 -0.032387257 0.010096165 -0.025825491
0003e0 1b 1f 9b bd e9 81 88 3b 60 47 70 3d ef 3c d1 bb
       -0.07574292 0.004165877 0.05866182 -0.0063854377
0003f0 9e 84 7b bd 8d 6b 18 bd 41 8f 1c 3d 9b e2 a3 3d
       -0.06140577 -0.037211943 0.038222555 0.08002206

feature_exact.j_encoder.layers.1.bias f4 [64]
000000 10 0b bd 3c 22 c6 10 bd 06 1c b9 3c 0f e7 05 be
       0.023076564 -0.035345204 0.02259637 -0.13076423
000010 ac 14 3d 3d d3 14 ae 3c 1b 24 82 3d ff ea 9b 3d
       0.046162292 0.021250164 0.06354543 0.07613181
000020 01 3f b1 3c c7 99 31 bd fa 98 01 bd af 49 23 3e
       0.021636488 -0.043359544 -0.03164003 0.15946077
000030 2a 6b 5d bd fa 13 10 be 82 2b e0 bd 76 bf 53 bc
       -0.054057278 -0.1407012 -0.109457985 -0.012924066
000040 90 da ba 3d 6c 56 d7 3d ce ec 85 3d 41 5a 11 bd
       0.09123719 0.105145305 0.065393075 -0.035486463
000050 7d ef 39 3d 26 c4 1d be da ed e8 3d 7c 68 c7 b9
       0.04539441 -0.15406856 0.113734916 -0.00038034085
000060 63 8f 93 3c 37 f5 4a bd 2a 04 c6 bd 45 b8 1a bc
       0.018012708 -0.04955026 -0.09668763 -0.009443347
000070 0d f0 28 bc f0 d5 95 bd 1c e4 d0 3d 6a 6a 6b bd
       -0.010311139 -0.07316196 0.101997584 -0.05747453
000080 c7 03 dc 3c 1e fc 58 bd 60 c3 26 3d 66 f1 02 3c
       0.02685727 -0.052974813 0.040713668 0.007992124
000090 a4 7e 95 bd c5 69 1b be b4 cb 9c bc 3b 91 bd bc
       -0.072995454 -0.15177067 -0.019140102 -0.02314054
0000a0 c0 23 c7 bd 28 7c d6 3d 86 eb a7 3d a9 84 d4 3d
       -0.09723616 0.104729 0.081992194 0.103768654
0000b0 d3 46 aa 3d 1b 7e f9 3c 86 bc d9 3d ca fb f3 3c
       0.0831429 0.03045564 0.10631661 0.029783148
0000c0 cb fa b7 bc 2f cd 91 3d eb 65 b0 3d 0a d2 c8 bd
       -0.022458455 0.07119214 0.08613189 -0.09805687
0000d0 20 69 92 3d 4c 2d 09 bd 94 38 9b bd 85 65 49 3d
       0.07148957 -0.033490464 -0.07579151 0.049169082
0000e0 18 db 13 bd b6 19 18 3e 48 6b 01 3d e6 85 fc 3d
       -0.036097616 0.14853558 0.031596452 0.123302266
0000f0 bf 57 88 bd 74 f5 9b bb 96 54 99 bd d8 34 70 bd
       -0.06657361 -0.004759485 -0.074868366 -0.058644146

feature_exact.j_encoder.layers.2.weight f4 [64, 64]
000000 71 b5 8f bd cb c4 1d be 7e 6c 80 3d d3 dd 91 bd
       -0.07017029 -0.15407102 0.06270693 -0.07122388
000010 57 10 ce 3d 10 cd f9 bc 99 1b 52 bd 70 be 1f bd
       0.1006171 -0.03049329 -0.05129585 -0.038999975
000020 ad 43 02 3e 5d 17 67 bc 97 78 f5 3d ef 30 0e be
       0.12721129 -0.014104691 0.11985891 -0.13885854
000030 2c 03 ae bd fd fb 46 3e 1a ed 29 3e fb 98 04 be
       -0.08496699 0.19432063 0.16594353 -0.12948982
000040 5c 24 0b be 44 c7 ea bb 40 98 1f 3c 95 d7 85 bd
       -0.13588089 -0.0071648676 0.009740889 -0.0653526
000050 e9 fb f2 3b 5f 81 16 3e 6e 22 2e bd fa 6e ed 3d
       0.007415284 0.14697789 -0.042513303 0.11593433
000060 ae 48 46 3d 5d e4 4c 3e a1 17 45 bd f7 9a ec 3c
       0.048409157 0.20008989 -0.048118237 0.028882487
000070 8c 22 13 3d 1e 34 ee bd 31 28 a7 bc 59 21 5e 3b
       0.03592162 -0.11631034 -0.020404907 0.0033894388
000080 e8 d1 75 3d 41 99 24 bd 14 98 5a bd 77 b1 e3 bd
       0.060014635 -0.040185217 -0.05336769 -0.11117833
000090 ef bc 07 be e1 7d b2 3d 1f 99 34 bd c6 a9 bb bd
       -0.13255666 0.08715416 -0.04409134 -0.09163241
0000a0 23 e6 32 bc c0 96 0b be 5a ac f5 3d 22 65 0c be
       -0.010919127 -0.13631725 0.11995764 -0.13710454
0000b0 8e b0 8a ba 3e 68 00 3e e2 13 5d bd 9a 07 d1 3c
       -0.0010581182 0.12539765 -0.05397404 0.02551632
0000c0 8b 34 95 bc 74 58 6b 3d 1d 92 9c bd 14 9e 4b 3e
       -0.018213531 0.057457402 -0.076450564 0.19884521
0000d0 4c b0 62 bd 5a f3 58 be a3 fe ca 3d 4e a4 3b 3d
       -0.05534391 -0.21186581 0.09911849 0.04581099
0000e0 66 14 32 3d b6 84 23 be d2 4d 07 be 5b 5b 0a be
       0.043476485 -0.15968594 -0.1321328 -0.13511412
0000f0 0c cf b1 bd a6 d1 b9 bc 6f 99 2e 3d 0f b2 32 3e
       -0.08682069 -0.022682976 0.042626794 0.17450736
000100 1f 6f 08 3e a9 8c 1f 3e 1c ad 0d 3e db c6 af bc
       0.1332364 0.15581001 0.13835567 -0.021457126
000110 06 94 28 3c ae 8b c7 bd a3 40 e0 3d 16 e3 a0 bd
       0.010289198 -0.09743439 0.109498285 -0.07855813
000120 01 ae 49 3d 7c df d4 bd 7e 92 86 3d 28 33 a6 3c
       0.04923821 -0.10394189 0.0657091 0.020288065
000130 3f 37 df bd 90 4b 8a bd 37 30 9a 3d 73 d7 15 be
       -0.10899209 -0.06752694 0.075287275 -0.14632969
000140 46 8d 60 bd ec 63 09 be 48 56 d3 3d 6b a3 c2 bc
       -0.05482223 -0.13417023 0.10319191 -0.023759564
000150 07 e4 0c bd 97 24 c5 bc ac de e6 bd 93 5d 19 3e
       -0.03439715 -0.024065299 -0.1127294 0.14977102
000160 c2 b6 b0 bd bd cc a9 bd 18 10 f5 3d 94 41 1b 3c
       -0.08628608 -0.08291004 0.1196596 0.009476084
000170 ea c5 81 3d 39 58 ef bc 79 26 3b bd d5 9e 58 bd
       0.06336577 -0.029216873 -0.045690987 -0.05288585
000180 22 d5 ba bd 6b aa 86 bd fd 6b e5 3d e6 84 03 3e
       -0.09122683 -0.065754734 0.11202238 0.12843665
000190 da 0a d7 3d 80 a6 d6 3d 08 f6 2d 3d 27 59 38 3d
       0.10500117 0.10480976 0.04247096 0.045006897
0001a0 3d 4e 49 3d dd 98 22 3d 10 4f 8e 3c 8a f0 98 bc
       0.04914688 0.039696563 0.017371684 -0.018669385
0001b0 a2 00 1e 3d 9d bf 77 bd fb da ed bc 25 1b 93 3d
       0.038574822 -0.06048547 -0.029035082 0.07182912
0001c0 b8 bb a4 3d 0f 3d 0b be 36 13 8b 3c 5c be de bd
       0.08043617 -0.13597511 0.016976934 -0.10876152
0001d0 c7 46 b6 3d 5b 6a 04 3e 5d c1 e9 bc df 06 60 3a
       0.089002185 0.12931196 -0.028534586 0.0008545946
0001e0 47 50 9e bd 34 53 0c bd 36 37 cd bc 15 32 43 3d
       -0.077301554 -0.034259036 -0.02505074 0.047655184
0001f0 a1 52 95 3d 6d 6a ea bc a5 b6 80 3c 63 dd bf 39
       0.07291151 -0.0286152 0.015712092 0.00036595305
000200 c0 a2 3d 3d 56 b4 ab 3b ad 93 86 3d 4d a3 ef 3d
       0.04629779 0.0052400036 0.06571136 0.11701069
000210 b4 8e 14 bb 08 60 2d bd 08 b0 a1 bd 58 1c 4a bd
       -0.0022668066 -0.04232791 -0.078949034 -0.049343437
000220 6e 77 85 3d ce 8c c1 bc 6e 96 e5 3d d7 1b f3 bd
       0.0651692 -0.023626711 0.11210333 -0.118705444
000230 66 39 30 3d 73 a2 01 3d 8c 06 b7 3d de 23 04 3e
       0.04302349 0.031649064 0.089367956 0.12904307
000240 8d 19 8a 3d 3a 9e 7f bc 47 ab a1 bd a9 87 f2 3d
       0.06743155 -0.015601689 -0.07893997 0.11842281
000250 e7 58 bb 3d 98 e7 fa bc 3c e4 6e 3d b0 6b b6 bd
       0.09147816 -0.03062801 0.05832313 -0.089072585
000260 ff 47 15 be 06 bf a6 3d 02 d1 33 bd 03 e7 f3 3d
       -0.14578246 0.081419036 -0.043900497 0.11909296
000270 42 aa 97 bd c6 1e 21 3e 7d 39 a9 bd 96 d9 51 bc
       -0.07405521 0.15734395 -0.08262918 -0.012808224
000280 0c 37 b1 3d 19 da bd bc b0 d3 ee 3b f7 7d 36 3c
       0.086530775 -0.023175286 0.0072884187 0.011138431
000290 05 99 f4 3d 3f 7d 93 be 60 80 15 3e 03 34 a3 bd
       0.11943249 -0.28806493 0.14599752 -0.07968905
0002a0 ab 4b 0a 3e 43 8f 57 bd 11 06 63 3d bc 53 84 bd
       0.13505428 -0.05262686 0.055425707 -0.064612836
0002b0 8b 59 c2 bc d5 06 b6 3d 70 26 ca 3c 95 8e 2b 3d
       -0.023724338 0.08888022 0.024676532 0.041884024
0002c0 a0 71 7d 3c f2 5a 14 3d 7b 15 cc bd 47 24 28 bd
       0.015468985 0.036219545 -0.099650346 -0.04105022
0002d0 66 7d 33 3d 7d 91 91 bd 13 29 e6 3d 06 a0 3a 3d
       0.04382076 -0.07107828 0.11238303 0.045562766
0002e0 7e 08 1f bd 51 2a c5 3d 1a a8 0c bc f7 5c bc 3c
       -0.03882646 0.09627212 -0.008585 0.022993548
0002f0 9d 25 00 3e 75 1a 25 3d ca 16 0a 3d 02 b7 ea 3d
       0.12514348 0.040308435 0.03371314 0.11460687
000300 62 5e 02 be 5e 75 31 be bb bd d4 bd 85 f6 2d bd
       -0.12731317 -0.17329928 -0.10387751 -0.042471427
000310 92 12 f7 3d 6c 9c 15 3e 5b 85 db bc 18 dc 8d bd
       0.12064089 0.14610451 -0.026796987 -0.06926745
000320 c8 4e 92 3a d4 da d4 bd e1 e0 11 3d 98 37 da bc
       0.0011162395 -0.10393301 0.03561485 -0.026637837
000330 64 57 3e bc 05 9b 79 bd 91 b7 f1 bc b6 8f 38 be
       -0.011617515 -0.060938854 -0.029506477 -0.18023571
000340 77 e6 83 bd 3b 5f cf 3d f0 12 d2 3d 1c 36 60 3d
       -0.06440442 0.10125586 0.10257518 0.054739103
000350 09 e2 db 3d 5a d7 dc 3d b1 03 be bc 91 71 09 3d
       0.10736472 0.107832626 -0.02319512 0.03355557
000360 d3 ca cd bd 3c 70 a4 bd f6 b2 4b bd 4e 8f 04 3e
       -0.10048451 -0.080292195 -0.049731217 0.12945291
000370 c9 5f eb bd 05 e0 cd bd 0e 02 29 3c 4d e6 4b 3d
       -0.11492879 -0.10052494 0.010315431 0.04978018
000380 a8 02 67 3d d4 c2 08 3e 8a b5 c6 3c 2d 82 51 3d
       0.056399018 0.13355571 0.024256486 0.051149536
000390 bf 26 db bc 4a 81 3d 3c 7f b8 f9 bd 4c 87 8c bd
       -0.026751874 0.011566469 -0.12193393 -0.06861743
0003a0 98 ad c2 bd 38 48 25 3d d5 77 d7 bc 97 d0 f6 bd
       -0.09505767 0.040352076 -0.026302258 -0.12051504
0003b0 f8 c9 64 3d 67 e9 bf bd 26 a4 b0 3d db f2 13 be
       0.055856675 -0.0937069 0.08625059 -0.14448111
0003c0 11 59 ae bd 1a b5 09 3e 1e 18 80 bd bf 99 87 3d
       -0.08513082 0.13447991 -0.062546 0.066211216
0003d0 47 d0 5e 3d dd 13 bf 3c ca b4 a9 3d 5d 68 24 bd
       0.054397848 0.023324901 0.08286436 -0.04013859
0003e0 08 90 b6 bd f4 83 6d bd a7 62 ee 3d 89 ed 38 3d
       -0.089141905 -0.05798717 0.1163991 0.045148406
0003f0 35 3a 83 3d c3 c9 9e bd a6 4e c8 bc 13 60 b9 3d
       0.064075865 -0.07753327 -0.024451565 0.09051528

feature_exact.j_encoder.layers.2.bias f4 [64]
000000 ab 7f 31 be fb 39 a3 bd c6 03 a5 bd a5 10 a2 3d
       -0.17333858 -0.07970043 -0.0805736 0.07913331
000010 e5 e2 e8 bd 2a 80 44 bd 8c d8 c5 bd 5b c7 7b 3d
       -0.11371402 -0.04797379 -0.09660444 0.061469417
000020 f5 73 02 3e cc ac 76 3d c2 a4 8c bd a0 92 e7 3d
       0.12739547 0.060223386 -0.068673626 0.113072634
000030 2d 55 05 3e e2 21 cf 3c 83 3e 12 be de 1b 04 be
       0.13020773 0.025284711 -0.14281659 -0.12901255
000040 0c 6a 49 3e 99 c0 a8 3a 2f a1 84 bc 63 e9 85 3c
       0.1966936 0.0012874781 -0.01619014 0.016346639
000050 72 e7 00 be d5 e0 31 3d 75 7c 6f bc 16 5c be bd
       -0.1258829 0.043427307 -0.014617075 -0.09294908
000060 32 45 a0 3c c9 3d e8 bd 60 a3 c0 bd a8 9d 52 3d
       0.019564245 -0.113399096 -0.09406161 0.051419884
000070 34 54 3f 3c 8c 20 13 be 4e 8d 77 3d 26 98 1c 3d
       0.01167779 -0.14367884 0.060437493 0.038231038
000080 e6 77 d6 bd 24 65 b2 3d 37 61 c7 3c 5d f2 99 3d
       -0.104720876 0.08710697 0.024338348 0.0751693
000090 f3 88 76 bd 30 ec a0 bd 89 03 0f 3d 4d 1d 33 bd
       -0.0601892 -0.07857549 0.03491548 -0.043729115
0000a0 d6 d5 52 bd ad 7f e5 bd 3d 46 58 3b b8 8e e3 3d
       -0.05147346 -0.11205993 0.003300085 0.11111206
0000b0 1b 6e 23 3e d8 55 7d 3b 44 b3 f1 bc f0 2c a7 3d
       0.1595997 0.0038655903 -0.029504426 0.08162868
0000c0 ca e2 87 3d b7 98 12 bd 5e 65 5b 3d 58 af 36 3e
       0.066350535 -0.03579017 0.05356347 0.17840326
0000d0 b3 56 c8 3d 92 1d 8b bb 7a fe 59 bd 1a a4 c3 3d
       0.097821616 -0.0042454684 -0.053221203 0.09552784
0000e0 6e 9e 00 be f7 4b 8a ba c2 bd 93 bc 26 d9 d0 3d
       -0.12560436 -0.0010551204 -0.01803482 0.10197668
0000f0 52 4f bf bd 88 1f 0f 3d d8 fd 5d bd 6a 9e 52 bd
       -0.09341301 0.03494218 -0.054197162 -0.051420607

feature_exact.m_encoder.layers.0.weight f4 [64, 9]
000000 5e 27 7e bd 8a 0f be 3d 00 14 50 bd 3d 10 88 3e
       -0.062049262 0.092803076 -0.050800323 0.2657489
000010 fa 8e ff bd 2c 89 32 be 66 c9 8c be 09 02 a8 3e
       -0.124784425 -0.1743514 -0.27497405 0.32814053
000020 51 be 3d be 69 6f df bd 60 5b 9e 3e 33 94 3f be
       -0.18529631 -0.10909922 0.3092909 -0.18708877
000030 dc aa 71 be 50 d7 04 bc 99 41 80 be ba 3c 64 3e
       -0.23600334 -0.008107975 -0.25050047 0.2228879
000040 23 90 d2 3c 8d 92 67 be 28 ff 90 be 78 84 15 3b
       0.025703495 -0.22614498 -0.2831967 0.0022814553
000050 61 44 84 bc ff 45 a0 3e e7 e2 72 bd aa 10 dd 3d
       -0.016145887 0.31303403 -0.059298422 0.10794194
000060 c5 d4 8c be 26 26 94 bd 6a 47 19 be f6 82 9e 3e
       -0.2750608 -0.07233839 -0.14968649 0.3095929
000070 f5 88 e7 bd 59 26 d1 be b6 fc 93 3c 18 2f 77 3e
       -0.11305419 -0.4084957 0.018064838 0.24139059
000080 79 e1 45 bd e5 ef cd 3d 5f 55 a0 3e e2 dc 65 be
       -0.04831073 0.10055522 0.31315133 -0.22447541
000090 a1 38 34 3e 14 af cd 3d 78 6f fb 3d 76 38 9c 3e
       0.17599727 0.10043159 0.1227712 0.30511826
0000a0 28 47 81 3e 50 a2 bd bd cf ec 66 3e f0 2c 74 bd
       0.252496 -0.09259474 0.22551273 -0.05961317
0000b0 65 2a 92 be 6b b0 9e be 6f 68 15 3e 14 51 81 be
       -0.2854797 -0.3099397 0.1459062 -0.2525717
0000c0 4a 3e 06 be bc 1a 34 bc ac b6 d0 3d a0 b2 73 3e
       -0.13109699 -0.010992702 0.10191092 0.23798609
0000d0 54 a3 26 be 1d 11 e9 3d 52 48 21 3d 6b a3 9b be
       -0.16273242 0.11380217 0.03937561 -0.30398116
0000e0 53 18 b2 3e db 6d 26 3d ae 74 19 3e f3 7c 9e bd
       0.34784183 0.04063211 0.14985916 -0.07738676
0000f0 77 23 15 be 67 e2 e6 bd 59 fe b7 bd 59 2d 35 3e
       -0.1456431 -0.112736516 -0.0898406 0.1769308
000100 dc 71 f3 bc 4d 07 74 be 9c e6 10 3e 6d 06 51 bd
       -0.029717378 -0.2383091 0.1415047 -0.05103152
000110 bc 14 31 be 74 8d a2 be 1b 33 9d 3e e1 59 57 3e
       -0.17293066 -0.31748545 0.30703053 0.2103038
000120 16 0e e5 3d 3e 6c 11 be 4e 78 4f 3d ec cf 8e be
       0.11184327 -0.14201447 0.05065184 -0.27893007
000130 61 78 ac 3d e4 03 e0 bd ae 67 ae 3c 7f db 61 be
       0.08421398 -0.10938242 0.021289673 -0.22056387
000140 93 8c 81 3b cf e1 5f be d9 03 8b be 5e 2d 40 be
       0.0039535253 -0.21863483 -0.27151373 -0.18767306
000150 b6 b7 a8 be 9b f2 ca bc 2b 2d 2f 3e c4 01 b0 3d
       -0.3295266 -0.024773886 0.17107074 0.08594087
000160 76 c0 0b 3d cf 4b 9d 3d c1 c1 81 3e 41 ea 17 be
       0.034119092 0.07680475 0.25343135 -0.14835455
000170 17 1c 77 3e 05 fa 5b bd fb 46 1b be 52 fe 92 3b
       0.24131809 -0.053705234 -0.15163796 0.0044858838
000180 1a a3 91 3e 53 62 9a 3e 01 b9 9d bc 1d 29 fe bd
       0.2844475 0.3015314 -0.019253256 -0.124101855
000190 b6 27 57 be f9 38 a0 3e 1d e3 63 3e 72 59 1b be
       -0.21011242 0.31293467 0.22254606 -0.1517084
0001a0 e7 13 89 be 3f d1 59 3e b5 5a 52 3e f3 fa b5 3e
       -0.26772997 0.21271227 0.20542414 0.35543022
0001b0 e8 08 8c 3e d5 06 0f be 3a 38 05 be 6c 34 45 3e
       0.27350545 -0.1396745 -0.1300973 0.19258279
0001c0 e3 ae 6c 3e dd 1d aa be 19 1b 99 3e 38 c5 e7 3d
       0.23113589 -0.3322591 0.29903486 0.11316913
0001d0 0b ba c9 3c bb 97 8d 3e ec 24 a6 3e 85 cf 4a 3e
       0.024624845 0.27654824 0.32450044 0.19805725
0001e0 f9 87 92 3d 5e 05 c4 3d ae a9 7c 3e 0e 95 97 3e
       0.07154841 0.09571336 0.24674103 0.29605907
0001f0 1d 9b 75 3e 53 cd 8a be 60 a5 0a bd d2 40 52 3e
       0.23984952 -0.27109775 -0.03384912 0.2053254
000200 aa ea ba 3d b5 c8 92 3e 7f ae e3 3d 1f a2 8d be
       0.0912679 0.28668752 0.11117267 -0.2766275
000210 fc 8f 83 3e 89 85 8c 3e c5 e6 41 3e c6 4d b0 be
       0.2569579 0.2744563 0.18935688 -0.34434336
000220 ce 75 e7 bd d9 00 63 be f0 70 92 bd 7b b0 30 be
       -0.11301766 -0.22168292 -0.07150447 -0.17254822
000230 d9 bf a2 3e 8a 08 20 3e 09 ee 45 be 51 13 b4 3c
       0.31786993 0.15628257 -0.19329084 0.021981867
000240 67 38 17 3e 0c 43 73 be 1e fa 07 bc 5d 7c 04 3e
       0.1476761 -0.23756045 -0.008299379 0.12938066
000250 2f 59 8c 3e 75 7d 3a 3e e8 e9 35 3e ba 5a 40 be
       0.27411792 0.1821192 0.1776501 -0.1878461
000260 3c 0c 99 3b 10 06 b8 3e ab 8b 7c 3e 45 12 0e bb
       0.004670648 0.35942125 0.24662654 -0.002167837
000270 30 09 1f be d5 52 6f be 51 8d 96 3e 39 7e 7d be
       -0.15530849 -0.23371442 0.2940469 -0.24755181
000280 86 18 b3 3e a4 09 9e ba 85 1b 8b 3e 36 49 a1 3e
       0.34979647 -0.0012057316 0.27169433 0.31501168
000290 34 ee 39 3e a8 85 65 bc 75 a5 49 3d c8 f3 93 3e
       0.18157274 -0.014008917 0.049230058 0.28896928
0002a0 ab e4 a5 3e 8e 79 ac bd 01 4c 8c 3e d8 a9 a9 be
       0.32401022 -0.08421622 0.27401736 -0.33137393
0002b0 82 61 89 be 09 16 96 be 15 16 95 bd a2 f9 33 bd
       -0.26832205 -0.29313686 -0.072796024 -0.04393924
0002c0 b6 c8 9e be 1e e4 16 3e a7 53 85 be e3 55 7a 3e
       -0.31012505 0.14735457 -0.26040384 0.24446826
0002d0 5a a9 44 be 26 26 1b 3e 35 82 ec 3d 56 98 94 be
       -0.19205227 0.15151271 0.115482725 -0.29022473
0002e0 b3 67 be be 2f 0a 53 be 0c fe 34 3e 47 4c 88 3e
       -0.3718849 -0.20609353 0.17675036 0.26620695
0002f0 fe c1 8f be 9f 4a 84 be 77 0a 0d 3e f7 67 44 be
       -0.28077692 -0.2583818 0.13773523 -0.19180284
000300 9d 8f cc bd 44 03 00 3e 37 3f 02 3e 94 d1 25 be
       -0.099883296 0.12501246 0.12719427 -0.16193229
000310 d0 fa 81 be f4 c6 c7 3d 4d fe 25 be 23 72 4b 3c
       -0.25386667 0.09754744 -0.1621029 0.012417349
000320 0f 79 91 3e dd e0 a2 bd 58 52 ae 3d d5 96 67 3e
       0.28412673 -0.079530455 0.085117996 0.22616132
000330 e5 1e 00 be 21 3c e2 3d b0 bf a8 be a7 c7 6c 3e
       -0.12511785 0.11046625 -0.32958746 0.23123036
000340 5e 0b 1e be 74 66 83 be 62 7c 8a be 64 78 27 be
       -0.15434024 -0.25664103 -0.27048022 -0.16354519
000350 58 c7 61 be 49 97 8a 3e 71 e6 70 3e 3d 1c 08 be
       -0.220487 0.27068546 0.23525406 -0.13292022
000360 c8 60 2b bc a3 a9 9d 3b ac f9 a1 be 7b 96 31 be
       -0.010460086 0.004811482 -0.31635797 -0.1734256
000370 a9 88 e4 bd e2 f2 8b 3e eb 9b 0d bd 5d b0 c4 3e
       -0.11158878 0.27333742 -0.034572523 0.38415805
000380 3f 0b bf bc f6 f7 4c 3e f8 31 3e be 2c bd 34 bd
       -0.023320792 0.20016465 -0.18573749 -0.04412572
000390 4a bd 4a be 9f 94 66 be c2 1b 57 be cf d1 10 be
       -0.1979877 -0.22517632 -0.21006683 -0.14142536
0003a0 ac 86 c2 3c ca f7 29 3e 96 5a f9 3d 10 a8 01 3c
       0.023745857 0.1659843 0.12175481 0.007913604
0003b0 f0 66 1b 3d 58 af b6 3e 57 03 d0 be 1f 58 59 be
       0.037939966 0.35680652 -0.40627548 -0.21225022
0003c0 63 58 d9 bc ec 9e 82 3d 70 6d a2 3e 0e 15 2f 3e
       -0.026531404 0.06377968 0.3172412 0.17097875
0003d0 df a3 63 3e 3a f7 e2 3d a7 01 c5 bd 5f ee 41 3d
       0.2223048 0.11082311 -0.09619456 0.04734647
0003e0 85 40 59 be af 5a 81 bd 7a 31 cb 3b 74 18 32 bd
       -0.21216018 -0.06316125 0.0062009664 -0.04348035
0003f0 3a b0 dc 3d 7f 5e 26 3e b9 b4 55 be 53 15 32 be
       0.107758 0.16246985 -0.20869721 -0.17390947

feature_exact.m_encoder.layers.0.bias f4 [64]
000000 5d 15 dc bb fc 0c ad be 8d 2c 39 3d 2d 60 60 bd
       -0.006716414 -0.3379897 0.045208503 -0.05477922
000010 cd 92 0e be d6 32 85 be a6 8d a7 be 0d 7b 00 be
       -0.13923188 -0.26015347 -0.32725257 -0.1254694
000020 ab 54 20 bd 49 42 9b bd 70 5e 54 3e 98 9b 99 be
       -0.039143246 -0.07581002 0.2073915 -0.3000152
000030 4d f2 92 be b1 d4 94 3e 44 84 a0 3e f0 c2 23 3e
       -0.28700486 0.2906852 0.3135091 0.15992332
000040 61 f4 71 be 34 1a 87 3e 1d 6b 6f 3e 6d c9 11 3e
       -0.2362838 0.2638718 0.23380704 0.14236994
000050 cf 01 45 be b6 1e c8 3d 25 a2 31 be bb 92 86 be
       -0.19238971 0.09771483 -0.1734701 -0.2628382
000060 89 c7 08 be e0 b5 9c 3e 03 f0 1f bd 45 83 f5 bd
       -0.13357367 0.3060751 -0.039047252 -0.11987928
000070 82 f6 98 be bf ca dd 3b c7 62 91 be b6 54 f8 3d
       -0.2987557 0.006768554 -0.28395674 0.12125532
000080 6b ba 44 3e 88 64 46 3e f0 48 11 3e 42 99 74 3e
       0.19211738 0.19374287 0.1418798 0.23886588
000090 4a 46 46 3d eb c3 c2 bd 5f 11 a0 be df e4 24 be
       0.048406877 -0.09510025 -0.31263253 -0.16102932
0000a0 57 9c 5c 3e 19 1d 99 3e bd 28 d4 bd 0a 78 07 bd
       0.21544014 0.29905012 -0.10359333 -0.033073463
0000b0 19 8e 3e 3d 10 e5 56 bc f0 04 13 3d 37 0d 4a 3e
       0.046522234 -0.013116136 0.03589338 0.19731604
0000c0 53 ef cd 3d ba 0a 83 3e b8 67 c9 3d f3 ae 0e bd
       0.10055413 0.2559412 0.09834236 -0.034834813
0000d0 09 a7 86 bd 1c fe bd 3d 98 4c 8f be 35 53 51 bd
       -0.06574828 0.09276983 -0.27988124 -0.051104743
0000e0 94 b9 54 3e e2 c3 5a 3d e2 12 b0 be 1b 42 79 3d
       0.20773917 0.053409465 -0.34389406 0.06085406
0000f0 06 3a 05 be 20 c7 8d be cc 94 8c 3e 14 10 9f 3e
       -0.13010415 -0.27690983 0.27457273 0.31066954

feature_exact.m_encoder.layers.1.weight f4 [64, 64]
000000 d2 a5 48 3d f7 e5 f6 bc 07 40 d1 bb 39 f6 5e 3d
       0.048986264 -0.030138953 -0.0063858065 0.054434035
000010 98 7b a5 bd 72 62 5f 3c 16 90 f7 3c e9 18 b0 bc
       -0.08080214 0.013634311 0.030220073 -0.021496253
000020 f8 bd 05 bd 0b 77 4d 3c 28 55 9d bd ec 4a 02 bd
       -0.03265187 0.012540589 -0.07682258 -0.031809732
000030 1b ab c9 3d ce bd 86 3d 9e 32 9d 3d b4 da 03 3d
       0.09847089 0.06579171 0.0767567 0.032190993
000040 a5 a3 ac 3d 68 a1 02 3e b8 21 14 bd 4f 7d a3 3c
       0.0842965 0.12756884 -0.03616497 0.019957213
000050 79 ff d0 bd 30 fa 51 bc 25 2b c8 3d df c8 a6 bd
       -0.102049775 -0.012815997 0.09773854 -0.08143782
000060 02 32 1f bc 94 5f e0 bd b2 e3 c4 3d 5a 8d c9 3c
       -0.009716513 -0.1095573 0.09613742 0.024603534
000070 56 95 30 bd 8d c6 d6 bc b0 bb 56 3d 34 25 b1 bd
       -0.043111168 -0.026217723 0.052425086 -0.08649674
000080 88 79 03 be cc 21 2a 3e 0e a3 27 3e e0 2c 12 be
       -0.12839329 0.16614455 0.16370794 -0.14274931
000090 86 cc 8e bd a5 01 5d bd 6c 71 9f 3c 19 35 21 3d
       -0.069726035 -0.053956646 0.019463263 0.03935728
0000a0 6f 82 09 3e 48 70 9f bd f4 d5 f1 3d 65 14 e8 bc
       0.13428663 -0.07785088 0.118083864 -0.028330037
0000b0 24 9a 32 3c 5a d6 62 bd a6 17 86 bc 6e f4 09 3e
       0.010901008 -0.055380203 -0.016368698 0.13472149
0000c0 4c c7 da bd f3 4f bd bb 92 79 7e bd d0 e8 28 3e
       -0.10682544 -0.005777353 -0.062127657 0.16495061
0000d0 06 e3 de 3c 46 7b 3a 3d 5e b0 6e bd 91 96 1c bd
       0.027207863 0.04552772 -0.058273666 -0.03822953
0000e0 a8 00 3b bd 35 f0 9f 3d e8 61 33 bd be 8b a4 3d
       -0.045654923 0.07809488 -0.043794543 0.08034466
0000f0 77 94 af 3d f7 6c 0c bd cb 40 91 bd e4 34 b4 3b
       0.08573239 -0.034283604 -0.070924364 0.005499469
000100 f6 1c ac bd 05 9f 15 3d c6 9a 48 be f3 47 0c bc
       -0.08403961 0.036528606 -0.19590291 -0.008562076
000110 c8 93 bc bb ea e6 c1 bd fc a0 24 3d cf 71 4f 3c
       -0.0057549216 -0.094678715 0.04019259 0.012661411
000120 46 13 bc bd a4 6d 19 3e dc 73 22 3d c8 63 f6 3d
       -0.091833636 0.14983231 0.039661273 0.120307505
000130 34 cc d4 bc bc 8a df 3d 26 79 f6 3d 48 a1 9e bd
       -0.025976278 0.10915133 0.12034826 -0.07745606
000140 df 43 65 3b 25 54 ca 3d db 0d e0 3d 3c 8c 27 3d
       0.0034983081 0.098793305 0.10940143 0.040905222
000150 b2 97 b5 3d 00 06 d7 3d 92 5d 62 3d 2f 43 97 3d
       0.08866824 0.10499191 0.055265017 0.07385861
000160 04 03 18 3c 73 0f 03 3c b4 62 ea bd f2 46 83 3d
       0.009278063 0.007999289 -0.114446074 0.06410016
000170 04 57 87 3d c9 80 bb 3d 6b 6b 7f bd 3c 61 cb bd
       0.06608394 0.09155423 -0.0623583 -0.09930655
000180 6a d9 ea bc c7 0b f8 bd ac 03 f7 3c b4 55 6e 3d
       -0.028668124 -0.12111621 0.030153118 0.0581872
000190 1a 16 d3 3d 8e 07 7e 3c c3 0f 05 3e 80 9d 03 3e
       0.1030695 0.015504731 0.12994294 0.1285305
0001a0 62 df 13 be 6e 14 f3 bd 91 99 7c 3c e5 61 77 3d
       -0.14440683 -0.11869131 0.015417472 0.060396094
0001b0 04 21 c2 3c b7 04 98 bd 4b c2 91 bd 5a 66 74 3d
       0.023697384 -0.07422774 -0.071171366 0.059667923
0001c0 be d2 3a bd f7 91 d4 bd 09 7e ad 3d ac a8 be bc
       -0.045611136 -0.10379403 0.08471305 -0.023273788
0001d0 f8 b3 b3 bc 99 7c ce bd 61 ad 0a 3d 51 66 4a 3d
       -0.021936402 -0.10082359 0.033856753 0.049413983
0001e0 b6 c1 b7 3a c8 be a1 bd d7 cc b6 3c ae 66 5f bd
       0.0014019522 -0.07897717 0.022314472 -0.054541282
0001f0 68 79 6e 3d 6e a9 0e bd 76 fd 92 bd 8c cc 02 bb
       0.05822125 -0.03482955 -0.0717725 -0.0019958345
000200 5b 7d 67 ba 00 ea 09 bd ec 54 1a be a7 55 c9 bd
       -0.000883063 -0.033670425 -0.15071458 -0.0983079
000210 f4 54 ae bd a7 7f ab bd a3 ae db bd cb b8 0f 3d
       -0.08512297 -0.08373957 -0.10726669 0.03508834
000220 78 f6 d6 bd d0 5a fd bd 81 21 d8 bd c5 b6 0e be
       -0.10496229 -0.12370837 -0.10553265 -0.13936909
000230 3c 97 e7 bc 4a 97 e7 bd 58 62 44 bc 1e 07 08 3d
       -0.028270356 -0.11308153 -0.011986338 0.033209912
000240 c8 7d a2 3d 33 af bf 3b ae c0 bb bd d0 a3 b2 3d
       0.07934147 0.005849743 -0.0916761 0.08722651
000250 a3 0f 01 be ff d5 00 3e 24 69 07 be 0e ec 33 bc
       -0.12603621 0.12581633 -0.13223702 -0.010981573
000260 ac 60 09 be 96 6b bb bc 12 f9 d8 bc e5 4a bb bd
       -0.13415784 -0.02287845 -0.026485953 -0.091451444
000270 06 ff 93 3d b8 df a8 bd b1 7e 99 bd 42 59 d2 bd
       0.07226376 -0.08245796 -0.074948676 -0.10270931
000280 8e be cf 3c 6d 4c 15 bd cb ac 2d 3c 38 85 9b bc
       0.025359418 -0.03644984 0.010600279 -0.018984422
000290 79 0d 02 be 78 0c 60 3d 14 5a d1 3d cb f0 11 3b
       -0.12700452 0.05469939 0.10222259 0.0022268768
0002a0 0e c5 1a bb ad 42 75 3d 52 ce 27 bc ba ca 72 bd
       -0.002361599 0.05987804 -0.010242062 -0.059275366
0002b0 64 ae 9e bd 1e 75 8a 3b 6b c2 db 3d 7b 98 b7 3d
       -0.07748106 0.0042253872 0.10730442 0.0896463
0002c0 c3 49 61 bd 0a 44 92 3d 55 9b c4 3d e1 f8 ba bc
       -0.055001985 0.07141884 0.0959994 -0.022823753
0002d0 a5 0b 36 bd bf 52 73 bd ce b6 62 bd c8 cf a0 3c
       -0.0444447 -0.059405085 -0.055350117 0.019630328
0002e0 56 5b 82 3d 46 f8 fd bb 82 e2 90 bc db c1 10 3d
       0.06365077 -0.0077505438 -0.017686132 0.035341125
0002f0 09 18 c6 bd e2 77 34 3d 10 13 17 3d b3 0a 9d 3c
       -0.09672553 0.04405964 0.036883414 0.01917014
000300 cd 7a 11 bd d6 ca ea bd 85 9e 06 be a3 ab 3e 3d
       -0.035517503 -0.11464469 -0.13146408 0.046550404
000310 1a b1 33 3e 2d dc e5 bc 08 25 d1 3c 56 d7 d1 bd
       0.17548028 -0.02805909 0.025530353 -0.1024615
000320 e6 a8 69 bd f6 1e 7b bd e9 be 81 bc e4 37 0a 3e
       -0.05704584 -0.061308824 -0.015838103 0.13497883
000330 34 7b e0 bc c2 18 c8 bd 35 4c 80 3c 6f 97 91 bb
       -0.027402498 -0.09770347 0.015661338 -0.004443101
000340 52 9f 63 3d 06 15 a2 3c 30 66 9f 3c 1f 45 3d bd
       0.05557186 0.019785415 0.019457906 -0.046208497
000350 b0 a1 a2 bc 26 e2 ed bd 7f df 0a 3e 69 2f 0c be
       -0.01985249 -0.116154 0.1356182 -0.1368996
000360 b7 5a 9f bc ec 19 d7 3d f9 37 87 bc ed 91 73 bd
       -0.019452436 0.10502991 -0.016506182 -0.059465338
000370 b6 2a 0a be 6d 08 40 bd ba 61 6a 3d ac 94 0c be
       -0.13492855 -0.046883035 0.057222106 -0.13728589
000380 d0 fb b3 3d 63 b5 be 3d 74 1d dc 3c 1e 37 a0 3d
       0.08788264 0.093119405 0.026869513 0.07823013
000390 b8 19 7b 3d f2 6d b9 3c a8 d1 e2 3d b2 bb f5 bb
       0.061303824 0.022635434 0.11075145 -0.0074991817
0003a0 60 0d 02 be 24 40 4a 3d 68 80 e0 3c b0 8e 01 3e
       -0.12700415 0.049377576 0.027404979 0.12652087
0003b0 12 ae 5f 3d 29 ba a2 bd 15 9e 22 bd 68 2a 6c bd
       0.054609366 -0.079456635 -0.03970154 -0.05765763
0003c0 d6 ab ef bd e8 a0 02 3e 92 75 4f bd 0e 55 50 bc
       -0.11702697 0.12756693 -0.050649233 -0.012715591
0003d0 55 6a 93 bd 1b 32 2a bd 43 e2 2c 3d 1d 7d 62 bd
       -0.071980156 -0.04155169 0.042207967 -0.0552951
0003e0 48 17 2d 3d f1 b9 ac 3c f8 88 18 3d 81 16 5e 3d
       0.04225853 0.021084758 0.03724 0.05422068
0003f0 cc 29 f4 3d 67 f0 a9 3d b2 2f 3a bd b4 15 05 be
       0.119220346 0.08297806 -0.045455642 -0.1299656

feature_exact.m_encoder.layers.1.bias f4 [64]
000000 0c de 8c bd bd 46 bb bd a7 e3 33 3d 28 ea fe bd
       -0.068782896 -0.09144352 0.043918278 -0.124470055
000010 cd 2d 57 3d f6 21 9a 3d cf 8e 1d 3d f8 9a 6c 3d
       0.052533913 0.07526009 0.03846627 0.057764977
000020 0a 8c 70 3d 58 ac 9b bd 98 af 87 3d e3 4e 4d bd
       0.0587273 -0.07601231 0.06625289 -0.05012406
000030 c2 b7 15 3d 13 0b 8d 3d 4b 26 90 3c 9b d8 17 bb
       0.0365522 0.06886878 0.017596385 -0.0023169878
000040 7c c8 74 bd cc 9e a4 bd 33 03 71 bd fc 7a df bd
       -0.05976151 -0.080381006 -0.05884094 -0.10912129
000050 9d 76 0e bd 58 c1 ce 3c c8 32 b1 bd b2 c8 f5 bd
       -0.034781087 0.025238678 -0.08652264 -0.1200117
000060 12 9d 50 3d 9c 9b b0 3c ca b7 41 3d f9 66 61 3d
       0.050931044 0.021558575 0.047294416 0.055029843
000070 65 91 1c be 40 92 9e 3d 81 1d c4 3c 1c f7 f6 bd
       -0.15289839 0.07742739 0.02393985 -0.12058851
000080 42 94 c6 3d 50 70 81 bd d6 01 30 bd ab 68 a4 bd
       0.09696247 -0.0632025 -0.0429705 -0.08027776
000090 ab a9 f2 bd 97 8d 2f 3d 46 f0 f0 3d 38 55 da bd
       -0.11848768 0.04285964 0.117645785 -0.106607854
0000a0 1e 59 b9 3d 10 14 e1 3d 6b 95 e0 3c 10 1e 95 bd
       0.09050201 0.10990155 0.027414998 -0.072811246
0000b0 13 24 79 3d 07 33 a2 3d 77 83 c7 bc 37 0d 02 be
       0.06082542 0.07919889 -0.02435468 -0.12700354
0000c0 60 75 8d 3d 5b aa 7c 3d 15 28 57 bd b0 8b 04 bd
       0.06907153 0.0616859 -0.05252846 -0.03235978
0000d0 18 c4 7e bb 69 eb e5 bd c9 fe d0 bd 97 ad 2d bd
       -0.0038874205 -0.112265415 -0.102048464 -0.042401876
0000e0 2d 62 ff bd 1a c2 d2 3d 32 cd 46 3d f9 97 cf 3c
       -0.124698974 0.10290928 0.048535533 0.02534102
0000f0 89 82 37 3d d8 68 8c bd eb c4 db 3c b6 ef 1a 3b
       0.044802222 -0.06855935 0.026827296 0.0023641414
