trained_network/SD2/s2_a10_lrdec_hent_dim128.pth (torch, 304337 bytes, 26 tensors)

feature_exact.j_encoder.layers.0.weight f4 [64, 14]
0	0xbc2c2e08	-0.010509022
1	0x3e5d44a2	0.21608213
2	0xbd9c6beb	-0.07637771
3	0x3e0d2965	0.13785322
4	0x3d364076	0.04449507
5	0x3cd46c55	0.025930563
6	0xbe60f628	-0.21968901
7	0x3e48ba1d	0.19602247
8	0x3e877598	0.26456904
9	0x3e2cae9e	0.16863486
10	0xbc3cedfe	-0.011531351
11	0xbd7bd5a1	-0.06148303
12	0xbe328279	-0.17432584
13	0xbe691b78	-0.22764385
14	0x3dbc1738	0.09184116
15	0x3e687cbd	0.22703834
16	0xbdb8b7bb	-0.09019419
17	0xbe9a1b1f	-0.30098817
18	0xbe1aa5ac	-0.15102261
19	0xbce1c5b0	-0.027560085
20	0xbcad7d1d	-0.021177823
21	0x3d02a606	0.031896614
22	0x3e6c8b14	0.23099929
23	0xbe965260	-0.29359722
24	0x3da9181b	0.08256551
25	0xbe6f06dd	-0.23342462
26	0x3d5cccda	0.0539063
27	0xbe047d85	-0.12938507
28	0x3e304a92	0.17215946
29	0x3e345272	0.17609575
30	0xbe798267	-0.24366151
31	0xbe495346	-0.19660673
32	0x3cd805eb	0.02637001
33	0xbd8428e2	-0.0645311
34	0x3df5c726	0.12000875
35	0xbdf9986c	-0.12187275
36	0xbd9f1b5d	-0.07768891
37	0x3e58682d	0.2113349
38	0x3da54eeb	0.08071693
39	0xbdaf41a1	-0.085574396
40	0x3dd1216f	0.10211455
41	0x3e6285ce	0.22121355
42	0xbdde7314	-0.10861793
43	0x3e343c9e	0.17601249
44	0x3e301f39	0.1719941
45	0xbbf735a6	-0.007544237
46	0x3df73246	0.12070136
47	0x3e264c54	0.16240054
48	0xbdfbd982	-0.12297346
49	0xbe6ede1b	-0.23326914
50	0xbe4969cf	-0.19669269
51	0x3e667a46	0.22507581
52	0xbe4c966a	-0.19979253
53	0xbe199422	-0.14997914
54	0xbea882c1	-0.32912257
55	0x3e299d0a	0.16563812
56	0x3e52b692	0.20577458
57	0x3c79f89e	0.015257029
58	0xbe88df43	-0.26732835
59	0x3e18361d	0.14864393
60	0xbdabfed0	-0.08398211
61	0xbdc2f809	-0.09519965
62	0xbe0f2bb7	-0.1398152
63	0xbdba9f19	-0.09112377
64	0x3df37447	0.118874125
65	0x3e862a47	0.2620413
66	0x3de37fd1	0.111083634
67	0xbdc21c62	-0.0947807
68	0x3bb87bf9	0.005630013
69	0x3e22227f	0.15833472
70	0x3e0e63d0	0.13905263
71	0xbe5af6be	-0.21383187
72	0xbd51fb67	-0.051265147
73	0x3cc8cfda	0.024513174
74	0x3e1a3026	0.1505743
75	0xbe6c2a01	-0.23062898
76	0xbe393a42	-0.1808863
77	0x3e16e0e9	0.14734234
78	0x3cb2e845	0.02183927
79	0xbcbdf916	-0.023190062
80	0xbe56a462	-0.20961145
81	0x3b17a819	0.0023140965
82	0xbd863082	-0.06552221
83	0xbd92cbb5	-0.0716776
84	0xbcacec32	-0.02110872
85	0x3e428af4	0.18998319
86	0x3d5201b4	0.051271155
87	0x3bc4fa53	0.0060112863
88	0x3e843f53	0.25829563
89	0xbe0af9d6	-0.13571867
90	0xbe8038bb	-0.25043282
91	0x3e26d4bc	0.16292089
92	0xbdd07d91	-0.101802
93	0x3e641e74	0.22277242
94	0xbd4960a9	-0.049164448
95	0x3e2e1048	0.16998398
96	0x3d9a06fd	0.07520864
97	0xbe3799a8	-0.17929709
98	0xbdb27aaf	-0.08714806
99	0xbd3d0fcc	-0.046157643
100	0x3e56febb	0.2099561
101	0x3e779aaf	0.24180101
102	0xbe1e2d23	-0.15446906
103	0xbcb6b825	-0.022304604
104	0x3e6b54ef	0.22981618
105	0xbe679a58	-0.22617471
106	0x3caa1906	0.020763885
107	0x3dc70e7d	0.0971956
108	0x3d989618	0.07450503
109	0x3e01535f	0.1262946
110	0xbe936120	-0.28785038
111	0xbe3f94eb	-0.18709151
112	0xbdf62627	-0.12018996
113	0xbe526254	-0.20545322
114	0xbd6db9a8	-0.058038384
115	0xbe028741	-0.12746908
116	0xbdba8e32	-0.09109153
117	0xbd220ea1	-0.039564732
118	0xbd96879e	-0.07350086
119	0xbd2b53d0	-0.041827977
120	0x3dc503ab	0.0961984
121	0x3b8c17f1	0.004275315
122	0xbe614a9c	-0.22001117
123	0xbe808122	-0.2509852
124	0x3e8923bf	0.26785085
125	0x3e3a36b4	0.1818493
126	0x3db829bb	0.089923345
127	0xbdcad814	-0.09904495
128	0xbd003995	-0.031304915
129	0xbe06cca8	-0.13164008
130	0x3d11f501	0.035634045
131	0x3dd015e5	0.10160426
132	0x3cc47dca	0.023985762
133	0xbe73b1cb	-0.23798291
134	0xbe28aada	-0.16471425
135	0x3e01635e	0.12635562
136	0xbe795a1f	-0.24350785
137	0xbe33ef99	-0.17571868
138	0xbe06cb0c	-0.13163394
139	0x3aafea52	0.0013421273
140	0x3e0103e3	0.12599139
141	0xbe6d71ac	-0.23187894
142	0x3cda2235	0.02662764
143	0xbc10e790	-0.008844271
144	0xbcd9420b	-0.02652075
145	0xbe3916bf	-0.18075083
146	0xbd8e2118	-0.06939906
147	0xbda76a95	-0.08174626
148	0x3dd41105	0.10354809
149	0x3e8351e8	0.25648427
150	0xbd8a643e	-0.06757401
151	0x3deeb5e0	0.11655784
152	0xbea9bf6f	-0.33153865
153	0xbe19ee6a	-0.15032354
154	0xbe4267e4	-0.18984944
155	0xbe08dac4	-0.13364702
156	0xbdaaaa4e	-0.08333264
157	0xbd928ce3	-0.07155778
158	0x3db7e5b6	0.08979361
159	0xbe1994f4	-0.14998227
160	0xbd0866b3	-0.033301067
161	0x3e0cf901	0.13766862
162	0x3e137693	0.14400701
163	0x3e8cc1c3	0.27491578
164	0xbe83698b	-0.2566646
165	0x3dae135b	0.084997855
166	0xbdfd12cc	-0.12357101
167	0x3e28d9eb	0.16489379
168	0x3d2fb9fc	0.042901978
169	0x3d1e55be	0.03865599
170	0x3e4765f5	0.19472487
171	0xbe90d314	-0.2828604
172	0xbdd84678	-0.10560316
173	0xbd9ca3c4	-0.07648423
174	0x3da07628	0.078350365
175	0x3e1f3756	0.15548453
176	0xbd83937c	-0.06424615
177	0x3d053979	0.032525513
178	0xbdfed9e8	-0.12443906
179	0x3d871bd0	0.06597102
180	0xbe55a6dd	-0.20864435
181	0xbea9937b	-0.3312033
182	0x3e533029	0.2062384
183	0x3de8df13	0.11370673
184	0xbe9cec41	-0.30648997
185	0xbe1bab5b	-0.15202086
186	0x3e56c301	0.20972826
187	0xbe284fe7	-0.1643673
188	0xbd7a2923	-0.061074387
189	0x3d454c42	0.04816843
190	0x3d6a381f	0.057182427
191	0xbd71e5a0	-0.059056878
192	0x3e3803db	0.1797022
193	0x3aecdd56	0.0018071334
194	0x3e134f59	0.14385737
195	0x3d428f7c	0.04750012
196	0x3df0b930	0.11754072
197	0xbd81a332	-0.06329955
198	0xbe44246d	-0.1915452
199	0x3dca6de1	0.09884239
200	0xbd4230be	-0.047409765
201	0xbd901073	-0.070343874
202	0xbe47031f	-0.19434784
203	0xbe01c443	-0.12672524
204	0x3e19722a	0.14984956
205	0xbd25e153	-0.04049809
206	0x3c97af2b	0.018516144
207	0xbdf94dc1	-0.121730335
208	0xbe58329e	-0.21113059
209	0xbe5118e8	-0.20419657
210	0xbe1af09a	-0.15130845
211	0x3e2a80b8	0.16650665
212	0xbe66d0ea	-0.22540632
213	0xbe0ab4ac	-0.13545483
214	0x3e24db84	0.16099364
215	0x3d8e28da	0.069413856
216	0x3d15a7f0	0.03653711
217	0x3e310fda	0.17291203
218	0x3e72b962	0.2370353
219	0xbd5eff74	-0.054442838
220	0x3e7bb91e	0.24582335
221	0x3dfe9556	0.12430827
222	0x3e960593	0.29301128
223	0xbe2ad899	-0.16684188
224	0xbbeb01b7	-0.0071718353
225	0x3daeb906	0.08531384
226	0xbd184ffd	-0.037185658
227	0xbcdbe2e1	-0.026841583
228	0x3d4c6184	0.049897686
229	0xbe4a4b3f	-0.19755267
230	0xbe303c14	-0.17210418
231	0xbe82826d	-0.25490132
232	0x3dae5603	0.08512499
233	0x3e41ad10	0.18913674
234	0xbd98b0ec	-0.0745562
235	0xbd30323e	-0.043016665
236	0x3e7a4a83	0.24442486
237	0xbda255b0	-0.079265
238	0xbdf5db00	-0.120046616
239	0x3dcc4bc7	0.09975391
240	0x3dd8d002	0.10586549
241	0xbe808990	-0.25104952
242	0x3e9eca94	0.3101393
243	0xbe48bb65	-0.19602735
244	0x3e093577	0.13399301
245	0x3dfa4890	0.122208714
246	0xbd860f91	-0.06545938
247	0xbe57d91d	-0.21078916
248	0x3e0bda3c	0.13657469
249	0xbdfd902d	-0.12381015
250	0xbe8931df	-0.2679586
251	0xbe2a9200	-0.16657257
252	0x3e237a16	0.15964541
253	0x3d2aaa16	0.041666113
254	0x3dd54ee4	0.10415438
255	0xbe3b55cf	-0.18294452

feature_exact.j_encoder.layers.0.bias f4 [64]
0	0xbe60d55d	-0.21956392
1	0xbd16c5cd	-0.03680973
2	0xbda42fed	-0.080169536
3	0x3c111603	0.008855346
4	0xbe357faa	-0.17724481
5	0xbdb00ed1	-0.08596576
6	0x3a12db8a	0.0005602172
7	0xbe7f4d1d	-0.2493176
8	0x3aa41f4e	0.0012521537
9	0xbdc62e94	-0.09676853
10	0xbdf85cfc	-0.1212711
11	0x3d033a8a	0.03203825
12	0xbe10a4fe	-0.1412544
13	0x3e6d2341	0.2315798
14	0x3e0ba300	0.13636398
15	0x3cb4127e	0.021981474
16	0xbe4d1a3b	-0.20029537
17	0xbc314404	-0.010819439
18	0xbab4b8da	-0.0013788
19	0x3d99113f	0.074739926
20	0xbe39dffe	-0.18151852
21	0x3e05dda2	0.13072827
22	0x3e254b2e	0.1614196
23	0x3db3b091	0.08773912
24	0xbdae9db3	-0.085261725
25	0x3e248e67	0.16069947
26	0x3e6d83a4	0.23194748
27	0x3d4b5c66	0.049648665
28	0x3cf0d4a8	0.029398277
29	0x3e911810	0.2833867
30	0xbe60451e	-0.21901366
31	0xbddc1d80	-0.10747814
32	0x3e54085c	0.20706314
33	0xbdc166d6	-0.094434425
34	0x3db42771	0.08796585
35	0xbdd1e69d	-0.10249064
36	0x3d1389d6	0.036020122
37	0xbaf2826b	-0.0018502002
38	0x3d05f591	0.032704893
39	0xbdd1c82a	-0.102432564
40	0xbd92c542	-0.0716653
41	0xbc1acfe7	-0.009448982
42	0xbe057d56	-0.13036093
43	0x3e0d994b	0.13828008
44	0xbe73a768	-0.23794329
45	0x3d1e5a99	0.03866062
46	0x3e169a10	0.14707208
47	0xbe47dc8f	-0.1951773
48	0x3b29d24b	0.0025912698
49	0xbddebf98	-0.10876387
50	0x3e58ff91	0.21191241
51	0x3e7bf1d5	0.2460397
52	0x3d16b4cf	0.036793526
53	0x3e21b451	0.15791442
54	0x3e557d3f	0.20848559
55	0x3da7b8b0	0.08189523
56	0x3e2f47f5	0.17117293
57	0x3e560fbd	0.20904441
58	0x3dfb0c69	0.122582264
59	0x3e5c9bfe	0.21543881
60	0x3e7c63b6	0.24647412
61	0x3dc8ea5d	0.09810326
62	0xbe67f478	-0.22651851
63	0x3cb45af2	0.022016022

feature_exact.j_encoder.layers.1.weight f4 [64, 64]
0	0x3bac1c27	0.0052523795
1	0xbe000c55	-0.12504704
2	0xbcb22248	-0.021744862
3	0x3ca8fd74	0.020628668
4	0xbce97457	-0.028497858
5	0x3de26760	0.110548735
6	0xbd9f52d4	-0.0777947
7	0xbdfe39cd	-0.124133684
8	0x3d64e0bc	0.055878386
9	0xbd8a33ad	-0.067481376
10	0xbdcac9fe	-0.09901808
11	0x3d9d1b39	0.07671208
12	0x3a066342	0.0005126485
13	0x3bacbe5f	0.0052717174
14	0x3dbad21b	0.09122106
15	0xbb007d75	-0.0019606028
16	0xbc2e1446	-0.010624951
17	0x3d86582b	0.065597855
18	0xbde41403	-0.111366294
19	0xbd289c98	-0.041164964
20	0xbdbc8363	-0.092047475
21	0x3d812690	0.06306183
22	0xbd37c83f	-0.044868704
23	0xbe04a768	-0.12954485
24	0x386cdb92	5.6471275e-05
25	0x3dd0622b	0.10174974
26	0xbd0529ce	-0.03251057
27	0xbd05c0cd	-0.032654572
28	0xbe032b7f	-0.12809561
29	0xbc9365b3	-0.01799283
30	0xbcd9eba1	-0.026601614
31	0xbd051dfb	-0.032499295
32	0x3c4bfa96	0.012449881
33	0x3dfc9d2f	0.12334668
34	0xbc12d1cd	-0.008961153
35	0x3d412553	0.047154736
36	0x3cb2ed31	0.021841617
37	0x3e2cc7b5	0.16873057
38	0xbd264402	-0.0405922
39	0xb99137ba	-0.00027698075
40	0xbb11e06a	-0.0022259005
41	0x3bc93411	0.00614024
42	0xbe0c9ca1	-0.13731624
43	0x3dc59d27	0.09649115
44	0xbdd6da40	-0.10490847
45	0xbdbc54af	-0.091958396
46	0x3d07743d	0.033069838
47	0xbdfbde02	-0.12298204
48	0xbbbfff51	-0.0058592935
49	0xbdad4215	-0.0845987
50	0xbd1711d2	-0.03688223
51	0x3d056fdb	0.032577377
52	0x3de6292d	0.112383224
53	0xbd51b0a9	-0.051193867
54	0x3db0de14	0.08636108
55	0x3dfa71c1	0.12228728
56	0x3dc16ea0	0.09444928
57	0x3d9e877c	0.07740685
58	0xbb243844	-0.002505795
59	0xbc467f61	-0.01211533
60	0x3d9812b0	0.07425439
61	0x3b169f9e	0.0022983323
62	0xbd4a043e	-0.049320452
63	0xbd4dd22c	-0.050249264
64	0xbe159f11	-0.1461146
65	0xbca72481	-0.020403149
66	0x3e0552aa	0.13019815
67	0xbc9d09e0	-0.019169748
68	0xbda45327	-0.080236726
69	0x3d0834f1	0.033253614
70	0xbd2e67d7	-0.0425795
71	0xbe131616	-0.14363894
72	0xbd9a468d	-0.07532988
73	0xbdf80e61	-0.121121176
74	0xbdb854f8	-0.090005815
75	0x3dbfbfc1	0.09362746
76	0x3dcf3964	0.10118368
77	0x3daa6ee5	0.08321933
78	0x3d34840c	0.044071242
79	0xbd035a52	-0.032068558
80	0x3c85b452	0.016321335
81	0xbe01f17a	-0.12689772
82	0xbdbcf0b3	-0.09225597
83	0xbdb438b2	-0.08799876
84	0x3d46bb16	0.048518263
85	0x3d154c07	0.03644946
86	0x3d4032a2	0.046923287
87	0xbdd5787d	-0.10423372
88	0xbd8ec785	-0.06971649
89	0x3da0e20e	0.078556165
90	0xbdabf163	-0.0839565
91	0xbd88d160	-0.0668056
92	0x3e01218a	0.1261045
93	0x3d371a52	0.044702835
94	0x3c4ca2f2	0.012490021
95	0x3d46f23f	0.048570868
96	0x3dafd0f0	0.085847735
97	0x3dad970c	0.084760755
98	0xbd16ebab	-0.036845844
99	0xbce06c4b	-0.027395388
100	0xbd11428a	-0.035463847
101	0x3d888bf8	0.06667322
102	0x3df8389b	0.12120172
103	0x3bd63920	0.0065375715
104	0xbd828dfc	-0.063747376
105	0xbdc402e5	-0.095708646
106	0xbd4dc744	-0.050238863
107	0xbcf14203	-0.029450422
108	0x3da8e006	0.08245854
109	0xba0b6ee5	-0.0005318954
110	0xbd8fda8e	-0.07024108
111	0x3c58aa12	0.013224142
112	0x3de4ed2f	0.11178052
113	0x3dc07217	0.09396761
114	0x3d67d0af	0.0565955
115	0x3da6a204	0.08136371
116	0xb9599a7d	-0.00020752284
117	0xbc91ec5a	-0.017812897
118	0x3d16f290	0.03685242
119	0x3d7dfb81	0.06200743
120	0x3e09e365	0.1346565
121	0x3db1088c	0.08644208
122	0xbb5479ca	-0.0032421225
123	0xbd05e7a9	-0.03269163
124	0x3dc55255	0.09634844
125	0x3d06aaab	0.032877605
126	0x3caf3360	0.021386802
127	0xbd87784e	-0.06614743
128	0xbda13746	-0.07871871
129	0x3d8706b5	0.06593076
130	0xbd3b2d42	-0.045697458
131	0x3bf7fcf9	0.0075679985
132	0xbe000690	-0.12502503
133	0xbddcf768	-0.107893765
134	0x3d861fe6	0.06549053
135	0x3ca9d1a9	0.020729857
136	0xbd0b7da9	-0.034055386
137	0xbdcba7ea	-0.099441364
138	0x3cc44499	0.023958491
139	0xbce7ea4b	-0.028309962
140	0x3d9a79e4	0.0754278
141	0x3d996c3f	0.074913494
142	0xbc21a509	-0.009866008
143	0x3d25e628	0.040502697
144	0x3e0de09b	0.13855211
145	0xbcfb246d	-0.030657018
146	0xbc7805bb	-0.015138085
147	0xbdca8391	-0.098883756
148	0x3d91f6ab	0.07127126
149	0xbd99ac9c	-0.07503626
150	0xbd267569	-0.040639315
151	0x3ca8568a	0.020549078
152	0x3d81e9b3	0.06343403
153	0x3d96e9d1	0.07368816
154	0xbd67da83	-0.056604873
155	0xbd577dc7	-0.052610185
156	0xbd230f88	-0.039809734
157	0x3e0f4645	0.1399165
158	0xbd7bffc8	-0.06152323
159	0x3db3705c	0.08761665
160	0xbd51bc2b	-0.05120484
161	0x3d99b842	0.075058475
162	0xbd9b60a0	-0.07586789
163	0xbe09f42b	-0.13472049
164	0x3df312da	0.1186883
165	0xbc9b5016	-0.018959086
166	0xbd48ca77	-0.04902121
167	0xbdaf428d	-0.085576154
168	0xbdc04b78	-0.093893945
169	0xbdfe7d7b	-0.12426277
170	0x3b7bcf2a	0.003842304
171	0x3da154c7	0.07877498
172	0x3ded678e	0.11592017
173	0xbdbb0c0c	-0.09133157
174	0x3d463ad2	0.04839594
175	0xbdd17c0e	-0.1022874
176	0xbd5889e5	-0.05286588
177	0xbd74b749	-0.059745107
178	0x3dae6c6c	0.085167736
179	0xbd329c2b	-0.043605965
180	0x3d8ec690	0.069714665
181	0x3db794fc	0.089639634
182	0xbd998c22	-0.07497431
183	0xbce735ce	-0.028223898
184	0x3d8bd7db	0.068282805
185	0x3cc529f4	0.024067856
186	0x3dbba2ab	0.09161886
187	0xbd2df20f	-0.042467173
188	0x3d988a3e	0.074482426
189	0x3e01ee10	0.1268847
190	0x3defbfba	0.11706491
191	0x3a700fce	0.00091576285
192	0x3d98ca6e	0.074604854
193	0xbc53eac9	-0.012934395
194	0xbc8c6ab8	-0.017140731
195	0x3d61e758	0.055152267
196	0xbd0b8bcd	-0.03406887
197	0xbd260f04	-0.040541664
198	0x3d691e89	0.056913886
199	0x3d1a5da7	0.03768697
200	0xbe022147	-0.12708007
201	0xbde5019d	-0.11181948
202	0xbd6985c6	-0.057012342
203	0x3d97e747	0.074171595
204	0x3d9c478e	0.076308355
205	0x3c434fbf	0.011920868
206	0xbe075af6	-0.13218293
207	0x3dd75d6e	0.10515867
208	0xbe0332fb	-0.12812416
209	0x3d4d03bb	0.050052386
210	0x3d28a3f0	0.041171968
211	0x3ddc4771	0.10755814
212	0xbb819cf9	-0.00395548
213	0xbdbb51e1	-0.091464765
214	0x3dd73008	0.10507208
215	0x3d0b54e2	0.034016497
216	0xbcec8bbc	-0.028875224
217	0xbd7ad77b	-0.061240654
218	0xbd9a554d	-0.07535801
219	0x3e0e1804	0.13876349
220	0x3ccf043c	0.025270574
221	0x3d326838	0.043556422
222	0xba6b54e9	-0.0008977191
223	0xbd980905	-0.07423595
224	0xbe0ab8c5	-0.13547046
225	0xbd7369ce	-0.059427075
226	0x3c19120b	0.009342681
227	0xbd4e0897	-0.05030116
228	0x3c6935bb	0.014234002
229	0x3c9fd510	0.019510776
230	0xbcb8fe86	-0.022582304
231	0xbda52ad5	-0.0806481
232	0xbd570d19	-0.052502725
233	0xbdc8aacc	-0.09798202
234	0x3e18a7eb	0.14907806
235	0xbd29d1ac	-0.041459724
236	0xbbc3bc44	-0.0059733707
237	0x3deaf290	0.114720464
238	0xbd95ea22	-0.07320048
239	0xbd2f7e40	-0.04284501
240	0x3dd939c1	0.10606719
241	0xbc7ba79a	-0.015359784
242	0x3d9d8243	0.07690861
243	0xbdbda669	-0.09260256
244	0xbd4ba01d	-0.049713243
245	0x3cf6c93a	0.03012525
246	0x3d2f4a9a	0.042795755
247	0xbcaf8bcf	-0.02142897
248	0x3de1538b	0.11002263
249	0x3d488c04	0.048961654
250	0x3db812a3	0.0898793
251	0x3d8ed664	0.069744855
252	0x3db3c6cd	0.087781526
253	0x3c65db6b	0.014029364
254	0xbb873476	-0.004126127
255	0xbc58ae0e	-0.013225092

feature_exact.j_encoder.layers.1.bias f4 [64]
0	0xbd99d667	-0.07511597
1	0xbe014c10	-0.12626672
2	0x3e00d9a9	0.12583031
3	0xbdea3fd0	-0.114379525
4	0x3d2fdf2f	0.042937454
5	0xbcde9250	-0.027169377
6	0x3cfb47de	0.030673917
7	0xbd96d2c4	-0.07364419
8	0x3ca6040d	0.020265603
9	0xbdd54bfa	-0.10414882
10	0xbd958c0e	-0.07302104
11	0xbda0f259	-0.07858724
12	0x3d89c4e6	0.067270085
13	0xbc57828d	-0.013153684
14	0xbdc74040	-0.097290516
15	0xbdd447bd	-0.103652455
16	0x3daaa0c5	0.083314456
17	0x3c91813a	0.017761815
18	0xbba91c63	-0.0051608547
19	0xbdfea138	-0.12433094
20	0x3cb1b962	0.021694843
21	0xbe00f0cf	-0.12591861
22	0x3d670983	0.056405555
23	0x3cff24c4	0.03114546
24	0xbd381d46	-0.044949792
25	0x3d1533de	0.036426418
26	0x3def8d30	0.11696851
27	0x3d129507	0.035786655
28	0xbda3ed6e	-0.080042705
29	0x3c853b12	0.016263518
30	0xbdb0cf30	-0.08633268
31	0xbd8c6554	-0.06855264
32	0x3cfd9722	0.030955855
33	0xbd5b2e86	-0.053511165
34	0x3e082d13	0.13298444
35	0x3df54d15	0.11977593
36	0x3dc0bf73	0.09411516
37	0x3ad479a0	0.0016210563
38	0x3cb1bff0	0.021697968
39	0x3d3dfc8a	0.04638342
40	0x3e14d93f	0.14535998
41	0x3d8767e5	0.06611613
42	0xbd4bddc2	-0.04977203
43	0xbd2576bb	-0.040396433
44	0x3d39ca23	0.04535879
45	0xbb8eb4fd	-0.0043550716
46	0xbe111ece	-0.14171907
47	0xbccc373c	-0.024928682
48	0xbd4aad1b	-0.049481492
49	0x3da9dca2	0.082940355
50	0x3d87c6a4	0.066296846
51	0xbcfee105	-0.031113157
52	0x3cfffc84	0.031248339
53	0x3da2439a	0.0792305
54	0xbd418da8	-0.047254235
55	0x3dd69bed	0.10478959
56	0xbd926865	-0.07148818
57	0xbdb4f9c3	-0.08836701
58	0x3dacbc4f	0.084343545
59	0xbd6ddb50	-0.05807048
60	0x3c7f644c	0.0155878775
61	0x3d05051b	0.032475572
62	0xbccc10fd	-0.024910444
63	0xbd50b723	-0.050955903

feature_exact.j_encoder.layers.2.weight f4 [32, 64]
0	0xbd857a7f	-0.06517505
1	0x3d011caa	0.031521477
2	0x3c3f5b5b	0.011679496
3	0x3d35358d	0.044240523
4	0x3d9d46fb	0.07679554
5	0xbd6985ab	-0.05701224
6	0x3d46354b	0.048390668
7	0x3d7dcf26	0.06196513
8	0xbc64fd16	-0.013976356
9	0x3d03ee60	0.032209754
10	0x3d6368a4	0.055519715
11	0xbdfe8d1a	-0.12429257
12	0xbd757f3a	-0.059935786
13	0x3cc2d545	0.023783335
14	0xbe0102fe	-0.12598798
15	0x3c73a443	0.014870706
16	0x3c041e91	0.008063928
17	0x3d4b69a0	0.04966128
18	0xbd5fbdb9	-0.054624293
19	0x3d962401	0.07331086
20	0x3d911474	0.07083979
21	0xbe1c6214	-0.15271789
22	0xbd00ee8b	-0.031477492
23	0x3db1b9b4	0.08677998
24	0x3d264f48	0.040602952
25	0xbe0eda9d	-0.13950582
26	0x3bfb4ddc	0.0076691937
27	0xbd26a680	-0.04068613
28	0xbdc64f89	-0.09683139
29	0x3dafb08a	0.08578594
30	0x3df83f49	0.12121446
31	0xbdc645c4	-0.096812755
32	0xbd26e914	-0.040749624
33	0xba2ae0ac	-0.0006518464
34	0xbdbbe0a3	-0.091737054
35	0xbdeb3e1a	-0.11486454
36	0xbd7b1b97	-0.06130561
37	0xbda48479	-0.0803308
38	0xbdb88ec7	-0.090116076
39	0xbe029672	-0.12752703
40	0xbc0ced48	-0.008601494
41	0x3de8b196	0.11361997
42	0xbd6712c1	-0.05641437
43	0x3dbd67e2	0.0924833
44	0x3d1974ae	0.03746479
45	0xbd1e5242	-0.038652666
46	0x3d2d28d5	0.04227527
47	0xbc0e6500	-0.008691072
48	0x3ceb1dee	0.028700795
49	0xbd2fc953	-0.042916607
50	0xbd873b13	-0.066030644
51	0x3c9570b1	0.018242212
52	0x3c0831f1	0.008312688
53	0xbd64268c	-0.055700824
54	0x3ddc7394	0.10764232
55	0xbe0185ba	-0.12648669
56	0xbd36505c	-0.04451023
57	0xbdf65b8e	-0.120291814
58	0x3de09e3a	0.10967679
59	0xbd83f050	-0.0644232
60	0x3da2dfe8	0.07952863
61	0x3db7ccff	0.08974647
62	0xbe01d2de	-0.12678096
63	0x3d9365c8	0.071971476
64	0xbe21e14b	-0.15808599
65	0xbd89ae6d	-0.06722722
66	0x3de3d9e9	0.111255474
67	0xbdb8d6bd	-0.09025333
68	0xbb7b8d19	-0.0038383661
69	0x3c3d8d25	0.011569296
70	0x3cc9987e	0.024608847
71	0x3dcc304d	0.0997015
72	0xbd10c2c1	-0.03534198
73	0x3dee94c4	0.116494685
74	0x3d5ff484	0.054676548
75	0xbd07f3fb	-0.033191662
76	0xbdaebc3a	-0.08531995
77	0x3b7ef6e4	0.0038904482
78	0x3dcbe304	0.09955409
79	0xbdc9a51e	-0.09845947
80	0xbd869a7f	-0.065724365
81	0xbd7c3315	-0.061572153
82	0x3db72934	0.08943406
83	0x3da848e2	0.08217026
84	0x3d144d42	0.03620649
85	0x3e3e0de9	0.18559994
86	0xbdd0019a	-0.101565555
87	0xbdf2ae71	-0.11849678
88	0xbd040565	-0.032231707
89	0x3dd9e167	0.10638695
90	0x3db16a89	0.08662898
91	0xbdde9ac3	-0.10869362
92	0x3d18b347	0.037280347
93	0xbd86ef10	-0.06588566
94	0xbdda7af9	-0.106679864
95	0xbd2d15c4	-0.042257085
96	0xba25ec21	-0.00063294364
97	0xbe0976fc	-0.13424295
98	0xbde367e7	-0.11103802
99	0xbbe529b6	-0.0069934977
100	0x3b97e0c8	0.0046349503
101	0x3d966de7	0.07345181
102	0xbe08b0fc	-0.13348764
103	0x3dd014a5	0.10160188
104	0x3dc6b78d	0.09702978
105	0xbda41bee	-0.0801314
106	0xbd7fa52f	-0.06241339
107	0x3c7a941b	0.0152941
108	0xbdb96ece	-0.090543374
109	0xbda1929a	-0.0788929
110	0xbc76fc89	-0.0150748575
111	0x3d4670bc	0.048447356
112	0x3d8383bc	0.06421611
113	0xbd8b632a	-0.068060234
114	0x3d8788f7	0.06617921
115	0xbdc29ce0	-0.09502578
116	0xbdc39707	-0.095502906
117	0xbd8dfebf	-0.069333546
118	0xbdcef1b9	-0.10104699
119	0x3ce8f1b6	0.02843557
120	0xbc021cc9	-0.007941433
121	0x3e0becc8	0.13664544
122	0x3d043ca5	0.032284398
123	0x3c1b43f9	0.009476655
124	0x3dd51e03	0.10406115
125	0x3d50c591	0.050969664
126	0xbd55c2ca	-0.05218772
127	0x3d2a3ad3	0.041560005
128	0xbd81d4b8	-0.06339401
129	0x3cd58e1c	0.02606874
130	0xbd62b354	-0.055346802
131	0x3c1a9674	0.009435285
132	0x3d950dfa	0.072780564
133	0x3d59456b	0.053044718
134	0xbac0846f	-0.0014687906
135	0x3e4189c1	0.18900205
136	0x3db38025	0.08764676
137	0xbcd2505d	-0.025673086
138	0x3da26916	0.079302
139	0x3da20d8c	0.0791274
140	0x3da74b4c	0.081686586
141	0xbc8506a0	-0.01623851
142	0x3e1d10af	0.15338396
143	0x3dd1b5f1	0.10239781
144	0x3d4719a4	0.048608437
145	0xbe43479e	-0.19070289
146	0xbdd2a897	-0.10286062
147	0xbe0fd450	-0.14045835
148	0x3ab93099	0.0014128863
149	0xbd882805	-0.06648258
150	0xbd55ee58	-0.052229255
151	0x3e16c477	0.14723383
152	0x3db6ab12	0.08919348
153	0x3dac6204	0.084171325
154	0x3d73b0b7	0.0594947
155	0x3dad492d	0.08461223
156	0xbd5671d0	-0.052354634
157	0x3c9083ea	0.017641027
158	0x3d5f5803	0.054527294
159	0x3d2dd4fa	0.04243944
160	0x3d8fbf0f	0.070188634
161	0x3d1e9711	0.038718287
162	0x3a243fbb	0.00062656
163	0x3d88a783	0.06672575
164	0xbdc6a289	-0.0969897
165	0x3ddc19de	0.10747121
166	0x3decabe8	0.11556226
167	0xbd9602cd	-0.07324753
168	0xbdcbcd83	-0.099513076
169	0x3b971eb6	0.0046118153
170	0x3d8d1ac3	0.0688987
171	0x3dc33c40	0.09532976
172	0x3ba2851d	0.004959716
173	0x3ba956b8	0.0051678084
174	0xbe075c2c	-0.13218755
175	0x3d065b98	0.032802194
176	0xbdb23164	-0.08700827
177	0x3d401166	0.046891592
178	0xbd9e3ed6	-0.07726829
179	0x3dd7038a	0.10498722
180	0x3d72c498	0.059269518
181	0x3c6ea1f4	0.01456498
182	0xbd93e702	-0.072217956
183	0xbdeca91f	-0.11555695
184	0xbbd0f644	-0.0063770134
185	0xbda9bc53	-0.08287873
186	0xbdafcb83	-0.08583739
187	0x3d07148a	0.032978572
188	0x3dbaf569	0.091288395
189	0x3dad15f1	0.084514506
190	0x3d93af8d	0.07211218
191	0x3e19ba99	0.15012588
192	0x3d891b42	0.06694652
193	0x3cada38f	0.021196155
194	0x3dfb30fd	0.12265203
195	0xbd5c438f	-0.053775366
196	0xbd9fa026	-0.07794218
197	0x3d9ca64c	0.07648906
198	0xbe0dc1df	-0.13843487
199	0xbdafc53f	-0.085825436
200	0x3d89ac36	0.067223
201	0xbdb23bbf	-0.08702802
202	0xbd903806	-0.070419356
203	0xbe1273a0	-0.1430192
204	0xbd0b4163	-0.033997905
205	0x3a62105f	0.00086236553
206	0xbe0d7780	-0.13815117
207	0xbdd3bd2b	-0.10338815
208	0x3d6a1f1a	0.057158567
209	0x3c6386bc	0.013887104
210	0xbd15a429	-0.03653351
211	0x3d825656	0.063641235
212	0x3c437f3b	0.01193219
213	0x3de89d94	0.11358181
214	0xbd0cb328	-0.034350544
215	0xbc1b83a7	-0.009491838
216	0x3cfca457	0.030840082
217	0xbcc618f5	-0.024181822
218	0x3df87b66	0.121329114
219	0xbd74975b	-0.059714656
220	0x3bb00035	0.0053711184
221	0x3da25172	0.07925691
222	0x3c2e8045	0.010650699
223	0xbe06f5ab	-0.13179652
224	0x3db34e4e	0.0875517
225	0xbd5055af	-0.050862964
226	0xbd454da5	-0.04816975
227	0x3df22f5f	0.118254416
228	0xbdef5ca5	-0.116875924
229	0x3dba5e03	0.090999626
230	0xbdd65461	-0.10465313
231	0x3d7da825	0.061927933
232	0xbc14a693	-0.0090729175
233	0x3dd899f2	0.10576238
234	0xbdba551a	-0.09098263
235	0x3b24e6f4	0.0025162073
236	0x3df1aaf7	0.11800187
237	0xbdd73ab1	-0.10509241
238	0x3d3f6046	0.046722673
239	0xbcb98d88	-0.022650495
240	0xbdd6d510	-0.10489857
241	0xbe0756f8	-0.1321677
242	0xbbab5446	-0.005228552
243	0xbd89f741	-0.06736613
244	0x3d94998e	0.07255851
245	0xbd420602	-0.04736901
246	0xbd7d5021	-0.061843995
247	0xbde6e68e	-0.112744436
248	0xbd88fe08	-0.066890776
249	0x3d9219e6	0.07133846
250	0x3dc40d30	0.09572828
251	0x3d6eac38	0.05826971
252	0xbce8ebac	-0.02843269
253	0xbd8f75c5	-0.07004885
254	0xbb95b239	-0.004568365
255	0xbcf97e41	-0.03045571

feature_exact.j_encoder.layers.2.bias f4 [32]
0	0x3de0b351	0.10971702
1	0xbac2c731	-0.0014860389
2	0xbcf788f4	-0.030216672
3	0xbc3c7bf8	-0.011504166
4	0xbde9764e	-0.11399518
5	0xbddb013e	-0.10693596
6	0x3dabb293	0.0838367
7	0xbdcc1552	-0.09965004
8	0x3c9a302a	0.018821795
9	0x3d83bd80	0.06432629
10	0xbc8dd55b	-0.01731365
11	0x3d8263bc	0.06366679
12	0x3d32c0ce	0.043640904
13	0xbc68f139	-0.014217668
14	0xbdd709b8	-0.104999006
15	0xbd46cab6	-0.048533164
16	0xbe020642	-0.126977
17	0x3d3ed212	0.046587057
18	0x3d91af13	0.07113471
19	0xbbbc642f	-0.0057492475
20	0x3dd1ea6a	0.10249789
21	0x3d3c06c7	0.0459049
22	0xbd4773ec	-0.048694536
23	0x3a5665d7	0.00081786275
24	0x3de484c2	0.11158134
25	0xbdf8f9f6	-0.12157051
26	0xbd9a575d	-0.075361945
27	0x3d80ef7a	0.062956765
28	0xbd3c136f	-0.04591697
29	0xbc245f44	-0.010032479
30	0xbd82a34f	-0.06378805
31	0xbde485f2	-0.111583605

feature_exact.m_encoder.layers.0.weight f4 [64, 8]
0	0xbea4d56c	-0.32194078
1	0xbcc8be5d	-0.024504835
2	0x3e459791	0.19296099
3	0x3e47e931	0.19522549
4	0xbdb990c5	-0.09060816
5	0x3e9cfdb9	0.30662325
6	0xbeb27748	-0.3485663
7	0x3deaacdf	0.11458754
8	0x3e18fd93	0.14940481
9	0x3de27d30	0.11059034
10	0xbe9f5ec5	-0.3112699
11	0xbe8c36eb	-0.2738565
12	0xbdf02df4	-0.11727515
13	0xbe4b584b	-0.198579
14	0xbe3df390	-0.18549943
15	0xbe6cb0f5	-0.23114379
16	0xbd9806fd	-0.07423208
17	0x3eb2260b	0.3479465
18	0x3eb3b63c	0.3509997
19	0xbebfc700	-0.37456512
20	0xbe839354	-0.2569834
21	0xbe5d15c3	-0.21590333
22	0x3e647b1c	0.22312587
23	0x3e77b527	0.24190198
24	0x3e34abaa	0.1764361
25	0x3d1ffeec	0.03906147
26	0x3ebef798	0.37298274
27	0x3e637760	0.22213507
28	0x3e13e7c6	0.14443883
29	0xbd2a524d	-0.041582394
30	0x3e2878e3	0.16452365
31	0x3d32b35e	0.04362809
32	0xbcb5b524	-0.022181101
33	0xbeb0b07f	-0.34509656
34	0x3955d60d	0.00020393003
35	0xbeb95dc1	-0.3620434
36	0xbe33352e	-0.17500755
37	0x3e3b8832	0.18313673
38	0xbe8b7dcd	-0.27244416
39	0xbe1d20f5	-0.15344603
40	0x3e41c332	0.18922117
41	0xbe88a6b5	-0.26689687
42	0x3e443f5d	0.19164796
43	0x3ea54cdb	0.322852
44	0xbe00c3a4	-0.12574631
45	0xbdb47388	-0.08811098
46	0xbe7bd455	-0.24592717
47	0x3e446a46	0.19181165
48	0xbe7b87c3	-0.24563508
49	0x3e2bd0d4	0.1677888
50	0xbe206507	-0.15663539
51	0x3e597fea	0.21240202
52	0x3e2ebc21	0.17063953
53	0x3e83c4f9	0.25736216
54	0xbdd288ad	-0.10279975
55	0x3d857e5b	0.06518241
56	0x3e85d298	0.26137233
57	0xbd9ee828	-0.07759124
58	0xbdd4aed3	-0.103849076
59	0x3b87dd24	0.004146235
60	0xbe51e600	-0.20497894
61	0x3e670d27	0.22563611
62	0xbe95037d	-0.29104224
63	0x3d436f9a	0.047713853
64	0x3e0e91dc	0.13922828
65	0x3e8307ef	0.2559199
66	0xbe3deae8	-0.18546641
67	0x3dad3349	0.084570475
68	0x3eb5a3a3	0.35476407
69	0xbc817798	-0.015804097
70	0x3d1edd6f	0.038785394
71	0xbea89ca5	-0.3293201
72	0x3e0c7b0d	0.13718815
73	0xbe068c47	-0.13139449
74	0x3e2bb695	0.16768868
75	0xbe8c0f93	-0.27355632
76	0xbe62640e	-0.2210848
77	0x3e405284	0.18781477
78	0x3e06920c	0.1314165
79	0xbe7de5a7	-0.24794637
80	0xbe2fcdd8	-0.17168367
81	0x3d5ca35d	0.053866733
82	0xbd22e092	-0.03976495
83	0x3d656b1a	0.056010343
84	0x3e697d07	0.228016
85	0xbe86f4ef	-0.26358745
86	0x3db1e589	0.086863585
87	0x3e331604	0.17488867
88	0x3d97bb1c	0.07408735
89	0xbe889a37	-0.26680157
90	0x3d9df86b	0.077133976
91	0xbe6b4bf5	-0.22978194
92	0xbc78e36c	-0.01519094
93	0xbea4fdf4	-0.32225
94	0x3db5002e	0.08837925
95	0xbe849dd9	-0.25901678
96	0x3e3ce297	0.18445812
97	0x3e5b0a9c	0.21390766
98	0x3e877218	0.26454234
99	0xbc7df91b	-0.015501286
100	0xbe8942b0	-0.2680869
101	0x3dc26f6d	0.09493909
102	0x3e5a76d3	0.2133439
103	0x3df98fdc	0.12185642
104	0xbeaf9b7a	-0.34298307
105	0x3e9e2c56	0.308932
106	0x3d28c512	0.041203566
107	0xbe0accd2	-0.13554695
108	0xbcda1375	-0.026620606
109	0x3e36cc63	0.17851405
110	0x3e1ca1fa	0.15296164
111	0x3c699741	0.014257253
112	0x3e56e7f7	0.20986925
113	0x3df422f4	0.11920729
114	0x3da16c66	0.078820035
115	0x3d817e5c	0.06322929
116	0x3cd157a2	0.025554482
117	0xbe10a137	-0.14123999
118	0x3eb04132	0.3442474
119	0xbe69234c	-0.22767371
120	0xbe65f147	-0.22455321
121	0xbe9c11c7	-0.30482313
122	0x3e9aa6fa	0.30205518
123	0xbdaddc5b	-0.08489295
124	0xbad86c6a	-0.0016511802
125	0x3e2bda61	0.16782524
126	0x3eac91c0	0.33704948
127	0xbe1986a9	-0.14992775
128	0xbec392f1	-0.38198045
129	0x3e7452e4	0.23859745
130	0xbd1c13f1	-0.038104955
131	0xbe3c1845	-0.18368633
132	0x3e854c74	0.26034892
133	0x3e1bdf83	0.15221982
134	0x3d20ca87	0.039255645
135	0x3d936d1c	0.07198545
136	0xbcce9f8b	-0.02522256
137	0xbea98cb4	-0.3311516
138	0x3ebeb9af	0.3725104
139	0xbe0cc6fc	-0.13747782
140	0xbe149bf1	-0.14512612
141	0xbe16e564	-0.14735943
142	0x3e12e7c1	0.1434622
143	0xbe2064d1	-0.15663458
144	0xbe962c81	-0.2933083
145	0xbeb89c84	-0.36056912
146	0x3ea8d8b4	0.3297783
147	0x3eb75aeb	0.35811552
148	0xbd509336	-0.05092164
149	0x3e89914a	0.2686866
150	0x3e59ed0b	0.21281831
151	0x3e5ef31f	0.21772431
152	0xbe80422d	-0.25050488
153	0xbcbbadac	-0.022909962
154	0x3d9e8cb3	0.0774168
155	0xbe30ac19	-0.1725315
156	0x3e9383fa	0.28811628
157	0x3c4def33	0.012569237
158	0x3e98a68b	0.29814562
159	0x3e25c3ac	0.16187924
160	0x3e94d5fb	0.29069504
161	0xbe017350	-0.12641644
162	0xbe1dd631	-0.15413739
163	0x3c7fdfa6	0.015617287
164	0x3e0dcefe	0.13848493
165	0x3d26405e	0.04058873
166	0xbe6c0ebf	-0.230525
167	0x3dbc04b2	0.09180583
168	0xbe8eacf1	-0.2786632
169	0x3e3d5e62	0.18493035
170	0x3e1f7e25	0.15575464
171	0xbd545540	-0.051839113
172	0xbd5bb957	-0.05364355
173	0x3ea71348	0.32631898
174	0x3d1df5e1	0.038564567
175	0x3eae7024	0.34069932
176	0x3e753283	0.2394505
177	0xbea0ec3c	-0.31430233
178	0xbe0a0c6e	-0.13481304
179	0xbcbfb60b	-0.023402235
180	0xbc78ab47	-0.015177554
181	0x3e158c18	0.14604223
182	0x3d8ca008	0.06866461
183	0x3e8180dd	0.25293627
184	0x3e6b0399	0.22950591
185	0xbeaaf18d	-0.33387414
186	0xbe8955b5	-0.26823202
187	0x3db6ebe4	0.08931711
188	0xbe4ad6c8	-0.19808495
189	0xbe6db702	-0.23214343
190	0x3ea7afe5	0.32751384
191	0x3e1b1ae3	0.15146975
192	0x3e43a398	0.19105375
193	0xbec50b03	-0.38484964
194	0xbd3792e6	-0.044817828
195	0x3e39776e	0.18111965
196	0xbe31c093	-0.17358617
197	0x3d8475a3	0.0646775
198	0xbeb63b81	-0.35592273
199	0x3e0d13a7	0.13777028
200	0x3e58fa50	0.21189237
201	0xbda0df55	-0.07855097
202	0x3dfb6283	0.12274649
203	0x3e566787	0.2093793
204	0x3e5dc2a7	0.21656285
205	0xbe4ed8e8	-0.2019993
206	0x3dd83250	0.10556471
207	0xbe4cc74e	-0.19997904
208	0xbe2f075d	-0.17092653
209	0xbe7c9f30	-0.246701
210	0x3e96aa3c	0.29426754
211	0x3e5c24f4	0.21498471
212	0xbe04059b	-0.12892763
213	0x3e1f18d4	0.15536815
214	0xbd4cf08d	-0.050034095
215	0x3e33b3cb	0.17549054
216	0xbea2f560	-0.3182783
217	0x3c91d410	0.017801315
218	0xbc9197ca	-0.017772574
219	0x3d25bd2c	0.04046361
220	0xbc5e5beb	-0.01357172
221	0x3e04b9a4	0.12961441
222	0xbdd4e817	-0.1039583
223	0xbe8445df	-0.25834557
224	0xbdb316cf	-0.08744585
225	0xbe6602fd	-0.22462077
226	0xbe37f677	-0.17965113
227	0x3e0d2f3d	0.13787551
228	0x3e24c12d	0.16089316
229	0x3d17246d	0.036899973
230	0x3e9d3188	0.30701852
231	0x3cffd1f0	0.031228036
232	0x3c76a07d	0.015052912
233	0xbeb45e21	-0.35228065
234	0xbe8da18a	-0.27662307
235	0x3daf5f18	0.085630596
236	0xbea74ea9	-0.326772
237	0xbdcda2fc	-0.100408524
238	0xbe2a41c6	-0.16626653
239	0x3ea95983	0.33076105
240	0x3caf7097	0.021415992
241	0x3d0d1a76	0.034449063
242	0xbe49e9d2	-0.19718102
243	0xbe15752e	-0.14595482
244	0xbe469402	-0.19392398
245	0x3e6e4858	0.23269784
246	0xbe44856b	-0.1919152
247	0x3d87a333	0.06622925
248	0x3e442632	0.19155195
249	0xbeb3c704	-0.35112774
250	0xbea9730f	-0.33095595
251	0x3df18bdd	0.11794255
252	0xbd939133	-0.07205429
253	0xbe21ef97	-0.15814053
254	0xbe12d2ec	-0.14338273
255	0xbeb15599	-0.34635618

feature_exact.m_encoder.layers.0.bias f4 [64]
0	0xbe0c7f6a	-0.1372048
1	0x3e6a26ee	0.22866413
2	0xbebc359c	-0.3675965
3	0x3b7322f8	0.00370997
4	0xbe8924a9	-0.26785782
5	0xbe8576b1	-0.26067117
6	0x3ea0de75	0.3141972
7	0xbe80cd95	-0.25156847
8	0xbe9d6ae1	-0.30745605
9	0x3e52eb3a	0.20597544
10	0x3d31ea42	0.043436296
11	0xbe9d56a6	-0.3073017
12	0x3e46cc25	0.19413812
13	0xbe9bb4ae	-0.30411285
14	0xbe992ef3	-0.29918632
15	0x3d390a1c	0.045175657
16	0x3d4234a3	0.04741348
17	0xbe3f4017	-0.18676792
18	0x3e6cbecb	0.23119657
19	0x3e52426a	0.20533147
20	0xbec6829d	-0.38771525
21	0x3e649d22	0.22325566
22	0xbe60a0d9	-0.21936359
23	0x3e9d7ed2	0.3076082
24	0xbde6ea2d	-0.11275134
25	0x3d75d17d	0.060014237
26	0xbc931f27	-0.01795919
27	0x3e922300	0.28542328
28	0x3e92c45e	0.2866544
29	0x3e0d3110	0.13788247
30	0x3d8b400c	0.06799325
31	0x3e14b705	0.14522941
32	0x3adeeef2	0.0017008467
33	0xbca9a07a	-0.020706404
34	0xbe2639c4	-0.16232973
35	0xbe02a11a	-0.12756768
36	0xbe6a8d6e	-0.22905514
37	0xbe9889a2	-0.29792506
38	0x3e099864	0.13437039
39	0xbe8bbb7f	-0.27291486
40	0x3d9ee391	0.077582486
41	0xbead7c8a	-0.33884078
42	0xbe166c51	-0.14689757
43	0xbea512a9	-0.322408
44	0xbe8ae944	-0.27131093
45	0x3dc50bcc	0.09621391
46	0xbe4ead44	-0.20183283
47	0xbea2812f	-0.31739184
48	0x3e4436ee	0.19161579
49	0x3da995e9	0.08280546
50	0xbca11e3b	-0.019667735
51	0x3e2bf0ee	0.16791126
52	0x3e2f2027	0.17102109
53	0x3dc53781	0.09629727
54	0xbe0241f5	-0.12720473
55	0x3ea6a3e8	0.32546926
56	0xbeaa8e47	-0.33311674
57	0xbcfd6a44	-0.03093446
58	0xbe988fcd	-0.2979721
59	0x3e1f902f	0.15582345
60	0xbe696018	-0.22790563
61	0x3e82c5d5	0.2554156
62	0x3bde0a88	0.0067761578
63	0x3e7f8bf8	0.24955738

feature_exact.m_encoder.layers.1.weight f4 [64, 64]
0	0x3d2ee517	0.042698946
1	0x3d56070f	0.052252825
2	0xbbb18a07	-0.0054180655
3	0x3d93737d	0.07199762
4	0x3b60b2a1	0.0034286159
5	0x3db2893d	0.087175824
6	0x3bf5a954	0.007496992
7	0xbdb7c330	-0.08972776
8	0x3d71510b	0.05891518
9	0x3a3d76a0	0.00072274543
10	0x3d459d91	0.04824597
11	0x3de00f92	0.1094047
12	0x3d29b40a	0.041431464
13	0x3cd384f7	0.025820239
14	0xbd5bdf72	-0.05367989
15	0xbc4508a5	-0.012025987
16	0x3d1099db	0.035302978
17	0x3d7ce2c4	0.061739698
18	0xbd15379e	-0.036429994
19	0x3daf8f0b	0.08572205
20	0x3d8ab122	0.06772067
21	0xbd05250f	-0.032506045
22	0xbca088b5	-0.019596437
23	0xbda3fbb1	-0.08006991
24	0x3c6b4e09	0.014361867
25	0xbccc50d6	-0.02494089
26	0xbbc14708	-0.00589836
27	0x3c607e99	0.013702058
28	0x3c14a415	0.009072323
29	0x3d0cc69e	0.034369104
30	0x3db33595	0.08750454
31	0xbd173e55	-0.03692468
32	0xbd4243a2	-0.04742778
33	0xbd8f7580	-0.07004833
34	0x3e1a246d	0.15052958
35	0xbb1e81c5	-0.0024186235
36	0xbd41738b	-0.04722933
37	0x3d8cc66c	0.068737835
38	0xbdbafa66	-0.09129791
39	0xbcb1a038	-0.021682844
40	0x3dfb8b5e	0.122824416
41	0x3d392ec6	0.045210622
42	0xbe0acb1f	-0.13554047
43	0x3e11efa8	0.14251578
44	0x3c0a92c3	0.008457842
45	0xbd91bd80	-0.071162224
46	0xbdcf1f59	-0.10113401
47	0xbdbb5a67	-0.09148102
48	0x3e161646	0.14656934
49	0x3d67df71	0.056609575
50	0x3d82fc6c	0.06395802
51	0xbc24a6ed	-0.010049564
52	0xbdc3d56b	-0.095621906
53	0xbd604cf2	-0.05476088
54	0xbd601d1d	-0.054715265
55	0x3dc72ba2	0.09725119
56	0xbd747ce1	-0.059689406
57	0xbd545ae0	-0.051844478
58	0x3d557b0f	0.05211931
59	0x3de30333	0.110845946
60	0x3b6a7b91	0.0035779218
61	0xbdb98c47	-0.09059959
62	0xbde663da	-0.11249514
63	0x3dc16c99	0.094445415
64	0x3c2379df	0.009977787
65	0x3da0b322	0.07846667
66	0xbd95581c	-0.07292196
67	0x3e006b1b	0.12540857
68	0xbda954ee	-0.08268152
69	0xbd53168e	-0.05153518
70	0x3ce3ff50	0.027831703
71	0xbdb2b411	-0.08725751
72	0x3deff337	0.117163114
73	0x3d875eea	0.066099
74	0xbcff932e	-0.03119811
75	0xbd5fd47c	-0.054646
76	0x3d18bcd2	0.037289448
77	0x3d9c7080	0.07638645
78	0xbcdec723	-0.027194565
79	0x3d4924b6	0.049107276
80	0x3d1e1bc1	0.038600687
81	0x3d30dc1c	0.043178663
82	0x3d3ddd9a	0.046353914
83	0x3cb07bd5	0.021543423
84	0x3dc9aba6	0.098471925
85	0x3d8846da	0.06654139
86	0xbdd63a58	-0.10460347
87	0xbd1ab5db	-0.037771087
88	0x3dee9043	0.116486095
89	0x3c839174	0.016060568
90	0x3d6602df	0.05615508
91	0x3dc3188d	0.09526167
92	0x3d30e757	0.043189373
93	0x3e0a7f7b	0.13525192
94	0xbcf2d72d	-0.02964362
95	0x3e166fe5	0.14691122
96	0x3d1a9088	0.037735492
97	0x3e0b30ec	0.13592881
98	0xbc9e2f86	-0.01930977
99	0xbcc7b4ad	-0.024378145
100	0xbda2cf74	-0.07949725
101	0xbd178aea	-0.036997713
102	0xbdb8965b	-0.09013053
103	0xbc6c7939	-0.014433199
104	0xbdb65d46	-0.08904509
105	0x3d8f9dec	0.07012543
106	0xbd0d7ffe	-0.03454589
107	0xbd95971b	-0.07304212
108	0xbd05afae	-0.032638244
109	0xbde0eb0e	-0.10982333
110	0xbdb540c1	-0.088502415
111	0x3c7cca72	0.015429126
112	0x3dcf33a3	0.10117271
113	0xbc8656ae	-0.016398754
114	0x3c732c51	0.014842109
115	0x3c0c605e	0.008567898
116	0x3db2e858	0.08735722
117	0x3cfbb436	0.03072558
118	0x3e0ba47d	0.13636966
119	0xbd0763bc	-0.0330541
120	0xbd270a8d	-0.040781546
121	0xbbc3b8b8	-0.005972948
122	0xbce1439d	-0.02749806
123	0xbdad465d	-0.08460686
124	0x3d43dca1	0.04781783
125	0xbd872ec9	-0.066007204
126	0x3d16c30b	0.0368071
127	0x3db4517c	0.088046044
128	0xbc00fea2	-0.007873209
129	0xbcea071c	-0.028567843
130	0xbd81d919	-0.06340236
131	0xbb485ae3	-0.003057175
132	0x3ddec4f7	0.10877412
133	0x3d4568e2	0.048195727
134	0xbd03f45c	-0.03221546
135	0xbd9a6850	-0.07539427
136	0xbccad373	-0.02475903
137	0xbb87745f	-0.0041337456
138	0xbddae8e2	-0.1068895
139	0x3d900786	0.07032685
140	0x3d840c9d	0.06447718
141	0x3dbdcfe9	0.09268171
142	0xbd41717c	-0.047227368
143	0x3e031055	0.12799199
144	0xbc86f487	-0.016474022
145	0x3daa6cd3	0.08321538
146	0x3db8a012	0.09014906
147	0xbd93518c	-0.07193288
148	0x3d79a3d2	0.060947247
149	0xbd9e169c	-0.07719156
150	0xbdf0723b	-0.11740538
151	0xbce96072	-0.028488372
152	0xbd8dc3f7	-0.06922143
153	0x3bfc21de	0.007694467
154	0xbcea974a	-0.028636593
155	0xbd59fede	-0.053221576
156	0xbd293db6	-0.041318618
157	0x3c7990b1	0.015232251
158	0x3b83005d	0.003997846
159	0xbd76bb1a	-0.060237028
160	0x3d5b15ce	0.05348759
161	0x3cc6d26e	0.024270263
162	0xbdd01e9e	-0.1016209
163	0x3dffa9e3	0.12483575
164	0xbd9c9160	-0.076449156
165	0x3e0a3e81	0.13500406
166	0xbc9ddad6	-0.019269388
167	0x3cbdff84	0.023193128
168	0xbdf51b16	-0.11968057
169	0x3de825d1	0.11335338
170	0x3dda7bfe	0.10668181
171	0xbc190f22	-0.009341987
172	0xbcebedea	-0.02879997
173	0xbd543c44	-0.051815286
174	0x3d8dfa50	0.06932509
175	0xbe47ed9f	-0.19524239
176	0x3da38817	0.079849415
177	0x3d896ce7	0.067102246
178	0x3da53fa8	0.08068782
179	0x3dd2b7cb	0.10288962
180	0x3d70a9ce	0.05875569
181	0xbd0010d7	-0.03126606
182	0xbe04c928	-0.1296736
183	0xbe1d88d4	-0.15384227
184	0x3de517df	0.11186194
185	0x3e00b249	0.1256801
186	0xbaac6822	-0.0013153593
187	0x3da488ed	0.08033929
188	0x3c192141	0.009346307
189	0xbd1f4f30	-0.03889388
190	0x3d9a819f	0.075442545
191	0xbcfbe50f	-0.030748872
192	0xbdc5fd03	-0.09667399
193	0xbb33de07	-0.002744557
194	0xbd9b51a8	-0.07583934
195	0xbca881ac	-0.020569645
196	0xbcf7a8cf	-0.030231861
197	0x3e01610f	0.12634681
198	0xbe03b735	-0.12862857
199	0x3d07e21c	0.03317462
200	0x3da3869d	0.0798466
201	0x3d77acfb	0.0604677
202	0xbdaa6ca9	-0.083215065
203	0xbdecdc5e	-0.11565469
204	0xbd66e8a5	-0.05637421
205	0xbd1cfdc0	-0.038327932
206	0xbdc088f1	-0.094011195
207	0x3da17e1d	0.07885382
208	0x3da51edf	0.08062529
209	0x3e0b1d7a	0.13585463
210	0x3c9a584f	0.018840937
211	0xbd32d7d4	-0.04366286
212	0x3ddd1194	0.107943684
213	0xbdc79290	-0.097447515
214	0xbc9d2527	-0.019182755
215	0x3c15b494	0.009137291
216	0x3c0c747a	0.008572692
217	0xbd6df39f	-0.058093663
218	0x3e132ee5	0.14373358
219	0x3d66df2e	0.056365184
220	0x3d9d7432	0.07688178
221	0x3bd86578	0.006603893
222	0xbd2f7a4d	-0.042841244
223	0x3dddef7b	0.10836693
224	0xbe0813e9	-0.13288845
225	0xbcd56af3	-0.026051974
226	0x3cd02b41	0.02541125
227	0x3dc03e61	0.09386898
228	0x3d34d29c	0.044146165
229	0xbd8fffa6	-0.07031183
230	0xbe024dc4	-0.12724978
231	0xbca1452f	-0.01968631
232	0x3db9dd21	0.0907538
233	0xbdb30a82	-0.087422386
234	0xbdbec2d2	-0.09314503
235	0x3de9286c	0.11384663
236	0x3d9625c2	0.073314205
237	0x3dd5d102	0.10440256
238	0xbcb7e06b	-0.022445878
239	0x3ca31504	0.019907482
240	0x3d806565	0.062693395
241	0x3b6ed30d	0.0036441714
242	0xbd60ee54	-0.054914787
243	0x3d758b5b	0.059947353
244	0xbe0d977a	-0.13827315
245	0x3dc06ade	0.09395383
246	0xbcc51ff3	-0.024063086
247	0x3b9f8d0e	0.00486911
248	0x3e1166b5	0.14199336
249	0x3e05e12e	0.1307418
250	0x3ccad202	0.024758343
251	0xbd071851	-0.032982174
252	0x3daf26aa	0.085522965
253	0x3d2e91c5	0.042619485
254	0x3de99496	0.11405294
255	0xbdb413f2	-0.08792867

feature_exact.m_encoder.layers.1.bias f4 [64]
0	0x3d227cfb	0.039669972
1	0x3c0acfb3	0.008472371
2	0xbdc9235f	-0.098211996
3	0xbd84153f	-0.06449365
4	0xbd205269	-0.039141092
5	0xbd2f0d43	-0.042737257
6	0x3c3fa107	0.011696107
7	0x3db15048	0.086578906
8	0xbc0f8317	-0.008759282
9	0x3d88ae4e	0.06673871
10	0xbd9813cc	-0.07425651
11	0x3d5a8447	0.053348806
12	0xbd17c924	-0.037057057
13	0xbc1184be	-0.008881746
14	0xbc7cdb7e	-0.01543319
15	0xbdfafc79	-0.122551866
16	0xbd72d533	-0.059285354
17	0xbe1b4bb1	-0.15165593
18	0xbdc81398	-0.09769362
19	0x3ce4ad89	0.02791478
20	0x3dc13b99	0.094351955
21	0xbd9c8dba	-0.0764422
22	0xbca97c37	-0.020689113
23	0x39bbb50c	0.0003580231
24	0xbc0c088d	-0.008546961
25	0x3d062d73	0.032758188
26	0xbe0f5320	-0.13996553
27	0x3c952cd1	0.018209847
28	0xbcf80966	-0.030277919
29	0xbd8c6179	-0.06854529
30	0xbd7d88b3	-0.061897945
31	0x3ddae0cb	0.10687407
32	0xbdce7816	-0.10081498
33	0x3d65d110	0.05610758
34	0x3dae67c9	0.08515889
35	0x3d97c787	0.07411104
36	0x3ba328ed	0.004979244
37	0xbde32e5a	-0.11092825
38	0xbd612ede	-0.054976337
39	0x3cba55f9	0.022746073
40	0xbdde144c	-0.10843715
41	0x3e1b68cb	0.15176694
42	0xbd8ef8c9	-0.06981046
43	0xbdbb060c	-0.09132013
44	0x3c21985f	0.009862988
45	0xbd49b872	-0.049248166
46	0xbdfd7481	-0.12375737
47	0xbddc4fc3	-0.10757401
48	0x3d2f8ba5	0.042857785
49	0xbdd3072c	-0.10304102
50	0x3d5b965f	0.053610202
51	0x3c0375a9	0.008023658
52	0x3de487eb	0.11158737
53	0xbc6b0700	-0.014344931
54	0x3d0722fb	0.032992344
55	0xbd779537	-0.060445037
56	0xbd93aa8c	-0.072102636
57	0xbd90f711	-0.07078374
58	0x3ba70081	0.0050964956
59	0x3c5fd04a	0.0136605
60	0x3db3c6e4	0.0877817
61	0xbc84c85c	-0.01620882
62	0xbd1404bd	-0.03613733
63	0xbd607b4b	-0.05480508

feature_exact.m_encoder.layers.2.weight f4 [32, 64]
0	0x3d0c9032	0.034317203
1	0x3d8917d4	0.06693998
2	0x3d677994	0.05651243
3	0x3d85a129	0.065248795
4	0x3d86e10b	0.06585892
5	0xbe019faf	-0.1265857
6	0xbd0af1f4	-0.03392215
7	0xbde181e6	-0.11011104
8	0x3d91bba8	0.07115871
9	0xbcadbfa5	-0.021209547
10	0xbde9be37	-0.11413234
11	0x3b0b2163	0.0021229617
12	0x3d942eaa	0.07235463
13	0xbcd7f807	-0.026363386
14	0x3c4041c3	0.011734429
15	0x3db3ccc8	0.08779293
16	0xbe02df65	-0.12780531
17	0x3a3de98c	0.0007244579
18	0xbd942c00	-0.07234955
19	0x3cc79952	0.024365101
20	0x3d67584f	0.056480702
21	0x3d6ca01b	0.057769876
22	0xbdb24593	-0.087046765
23	0x3e07eb55	0.13273366
24	0x3d30dd77	0.043179955
25	0x3d8a53e1	0.0675428
26	0x3ccb2116	0.02479605
27	0xbc8e9b8d	-0.017408157
28	0xbd2b3ce8	-0.04180613
29	0x3c75105a	0.014957512
30	0x3c1fe17a	0.009758348
31	0xbddc86dd	-0.10767911
32	0xbd59d7cc	-0.053184316
33	0x3c497847	0.012296743
34	0xbdb51acd	-0.088430025
35	0x3d8421e9	0.0645178
36	0xbd85bf80	-0.06530666
37	0xbd78261f	-0.06058323
38	0xbd04e49a	-0.032444574
39	0x3d618d4d	0.055066396
40	0xbe0fd944	-0.14047724
41	0xbdf30edb	-0.11868068
42	0x3df4fbdc	0.11962101
43	0xbdce609b	-0.1007702
44	0xbd4f4a12	-0.05060775
45	0x3c2c7d51	0.010527925
46	0xbdcccfc5	-0.100005664
47	0xbc63c83f	-0.013902723
48	0x3d71d472	0.059040494
49	0xbdaa3659	-0.08311147
50	0x3dd80e74	0.10549632
51	0xbda527c9	-0.08064229
52	0xbdd0c239	-0.10193295
53	0x3de2f303	0.11081507
54	0x3c07952b	0.0082753105
55	0x3d7fd29a	0.062456705
56	0x3b40fdf8	0.0029448252
57	0xbd95e5ac	-0.07319197
58	0x3dafa084	0.08575538
59	0x3d1ed16b	0.038773935
60	0x3cb38e31	0.021918388
61	0xbd6d2123	-0.05789293
62	0xbcc824ee	-0.024431672
63	0xbdd2c8a9	-0.10292179
64	0x3db48738	0.088148534
65	0x3e077cca	0.13231197
66	0x3dc4acbf	0.09603261
67	0xbd963863	-0.07334974
68	0x3d1eb225	0.03874411
69	0x3b8f85c0	0.004379958
70	0x3d6fa675	0.058508355
71	0x3d68b417	0.056812372
72	0x3c6457cb	0.013936947
73	0x3dea2096	0.114319965
74	0xbd88ee79	-0.0668611
75	0xbd9081c2	-0.07055999
76	0x3d81078a	0.06300266
77	0xbd2b68cb	-0.041847985
78	0x3d2aaa73	0.04166646
79	0x3d4fcf5e	0.05073487
80	0x3deba267	0.11505585
81	0x3dd596c0	0.10429144
82	0xbd634619	-0.055486772
83	0x3d04d56f	0.03243011
84	0xbd2829e3	-0.04105557
85	0x3d29c13e	0.041444056
86	0xbd5ca8d4	-0.053871945
87	0xbda5b739	-0.080915876
88	0xbda57694	-0.080792576
89	0xbdb20e01	-0.08694077
90	0x3d7b4f1d	0.061354745
91	0x3cb58a54	0.022160687
92	0x3e1f51b4	0.15558511
93	0x3dc4e6fd	0.0961437
94	0x3dbf3bfc	0.09337613
95	0xbdf33077	-0.11874478
96	0x3ddbdc62	0.10735394
97	0xbc04343f	-0.008069097
98	0x3df38f1a	0.11892529
99	0xbd74c91f	-0.059762117
100	0xbd311113	-0.043229174
101	0xbd45debe	-0.048308127
102	0x3d8cf390	0.06882393
103	0xbd9e4993	-0.07728877
104	0xbd917502	-0.071023956
105	0x3d9782a9	0.07397968
106	0x3e3c62ae	0.18397018
107	0xbd930ad9	-0.071798034
108	0xbd128d7e	-0.03577947
109	0xbdc420d7	-0.09576576
110	0xbdad27c1	-0.08454848
111	0x3cb3feb8	0.021972045
112	0xbd855c6c	-0.06511769
113	0xbc76e4eb	-0.015069227
114	0x3e40c06b	0.18823402
115	0xbde6442c	-0.112434715
116	0x3e087c84	0.13328749
117	0x3c98803e	0.018615838
118	0x3c650533	0.01397829
119	0xbdbd18ac	-0.092332214
120	0x3d816be0	0.06319404
121	0x3dd7bc52	0.10533966
122	0x3d066e58	0.032820076
123	0xbda88877	-0.082291536
124	0x3abe425b	0.0014515625
125	0xbdcceb7b	-0.10005852
126	0x3dbc6cf6	0.0920047
127	0xbc776b07	-0.015101201
128	0x3da97ba4	0.08275536
129	0x3d860606	0.06544118
130	0x3c8dc9b0	0.017308086
131	0x3dd9124e	0.105991945
132	0x3dd9575e	0.10612367
133	0x3dffcffa	0.1249084
134	0x3d47cf3c	0.04878162
135	0x3d903338	0.07041019
136	0x3d352fcd	0.04423504
137	0xbb88dbcf	-0.004176594
138	0xbdc99a6e	-0.09843908
139	0x3d94832b	0.07251581
140	0x3dfbce41	0.12295199
141	0xbd9f47b2	-0.07777347
142	0xbdc98f7c	-0.098418206
143	0x3e26d0ad	0.16290541
144	0xbdbf62d9	-0.093450256
145	0xbd97650e	-0.073923215
146	0xbcd498de	-0.025951799
147	0x3e102ffc	0.14080805
148	0xbd245b6e	-0.040126257
149	0x3d2cef2d	0.042220283
150	0x3d9579f1	0.07298649
151	0x3dc111a6	0.09427194
152	0x3dffb5ae	0.124858245
153	0xbd665169	-0.056229983
154	0x3d149a5b	0.036280017
155	0x3d365625	0.044515748
156	0xbdeff96c	-0.11717495
157	0xbdde5795	-0.10856549
158	0xbd501116	-0.050797544
159	0x3e0fd336	0.14045414
160	0xbda35253	-0.079746865
161	0x3d78542e	0.060627155
162	0x3b2192cb	0.0024654146
163	0x3dfdc16e	0.123904094
164	0x3de8c33f	0.11365365
165	0xbdbd97a7	-0.09257441
166	0xbd07bf84	-0.033141628
167	0x3da46a27	0.080280595
168	0x3c76fc45	0.015074794
169	0xbd48e7d7	-0.049049225
170	0xbce8cebc	-0.028418891
171	0xbd62e7e3	-0.055396926
172	0xbd4f4033	-0.050598335
173	0x3d868f34	0.065702826
174	0x3d14c0f7	0.036316838
175	0x3ddef123	0.10885837
176	0x3d41db55	0.047328312
177	0xbdfcedf5	-0.12350074
178	0x3d812ecc	0.06307754
179	0xbdf114f5	-0.11771575
180	0xbd644bad	-0.055736233
181	0x3d1941fc	0.037416443
182	0x3deab671	0.11460579
183	0x3ae39bd9	0.0017365172
184	0x3debe116	0.11517541
185	0x3d812bf8	0.063072145
186	0x3dc0b902	0.094102874
187	0xbda81b62	-0.08208348
188	0xbdd897c0	-0.10575819
189	0x3d711f7b	0.058867913
190	0xbd7d38ca	-0.061821736
191	0x3b5b7f5e	0.0033492665
192	0xbdf15a8b	-0.11784848
193	0xbd1f0490	-0.03882271
194	0xbdb3e5db	-0.08784076
195	0x3dc97c86	0.09838204
196	0xbdadcb23	-0.08486011
197	0xbd120f0f	-0.035658892
198	0xbe03d534	-0.128743
199	0xbdae211c	-0.08502409
200	0x3c64e820	0.013971359
201	0xbc9a3895	-0.018825809
202	0x3d8ef1d6	0.0697972
203	0xbd7716f8	-0.06032464
204	0x3dc55537	0.09635394
205	0xbcdaf372	-0.026727412
206	0xbe04d118	-0.12970388
207	0xbdf1933b	-0.1179566
208	0x3c5b054c	0.013367962
209	0x3c4e2261	0.012581439
210	0xbd903795	-0.070418514
211	0xbd23c18b	-0.0399795
212	0xbd6027af	-0.054725345
213	0xbcd6afac	-0.026206814
214	0xbdad4b83	-0.08461668
215	0xbdccfe62	-0.10009457
216	0x3c97f811	0.018550904
217	0xbd7c7cbc	-0.061642393
218	0xbcf13dee	-0.029448476
219	0xbd459abd	-0.048243273
220	0xbd97bfac	-0.074096054
221	0x3d3c8919	0.046029184
222	0x3dfda9f7	0.12385934
223	0xbd0d7a54	-0.03454049
224	0x3cc57e0e	0.02410796
225	0x3d5ab064	0.053390875
226	0xbc4f712b	-0.012661259
227	0xbc22faa2	-0.009947451
228	0x3cb6ee6f	0.02233049
229	0xbd0ff507	-0.035145786
230	0xbc47ce80	-0.0121952295
231	0xbcd51ca0	-0.026014626
232	0x3d83501a	0.064117625
233	0x3d85a17d	0.06524942
234	0xbe0ba656	-0.13637671
235	0x3db4a61b	0.088207446
236	0xbd80fa40	-0.062977314
237	0xbdd3fdcf	-0.103511445
238	0xbd39fc7a	-0.045406796
239	0x3d86ccdb	0.06582042
240	0xbdd748f3	-0.10511961
241	0x3df7f26a	0.12106784
242	0x3d01a45e	0.031650893
243	0xbd23fbbd	-0.040035
244	0x3caaa3b1	0.020830007
245	0x3dc50d23	0.09621646
246	0x3ca89c98	0.020582482
247	0x3cfb3394	0.030664243
248	0x3dec08a3	0.11525085
249	0x3d07c567	0.033147242
250	0x3d5307ff	0.051521298
251	0xbda7384f	-0.08165037
252	0x3b55ffb3	0.003265363
253	0x3d21ef3b	0.03953479
254	0xbdf3d0b6	-0.11905043
255	0xbbc11ba4	-0.0058931876

feature_exact.m_encoder.layers.2.bias f4 [32]
0	0xbd302607	-0.043005016
1	0xbceeff73	-0.029174542
2	0xbc7b9758	-0.015355907
3	0xbc489c67	-0.0122443205
4	0xbd5c447d	-0.053776253
5	0x3df0193f	0.11723565
6	0x3dc9dbc1	0.09856368
7	0xbd2d16f1	-0.042258207
8	0xbd8eb5ed	-0.06968293
9	0x3d810af0	0.06300914
10	0x3d940aec	0.07228646
11	0x3c22ead1	0.00994368
12	0xbdab5231	-0.08365286
13	0x3d92a0b0	0.07159555
14	0x3ccab57f	0.024744747
15	0xbd56423d	-0.052309263
16	0xb82f78ed	-4.1835872e-05
17	0x3ca56bfd	0.020193094
18	0x3d9ed75f	0.077559225
19	0x3da70e85	0.08157066
20	0xbd348dd8	-0.044080585
21	0xbb31c372	-0.002712455
22	0x3ce2cfd2	0.027686987
23	0x3dcf7912	0.10130514
24	0xbd0646f7	-0.03278252
25	0x3df5ba42	0.119984165
26	0xbd7423a1	-0.05960429
27	0x3ca970e9	0.020683723
28	0xbd966e7b	-0.07345291
29	0x3c031322	0.008000167
30	0xbd13a194	-0.036042765
31	0x3d22fb46	0.039790414

feature_exact.j_ln.weight f4 [32]
0	0x3f80702e	1.0034235
1	0x3f87a81e	1.059818
2	0x3f8c4a0d	1.0960099
3	0x3f86bca0	1.0526314
4	0x3f8004eb	1.0001501
5	0x3f823131	1.0171262
6	0x3f82f1ca	1.0230038
7	0x3f82728c	1.0191207
8	0x3f845d68	1.0341005
9	0x3f8540ff	1.041046
10	0x3f82061c	1.0158114
11	0x3f7d4584	0.989342
12	0x3f87d864	1.0612912
13	0x3f83f6a0	1.0309639
14	0x3f809c54	1.0047708
15	0x3f833c10	1.0252705
16	0x3f80420d	1.0020157
17	0x3f8233a2	1.0172007
18	0x3f8494d1	1.0357915
19	0x3f829bf3	1.0203842
20	0x3f818f01	1.0121766
21	0x3f8e6d37	1.112708
22	0x3f893ff7	1.0722646
23	0x3f8643e1	1.0489465
24	0x3f7f12a0	0.99637794
25	0x3f8267de	1.0187948
26	0x3f7dc46f	0.9912786
27	0x3f88950c	1.0670485
28	0x3f82f16b	1.0229925
29	0x3f856e74	1.0424333
30	0x3f852ba4	1.0403943
31	0x3f84853f	1.0353163
