trained_network/SD2/s2_a2.pth (torch, 59851 bytes, 26 tensors)

feature_exact.j_encoder.linears.0.weight f4 [8, 14]
00000000: 1342 46be 042b b73d b0de 36be 2151 513e
00000010: 87f5 1bbd cfce a53d a572 babe 2a73 d93d
00000020: deeb c13e 4e1a 573e c394 543e c353 e4bc
00000030: 821b 47be f196 b6be 7690 6b3d c1f6 493e
00000040: 729b 61bd f2e2 84be 3d0c 82bd 34be f2bb
00000050: 2e2b 9cbd 8718 3d3d d817 9f3e 40f5 95be
00000060: 1957 823e a32a b0bd 89b4 b2bd f1c8 d9bc
00000070: 9dff 333e 2f2a bd3d a328 25be adb9 c7be
00000080: 4ed5 cbbd 1699 fcbb ed38 e53d 4016 4dbe
00000090: 15a4 fabd 8659 dabd 705d 88bd 56b9 f3bd
000000a0: aa54 d5bb c470 d53d 0cb7 1bbf db33 b53e
000000b0: a9c7 af3d d395 0abe 8f27 e03b 018b f53d
000000c0: 284c 1dbf 1e60 45be dec3 acbd 2be5 2c3d
000000d0: 9b6e 2dbe 26b8 01ba d1c0 01bf c691 913e
000000e0: e0da 9d3e 45d8 b6bc 3201 bbbd c16d 4fbd
000000f0: ced5 9b3d e64e 893c 2975 0cbd 9d5f 323e
00000100: 32ac 553e 18bb f53c 0c2e 6c3e a905 5abd
00000110: 64a2 0c3e 4ee2 d23d d694 7cbe e5fd c0be
00000120: be3c a93d ee8e 6abd c1a1 4f3e f2c8 0fbd
00000130: 32bd 05bf da22 673d 42fa 3f3e f6e6 4abd
00000140: 0f8c 8f3d 784d 3d3e b765 d2bd a317 8a3e
00000150: 6397 5dbe 9d32 c83d c836 f53d 8584 04be
00000160: a035 7e3e 5643 173d 877d d9be 53cd fe3d
00000170: 9084 1bbc 914e 5cbd 4f7d 53bd 23e4 223e
00000180: aef3 513e 34b6 63bb f3a0 94bd ead6 33be
00000190: 5fde 363e 9e6f ed3d c4a9 a2be f7d6 ecbc
000001a0: 02aa 263e 1bce dfbc 2e02 a13d 8cf5 bf3d
000001b0: 1277 873d f329 023e 06dc 8abe 563c a9be
-0.19361143 0.089437515 -0.17858386 0.20441104 -0.03807595 0.08096086 -0.36415592 0.10617669
0.37875265 0.21006128 0.20759873 -0.027871972 -0.19444087 -0.35662034 0.057510816 0.19723035
-0.055079885 -0.25954396 -0.063499905 -0.007407928 -0.07625423 0.04616597 0.3107288 -0.29288673
0.25457075 -0.08601882 -0.087258406 -0.026585074 0.17577977 0.092365615 -0.16128783 -0.39008847
-0.09952794 -0.007708679 0.11192498 -0.20028019 -0.122383274 -0.106616065 -0.06658447 -0.119005844
-0.006510337 0.10421899 -0.6082618 0.35391125 0.08583004 -0.13533716 0.0068406533 0.119894035
-0.6144433 -0.19274947 -0.08435796 0.04221074 -0.16936724 -0.00049484 -0.5068484 0.2843153
0.3083105 -0.022319922 -0.09131087 -0.05064178 0.076091394 0.016761255 -0.03429142 0.17419286
0.20866469 0.02999644 0.2306444 -0.053228054 0.13733822 0.102970704 -0.24666151 -0.37693706
0.08263539 -0.057265215 0.20276548 -0.035103746 -0.52241814 0.05642972 0.1874781 -0.049536668
0.07009136 0.18486583 -0.10273307 0.26971158 -0.2163978 0.09775279 0.11973339 -0.12941177
0.24825144 0.03692945 -0.42478582 0.12441506 -0.009492055 -0.053785864 -0.051633175 0.1590734
0.20503113 -0.0034746053 -0.07257261 -0.17562452 0.17858265 0.11593555 -0.31770146 -0.028911097
0.1627579 -0.027319958 0.07861744 0.09373006 0.06614508 0.12711315 -0.2712099 -0.33053845

feature_exact.j_encoder.linears.0.bias f4 [8]
00000000: 3972 45bd b0d8 45bd 46b1 b0bd 8e46 5d3e
00000010: 3d2c 82be 106b ae3c 6574 cc3e 3c5a a5be
-0.048204634 -0.048302352 -0.08627562 0.21608946 -0.25424376 0.021291286 0.39932552 -0.32295406

feature_exact.j_encoder.linears.1.weight f4 [8, 8]
00000000: d117 0f3e 78b6 4abe 3538 b73d c7d2 e8bd
00000010: 00c6 b83d e8d2 e73e ac15 3ebe 7ae5 aebe
00000020: ff3b 0dbe b02d 46bd b439 9ebe 82f4 3e3e
00000030: f6e0 cfbe 6c9c a7bd 7b4d ab3e a336 5dbe
00000040: 4aa8 6d3d 409d 133d 94a1 27be f9ff 093c
00000050: e580 07be b380 1e3e f03e 8abe 0d65 10be
00000060: cdeb cb3d d7e1 a33e bb14 e1bc 9201 c13c
00000070: a6eb 8abe 93b9 eabc 3c9c abbd e17e c33e
00000080: a1fb 383e c713 883e 728b bcbd 0e71 bc3e
00000090: d0b7 fd3d 26af e33e a4e6 a4ba 31b6 2fbe
000000a0: 83c0 1e3e c0ea 673d 413f 96be f439 583e
000000b0: 4a06 1cbe 5797 a4bd ec62 013e 5118 89be
000000c0: f2fa 74bd 5dd2 22be d079 4cbe bb20 23bc
000000d0: 4c60 943e d367 98be 1537 943e 1f27 c83e
000000e0: 401a a13e e840 7d3e d7da c1bd 431d 14be
000000f0: 1235 903e 47f3 de3d 80f1 a0be ab6c 9dbd
0.13973929 -0.19796169 0.089462675 -0.113683276 0.090221405 0.45278096 -0.18562955 -0.34159452
-0.13792418 -0.048383415 -0.309034 0.1864796 -0.4060132 -0.08184132 0.3345755 -0.21602874
0.05802182 0.036038637 -0.16370231 0.008422845 -0.13232763 0.15478782 -0.27001143 -0.14101048
0.09957085 0.3200824 -0.027475705 0.02356032 -0.2713291 -0.028652942 -0.08379409 0.38182738
0.18064739 0.2657759 -0.092062846 0.36805004 0.12388575 0.44469565 -0.0012580943 -0.17159344
0.15503125 0.05662036 -0.29345134 0.21115857 -0.15236774 -0.08036678 0.12635392 -0.26776364
-0.059809633 -0.1590056 -0.19968343 -0.009956534 0.2897972 -0.29766712 0.28948274 0.39092347
0.3146534 0.24731791 -0.094655685 -0.14464287 0.2816549 0.10886245 -0.3143425 -0.076867424

feature_exact.j_encoder.linears.1.bias f4 [8]
00000000: c9d2 d5bd b559 a9be 6233 c03e dd8c 90be
00000010: 6621 b53d e2e5 33bb 0a01 0f3e fa3f a2be
-0.10440595 -0.33076254 0.37539202 -0.2823247 0.08844261 -0.0027450253 0.1396524 -0.31689435

feature_exact.j_encoder.linears.2.weight f4 [8, 8]
00000000: 180b afbe 6da2 1b3e b762 9bbb 321a 4b3e
00000010: 1637 8a3d d266 4e3e 12c5 0dbd c4ef 30bc
00000020: 9dc1 003e d75d 333e 0c00 9b3e bbc3 c2be
00000030: d541 babd d05f 3b3e a05f 99be b4a2 633e
00000040: 0741 333d 4e2d 6abd 3db1 cfbd 63fd 543e
00000050: c564 d13e 0c66 9cbc 7a2a 24be a791 fb3d
00000060: de93 373e e188 82be 760e 443d 25c2 6b3e
00000070: 83eb bfbe 6384 fbbc 24cc b63e fddc abbe
00000080: 2749 16be 4d3d 953d b8c0 9dbe cc0d f1bd
00000090: 0f84 d9bd d06f eebe 2a8c 4cbe e040 eabd
000000a0: e7e1 933c 37ea 773e f2e6 99bc 3990 3c3e
000000b0: 2a7f 6e3e 257d 263d b7d7 873e 06bf 213d
000000c0: 1f9f ef3d 8d17 43be d8d6 2bbe ec7f 5b3e
000000d0: 7090 39bd a751 27be 5ebc a43e 6b18 14bf
000000e0: d8a7 9ebc d1ba 7fbe be7f d43e fbe1 9cbe
000000f0: fce9 313e da0f 633e 2731 a4be f638 c83e
-0.3418815 0.1519868 -0.0047419923 0.19834211 0.06748788 0.2015641 -0.03461177 -0.010799352
0.12573858 0.17516266 0.30273473 -0.38039955 -0.09094588 0.18298268 -0.2995577 0.22230035
0.043763187 -0.057172112 -0.101412274 0.20799784 0.40897194 -0.019091628 -0.16031829 0.1228364
0.179275 -0.25495055 0.047865354 0.23023279 -0.3748437 -0.030702775 0.35702622 -0.33567038
-0.14676343 0.07287083 -0.30811095 -0.1177021 -0.10620891 -0.4656968 -0.19975343 -0.11438155
0.018052055 0.2421044 -0.018786881 0.18414392 0.23290697 0.04064669 0.26531765 0.039488815
0.11700272 -0.19051953 -0.16781175 0.21435517 -0.045303762 -0.16339742 0.32174963 -0.5784976
-0.019367144 -0.24973609 0.4150371 -0.3064116 0.17374414 0.22174016 -0.3206875 0.39105958

feature_exact.j_encoder.linears.2.bias f4 [8]
00000000: 42ee 3a3e 2e0a 08bd cd6d d0bd 4c7e 74bc
00000010: d946 73be aa4f 71be 21ad 3d3e 5cf0 84be
0.1825495 -0.033212833 -0.10177193 -0.01492269 -0.23757495 -0.23565546 0.18523075 -0.2596463

feature_exact.m_encoder.linears.0.weight f4 [8, 8]
00000000: 15db 71be 8c7c f13d 6a2c 803e c018 813e
00000010: fc50 82bd 3e12 0c3e c5f9 f9be 65bd 4ebd
00000020: a22f 6b3e 554c 713e 1139 bdbe e476 7abe
00000030: 79b6 cbbd 831f 70be 2edb 62be a1a5 92be
00000040: 2cd8 76be b72c 233e 431f 693d 0618 90be
00000050: 6b8f 82be f464 06be d95f ad3e 894e b03e
00000060: 75af 203e c9fc f63d 9b37 d93e 0eb1 583e
00000070: 7872 553e c5a3 d9bc 0c0b 233e 6065 a13c
00000080: 4e9c 9abd 0dc8 9dbe 9765 84bd 9b9c c0be
00000090: 88a8 bebe 48c4 733e 2827 4dbe 2244 18be
000000a0: 719c 5f3e fc0f 22be 5db1 ad3c 3ddc ca3e
000000b0: 4df5 1fbe 2714 0cbe f341 66be 0dde 243e
000000c0: 4c27 3fbe 77cd 853e 8109 82be 0200 213e
000000d0: 2fc4 523e 1571 253e 1610 3bbe c452 9f3d
000000e0: 7c6f 883e e75c eabd 28f2 22be cec8 fc3d
000000f0: 60d1 79be 2a6d 903e 3416 67be 7221 cf3d
-0.2361873 0.117913336 0.25033885 0.25214195 -0.06363103 0.13678834 -0.48823372 -0.05047359
0.22967389 0.23564275 -0.369576 -0.24459416 -0.09946913 -0.23449521 -0.22153923 -0.2864199
-0.241059 0.15935026 0.05691458 -0.28143328 -0.25500044 -0.13124448 0.33862188 0.34434918
0.15691932 0.12059934 0.42425236 0.21161291 0.20844448 -0.02656735 0.15922183 0.01970166
-0.07549344 -0.3081669 -0.06464689 -0.3761948 -0.37237954 0.23805344 -0.20034468 -0.1486974
0.21837021 -0.1582641 0.021202737 0.39621153 -0.15620919 -0.13679563 -0.22486095 0.1610033
-0.18667334 0.2613332 -0.25397876 0.15722659 0.2058265 0.16156419 -0.18267855 0.07779458
0.26647556 -0.11443501 -0.15912688 0.12342988 -0.24396276 0.28208286 -0.22567064 0.10113801

feature_exact.m_encoder.linears.0.bias f4 [8]
00000000: 2c19 9ebd 396c 803e 013e d4be 0f19 093c
00000010: 7fa3 98be 8911 6dbe eb30 dc3e 8422 56be
-0.07719645 0.25082567 -0.41453555 0.008367791 -0.29812238 -0.2315122 0.4300607 -0.20911604

feature_exact.m_encoder.linears.1.weight f4 [8, 8]
00000000: af3f 623c 6c1c 693e 331f 9f3d 4d1d d73d
00000010: 077c a23d 03ad 5b3e 41db 4b3d 632d a5be
00000020: 336a dc3d 2267 d03c 730b 5b3c 3be6 b63e
00000030: f81f 9dbc 9588 a73d bf5b d4bd 2f0f e03d
00000040: 8f2d 163e 9e5e 943e 98c3 453c da26 bc3e
00000050: 9da4 4a3d 86a1 4cbe f2f3 e43d e584 1dbe
00000060: 13ac 133e d473 253d ce29 1a3d 2c73 db3d
00000070: 0b3e 09bd ff7b 8c3e 19f8 ac3e bf15 90be
00000080: 0c2b 74be bc9d 3bbe d835 ba3e 3bae 9ebc
00000090: 3b85 7abe 94ad 903d 85a0 15be becc aabe
000000a0: 654a ac3e 9472 8f3e 9fca 66be 160b a73e
000000b0: a789 b43d 3c9b 48be b659 83be 3200 bcbe
000000c0: b087 a53e 14f6 353e aa44 893e 2d28 9d3d
000000d0: 58b3 8dbe b780 75be 77f5 8cbe 092a af3e
000000e0: fa64 86be f707 02be 5660 a53e f68b 873e
000000f0: 3dc0 103e e698 85be 6a1b a9be 1d83 9e3e
0.013809129 0.22764748 0.07769623 0.105036356 0.079338126 0.21452717 0.049769644 -0.3226119
0.107624434 0.025439803 0.013369429 0.35722527 -0.019180283 0.08180348 -0.10369062 0.10940396
0.14665817 0.28978437 0.012070559 0.3674839 0.049473394 -0.19983491 0.111793414 -0.15382726
0.1442111 0.040393665 0.037637524 0.10715327 -0.033506434 0.27438352 0.33783033 -0.2814159
-0.23844546 -0.1832189 0.36369205 -0.019370189 -0.24464886 0.070643574 -0.14612015 -0.3335933
0.3365051 0.28017104 -0.22538231 0.32625645 0.088153176 -0.19590467 -0.25654382 -0.367189
0.32330084 0.17769653 0.268102 0.076736785 -0.2767589 -0.23974882 -0.27531025 0.34211758
-0.26248914 -0.12698351 0.3230006 0.2647397 0.14135833 -0.26093215 -0.33028728 0.30959406

feature_exact.m_encoder.linears.1.bias f4 [8]
00000000: a700 163e 7998 443c bb44 50be 9098 90bd
00000010: a837 10be f3e6 d5bd d635 dc3d 094a 8c3e
0.14648686 0.011999243 -0.20338719 -0.07060349 -0.14083731 -0.10444441 0.10752456 0.27400234

feature_exact.m_encoder.linears.2.weight f4 [8, 8]
00000000: 19e0 eb3d 77d0 203e 6779 aebb 6721 483e
00000010: 98a4 f33e 6081 02bf 59f4 dbbd 3593 c4be
00000020: d528 143e a504 dfbd 4ddc edbe 3864 da3c
00000030: 73cd b43d d0b2 dbbd 1fcd c63c b563 933e
00000040: 22f3 a0be d3d1 a53c 1882 7dbe 7d12 103e
00000050: 09b5 d43b c6b8 a73e 98ad 82be 26db a83e
00000060: 3432 b1bc 16c9 873e 394b 8c3e 1647 7fbd
00000070: 4573 083e f03a 463d 5d59 993d 316d 7bbe
00000080: 82ff 5dbd 864f dbbd 17de b6be 292b 7c3e
00000090: 0d19 7ebe 5e3c 65be 702e 1fbe e809 6d3e
000000a0: e751 b3be cd4d 7ebe e76a da3d fdf2 44be
000000b0: 44e5 cbbe c3fb b1bd 8c45 a5be fab5 80bc
000000c0: bee6 553e 233b a2bd 3301 b83e f943 94be
000000d0: eb35 0bbe 819a e83e cfd4 293e 5053 6a3e
000000e0: 0311 883d 501c 0cbe b6bc a43e d2d4 e93d
000000f0: 3bf6 0c3e 47a6 5fbe d385 ae3c 202e 5ebe
0.115173526 0.15704523 -0.005324531 0.19543992 0.47586513 -0.5097866 -0.10739965 -0.3839356
0.14468701 -0.10889558 -0.4645714 0.026659116 0.08828249 -0.10727465 0.024267731 0.28787008
-0.31435496 0.020241654 -0.24756658 0.14069553 0.0064913076 0.32758158 -0.25523067 0.32979697
-0.021630384 0.26520604 0.2740114 -0.062323652 0.13325222 0.04839605 0.07487748 -0.24553372
-0.05419875 -0.10708527 -0.35716316 0.2462584 -0.24814244 -0.2238631 -0.15545058 0.2314831
-0.35023424 -0.24834366 0.10664921 -0.19233318 -0.39823353 -0.08690598 -0.32279623 -0.015711773
0.20888802 -0.07921436 0.35938415 -0.2895811 -0.13594787 0.45430377 0.16585086 0.22883344
0.0664387 -0.13682675 0.32175225 0.114175454 0.13765804 -0.21840774 0.021304047 -0.21697283

feature_exact.m_encoder.linears.2.bias f4 [8]
00000000: 124b d2bd 95de 88bd 11f0 c6bd cdb3 05bd
00000010: 58f9 d2bd 5c10 8e3e 9ff9 a03e e01f 19be
-0.10268225 -0.06683079 -0.09713758 -0.032642175 -0.10301465 0.27746856 0.31440446 -0.14953566

feature_exact.j_ln.weight f4 [8]
00000000: 0caa 883f 90bc 8c3f dff6 963f 5a1e 973f
00000010: a5a6 823f 2052 853f b46f 883f b5fc 8b3f
1.0676894 1.0995045 1.1794089 1.1806138 1.0207106 1.0415688 1.0659089 1.0936495

feature_exact.j_ln.bias f4 [8]
00000000: 7422 1cbd 7d91 1a3c 8aa8 dbbc 5cab 8b3c
00000010: 2920 3f3d f17e ec3b 2ba9 acbc 31b1 e73b
-0.038118795 0.009434101 -0.026813764 0.017049484 0.04666153 0.007217281 -0.02107676 0.0070706834

feature_exact.m_ln.weight f4 [8]
00000000: 8612 803f c451 823f 9324 783f fdc1 843f
00000010: b375 6d3f ef34 6c3f e3ae 5e3f 8993 793f
1.0005653 1.0181203 0.9693081 1.03717 0.9275772 0.9226827 0.86985606 0.97490746

feature_exact.m_ln.bias f4 [8]
00000000: 36de 9a3a ab66 8a3d 5048 843c cc38 45bc
00000010: 84de 053e 6158 70bd 0b2a f8bd 2ccc 623a
0.0011815492 0.067578636 0.016147763 -0.012037467 0.13073164 -0.058678035 -0.12117394 0.000865164

actor.linears.0.weight f4 [64, 40]
00000000: db4a 2abd 427a 1e3e 1d7d 7a3d 4d8d 7ebd
00000010: c2fa b7bc b6f9 0c3e 69d8 44be f6a1 ce3d
00000020: 0451 c93a 0cde 6dbd 48b9 09be 9d0b 003e
00000030: c7a5 7b3d 61cc 1abd b7f4 2a3d 144d 683d
00000040: 0283 03be 5282 a4bc 7672 c73e 08ce 3ebe
00000050: c79d 0cbe 27c7 e53d e4e8 973d eef1 103e
00000060: ce48 ddbd fc36 183d 916d 1ebd 44bb 80be
00000070: bb2c 1f3e 608f d2bd 04ea 82bd 6bd9 db3d
00000080: f4cd 07be fab7 70be 4766 95be bc61 8cbe
00000090: cd58 1ebe e706 70bd 47bb e9bd e4e7 a53d
000000a0: e938 113d 527d 3abe 265a 393e d1fd ab3c
000000b0: 1105 863d 8a7e 1a3e f347 093e d37a a3bd
000000c0: 562a 123e 8a19 a4bc d296 993c 7cc7 c43d
000000d0: dc40 d5bd 793a 3ebd ad95 adbd 55c3 7c3d
000000e0: 384e 003e 7537 8b3d 2437 ad3e 847c 71be
000000f0: b57a ffbc 858d f33d 7047 5dbd 2980 bf3d
00000100: 737a 403d 178d e7bc b444 e0bd f0ad 16be
00000110: 5fac 8ebd f848 f8bd 9242 bdbd f06d 11bc
00000120: 58cd 7bbd 3cfe 4fbe f212 1bbd 133b 773d
00000130: 0d9d d0bd 9a6b ab3c ba93 99bd 7ea7 143d
00000140: 45fa aabd 62ce de3d 92f8 f5bc 2a05 2f3e
00000150: c490 ae3d 41fc c5bd ac30 bbbd a4eb c03d
00000160: f976 03be 11b7 31be 58c8 273e 8a82 2a3e
00000170: 7bed 9f3c cd7e 26be 4f31 dbbd adcb 583e
00000180: f27d 85bd d58a 81be 59c0 ba3d eebf 3b3d
00000190: 3ce9 4ebd 21cc 48bc 118f ee3d f820 d9bd
000001a0: c9b7 98bd 749e 42bc f402 533d 8b66 3b3c
000001b0: 1023 e5bd 5d84 223e 28ef be3d 7e2b f83d
000001c0: 108e fbbc 6465 b03d 3370 3d3e 95d0 c63d
000001d0: fb94 963d f7f3 043e b006 7cbd d940 e8bd
000001e0: d54b 3cbc 2276 673e 16a6 be3d 9bdd 89bd
000001f0: edcd 12bd f044 ab3d e6dc 4abe 321a 273d
00000200: 5228 7c3d 5f01 753d 2ee1 233e 3de5 ed3d
00000210: fbc7 aebd 3d87 07bd 239f 49bd 5c39 3d3d
00000220: f294 4dbd 73a8 4fbd 8f75 44be d7f7 89bd
00000230: 56d6 053c ba8d c1bd 4190 1ebe 81b4 8e3d
00000240: 48b4 2f3d 66d7 3b3e 7492 293e 119d 2a3e
00000250: 1844 de3d 43a1 edbc e846 00be f748 413e
00000260: 0308 2c3e a034 273e dba2 823d 3a3c 71bd
00000270: 948f e2bd ec42 443e ab34 173d a270 543e
00000280: 5883 d7bc 8024 4e3e 8b84 11be f5a4 653e
00000290: 35c4 8e3d 7933 d5bd 73ec 02be b6f7 3f3d
000002a0: cf22 b93d eaad 0bbe ba84 9dbc 3346 c53d
000002b0: b657 bb3d a15a fcbd 4906 aebd 7022 0c3d
000002c0: 8ca0 76bd d7cd 3bbe cab1 303e 1d53 9ebd
000002d0: f3a1 e53d b430 463d 347b 373d 48c9 36bd
000002e0: f932 71be 8757 a4bd 1f59 be3d 3c4f 23be
000002f0: 4ec9 d2bd 8728 dc3d f788 083c 1ee2 36be
00000300: a644 cb3d f5aa 1e3e 9536 c0bd 2cd2 2fbc
00000310: a693 ef3d aafd 043e 6e38 243e 16d3 9abe
00000320: 90a6 643c 856b d53d bc98 a3be 91a6 d43d
00000330: 528a 2a3e 48ae 39bd 4b44 393e 82d3 e1bd
00000340: 40f9 0abe aa08 4c3e 8558 143e 8b87 46be
00000350: a443 113e 0956 613c f8bc 6fbd c770 86bd
00000360: 66af 7f3d 35c2 a9be c4b9 553d 39ee 74bd
00000370: 2358 d2bd 62c2 a23d c025 87bd c8c1 ccbc
00000380: 6143 ea3c f73a 453c 91f4 0c3e aef5 69be
00000390: bf35 c23c c901 d8bd 6ec8 0cbd c44c afbd
000003a0: 6408 d9bd 85e6 273e adbd c73c c706 6cbd
000003b0: a7a8 b4bc e9b2 f63c cc84 7cbd 63ac b8be
000003c0: 49fd 4ebe 0efd 903e 0061 cebd afee d1bd
000003d0: eb51 783d 87ca b83d d1b7 e9bd 066c 553e
000003e0: f9ee 01bd eddd 44be 7520 943d 7bdf 7c3d
000003f0: ead2 84bd d050 c7bd 4585 1ebe 2baf a5bd
-0.041575294 0.15476325 0.061154474 -0.062146474 -0.022458438 0.13767132 -0.19223179 0.10089485
0.0015359228 -0.05807309 -0.13449585 0.1250443 0.061437394 -0.037792567 0.041737285 0.056714132
-0.12842944 -0.020081673 0.38954514 -0.18633282 -0.13732062 0.11219626 0.07417467 0.14154789
-0.10804902 0.037161812 -0.03867871 -0.25142872 0.15544407 -0.10281253 -0.06392291 0.107348286
-0.13262159 -0.23507681 -0.29179594 -0.27418315 -0.15463562 -0.058600333 -0.114126734 0.0810087
0.035454664 -0.18211868 0.18100795 0.020995053 0.06543935 0.15087333 0.13406353 -0.07982411
0.14273962 -0.02003171 0.018748675 0.09608361 -0.104127616 -0.046442483 -0.08475814 0.06170972
0.12529838 0.06797687 0.3383113 -0.23582655 -0.031186441 0.11892227 -0.054023206 0.093506165
0.046991777 -0.028265519 -0.10950604 -0.1471479 -0.06966471 -0.12123293 -0.09241213 -0.008876309
-0.061475128 -0.20311826 -0.037859865 0.060359072 -0.10186205 0.020925332 -0.0749888 0.036292545
-0.083485164 0.10879208 -0.030025754 0.17091814 0.085237056 -0.09667254 -0.09140143 0.09419945
-0.12838353 -0.1735499 0.16385019 0.16651359 0.01952242 -0.16259308 -0.10702764 0.21171446
-0.06518163 -0.25301233 0.09118719 0.045837335 -0.0505154 -0.012255699 0.116483815 -0.106019914
-0.07456929 -0.0118785985 0.05151649 0.011438022 -0.11188328 0.15870805 0.09322959 0.121176705
-0.03070739 0.08613089 0.18499832 0.097077526 0.073526345 0.1298369 -0.061529815 -0.11340494
-0.011492689 0.22603658 0.09309022 -0.06731721 -0.035840917 0.08362758 -0.19810829 0.040796466
0.06156189 0.05981576 0.16003868 0.11615989 -0.08534237 -0.033087958 -0.04922403 0.04619728
-0.050190873 -0.050697755 -0.1918547 -0.06736725 0.008168777 -0.0945086 -0.15484716 0.06968022
0.04289654 0.18343887 0.16559774 0.16661479 0.108528316 -0.02900756 -0.12527049 0.1887549
0.16799931 0.16328669 0.063787185 -0.058895327 -0.110625416 0.19166154 0.036915462 0.20746091
-0.026307747 0.20131111 -0.14210717 0.22426207 0.06971017 -0.10410208 -0.1278551 0.046867095
0.09039842 -0.13640562 -0.019228328 0.0963253 0.09147589 -0.123219736 -0.084972925 0.03421253
-0.060211703 -0.1834024 0.17255321 -0.07730696 0.1121253 0.04838629 0.04479523 -0.04462555
-0.23554601 -0.08024507 0.09294342 -0.15948194 -0.10292302 0.107499175 0.008333436 -0.17859694
0.09925203 0.15494902 -0.09385411 -0.010731261 0.116980836 0.1298739 0.16037151 -0.3023917
0.013955727 0.10420898 -0.31952465 0.103833325 0.16654328 -0.045332223 0.18092458 -0.1102667
-0.13571644 0.1992518 0.14486893 -0.19387643 0.14185959 0.013753423 -0.058529824 -0.06564479
0.062423132 -0.3315598 0.052179113 -0.0597975 -0.10270717 0.07947232 -0.06598997 -0.024994746
0.028596582 0.012037984 0.1376517 -0.22847626 0.023707269 -0.105472155 -0.034370832 -0.08559564
-0.105973035 0.1639653 0.024382437 -0.05762365 -0.022053076 0.030114608 -0.061650082 -0.3606902
-0.20213808 0.28318065 -0.10077095 -0.102506034 0.060624998 0.09023004 -0.11412013 0.20841989
-0.031722043 -0.19225283 0.07232753 0.061736565 -0.06485541 -0.09732211 -0.15480526 -0.08090051

actor.linears.0.bias f4 [64]
00000000: 4dfe 4b3c ae2c d33d dc6d a23d 62c5 1ebe
00000010: 944d 403d 7694 26bd 8e9d e0bd 3511 7bbd
00000020: 9b29 febd 0a3a 80bd 3cc5 c03c 7291 e3bd
00000030: dc72 0dbd 1f36 eebd 0a9c 8abc 6a3d 37be
00000040: afd0 c13d 01e4 14be d0c6 8cbd e715 76bd
00000050: b676 25bd f851 2cbd 7bae fd3d becc 4abd
00000060: ce57 113e f2ab 03bd be18 1ebe 7d79 f1bb
00000070: 4fcc 68be 8f07 023e c458 253e f6a4 bb3d
00000080: 0caf 9439 332e 023d a04e 80bd 1a39 adbd
00000090: 06b7 d5bd b2f0 f2bd f628 08be 29a2 3f3c
000000a0: 7eda d1bd dbfa 013e 277e 45be 28b1 8bbd
000000b0: 6390 80bd 50e7 ab3c def6 103e f33e 78bd
000000c0: 895c 3f3e fb96 993c d36d 02be 93b6 44bd
000000d0: 8576 cebc 725d 87bd bbbe e8bd 7bb3 36bd
000000e0: 04cd 383d a0d8 4bbd 5348 ee3d 36d6 14bd
000000f0: cc4d 173d b000 aabd b699 89bd 7f33 573d
0.012450767 0.10311256 0.0793111 -0.15504983 0.046948984 -0.040668927 -0.10967551 -0.061295707
-0.12410279 -0.0626107 0.023531549 -0.11111726 -0.034533367 -0.116314165 -0.016920108 -0.17894521
0.09463631 -0.14540102 -0.06873858 -0.06007948 -0.040396415 -0.04207036 0.12386795 -0.049511664
0.14193651 -0.0321464 -0.15439126 -0.007369219 -0.22734188 0.12698196 0.16147143 0.09162323
0.0002835918 0.03178234 -0.062649965 -0.08458157 -0.104352996 -0.11862315 -0.13296875 0.011696377
-0.10246752 0.1269335 -0.19286405 -0.06820899 -0.062775396 0.020984322 0.14156672 -0.060606908
0.18687643 0.01874875 -0.12737207 -0.04802568 -0.025202999 -0.0660962 -0.11364504 -0.04460476
0.045117393 -0.049767137 0.116348885 -0.0363371 0.036939427 -0.083009124 -0.06718771 0.052539345

actor.linears.1.weight f4 [64, 64]
00000000: 73c6 e7bd 2a29 ac3c 6d60 88bd df3e 3dbb
00000010: 934c 1ebe ad97 4d3d 7bd8 7fbe 0e4a 5abc
00000020: 8136 01be 82fb 6a3d 36e4 25bc b17d 03be
00000030: aa3c a93c 496a fabb d79a e83d ffee f9bd
00000040: 7e2e f63d 4e8d 7abe 808e 71be d9b4 453e
00000050: 9332 77bd 159f 303c b705 2dbe 78b8 563e
00000060: d5bb ce3d 3b8f 123e cf06 9e3d a6c5 06ba
00000070: 7092 38bd c7d0 863d aa1f 563e 7d50 523c
00000080: e3b8 213d a2dd f5bd e9d7 923d 22e7 503d
00000090: a2d3 10be b377 59be 09a2 9abd b618 913e
000000a0: 374f 833d 26d7 56bc 5e62 5a3d 9346 dd3d
000000b0: db59 833d 59b1 553e 8250 8bbd 25b8 06be
000000c0: f450 27bc f710 28be 74ec 053e 42ba 02be
000000d0: 8dc5 09be c6ef 003d 3447 88bd 290a 873d
000000e0: 1fde a1bb 5e5f 033e 787e 3abe a20d 933c
000000f0: 32b0 df3b 4153 1d3e 3ffb c2bd e41e 093e
00000100: 968e 97bd eec9 0fbc 6901 693e dc50 dabd
00000110: 3990 b43d fd34 273e f1d1 4d3e 3ad9 b0bd
00000120: aa7b 473e cdb9 80bd 12c1 afbe 6276 2cbe
00000130: 65c6 333b 6e69 813e f347 c5be 81ba 0dbd
00000140: 070c a1be f742 703d d33e af3b c196 203c
00000150: b07c 8dbe 4300 aebe 6591 893e 580a b7bd
00000160: e380 51bd c065 b7be 082d 96be 326d 2e3e
00000170: 411a a0be 4ebb 50be f6fb 283d 9ed3 53bc
00000180: 04b1 40bd 13d6 873d 896b 873e 8bbc babd
00000190: d36c d53d cbe5 5a3e d2d2 06be 5d86 f7bc
000001a0: 8fbb a4be 5347 423e d8c7 3ebe 4126 0c3e
000001b0: bc6b 5abe 6887 92be 5f21 993e 19d1 d8bb
000001c0: a83b f13e 2f81 203e 0233 03bd c4a5 cc3e
000001d0: b41c c53e c620 cfbe 372e 71be 18b8 bcbd
000001e0: 3c39 ad3e 763d 39be 5b2b 32bd 7030 13be
000001f0: aec9 e1bd bf2e 68bd 362d b23e 2bad 6fbe
00000200: a113 463e ee9b 703c 778d 193e de17 443e
00000210: 93d0 8c3e 7284 083d 1c56 1c3e 93f4 c0bd
00000220: e689 323e 0131 25be 717e bdbd 6b33 533e
00000230: 3789 3bbd 2374 0e3e 7cc7 23be 842b 823e
00000240: 6aa8 8abd dc8b a33e 25e6 823e 6044 78be
00000250: db61 1cbd 25eb 5cbd 8a70 0a3e 6206 b3be
00000260: 5e46 49bd 1ad1 6c3d df30 1b3e 453d d3bc
00000270: 0ed9 a4bc d241 6fbc 03ad d2bd 7fd8 a7bd
00000280: dc46 2fbd af9d 3b3e dbba 4cbd ec8e dcbc
00000290: ecac 493e 952f 87bd 1bbc c0bd dd8a c9be
000002a0: 034e c33d 6022 18be f0de 80bd 2b88 823d
000002b0: 2773 4bbc 1336 f3bd 0f4e 2d3c d6bf 7cbd
000002c0: 0f42 09bc 1180 73bc 663e 15be f8ce f03d
000002d0: 1e82 f6bd 2a5e ebbd e03c 823d 3f73 eebd
000002e0: 2337 323e 2df2 c0be c74f 9a3d deba 57be
000002f0: 050d a93b cc88 8abd 2521 fbbb 5f0e 3ebe
00000300: 92dc 06be eca2 733d 0ce2 a0be 4919 2f3d
00000310: a41f 95be c436 fbbd e9e5 a5bd c150 833d
00000320: a00c 81be b467 0b3e da8a 253d dcac 46be
00000330: 95c6 793c 80ba 69be 0f72 653e 29f5 0abe
00000340: 3fc4 63bb af3c a6be fe0f 4fbc 17c2 1e3e
00000350: a325 6e3d 7f02 d13d a9d2 3fbe 1388 663e
00000360: 9dd7 603e f950 633e 4020 92bd 7696 653e
00000370: ac1d 533c 11fd 963d 7b8c 553e 3f7f ea3d
00000380: aa8a 513e 8bf2 a0bd a043 f0bd 8709 72bd
00000390: 0f0d a9bd b6d6 a53c 9ba1 1d3e 979d dc3d
000003a0: 9a78 72bb 3568 553e c42e 84bd 2687 8ebc
000003b0: 159f bd3d d0b5 803d ee7f 9c3d d80d 1bbe
000003c0: 1b74 fc3c d20f 2dbc e038 523d 1f0c bfbd
000003d0: f9fb 8f3d 2ee1 553e 6c55 553d 2442 c73d
000003e0: 73d5 76be c49b bd3e 41a7 6cbe b07e f93c
000003f0: bafe c13c 65ec a93e ccbc debd a609 263e
-0.11317148 0.021015722 -0.06659017 -0.0028876585 -0.15458898 0.050193477 -0.24984924 -0.01332332
-0.12618448 0.057368763 -0.0101252105 -0.12840916 0.02065881 -0.0076420647 0.11357658 -0.12203788
0.120205864 -0.24467966 -0.23589516 0.19307269 -0.060350966 0.010780116 -0.16896711 0.20968807
0.1009442 0.1431245 0.077161424 -0.0005141146 -0.04506153 0.0658279 0.20910516 0.012836573
0.039482962 -0.12005164 0.07170088 0.051001675 -0.14143232 -0.21237068 -0.07550437 0.28339165
0.064115934 -0.013112819 0.053316467 0.108044766 0.06413623 0.20868434 -0.06802465 -0.13156183
-0.010212172 -0.16412722 0.13078481 -0.12766364 -0.13454266 0.031478666 -0.06654206 0.06593735
-0.004939809 0.12829348 -0.18212306 0.017950837 0.006826424 0.1536379 -0.09520578 0.1339069
-0.07400243 -0.008776171 0.22754444 -0.10659954 0.08816571 0.16328807 0.20099618 -0.08635183
0.19480768 -0.06285439 -0.34326988 -0.16842034 0.0027431485 0.2527575 -0.38531455 -0.034601692
-0.3145449 0.058657613 0.0053480654 0.0098015675 -0.27634192 -0.33984575 0.2686874 -0.0893752
-0.051148307 -0.35819817 -0.2933123 0.17033842 -0.3127003 -0.20383951 0.041255914 -0.012928871
-0.047043815 0.06632628 0.2644923 -0.09117993 0.10421147 0.21376722 -0.13166359 -0.030215437
-0.32174346 0.1897252 -0.18630922 0.13686468 -0.2133016 -0.28618932 0.29908273 -0.0066167233
0.47115827 0.1567428 -0.032031067 0.3997022 0.3849846 -0.40454692 -0.23552786 -0.092148006
0.3383273 -0.18089852 -0.04349838 -0.14373946 -0.110247955 -0.056685206 0.34800118 -0.23405902
0.19343425 0.014685614 0.14995371 0.1914973 0.2750288 0.033329435 0.15267223 -0.09421649
0.17435417 -0.16131975 -0.092526324 0.20625083 -0.045785155 0.1391149 -0.15994066 0.25423825
-0.06770404 0.31942642 0.2556621 -0.24244833 -0.03817926 -0.05393519 0.13519493 -0.34965807
-0.049139373 0.057816602 0.15155362 -0.025786052 -0.020123031 -0.014603095 -0.102869056 -0.0819559
-0.042792186 0.1832187 -0.049982887 -0.02692362 0.1969487 -0.066008724 -0.09410878 -0.39363757
0.09536364 -0.14856863 -0.06292522 0.06373628 -0.012417591 -0.11875548 0.010577693 -0.061706387
-0.008377566 -0.014862076 -0.14574584 0.11758226 -0.12036537 -0.1149257 0.06359267 -0.11643075
0.17403845 -0.37684765 0.075347476 -0.21067378 0.0051590228 -0.06764373 -0.0076638632 -0.1856017
-0.13170078 0.059481546 -0.3142246 0.042748723 -0.29125702 -0.12266305 -0.081004925 0.06411887
-0.25204945 0.13613778 0.040415622 -0.19401878 0.0152451 -0.2282505 0.22406791 -0.13570084
-0.0034754423 -0.32468173 -0.01263809 0.15503727 0.058141362 0.10205554 -0.18732704 0.22512846
0.2195725 0.22198857 -0.071350574 0.22420678 0.012885492 0.07372487 0.2085437 0.114500515
0.20463052 -0.078587614 -0.117316484 -0.059091117 -0.08254444 0.020243984 0.15393679 0.107722454
-0.0036998154 0.20840533 -0.06454232 -0.017398428 0.09258858 0.06284678 0.07641588 -0.15142
0.030817082 -0.010562854 0.05132377 -0.09328484 0.07030482 0.2088668 0.052083418 0.09729412
-0.24104862 0.37032902 -0.23110677 0.030455917 0.023681033 0.33188167 -0.10875854 0.16214618

actor.linears.1.bias f4 [64]
00000000: ba4d a83d ac04 a13d 7ce1 cb3a 496d 4fbd
00000010: 2273 1f3d d27b 023e 7098 613d 0905 75ba
00000020: 1650 163c 0970 a73d 2840 42be 6fa1 ca3d
00000030: 2860 933c 9d78 4fbd 0e22 12be d27e 523b
00000040: bdc5 3dbd 601d 3bbc 3a92 bd3d 79c5 5cbd
00000050: d418 043d a8ac c9bc 567f c83d 79e8 cbbd
00000060: e55e c73d d517 033e 6d5c b83d a061 a73d
00000070: 77e9 89bd 6f2f 343c 5787 723d 9e68 e43c
00000080: a6e0 5cbd f5ef b2bd 5261 d8bd 7b4a 39bd
00000090: 6092 cebd ce62 f53d 68e1 853d 93a4 73ba
000000a0: 07da 023d 020d 053d 3e02 9cbd e671 dd3d
000000b0: e660 c73d 3406 3d3d cda6 89bd 1d8c f6bb
000000c0: 2568 12bd 18a5 733c 2f1f 0e3d 4de3 ffbd
000000d0: 5756 b73d cabb 9d3c 2b82 1a3e b304 14bd
000000e0: 8f4b 90bd 6f39 ea3d 4960 003e 4dda 8d3d
000000f0: fe15 593b 5410 d03d c555 033e 26bb 203d
0.0821795 0.07862219 0.001555487 -0.05064133 0.03892816 0.12742546 0.055077016 -0.00093467586
0.009174367 0.08175666 -0.18969786 0.09894072 0.017990187 -0.050652135 -0.14270803 0.0032119048
-0.046331156 -0.011420578 0.09256406 -0.053899262 0.03225024 -0.024618462 0.097899124 -0.0995645
0.097348966 0.1280206 0.09002004 0.08172917 -0.06733983 0.010997637 0.0592111 0.027881917
-0.05392518 -0.087371744 -0.105654374 -0.045237046 -0.100865126 0.11981736 0.065371335 -0.0009294238
0.03194621 0.03248311 -0.07617615 0.1081274 0.09735279 0.046148494 -0.06721268 -0.007524027
-0.03574385 0.014870904 0.034697708 -0.12494526 0.08952015 0.019254584 0.15088718 -0.036137294
-0.07045662 0.11436736 0.1253673 0.06926403 0.003312468 0.10159364 0.12825687 0.03924098

actor.linears.2.weight f4 [1, 64]
00000000: 5941 623e 92f8 1ebf e482 c1be 8ab6 f13e
00000010: b684 dcbe a408 b8be 6bc8 d4be de3f b03e
00000020: cac3 bf3e 85a8 c03e 433b cebe e000 5fbf
00000030: 5034 3dbf 3117 c8be 90c9 b8be 733e f53e
00000040: 8391 073f ed54 e73e d09b c53e 5417 3c3f
00000050: ce32 143f fc3f 3d3f 1fb3 d43e ea7c c6be
00000060: 579c 02bf b2b8 f7be 9af6 d8be 1d9b 36bf
00000070: a207 ff3e 9dcd 293f 2ee1 09bf 91df a4be
00000080: 2227 d3be 5860 e43e 146b aabe fb3b f73e
00000090: 7976 db3e d10e f43e 269d 4ebf 28a0 bf3e
000000a0: 0cce c33e 5c06 43bf 5251 ec3e d6c6 11bf
000000b0: 8f59 3cbf 4e3e 1ebf 3e3c d1be 3666 10bf
000000c0: 9afd eb3e ad7a 3ebf f31b ca3e 8b1e 273f
000000d0: 0398 0abf ee1b 283f 0007 3ebf 3847 00bf
000000e0: 0a05 d2be 7fa1 2fbf 9400 0dbf f3d3 aebe
000000f0: b7aa cf3e b8dc 21bf 5137 f4be f85d 05bf
0.2209524 -0.6209804 -0.37795174 0.4720958 -0.4307 -0.35944092 -0.41559157 0.34423727
0.37454063 0.3762857 -0.40279588 -0.8711071 -0.7390795 -0.39080194 -0.3609128 0.47899207
0.5295641 0.4518198 0.38595438 0.73473096 0.5789002 0.7392576 0.4154291 -0.38767177
-0.51019806 -0.483831 -0.42375642 -0.71330434 0.4981051 0.66329366 -0.5385922 -0.32201818
-0.41240793 0.44604754 -0.3328482 0.4828795 0.42863825 0.47667554 -0.8070854 0.37426877
0.3824314 -0.7618158 0.46155792 -0.56944025 -0.73574156 -0.6181382 -0.40866274 -0.5640596
0.4609192 -0.7440594 0.3947445 0.6528098 -0.541382 0.6566762 -0.7422943 -0.5010867
-0.4101947 -0.686058 -0.5507901 -0.3414608 0.40559933 -0.63227415 -0.47698453 -0.5209651

critic.linears.0.weight f4 [64, 16]
00000000: b800 9ebd 2eca 5fbc 2a0d 2d3d ab17 9f3e
00000010: 726d 6bbd 08c0 353e 287e 1b3e 088a 463e
00000020: f298 2b3d bc29 96bc 9851 303d 0072 d8bd
00000030: 4fd5 2fbe 8585 02bd 9679 d0bd 1f10 4ebe
00000040: ed01 9abd df08 99be 4737 7ebd d288 7c3e
00000050: 9e13 0fbe 7fd5 07be 5895 78bd 6ead 49bc
00000060: 18bb 3d3e 3c4e 1d3b 318c 453e cc1e 41be
00000070: b2c6 573c b3a1 89be 8676 033e 9b54 c0bd
00000080: ca64 8e3d d36b 78bd 742e ef3e f3ec 37be
00000090: 81e6 f0bd 6680 3d3c 73ac 4ebe 37de 65be
000000a0: badb 47bd 5afc 403d 281a 4f3d 1775 a13d
000000b0: 8901 09bd 7087 d03d 5946 ecbd dae6 2d3e
000000c0: 8fd1 8dbd 258e 04be 2185 813e d024 53be
000000d0: 8f2c 1abe 013f 253e f3f7 5d3d 6f98 72be
000000e0: 0062 2cbe b402 05be 0d4c 003d 1524 163e
000000f0: 4405 853d 4971 283c ffb0 49be e403 383e
00000100: d75d 06bd 2d8b 32be 5e2c 323e dcc2 463d
00000110: 9f25 14bb 1e69 9ebd 164a 2d3e ffb7 8bbe
00000120: 0fa3 863c 5a75 87be 0f0a 1c3e f0d9 8dbe
00000130: a395 3a3e ff33 a13d cec6 38ba dddc 553e
00000140: 8891 4d3c f59f 433e 0439 bbbd c922 e0be
00000150: 65a5 0cbe 919c 63be dd25 68be 90b8 35be
00000160: 3f04 353e 9021 7dbd 89f0 06be 0484 20be
00000170: 0acb 7abd 68d3 d3bd adb0 6abd f114 833c
00000180: d257 79be cf9e 9d3e 0281 efbe 4836 443e
00000190: 57dc 4ebe c55b 60bd b392 8fbe 7149 b4bd
000001a0: 7040 233e 6e31 a7bd b6db 203d f13d 20bd
000001b0: 4d2d 21be 4f94 113e 5bd1 763d edce 7a3c
000001c0: 4975 5b3e 2a57 a7bd 5166 063f d262 c4be
000001d0: 3daf 2c3e 34a0 b43c d923 7abe fd5f 36be
000001e0: a1b0 5d3e e065 debd f87e 303e a7ee 72be
000001f0: 1b3f 34be aa4a d13d f398 d13d 41ed 36be
00000200: 4e27 bc3c 85c9 753d e659 e73d 456e c9be
00000210: c956 393e 2594 143e 5e05 7d3e e263 643d
00000220: 56f3 5a3e d281 78be cdc1 0abd 4e45 c63d
00000230: 760d 0ebe 987a 0cbe 888e acbc 3071 56bc
00000240: 4932 073e ce44 67be 4210 a83e cb9c 87bd
00000250: 9320 17bd 2a6a 363e 678f 633e 1b1d 6ebe
00000260: b907 5d3e c106 a03d 7e01 3c3e f037 ce3d
00000270: ea95 863c 7657 043e 30c2 e4bd 3204 543d
00000280: 3f1a 3ebe f5a8 25bd a773 e6bd 06e3 02bd
00000290: c7d8 15bd 91ef 473e ecb3 923c 61e9 c7bb
000002a0: 1b6d b53d 0d73 ba3d 09e5 85be 6366 51be
000002b0: 06a2 873d aa4b 38be 63e2 373e 5ecb 213e
000002c0: 88e8 f9bd 2954 cb3d a0da 663d 42ab e13e
000002d0: 9524 14be 3b21 42be dafe 93bd 0b59 e93d
000002e0: 6ccd 01bc 3cd6 f5bb c6e5 ebbd 4626 14bd
000002f0: 7d2f 4c3c 3a35 d2bd 5086 38be e02e a0be
00000300: 6333 82bb 7fa8 44be 733c 98bb b04b ab3e
00000310: 3cb0 e3bd 8f5a 1cbe a2e2 373d d32d 133e
00000320: 110c 393e 7147 2c3d 174e 4b3d 481e c8bd
00000330: e612 173e 2be0 83be 52fd 91bc 7474 393e
00000340: 6e12 623d 7c94 b9be afbe 963f bbc0 81be
00000350: ba70 703d c9f9 b53d eed9 623e 32dc b23c
00000360: 030e 623e 924d b93e 3331 55be 988f 48bd
00000370: e132 2cbe 90f3 31bd c530 29be 8a32 5ebe
00000380: bfe9 08be 86a0 ccbe 323a 083f 623e fdbd
00000390: 8ef6 d33d a54c 953d 896a 3d3b b000 a13d
000003a0: 7485 4bbe c974 f73d aaab 5cbe 4a12 ecbd
000003b0: 7400 193e 7d66 35bc 8dfe 413d 3827 42be
000003c0: cb3a 1f3e 88ed 963d 0c14 f53c 36dc 83be
000003d0: 19cc d0bd beb7 ff3d 9680 063e 6cad 6abe
000003e0: bee8 bf3c 3f4a 0abe 328c 303e 99dc b63b
000003f0: 305f 543e 7f02 debc 7d2c febd 0a82 19be
-0.07714981 -0.013659043 0.042248882 0.31072745 -0.057477422 0.17749035 0.15184844 0.19388592
0.041893907 -0.018330447 0.043046564 -0.10568619 -0.17171215 -0.031865615 -0.10179441 -0.20123337
-0.075198986 -0.2988958 -0.062064435 0.24661568 -0.13972327 -0.13265036 -0.0606893 -0.012309415
0.18528402 0.002400293 0.1929176 -0.18859404 0.013169931 -0.2688118 0.12838182 -0.09391137
0.06952818 -0.060649704 0.46715128 -0.17961483 -0.11762715 0.011566257 -0.20182972 -0.2244805
-0.048793532 0.04711566 0.050562054 0.07883661 -0.03344873 0.10182083 -0.11536855 0.16982594
-0.06924736 -0.12944849 0.25296882 -0.20619512 -0.1505606 0.16137315 0.05419154 -0.23690961
-0.16834259 -0.12989312 0.031322528 0.14662202 0.06495145 0.010280916 -0.19696425 0.17970234
-0.032804336 -0.17435904 0.17399737 0.048525676 -0.0022605432 -0.07734893 0.16922793 -0.27288815
0.016435174 -0.2645672 0.15238212 -0.27705336 0.18221144 0.078712456 -0.0007048667 0.20885034
0.012546904 0.19103988 -0.09141734 -0.4377654 -0.13734968 -0.22227694 -0.22670694 -0.17746186
0.17677401 -0.061799586 -0.13177694 -0.1567536 -0.06122879 -0.10343057 -0.057297397 0.016001197
-0.24349907 0.30785224 -0.46778113 0.19161332 -0.2020124 -0.05477502 -0.2804161 -0.0880307
0.1594255 -0.08163725 0.039272033 -0.039121572 -0.15739937 0.14216731 0.06025825 0.015308124
0.2143146 -0.08170922 0.5249987 -0.38356644 0.16863723 0.022049047 -0.24427737 -0.17810054
0.2164941 -0.10859275 0.17235935 -0.23723851 -0.17602198 0.10219319 0.10234251 -0.17863943
0.02296796 0.060006637 0.11296444 -0.3934194 0.18099512 0.14509638 0.24709079 0.05575932
0.21381888 -0.24268273 -0.03387623 0.096811876 -0.13872322 -0.13718641 -0.021064058 -0.013088509
0.13202776 -0.2258484 0.32824904 -0.06621703 -0.0368963 0.17813936 0.22222672 -0.2325329
0.21584977 0.07813788 0.18359944 0.10069263 0.016428906 0.12923989 -0.11169851 0.051761813
-0.185647 -0.040444333 -0.11252528 -0.031954788 -0.036583688 0.19524981 0.017908059 -0.006100819
0.08858701 0.091039754 -0.26151302 -0.20449214 0.066227004 -0.17997614 0.17957453 0.15800235
-0.12202555 0.09928162 0.05636084 0.44075972 -0.1446708 -0.18957989 -0.072263435 0.11393937
-0.007922512 -0.0075023454 -0.11518435 -0.036169313 0.012462494 -0.102640584 -0.18019986 -0.31285763
-0.003973411 -0.19204901 -0.004645878 0.33456182 -0.111175984 -0.1526892 0.04489387 0.1437295
0.18071009 0.04206032 0.04963502 -0.09771401 0.14753303 -0.25756964 -0.017820988 0.1811083
0.055193357 -0.36246097 1.1776942 -0.25342354 0.058701254 0.08885533 0.22153446 0.021833513
0.22075658 0.36191994 -0.2081955 -0.048965067 -0.16816284 -0.04344517 -0.1652251 -0.21698967
-0.13370417 -0.3996622 0.532138 -0.12365414 0.10349761 0.072900094 0.0028902611 0.07861459
-0.19875127 0.12082822 -0.2154986 -0.11526926 0.14941579 -0.011071798 0.0473619 -0.18960273
0.15549771 0.07369524 0.029916786 -0.25753945 -0.101951785 0.12486218 0.13134989 -0.22917718
0.02342641 -0.13504885 0.1724098 0.0055804965 0.20739436 -0.0271008 -0.12410829 -0.14991012

critic.linears.0.bias f4 [64]
00000000: 032f b9bc 8f28 eebd 2039 163e 44d9 173e
00000010: 394c d0bd 7b9a 2fbc 0cb1 5b3d 1b9f d93d
00000020: b5eb 7c3e 65db c0bd f037 c4bd b926 93bd
00000030: e4ba 3a3e 4e79 fb3a 87eb dc3d 8898 243c
00000040: 4444 b63b dcc8 983d c9b3 2bbd 9d7a f8bd
00000050: 93d6 043d e1d0 d73d 4e59 4cbe e446 26be
00000060: 3cf6 723d d241 3e3c 845e 72be 47df 7bbb
00000070: 00e9 09bd beae 7e3d 5037 24be 9ef5 ce3d
00000080: 4abd debd 5bf2 47be 5c2f efbd 3147 9f3a
00000090: dac1 7bbd 0577 0dbd 2829 103e 1e64 21be
000000a0: 600b 103e d2de 353e 16fe 373d ed4a 50bd
000000b0: 8714 613d a965 21be fddc 2abe 5fbe 67bd
000000c0: efd0 003c 24fb 6c3d 053e 333e 1796 c4bc
000000d0: af2b 5ebc 9377 ffbc 546a 2bbe 8942 ae3d
000000e0: 637b 143e 22f0 6a3e 63a2 613c c359 e93d
000000f0: d0a8 e73d d69c dfbd 5be6 0ebe 66a3 1bbd
-0.022605425 -0.1162883 0.14670229 0.14828974 -0.10170788 -0.010717983 0.053635642 0.1062605
0.2469929 -0.09416846 -0.09580982 -0.0718512 0.18235356 0.0019185932 0.10787111 0.010046132
0.005562337 0.07460186 -0.041919503 -0.121327616 0.032431196 0.10537887 -0.19955942 -0.1623798
0.05931686 0.0116123725 -0.23668867 -0.0038432644 -0.03366947 0.062178366 -0.16036725 0.101054415
-0.10875948 -0.19526045 -0.11678955 0.0012151954 -0.061464168 -0.034537334 0.140782 -0.15760848
0.14066839 0.1776078 0.04492005 -0.050852705 0.054951217 -0.15761437 -0.16685863 -0.056578036
0.007862314 0.057856694 0.17504127 -0.02399735 -0.01356022 -0.031184947 -0.1673978 0.08508784
0.14500193 0.22943166 0.013771626 0.11394074 0.11311495 -0.10918586 -0.13955061 -0.037997626

critic.linears.1.weight f4 [64, 64]
00000000: 1868 79be 158b e3bd 3252 4e3d d47a 06be
00000010: 2bcb 0d3b 1868 ac3d 7638 e23c 99c1 183d
00000020: b46e b93d 7250 49bd 214a 83bd 62f7 d03d
00000030: b20c 3d3b f9c4 b93d 1c92 0cbe 5bc8 76bd
00000040: 1137 df3d d778 6a3d b1e2 a03d 8dad b8bd
00000050: 961a 07be 3b47 01be 1625 e8bd 58e9 c03d
00000060: 132b 193b b346 273e ebb0 3fbd 1ced c33b
00000070: 2c94 12bd 8047 093d 04a1 903d 3d96 7fbc
00000080: 74f4 6f3d fc2c 353e 9104 3c3c b29d fcbd
00000090: 1742 bcbb 1fb9 e53d 0890 d83d 7f8e 6bbd
000000a0: 1a92 03bd 7662 b73d 8933 763d 32f4 fd3c
000000b0: 6332 2abe 4474 67bd ed85 df3c fd0b 003e
000000c0: dd8f eb3c 00e7 9b3d 02d0 9abd f05e 9c3d
000000d0: 0437 ce3d 8b66 7abd 4e2a 833c 19f9 d2bb
000000e0: 3ae6 7dbd 6bc5 d2bb 960e d9bc e718 883d
000000f0: 64e4 d43d dc9f 11bd 2c3c 0f3d b1a4 32bc
00000100: 3ff1 c63e 21dc 69bd a5a1 d03d 9233 cabd
00000110: 5a9f ba3d b0f7 0abe d501 9bbd c748 2abe
00000120: 24e3 913d 7549 003d 1506 9f3d 0adc 253d
00000130: de62 9cbd 8eca a93d c940 c83d 4914 813d
00000140: c88a 03be e03f 0ebd 41d2 02be d008 343d
00000150: a4c8 e63d ced1 b3bc 9cf3 1e3d 2cbf d5bd
00000160: cab5 b1bd c3a5 693e 0466 70bd 3db2 723d
00000170: 2b5f d1bd c626 9bbd 385f 85bd 7c69 e5bd
00000180: 4bbd 80bc 21f1 b7bd 5b10 f5bd af51 343c
00000190: 4a18 6f3d edd3 b9bc 30ab 043e 2bd4 75bd
000001a0: 482b 6dbb 620e ebbb fc39 e83d cef0 99b9
000001b0: 4dd8 d23d e0d8 d9bd 4df0 db3c e020 94bd
000001c0: ab1a 393d 5177 8fbd 128a 913d aee5 cebd
000001d0: a692 0dbe 38db 9d3b 4930 883d 7603 663d
000001e0: 5f68 c1bd 2546 fa3c 3db1 f1bc 534e d5bd
000001f0: 0ca6 4a3c b973 11be 537e e13d 929e b7bd
00000200: 7b86 a5be 5780 a9bd fb7b fe3c 737f d13d
00000210: fe39 22bd c919 163e c480 083e 9cf8 4c3e
00000220: cc77 71bd 7b0f 1a3d 444a 7f3d e2fa fdbc
00000230: d717 023e 95ba 9cbd d6dd 973b b809 913d
00000240: ae4e debd 1307 d93d 140a bbbd 0599 cfbd
00000250: 8dc4 59bd d118 d6bd 24e2 863d 1012 c3bd
00000260: b751 b73d c5de 583e f7b4 e2bd 5bf8 19be
00000270: bb72 823d 98e7 2abd a4aa e0bd 9760 0cbe
00000280: 1cc6 74bd 5f51 4f3e e76c b9bc 0344 e8bd
00000290: 8821 08be 529e aebd 57ee 97bd 3506 c3bb
000002a0: 03cb 073d 8934 debd 4330 bcbd bf6e 2c3e
000002b0: 3e1b 973b 4540 5abc bcbc c5bc 4a68 f73b
000002c0: 1662 8b3d 8fd0 a73d 77bb 6dbe 51a0 7c3b
000002d0: 455f 5e3e 846a f93d 99c1 8cbd 7951 f1bd
000002e0: 9897 70bd 1a54 96bd a292 1dbc dac7 74bd
000002f0: 40f6 943d 2235 1e3d c8dc 7f3d 74f5 0cbe
00000300: 6e02 17be 8a43 9b3c 325c aebd b288 613c
00000310: 29c0 b33d c91c 283c 981f 8f3d aae6 103e
00000320: 0a4a ea3d 9eef a93d 578e 29bd 0225 583c
00000330: c785 dabd 0e3f 08bb 76e3 9bbd b3e9 e1bd
00000340: 35b4 d9bd c89e c5bd 58b4 06be cc8a 063e
00000350: 49f3 f23d ce0a 793d 6a66 ffbd 0bd1 80bd
00000360: 7db2 9abd 911a 203d db3d 983c 8a9e 0d3d
00000370: 1807 c6bd 7e4c 183d d1f1 c03d d9fe a6bd
00000380: 0780 f33d 0453 153e b981 403d 1aca f4bc
00000390: 3512 fbbd 587e 5abd b7a1 813c 0f4d bdbd
000003a0: 7da6 cfbd 21d0 d4bd a1fb 0c3e eb2a cc3d
000003b0: ef25 b2bc 1bf0 b1bc ab4d 163d 8273 94bd
000003c0: 469e a4bd 2e46 4bbd 29ce 07be ac53 6bbd
000003d0: aa33 fb3d 2d22 833c c46d a73d e1f2 103d
000003e0: 0c86 3b3c af48 133e 54a4 e93d 04a5 f93d
000003f0: 01d2 043d 3bea 483d 4e6e 32bd a667 c93d
-0.24356115 -0.11110512 0.050371356 -0.13132793 0.002163599 0.08418292 0.027614813 0.037294004
0.09054318 -0.049148984 -0.06410623 0.102034345 0.0028846678 0.09070773 -0.13727611 -0.060249668
0.10899175 0.057244148 0.07855738 -0.09017477 -0.13193735 -0.12624829 -0.113351986 0.09419507
0.0023371622 0.16335563 -0.04679958 0.0059791934 -0.03578584 0.033515453 0.07061961 -0.015599784
0.058582738 0.17692941 0.011475698 -0.123347655 -0.005745183 0.1121695 0.10574347 -0.05750894
-0.032121755 0.08954327 0.06010774 0.03100023 -0.16620784 -0.056507364 0.02728554 0.12504573
0.028755123 0.07612419 -0.075592056 0.076352954 0.10069087 -0.06113295 0.016011383 -0.006438386
-0.06198714 -0.0064322255 -0.026496213 0.06645375 0.103951246 -0.035552844 0.034969494 -0.010903523
0.3885593 -0.057094697 0.10187081 -0.098731175 0.09112425 -0.13571048 -0.07568709 -0.16629325
0.07123402 0.031320054 0.07764832 0.04049305 -0.07636045 0.08290587 0.09777982 0.06302697
-0.1284591 -0.034728885 -0.12775518 0.043953717 0.11268738 -0.021950629 0.038806543 -0.10436854
-0.08677252 0.2281714 -0.05869104 0.059252013 -0.1022323 -0.07575755 -0.06512302 -0.1120176
-0.015715262 -0.089815386 -0.1196601 0.011005803 0.058372773 -0.022684062 0.12955928 -0.060016792
-0.0036189128 -0.0071733454 0.11339185 -0.00029361848 0.10295162 -0.10637069 0.026847983 -0.07232833
0.04519145 -0.0700518 0.07106413 -0.10102402 -0.13825473 0.0048173927 0.06649835 0.056155644
-0.09443735 0.030551026 -0.02950346 -0.1041533 0.01236869 -0.14204301 0.110104226 -0.08965792
-0.32329163 -0.08276432 0.031064978 0.10229387 -0.039606087 0.14658274 0.1333037 0.20016712
-0.058952138 0.03761242 0.062326685 -0.03100342 0.12704407 -0.07652775 0.004634599 0.07081932
-0.10854851 0.105970524 -0.091327816 -0.10136608 -0.05316596 -0.10453952 0.06586102 -0.095249295
0.08951133 0.2117873 -0.110696726 -0.15036146 0.06369539 -0.04172477 -0.10970047 -0.13708721
-0.059759244 0.20245884 -0.022634936 -0.11341097 -0.13294041 -0.08526291 -0.074185066 -0.0059516677
0.03315259 -0.10849864 -0.09188893 0.16839121 0.004611402 -0.013320987 -0.024137847 0.007550274
0.06805818 0.08194076 -0.23216043 0.0038547704 0.2171603 0.12178519 -0.06872863 -0.11783118
-0.05873832 -0.0734026 -0.0096174795 -0.059760906 0.07273531 0.03862489 0.062466413 -0.13765508
-0.1474702 0.018953104 -0.085136786 0.013765501 0.08776886 0.010260769 0.06988448 0.14150491
0.11439903 0.082976565 -0.04139551 0.013192417 -0.10670047 -0.0020789537 -0.07611744 -0.11030903
-0.10630075 -0.09649426 -0.13154733 0.13138884 0.11862809 0.06080132 -0.12470706 -0.06289872
-0.07553575 0.039087836 0.018584182 0.034575023 -0.09669322 0.037182324 0.09421123 -0.08154077
0.11889654 0.14582449 0.046998713 -0.029881526 -0.12259332 -0.053343147 0.015824182 -0.092432134
-0.10139177 -0.1039126 0.13767864 0.099691235 -0.021746604 -0.021720937 0.036695164 -0.07248594
-0.08038001 -0.049627475 -0.13262238 -0.057452843 0.122657135 0.016007507 0.08175233 0.035387877
0.0114455335 0.14383195 0.11408296 0.12189677 0.032426838 0.049051505 -0.043562226 0.098342225

critic.linears.1.bias f4 [64]
00000000: a679 633c 8514 edbd fd8f 9bbc 377b 83bc
00000010: 7bfd cabd 1a14 f4bd 646c 00bd 902c 2a3d
00000020: 70d1 943d 4647 db3c 4efc 5c3d f253 febd
00000030: aa8d b03b 1d81 a93d dfc3 c4bd b482 f63c
00000040: f9fb d33d 37e6 b6bd 3c0c b6bc 091c a7bd
00000050: 00f9 e73c ebc7 efbd 5e74 f83d 6120 ce3d
00000060: 9407 8cbc b21c 883c 020a a1bc f374 11be
00000070: 4932 05be 903e b9bd 7456 30bc 762e 9d3d
00000080: 64f3 75bd 124a 0cbe bf56 21bd da80 0ebd
00000090: 8708 32bd 18f0 14bd 18a9 a73d 9005 29bc
000000a0: 0f00 c43d fc1d aebb ecd0 053e edc6 343c
000000b0: 9699 88bc 5448 183c 4598 44bc b882 c33d
000000c0: 81be 04be 5974 8f3d b6a7 0d3e 60b8 b53d
000000d0: 3940 abbd 837c 593d 2bff eb3d 7e9e 03bb
000000e0: eb5e 403d 18d3 0b3e 4f9d 0c3e 5d35 8dbd
000000f0: 2543 81bd 309d 643c 16dd 06bd 264f 0cbd
0.013883984 -0.115761794 -0.018989557 -0.016049964 -0.09911629 -0.119178966 -0.03135337 0.041546404
0.072665095 0.026767384 0.053951554 -0.12418355 0.0053879814 0.082765795 -0.09607672 0.030091621
0.10350794 -0.08930629 -0.02222263 -0.08159644 0.028316975 -0.11708053 0.1213157 0.100647695
-0.017093457 0.016615245 -0.019658092 -0.14204769 -0.13007464 -0.09045136 -0.0107627995 0.07674877
-0.06004657 -0.1370013 -0.03938937 -0.03479085 -0.043465164 -0.036361784 0.08186549 -0.010316268
0.09570324 -0.005313633 0.13067979 0.011033756 -0.016674798 0.009294588 -0.0119991945 0.09546417
-0.12963296 0.070046134 0.13833508 0.08873057 -0.08361859 0.05309726 0.11523279 -0.0020083482
0.04696552 0.13654745 0.13731883 -0.06894944 -0.06311635 0.013953492 -0.032925688 -0.03425517

critic.linears.2.weight f4 [1, 64]
00000000: 28ea 44ba 53ee d03d 2d7e a5bd 360b 55bd
00000010: 24fb ed3c d284 073d 5621 283d 24bf 89bd
00000020: a9cf 893d fa18 833d bf8a afbd 6708 803d
00000030: 25c8 0cbd ee91 063d 021f 6dbd 1fd3 14bd
00000040: ea05 a9bd 2fc4 83bd b2fa 1bbb b12c 403d
00000050: ce8d 743d fdcc d63c 1d2e d5bd ac3e 923d
00000060: d4c6 b53d eb21 64bd e2d0 993d 93f7 f33d
00000070: 227b cb3d 20ba ac3d 3834 65bc 60ef f3bd
00000080: d2fb 993d bd9c 813d 22f9 6abd 5a75 923d
00000090: 98c4 223d 0d46 de3d 47ae 2ebb 3f99 6c3d
000000a0: bb85 19bd 8b8d 2bbd 8f42 fabd 3917 5cba
000000b0: 3ee2 59bd a3c5 c63d 63c8 9839 d745 e9bc
000000c0: fb18 db3d 8970 99bc ff78 edbd 0c82 62bb
000000d0: 5322 2e3c 4755 62bc a3c9 29bd 8c42 d1b8
000000e0: 922b af3a c7b7 ffbd 28e5 e0bd 6c41 a1bd
000000f0: 64ec 723d 5e29 a7ba dbdd a23d b309 633d
-0.00075116986 0.10201707 -0.08080707 -0.052012645 0.029050417 0.03308565 0.041047417 -0.0672591
0.06729061 0.06401248 -0.085713856 0.062516026 -0.03437056 0.032854013 -0.0578909 -0.036334153
-0.08253081 -0.064339034 -0.002380055 0.04691762 0.059705548 0.026220793 -0.10409186 0.0714086
0.08875814 -0.05569641 0.07510544 0.119124554 0.09935595 0.08433938 -0.013989501 -0.119108915
0.07518734 0.063287236 -0.057366498 0.07151289 0.039738268 0.10853205 -0.002665417 0.057763334
-0.03748105 -0.041883033 -0.12219726 -0.00083957944 -0.053194277 0.09705665 0.00029141 -0.028475685
0.10698124 -0.018730419 -0.11595344 -0.0034562377 0.010628301 -0.013814277 -0.04145206 -9.978292e-05
0.0013364425 -0.124862246 -0.10981208 -0.07873806 0.05930747 -0.0012753417 0.07952472 0.05542917
