trained_network/SD2/s2_a10_dim128_mix_train_dur3.pth (torch, 419929 bytes, 26 tensors)

feature_exact.j_encoder.layers.0.weight f4 [64, 14]
0.0029227536 0.15960822 -0.110963985 0.11576488 -0.10163559 0.025738422 -0.21856403 0.20393614
0.22813475 0.15913317 0.00080009934 -0.036471423 -0.19541253 -0.27472302 0.049734425 0.19785115
-0.1770227 -0.291982 -0.18694423 -0.001448002 -0.052380424 0.046195295 0.19057597 -0.23110527
0.008215923 -0.21112806 -0.011961277 -0.09099082 0.23952681 0.2511158 -0.18324818 -0.22253968
0.026874064 -0.102359325 0.12332787 -0.19971505 -0.109892964 0.13556495 0.08173076 -0.039459683
0.019980265 0.10304077 -0.11687787 0.26449904 0.30678594 0.045139223 0.15166679 0.106505185
-0.11923541 -0.25784883 -0.13131164 0.15689671 -0.17580763 -0.14538106 -0.30835387 0.019170871
0.19561456 -0.051618434 -0.34308192 0.13110735 -0.13589354 -0.050198212 -0.09877218 0.1108458
0.14454588 0.16267832 0.0831235 -0.0894037 -0.055131536 0.29038802 0.005556794 -0.2972547
-0.04333964 -0.026813181 0.16329086 -0.1533307 -0.27697137 0.11953258 0.10006891 -0.041632127
-0.19183609 -0.012415213 0.013242274 -0.071546465 0.04187032 0.07905071 0.11223473 0.037603725
0.2906845 -0.042966023 -0.20638874 0.12169683 -0.18709719 0.09171273 -0.07805246 0.12767984
0.028655455 -0.23599608 -0.090247676 0.05644195 0.30743 0.37354764 -0.118614234 -0.027853973
0.16708158 -0.2107664 0.043054625 0.1982677 0.10836925 0.09566428 -0.24635622 -0.22828184
-0.07368653 -0.118275926 -0.018934937 -0.1956495 -0.076797165 -0.10737005 -0.023662616 -0.045295373
0.09769546 -0.02289746 -0.21952792 -0.19730622 0.23709941 0.26124397 0.13266356 -0.059191123
0.035600692 -0.17070168 0.05838914 0.07914836 0.14911722 -0.23476337 -0.11128748 0.028550021
-0.18900885 -0.19283865 -0.10595792 -0.16325566 0.16571002 -0.21216676 0.04972805 0.03478315
-0.061065037 -0.14057444 0.0399349 0.018664822 0.12098531 0.27694437 -0.07621638 0.030652653
-0.29939455 -0.31531057 -0.19222704 -0.08475859 -0.17373316 -0.09124819 0.15412043 -0.21601202
-0.0065011224 0.15988544 0.11257569 0.22808504 -0.22045061 0.1636469 0.017860144 0.21097653
0.039825168 0.076896705 0.24264148 -0.28335366 -0.20473146 -0.09194189 0.12553237 0.11721863
-0.033584982 0.051795356 -0.11898468 0.054061852 -0.13932383 -0.22234914 0.19684826 0.093831174
-0.17018318 -0.24242471 0.2964035 -0.10931345 -0.11226991 0.0541105 -0.006637916 -0.15335499
0.16862838 0.019384218 0.17209205 -0.0060231816 0.1443911 0.01122215 -0.2347194 0.06765137
-0.06012901 -0.121666715 -0.17358328 -0.115381114 0.12837988 -0.12742244 0.031697772 -0.06787352
-0.16288686 -0.31642875 -0.16149648 0.18060324 -0.21181722 -0.13365537 0.17382622 0.13755624
0.041681472 0.09051085 0.20212327 -0.0806549 0.23303594 0.1534135 0.30082718 -0.013983306
0.024681175 -0.022550829 -0.09775113 0.024720114 0.14052571 -0.18632613 -0.17815278 -0.20830357
0.09739166 0.2479232 -0.03512863 -0.09456392 0.22899254 0.29845443 -0.06653899 0.05789482
0.08486347 -0.28567237 0.2823416 -0.3040316 0.15042701 0.0398212 -0.0045690946 -0.17142594
0.17623144 -0.047992516 -0.34651235 -0.120406196 0.1621869 -0.011979667 0.19126351 -0.13480565
00000000: ab8b 3f3b 5670 233e 1641 e3bd 2316 ed3d
00000010: 5226 d0bd 62d9 d23c 40cf 5fbe a3d4 503e
00000020: 289c 693e cef3 223e c2bd 513a 0f63 15bd
00000030: 391a 48be 7fa8 8cbe 53b6 4b3d 7e99 4a3e
00000040: 7045 35be aa7e 95be 4f6e 3fbe e2ca bdba
00000050: db8c 56bd 4737 3d3d 5926 433e dca6 6cbe
00000060: 149c 063c f431 58be 3bf9 43bc 6559 babd
00000070: 8446 753e 4092 803e 69a5 3bbe 71e1 63be
00000080: ff26 dc3c c4a1 d1bd 5393 fc3d 1a82 4cbe
00000090: 900f e1bd 8ad1 0a3e 7562 a73d 7aa0 21bd
000000a0: a7ad a33c 0a07 d33d aa5d efbd 6b6c 873e
000000b0: 0c13 9d3e e8e3 383d 8a4e 1b3e 641f da3d
000000c0: b231 f4bd c304 84be 8f76 06be 88a9 203e
000000d0: ea06 34be c6de 14be 8fe0 9dbe 3b0c 9d3c
000000e0: 2f4f 483e da6d 53bd 6fa8 afbe 0141 063e
000000f0: ad27 0bbe a49c 4dbd 1249 cabd 1f03 e33d
00000100: d603 143e 2595 263e a73c aa3d 4919 b7bd
00000110: 9bd1 61bd bdad 943e c415 b63b c531 98be
00000120: e884 31bd 51a7 dbbc b835 273e b902 1dbe
00000130: 31cf 8dbe 7fcd f43d eef0 cc3d 7386 2abd
00000140: ae70 44be 2d69 4bbc 1ff6 583c f486 92bd
00000150: 3680 2b3d 57e5 a13d 52db e53d 5d06 1a3d
00000160: 99d4 943e 24fd 2fbd 9257 53be 303c f93d
00000170: 6896 3fbe e2d3 bb3d f8d9 9fbd 81be 023e
00000180: d8be ea3c f5a8 71be c6d3 b8bd ad2f 673d
00000190: 7767 9d3e a341 bf3e 05ec f2bd 042e e4bc
000001a0: 6f17 2b3e 26d3 57be 0c5a 303d b006 4b3e
000001b0: b3f0 dd3d a2eb c33d ce44 7cbe b7c2 69be
000001c0: f7e8 96bd a63a f2bd 711d 9bbc 5858 48be
000001d0: d547 9dbd d4e4 dbbd 1ad8 c1bc a487 39bd
000001e0: 8f14 c83d 7493 bbbc edcb 60be a40a 4abe
000001f0: 30ca 723e c5c1 853e f5d8 073e 6472 72bd
00000200: 08d2 113d 6ccc 2ebe 7329 6f3d 8918 a23d
00000210: 2fb2 183e cf65 70be b1ea e3bd bce1 e93c
00000220: 898b 41be 7f77 45be 7700 d9bd 7e2c 27be
00000230: e3af 293e 3e42 59be a4af 4b3d c778 0e3d
00000240: 551f 7abd bff2 0fbe c792 233d f8e6 983c
00000250: 25c7 f73d a7cb 8d3e 5517 9cbd 461b fb3c
00000260: 3e4a 99be 6370 a1be 2ad7 44be e995 adbd
00000270: 1be7 31be 55e0 babd bfd1 1d3e 4132 5dbe
00000280: 5e07 d5bb 02b9 233e 158e e63d 208f 693e
00000290: cebd 61be 0e93 273e 704f 923c 3b0a 583e
000002a0: b71f 233d 057c 9d3d 0277 783e bb13 91be
000002b0: 20a5 51be 084c bcbd 8f8b 003e 5210 f03d
000002c0: 6890 09bd 5e27 543d 3dae f3bd f66f 5d3d
000002d0: e8aa 0ebe 7eaf 63be 9792 493e 8f2a c03d
000002e0: 8044 2ebe 2f3e 78be 33c2 973e bbdf dfbd
000002f0: c4ed e5bd f9a2 5d3d e082 d9bb 1709 1dbe
00000300: ebac 2c3e a7cb 9e3c e638 303e 1c5e c5bb
00000310: 43db 133e 1cdd 373c 485a 70be cd8c 8a3d
00000320: d649 76bd 662c f9bd d1bf 31be ef4c ecbd
00000330: 0476 033e 077b 02be 86d5 013d 4601 8bbd
00000340: d0cb 26be f302 a2be 555f 25be 0ef0 383e
00000350: 9de6 58be f4dc 08be 80ff 313e 8bdb 0c3e
00000360: 31ba 2a3d c15d b93d 67f9 4e3e 652e a5bd
00000370: f9a0 6e3e 6e18 1d3e 0506 9a3e 3c1a 65bc
00000380: 2d30 ca3c 84bc b8bc bf31 c8bd d681 ca3c
00000390: f9e5 0f3e 47cc 3ebe af6d 36be 884d 55be
000003a0: 4775 c73d 94df 7d3e 0ae3 0fbd baaa c1bd
000003b0: 057d 6a3e 05cf 983e 9845 88bd 1e23 6d3d
000003c0: e6cc ad3d a643 92be 148f 903e 08aa 9bbe
000003d0: 8a09 1a3e 8e1b 233d 58b8 95bb 488a 2fbe
000003e0: 0476 343e cd93 44bd 116a b1be 8697 f6bd
000003f0: 5314 263e 5d46 44bc 95da 433e 7e0a 0abe

feature_exact.j_encoder.layers.0.bias f4 [64]
-0.21415249 -0.032022353 -0.1092561 0.010099936 -0.17220674 -0.0068655154 -0.030750323 -0.13178718
-0.01363638 -0.1531634 -0.114699684 0.042246725 -0.13033485 0.19248857 0.1529503 0.01146529
-0.18963072 -0.0041846703 -0.0071122213 0.056131426 -0.16213213 0.12406002 0.15356575 0.11147775
-0.07212338 0.1265595 0.21650247 0.023944193 0.017569765 0.2363446 -0.21180753 -0.13910931
0.19171605 -0.17023504 0.06377186 -0.04841659 0.019941378 0.00867543 -0.00084069243 -0.04737863
-0.02714635 0.0077950503 -0.13189021 0.11530047 -0.23807406 0.021271821 0.15234044 -0.2697039
-0.008079208 -0.09278511 0.20881979 0.2529234 0.008693726 0.14372718 0.2025358 0.099362954
0.16706522 0.21325797 0.08180738 0.21869065 0.24642459 0.082613274 -0.190416 0.032337032
00000000: ca4a 5bbe df29 03bd aac1 dfbd 347a 253c
00000010: f756 30be 1ef8 e0bb 1ae8 fbbc 38f3 06be
00000020: 206b 5fbc ded6 1cbe abe7 eabd e70a 2d3d
00000030: 8076 05be b91b 453e 019f 1c3e e9d8 3b3c
00000040: 8e2e 42be 8f1f 89bb a30d e9bb 11ea 653d
00000050: f705 26be 2e13 fe3d 5740 1d3e 724e e43d
00000060: 6cb5 93bd d098 013e d3b2 5d3e 9d26 c43c
00000070: 78ee 8f3c 5204 723e 13e4 58be ac72 0ebe
00000080: 3651 443e 1852 2ebe d29a 823d 7950 46bd
00000090: 1a5c a33c 6423 0e3c ea61 5cba 1810 42bd
000000a0: 0662 debc 9f6d ff3b 3a0e 07be a722 ec3d
000000b0: b0c9 73be 3e42 ae3c 22ff 1b3e a116 8abe
000000c0: a85e 04bc 1f06 bebd dbd4 553e 2d7f 813e
000000d0: 2170 0e3c 382d 133e 8b65 4f3e ce7e cb3d
000000e0: 2513 2b3e 4c60 5a3e a18a a73d 71f0 5f3e
000000f0: ba56 7c3e 2631 a93d 69fc 42be d673 043d

feature_exact.j_encoder.layers.1.weight f4 [64, 64]
-0.07838494 -0.096886836 0.03321679 -0.013898159 -0.110895164 0.12942576 -0.07227236 -0.14376868
0.11137008 -0.037904494 -0.16648419 0.07132138 -0.11394334 0.0052340482 0.109454356 -0.007933872
-0.0038181571 0.020325737 -0.097933896 -0.011432894 -0.106014624 0.024965558 -0.09743416 -0.08315147
0.00450972 0.041519746 -0.012514081 -0.042539842 -0.07738988 -0.008617045 -0.013931577 -0.006684811
-0.00805428 0.08006625 -0.05626027 0.09907465 0.028683504 0.16965452 -0.042992424 0.033921897
-0.012105454 0.022161687 -0.1337943 0.086487986 -0.12504418 -0.09814263 0.0034378455 -0.08919281
0.002942425 -0.11740995 -0.040698063 0.042888287 0.1509864 -0.0852032 0.061133653 0.053738274
0.07651722 0.10860989 0.026790887 -0.0021741332 0.08995013 0.005131458 -0.026159462 -0.02950033
-0.09250544 -0.012691443 0.09746635 -0.046045218 -0.07907081 0.00033442362 -0.06071395 -0.18785138
-0.061155576 -0.113572754 -0.1411131 0.0742133 0.106845334 0.08056348 0.023295581 -0.035637207
0.043712683 -0.12973909 -0.09966679 -0.070207685 0.08902445 0.03454635 0.06637577 -0.11091447
-0.05447196 0.07616458 -0.095995896 -0.036552258 0.10005995 0.056975737 0.00015663114 0.034082707
0.08615286 0.11504994 -0.04217132 -0.051449306 -0.042930156 0.05728109 0.13194136 0.021389477
-0.09932013 -0.067321494 -0.07290687 -0.02145877 0.07302162 -0.00089692493 -0.0765147 0.013445732
0.12685816 0.14127867 0.045398857 0.08172607 -0.023535943 -0.011908807 0.051532127 0.05658414
0.13088743 0.09444957 0.020047778 -0.024045961 0.093059264 0.054195244 0.056675814 -0.04406736
-0.056295022 0.04910175 -0.050371442 -0.05190663 -0.10643038 -0.14156349 0.03895119 -0.035366256
-0.06476557 -0.116118655 0.04025514 -0.022379838 0.11829648 0.07242516 -0.008338782 0.029133834
0.14451809 -0.039562117 -0.011777539 -0.104023434 0.08146884 -0.08255223 -0.03532449 0.034514148
0.037279904 0.077680476 -0.069667764 -0.050768197 -0.065153114 0.13599406 -0.09139483 0.056532953
-0.059855167 0.07615743 -0.06999422 -0.178753 0.10634553 -0.015923228 -0.044245448 -0.09872243
-0.123224124 -0.11643846 -0.046522506 0.066859454 0.11276416 -0.104032435 0.044269368 -0.1134978
-0.08197631 -0.028783938 0.084938794 -0.04644857 0.049903393 0.111115865 -0.0722032 -0.052463595
0.06172484 0.021727264 0.08860617 -0.035147537 0.07328986 0.13393806 0.07595517 -0.013141564
0.04022779 -0.0063234703 -0.024528649 0.0829592 -0.026419543 -0.003809594 0.0379869 -0.015546998
-0.08972524 -0.10131756 -0.09737439 0.04851198 0.036067344 0.034177296 -0.13230814 0.11063972
-0.16440065 0.11181767 0.078998275 0.08952717 -0.0048865667 -0.032972563 0.067279354 0.035662867
-0.027793925 -0.07029199 -0.033405144 0.10060744 0.10160548 0.053276107 -0.056754865 -0.1157551
-0.0915964 -0.080759354 -0.017968507 0.011216309 0.009046301 0.009523889 0.010024973 -0.060055844
-0.06929619 -0.07182597 0.18460208 -0.031022966 0.014615929 0.11528793 -0.04957482 -0.10162739
0.115363754 -0.023720223 0.13995159 -0.09678691 -0.017058259 0.013108511 0.04825274 -0.07123855
0.10212088 0.10105659 0.067813136 0.054325204 0.11519833 0.011749682 0.0014452685 -0.023373794
00000000: 4988 a0bd 9b6c c6bd 540e 083d 1bb5 63bc
00000010: 011d e3bd 3088 043e 8803 94bd 1938 13be
00000020: ff15 e43d be41 1bbd d57a 2abe f210 923d
00000030: 205b e9bd 6182 ab3b 9b29 e03d 12fd 01bc
00000040: 0c3a 7abb 2982 a63c 9191 c8bd 0851 3bbc
00000050: 321e d9bd 9284 cc3c 908b c7bd 514b aabd
00000060: 46c6 933b 9c10 2a3d dc07 4dbc 423e 2ebd
00000070: 967e 9ebd 822e 0dbc 4541 64bc 420c dbbb
00000080: 19f6 03bc c6f9 a33d 2b71 66bd a6e7 ca3d
00000090: abf9 ea3c eab9 2d3e d318 30bd b0f1 0a3d
000000a0: f455 46bc 6d8c b53c 5f01 09be 9d20 b13d
000000b0: 950b 00be 01ff c8bd 7a4d 613b b8aa b6bd
000000c0: b3d5 403b a174 f0bd 03b3 26bd a1ab 2f3d
000000d0: 2e9c 1a3e 047f aebd 4867 7a3d aa1c 5c3d
000000e0: 0fb5 9c3d dd6e de3d 9078 db3c e77b 0ebb
000000f0: c637 b83d ca25 a83b 5e4c d6bc adaa f1bc
00000100: 7e73 bdbd c5ef 4fbc 709c c73d e999 3cbd
00000110: e0ef a1bd 9455 af39 31af 78bd 1d5c 40be
00000120: 457e 7abd d598 e8bd f47f 10be 25fd 973d
00000130: bad1 da3d 77fe a43d 60d6 be3c 52f8 11bd
00000140: 120c 333d 53da 04be 1a1e ccbd 0cc9 8fbd
00000150: 7352 b63d 7980 0d3d 05f0 873d 2027 e3bd
00000160: fd1d 5fbd 2dfc 9b3d 7f99 c4bd d2b7 15bd
00000170: 3bec cc3d 645f 693d 5a3d 2439 4f9a 0b3d
00000180: e970 b03d 4e9f eb3d d6bb 2cbd 82bc 52bd
00000190: 88d7 2fbd 949f 6a3d a31b 073e fc38 af3c
000001a0: 5a68 cbbd dadf 89bd 3250 95bd 4dca afbc
000001b0: 5c8c 953d 9d1f 6bba bdb3 9cbd 7d4b 5c3c
000001c0: 1be7 013e 5bab 103e 27f4 393d ff5f a73d
000001d0: 73ce c0bc 281d 43bc 5a13 533d c5c4 673d
000001e0: 5b07 063e c76e c13d 3d3b a43c 09fc c4bc
000001f0: db95 be3d d5fb 5d3d e624 683d fa7f 34bd
00000200: 9c95 66bd eb1e 493d 4952 4ebd 0c9c 54bd
00000210: 2cf8 d9bd 05f6 10be 488b 1f3d 35dc 10bd
00000220: d0a3 84bd 9ecf edbd 93e2 243d ec55 b7bc
00000230: 6d45 f23d a453 943d 639f 08bc 14aa ee3c
00000240: 8dfc 133e e30b 22bd 94f6 40bc 3d0a d5bd
00000250: 23d9 a63d 2511 a9bd 6ab0 10bd b55e 0d3d
00000260: d0b2 183d f116 9f3d f9ad 8ebd 50f2 4fbd
00000270: ff6e 85bd 0742 0b3e 362d bbbd 198f 673d
00000280: b12a 75bd 6df8 9b3d 2159 8fbd 070b 37be
00000290: afcb d93d 6e71 82bc b73a 35bd fc2e cabd
000002a0: ee5c fcbd 4a77 eebd 628e 3ebd 9ced 883d
000002b0: e5f0 e63d f50e d5bd cc53 353d 8971 e8bd
000002c0: 32e3 a7bd 4bcc ebbc 64f4 ad3d db40 3ebd
000002d0: 8067 4c3d b790 e33d 45df 93bd 11e4 56bd
000002e0: 30d3 7c3d 60fd b13c 2777 b53d ddf6 0fbd
000002f0: fe18 963d 0f27 093e 628e 9b3d b74f 57bc
00000300: e5c5 243d 1d35 cfbb 4ef0 c8bc 83e6 a93d
00000310: cc6d d8bc 62aa 79bb 2798 1b3d d6b8 7ebc
00000320: dec1 b7bd 957f cfbd 396c c7bd 7fb4 463d
00000330: 5abb 133d 7efd 0b3d c97b 07be 1497 e23d
00000340: a558 28be aa00 e53d d9c9 a13d 055a b73d
00000350: 7e1f a0bb 3d0e 07bd c2c9 893d 3a13 123d
00000360: 16b0 e3bc 3ff5 8fbd d5d3 08bd 460b ce3d
00000370: 8916 d03d 0c38 5a3d ca77 68bd 0311 edbd
00000380: e596 bbbd 2965 a5bd b132 93bc 9cc4 373c
00000390: f036 143c 160a 1c3c c93f 243c 1efd 75bd
000003a0: 29eb 8dbd 7f19 93bd 5408 3d3e e023 febc
000003b0: a677 6f3c 141c ec3d f70e 4bbd 0522 d0bd
000003c0: d543 ec3d ea50 c2bc 784f 0f3e 3738 c6bd
000003d0: c3bd 8bbc 15c5 563c aaa4 453d 84e5 91bd
000003e0: c024 d13d c2f6 ce3d 9de1 8a3d 1b84 5e3d
000003f0: 1aed eb3d bd81 403c 2a6f bd3a 667a bfbc

feature_exact.j_encoder.layers.1.bias f4 [64]
-0.0758625 -0.13084874 0.1264048 -0.089681625 0.03467223 -0.049955398 0.038200755 -0.09940654
-0.0068709194 -0.090027034 -0.07389918 -0.117733076 0.057400268 0.001626431 -0.08070691 -0.10029853
0.10295887 0.06499667 -0.03257527 -0.21114077 0.010404665 -0.094092846 0.043649957 0.041902542
-0.03725722 0.022231875 0.12676647 0.021416612 -0.06488107 -0.00716556 -0.06953605 -0.07287133
0.013431986 -0.047049236 0.11674401 0.1178105 0.106619254 0.0065302313 0.023614049 0.030871185
0.14987528 0.07900834 -0.061749246 -0.040590066 0.060904976 -0.024076287 -0.124520466 -0.026997318
-0.056352183 0.11095052 0.06286169 -0.049012493 0.014901674 0.08387951 -0.048439097 0.08293295
-0.073787436 -0.087103575 0.07117716 -0.027570635 0.009153448 0.039124317 -0.038811073 -0.05616543
00000000: cc5d 9bbd 36fd 05be 4370 013e 00ab b7bd
00000010: 7804 0e3d 089e 4cbd 6578 1c3d a895 cbbd
00000020: 7325 e1bb 1860 b8bd 7458 97bd 0a1e f1bd
00000030: 8b1c 6b3d f82d d53a aa49 a5bd 5169 cdbd
00000040: 1adc d23d f91c 853d a56d 05bd 4935 58be
00000050: 5478 2a3c c0b3 c0bd 4cca 323d 00a2 2b3d
00000060: 079b 18bd 9f1f b63c 12cf 013e e471 af3c
00000070: 5ee0 84bd 13cd eabb eb68 8ebd 903d 95bd
00000080: d511 5c3c b3b6 40bd 7c17 ef3d a246 f13d
00000090: 325b da3d 8dfb d53b 4072 c13c 91e5 fc3c
000000a0: e878 193e 20cf a13d c7ec 7cbd c541 26bd
000000b0: 7f77 793d a23b c5bc 9604 ffbd 7b29 ddbc
000000c0: 8cd1 66bd 073a e33d a1bd 803d 53c1 48bd
000000d0: 2726 743c 05c9 ab3d 1368 46bd c0d8 a93d
000000e0: de1d 97bd 5c63 b2bd 55c5 913d d0db e1bc
000000f0: 58f8 153c d240 203d 5cf8 1ebd b90d 66bd

feature_exact.j_encoder.layers.2.weight f4 [64, 64]
-0.08458194 0.030340116 0.09207276 0.029984262 0.14702317 -0.12580372 -0.08826488 0.09752803
-0.081403114 0.0703107 0.09623673 -0.16831417 -0.09548735 -0.048012063 -0.14858341 -0.0094678765
0.058577225 -0.102132685 -0.093682565 0.17984329 0.19637032 -0.098471195 -0.050495945 0.061119787
0.026520498 -0.05907706 0.048242934 0.119633116 -0.109522924 0.06843366 0.20938246 -0.123458646
-0.070801064 -0.045951325 -0.06198333 -0.00382052 -0.05058305 -0.0341475 -0.14148526 -0.2108789
0.110387936 0.10983191 -0.059838656 0.06268269 0.059055734 -0.01962082 0.065919355 -0.009419125
-0.0031006848 -0.04330661 -0.0690296 0.008084431 -0.025167355 -0.091936335 -0.039313335 -0.19450428
-0.07465699 -0.14135003 0.11224715 -0.06909141 0.047768146 0.10712538 -0.31712234 0.07317735
-0.12524809 -0.081569895 0.09988275 -0.03887451 -0.040442843 0.05927564 0.085444726 0.1724233
0.0205038 0.11421119 0.017233318 0.0196868 -0.14856003 0.02561956 0.08865518 -0.058391653
-0.073852144 0.08540634 0.096665025 0.034752924 0.085714 0.029133609 -0.05047104 -0.03137804
0.05903846 0.07016921 0.07782032 -0.05446719 -0.00081149867 -0.056089733 -0.0076235565 -0.038506325
0.057562545 -0.11218818 -0.11379697 -0.072166465 -0.032552827 0.098370284 -0.023647131 0.14190517
0.023246571 -0.090714514 -0.0160968 0.043074116 -0.124518976 -0.09497156 -0.10750782 0.049185008
0.050112497 -0.046964046 0.049601022 -0.05192876 0.055145606 -0.0020201062 -0.12967452 -0.034202404
0.067833684 0.08589271 -0.018811855 -0.013094623 0.15583768 0.08385032 -0.1073545 0.04359789
0.0035136358 0.039018758 -0.046648946 0.02505424 0.08167027 0.110547185 0.011271677 0.018885352
0.19682188 -0.036498085 0.07840031 0.18427725 0.07046267 -0.0150929075 0.09893756 0.11561454
0.04533238 -0.068051234 -0.10783342 -0.32591814 -0.02797847 -0.011428965 -0.033465277 0.14904676
0.08799373 0.051037483 0.062159307 -0.021861935 -0.06813976 0.004420643 -0.25724578 0.10628505
0.06784944 0.023614975 -0.00893117 0.05329519 -0.09760543 0.12796366 0.15668896 -0.06834763
-0.1060438 0.0015885733 0.026376817 0.124350406 0.004126881 -0.0013585169 -0.09912024 0.03312523
-0.10811657 0.027195984 -0.061933592 0.13789679 0.039361823 -0.04233894 -0.04566252 -0.13604961
-0.002781797 -0.048311513 -0.07176599 0.048628002 0.11874388 0.08171909 0.07511435 0.14055493
0.057080407 0.012236718 0.11948723 -0.06318102 -0.07937124 0.0566958 -0.14252219 0.081702806
-0.013100804 -0.078668535 -0.05253256 -0.18763214 -0.027460722 0.008504427 -0.09711138 -0.10065826
0.060282115 -0.08106985 -0.04422891 0.18642624 0.032961514 0.0049140393 -0.06679251 0.015588562
0.038670022 0.0058948253 0.12626454 -0.00038131254 0.020156832 0.10020779 0.22673501 -0.13681908
0.06442491 -0.05664784 -0.02549875 0.13212936 -0.11304939 0.082768895 -0.13205406 0.037234765
0.0046308967 0.117278256 -0.028875917 -0.03399133 0.11446427 -0.08472012 0.022644283 -0.023005312
-0.110246636 -0.08328264 -0.008564434 -0.09711749 0.052132256 -0.02538513 -0.06851481 -0.10067588
-0.075739846 0.047253907 0.08438218 0.057692777 -0.061689254 -0.015960494 0.028609142 -0.026604617
00000000: 4c39 adbd d68b f83c a590 bc3d 8ea1 f53c
00000010: 3e8d 163e b1d2 00be 38c4 b4bd c7bc c73d
00000020: adb6 a6bd 0eff 8f3d c317 c53d 8d5a 2cbe
00000030: df8e c3bd 4ca8 44bd 4026 18be 271f 1bbc
00000040: acee 6f3d f12a d1bd a5dc bfbd d728 383e
00000050: 4d15 493e 44ab c9bd d6d4 4ebd be58 7a3d
00000060: 8441 d93c cafa 71bd 629a 453d 3502 f53d
00000070: 8e4d e0bd f226 8c3d 5b68 563e e3d7 fcbd
00000080: 2600 91bd 7537 3cbd 3be2 7dbd b061 7abb
00000090: 2c30 4fbd 40de 0bbd 83e1 10be a3f0 57be
000000a0: 1213 e23d 8def e03d 6119 75bd c85f 803d
000000b0: 6de4 713d d8bb a0bc ba00 873d ac52 1abc
000000c0: dc34 4bbb 4662 31bd 645f 8dbd 9074 043c
000000d0: c52b cebc 1e49 bcbd 0507 21bd 212c 47be
000000e0: c4e5 98bd 10be 10be d5e1 e53d cc7f 8dbd
000000f0: 88a8 433d 8d64 db3d dc5d a2be 02de 953d
00000100: 0941 00be 1e0e a7bd 548f cc3d e13a 1fbd
00000110: 65a7 25bd 03cb 723d a5fd ae3d bc8f 303e
00000120: 96f7 a73c 8ee7 e93d e32c 8d3c 3646 a13c
00000130: 1f20 18be 1de0 d13c d990 b53d 162c 6fbd
00000140: cb3f 97bd 85e9 ae3d 50f8 c53d 1559 0e3d
00000150: d28a af3d 9ba9 ee3c b9ba 4ebd 4286 00bd
00000160: 50d2 713d e0b4 8f3d 4360 9f3d fd18 5fbd
00000170: c1ba 54ba 59be 65bd 07cf f9bb cfb8 1dbd
00000180: b4c6 6b3d ebc2 e5bd 630e e9bd 03cc 93bd
00000190: 1d56 05bd 5c76 c93d a1b7 c1bc 974f 113e
000001a0: 986f be3c 88c8 b9bd 70dd 83bc 7c6e 303d
000001b0: ce03 ffbd 7380 c2bd 0f2d dcbd 3876 493d
000001c0: c342 4d3d 5f5d 40bd 712a 4b3d 40b3 54bd
000001d0: 5ce0 613d c263 04bb 66c9 04be d217 0cbd
000001e0: 63ec 8a3d 84e8 af3d 521b 9abc d48a 56bc
000001f0: ea93 1f3e b7b9 ab3d addc dbbd b393 323d
00000200: 0745 663b 22d2 1f3d f712 3fbd 8d3e cd3c
00000210: be42 a73d 9066 e23d d7ac 383c 74b5 9a3c
00000220: ad8b 493e 047f 15bd 5790 a03d 2db3 3c3e
00000230: bb4e 903d 3e48 77bc c79f ca3d 51c7 ec3d
00000240: 72ae 393d 725e 8bbd c5d7 dcbd bede a6be
00000250: 1b33 e5bc 8e40 3bbc e312 09bd b79f 183e
00000260: 0f36 b43d ae0c 513d c29a 7e3d cd17 b3bc
00000270: dc8c 8bbd 0bdb 903b b8b5 83be faab d93d
00000280: a6f4 8a3d 3174 c13c 0b54 12bc 0f4c 5a3d
00000290: 5be5 c7bd e808 033e 1273 203e d8f9 8bbd
000002a0: 7e2d d9bd ad37 d03a 3214 d83c 6dab fe3d
000002b0: c93a 873b 4310 b2ba 8dff cabd 52ae 073d
000002c0: 386c ddbd 1dca de3c 14ae 7dbd d134 0d3e
000002d0: dd39 213d 996b 2dbd 9f08 3bbd 9750 0bbe
000002e0: cf4e 36bb 4be2 45bd 0cfa 92bd 282e 473d
000002f0: fe2f f33d 575c a73d 8dd5 993d a2ed 0f3e
00000300: 25cd 693d 847c 483c b9b5 f43d 0d65 81bd
00000310: 648d a2bd db39 683d 56f1 11be cd53 a73d
00000320: c1a4 56bc f81c a1bd 622c 57bd a422 40be
00000330: 4ff5 e0bc 2756 0b3c 55e2 c6bd eb25 cebd
00000340: 61ea 763d f307 a6bd 6029 35bd 85e6 3e3e
00000350: a702 073d f305 a13b 83ca 88bd 2b67 7f3c
00000360: 7564 1e3d 6129 c13b 7e4b 013e e7ea c7b9
00000370: f11f a53c be39 cd3d 392d 683e 4d1a 0cbe
00000380: 35f1 833d 9107 68bd c1e2 d0bc eb4c 073e
00000390: 7086 e7bd bd82 a93d 2e39 07be 7b83 183d
000003a0: c7be 973b 952f f03d 308d ecbc 7e3a 0bbd
000003b0: 3e6c ea3d be81 adbd 8180 b93c a375 bcbc
000003c0: fdc8 e1bd 1790 aabd d751 0cbc 89e5 c6bd
000003d0: a288 553d 7af4 cfbc 7e51 8cbd 282f cebd
000003e0: 7e1d 9bbd 508d 413d 90d0 ac3d 434f 6c3d
000003f0: dfad 7cbd 95bf 82bc b85d ea3c edf1 d9bc

feature_exact.j_encoder.layers.2.bias f4 [64]
0.17197007 -0.0049400344 -0.02845954 -0.006964611 -0.14093968 -0.13642709 0.09571654 -0.15095773
-0.015105544 0.05513899 -0.014473133 0.08855399 0.09111538 -0.025754226 -0.13895962 -0.041266523
-0.12895788 0.038939953 0.12003087 0.032939076 0.10800318 0.03292332 -0.05162126 -0.005046115
0.12551752 -0.11895587 -0.07085157 0.06447445 -0.04798715 -0.010512559 -0.0646993 -0.11431842
0.070193015 0.037541565 0.122194566 -0.16636297 0.0616565 -0.030797916 -0.089543305 -0.019816974
-0.038800206 0.08763361 -0.09204724 0.1852324 -0.018454615 -0.05796628 -0.11090028 0.020446515
0.08603979 0.04089594 -0.053429917 0.014527328 0.17674212 0.029534688 -0.07594158 0.03825975
-0.17743182 0.0719117 0.0525067 -0.056899194 -0.07728127 -0.13051979 -0.06400467 0.18073867
00000000: ec18 303e 03e0 a1bb fb23 e9bc 6437 e4bb
00000010: 7e52 10be 8bb3 0bbe 0907 c43d aa94 1abe
00000020: 3e7d 77bc 6cd9 613d b820 6dbc cb5b b53d
00000030: b39a ba3d 87fa d2bc 6e4b 0ebe 1607 29bd
00000040: 890d 04be 807f 1f3d bfd2 f53d 20eb 063d
00000050: c530 dd3d 9ada 063d d070 53bd e159 a5bb
00000060: aa87 003e 239f f3bd a11a 91bd 2e0b 843d
00000070: 2c8e 44bd de3c 2cbc 1181 84bd c71f eabd
00000080: 5bc1 8f3d 2fc5 193d 2541 fa3d 0e5b 2abe
00000090: 878b 7c3d e94b fcbc 7b62 b7bd 3557 a2bc
000000a0: f7ec 1ebd 4079 b33d 4383 bcbd 90ad 3d3e
000000b0: 222e 97bc 0d6e 6dbd b01f e3bd 737f a73c
000000c0: a135 b03d 8082 273d 54d9 5abd 0804 6e3c
000000d0: e3fb 343e bbf2 f13c 4287 9bbd 41b6 1c3d
000000e0: b0b0 35be 7146 933d 4411 573d 210f 69bd
000000f0: a445 9ebd fba6 05be e114 83bd 8f13 393e

feature_exact.m_encoder.layers.0.weight f4 [64, 8]
-0.34316573 -0.09239324 0.13243549 0.24060531 -0.083785966 0.31931603 -0.3380797 0.1090794
0.13222286 0.075535394 -0.39772642 -0.2746326 -0.12026813 -0.13454588 -0.11368952 -0.16653974
-0.04066308 0.3387147 0.4464541 -0.38393754 -0.13751845 -0.31795856 0.12225395 0.18632492
0.13315733 0.039386515 0.4344039 0.1717803 0.18779922 -0.008870444 0.14741556 0.052833386
-0.01802815 -0.27052778 -0.16302733 -0.3627178 -0.25843728 0.22477058 -0.23172897 -0.13080765
0.1896196 -0.25544536 0.21775737 0.33078846 -0.14753391 -0.09755086 -0.24673828 0.17797813
-0.23290387 0.1082464 -0.21981724 0.24846339 0.19851463 0.18468136 -0.14945984 -0.011028457
0.29044223 0.053454313 -0.14361337 0.0019292006 -0.2661248 0.20568049 -0.31067595 0.034459982
0.101981394 0.34162334 -0.15204626 0.09369512 0.32715553 -0.0033632019 0.064309366 -0.30586746
0.12025255 -0.05505497 0.20497508 -0.31372142 -0.23858918 0.19359896 0.14908414 -0.23027863
-0.21099837 0.01578507 -0.00630426 0.11243457 0.14861467 -0.25735906 0.1358644 0.17395943
0.062197085 -0.25665978 0.15757602 -0.20762582 -0.0701767 -0.361699 0.07074819 -0.28688145
0.12516959 0.14740819 0.22542745 -0.05807907 -0.25377893 0.19934006 0.30318683 0.2295879
-0.36049345 0.23376109 0.20326236 -0.20278144 -0.06151616 0.18989064 0.1834093 -0.0189302
0.12208301 0.10750887 0.20283341 0.08799337 0.079363845 -0.07358112 0.3367991 -0.21154597
-0.19970977 -0.31081343 0.37478787 -0.10285958 0.07106805 0.10166663 0.25957084 -0.24484721
-0.32797292 0.28049216 -0.022682266 -0.22303657 0.25467736 0.13767086 0.029178018 0.056067646
0.022348246 -0.34692448 0.42959478 -0.14431088 -0.116618544 -0.12447311 0.11265637 -0.16223277
-0.30193493 -0.28877565 0.34229338 0.41029826 -0.051297583 0.26537502 0.21272457 0.25767934
-0.18466999 0.092270054 0.16054703 -0.159463 0.335669 0.015414355 0.28270188 0.1484891
0.3047339 -0.10403203 -0.15252914 0.030579286 0.199835 0.037311424 -0.2711251 0.06967746
-0.3013393 0.14343004 0.112486765 -0.023302032 -0.11775064 0.26044524 -0.0016112698 0.31570312
0.1798722 -0.26468226 -0.16941106 0.08493243 0.061775293 0.1704484 0.06809575 0.35244498
0.30032036 -0.28873205 -0.27480975 0.018301219 -0.14773439 -0.24988887 0.2849696 0.104450405
0.14153767 -0.36368233 -0.12167132 0.26295638 -0.18748572 0.2009921 -0.22190148 0.21790391
0.19180964 -0.07749345 0.15296993 0.28575498 0.17964534 -0.14575517 0.14170855 -0.17887366
-0.14563736 -0.24080285 0.38852206 0.17366269 -0.04759296 0.1532332 -0.101837546 0.17160752
-0.338502 0.04265082 -0.017102491 0.007840462 -0.048103746 0.061835263 -0.13848105 -0.28472334
-0.1126153 -0.16602145 -0.20303684 0.13266146 0.07750553 -0.03114008 0.31671914 0.030780714
0.055686746 -0.38422322 -0.2968176 0.12462891 -0.3408691 -0.19102173 -0.24722229 0.34027964
0.0011462071 -0.024414554 -0.24193636 -0.04592178 -0.20267177 0.19039848 -0.20763908 0.04773501
0.16314039 -0.3704527 -0.3446644 0.08268886 -0.07686225 -0.122782424 -0.09592518 -0.29688805
00000000: 6bb3 afbe ab38 bdbd 2b9d 073e 3d61 763e
00000010: fa97 abbd 647d a33e c818 adbe 0565 df3d
00000020: 6e65 073e 4db2 9a3d cca2 cbbe a59c 8cbe
00000030: 234f f6bd 65c6 09be 0dd6 e8bd 6589 2abe
00000040: 548e 26bd 036c ad3e a295 e43e 7693 c4be
00000050: a3d1 0cbe 77cb a2be 4760 fa3d f6cb 3e3e
00000060: 655a 083e c153 213d 306a de3e 2de7 2f3e
00000070: 704e 403e 5755 11bc 1bf4 163e d267 583d
00000080: c5af 93bc 9e82 8abe a3f0 26be 26b6 b9be
00000090: e451 84be 422a 663e 5c4a 6dbe 71f2 05be
000000a0: a42b 423e bcc9 82be cafb 5e3e 1b5d a93e
000000b0: 2113 17be bfc8 c7bd f6a8 7cbe e63f 363e
000000c0: 5a7e 6ebe 4ab0 dd3d c517 61be 306d 7e3e
000000d0: 6b47 4b3e 1c1d 3d3e 000c 19be b4b0 34bc
000000e0: d8b4 943e e9f2 5a3d 620f 13be 3bdd fc3a
000000f0: 8341 88be e89d 523e eb10 9fbe e925 0d3d
00000100: 9fdb d03d 41e9 ae3e 04b2 1bbe 3ae3 bf3d
00000110: ee80 a73e 2a69 5cbb a1b4 833d a99a 9cbe
00000120: f846 f63d 5281 61bd fde4 513e 18a0 a0be
00000130: b950 74be ce3e 463e 83a9 183e 29ce 6bbe
00000140: f50f 58be b14f 813c f793 cebb 1944 e63d
00000150: 722e 183e 91c4 83be 0a20 0b3e 6c22 323e
00000160: 5fc2 7e3d e968 83be 9c5b 213e dd9b 54be
00000170: cdb8 8fbd 9c30 b9be 6de4 903d 20e2 92be
00000180: 752c 003e 2cf2 163e 74d6 663e 52e4 6dbd
00000190: 50ef 81be cd1f 4c3e 4e3b 9b3e 1719 6b3e
000001a0: 9992 b8be 115f 6f3e 0224 503e f0a5 4fbe
000001b0: 5ef8 7bbd b172 423e a6cf 3b3e 8213 9bbc
000001c0: a806 fa3d 9c2d dc3d 90b3 4f3e de35 b43d
000001d0: 8389 a23d b3b1 96bd ee70 ac3e 829f 58be
000001e0: b880 4cbe f022 9fbe 32e4 bf3e 0ba8 d2bd
000001f0: 208c 913d 9836 d03d 78e6 843e 3ab9 7abe
00000200: 11ec a7be ab9c 8f3e 29d0 b9bc b363 64be
00000210: 1265 823e 97f9 0c3e bd06 ef3c 30a7 653d
00000220: ab13 b73c 16a0 b1be d9f3 db3e 3bc6 13be
00000230: b4d5 eebd c2eb febd 62b8 e63d 5920 26be
00000240: 3797 9abe 67da 93be 1441 af3e 9d12 d23e
00000250: 6a1d 52bd 3cdf 873e 78d4 593e 8cee 833e
00000260: 211a 3dbe 15f8 bc3d 7166 243e 454a 23be
00000270: cfdc ab3e 7e8c 7c3c 4dbe 903e 870d 183e
00000280: 1506 9c3e bf0e d5bd 9930 1cbe 6981 fa3c
00000290: 8ca1 4c3e ddd3 183d e9d0 8abe 0eb3 8e3d
000002a0: 2549 9abe 53df 123e 765f e63d e7e3 bebc
000002b0: 3f27 f1bd 1459 853e 3e31 d3ba d7a3 a13e
000002c0: 6b30 383e 6f84 87be 187a 2dbe 0ef1 ad3d
000002d0: 1708 7d3d 068a 2e3e c975 8b3d ab73 b43e
000002e0: 97c3 993e b0d4 93be ddb3 8cbe 70ec 953c
000002f0: af47 17be dee2 7fbe 89e7 913e 18ea d53d
00000300: 40ef 103e 9234 babe d02e f9bd 38a2 863e
00000310: 42fc 3fbe e0d0 4d3e 243a 63be 3422 5f3e
00000320: bf69 443e e3b4 9ebd 26a4 1c3e 7a4e 923e
00000330: f3f4 373e d840 15be 0c1c 113e a82a 37be
00000340: f621 15be 0695 76be 5dec c63e a2d4 313e
00000350: d6f0 42bd 2ae9 1c3e 3490 d0bd e2b9 2f3e
00000360: 2250 adbe a0b2 2e3d 861a 8cbc 4875 003c
00000370: 6f08 45bd f946 7d3d facd 0dbe 42c7 91be
00000380: daa2 e6bd 8701 2abe e4e8 4fbe 68d8 073e
00000390: 38bb 9e3d 7b19 ffbc 0329 a23e d627 fc3c
000003a0: c917 643d e8b8 c4be 7af8 97be 713d ff3d
000003b0: 6586 aebe 339b 43be d727 7dbe 2239 ae3e
000003c0: 543c 963a 0801 c8bc 2abe 77be 7a18 3cbd
000003d0: 3089 4fbe d2f7 423e 579f 54be c985 433d
000003e0: 460e 273e faab bdbe da77 b0be c758 a93d
000003f0: f569 9dbd 5a75 fbbd 6c74 c4bd b601 98be

feature_exact.m_encoder.layers.0.bias f4 [64]
-0.117812395 0.22249879 -0.28381747 -0.015607383 -0.28228635 -0.26107702 0.3526135 -0.21434772
-0.3054 0.20357646 0.038754534 -0.2770089 0.16800746 -0.2780785 -0.34002474 0.054679703
0.062322777 -0.18696213 0.17304587 0.16129576 -0.36346325 0.21732874 -0.14938354 0.3029801
-0.1277215 0.004044578 -0.0042197793 0.30239782 0.3266889 0.18035723 0.1068724 0.10878742
0.036698703 -0.024742989 -0.103026785 -0.17658511 -0.20489074 -0.2427227 0.15571445 -0.25074205
0.049598645 -0.2729514 -0.21665235 -0.32622668 -0.26846755 0.05811616 -0.18301028 -0.29634738
0.19242129 0.052243564 0.0036028589 0.17779186 0.15308979 0.1418761 -0.16222462 0.2546181
-0.37432477 -0.03917849 -0.32102183 0.17453012 -0.29966265 0.21161442 0.046186727 0.2890413
00000000: a047 f1bd b9d6 633e 8650 91be 1cb6 7fbc
00000010: d687 90be e3ab 85be c289 b43e f87d 5bbe
00000020: 645d 9cbe 5976 503e 13bd 1e3d 1cd4 8dbe
00000030: 260a 2c3e 4e60 8ebe b917 aebe d3f7 5f3d
00000040: 2b46 7f3d 0073 3fbe f032 313e b72a 253e
00000050: db17 babe 6d8b 5e3e 00f8 18be 3520 9b3e
00000060: 6dc9 02be 6188 843b 1346 8abb e3d3 9a3e
00000070: c443 a73e 91af 383e ebdf da3d f0cb de3d
00000080: 6151 163d cfb1 cabc b5ff d2bd bad2 34be
00000090: e1ce 51be 4d8c 78be 9c73 1f3e 4361 80be
000000a0: f327 4b3d 49c0 8bbe 1dda 5dbe 2f07 a7be
000000b0: 9474 89be 360b 6e3d 0c67 3bbe d8ba 97be
000000c0: 160a 453e 59fd 553d f11d 6c3b 120f 363e
000000d0: 92c3 1c3e f847 113e 361e 26be 4e5d 823e
000000e0: 7fa7 bfbe a079 20bd f95c a4be 06b8 323e
000000f0: 626d 99be 73b1 583e 4b2e 3d3d 39fd 933e

feature_exact.m_encoder.layers.1.weight f4 [64, 64]
0.017243452 0.049256537 0.017006 0.08567037 -0.030728435 0.076882705 0.01268825 -0.10565654
0.06720153 0.001973354 0.04906 0.095627405 -0.0031258266 -0.027447999 -0.08596883 -0.0020378092
0.016617766 0.051901326 -0.037545424 0.07232156 0.0647941 -0.07147607 -0.09233063 -0.08400983
0.030555287 -0.042366542 0.018671291 0.024257854 -0.008669462 0.023794346 0.083851434 -0.050377775
-0.056627985 -0.06273635 0.2105409 -0.028727053 -0.030456321 0.033652242 -0.07718081 0.011214588
0.10556345 0.06890392 -0.15111266 0.12800354 0.023805393 -0.06256573 -0.10025412 -0.1664578
0.13794866 0.03397708 0.054253336 -0.03008477 -0.105367325 -0.06198531 -0.09479422 0.08576751
-0.008228896 -0.07841408 0.096238434 0.10387738 -0.032049954 -0.121976465 -0.13665152 0.0786932
-0.035827085 0.07623998 -0.036602836 0.13131522 -0.103949405 -0.0914018 0.011025372 -0.12422727
0.12294877 0.07056385 -0.04180944 -0.07015158 0.04085189 0.053656515 0.065948606 0.045814246
0.040235095 0.038312208 0.025345173 0.014174538 0.07337571 0.05170075 -0.10264421 -0.03805361
0.126847 -0.0149233 0.029016037 0.08394395 0.03616274 0.14659685 -0.03107427 0.11512054
0.042646866 0.1375457 -0.07922534 0.005926004 -0.03527356 0.020485884 -0.08467173 -0.033694483
-0.10429289 0.03268167 -0.05402311 -0.11975087 0.00700745 -0.14778216 -0.10412526 -0.010819737
0.10648938 -0.015460484 -0.023922022 -0.016518477 0.094818786 0.044061746 0.12244402 -0.06408354
-0.0381198 0.016490432 -0.016049294 -0.08240172 0.031737316 -0.07392043 0.015799468 0.08343176
-0.0184576 -0.023584431 -0.083466865 -0.0401154 0.12892732 0.06227182 -0.04117422 -0.0070370506
0.02181073 -0.014481235 -0.12009144 0.06548757 0.01565695 0.073626906 -0.12644279 0.10555637
-0.024526501 0.08092649 0.07671927 -0.06979558 0.107849784 -0.0976277 -0.049197134 -0.010391319
-0.06392448 0.0052162358 -0.031267513 -0.06198773 -0.037973296 0.037668686 0.03818527 -0.025381323
-0.057984844 -0.0008929525 -0.11348416 0.10892157 -0.037492555 0.08169265 -0.034676775 0.050728332
-0.08001689 0.12198962 0.101894744 0.03478853 -0.0653068 -0.04918019 0.1305894 -0.05056971
0.10410412 0.048508413 0.12760769 0.10489896 0.041928485 -0.09925239 -0.054187737 -0.09154726
0.110156424 0.13312078 -0.056137837 0.049544837 0.03326963 -0.07310542 0.06313791 -0.05208679
-0.02489735 -0.016585106 -0.07789416 -0.03224188 -0.005121295 0.09419989 -0.13581131 0.041546382
0.08622384 0.05231247 -0.022620955 -0.10202157 -0.08524893 0.028670834 -0.09082399 0.02106704
0.08884783 0.10320176 -0.03026009 -0.10986843 0.10641826 -0.095326595 -0.15387009 -0.025533702
-0.025140481 -0.06947361 0.093974546 0.0162778 0.011659541 -0.05687679 -0.02134827 0.09037739
-0.10239452 -0.06785574 0.06477677 0.08278416 0.049737684 -0.1111002 -0.11763143 0.0103992345
0.08340712 -0.094227284 -0.10729877 0.122809224 0.0863234 0.0907645 0.030361496 0.055999212
0.06277186 -0.002892581 -0.10638374 0.042889193 -0.144949 0.08249648 -0.029383516 -0.009388466
0.14675236 0.08388883 0.014493185 -0.032094322 0.05604672 0.04192429 0.09000709 -0.17416838
00000000: 2442 8d3c 39c1 493d 2b50 8b3c f273 af3d
00000010: 33ba fbbc ae74 9d3d 61e2 4f3c 7562 d8bd
00000020: f5a0 893d 6353 013b 23f3 483d 4dd8 c33d
00000030: abda 4cbb a0da e0bc 6d10 b0bd c48c 05bb
00000040: fb21 883c 7c96 543d 3bc9 19bd 531d 943d
00000050: c5b2 843d 0c62 92bd d717 bdbd 590d acbd
00000060: 154f fa3c 8a88 2dbd 89f4 983c 68b8 c63c
00000070: 5c0a 0ebc 5cec c23c 4dba ab3d ed58 4ebd
00000080: bff2 67bd ea7b 80bd 0998 573e ff54 ebbc
00000090: 897f f9bc efd6 093d f910 9ebd 64bd 373c
000000a0: a631 d83d 801d 8d3d 47bd 1abe 5c13 033e
000000b0: 8703 c33c 7622 80bd 0852 cdbd ea73 2abe
000000c0: 6a42 0d3e 8d2b 0b3d bf38 5e3d 5674 f6bc
000000d0: d3ca d7bd 4fe4 7dbd 7923 c2bd e0a6 af3d
000000e0: 7ed2 06bc 9097 a0bd a818 c53d aabd d43d
000000f0: d046 03bd ccce f9bd 60ee 0bbe e729 a13d
00000100: 6cbf 12bd b523 9c3d dbec 15bd 7f77 063e
00000110: 6de3 d4bd de30 bbbd c3a3 343c de6a febd
00000120: 91cc fb3d c883 903d 6040 2bbd a2ab 8fbd
00000130: 5054 273d efc6 5b3d 1010 873d b8a7 3b3d
00000140: 8ecd 243d 43ed 1c3d aea0 cf3c 523c 683c
00000150: 0146 963d 2ac4 533d 2137 d2bd 1ade 1bbd
00000160: 2ee4 013e db80 74bc 0ab3 ed3c ceea ab3d
00000170: 621f 143d 7c1d 163e 788f febc 51c4 eb3d
00000180: 7bae 2e3d c8d8 0c3e e540 a2bd ed2e c23b
00000190: 027b 10bd 03d2 a73c 5f68 adbd 3a03 0abd
000001a0: 8397 d5bd 37dd 053d 5647 5dbd f23f f5bd
000001b0: c09e e53b 3554 17be a03f d5bd 4445 31bc
000001c0: 1b17 da3d f84d 7dbc 1ef8 c3bc c251 87bc
000001d0: 5a30 c23d 177a 343d eec3 fa3d 3b3e 83bd
000001e0: 8223 1cbd f116 873c cf79 83bc 3cc2 a8bd
000001f0: fdfe 013d 9863 97bd e36d 813c 45de aa3d
00000200: 6534 97bc 2334 c1bc adf0 aabd 0c50 24bd
00000210: 8605 043e bc10 7f3d 4da6 28bd 0f97 e6bb
00000220: 6bac b23c b442 6dbc 80f2 f5bd 591e 863d
00000230: 0143 803c b4c9 963d 387a 01be f02d d83d
00000240: cdeb c8bc cabc a53d fe1e 9d3d fcf0 8ebd
00000250: 59e0 dc3d 08f1 c7bd ef82 49bd 5a40 2abc
00000260: d6ea 82bd f5ec aa3b 5d12 00bd d9e6 7dbd
00000270: e389 1bbd 7b4a 1a3d 2868 1c3d 7eec cfbc
00000280: 8481 6dbd 0715 6aba 626a e8bd 4612 df3d
00000290: cb91 19bd 7a4e a73d 3c09 0ebd 83c8 4f3d
000002a0: e5df a3bd b2d5 f93d 31ae d03d 6b7e 0e3d
000002b0: 92bf 85bd 2b71 49bd 3ab9 053e 2f22 4fbd
000002c0: 8a34 d53d c2b0 463d 97ab 023e 44d5 d63d
000002d0: 34bd 2b3d d644 cbbd f6f3 5dbd 217d bbbd
000002e0: b199 e13d d050 083e caf0 65bd 87ef 4a3d
000002f0: bc45 083d 4bb8 95bd 734e 813d f558 55bd
00000300: 87f5 cbbc 7ddd 87bc f986 9fbd 1010 04bd
00000310: 89d0 a7bb dfeb c03d 1f12 0bbe 8a2c 2a3d
00000320: 2096 b03d 9a45 563d 954f b9bc aff0 d0bd
00000330: fe96 aebd 19df ea3c ee01 babd c994 ac3c
00000340: daf5 b53d 725b d33d 02e4 f7bc b302 e1bd
00000350: d1f1 d93d 973a c3bd 1f90 1dbe 0e2c d1bc
00000360: 69f3 cdbc 2e48 8ebd ba75 c03d 0559 853c
00000370: a907 3f3c a3f7 68bd 91e2 aebc c817 b93d
00000380: 38b4 d1bd f3f7 8abd afa9 843d be8a a93d
00000390: beb9 4b3d 8088 e3bd bfe8 f0bd 8d61 2a3c
000003a0: 5ad1 aa3d 3cfa c0bd 75bf dbbd 6783 fb3d
000003b0: 53ca b03d bde2 b93d acb8 f83c 6e5f 653d
000003c0: 888e 803d 7591 3dbb b8df d9bd 94ac 2f3d
000003d0: 836d 14be eaf3 a83d b3b5 f0bc 15d2 19bc
000003e0: 4046 163e e8cd ab3d d374 6d3c 5675 03bd
000003f0: 3f91 653d ceb8 2b3d a355 b83d 3259 32be

feature_exact.m_encoder.layers.1.bias f4 [64]
0.041581012 -0.0005098697 -0.095668145 -0.10233708 -0.055573285 -0.05302014 0.019042738 0.09249362
-0.046582054 0.031731438 -0.07408764 0.045613274 -0.04098421 -0.020400902 -0.0408178 -0.098744966
-0.009308529 -0.16794755 -0.087282695 0.0022576503 0.12823355 -0.09963287 0.00014287495 0.0041445843
-0.030766407 0.05006166 -0.1510526 0.0544161 -0.025443736 -0.060893293 -0.07032523 0.11513598
-0.09693108 0.059340313 0.05154838 0.089530505 -0.06449952 -0.1073439 -0.052992955 0.02506672
-0.10479943 0.12781201 -0.050990537 -0.054507744 0.020839479 -0.053435188 -0.11906795 -0.10431576
0.046118833 -0.10116391 0.06947593 0.010735628 0.13328087 -0.037490074 0.046554048 -0.0854819
-0.068842724 -0.040223904 0.02297197 0.022552213 0.07166835 -0.018807262 -0.044222075 -0.042250756
00000000: da50 2a3d c7a8 05ba a9ed c3bd 1a96 d1bd
00000010: d0a0 63bd a52b 59bd 84ff 9b3c 4c6d bd3d
00000020: d3cc 3ebd d3f8 013d 43bb 97bd fcd4 3a3d
00000030: 0fdf 27bd cb1f a7bc 9130 27bd cd3a cabd
00000040: cd82 18bc 71fa 2bbe 45c1 b2bd 16f5 133b
00000050: a84f 033e 510c ccbd b4d0 1539 4bcf 873b
00000060: d509 fcbc 750d 4d3d 88ad 1abe 6be3 5e3d
00000070: 626f d0bc 3f6b 79bd ad06 90bd 6acc eb3d
00000080: cd83 c6bd d40e 733d 6524 533d c55b b73d
00000090: 5318 84bd 1ed7 dbbd 240f 59bd b958 cd3c
000000a0: 15a1 d6bd 27e1 023e 74db 50bd 8343 5fbd
000000b0: 8eb7 aa3c dbde 5abd e6d9 f3bd 80a3 d5bd
000000c0: 1ae7 3c3d 062f cfbd 6549 8e3d 7de4 2f3c
000000d0: c87a 083e 318f 19bd 75af 3e3d 2211 afbd
000000e0: 6afd 8cbd d2c1 24bd b62f bc3c 6bbf b83c
000000f0: dbc6 923d b011 9abc 3522 35bd 210f 2dbd

feature_exact.m_encoder.layers.2.weight f4 [64, 64]
0.07248987 0.09382936 0.027505009 0.072726406 0.16107456 -0.08996576 -0.014189826 -0.08237281
0.062766455 0.012666722 -0.13756695 0.042771634 0.11045121 -0.034069758 0.0058167437 0.11943435
-0.12591918 -0.0051001827 -0.06378828 0.014281491 0.08126919 0.102525115 -0.05176809 0.11270255
0.009191066 0.07156638 0.033748403 -0.036613405 0.037337 0.06725393 0.015195256 -0.089516826
0.059690878 -0.043589618 0.011674853 0.09018309 -0.025413102 -0.011616479 -0.06330818 0.09628629
-0.08082154 -0.11026169 0.11891646 -0.049308773 -0.048220605 0.018503902 -0.08380219 0.0062405625
0.04107724 -0.02293831 0.12674613 -0.0481485 -0.101682186 0.15739387 0.033385206 0.11533774
0.029909547 -0.092498176 0.11438988 0.10909751 0.08470425 -0.04047695 0.092397265 -0.023885636
0.08523526 0.13149697 0.086654395 -0.06213597 0.007216502 0.030608216 0.0730458 0.060840145
0.029127179 0.12750575 -0.05863158 -0.09169673 0.07198918 -0.04723233 0.04707059 0.053149357
0.1339018 0.12980682 -0.0542786 0.11287097 -0.059204146 0.053795107 -0.08096101 -0.06903486
-0.04480665 -0.03372072 0.096960776 0.02173471 0.16356033 0.14677784 0.09713941 -0.115459785
0.14961147 0.0054756487 0.05206302 -0.0717307 -0.0006772891 -0.04262878 0.06273884 -0.07759864
-0.05566942 0.070864946 0.17637609 -0.042869855 -0.03202709 -0.06302715 -0.0805232 0.03298848
-0.090592176 -0.0075292727 0.0627855 -0.09386476 0.11077216 0.10748202 0.015490733 0.012019543
0.06783593 0.05041808 0.014967684 -0.09188722 -0.05966379 -0.0976418 0.1016404 0.01329435
0.058743645 0.050146796 -0.082813784 0.10273139 0.1046503 0.13269545 0.05996192 0.05692054
0.0080444375 0.006159773 -0.12234706 0.054256186 0.10795039 -0.070584215 -0.088580035 0.092876
-0.105302095 -0.090721875 -0.079831764 0.050617345 -0.07161126 0.06283708 0.081523545 0.089268416
0.075591385 -0.07858892 0.014644186 0.0579391 -0.09768213 -0.09204203 -0.063827895 0.1304419
-0.05592701 0.07457104 -0.012449509 0.11696699 0.14655288 -0.099497795 -0.06058283 0.07691378
0.036891967 -0.08616817 -0.028244514 -0.050064765 -0.036497228 0.051873937 0.03159579 0.09983776
0.020623185 -0.107011564 -0.021282027 -0.13218595 -0.084076725 0.05727256 0.12262162 0.10948535
0.09362589 0.03285985 0.06840733 -0.095947854 -0.10823894 0.052257624 -0.06567867 -0.016480118
-0.07493155 -0.03465385 -0.036949225 0.107863985 -0.07644207 -0.017761253 -0.09386245 -0.055566505
0.032852527 -0.020951755 0.12805308 -0.035496388 0.06983056 -0.023828622 -0.116249874 -0.071298614
0.051270504 0.05070913 -0.06824036 -0.04389133 -0.037765715 0.002374617 -0.17673092 -0.08072686
0.022235433 -0.021575635 0.028212836 -0.052727915 -0.15022163 0.06608061 0.13447365 -0.04057124
-0.014597369 0.024741791 -0.049502477 0.027170492 -0.00042828472 -0.08367448 0.04933074 -0.041820772
0.054486003 0.07156709 -0.14210148 0.08459636 -0.06340732 -0.021753889 -0.03213154 0.09448309
-0.09987644 0.12705867 0.08606594 -0.065310866 0.047017846 0.03422104 0.0039004646 -0.05883641
0.14394638 0.045345142 0.046453714 -0.081100166 0.058744423 0.05993494 -0.08835121 0.097133376
00000000: 9275 943d 9c29 c03d 2f52 e13c 95f1 943d
00000010: bbf0 243e f83f b8bd 727c 68bc 13b3 a8bd
00000020: b38b 803d 1588 4f3c 5ade 0cbe 4f31 2f3d
00000030: 3e34 e23d bb8c 0bbd 629a be3b ff99 f43d
00000040: f5f0 00be 6f1f a7bb 6ea3 82bd eafc 693c
00000050: 7670 a63d b0f8 d13d c70a 54bd 98d0 e63d
00000060: 2096 163c 6591 923d c43b 0a3d f0f7 15bd
00000070: afee 183d 6ebc 893d 86f5 783c 9954 b7bd
00000080: 6c7e 743d 078b 32bd e247 3f3c e9b1 b83d
00000090: 232f d0bc 0b53 3ebc b8a7 81bd bf31 c53d
000000a0: c385 a5bd e2d0 e1bd 798a f33d fff7 49bd
000000b0: f882 45bd 7f95 973c 7ca0 abbd a27d cc3b
000000c0: 9c40 283d 1fe9 bbbc bdc9 013e 5d37 45bd
000000d0: c03e d0bd dc2b 213e edbe 083d 3136 ec3d
000000e0: de04 f53c af6f bdbd 3e45 ea3d 846e df3d
000000f0: 6c79 ad3d 29cb 25bd c73a bd3d cfab c3bc
00000100: d38f ae3d 24a7 063e dc77 b13d 4982 7ebd
00000110: 6878 ec3b 15be fa3c 0999 953d 8433 793d
00000120: 1f9c ee3c de90 023e ab27 70bd 7fcb bbbd
00000130: 106f 933d b076 41bd 17cd 403d 24b3 593d
00000140: 8e1d 093e 14ec 043e 3d53 5ebd e528 e73d
00000150: 0c80 72bd 4258 5c3d e3ce a5bd 2662 8dbd
00000160: 2e87 37bd bd1e 0abd 5f93 c63d fe0c b23c
00000170: 5c7c 273e ee4c 163e 07f1 c63d 2e76 ecbd
00000180: c033 193e 126d b33b 0940 553d 8ce7 92bd
00000190: 1a8c 31ba 849b 2ebd 397d 803d 09ec 9ebd
000001a0: 9e05 64bd a421 913d ef9b 343e 4d98 2fbd
000001b0: d72e 03bd 6114 81bd 59e9 a4bd ee1e 073d
000001c0: 6488 b9bd 1eb8 f6bb af95 803d 2b3c c0bd
000001d0: 84dc e23d 891f dc3d d8cc 7d3c 9eed 443c
000001e0: 90ed 8a3d 3083 4e3d 043b 753c 5e2f bcbd
000001f0: 0562 74bd 6df8 c7bd d828 d03d 8cd0 593c
00000200: 2d9d 703d ba66 4d3d 469a a9bd d664 d23d
00000210: e652 d63d 51e1 073e a19a 753d 8325 693d
00000220: d1cc 033c ecd7 c93b 1891 fabd bc3b 5e3d
00000230: 1815 dd3d 758e 90bd 7369 b5bd c635 be3d
00000240: a0a8 d7bd 64cc b9bd d67e a3bd 2254 4f3d
00000250: eda8 92bd bab0 803d d1f5 a63d 5cd2 b63d
00000260: a8cf 9a3d 3af3 a0bd 2bee 6f3c 8d51 6d3d
00000270: 920d c8bd 8880 bcbd 33b8 82bd 9092 053e
00000280: b813 65bd b4b8 983d 07f9 4bbc 648c ef3d
00000290: f511 163e 80c5 cbbd b425 78bd f984 9d3d
000002a0: 081c 173d f078 b0bd 0a61 e7bc b610 4dbd
000002b0: 1e7e 15bd c479 543d 966a 013d bd77 cc3d
000002c0: f4f1 a83c e128 dbbd a557 aebc c15b 07be
000002d0: 6b30 acbd a296 6a3d 0b21 fb3d db39 e03d
000002e0: eebe bf3d 0d98 063d 2419 8c3d 4f80 c4bd
000002f0: 61ac ddbd 170c 563d 8a82 86bd 5001 87bc
00000300: b675 99bd 32f1 0dbd 1258 17bd cbe7 dc3d
00000310: a98d 9cbd 0c80 91bc f53a c0bd b499 63bd
00000320: 5f90 063d 04a3 abbc 5920 033e a964 11bd
00000330: 5303 8f3d 3e34 c3bc 6a14 eebd 0205 92bd
00000340: 0501 523d 60b4 4f3d 9ac1 8bbd 65c7 33bd
00000350: 39b0 1abd 769f 1b3b f3f8 34be 2054 a5bd
00000360: 1527 b63c 63bf b0bc 9b1e e73c 3af9 57bd
00000370: b3d3 19be 4555 873d 76b3 093e 072e 26bd
00000380: ce29 6fbc 4caf ca3c 1cc3 4abd a794 de3c
00000390: 678b e0b9 875d abbd 080f 4a3d 424c 2bbd
000003a0: b72c 5f3d c491 923d 0d83 11be db40 ad3d
000003b0: b2db 81bd 3635 b2bc 5d9c 03bd 5a80 c13d
000003c0: 058c ccbd ab1b 023e 5743 b03d b4c1 85bd
000003d0: c995 403d 5c2b 0c3d f09e 7f3b 73fe 70bd
000003e0: ae66 133e d4bb 393d 4046 3e3d d817 a6bd
000003f0: fe9d 703d 577e 753d 7bf1 b4bd dded c63d

feature_exact.m_encoder.layers.2.bias f4 [64]
-0.030577784 -0.035838522 -0.02623315 0.011183687 -0.06711462 0.089913204 0.11616585 -0.043760236
-0.059518576 0.044651385 0.09333227 0.014346022 -0.08092494 0.061401702 0.038018767 -0.041329693
0.019885393 0.011591595 0.07058206 0.085089706 -0.022182968 -0.0043831775 0.034046978 0.07264459
-0.012849148 0.10008032 -0.08159587 0.039991938 -0.095983036 0.015193555 -0.016978603 0.043987684
-0.110834494 -0.09589598 0.07257745 0.08530834 0.13966298 -0.0527161 0.08790589 0.098629676
0.063761525 -0.10247044 0.02680129 0.032051396 -0.0852365 0.019465033 -0.040135838 0.073303424
-0.04150403 0.08832146 0.029634688 -0.014893215 -0.0209008 0.10728105 0.12388882 0.055619497
0.0538399 0.094976954 -0.084801115 0.04538569 0.0045183953 0.06450794 -0.026724102 -0.042693697
00000000: 437e fabc 6acb 12bd e7e6 d6bc c83b 373c
00000010: 6473 89bd 6a24 b83d 5ce8 ed3d ef3d 33bd
00000020: c0c9 73bd 5fe4 363d fd24 bf3d 940b 6b3c
00000030: fabb a5bd 5a80 7b3d 91b9 1b3d 5349 29bd
00000040: b1e6 a23c acea 3d3c 548d 903d 8343 ae3d
00000050: 0eb9 b5bc c2a0 8fbb d874 0b3d b0c6 943d
00000060: 3c85 52bc e9f6 cc3d bc1b a7bd 96ce 233d
00000070: c192 c4bd 63ee 783c b616 8bbc 6e2c 343d
00000080: 32fd e2bd 1d65 c4bd 7ca3 943d 24b6 ae3d
00000090: d003 0f3e d6ec 57bd 0108 b43d 5bfe c93d
000000a0: 6795 823d 06dc d1bd 618e db3c 5348 033d
000000b0: 7990 aebd 2275 9f3c 7a65 24bd 1b20 963d
000000c0: 2100 2abd e2e1 b43d 72c4 f23c ac02 74bc
000000d0: 2838 abbc 2bb6 db3d 6cb9 fd3d 45d1 633d
000000e0: 3a87 5c3d 4783 c23d 35ac adbd 58e6 393d
000000f0: 0c0f 943b bd1c 843d 81ec dabc 96df 2ebd

feature_exact.j_ln.weight f4 [64]
0.98662835 0.99263024 1.2232417 1.089472 0.97197527 0.9704483 1.0231167 0.9810509
1.0164673 1.0394316 1.1416938 0.9956603 1.0029176 1.0321915 0.9657998 1.0350313
0.95720196 1.05548 1.0188956 1.0000749 0.9958901 1.052034 1.0470504 1.0451003
0.97270715 0.9562557 1.0476935 1.0748931 1.006308 1.0278518 1.0699291 1.1520969
1.0123029 1.0009557 0.95237267 0.966924 0.96061236 1.0084727 0.9885238 1.0054805
1.0751754 1.0134695 1.0060713 0.99102277 1.1399689 0.9738761 0.9922552 1.1066004
0.9868105 1.0591589 1.0068144 1.1065409 1.005708 1.0070546 0.9995966 1.0340285
0.99942094 1.046274 1.0212336 1.0087876 1.0229386 0.95809495 1.0427307 0.9858273
00000000: ad93 7c3f 041d 7e3f 2f93 9c3f d273 8b3f
00000010: 5fd3 783f 4d6f 783f 7df5 823f 2726 7b3f
00000020: 9a1b 823f 180c 853f 0623 923f 98e3 7e3f
00000030: 9b5f 803f da1e 843f a83e 773f e87b 843f
00000040: 300b 753f f819 873f 2c6b 823f 7402 803f
00000050: a7f2 7e3f 0da9 863f bf05 863f d9c5 853f
00000060: 5603 793f 2ccd 743f d21a 863f 1996 893f
00000070: b3ce 803f a690 833f 70f3 883f e977 933f
00000080: 2493 813f 511f 803f b2ce 733f 5588 773f
00000090: b1ea 753f a215 813f e50f 7d3f 96b3 803f
000000a0: 599f 893f 5eb9 813f f2c6 803f abb3 7d3f
000000b0: 80ea 913f f24f 793f 7004 7e3f 15a5 8d3f
000000c0: 9d9f 7c3f 8592 873f 4bdf 803f 22a3 8d3f
000000d0: 0abb 803f 2ae7 803f 90e5 7f3f 0c5b 843f
000000e0: 0dda 7f3f 4eec 853f c8b7 823f f41f 813f
000000f0: a7ef 823f b645 753f 3378 853f 2e5f 7c3f

feature_exact.j_ln.bias f4 [64]
-0.029718805 -0.03301371 0.010872072 -0.011369427 0.07388708 0.07409159 -0.026255256 0.028682569
-0.016316984 0.0042938855 -0.004858904 -0.028437695 -0.021025883 0.00971612 0.050887085 0.0059562526
0.054757837 -0.0029591618 -0.040509447 -0.009827086 -0.042177428 -0.0002489513 -0.011351537 0.021644972
-0.07069898 0.04283845 0.020021897 -0.016363194 0.013319859 -0.0054239854 -0.0036069704 -0.009833449
-0.010210191 -0.013795671 -0.077853486 0.0532708 -0.06167205 -0.0033116604 0.017981196 0.026373496
0.007176403 0.0046137683 -0.0028380747 -0.029831722 0.014833609 0.017131029 0.005492664 0.013137302
-0.026984233 0.013817096 0.031152345 0.015089848 -0.019110855 -0.048131656 -0.0025510937 0.004542838
0.026456384 0.005683522 0.005198992 0.0033638817 0.0050020427 0.06309432 0.013536725 -0.035277586
00000000: da74 f3bc 6239 07bd c620 323c d546 3abc
00000010: 1c52 973d 55bd 973d 4315 d7bc b5f7 ea3c
00000020: 32ab 85bc b9b3 8c3b 7137 9fbb 2bf6 e8bc
00000030: 793e acbc 5c30 1f3c fa6e 503d ab2c c33b
00000040: c149 603d 7fee 41bb 3ced 25bd c901 21bc
00000050: 3dc2 2cbd ae85 82b9 ccfb 39bc cc50 b13c
00000060: a0ca 90bd 5f77 2f3d f604 a43c 1b0c 86bc
00000070: 8a3b 5a3c b0bb b1bb ec62 6cbb 791c 21bc
00000080: a548 27bc 3d07 62bc a671 9fbd 7b32 5a3d
00000090: d59b 7cbd 7108 59bb 4d4d 933c 3b0d d83c
000000a0: 0828 eb3b 182f 973b fefe 39bb a861 f4bc
000000b0: aa08 733c 5f56 8c3c cefb b33b d73d 573c
000000c0: 0a0e ddbc 1a61 623c 3433 ff3c 693b 773c
000000d0: 5e8e 9cbc b325 45bd 4030 27bb 16dc 943b
000000e0: 0fbb d83c d73c ba3b 4e5c aa3b 9274 5c3b
000000f0: 2de8 a33b 9837 813d 24c9 5d3c 3b7f 10bd
