trained_network/SD2/s3_a9.pth (torch, 59851 bytes, 26 tensors)

feature_exact.j_encoder.linears.0.weight f4 [8, 14]
0.156008 0.31146398 -0.22993803 0.25283664 -0.056767076 -0.04763428 -0.07988551 0.044088587
0.097532816 0.23480394 0.041775968 0.120636 -0.45260793 0.01398384 -0.13714768 0.14074364
0.11904827 -0.4414245 0.18426405 0.0632409 -0.18290403 0.0026185804 0.09168564 -0.22974747
0.106993005 -0.16677493 0.019371137 0.10219254 0.00029256826 -0.05499397 -0.23437107 -0.02352469
-0.09587506 -0.0044733104 -0.055373818 -0.14609094 0.11341053 0.039368495 0.116436005 -0.09329174
0.5421077 0.10756165 -0.19280235 0.07607211 0.18274054 -0.05029385 0.17429198 0.1776452
-0.17807026 -0.06318292 -0.2853702 0.04224266 -0.1630028 -0.013143752 -0.49439636 0.527374
-0.13689788 -0.1580282 -0.18250372 -0.033601772 -0.07102571 -0.053122226 -0.29038903 -0.08921629
0.17664485 0.12429254 0.14769797 -0.14994521 -0.22724177 0.33769405 -0.018934753 -0.30822873
-0.28447425 0.1713815 -0.035468582 -0.18038292 -0.40735838 0.07402749 -0.049175523 0.012068718
-0.16435462 0.16811885 0.04612683 0.18521698 -0.10349939 0.052509822 -0.20332406 -0.11563866
0.014846546 -0.0070366547 -0.29989395 0.15317413 -0.17322272 0.009382589 -0.12217611 0.23647091
-0.27036437 -0.11229207 -0.21188359 -0.110929355 0.027674621 0.42713922 -0.26753753 -0.083514325
0.104275286 -0.15428779 0.12163391 0.15540554 0.00039158438 -0.07560801 -0.40031338 -0.15388879
00000000: 90c0 1f3e 3578 9f3e e074 6bbe ce73 813e
00000010: 9884 68bd 2a1c 43bd 049b a3bd 3c96 343d
00000020: 49bf c73d 7270 703e 471d 2b3d 0210 f73d
00000030: 3abc e7be 7a1c 653c 7170 0cbe 1a1f 103e
00000040: 94cf f33d 6402 e2be b7af 3c3e 7284 813d
00000050: 324b 3bbe 7d9c 2b3b aec5 bb3d ec42 6bbe
00000060: 261f db3d 0cc7 2abe 38b0 9e3c 534a d13d
00000070: d963 9939 5b41 61bd f8fe 6fbe dab6 c0bc
00000080: 255a c4bd d994 92bb a8cf 62bd dd98 15be
00000090: c843 e83d dc40 213d 0076 ee3d bd0f bfbd
000000a0: 92c7 0a3f 4849 dc3d fb6d 45be b2cb 9b3d
000000b0: 5620 3b3e ed00 4ebd 9979 323e a0e8 353e
000000c0: 0d58 36be 0c66 81bd 0b1c 92be a406 2d3d
000000d0: 35ea 26be e458 57bc 8521 fdbe fc01 073f
000000e0: f52e 0cbe 25d2 21be 41e2 3abe 03a2 09bd
000000f0: ed75 91bd b196 59bd dfad 94be 08b7 b6bd
00000100: 63e2 343e 168d fe3d 233e 173e 3d8b 19be
00000110: 11b2 68be 3ce6 ac3e 0e1d 9bbc 28d0 9dbe
00000120: 9ca6 91be a27e 2f3e 8147 11bd 4db6 38be
00000130: 4791 d0be ba9b 973d 466c 49bd dfbb 453c
00000140: 944c 28be 5927 2c3e 7def 3c3d 85a9 3d3e
00000150: 7df7 d3bd 8a14 573d 2f34 50be f6d3 ecbd
00000160: ed3e 733c bd93 e6bb b38b 99be aed9 1c3e
00000170: 4c61 31be 6eb9 193c 7837 fabd 6e25 723e
00000180: 336d 8abe 63f9 e5bd 03f8 58be ee2e e3bd
00000190: e3b5 e23c feb1 da3e aefa 88be 8f09 abbd
000001a0: 488e d53d 9efd 1dbe 331b f93d a122 1f3e
000001b0: 914d cd39 5fd8 9abd e0f5 ccbe 0695 1dbe

feature_exact.j_encoder.linears.0.bias f4 [8]
-0.10887629 0.0032653369 -0.039832544 0.0042627957 -0.09391969 0.006235656 0.16874383 -0.114963464
00000000: 88fa debd 43ff 553b 7327 23bd ecae 8b3b
00000010: f758 c0bd 7954 cc3b 2fcb 2c3e f771 ebbd

feature_exact.j_encoder.linears.1.weight f4 [8, 8]
0.008125714 0.07051583 0.36452284 0.06890272 -0.17538312 0.46706238 -0.29595554 -0.38507798
0.544954 -0.17441975 -0.13049048 0.3131606 0.06562515 0.17220569 0.5249543 0.32230547
0.08382765 0.104222395 -0.23597275 -0.021330813 -0.14129768 0.09141666 -0.029249415 -0.36133295
0.2954426 0.28529012 0.20087829 -0.20570779 -0.43127483 -0.3781414 0.11835493 -1.0362731
0.23826733 0.27014154 -0.17786306 0.22948025 0.32012963 0.33904508 -0.053181216 -0.020572238
-0.13288577 0.061987568 -0.24327067 0.19203505 -0.18710466 -0.13470803 0.26169962 -0.28852054
-0.16364853 -0.37244937 -0.018174293 -0.09367719 0.14202902 -0.4519712 0.08500961 0.4462932
0.15738572 0.1377184 -0.16439033 0.08407044 0.2140294 -0.009787974 -0.21030319 -0.31282544
00000000: b721 053c 9a6a 903d bda2 ba3e df1c 8d3d
00000010: a297 33be cd22 ef3e 7c87 97be f128 c5be
00000020: 1b82 0b3f 179b 32be 4c9f 05be 9656 a03e
00000030: 7b66 863d b056 303e 6863 063f 3905 a53e
00000040: d5ad ab3d 8d72 d53d d7a2 71be f5bd aebc
00000050: 57b0 10be a838 bb3d 789c efbc a200 b9be
00000060: 4144 973e 8c11 923e 0ab3 4d3e 10a5 52be
00000070: 0ed0 dcbe c09b c1be 1264 f23d 99a4 84bf
00000080: 5afc 733e fe4f 8a3e bc21 36be dffc 6a3e
00000090: 08e8 a33e 5197 ad3e 8cd4 59bd 1c87 a8bc
000000a0: 3513 08be ade6 7d3d f21b 79be d6a4 443e
000000b0: 5d98 3fbe e7f0 09be 7efd 853e f7b8 93be
000000c0: 7b93 27be afb1 bebe 41e2 94bc d4d9 bfbd
000000d0: 0e70 113e c568 e7be 8519 ae3d 8b80 e43e
000000e0: b929 213e 0d06 0d3e f055 28be 1f2d ac3d
000000f0: 862a 5b3e bd5d 20bc b859 57be a82a a0be

feature_exact.j_encoder.linears.1.bias f4 [8]
-0.05046954 -0.0774442 0.36781856 -0.28664574 0.08153667 -0.053845003 0.14629461 -0.32270366
00000000: 26b9 4ebd 119b 9ebd b752 bc3e 3bc3 92be
00000010: b3fc a63d 948c 5cbd 41ce 153e 6a39 a5be

feature_exact.j_encoder.linears.2.weight f4 [8, 8]
-0.5666573 -0.029114112 -0.037748486 0.06719185 0.15580986 -0.21032496 -0.14479016 0.15283673
0.014255014 0.116626814 0.32011825 -0.48136032 -0.01924719 0.32064477 -0.3047518 0.095787846
-0.017776418 0.25812754 -0.1439344 0.16715713 0.32439888 -0.14766937 -0.222198 -0.0012345603
0.2094704 -0.541505 0.09826752 0.36787876 -0.35005057 0.18480083 0.4360833 -0.032450367
0.16803956 0.24050163 -0.198368 -0.520712 -0.08355345 -0.13804464 -0.16756517 -0.25028926
-0.14347921 0.54380494 0.123088226 0.06606469 0.12702788 -0.34379342 0.36204374 -0.31039453
0.15800795 -0.42108503 -0.2154535 0.1545386 -0.02457064 -0.28663933 0.2608542 -0.3353172
-0.113820836 -0.11171653 0.36934108 -0.030675136 0.10918037 0.25674242 -0.26518258 0.266538
00000000: 7410 11bf b880 eebc 289e 1abd e19b 893d
00000010: 9f8c 1f3e 6d5f 57be df43 14be 3b81 1c3e
00000020: dd8d 693c 0ada ee3d 8ae6 a33e dc74 f6be
00000030: 48ac 9dbc 8d2b a43e 6e08 9cbe 6b2c c43d
00000040: da9f 91bc 4b29 843e 8a63 13be 3d2b 2b3e
00000050: 9c17 a63e a436 17be df87 63be f8d0 a1ba
00000060: 697f 563e 12a0 0abf 7b40 c93d 9b5a bc3e
00000070: d439 b3be 6e3c 3d3e 4f46 df3e adea 04bd
00000080: 9012 2c3e 0f46 763e fb20 4bbe 624d 05bf
00000090: 121e abbd 935b 0dbe 3496 2bbe ea25 80be
000000a0: 37ec 12be cd36 0b3f ae15 fc3d ed4c 873d
000000b0: 9913 023e b105 b0be cc5d b93e 08ec 9ebe
000000c0: d6cc 213e 7598 d7be d89f 5cbe 5e3f 1e3e
000000d0: 5e48 c9bc 64c2 92be af8e 853e b2ae abbe
000000e0: e61a e9bd a3cb e4bd 461a bd3e 6c4a fbbc
000000f0: f599 df3d be73 833e 03c6 87be ab77 883e

feature_exact.j_encoder.linears.2.bias f4 [8]
0.2057792 -0.035365608 -0.08848998 -0.0141389705 -0.22139911 -0.12961659 0.19840573 -0.27743453
00000000: c8b7 523e 87db 10bd 3c3a b5bd 24a7 67bc
00000010: 73b6 62be 36ba 04be df2a 4b3e e60b 8ebe

feature_exact.m_encoder.linears.0.weight f4 [8, 8]
-0.49122775 -0.03453469 0.31620935 0.119280964 0.03305835 0.32784083 -0.37319133 0.20827667
0.16397637 0.25823727 -0.117471255 -0.24208264 -0.29558194 -0.20242803 -0.20139976 -0.28574118
0.13654412 0.31184036 0.37125129 -0.17225777 -0.4398566 -0.35278785 0.2420175 0.14889608
0.25732508 0.013636625 0.3617221 0.25327927 0.08908643 -0.17977485 0.087559864 -0.057468984
0.06469636 -0.27668518 0.012399601 -0.41092598 -0.13928854 0.09668869 -0.34264317 -0.222344
0.2516125 -0.25393787 0.2594004 0.3486186 -0.16901952 -0.16598555 -0.32524517 0.16157106
-0.23127872 0.11027221 -0.17164545 0.2225211 0.15498869 0.2769242 -0.032871142 0.11248099
0.2875927 -0.10762473 -0.25430804 -0.16546418 -0.28833148 0.15298338 -0.37710005 -0.000332637
00000000: 3482 fbbe 3f74 0dbd 31e6 a13e 9449 f43d
00000010: 3168 073d c1da a73e ef12 bfbe 7b46 553e
00000020: 6ce9 273e ad37 843e c594 f0bd 83e4 77be
00000030: 8456 97be 4b49 4fbe bd3b 4ebe ab4c 92be
00000040: 39d2 0b3e 8aa9 9f3e a614 be3e 5764 30be
00000050: e234 e1be 9ca0 b4be 6fd3 773e 3778 183e
00000060: 1dc0 833e 276c 5f3c a433 b93e d2ad 813e
00000070: f272 b63d e616 38be 9652 b33d 9964 6bbd
00000080: 867f 843d aea9 8dbe b227 4b3c e464 d2be
00000090: a8a1 0ebe b804 c63d ed6e afbe 25ae 63be
000000a0: 5bd3 803e 2504 82be 21d0 843e 237e b23e
000000b0: 7413 2dbe 1ef8 29be 8986 a6be e272 253e
000000c0: 54d4 6cbe 65d6 e13d d3c3 2fbe 92dc 633e
000000d0: 5bb5 1e3e 02c9 8d3e e4a3 06bd 6f5c e63d
000000e0: 5a3f 933e 5b6a dcbd aa34 82be 716f 29be
000000f0: 2fa0 93be ada7 1c3e 4213 c1be c865 aeb9

feature_exact.m_encoder.linears.0.bias f4 [8]
-0.03680249 0.21445328 -0.28009388 0.07966251 -0.22683102 -0.15844516 0.4592756 -0.15284742
00000000: 35be 16bd a499 5b3e 7768 8fbe 1926 a33d
00000010: 6446 68be 733f 22be 2c26 eb3e 0984 1cbe

feature_exact.m_encoder.linears.1.weight f4 [8, 8]
0.28566626 0.015376012 -0.008339785 0.25672626 0.06958074 0.39464194 -0.047127943 -0.46863717
0.0824335 0.069764905 0.20178227 0.35616156 0.11155354 0.10885344 -0.23987891 0.075726494
0.022767412 0.2859722 -0.22001384 0.2720779 0.07404138 -0.080114715 -0.23763658 -0.10480275
0.31811434 -0.023423394 0.10008771 0.19814879 0.029482113 0.27865016 0.3087128 -0.19262168
-0.21247064 -0.03386219 0.4053558 0.08724257 -0.1392448 0.14355174 -0.28441265 0.118612595
0.43051827 0.18550748 -0.11038761 0.3546981 -0.23011328 -0.18229851 -0.22122547 -0.35175562
0.4014603 0.0946306 0.41070622 0.08580926 -0.20057261 -0.191847 -0.34534156 0.15648955
-0.28586045 -0.09966558 0.22539338 0.24418145 0.104981355 -0.28767678 -0.38148123 0.35335875
00000000: d942 923e abeb 7b3c 98a3 08bc a071 833e
00000010: 5980 8e3d 820e ca3e 3b09 41bd 36f1 efbe
00000020: e5d2 a83d e7e0 8e3d 03a0 4e3e cf5a b63e
00000030: 2f76 e43d 8dee de3d d1a2 75be 7e16 9b3d
00000040: b982 ba3c f36a 923e 4f4b 61be cb4d 8b3e
00000050: 02a3 973d 2f13 a4bd 0157 73be d3a2 d6bd
00000060: e2df a23e 6be2 bfbc c9fa cc3d 84e7 4a3e
00000070: 7984 f13c 3cab 8e3e 9b0f 9e3e 9e3e 45be
00000080: e791 59be 14b3 0abd cc8a cf3e 3cac b23d
00000090: 3096 0ebe 3aff 123e 899e 91be 29eb f23d
000000a0: e46c dc3e acf5 3d3e e612 e2bd fd9a b53e
000000b0: d1a2 6bbe 76ac 3abe ee88 62be 5019 b4be
000000c0: 348c cd3e b0cd c13d 1648 d23e c4bc af3d
000000d0: e862 4dbe 8a73 44be 9cd0 b0be cc3e 203e
000000e0: 4d5c 92be 781d ccbd 86cd 663e b40a 7a3e
000000f0: 7700 d73d 5f4a 93be 8251 c3be 70eb b43e

feature_exact.m_encoder.linears.1.bias f4 [8]
0.078995936 0.032528464 -0.26582918 -0.080519736 -0.056421306 -0.15277681 0.081237614 0.18405159
00000000: 9fc8 a13d 913c 053d c31a 88be 88e7 a4bd
00000010: 071a 67bd 8671 1cbe e85f a63d 0578 3c3e

feature_exact.m_encoder.linears.2.weight f4 [8, 8]
0.15119964 0.23253942 0.03013988 0.2566012 0.14345156 -0.43559366 -0.107164025 -0.28391445
0.17816281 -0.04111558 -0.45031255 0.026270311 0.41194823 -0.14835623 0.02854295 0.29163712
-0.33989686 -0.03197677 -0.18476206 0.07468193 0.24677426 0.23262641 -0.14993945 0.31618103
-0.08853146 0.2589197 0.14530376 -0.06682691 0.015587381 -0.027489921 0.11126977 -0.17169353
-0.04000682 -0.019760536 -0.22661515 0.2189145 -0.037585724 -0.091075055 -0.10692005 0.22828414
-0.37993526 -0.36290634 0.024976527 -0.37330824 -0.3593785 -0.2717323 -0.4355805 -0.012531615
0.09960751 -0.22260459 0.3384257 -0.13215157 -0.35012302 0.36814383 0.076537974 0.033476546
0.0856981 -0.17287597 0.29907754 0.18961248 0.18235426 0.015414151 0.045655087 -0.26061928
00000000: 14d4 1a3e d01e 6e3e e9e7 f63c 3c61 833e
00000010: f7e4 123e 2206 dfbe d078 dbbd 3c5d 91be
00000020: 5070 363e cf68 28bd 5e8f e6be d634 d73c
00000030: e1ea d23e b2ea 17be e8d2 e93c 7651 953e
00000040: f606 aebe 13fa 02bd 4432 3dbe d7f2 983d
00000050: 64b2 7c3e 9e35 6e3e ba89 19be 7be2 a13e
00000060: fb4f b5bd 1f91 843e 82ca 143e 8cdc 88bd
00000070: 3762 7f3c 8b32 e1bc 68e1 e33d 6ed0 2fbe
00000080: 31de 23bd d9e0 a1bc cd0d 68be 1f2b 603e
00000090: 7df3 19bd 8f85 babd e6f8 dabd 51c3 693e
000000a0: e086 c2be dcce b9be 939b cc3c 4222 bfbe
000000b0: 7500 b8be 7f20 8bbe 6804 dfbe 6751 4dbc
000000c0: 06ff cb3d 75f2 63be 2246 ad3e be52 07be
000000d0: 5343 b3be 597d bc3e f1bf 9c3d b41e 093d
000000e0: 7c82 af3d 6606 31be b120 993e c629 423e
000000f0: 13bb 3a3e a38b 7c3c d400 3b3d e46f 85be

feature_exact.m_encoder.linears.2.bias f4 [8]
-0.09557522 -0.115834475 -0.09738159 -0.017316343 -0.14846095 0.29435107 0.24504577 -0.10556849
00000000: f1bc c3bd a03a edbd 0070 c7bd 01db 8dbc
00000010: 2606 18be 2fb5 963e 47ed 7a3e 4b34 d8bd

feature_exact.j_ln.weight f4 [8]
1.0273249 1.0497254 1.1358709 1.2651583 1.0247527 1.059483 1.0685354 1.0507698
00000000: 627f 833f 675d 863f 3864 913f b5f0 a13f
00000010: 192b 833f 249d 873f c5c5 883f a07f 863f

feature_exact.j_ln.bias f4 [8]
0.0085649155 0.0023456325 -0.022658082 0.033890784 -0.0025687192 -0.0066265003 0.017816903 0.028867625
00000000: dc53 0c3c 2fb9 193b 719d b9bc 10d1 0a3d
00000010: f557 28bb 1d23 d9bb c1f4 913c cc7b ec3c

feature_exact.m_ln.weight f4 [8]
0.97838837 1.0110966 0.98728794 0.9578616 0.92771465 0.9392744 0.9776883 1.0022259
00000000: a977 7a3f 9d6b 813f e7be 7c3f 6b36 753f
00000010: b57e 6d3f 4974 703f c849 7a3f f048 803f

feature_exact.m_ln.bias f4 [8]
0.018558323 0.014487067 -0.007613134 -0.016429221 0.0533352 0.034063242 -0.010133865 -0.0003582622
00000000: a007 983c 2a5b 6d3c 9977 f9bb 9396 86bc
00000010: 0376 5a3d e685 0b3d 8308 26bc 23d5 bbb9

actor.linears.0.weight f4 [64, 40]
0.0032822746 0.26202145 -0.1256803 0.05887242 -0.07925491 0.031999893 -0.18960015 0.044713557
0.004855626 -0.042552155 -0.14654836 0.15224175 0.04839883 -0.09477391 0.10474144 0.09168851
-0.08562907 -0.124904126 -0.15107809 0.1413152 -0.15556353 0.055947445 0.12778528 0.042848025
-0.13816553 0.016001072 -0.06918404 -0.20060582 0.107164726 -0.07644081 -0.045905106 0.12629531
-0.034912568 -0.1649611 -0.16314933 -0.16359687 -0.014963654 0.04148148 -0.0049262685 0.12733144
0.00045061577 0.003807355 0.032294855 0.056626666 0.106228694 0.2260855 -0.0003920919 -0.0741113
0.10125891 -0.043270174 0.0067717517 0.121750325 -0.13808605 0.017130041 -0.048732948 -0.012897543
0.15351413 0.08325077 0.22351994 -0.2635786 -0.042242832 0.13002823 -0.03640716 0.03730971
-0.033427984 0.0054346533 -0.1307335 -0.18220316 -0.06444572 -0.023251409 -0.07891021 -0.11198017
-0.08130997 -0.23120409 -0.0764643 0.060718704 -0.14926279 0.0024266609 -0.24091153 0.14178053
0.02945668 -0.073157266 0.108091734 0.087976515 0.080425344 -0.028028129 -0.0014495457 0.0009180036
-0.13576336 -0.13180417 0.15338637 0.09595403 0.0020856622 -0.0035766778 -0.11796128 0.15244815
-0.09208176 -0.103923306 -0.12031605 0.22596732 -0.06264961 -0.09509013 0.1276039 -0.07699179
-0.13665824 -0.005369983 0.060488615 0.0271951 -0.09888928 0.12049245 0.09715197 0.066247664
-0.015232184 0.05120854 0.20197587 0.107711166 0.065808676 0.14654298 -0.24395481 -0.12649314
0.13150682 -0.025140788 0.22963564 -0.1727724 -0.0054142936 0.16032414 -0.040869858 -0.1702101
-0.11516466 0.05549679 0.22126055 0.07256985 -0.14433944 0.016284408 -0.025952967 0.060539097
-0.02248004 -0.20012689 -0.047914278 -0.19005573 0.009279818 -0.04660913 -0.15333916 -0.005316941
-0.119913496 0.115673065 0.18167147 0.14255212 0.10118547 0.017748466 -0.09669597 0.14873524
0.18535344 0.1699534 0.0791204 -0.05397876 -0.10141986 0.2115202 0.019017287 0.15322916
0.014096697 -0.025865274 0.011706182 0.14458531 0.0763553 -0.06703101 -0.022355754 -0.046758354
0.14669755 -0.14583923 -0.07195928 0.072698526 0.04937714 -0.067748904 -0.10587868 0.08753318
-0.06255262 0.010668578 -0.07922673 0.08486599 0.08309947 -0.021293638 0.061187364 -0.0185641
-0.06333394 -0.20333107 0.035997864 0.14717986 -0.1683344 -0.024264922 0.03578298 -0.116981275
0.23175386 0.18997681 0.021278901 0.096585274 0.23835097 0.26283264 -0.0434181 -0.18790011
0.028495485 -0.09940675 -0.1539097 0.0245408 0.16911158 -0.008889619 0.26836225 -0.14664708
-0.099662885 0.12665765 0.10704358 -0.09416684 0.07679454 -0.039300717 -0.059847657 0.06778298
0.08666869 -0.1172614 -0.251077 0.165308 -0.15580268 -0.03485905 -0.022972768 -0.015246408
0.13290608 -0.103808545 0.06772027 -0.041218653 -0.050127648 -0.16490664 0.0020565365 -0.040772635
0.07693974 0.30054727 0.17826208 0.111738384 0.16135089 0.2127565 -0.16150828 -0.10131954
-0.088944316 0.055148393 -0.0012493272 -0.1762384 0.103564434 0.14889671 0.08025215 -0.02162531
-0.10877774 -0.17624938 0.13439281 0.09320158 -0.09670613 -0.0835508 -0.16300976 -0.011009096
00000000: 6e1b 573b ad27 863e 56b2 00be 3524 713d
00000010: 6650 a2bd 5212 033d 8b26 42be 9025 373d
00000020: f11b 9f3b 2b4b 2ebd c610 16be 43e5 1b3e
00000030: da3d 463d d318 c2bd ae82 d63d 2fc7 bb3d
00000040: 4b5e afbd bccd ffbd 37b4 1abe efb4 103e
00000050: 0c4c 1fbe 2629 653d 25da 023e 6981 2f3d
00000060: 447b 0dbe ae14 833c 5db0 8dbd 9d6b 4dbe
00000070: 2e79 db3d 008d 9cbd fe06 3cbd 8f53 013e
00000080: 7b00 0fbd 90eb 28be 9e10 27be f085 27be
00000090: 1d2a 75bc 7ce8 293d 896c a1bb 2c63 023e
000000a0: a040 ec39 d184 793b 9c47 043d 5df1 673d
000000b0: 6e8e d93d f582 673e af91 cdb9 aac7 97bd
000000c0: d560 cf3d 113c 31bd 92e5 dd3b 3c58 f93d
000000d0: 6e66 0dbe 4d54 8c3c 339c 47bd 3750 53bc
000000e0: cf32 1d3e 617f aa3d 69e2 643e c6f3 86be
000000f0: d206 2dbd 1f26 053e ad1f 15bd 11d2 183d
00000100: c8eb 08bd 2d15 b23b 01df 05be 7793 3abe
00000110: 1efc 83bd bd79 bebc ad9b a1bd dc55 e5bd
00000120: d785 a6bd c4c0 6cbe 5199 9cbd 2db4 783d
00000130: 58d8 18be 9d08 1f3b 83b1 76be ea2e 113e
00000140: 234f f13c 7ad3 95bd 335f dd3d 082d b43d
00000150: 0bb6 a43d 3f9b e5bc affe bdba 2ea6 703a
00000160: 8d05 0bbe acf7 06be 5111 1d3e 8c83 c43d
00000170: 9baf 083b b266 6abb af95 f1bd 5e1b 1c3e
00000180: 5d95 bcbd bed5 d4bd 4368 f6bd fa63 673e
00000190: 704e 80bd 9dbe c2bd 99aa 023e dfad 9dbd
000001a0: 23f0 0bbe aff6 afbb e9c2 773d 42c8 de3c
000001b0: 7686 cabd bfc4 f63d 9df7 c63d dbac 873d
000001c0: 6990 79bc 0cc0 513d c3d2 4e3e ac97 dc3d
000001d0: b3c6 863d 5d0f 163e 4acf 79be 6b87 01be
000001e0: b9a9 063e 0ef4 cdbc 9b25 6b3e 3feb 30be
000001f0: 636a b1bb 032c 243e 2767 27bd 8e4b 2ebe
00000200: 73db ebbd 9a50 633d 2092 623e 809f 943d
00000210: b8cd 13be e166 853c 519b d4bc d8f7 773d
00000220: 1028 b8bc 10ee 4cbe c341 44bd f89d 42be
00000230: 610a 183c 37e9 3ebd f104 1dbe bc39 aebb
00000240: 3595 f5bd 00e6 ec3d 1608 3a3e 2ff9 113e
00000250: 543a cf3d 3b65 913c 8908 c6bd 0d4e 183e
00000260: 4bcd 3d3e 4408 2e3e e009 a23d d518 5dbd
00000270: 37b5 cfbd c098 583e 24ca 9b3c 1be8 1c3e
00000280: d5f5 663c 69e3 d3bc 49cb 3f3c 2c0e 143e
00000290: 2b60 9c3d 8e47 89bd 6a23 b7bc b085 3fbd
000002a0: e237 163e e156 15be 635f 93bd f7e2 943d
000002b0: af3f 4a3d f0bf 8abd ecd6 d8bd 9944 b33d
000002c0: 971b 80bd 42cb 2e3c a041 a2bd 38ce ad3d
000002d0: 0e30 aa3d ff6f aebc 9a9f 7a3d bd13 98bc
000002e0: 3ab5 81bd 0536 50be 7f72 133d 51b6 163e
000002f0: da5f 2cbe 3bc7 c6bc 2d91 123d e193 efbd
00000300: e250 6d3e 4889 423e 1751 ae3c 80ce c53d
00000310: 4712 743e 0092 863e 2dd7 31bd e368 40be
00000320: 5d6f e93c c495 cbbd 819a 1dbe ca09 c93c
00000330: 962b 2d3e c4a5 11bc c766 893e a72a 16be
00000340: 0e1c ccbd 8bb2 013e aa39 db3d 8bda c0bd
00000350: 7546 9d3d caf9 20bd d122 75bd ced1 8a3d
00000360: 5b7f b13d bf26 f0bd 2a8d 80be 8046 293e
00000370: bd8a 1fbe 5dc8 0ebd 6331 bcbc 12cc 79bc
00000380: 8818 083e 9399 d4bd edb0 8a3d e4d4 28bd
00000390: a652 4dbd 49dd 28be f5c6 063b 3501 27bd
000003a0: 9592 9d3d 55e1 993e 568a 363e 18d7 e43d
000003b0: 2b39 253e d7dc 593e 6d62 25be 9e80 cfbd
000003c0: 7028 b6bd 48e3 613d 77c0 a3ba d777 34be
000003d0: 9719 d43d 6178 183e 3d5b a43d 9027 b1bc
000003e0: ddc6 debd b87a 34be 459e 093e 78e0 be3d
000003f0: dd0d c6bd af1c abbd 08ec 26be 7f5f 34bc

actor.linears.0.bias f4 [64]
0.040974744 0.11624935 0.09604483 -0.13972458 0.06961807 -0.0012965712 -0.09679482 -0.060402438
-0.1569989 -0.028069759 0.078090586 -0.12813227 0.0033218341 -0.10154645 0.0054583903 -0.17893301
0.15230252 -0.1918282 -0.087297425 -0.060146995 0.020197013 -0.05965054 0.09794697 -0.050894193
0.17595786 -0.03323489 -0.10386488 -0.03776565 -0.24358182 0.13932273 0.18985963 0.15581684
-0.087433934 -0.04555471 -0.07121159 -0.042596284 -0.14346083 -0.0830383 -0.106167026 -0.02110697
-0.0928362 0.12417414 -0.18028694 -0.01428067 -0.044931326 0.08210978 0.05930999 -0.078418046
0.12009677 -0.00048024868 -0.14987895 -0.1351204 -0.10495646 -0.073357806 -0.09972295 -0.035385765
0.032939624 -0.08825115 0.10065521 -0.04311307 0.05378753 -0.12003237 -0.08853458 0.05538653
00000000: 22d5 273d 2414 ee3d 27b3 c43d f613 0fbe
00000010: eb93 8e3d b6f1 a9ba 5d3c c6bd 8c68 77bd
00000020: 52c4 20be 8df2 e5bc f5ed 9f3d 1b35 03be
00000030: 21b3 593b 96f7 cfbd 4cdc b23b 373a 37be
00000040: 31f5 1b3e 9d6e 44be fec8 b2bd b25c 76bd
00000050: 3574 a53c 2054 74bd 6c98 c83d 6e76 50bd
00000060: 4c2e 343e 4f21 08bd 1cb7 d4bd 27b0 1abd
00000070: 836d 79be 9eaa 0e3e 906a 423e 738e 1f3e
00000080: 9010 b3bd 9397 3abd 62d7 91bd 7179 2ebd
00000090: 65e7 12be fc0f aabd 196e d9bd 86e8 acbc
000000a0: e820 bebd 034f fe3d 249d 38be 79f9 69bc
000000b0: e909 38bd 2c29 a83d 08ef 723d a499 a0bd
000000c0: 4cf5 f53d e3c9 fbb9 de79 19be 015d 0abe
000000d0: 6af3 d6bd 9e3c 96bd 8c3b ccbd aaf0 10bd
000000e0: b3eb 063d 05bd b4bd 5224 ce3d 5597 30bd
000000f0: 5050 5c3d 88d3 f5bd 9e51 b5bd fcdc 623d

actor.linears.1.weight f4 [64, 64]
-0.059284806 -0.029667372 0.04011102 0.0033575117 -0.065908894 -0.01515258 -0.22627546 -0.11860981
0.17306787 -0.013365925 -0.015859952 -0.07850477 -0.05184039 -0.04431348 0.09508783 0.044145156
0.2017711 -0.045063775 -0.18388316 0.15021281 0.0060931304 -0.020104267 0.0466224 0.05056035
-0.25360507 0.14763671 0.2124513 -0.014892324 -0.011840487 0.030377006 0.092805825 -0.04275452
-0.09151579 -0.0010933232 0.031229349 -0.10529616 -0.07651328 -0.2630331 -0.0046252706 0.09582377
0.12741952 -0.12107642 0.100520305 -0.013889523 0.12569767 0.34665054 -0.24039978 -0.14385128
-0.03771578 -0.16140485 0.2443163 -0.08186273 -0.15578404 0.04337072 0.037535463 0.085720874
0.004243162 0.03892792 0.015130662 -0.018830787 -0.011370273 -0.0977251 -0.13119487 -0.07005948
0.001522404 0.13837598 -0.02792774 -0.0050236923 -0.011615412 0.19054875 0.21201669 0.0053159357
-0.0024056258 -0.07967885 -0.09170945 -0.058837753 0.14291726 0.05936254 -0.13652347 -0.029055651
-0.17368446 -0.00087823306 0.08753743 -0.08157385 -0.16399027 -0.14688174 0.032610297 -0.029835502
0.26568207 -0.15146405 -0.18175878 0.09651709 -0.07549537 -0.19127269 -0.0045167045 0.11597
0.091439314 -0.023240637 -0.0010435721 -0.018160319 0.1355283 0.097849935 -0.046485066 0.062900074
-0.10359935 0.09674355 -0.046193697 0.05625112 -0.049401734 -0.28040025 0.24262917 0.05170481
0.25764742 0.025623465 -0.2646078 0.088187054 0.19016448 -0.17447399 -0.112566724 0.049599342
0.12840432 -0.13482077 -0.09887087 -0.09221723 0.043592125 0.16646627 0.116440736 0.077950984
0.03276346 0.11499169 0.033329852 0.17023414 0.1114848 0.08670193 0.108917914 0.112394765
-0.06566844 -0.032963734 -0.18603526 0.07321657 -0.04351145 0.058647394 -0.2232307 0.06524533
-0.2513374 0.08504576 0.14811192 -0.10163071 -0.18160428 -0.026474355 -0.10291963 -0.22457045
0.26965004 0.01629713 -0.091390245 0.15488152 -0.083637625 0.0048605087 0.038920917 -0.047893792
0.12568253 0.19805263 -0.040634204 0.027154917 0.0926657 0.0022053814 -0.121364355 -0.12371701
0.013500983 0.052248288 -0.13681254 0.09228455 -0.026663719 -0.37412855 0.28901953 0.0058437325
0.11897505 0.07563322 -0.22023882 0.13565797 -0.021073591 -0.11333796 -0.06029126 -0.07782204
0.14384086 -0.18441582 -0.20229697 -0.12635197 0.035098698 0.24351479 0.0470409 0.017661773
-0.04743664 0.042553548 -0.24805087 0.014376677 -0.10385196 -0.21955356 -0.086079456 -0.035402164
0.021850053 0.12775476 -0.026871506 -0.037874725 -0.057541482 -0.15927379 0.17278977 0.020539174
0.062079612 -0.08979223 0.11721808 0.09874213 0.0541497 0.1450756 -0.047599588 0.08835405
-0.108607896 0.22577375 0.09393684 0.2340863 0.103838526 0.09801293 0.095199056 0.116084725
0.107676625 0.017227963 -0.15149754 -0.17688996 -0.012920747 -0.144555 0.2726027 0.033384524
0.08979259 0.036780637 -0.01668516 -0.16231467 0.13637002 0.1775405 -0.036368232 -0.18757041
0.08362353 0.046077844 0.19021904 0.044024803 0.034694217 0.28566444 0.11430439 0.14123817
-0.27441937 0.30807373 -0.045301057 -0.00064945314 0.046104908 -0.017015528 -0.20770271 -0.1072113
00000000: a0d4 72bd fd08 f3bc 744b 243d b309 5c3b
00000010: 3efb 86bd 8742 78bc c1b4 67be b3e9 f2bd
00000020: b438 313e c1fc 5abc bbec 81bc 1cc7 a0bd
00000030: 9756 54bd 0d82 35bd 69bd c23d 8dd1 343d
00000040: 159d 4e3e cb94 38bd de4b 3cbe 63d1 193e
00000050: e2a8 c73b b4b1 a4bc 21f7 3e3d 5f18 4f3d
00000060: 86d8 81be 142e 173e d58c 593e effe 73bc
00000070: 9afe 41bc 33d9 f83c fb10 be3d 5d1f 2fbd
00000080: a16c bbbd d74d 8fba b1d4 ff3c 83a5 d7bd
00000090: ffb2 9cbd 46ac 86be 958f 97bb 413f c43d
000000a0: 437a 023e eaf6 f7bd 97dd cd3d e290 63bc
000000b0: e4b6 003e 2e7c b13e 5c2b 76be c04d 13be
000000c0: dd7b 1abd 5047 25be 0d2e 7a3e a6a7 a7bd
000000d0: da85 1fbe 7fa5 313d c9be 193d 6d8e af3d
000000e0: 390a 8b3b e272 1f3d 99e6 773c 0643 9abc
000000f0: 624a 3abc 1924 c8bd f357 06be 587b 8fbd
00000100: 678b c73a 6fb2 0d3e b7c8 e4bc c99d a4bb
00000110: 924e 3ebc 361f 433e e71a 593e 4d31 ae3b
00000120: b4a7 1dbb aa2e a3bd 2ad2 bbbd dbff 70bd
00000130: e758 123e 2226 733d cfcc 0bbe 1e06 eebc
00000140: 57da 31be 3939 66ba d346 b33d 3110 a7bd
00000150: 11ed 27be 2b68 16be 6092 053d 9569 f4bc
00000160: 7b07 883e 6419 1bbe f91e 3abe c1aa c53d
00000170: 519d 9abd fddc 43be dd00 94bb ae81 ed3d
00000180: 8944 bb3d 2663 bebc 78c8 88ba f3c4 94bc
00000190: eec7 0a3e 8c65 c83d 2067 3ebd c1d1 803d
000001a0: e52b d4bd 7b21 c63d 9a35 3dbd 9367 663d
000001b0: 7959 4abd 9f90 8fbe c873 783e 6cc8 533d
000001c0: 5dea 833e 4de8 d13c ac7a 87be 6a9b b43d
000001d0: 7aba 423e 4fa9 32be 6289 e6bd ae28 4b3d
000001e0: 6c7c 033e 750e 0abe d07c cabd 63dc bcbd
000001f0: a88d 323d 2276 2a3e 7b78 ee3d c4a4 9f3d
00000200: fa32 063d c380 eb3d e284 083d dc51 2e3e
00000210: 2552 e43d c890 b13d 5b10 df3d 3a2f e63d
00000220: 2d7d 86bd fb04 07bd 0780 3ebe 92f2 953d
00000230: 1039 32bd 4038 703d 9796 64be 589f 853d
00000240: 4caf 80be 792c ae3d a7aa 173e c323 d0bd
00000250: 79f6 39be bfe0 d8bc 87c7 d2bd ccf5 65be
00000260: 920f 8a3e 8f81 853c cf2a bbbd 4399 1e3e
00000270: 344a abbd e744 9f3b 8a6b 1f3d 482c 44bd
00000280: ecb2 003e 4fce 4a3e 0d70 26bd fd73 de3c
00000290: 84c7 bd3d 2988 103b e08d f8bd 585f fdbd
000002a0: 3a33 5d3c 4d02 563d 9618 0cbe afff bc3d
000002b0: df6d dabc c78d bfbe 5efa 933e c87c bf3b
000002c0: 31a9 f33d 97e5 9a3d 4986 61be ece9 0a3e
000002d0: 86a2 acbc bb1d e8bd f8f3 76bd 2961 9fbd
000002e0: 054b 133e 80d7 3cbe f026 4fbe 6962 01be
000002f0: a7c3 0f3d f15b 793e f5ad 403d 6caf 903c
00000300: ec4c 42bd a14c 2e3d 0c01 7ebe 278c 6b3c
00000310: 56b0 d4bd a6d2 60be 6d4a b0bd dc01 11bd
00000320: e2fe b23c 25d2 023e a221 dcbc 8722 1bbd
00000330: 9eb0 6bbd ab18 23be cdef 303e c541 a83c
00000340: 3147 7e3d fde4 b7bd 0810 f03d 5039 ca3d
00000350: 13cc 5d3d b38e 143e c9f7 42bd f8f2 b43d
00000360: d16d debd 3c31 673e f561 c03d 52b4 6f3e
00000370: 4ba9 d43d 01bb c83d b9f7 c23d d4bd ed3d
00000380: 9085 dc3d a821 8d3c 2c22 1bbe a422 35be
00000390: 8ab1 53bc 3a06 14be 9592 8b3e 36be 083d
000003a0: 2de5 b73d 4ba7 163d 51af 88bc d135 26be
000003b0: 95a4 0b3e 2dcd 353e dbf6 14bd 7512 40be
000003c0: d042 ab3d 1fbc 3c3d c8c8 423e 5a53 343d
000003d0: 861b 0e3d 9c42 923e 6c18 ea3d bda0 103e
000003e0: b280 8cbe d7bb 9d3e 9a8d 39bd 1040 2aba
000003f0: 80d8 3c3d 2664 8bbc 05b0 54be 9991 dbbd

actor.linears.1.bias f4 [64]
-0.025089176 -0.06630795 0.00035076734 -0.0908153 0.13204873 0.04651808 -0.0026255536 -0.04902192
0.055286013 0.048617937 -0.055038422 0.11305458 -0.0560763 -0.038308766 0.00799939 0.0049940045
0.06417237 0.017670803 0.055266112 0.008918504 0.04966822 0.038121447 0.046313614 -0.058941428
0.0393077 0.09684096 -0.0023140437 0.016359076 0.015161181 -0.036291704 -0.01610798 -0.008279731
0.032334354 -0.12232002 -0.022209305 -0.04950025 -0.014167891 0.008544382 -0.016639575 0.01780043
-0.0038477746 -0.054734066 -0.051590662 0.02775893 0.09152069 -0.009693317 -0.060471255 -0.16047905
-0.0949335 0.013428888 -0.04277036 -0.07136157 -0.075842254 0.04656598 0.12417664 0.033628166
-0.020643141 0.054861184 0.04380943 0.09015732 0.074222915 0.06711264 -0.015860965 0.028282352
00000000: d187 cdbc 76cc 87bd 32e7 b739 5ffd b9bd
00000010: c837 073e be89 3e3d 7b11 2cbb 35cb 48bd
00000020: 9673 623d 9a23 473d f86f 61bd 2989 e73d
00000030: 43b0 65bd a7e9 1cbd e00f 033c bfa4 a33b
00000040: ce6c 833d 5cc2 903c b85e 623d eb1e 123c
00000050: e770 4b3d 3c25 1c3d 58b3 3d3d 916c 71bd
00000060: 1c01 213d 8e54 c63d 36a7 17bb 7803 863c
00000070: 9a66 783c 9ca6 14bd e2f4 83bc b5a7 07bc
00000080: 0771 043d eb82 fabd 4af0 b5bc c6c0 4abd
00000090: 7120 68bc bcfd 0b3c b84f 88bc 35d2 913c
000000a0: f22a 7cbb d430 60bd bb50 53bd b266 e33c
000000b0: 336f bb3d b8d0 1ebc b5b0 77bd 9f54 24be
000000c0: 7f6c c2bd d704 5c3c f92f 2fbd 0426 92bd
000000d0: 2f53 9bbd f8bb 3e3d 5250 fe3d b0bd 093d
000000e0: ce1b a9bc 1fb6 603d 8471 333d 67a4 b83d
000000f0: 2f02 983d 5a72 893d dbee 81bc 64b0 e73c

actor.linears.2.weight f4 [1, 64]
0.25860462 -0.3087052 -0.32515612 0.30309173 -0.3826544 -0.29083028 -0.29587603 -0.2537133
0.2580136 0.39265513 -0.36724874 -0.40101916 -0.328268 -0.28479135 -0.20235436 0.4052842
0.3339788 0.36088178 0.331448 0.26385573 0.33690056 0.355587 0.24989003 -0.29365894
-0.31019163 -0.36056298 -0.21773675 -0.34193805 0.3717952 0.36576194 -0.25535107 -0.21288408
-0.28722486 0.23619781 -0.2500066 0.34951276 0.36882785 0.363866 -0.4077563 0.3082331
0.23750024 -0.3760439 0.27328855 -0.31779176 -0.27650392 -0.27488592 -0.28057137 -0.30514959
0.26691604 -0.29814824 -0.23451164 0.2794029 -0.25976372 0.43793958 -0.33447465 -0.28949818
-0.26952115 -0.35094994 -0.3019636 -0.21990731 0.30926862 -0.3020599 -0.37225112 -0.33282372
00000000: d367 843e 9c0e 9ebe dd7a a6be d72e 9b3e
00000010: 47eb c3be b5e7 94be 107d 97be b6e6 81be
00000020: 5c1a 843e 180a c93e 0708 bcbe 6252 cdbe
00000030: be12 a8be 2cd0 91be fb35 4fbe 6981 cf3e
00000040: 45ff aa3e 7fc5 b83e 8db3 a93e 1918 873e
00000050: 3b7e ac3e 800f b63e 2ce3 7f3e 775a 96be
00000060: 70d1 9ebe b69b b8be 62f6 5ebe 8112 afbe
00000070: f15b be3e 2645 bb3e 60bd 82be 49fe 59be
00000080: 230f 93be d7dd 713e dd00 80be 56f3 b23e
00000090: 01d7 bc3e a54c ba3e 6fc5 d0be bbd0 9d3e
000000a0: 4333 733e d388 c0be 7aec 8b3e 9ab5 a2be
000000b0: ec91 8dbe d9bd 8cbe 0da7 8fbe 913c 9cbe
000000c0: 38a9 883e e3a6 98be d223 70be e60d 8f3e
000000d0: c0ff 84be 9e39 e03e 4340 abbe 1b39 94be
000000e0: adfe 89be b6af b3be f99a 9abe 622f 61be
000000f0: 7558 9e3e 98a7 9abe b397 bebe df67 aabe

critic.linears.0.weight f4 [64, 16]
-0.05218135 -0.0022131694 -0.11082632 0.39472225 -0.052062385 0.15739468 0.1809163 0.12481064
0.04680282 -0.027864737 0.033774994 -0.10898321 -0.18677375 -0.022883907 -0.08969993 -0.229137
-0.051973324 -0.26367337 -0.27152327 0.38205415 -0.15262023 -0.16114333 -0.032859273 -0.04435032
0.11841022 -0.043190036 0.17618528 -0.19918554 -0.009506791 -0.20771933 0.14790927 -0.10898281
0.09529324 0.034199126 0.36262667 -0.09337888 -0.16586319 -0.01587228 -0.18235685 -0.20972322
-0.12715936 0.014786274 0.0173055 0.013692511 -0.06652328 0.18314774 -0.085529745 0.14578661
-0.032616645 0.115891114 0.21965128 -0.39092624 -0.1735045 0.15238976 0.034845334 -0.21017477
-0.17254417 -0.11678733 0.031214818 0.20291632 0.04515677 -0.005123862 -0.18904273 0.11421346
-0.0695911 -0.16751248 0.09914363 0.09825657 0.027587103 -0.146301 0.17354476 -0.2709055
0.07865958 -0.26140377 0.16623254 -0.25358233 0.19134529 0.03550342 -0.007206184 0.1949292
0.01449478 0.19790326 0.010299595 -0.47002146 -0.15369292 -0.19186258 -0.23354748 -0.14917848
0.151769 -0.035899814 -0.135634 -0.169716 -0.06364315 -0.052407723 -0.06198671 0.021759804
-0.17702028 0.20251183 -0.22081572 0.11640759 -0.23462947 -0.11475864 -0.21228479 -0.21823919
0.16360548 -0.0851595 -0.021249399 -0.12496128 -0.22993983 0.13123691 0.11919942 0.003021447
0.20703241 -0.019145967 0.35430613 -0.22203498 0.14554843 0.005295043 -0.2493815 -0.13337186
0.17021722 -0.09736827 0.1645291 -0.26664895 -0.17840923 0.11105286 0.1087927 -0.18988878
-0.009566627 0.095836274 0.089244686 -0.37607068 0.18332782 0.13573784 0.22475621 0.12584789
0.22526364 -0.2321098 -0.024830543 0.06999535 -0.12168914 -0.11752228 -0.037949752 0.020402718
0.12092502 -0.09372236 0.14391722 -0.05858535 -0.026370378 0.13767156 0.20464088 -0.1984309
0.12477999 0.08497301 0.20287175 0.07386207 0.021321172 0.21256654 -0.12098015 0.054353867
-0.1592918 -0.011952373 -0.16143402 -0.1706775 -0.019477159 0.27612403 -0.023703992 0.0014163035
0.063588075 0.10745419 -0.23517612 -0.15949993 0.074669115 -0.18465942 0.16386771 0.15229738
-0.12661849 0.10516073 0.13974433 0.20949668 -0.10288429 -0.14463447 -0.117308736 0.11247984
0.06162011 0.029548135 -0.07790091 0.033579167 0.040253468 -0.15999292 -0.20969106 -0.32626572
-0.0016102501 -0.25191975 -0.05332978 0.2630688 -0.075770326 -0.1248699 -0.0022165114 0.18374062
0.18267627 -0.0007062258 0.083368875 -0.08262974 0.14757164 -0.19926716 -0.051449094 0.29813045
0.05507591 0.12779805 0.26335862 -0.17813963 0.050665785 0.045872133 0.14096345 0.17306897
0.20743693 0.2864315 -0.15699959 0.09144241 -0.1636347 -0.04428346 -0.18575116 -0.20941822
-0.27405456 -0.23381427 0.120994754 -0.19332083 0.22523265 0.14206243 -0.1421964 0.25314668
-0.13240913 0.18685144 -0.07735779 0.12180783 0.28469685 -0.07873934 -0.092900306 -0.091377445
0.19424738 0.127508 -0.055270694 -0.13761383 -0.15810753 0.11788865 0.16292085 -0.23143959
0.010221897 -0.2035957 0.12870453 -0.059844043 0.17163418 0.020709524 -0.089184396 -0.13756989
00000000: 1cbc 55bd d20a 11bb e9f8 e2bd 0919 ca3e
00000010: 5e3f 55bd 122c 213e 1f42 393e b99c ff3d
00000020: 50b4 3f3d 9744 e4bc a657 0a3d 9732 dfbd
00000030: 9e41 3fbe 0877 bbbc 99b4 b7bd e4a2 6abe
00000040: fbe1 54bd 3200 87be 1905 8bbe 9a9c c33e
00000050: 7a48 1cbe c202 25be 7297 06bd aea8 35bd
00000060: 0f81 f23d 09e8 30bd ea69 343e 4bf7 4bbe
00000070: 5fc2 1bbc 60b4 54be 8775 173e 6132 dfbd
00000080: 1a29 c33d 6214 0c3d 34aa b93e 6d3d bfbd
00000090: 0ad8 29be 9506 82bc c1bb 3abe afc1 56be
000000a0: 1036 02be 2142 723c 44c4 8d3c 8e56 603c
000000b0: 5c3d 88bd 158b 3b3e 382a afbd 1649 153e
000000c0: 0899 05bd 5258 ed3d 44ec 603e 7c27 c8be
000000d0: 2aab 31be 100c 1c3e fbb9 0e3d 0e38 57be
000000e0: 6baf 30be 322e efbd 38b6 ff3c 4cc9 4f3e
000000f0: 4ef6 383d 12e6 a7bb 6b94 41be bfe8 e93d
00000100: c785 8ebd 6488 2bbe d10b cb3d be3a c93d
00000110: 59fe e13c eecf 15be b8b5 313e 20b4 8abe
00000120: 4618 a13d b7d6 85be dd38 2a3e 8bd5 81be
00000130: 05f0 433e 096c 113d da21 ecbb 859b 473e
00000140: 847b 6d3c 27a7 4a3e a2bf 283c a7a6 f0be
00000150: ad61 1dbe a077 44be 1227 6fbe 3ec2 18be
00000160: 5569 1b3e af0b 13bd a4e3 0abe 08ca 2dbe
00000170: 5757 82bd 7ba9 56bd c7e5 7dbd 9e41 b23c
00000180: ce44 35be 435f 4f3e 841d 62be 1a67 ee3d
00000190: b542 70be 9406 ebbd 2f61 59be 187a 5fbe
000001a0: 3288 273e 1b68 aebd 3813 aebc b3eb ffbd
000001b0: 5975 6bbe f862 063e d31e f43d 7803 463b
000001c0: 4e00 543e 01d8 9cbc 9d67 b53e 235d 63be
000001d0: a60a 153e 0a82 ad3b dd5d 7fbe a292 08be
000001e0: 6c4d 2e3e 0469 c7bd 517a 283e 3686 88be
000001f0: e9b0 36be af6f e33d b5ce de3d 3472 42be
00000200: 58bd 1cbc cf45 c43d ebc5 b63d 568c c0be
00000210: 4aba 3b3e dcfe 0a3e 7e26 663e 45de 003e
00000220: 83ab 663e 31ae 6dbe 6c69 cbbc b959 8f3d
00000230: 2838 f9bd 85af f0bd 3371 1bbd 9a23 a73c
00000240: 89a7 f73d 82f1 bfbd 095f 133e 31f7 6fbd
00000250: b106 d8bc c6f9 0c3e 618d 513e 7831 4bbe
00000260: a78c ff3d 5406 ae3d 9dbd 4f3e ff44 973d
00000270: bda9 ae3c 0bab 593e 71c4 f7bd 29a2 5e3d
00000280: 641d 23be e3d3 43bc f64e 25be 15c6 2ebe
00000290: 908e 9fbc 2160 8d3e e02e c2bc 42a3 b93a
000002a0: 773a 823d f110 dc3d 02d2 70be f353 23be
000002b0: 1fec 983d 5c17 3dbe f0cc 273e d8f3 1b3e
000002c0: 47a8 01be 825e d73d 2319 0f3e 4c86 563e
000002d0: 00b5 d2bd 0f1b 14be 903f f0bd d55b e63d
000002e0: 5e65 7c3d ee0e f23c 838a 9fbd 4f8a 093d
000002f0: d2e0 243d 2fd5 23be 41b9 56be 4d0c a7be
00000300: 070f d3ba a0fb 80be 5470 5abd f4b0 863e
00000310: 792d 9bbd cabb ffbd e442 11bb 8026 3c3e
00000320: 7d0f 3b3e 0322 39ba 4dbd aa3d c839 a9bd
00000330: 051d 173e b10c 4cbe 49bc 52bd 8ea4 983e
00000340: 4797 613d 7edd 023e f1d6 863e 3c6a 36be
00000350: ed86 4f3d 6be4 3b3d b958 103e fe38 313e
00000360: 596a 543e 26a7 923e 80c4 20be 2946 bb3d
00000370: db8f 27be 9362 35bd 8d35 3ebe bb71 56be
00000380: e150 8cbe 026d 6fbe 19cc f73d e5f5 45be
00000390: 63a3 663e d078 113e ef9b 11be 719c 813e
000003a0: 4296 07be fc55 3f3e c36d 9ebd 6276 f93d
000003b0: c9c3 913e 1742 a1bd 8442 bebd 1924 bbbd
000003c0: c9e8 463e 7591 023e 8663 62bd a4ea 0cbe
000003d0: f1e6 21be 9b6f f13d b9d4 263e 80fe 6cbe
000003e0: be79 273c 647b 50be 1fcb 033e 071f 75bd
000003f0: dfc0 2f3e 05a7 a93c 4fa6 b6bd 1fdf 0cbe

critic.linears.0.bias f4 [64]
-0.022683086 -0.1079041 0.19004804 0.16917925 -0.10923104 -0.007238714 0.13272202 0.12611906
0.24344191 -0.082265384 -0.12660557 -0.11925277 0.17106833 0.011787359 -0.04740063 0.060946297
-0.022976141 0.022612454 -0.050110903 -0.14051738 0.11227747 0.14496587 -0.19155759 -0.27188346
0.06338182 0.018503482 -0.26630843 0.0047526765 -0.1445339 0.05981233 -0.13000709 0.119190924
-0.078203596 -0.2059437 -0.23639141 -0.0011410544 -0.010412668 -0.06636479 0.14017539 -0.20457062
0.111777574 0.15488212 0.024422746 -0.119587414 0.093151905 -0.21472028 -0.1131378 -0.077162914
0.04285411 0.0991239 0.20395754 0.009811029 -0.0062019364 0.01136564 -0.17865172 0.13346504
0.11631021 0.220547 0.039692033 0.1961537 0.21564557 -0.097988494 -0.12631516 -0.06239426
00000000: e1d1 b9bc d3fc dcbd f49b 423e 533d 2d3e
00000010: 86b4 dfbd bc32 edbb 48e8 073e 5b25 013e
00000020: d648 793e c17a a8bd e4a4 01be cc3a f4bd
00000030: 892c 2f3e c41f 413c 2a27 42bd d3a2 793d
00000040: 7638 bcbc c13d b93c 1741 4dbd cae3 0fbe
00000050: bbf1 e53d ef71 143e ac27 44be 4f34 8bbe
00000060: 54ce 813d 9d94 973c 9459 88be 57bc 9b3b
00000070: b200 14be c6fd 743d 9420 05be 5f1a f43d
00000080: 3529 a0bd e8e2 52be 9710 72be 6f8f 95ba
00000090: e599 2abc 43ea 87bd 238a 0f3e f67a 51be
000000a0: a4eb e43d 6b99 1e3e 3612 c83c 3fea f4bd
000000b0: 6dc6 be3d a2df 5bbe cab4 e7bd 9707 9ebd
000000c0: cb87 2f3d 7901 cb3d 3fda 503e 70be 203c
000000d0: 9d39 cbbb f336 3a3c 7af0 36be 0fab 083e
000000e0: 0c34 ee3d 13d7 613e 1d94 223d 84dc 483e
000000f0: 31d2 5c3e 31ae c8bd c358 01be 2091 7fbd

critic.linears.1.weight f4 [64, 64]
-0.2991559 -0.14044455 0.22516702 0.1660622 -0.07933808 0.3696428 0.040343832 0.09767021
0.26583683 -0.06210911 -0.0005271753 0.049775094 -0.04202238 0.17163531 -0.13156354 0.011401561
-0.17024106 -0.009820806 -0.25342032 -0.33643752 -0.067986056 -0.15174611 0.1306174 0.02216393
-0.079675004 0.72609454 -0.42706108 0.3180133 -0.099029176 0.06675551 0.027703965 -0.010583541
0.07709361 0.29531872 -0.03851137 -0.2598819 0.25661895 -0.17169331 0.19393717 -0.30517802
-0.24608412 0.10925866 -0.037690055 -0.072942756 -0.06596585 0.001600103 0.32396266 0.078298114
0.10364509 0.61220247 -0.0208751 0.38561487 0.24585865 0.10152275 0.09625724 0.18689762
-0.25747037 -0.24706344 0.12634164 0.121339105 0.11906736 -0.079987444 -0.22636904 -0.16457418
-0.031162625 -0.06577863 0.10906251 -0.093395054 0.0956783 -0.09637082 -0.055537693 -0.03790886
0.084980845 0.0071378774 0.058870863 0.01234513 -0.06653145 0.115625314 0.07095592 0.071392424
-0.0903771 -0.031572375 -0.13647184 -0.03145285 0.11257238 -0.05394127 0.0039409804 -0.11923204
-0.07197138 0.25082916 -0.08726823 0.033478044 -0.097574145 0.0062510413 -0.06602344 -0.101687826
-0.010456542 0.067036085 -0.13691795 -0.017794494 0.04270155 -0.023004632 0.16525657 -0.065207005
-0.079128675 -0.014375933 0.10632286 0.06474031 0.11038337 -0.11924797 0.020968365 -0.078746945
0.049035393 -0.036015056 -0.036388125 -0.07888734 0.078897014 -0.014913683 0.087256625 0.038637538
-0.07047217 0.044953104 -0.046725273 -0.080228016 0.0053740502 -0.10870502 0.019356832 -0.10525204
-0.2349947 -0.12374722 0.098895624 0.2183357 -0.04024378 0.20955013 0.104208335 0.19056295
0.05529925 0.061491314 0.0871864 -0.012887599 0.08168879 0.0051855487 0.025295513 0.067366995
-0.20051652 0.11076899 -0.22485486 -0.31617934 -0.056485686 -0.15242592 0.13442996 -0.0989762
0.038818035 0.46349284 -0.25136885 -0.031421278 0.044761542 -0.04801074 -0.13759182 -0.13729347
-0.07580852 0.20911999 -0.021636238 -0.13220797 -0.024284922 -0.20887242 -0.0014465719 -0.11342692
-0.017040627 -0.0916596 -0.12715617 0.10992394 0.018681848 0.0070189694 0.11702367 0.003717178
0.066462904 0.3052601 -0.11652883 0.17702726 0.2544667 0.18152198 -0.02030483 -0.05555799
-0.18685342 -0.2215113 0.02787999 -0.06987714 0.084829696 0.01975128 -0.065150246 -0.1859908
0.051980484 0.040416796 -0.070279986 -0.039842103 0.07184936 -0.09929781 0.07923143 0.02229454
0.11724158 0.108127706 -0.07982775 0.0074621425 -0.07106725 0.019435747 -0.0880192 -0.09686802
-0.0669539 -0.10867197 -0.036010068 0.04141623 0.13137083 0.0939435 -0.15846746 -0.09967683
-0.064824976 -0.09447059 0.12177674 0.018341053 -0.14509077 -0.018263021 0.11124719 -0.01939452
0.12844476 0.0009288292 0.013266629 0.056470063 -0.14242904 0.020387197 0.00823185 -0.07345515
-0.026498908 -0.119414575 0.11667409 0.02212459 0.0019742597 -0.055237383 0.0017730277 -0.07790668
-0.07006825 -0.121200524 0.03538957 -0.0705508 -0.020040764 -0.0010191256 0.082541235 0.018439384
0.043611217 0.17665699 0.09623417 0.14654851 0.07973692 0.08123827 -0.032071836 0.1479516
00000000: f62a 99be b2d0 0fbe 2f92 663e 360c 2a3e
00000010: 017c a2bd d241 bd3e 933f 253d 5207 c83d
00000020: c41b 883e 1f66 7ebd 2332 0aba f8e0 4b3d
00000030: a91f 2cbd 2bc1 2f3e 98b8 06be 9dcd 3a3c
00000040: ac53 2ebe 72e7 20bc 4fc0 81be 8a41 acbe
00000050: 463c 8bbd 5563 1bbe 91c0 053e 2191 b53c
00000060: a62c a3bd 55e1 393f c0a7 dabe a4d2 a23e
00000070: cfcf cabd 1db7 883d 6df3 e23c 9766 2dbc
00000080: 41e3 9d3d 0434 973e 19be 1dbd 3e0f 85be
00000090: 8f63 833e 5fd0 2fbe 7797 463e 4b40 9cbe
000000a0: 7afd 7bbe 01c3 df3d e360 1abd 0363 95bd
000000b0: 1b19 87bd 8cba d13a 6fde a53e c35a a03d
000000c0: e043 d43d 4db9 1c3f 4202 abbc 506f c53e
000000d0: 5fc2 7b3e 29eb cf3d 8422 c53d 1762 3f3e
000000e0: 28d3 83be 33fe 7cbe b45f 013e a380 f83d
000000f0: 97d9 f33d 75d0 a3bd 49cd 67be 2286 28be
00000100: c348 ffbc f2b6 86bd 2a5c df3d e845 bfbd
00000110: fcf2 c33d 115e c5bd 7e7b 63bd 5246 1bbd
00000120: 700a ae3d dbe4 e93b 9322 713d 3a43 4a3c
00000130: a441 88bd f7cc ec3d 5651 913d 3136 923d
00000140: a117 b9bd 0952 01bd 46bf 0bbe b4d4 00bd
00000150: 598c e63d 85f1 5cbd 5723 813b ee2f f4bd
00000160: bb65 93bd ae6c 803e b0b9 b2bd 4620 093d
00000170: f4d4 c7bd 89d5 cc3b 4c37 87bd b541 d0bd
00000180: ea51 2bbc 374a 893d 3834 0cbe c2c5 91bc
00000190: d2e7 2e3d 3674 bcbc 0539 293e 408b 85bd
000001a0: 370e a2bd 0989 6bbc cdbf d93d 9196 843d
000001b0: ad10 e23d 4838 f4bd d9c5 ab3c 1446 a1bd
000001c0: 56d9 483d 8684 13bd b70b 15bd b08f a1bd
000001d0: c294 a13d 8558 74bc 9ab3 b23d 6542 1e3d
000001e0: b753 90bd bf20 383d 0063 3fbd 964e a4bd
000001f0: cd18 b03b bda0 debd 3892 9e3c 628e d7bd
00000200: 73a2 70be 2f6f fdbd ca89 ca3d 6593 5f3e
00000210: a9d6 24bd 4f94 563e 2e6b d53d ef22 433e
00000220: 7781 623d 51de 7b3d c98e b23d 8226 53bc
00000230: 744c a73d 89eb a93b 8938 cf3c b5f7 893d
00000240: 3454 4dbe dada e23d 5a40 66be 42e2 a1be
00000250: 895d 67bd 8a15 1cbe 02a8 093e 09b4 cabd
00000260: a9ff 1e3d ef4e ed3e 6bb3 80be 99b3 00bd
00000270: e157 373d e9a6 44bd dfe4 0cbe a996 0cbe
00000280: 7f41 9bbd 8d23 563e 7b3e b1bc 8761 07be
00000290: 2cf1 c6bc a7e2 55be e69a bdba 5f4c e8bd
000002a0: c998 8bbc 07b8 bbbd 3a35 02be cd1f e13d
000002b0: ad0a 993c 62ff e53b 1baa ef3d e69b 733b
000002c0: b41d 883d 0d4b 9c3e aba6 eebd a246 353e
000002d0: 7649 823e e6e0 393e 5156 a6bc c690 63bd
000002e0: 8156 3fbe dcd3 62be 9464 e43c bf1b 8fbd
000002f0: 31bb ad3d 70cd a13c 7e6d 85bd 5f74 3ebe
00000300: 7de9 543d 158c 253d f4ee 8fbd 7931 23bd
00000310: c225 933d a65c cbbd 1744 a23d 0aa3 b63c
00000320: 5a1c f03d 0f72 dd3d bb7c a3bd fd84 f43b
00000330: b58b 91bd b737 9f3c 6943 b4bd be62 c6bd
00000340: 201f 89bd 698f debd 4b7f 13bd 11a4 293d
00000350: 1386 063e 7365 c03d 4b45 22be 5e23 ccbd
00000360: f5c2 84bd cc79 c1bd 1566 f93d fa3f 963c
00000370: ad92 14be 559c 95bc 91d5 e33d 42e1 9ebc
00000380: 0687 033e ac7c 733a 465c 593c 274d 673d
00000390: ebd8 11be 0d03 a73c e2de 063c a76f 96bd
000003a0: 3d14 d9bc a18f f4bd d3f2 ee3d a13e b53c
000003b0: 9562 013b 9840 62bd f064 e83a 8a8d 9fbd
000003c0: f17f 8fbd fb37 f8bd a7f4 103d f07c 90bd
000003d0: 872c a4bc 2e94 85ba 610b a93d 310e 973c
000003e0: ada1 323d 92e5 343e 6c16 c53d d010 163e
000003f0: 1c4d a33d 4060 a63d c25d 03bd a080 173e

critic.linears.1.bias f4 [64]
0.08221144 -0.08608317 -0.022038396 0.012849525 -0.10839056 -0.14535365 -0.03424892 0.050590824
0.055466566 0.04101936 0.07493591 -0.13754106 -0.022579232 0.099308595 -0.068334684 0.048927624
0.11092988 -0.07807093 -0.025397427 -0.10201449 0.033822406 -0.13590492 0.123723656 0.10617906
-0.008923183 0.015637672 -0.050832216 -0.1461495 -0.14670755 -0.09871057 -0.08259006 0.079703405
-0.009051754 -0.15191863 -0.021006472 -0.07182151 -0.048794143 -0.042985555 0.0751587 0.03318763
0.11253871 0.010568864 0.14220767 0.08059798 -0.023418915 -0.010875984 -0.036609724 0.11594662
-0.14846328 0.095222086 0.13760757 0.027448695 -0.05897226 0.07197681 0.12242157 -0.022260344
0.013365086 0.13449626 0.16786958 -0.072110035 -0.018419474 0.047977764 -0.04201952 -0.045801975
00000000: 795e a83d 5f4c b0bd de89 b4bc d086 523c
00000010: dffb ddbd 96d7 14be 9848 0cbd 5338 4f3d
00000020: e930 633d eb03 283d 0078 993d 90d7 0cbe
00000030: 15f8 b8bc 4e62 cb3d 0ef3 8bbd 5568 483d
00000040: 342f e33d a7e3 9fbd 440e d0bc f9ec d0bd
00000050: 5d89 0a3d a92a 0bbe d462 fd3d 6874 d93d
00000060: 8b32 12bc 931a 803c 7135 50bd 37a8 15be
00000070: 813a 16be c428 cabd fa24 a9bd 8a3b a33d
00000080: cf4d 14bc 8f90 1bbe c415 acbc 2817 93bd
00000090: 5edc 47bd 9f11 30bd ceec 993d c1ef 073d
000000a0: b27a e63d 0729 2d3c e39e 113e 8e10 a53d
000000b0: 06d9 bfbc 2f31 32bc 14f4 15bd 6c75 ed3d
000000c0: c206 18be cc03 c33d 00e9 0c3e 16dc e03c
000000d0: e68c 71bd 9468 933d 29b8 fa3d 535b b6bc
000000e0: 3cf9 5a3c 63b9 093e 01e6 2b3e 6dae 93bd
000000f0: 70e4 96bc 5584 443d a91c 2cbd da9a 3bbd

critic.linears.2.weight f4 [1, 64]
-0.096907444 0.0008079253 -0.14096814 -0.12680793 0.02546423 0.060566112 0.082940556 -0.00039448164
0.0013691837 -0.00033407757 -0.09772574 0.07010031 0.00046813357 0.08846702 -0.10468883 -0.029065002
-0.087312795 -0.0019121985 -0.02621423 0.08012815 0.042398646 0.056985576 -0.069861375 -1.67111e-05
0.085061535 -0.00077319157 0.10739045 0.0695443 0.107577406 0.101790406 0.000388434 -0.02089997
0.0008306023 0.059371896 -0.00976294 0.118754245 0.0022504302 0.12340949 -0.00045208816 -0.04140606
0.0016659643 -0.09180705 -0.13031796 -0.049638268 -0.12532088 0.12632291 -0.0014828948 -0.00046454044
0.12135427 -0.042004462 -0.06392559 0.12545498 -0.027836705 -0.00023970245 -0.003271658 -0.00033568748
0.05857286 -0.14106281 -0.14246194 -0.0015042581 0.000985474 -0.017918995 0.0014654172 0.089935765
00000000: 6977 c6bd f3ca 533a f459 10be f0d9 01be
00000010: 5c9a d03c 2c14 783d bddc a93d 6ed2 ceb9
00000020: 2e76 b33a 2227 afb9 6f24 c8bd c090 8f3d
00000030: d36f f539 322e b53d 1967 d6bd ba19 eebc
00000040: 0dd1 b2bd bca2 faba 3abf d6bc 3a1a a43d
00000050: 34aa 2d3d b569 693d 7b13 8fbd d02e 8cb7
00000060: be34 ae3d 02b0 4aba 86ef db3d 3e6d 8e3d
00000070: 8b51 dc3d 7d77 d03d bba6 cb39 6a36 abbc
00000080: c7bc 593a f22f 733d bdf4 1fbc 6d35 f33d
00000090: f47b 133b 1dbe fc3d 3f06 edb9 6799 29bd
000000a0: 7c5c da3a 5605 bcbd 1272 05be 7f51 4bbd
000000b0: 1e54 00be cb5a 013e b15d c2ba 908d f3b9
000000c0: 9688 f83d df0c 2cbd 6beb 82bd 4577 003e
000000d0: cd09 e4bc a358 7bb9 5069 56bb 36ff afb9
000000e0: 18ea 6f3d c572 10be 8be1 11be 872a c5ba
000000f0: 052b 813a dbca 92bc 3e13 c03a 3e30 b83d
