trained_network/SD2/same1-2.pth (torch, 60623 bytes, 26 tensors)

feature_exact.j_encoder.linears.0.weight f4 [8, 14]
-0.0710286 0.10913998 -0.07305917 0.08736491 0.09083572 0.11275554 -0.27364245 0.21289186
0.28769946 0.16283411 0.043087322 -0.062352445 -0.025764303 -0.38916093 -0.0024414887 0.27609026
0.03936718 -0.33658922 -0.010712095 -0.06906419 -0.09712826 0.05394993 0.26830345 -0.3378119
0.18113548 -0.17262806 0.2526165 -0.27979383 0.28133783 0.17101972 -0.14396435 -0.21174198
0.053754084 -0.036679856 0.26359683 -0.103638664 -0.023554103 0.077245854 0.1491987 -0.09842076
0.050876506 0.13980497 -0.1429149 0.22618681 0.25864244 -0.14497752 0.17731084 0.3134019
-0.15203151 -0.36193836 -0.24593519 0.13136892 -0.2293765 -0.04478186 -0.33191904 0.30134195
0.20239888 0.026847584 -0.12389949 -0.0067557297 0.04139276 -0.115387686 -0.08349233 -0.031696636
0.15289034 0.13580236 0.10994401 -0.07436486 0.09167771 0.14328308 0.01713304 -0.30879486
-0.013431971 -0.006227274 0.19307037 -0.09629631 -0.28630528 0.23131213 0.16124566 -0.04811825
-0.15433988 -0.008253298 0.042995155 0.0839755 -0.042342544 0.12726058 0.13057324 -0.09560557
0.29616418 -0.043914523 -0.24391137 0.15546998 -0.08230514 0.086117476 -0.10104077 0.12613715
0.00519445 -0.15621477 -0.14667678 -0.02538898 0.31223583 0.16429904 -0.09871347 0.0036995467
0.19461784 -0.21937156 0.066145204 0.07367082 0.15763174 0.1576744 -0.22651033 -0.11890935
00000000: 7177 91bd c884 df3d 0ca0 95bd 60ec b23d
00000010: 1408 ba3d 60ec e63d dd1a 8cbe 5300 5a3e
00000020: 584d 933e fcbd 263e 557c 303d 4765 7fbd
00000030: a90f d3bc 1a40 c7be 6201 20bb b45b 8d3e
00000040: 7b3f 213d 6c55 acbe c881 2fbc 8771 8dbd
00000050: 2eeb c6bd 9afa 5c3d 125f 893e aef5 acbe
00000060: 947b 393e 69c5 30be f356 813e 2341 8fbe
00000070: 830b 903e cb1f 2f3e 646b 13be e4d2 58be
00000080: 3e2d 5c3d 9e3d 16bd 2af6 863e 8240 d4bd
00000090: 89f4 c0bc 1333 9e3d 8bc7 183e d390 c9bd
000000a0: e263 503d 0929 0f3e 4958 12be 849d 673e
000000b0: c86c 843e fd74 14be f990 353e 3776 a03e
000000c0: 26ae 1bbe fc4f b9be 6fd6 7bbe 9385 063e
000000d0: ace1 6abe 2f6d 37bd 4bf1 a9be 7e49 9a3e
000000e0: a741 4f3e 77ef db3c 04bf fdbd 2b5f ddbb
000000f0: 748b 293d 6150 ecbd 07fe aabd 55d4 01bd
00000100: 498f 1c3e c60f 0b3e 532a e13d 9b4c 98bd
00000110: 86c1 bb3d cdb8 123e 975a 8c3c 5c1a 9ebe
00000120: c511 5cbc 290e ccbb 3db4 453e 0037 c5bd
00000130: 9b96 92be 16dd 6c3e 951d 253e a417 45bd
00000140: 460b 1ebe d738 07bc b01b 303d 59fb ab3d
00000150: 606f 2dbd 9950 023e feb4 053e dacc c3bd
00000160: d5a2 973e b7df 33bd e7c3 79be 8633 1f3e
00000170: 998f a8bd 5c5e b03d 77ee cebd 192a 013e
00000180: 3436 aa3b c4f6 1fbe 7032 16be 8dfc cfbc
00000190: 60dd 9f3e 023e 283e 4a2a cabd 1874 723b
000001a0: e649 473e f0a2 60be 2377 873d bae0 963d
000001b0: 376a 213e 6675 213e 53f2 67be bf86 f3bd

feature_exact.j_encoder.linears.0.bias f4 [8]
-0.21970451 0.035823666 -0.15091546 0.009893203 -0.28979248 -0.042330183 0.07809578 -0.25343367
00000000: 38fa 60be d6bb 123d 9589 1abe 1a17 223c
00000010: ae5f 94be 6a62 2dbd aef0 9f3d 0fc2 81be

feature_exact.j_encoder.linears.1.weight f4 [8, 8]
0.041842952 -0.22036238 -0.006460477 -0.10300841 -0.07676436 0.33652073 -0.24218982 -0.29686472
0.23038615 -0.113905855 -0.16404836 0.34449667 -0.10065495 0.03950652 0.30066445 0.16790032
0.06112414 -0.07966391 -0.18779697 -0.025783824 -0.115174785 0.15301673 -0.27358922 -0.31075454
-0.010310949 0.31685364 -0.12183477 -0.16486298 -0.32743075 -0.008398601 -0.08185354 0.20645715
0.073226415 0.39673883 0.011556914 0.32024387 0.06698278 0.30804527 0.002950053 -0.009091848
-0.056566197 -0.0566291 -0.17067903 0.19704556 -0.2326844 -0.22017647 -0.049011268 -0.21491756
-0.016049443 -0.17957844 -0.17507833 0.013883677 0.2770952 -0.4031116 0.14102715 0.17688142
0.26694623 0.21779484 -0.050180513 0.0059448164 0.25887537 0.1458578 -0.19550167 -0.12806801
00000000: 8463 2b3d ada6 61be 69b2 d3bb 13f6 d2bd
00000010: a236 9dbd 724c ac3e 9c00 78be a7fe 97be
00000020: 59ea 6b3e 7947 e9bd 4bfc 27be de61 b03e
00000030: 2f24 cebd 97d1 213d b1f0 993e 10ee 2b3e
00000040: 4e5d 7a3d d526 a3bd d94d 40be 9938 d3bc
00000050: c2e0 ebbd 6bb0 1c3e e313 8cbe 381b 9fbe
00000060: 41ef 28bc a43a a23e 8284 f9bd d7d1 28be
00000070: 01a5 a7be 499a 09bc d4a2 a7bd 8169 533e
00000080: bbf7 953d 5a21 cb3e 3659 3d3c 01f7 a33e
00000090: 452e 893d 1cb8 9d3e ad55 413b f9f5 14bc
000000a0: f5b1 67bd eaf3 67bd 7cc6 2ebe 50c6 493e
000000b0: d244 6ebe f175 61be 0ac0 48bd 5913 5cbe
000000c0: 1f7a 83bc 69e3 37be bc47 33be 5d78 633c
000000d0: 6cdf 8d3e a564 cebe 6c69 103e 6720 353e
000000e0: 2dad 883e 9c05 5f3e 158a 4dbd bccc c23b
000000f0: 508b 843e bf5b 153e 9731 48be 4324 03be

feature_exact.j_encoder.linears.1.bias f4 [8]
-0.21492806 -0.2579084 0.3155932 -0.2578365 0.032643586 -0.09300736 0.10948253 -0.24810065
00000000: 1a16 5cbe 920c 84be 6f95 a13e 2503 84be
00000010: 48b5 053d a57a bebd 6038 e03d 190e 7ebe

feature_exact.j_encoder.linears.2.weight f4 [8, 8]
-0.32092342 0.13255899 -0.014130245 0.18049993 0.17786047 -0.14673938 0.021030707 0.17440692
0.09842548 0.24553491 0.30547756 -0.3659471 -0.069331996 0.22602227 -0.23557588 0.15412079
0.14226052 0.07044534 -0.1540348 0.35335344 0.35789284 -0.11635943 -0.14008534 0.13921356
0.036771562 -0.37575832 0.12425972 -0.044049717 -0.35606468 0.09988188 0.3302588 -0.2971748
-0.11880214 -0.046992123 -0.21998414 -0.25852695 -0.11457338 -0.2996789 -0.26615733 -0.26029876
0.09586326 0.37594464 -0.11152477 0.35039634 0.21988805 0.010608964 0.21434395 -0.006372188
0.049346942 -0.2993695 -0.15513258 -0.0035616623 -0.028538248 -0.25732425 0.28545913 -0.38108784
-0.056268424 -0.21201898 0.3608138 -0.13175334 0.10977432 0.21301427 -0.30857533 0.2434585
00000000: 1350 a4be 8bbd 073e 8b82 67bc f9d4 383e
00000010: 0e21 363e d942 16be 9748 ac3c ba97 323e
00000020: 4c93 c93d 816d 7b3e 8e67 9c3e 6b5d bbbe
00000030: effd 8dbd 6272 673e ce3a 71be d7d1 1d3e
00000040: beac 113e a545 903d 4cbb 1dbe beea b43e
00000050: bb3d b73e da4d eebd 8872 0fbe 008e 0e3e
00000060: c79d 163d 6563 c0be e17b fe3d 7a6d 34bd
00000070: 1c4e b6be df8e cc3d ae17 a93e 4c27 98be
00000080: 894e f3bd d07a 40bd 8643 61be a55d 84be
00000090: 73a5 eabd 836f 99be c645 88be e145 85be
000000a0: f553 c43d d17b c03e 1967 e4bd 2667 b33e
000000b0: 552a 613e 38d1 2d3c fb7c 5b3e cacd d0bb
000000c0: 0520 4a3d f646 99be 13db 1ebe c76a 69bb
000000d0: 0bc9 e9bc 01c0 83be b327 923e f21d c3be
000000e0: b879 66bd 811b 59be 96bc b83e 59ea 06be
000000f0: 5cd1 e03d 6a20 5a3e 96fd 9dbe 2f4d 793e

feature_exact.j_encoder.linears.2.bias f4 [8]
0.26087046 -0.03134078 -0.09734202 0.00033717844 -0.28411412 -0.31208217 0.23060429 -0.29189867
00000000: d090 853e 315f 00bd 415b c7bd 53c7 b039
00000010: 6877 91be 3cc9 9fbe 8823 6c3e be73 95be

feature_exact.m_encoder.linears.0.weight f4 [8, 8]
-0.36941943 0.059727687 0.20278439 0.25169924 -0.14297177 0.33324915 -0.30042943 0.15772755
0.15309341 0.056416195 -0.31653923 -0.29135382 -0.112348825 -0.17314279 -0.1875174 -0.22485298
-0.044116203 0.28411734 0.3167961 -0.33927038 -0.2846323 -0.26557183 0.23621853 0.19804187
0.19007936 0.010443051 0.2983342 0.26260045 0.1142339 -0.06689864 0.18110782 0.038301103
-0.032570843 -0.33200917 -0.018536715 -0.35059002 -0.30728602 0.22442845 -0.18691485 -0.1235233
0.23381598 -0.2505417 0.15862888 0.33401215 -0.17859665 -0.15396233 -0.30605602 0.13897985
-0.2698379 0.1121658 -0.16558866 0.14849168 0.19185781 0.29700208 -0.06318183 0.12027116
0.27831 0.036222786 -0.14568312 -0.010371853 -0.16331974 0.21279347 -0.28976297 0.035023313
00000000: 8b24 bdbe 05a5 743d b6a6 4f3e b9de 803e
00000010: 3167 12be a29f aa3e e3d1 99be 5583 213e
00000020: 85c4 1c3e ab14 673d 6e11 a2be 542c 95be
00000030: 2417 e6bd 584c 31be 9004 40be dc3f 66be
00000040: 31b3 34bd d477 913e 1933 a23e d9b4 adbe
00000050: 53bb 91be 08f9 87be 45e3 713e 7dcb 4a3e
00000060: 2aa4 423e 5519 2b3c 43bf 983e 9173 863e
00000070: 77f3 e93d 2702 89bd 5474 393e 9ee1 1c3d
00000080: 0169 05bd 1bfd a9be 4fda 97bc 8980 b3be
00000090: 9854 9dbe 92d0 653e 9b66 3fbe c9f9 fcbd
000000a0: 756d 6f3e 0047 80be 9c6f 223e a403 ab3e
000000b0: 0ae2 36be 4da8 1dbe 60b3 9cbe bc50 0e3e
000000c0: 3128 8abe 2fb7 e53d 1390 29be 340e 183e
000000d0: 6076 443e a810 983e 7a65 81bd ba50 f63d
000000e0: a67e 8e3e 585e 143d f52d 15be b4ee 29bc
000000f0: 4a3d 27be 88e6 593e d05b 94be 9b74 0f3d

feature_exact.m_encoder.linears.0.bias f4 [8]
-0.08775741 0.18810788 -0.3524237 0.016175024 -0.27322078 -0.20635524 0.3467936 -0.19666407
00000000: 28ba b3bd 5a9f 403e e170 b4be 7c81 843c
00000010: 98e3 8bbe ca4e 53be ee8e b13e 4e62 49be

feature_exact.m_encoder.linears.1.weight f4 [8, 8]
0.10985323 0.10962007 -0.03904455 0.1820511 0.07832435 0.36757123 0.043778837 -0.31093994
0.082593165 0.013170931 0.16667967 0.32632703 0.06346343 0.094301164 -0.19181538 0.028392
0.1080024 0.20092663 -0.10022677 0.26526186 0.09296249 -0.105296396 -0.03428284 -0.1781511
0.17974007 -0.0704258 0.009796544 0.038338274 0.04805715 0.1916758 0.25163397 -0.12324225
-0.20779577 -0.15384203 0.35400018 -0.04189456 -0.116383135 0.1218041 -0.29416844 -0.051849756
0.32916433 0.1277337 -0.31689882 0.3058855 -0.15287125 -0.15407594 -0.25267804 -0.3595135
0.36742973 0.10694639 0.25183827 0.038491156 -0.26311472 -0.20324959 -0.24009311 0.26361823
-0.23928165 -0.11509863 0.28710732 0.3110682 0.05048853 -0.27322024 -0.2980755 0.26816297
00000000: bbfa e03d 7d80 e03d 2eed 1fbd 9b6b 3a3e
00000010: 8468 a03d 4c32 bc3e 7051 333d 8533 9fbe
00000020: 9b26 a93d e3ca 573c 13ae 2a3e 5614 a73e
00000030: 1df9 813d f820 c13d 406b 44be 5796 e83c
00000040: 5d30 dd3d b6bf 4d3e b143 cdbd 67d0 873e
00000050: 1e63 be3d a3a5 d7bd 2a6c 0cbd 3e6d 36be
00000060: c80d 383e 673b 90bd af81 203c 9808 1d3d
00000070: 93d7 443d a946 443e 2bd6 803e 6f66 fcbd
00000080: 6ac8 54be c488 1dbe 833f b53e a199 2bbd
00000090: 485a eebd 6e74 f93d 3f9d 96be 6960 54bd
000000a0: 3a88 a83e a0cc 023e 9040 a2be 069d 9c3e
000000b0: 488a 1cbe 15c6 1dbe 045f 81be 2712 b8be
000000c0: c01f bc3e b506 db3d f2f0 803e e7a8 1d3d
000000d0: f9b6 86be a920 50be f8da 75be f8f8 863e
000000e0: 4006 75be d5b8 ebbd bbff 923e 5544 9f3e
000000f0: 10cd 4e3d 86e3 8bbe 5a9d 98be a84c 893e

feature_exact.m_encoder.linears.1.bias f4 [8]
0.11975111 -0.004478479 -0.30141658 -0.16224743 -0.09783397 -0.20510486 0.07970014 0.24355826
00000000: 1240 f53d 34c0 92bb 4653 9abe 3124 26be
00000010: 2d5d c8bd 0207 52be d439 a33d 5667 793e

feature_exact.m_encoder.linears.2.weight f4 [8, 8]
0.13223943 0.23773524 0.046078026 0.20421006 0.26342928 -0.3318385 -0.09376661 -0.28321323
0.15627295 -0.037261613 -0.27372217 0.011437234 0.2424378 -0.12928349 0.03804301 0.24812469
-0.3260746 -0.060989723 -0.21581374 0.12685609 0.20664166 0.17671852 -0.18374892 0.30654216
-0.03791718 0.20215847 0.111059844 -0.052538864 -0.004993924 0.052663997 0.047678843 -0.2745456
-0.055641465 -0.027426463 -0.18302251 0.19286835 -0.19074789 -0.13363548 -0.11195969 0.22138871
-0.33683863 -0.25657004 0.14199805 -0.2622016 -0.23889345 -0.1381957 -0.28440094 0.060172997
0.16552326 -0.18194734 0.24298605 -0.1368039 -0.2528933 0.38270396 0.064866826 0.15363546
0.04680901 -0.22907734 0.19276205 0.15911399 0.10500487 -0.16063616 0.021023683 -0.2636313
00000000: c669 073e de70 733e 50bc 3c3d 711c 513e
00000010: 34e0 863e bce6 a9be b508 c0bd 5301 91be
00000020: 0406 203e a29f 18bd 5025 8cbe 3c63 3b3c
00000030: 9d41 783e e462 04be fdd2 1b3d 6614 7e3e
00000040: 40f3 a6be 5cd0 79bd 47fe 5cbe 90e6 013e
00000050: df99 533e b3f5 343e ad28 3cbe 18f3 9c3e
00000060: 0c4f 1bbd a102 4f3e 5873 e33d fe32 57bd
00000070: 12a4 a3bb 34b6 573d e44a 433d 3e91 8cbe
00000080: 4ee8 63bd 76ad e0bc 416a 3bbe 487f 453e
00000090: 6a53 43be bdd7 08be 1f4b e5bd b9b3 623e
000000a0: 1d76 acbe 265d 83be f067 113e 4a3f 86be
000000b0: 7ca0 74be 2c83 0dbe 009d 91be f677 763d
000000c0: ee7e 293e 6750 3abe 56d1 783e 5216 0cbe
000000d0: 3b7b 81be c6f1 c33e e6d8 843d 9d52 1d3e
000000e0: ceba 3f3d 4093 6abe 6a63 453e c7ee 223e
000000f0: cb0c d73d ce7d 24be dc39 ac3c affa 86be

feature_exact.m_encoder.linears.2.bias f4 [8]
-0.09816869 -0.11626065 -0.081329696 -0.017099502 -0.1329482 0.31942403 0.32787758 -0.1423715
00000000: ab0c c9bd 101a eebd 2f90 a6bd 4114 8cbc
00000010: 9323 08be 8c8b a33e 92df a73e d6c9 11be

feature_exact.j_ln.weight f4 [8]
1.0049716 1.0145142 1.0751745 1.073658 1.0032257 1.0096898 1.0285745 1.0131679
00000000: e9a2 803f 9adb 813f 519f 893f a06d 893f
00000010: b369 803f 843d 813f 54a8 833f 7caf 813f

feature_exact.j_ln.bias f4 [8]
0.0025319695 0.0030618238 -0.017886512 0.028885705 -0.0017014974 -0.0062183854 0.016765634 -0.0036459856
00000000: 66ef 253b e1a8 483b bc86 92bc b7a1 ec3c
00000010: c704 dfba 99c3 cbbb 1558 893c 7df1 6ebb

feature_exact.m_ln.weight f4 [8]
0.9920259 0.9863072 1.0039057 0.9929734 0.9935967 0.9818845 0.9802929 1.0067312
00000000: 69f5 7d3f a17e 7c3f fb7f 803f 8133 7e3f
00000010: 5a5c 7e3f c85c 7b3f 7af4 7a3f 91dc 803f

feature_exact.m_ln.bias f4 [8]
0.0043607587 0.002554371 -0.0031542678 0.0055828723 0.0051307785 -0.017048417 -0.019717311 -0.0047676037
00000000: b2e4 8e3b 3c67 273b d5b7 4ebb 87f0 b63b
00000010: 1720 a83b 1fa9 8bbc 3386 a1bc 8f39 9cbb

actor.linears.0.weight f4 [64, 40]
-0.044862963 0.10517063 -0.04544522 0.026222218 0.05074417 0.08505759 -0.13456647 -0.04834996
0.0308339 -0.045658614 -0.17550482 0.16593683 0.02249007 -0.09749231 0.0628241 0.12173119
-0.09570457 -0.12134046 -0.13734494 0.13429475 -0.15250415 0.068246424 0.13006775 0.040883694
-0.07699909 -0.019451257 -0.09216692 -0.15950485 0.10664084 -0.09861625 -0.033894576 0.100177705
0.025688099 -0.13446863 -0.118950285 -0.109920375 0.036055934 0.102861114 -0.15464726 0.099170126
-0.05624893 -0.06488288 0.122278474 0.06488003 0.087779276 0.1294009 0.06997319 -0.04824831
0.10626449 -0.0029211198 0.02190781 0.08479142 -0.116386205 -0.04009975 -0.051189326 -0.00038949322
0.16812243 0.06568469 0.095429234 -0.10965332 -0.0657905 0.061413195 0.002779362 0.019490423
0.03492971 -0.07121416 -0.15497763 -0.11887661 -0.11759616 -0.10499361 -0.05774587 -0.032651648
-0.044028018 -0.19557627 -0.02386619 0.08865901 -0.07747164 0.03795131 -0.07574215 0.04185439
0.035911374 0.0042783776 0.08888545 0.05976278 0.015961615 -0.014460407 -0.06281779 0.08952485
-0.14920293 -0.13861571 0.16004834 0.069986284 0.028674908 0.0046499143 -0.12665652 0.13265158
-0.08762963 -0.11787143 -0.054307733 0.1044692 -0.04103623 -0.006169504 0.0825596 -0.0443325
-0.09369392 -0.030316789 0.08401624 0.029571434 -0.093868606 0.14719875 0.07799015 0.13690266
-0.09741619 0.0344222 0.12703834 0.01790174 0.026796067 0.062961236 -0.09221665 -0.0744525
0.14093 0.003575603 0.17341293 -0.11117397 -0.07171132 0.04926854 -0.026494345 -0.11332023
0.027914174 0.11786085 0.12407117 0.018892175 -0.09077941 -0.011886649 0.023240374 0.017622119
0.020519547 -0.13754179 -0.12489337 -0.08027955 -0.048834935 -0.12939103 -0.080391474 -0.041215725
-0.03897595 0.13708822 0.096357785 0.055389397 0.043794647 0.03831855 -0.04804549 0.09524008
0.059779435 0.07135601 -0.03257626 -0.18361022 -0.19671905 0.08271105 -0.02412182 0.1524771
0.054759588 0.13414443 -0.055835634 0.14716114 0.0051930007 -0.055338982 -0.10770701 0.060894668
0.094924085 -0.11792855 -0.018880142 0.03938335 0.114560924 -0.03903912 -0.10494028 -0.0013868741
-0.07518655 0.0034181783 0.007017433 -0.030869273 0.11089358 0.033296257 0.014408025 0.028655794
-0.20361057 -0.13249743 0.09643681 -0.023814736 -0.105465986 0.09390786 -0.0056088185 -0.1395345
0.115278 0.15586142 -0.08863345 -0.009195768 0.13745482 0.1453794 0.1408705 -0.13672969
0.052561004 0.06622725 -0.20521598 -0.0062880274 0.10943952 0.023682209 0.15130071 -0.03119799
-0.09920914 0.15253304 0.1037921 -0.12812583 0.12972154 -0.0059591355 -0.06784956 0.009645013
0.0542008 -0.12693049 -0.13429683 0.00806265 -0.112913296 0.053356763 -0.0871929 0.04286821
0.055991556 -0.015573795 0.13783048 -0.14704761 0.030091261 -0.10407764 -0.0465233 -0.06378147
-0.042943172 0.19149487 0.06757829 -0.002917872 0.052279327 0.09241745 -0.08584378 -0.12863076
-0.1040489 0.18148951 -0.08161667 -0.11242488 0.054022804 0.049834397 0.03675049 0.1015367
-0.04982432 -0.14816533 0.06653002 -0.009693481 -0.047281466 -0.028058356 -0.14075461 -0.13018726
00000000: 3ac2 37bd b363 d73d c424 3abd facf d63c
00000010: 1ed9 4f3d ac32 ae3d cbcb 09be 9c0a 46bd
00000020: 6097 fc3c 8704 3bbd 89b7 33be 58eb 293e
00000030: 183d b83c 0caa c7bd eca9 803d 344e f93d
00000040: c200 c4bd 5981 f8bd 27a4 0cbe 9084 093e
00000050: 0c2a 1cbe c8c4 8b3d 7b30 053e a975 273d
00000060: b3b1 9dbd 3e58 9fbc 03c2 bcbd 3d55 23be
00000070: 8366 da3d 51f7 c9bd 0ad5 0abd f829 cd3d
00000080: d96f d23c 25b2 09be 359c f3bd ef1d e1bd
00000090: 63af 133d d9a8 d23d da5b 1ebe b519 cb3d
000000a0: 4765 66bd 51e1 84bd 236d fa3d d2df 843d
000000b0: 9fc5 b33d ab81 043e 1b4e 8f3d 05a0 45bd
000000c0: 32a1 d93d 4270 3fbb 0278 b33c 20a7 ad3d
000000d0: e45b eebd a33f 24bd e6ab 51bd e534 ccb9
000000e0: 4928 2c3e b285 863d 6770 c33d eb91 e0bd
000000f0: 2bbd 86bd 678c 7b3d f525 363b 61aa 9f3c
00000100: 7512 0f3d bbd8 91bd 75b2 1ebe 9575 f3bd
00000110: 41d6 f0bd e406 d7bd ef86 6cbd bcbd 05bd
00000120: b956 34bd 2545 48be 0783 c3bc db92 b53d
00000130: 74a9 9ebd d572 1b3d b31e 9bbd 826f 2b3d
00000140: ce17 133d a231 8c3b 9309 b63d d1c9 743d
00000150: efc1 823c 58eb 6cbc 9da6 80bd ce58 b73d
00000160: a7c8 18be 47f1 0dbe b6e3 233e f854 8f3d
00000170: a4e7 ea3c 4f5e 983b 3fb2 01be d1d5 073e
00000180: 2a77 b3bd 9466 f1bd c971 5ebd f3f3 d53d
00000190: 9b15 28bd 8d29 cabb 0215 a93d ff95 35bd
000001a0: 99e2 bfbd ea5a f8bc b510 ac3d cb3f f23c
000001b0: 2f3e c0bd 45bb 163e 4db9 9f3d 3630 0c3e
000001c0: 2482 c7bd 4bfe 0c3d 5716 023e aba6 923c
000001d0: 6d83 db3c d2f1 803d 15dc bcbd 8d7a 98bd
000001e0: f44f 103e aa54 6a3b 2993 313e 2eaf e3bd
000001f0: 62dd 92bd cfcd 493d ab0a d9bc 7014 e8bd
00000200: 44ac e43c 0861 f13d 0719 fe3d c3c3 9a3c
00000210: 8eea b9bd 38c0 42bc 9962 be3c 435c 903c
00000220: 9c18 a83c c1d7 0cbe 18c8 ffbd 9b69 a4bd
00000230: 2407 48bd 157f 04be 49a4 a4bd d2d1 28bd
00000240: 3fa5 1fbd db60 0c3e 3b57 c53d fedf 623d
00000250: 0462 333d e9f3 1c3d 59cb 44bd 3b0d c33d
00000260: 48db 743d 1a23 923d af6e 05bd 5104 3cbe
00000270: b870 49be 6964 a93d 209b c5bc f522 1c3e
00000280: 974b 603d 285d 093e e8b3 64bd 69b1 163e
00000290: 0c2a aa3b 21ab 62bd 7e95 dcbd b06c 793d
000002a0: 8f67 c23d 8684 f1bd 87aa 9abc 7050 213d
000002b0: eb9e ea3d 7ce7 1fbd eeea d6bd c6c7 b5ba
000002c0: 68fb 99bd 8403 603b 7ff2 e53b 8fe1 fcbc
000002d0: 2c1c e33d a861 083d a30f 6c3c 8ebf ea3c
000002e0: 4a7f 50be 68ad 07be aa80 c53d 1f17 c3bc
000002f0: 8dfe d7bd c452 c03d 2eca b7bb 22e2 0ebe
00000300: df16 ec3d 239a 1f3e 7485 b5bd d9a9 16bc
00000310: f5c0 0c3e 56de 143e 5b40 103e de02 0cbe
00000320: 354a 573d 27a2 873d 2324 52be cc0b cebb
00000330: d421 e03d 3101 c23c 93ee 1a3e ed92 ffbc
00000340: 292e cbbd 9f31 1c3e f490 d43d 6b33 03be
00000350: b9d5 043e da44 c3bb b6f4 8abd 1e06 1e3c
00000360: a801 5e3d 11fa 01be 1c85 09be 3519 043c
00000370: 163f e7bd 9f8c 5a3d 3192 b2bd 9396 2f3d
00000380: 6757 653d 3b29 7fbc 6f23 0d3e a693 16be
00000390: f381 f63c a826 d5bd 378f 3ebd dc9f 82bd
000003a0: 2ee5 2fbd 3b17 443e 7d66 8a3d c539 3fbb
000003b0: d922 563d 5c45 bd3d ddce afbd c8b7 03be
000003c0: 9717 d5bd 63d8 393e a426 a7bd 043f e6bd
000003d0: 0447 5d3d 271f 4c3d af87 163d 79f2 cf3d
000003e0: 9614 4cbd a7b8 17be e440 883d 68d1 1ebc
000003f0: 36aa 41bd a3da e5bc fa21 10be cf4f 05be

actor.linears.0.bias f4 [64]
0.04539711 0.14078857 0.06114009 -0.08125961 0.032306377 -0.05185048 -0.09534675 -0.04577585
-0.16077386 -0.08253202 0.08923471 -0.10190336 0.009529702 -0.1507609 0.018347368 -0.14157018
0.13370101 -0.14749116 -0.07312977 -0.064934246 -0.016679592 -0.0062049753 0.1097532 -0.04011595
0.19709998 -0.011465003 -0.12955055 0.007388378 -0.20449941 0.10467754 0.14296053 0.13197143
-0.008794098 -0.027495228 -0.09546758 -0.076015115 -0.097309306 -0.14022717 -0.1078709 0.022041928
-0.07022507 0.11081882 -0.1510892 -0.063921586 -0.014070818 0.04403972 0.098013826 -0.088583164
0.1580077 -0.005449001 -0.12854354 -0.085276574 -0.046505358 -0.009683343 -0.086277045 -0.020248096
-0.0037576251 -0.03253957 0.14963281 -0.04667496 0.079481736 -0.07696037 -0.11493931 0.10342792
00000000: 52f2 393d e12a 103e 086e 7a3d 706b a6bd
00000010: b153 043d 2b61 54bd 2845 c3bd 757f 3bbd
00000020: e7a1 24be 8c06 a9bd b0c0 b63d b5b2 d0bd
00000030: 7822 1c3c 1161 1abe 384d 963c c6f7 10be
00000040: ebe8 083e ec07 17be 10c5 95bd 3ffc 84bd
00000050: a4a3 88bc 1b53 cbbb 49c6 e03d 9f50 24bd
00000060: 94d4 493e b5d7 3bbc e6a8 04be 351a f23b
00000070: 4b68 51be 2e61 d63d 3f64 123e 8523 073e
00000080: 1f15 10bc ac3d e1bc 8284 c3bd d0ad 9bbd
00000090: 1a4a c7bd b697 0fbe 6beb dcbd 4691 b43c
000000a0: 29d2 8fbd faf4 e23d 21b7 1abe 52e9 82bd
000000b0: 4a89 66bc fe62 343d 79bb c83d 176b b5bd
000000c0: c5cc 213e 898d b2bb eba0 03be 7ca5 aebd
000000d0: 677c 3ebd e2a6 1ebc 05b2 b0bd 56df a5bc
000000e0: 7d42 76bb 3648 05bd 5839 193e 3e2e 3fbd
000000f0: 52c7 a23d 669d 9dbd 4d65 ebbd 04d2 d33d

actor.linears.1.weight f4 [64, 64]
-0.08706208 0.076943174 0.043600038 0.084355764 -0.044833712 0.11246443 -0.17043106 -0.02338947
-0.012911546 0.0073142373 -0.11852826 -0.036613468 0.06276916 0.009595703 0.008578614 0.06969775
0.11942434 -0.09994015 -0.16659467 0.112055905 -0.057260614 -0.048650105 -0.019487297 0.04213351
-0.040253427 0.088651925 0.11052954 -0.04896847 -0.016484082 -0.004300469 0.089318916 0.001381791
-0.07868129 -0.0063346284 0.020011393 -0.001909379 -0.0547561 -0.13271515 -0.10252909 0.09374084
0.054010924 -0.002561917 -0.00101085 0.021576708 -0.00071654114 0.14108892 -0.07548368 -0.0803446
0.047133923 -0.1302625 0.08502755 -0.07417362 -0.15454201 0.0049976944 -0.06434681 0.07006853
0.04525391 -0.06117317 -0.11405148 -0.050367493 -0.045482516 0.051799126 -0.08330064 -0.013534785
0.026338266 0.018088978 0.0027686076 -0.08864676 0.016764095 0.07624291 0.16133896 -0.09903475
0.1260176 -0.098178744 0.037006713 -0.09993622 0.076716945 0.08025729 -0.10512868 -0.08888838
-0.09002092 0.034834936 0.049823217 -0.05248632 -0.07830059 -0.16923656 0.104984604 -0.04334889
0.04795209 -0.14820111 -0.08027119 0.07778042 -0.12109466 -0.14818019 0.035134148 0.093031265
0.04095074 -0.067504704 0.04087779 -0.05943896 0.09417889 0.033254687 9.002183e-06 0.01105372
-0.0911211 0.012043221 0.021491418 0.10499952 0.03650658 -0.09776328 0.087311044 -0.06789019
0.14365658 -0.003331 -0.10005424 0.06139845 0.16024916 -0.178308 -0.055845886 0.009410822
0.14951144 -0.10957719 0.021076694 -0.08476494 0.02393845 0.009063546 0.10940697 0.008519967
0.10952538 -0.0052809636 0.026944868 0.09426834 0.14731534 -0.0037734855 0.043320484 -0.03286759
0.034674365 -0.02309551 -0.05846203 0.04792029 -0.08128001 0.11662288 -0.108348876 0.022932269
-0.119222015 0.100608535 0.08232315 -0.07058596 -0.120423056 -0.03777466 -0.045441825 -0.15965666
0.03293596 0.044008676 0.041336566 0.09021683 -0.12486612 0.05681594 0.07111467 -0.073493585
0.087610826 0.104957916 0.009066904 -0.03840213 0.046997085 -0.09101068 -0.08977225 -0.18409085
0.05152587 -0.0654726 -0.08668935 0.12662642 0.021441115 -0.105427936 0.06954454 -0.09178998
0.04004884 0.022065444 -0.05904453 0.10072419 -0.03360266 -0.12915558 0.0044543957 -0.11089492
0.15459082 -0.13929056 -0.0848266 -0.13321857 0.026386518 0.056570884 0.017297849 -0.06100505
-0.09564014 0.041953765 -0.12770113 0.057700545 -0.055618025 -0.05959721 -0.045122895 -0.027965872
-0.09558358 0.106207214 -0.048461955 -0.040393174 -0.012642029 -0.12138358 0.13644916 0.0010589657
0.04037013 -0.14077234 0.061270665 0.09022537 0.10203146 0.03665179 -0.06151146 0.08087086
0.12138168 0.15902255 0.010180989 0.102111794 0.04546073 0.05497578 0.134624 0.077445306
0.026991202 0.030779354 -0.11473144 -0.01350321 -0.031058023 0.078827776 0.0988287 -0.049068566
0.00061386736 0.10826414 -0.07559603 -0.063561924 0.0026392417 0.048954498 0.028546134 -0.08489446
0.07526268 0.045354754 0.023389151 0.011938721 0.0509972 0.17283453 0.04241875 0.088859856
-0.17340556 0.10455613 -0.07100777 -0.01112119 -0.050030425 0.11267284 -0.10854321 -0.0013953465
00000000: 9b4d b2bd 6294 9d3d f495 323d b7c2 ac3d
00000010: 8ea3 37bd c053 e63d 7b85 2ebe 469b bfbc
00000020: f38a 53bc 45ac ef3b f2be f2bd 01f8 15bd
00000030: 1e8d 803d 4c37 1d3c 518d 0c3c b2bd 8e3d
00000040: c094 f43d 6cad ccbd cb97 2abe 917d e53d
00000050: 1b8a 6abd 5545 47bd d3a3 9fbc 3094 2c3d
00000060: c7e0 24bd 248f b53d 505d e23d 2a93 48bd
00000070: a009 87bc f3ea 8cbb d6ec b63d 361d b53a
00000080: a823 a1bd b792 cfbb efee a33c 2144 faba
00000090: ef47 60bd 7be6 07be c6fa d1bd 33fb bf3d
000000a0: 8f3a 5d3d d6e5 27bb 7f7e 84ba a3c1 b03c
000000b0: 43d6 3bba 9d79 103e 3097 9abd b68b a4bd
000000c0: 800f 413d 8863 05be ed22 ae3d 57e8 97bd
000000d0: 4340 1ebe b3c3 a33b 43c8 83bd 1780 8f3d
000000e0: 2a5c 393d b890 7abd d393 e9bd 254e 4ebd
000000f0: e04b 3abd 522b 543d 8799 aabd 01c1 5dbc
00000100: 59c3 d73c 562f 943c 8771 353b 6f8c b5bd
00000110: db54 893c 3e25 9c3d 0a36 253e bbd2 cabd
00000120: c20a 013e f011 c9bd 5a94 173d 5cab ccbd
00000130: c61d 9d3d ef5d a43d b54d d7bd 1c0b b6bd
00000140: e35c b8bd 14af 0e3d 6e13 4c3d e5fb 56bd
00000150: 0f5c a0bd 594c 2dbe 2b02 d73d 9b8e 31bd
00000160: 6969 443d 08c2 17be 3965 a4bd 574b 9f3d
00000170: 7a00 f8bd 8cbc 17be d3e8 0f3d 2d87 be3d
00000180: f7bb 273d e83f 8abd 786f 273d 4476 73bd
00000190: dde0 c03d 1136 083d 1508 1737 a91a 353c
000001a0: b39d babd ee50 453c c50e b03c fd09 d73d
000001b0: ec87 153d 1d38 c8bd 22d0 b23d 030a 8bbd
000001c0: b61a 133e e84c 5abb 3de9 ccbd f17c 7b3d
000001d0: 5b18 243e 5f96 36be a8be 64bd d92f 1a3c
000001e0: 8719 193e 016a e0bd 08a9 ac3c 3e99 adbd
000001f0: 911a c43c 447f 143c c310 e03d 5597 0b3c
00000200: d84e e03d ef0b adbb 7cbb dc3c c20f c13d
00000210: d5d9 163e 954c 77bb d270 313d 2ba0 06bd
00000220: b506 0e3d cc32 bdbc e275 6fbd 1148 443d
00000230: 2276 a6bd fad7 ee3d 04e6 ddbd 74dc bb3c
00000240: ac2a f4bd d90b ce3d 0a99 a83d 5f8f 90bd
00000250: 5da0 f6bd 9ab9 1abd 3521 3abd 097d 23be
00000260: dbe7 063d 7142 343d 8850 293d 9ac3 b83d
00000270: cfb9 ffbd d5b7 683d 91a4 913d ce83 96bd
00000280: 4e6d b33d 2df4 d63d 5a8d 143c 8d4b 1dbd
00000290: 0480 403d cf63 babd 83da b7bd 5082 3cbe
000002a0: ca0c 533d 8016 86bd 308a b1bd 5baa 013e
000002b0: 47a5 af3c 9aea d7bd 5e6d 8e3d 63fc bbbd
000002c0: 410a 243d 97c2 b43c add8 71bd 7c48 ce3d
000002d0: f1a2 09bd 5c41 04be 2ef6 913b e01c e3bd
000002e0: 0e4d 1e3e 2fa2 0ebe 92b9 adbd 736a 08be
000002f0: 8a28 d83c dfb6 673d 38b4 8d3c 6ee0 79bd
00000300: fade c3bd b6d7 2b3d 16c4 02be 6857 6c3d
00000310: bacf 63bd 341c 74bd c9d2 38bd af18 e5bc
00000320: 53c1 c3bd 2b83 d93d 0b80 46bd 5073 25bd
00000330: 8320 4fbc f497 f8bd 54b9 0b3e fecc 8a3a
00000340: 265b 253d a026 10be f3f6 7a3d 14c8 b83d
00000350: dff5 d03d 3020 163d 71f3 7bbd 9f9f a53d
00000360: f596 f83d cfd6 223e 2ace 263c fd1f d13d
00000370: 0835 3a3d 492e 613d e0da 093e a59b 9e3d
00000380: a71c dd3c fc24 fc3c 51f8 eabd 913c 5dbc
00000390: 656d febc 7570 a13d b466 ca3d 1ffc 48bd
000003a0: f1eb 203a 97b9 dd3d 17d2 9abd c12c 82bd
000003b0: 21f7 2c3b 8384 483d 95d9 e93c 26dd adbd
000003c0: 5223 9a3d e8c5 393d 9b9a bf3c a09a 433c
000003d0: 71e2 503d 89fb 303e 48bf 2d3d 28fc b53d
000003e0: 3a91 31be 8621 d63d 866c 91bd a735 36bc
000003f0: b4ec 4cbd 05c1 e63d e74b debd 0fe4 b6ba

actor.linears.1.bias f4 [64]
0.016895873 -0.023595104 0.050005518 -0.037815068 0.088092744 0.052101 -0.008379806 -0.009129465
0.11787991 0.01871742 -0.1368422 0.079429135 -0.06801172 -0.052527763 -0.091943346 0.077265516
0.0086295 -0.06148974 0.065974504 -0.0472758 0.07385427 0.015497246 0.07609962 -0.086960286
0.019282933 0.02266895 0.040282782 0.024181781 -0.014026182 0.026654014 0.026874086 0.008162185
-0.03934282 -0.06373883 -0.102147825 0.026805958 -0.06022167 0.12590168 0.021529837 0.067874394
0.0038161445 0.0009150464 -0.022461398 0.041307498 0.06538394 -0.0028406444 -0.14147018 -0.071581505
-0.06715864 -0.030065864 0.08298604 -0.07231833 0.021604344 0.06585918 0.10350347 -0.04823004
-0.08346866 0.06691487 0.05776547 0.0650984 0.09615417 0.034210876 0.033332046 0.03892007
00000000: 3769 8a3c 854a c1bc 96d2 4c3d f9e3 1abd
00000010: f869 b43d dc67 553d 744b 09bc c093 15bc
00000020: 066b f13d 4655 993c 5d20 0cbe beab a23d
00000030: bb49 8bbd 5a27 57bd cb4c bcbd 623d 9e3d
00000040: bf62 0d3c aadc 7bbd a41d 873d 45a4 41bd
00000050: e840 973d 29e8 7d3c 1eda 9b3d 3c18 b2bd
00000060: 3ef7 9d3c 3cb4 b93c 8fff 243d df18 c63c
00000070: 12ce 65bc 8559 da3c 0b27 dc3c afba 053c
00000080: f025 21bd 8189 82bd e132 d1bd 2b98 db3c
00000090: ffaa 76bd 5fec 003e 575f b03c bb01 8b3d
000000a0: 4818 7a3b b9df 6f3a f700 b8bc 0d32 293d
000000b0: 04e8 853d 1b2a 3abb 8fdd 10be 5399 92bd
000000c0: 788a 89bd b04c f6bc 96f4 a93d a21b 94bd
000000d0: 98fb b03c 2ee1 863d a1f9 d33d dd8c 45bd
000000e0: 9ef1 aabd aa0a 893d 7c9b 6c3d 4f52 853d
000000f0: 7aec c43d b420 0c3d 2f87 083d a76a 1f3d

actor.linears.2.weight f4 [1, 64]
0.03461318 -0.09334566 -0.10548931 0.12082657 -0.16444872 -0.09396766 -0.10417868 0.066974916
0.058543507 0.12436529 -0.14436936 -0.1915556 -0.108797364 -0.104522906 -0.048018143 0.1801119
0.17473416 0.17316145 0.16407308 0.10792091 0.14098665 0.11011246 0.077589974 -0.14190465
-0.12945658 -0.14649965 -0.04031792 -0.095180325 0.14895934 0.1775125 -0.083933696 -0.072601624
-0.13290642 0.056686025 -0.08958537 0.13694085 0.16821009 0.15350327 -0.18199718 0.0623128
0.083869636 -0.14095472 0.069358975 -0.12620413 -0.086546 -0.101660974 -0.0073527447 -0.08115478
0.112549625 -0.11720529 0.086014174 0.08983629 -0.056442052 0.15097685 -0.17840582 -0.12575664
-0.06863673 -0.15406872 -0.16047494 -0.018389095 0.10360095 -0.077142894 -0.1441089 -0.18063676
00000000: 8dc6 0d3d 022c bfbd c80a d8bd ec73 f73d
00000010: 3f65 28be 1e72 c0bd a25b d5bd 252a 893d
00000020: 51cb 6f3d 3bb3 fe3d 90d5 13be 2727 44be
00000030: 27d1 debd 1b10 d6bd acae 44bd 416f 383e
00000040: 83ed 323e 3c51 313e c602 283e a305 dd3d
00000050: ce5e 103e a482 e13d 7ee7 9e3d 744f 11be
00000060: 4490 04be 0104 16be 6724 25bd e7ed c2bd
00000070: cc88 183e d6c5 353e 6ee5 abbd 29b0 94bd
00000080: 9f18 08be 9b2f 683d 8978 b7bd 393a 0c3e
00000090: 443f 2c3e f62f 1d3e 785d 3abe b53b 7f3d
000000a0: d8c3 ab3d 6f56 10be 140c 8e3d a83b 01be
000000b0: 073f b1bd a133 d0bd 4bef f0bb 7a34 a6bd
000000c0: 6b80 e63d 5409 f0bd 3328 b03d 17fc b73d
000000d0: c82f 67bd ad99 1a3e 04b0 36be 59c6 00be
000000e0: 6a91 8cbd 31c4 1dbe 8b53 24be baa4 96bc
000000f0: bc2c d43d 18fd 9dbd 4991 13be d8f8 38be

critic.linears.0.weight f4 [64, 16]
-0.0536054 0.0078561315 0.03733925 0.22139807 -0.04281785 0.15050761 0.1512779 0.153005
0.021329856 0.0029338952 0.046874925 -0.1371487 -0.18095903 -0.03225919 -0.09832855 -0.2099319
0.0020791716 -0.19589809 -0.20821416 0.24829939 -0.19477786 -0.21095376 -0.006904234 -0.08615543
0.10808256 -0.055647656 0.1393559 -0.20311318 -0.054482266 -0.21386658 0.19175486 -0.1522442
0.09895541 0.014859986 0.30054727 0.015495212 -0.18238889 -0.014033957 -0.15676492 -0.22986525
-0.07719467 -0.019039452 -0.005827327 0.077888735 -0.07700697 0.1485481 -0.0694483 0.12510526
-0.06936941 0.0761424 0.031781543 -0.17045796 -0.15475392 0.1342298 0.035244543 -0.1864591
-0.17123242 -0.16126706 0.03438689 0.20787647 0.05628289 0.016508099 -0.19630817 0.16820984
-0.062151913 -0.15080144 0.16096486 -0.07896177 0.04795817 -0.05673401 0.11695264 -0.2325459
0.044210125 -0.22821319 0.2036855 -0.23066577 0.2167342 0.041202307 -0.0416078 0.24795316
0.002071581 0.16042453 -0.07880166 -0.31022838 -0.15792187 -0.20849489 -0.2098619 -0.16720115
0.18601361 -0.0743732 -0.15173967 -0.17721649 -0.061302464 -0.09000429 -0.04989264 0.008977448
-0.20513232 0.17291547 -0.1823047 0.097830385 -0.20596428 -0.07163414 -0.2418989 -0.1917256
0.13341837 -0.056987945 0.0064120223 -0.10573021 -0.18737535 0.14230071 0.08841681 -0.007325638
0.20798635 -0.036711607 0.2998457 -0.13076131 0.13612276 0.01900369 -0.2230803 -0.15815663
0.21657626 -0.14139499 0.15033641 -0.23662034 -0.18369834 0.12006108 0.11617838 -0.1891086
0.0031899782 0.09127474 0.015340885 -0.26533926 0.16747938 0.15570696 0.24884212 0.09306571
0.22996542 -0.25421596 -0.03863239 0.08922308 -0.1275558 -0.1326484 -0.025465239 -0.008309414
0.15812999 -0.07402451 0.117602 -0.02672834 -0.059312195 0.13856854 0.22876094 -0.22746725
0.1923447 0.033265624 0.16220592 0.13552299 -0.014111529 0.16816385 -0.08913187 0.022573795
-0.18267016 -0.0049980604 -0.16425386 -0.15137215 -0.009378078 0.18864943 -0.00831029 -0.0056561115
0.08676905 0.105457455 -0.23476708 -0.16919723 0.072236925 -0.20067084 0.1656018 0.17150533
-0.16209832 0.059665367 0.113541335 0.25218773 -0.06961316 -0.1513818 -0.13997927 0.14758974
0.03255634 0.06037105 -0.042996295 -0.009289029 0.065382116 -0.16359682 -0.23961468 -0.25561637
0.038862992 -0.13543783 -0.057917435 0.23971088 -0.124692775 -0.19459754 0.05926189 0.10294761
0.1390019 0.020094316 0.03569925 -0.09656194 0.11456862 -0.24044067 0.008242886 0.15570383
0.041626655 0.10764605 0.21144052 -0.06625378 0.049510933 0.044499557 0.16102937 0.16631243
0.2397081 0.23714478 -0.17282908 0.1256342 -0.16250348 -0.025168955 -0.18420205 -0.2086022
-0.20395026 -0.187113 0.03323221 -0.1478407 0.17029816 0.117772825 -0.10069906 0.21068583
-0.09295369 0.11823363 -0.124078706 0.11118566 0.22034074 -0.085701376 -0.040974025 -0.094805084
0.1716283 0.11851925 -0.030763885 -0.10393994 -0.15264845 0.10777198 0.17073575 -0.231341
0.008782028 -0.1912347 0.1265023 -0.016311843 0.1789859 0.0154857505 -0.09064125 -0.18102041
00000000: 5691 5bbd 01b7 003c 0bf1 183d 2db6 623e
00000010: c561 2fbd ab1e 1a3e 98e8 1a3e 58ad 1c3e
00000020: f3bb ae3c 9846 403b ecff 3f3d b570 0cbe
00000030: 534d 39be 3622 04bd 7b60 c9bd 63f8 56be
00000040: b642 083b 8299 48be 1836 55be 3242 7e3e
00000050: d973 47be 4304 58be ea3c e2bb 4272 b0bd
00000060: 645a dd3d ccee 63bd 50b3 0e3e e7fc 4fbe
00000070: cc28 5fbd d7ff 5abe 635b 443e e7e5 1bbe
00000080: 22a9 ca3d 4c77 733c 55e1 993e a1df 7d3c
00000090: 27c4 3abe afee 65bc fc86 20be cc61 6bbe
000000a0: 3d18 9ebd a0f8 9bbc 29f3 bebb 2184 9f3d
000000b0: d5b5 9dbd fe1c 183e e93a 8ebd 981b 003e
000000c0: 8d11 8ebd 8cf0 9b3d 5d2d 023d 888c 2ebe
000000d0: d077 1ebe 8973 093e 955c 103d 22ef 3ebe
000000e0: 8d57 2fbe 3123 25be 44d9 0c3d 92dd 543e
000000f0: e388 663d fe3b 873c 0205 49be 333f 2c3e
00000100: 0193 7ebd b16b 1abe f9d3 243e b5b6 a1bd
00000110: c96f 443d ec61 68bd de84 ef3d 8320 6ebe
00000120: ad15 353d b8b0 69be ef92 503e a633 6cbe
00000130: 92ef 5d3e c0c3 283d f16c 2abd 6fe7 7d3e
00000140: 5dc3 073b 5446 243e c462 a1bd 41d6 9ebe
00000150: 45b6 21be af7f 55be 0ae6 56be c736 2bbe
00000160: 5a7a 3e3e fa50 98bd a561 1bbe 3d78 35be
00000170: 4b18 7bbd 2b54 b8bd 3a5c 4cbd 2516 133c
00000180: 350e 52be c110 313e 15ae 3abe 4c5b c83d
00000190: 4de8 52be ecb4 92bd 58b4 77be b753 44be
000001a0: d39e 083e 316c 69bd f11b d23b 1589 d8bd
000001b0: 53df 3fbe 47b7 113e df13 b53d e80b f0bb
000001c0: 60fa 543e e95e 16bd 6085 993e 4be6 05be
000001d0: c463 0b3e a0ad 9b3c 2a6f 64be d0f3 21be
000001e0: 2bc6 5d3e d9c9 10be caf1 193e 9a4c 72be
000001f0: 6b1b 3cbe 95e2 f53d eeee ed3d afa5 41be
00000200: f40e 513b 40ee ba3d 5658 7b3c 8cda 87be
00000210: b77f 2b3e a571 1f3e 78d0 7e3e 3c99 be3d
00000220: 0e7c 6b3e 9828 82be ff3c 1ebd 97ba b63d
00000230: fd9d 02be fbd4 07be 7a9c d0bc 3524 08bc
00000240: d4ec 213e 2a9a 97bd 51d9 f03d 64f5 dabc
00000250: 58f1 72bd e9e4 0d3e 4f40 6a3e 2ded 68be
00000260: 02f6 443e 8941 083d 4f19 263e 8ac6 0a3e
00000270: 0b34 67bc 2533 2c3e c58a b6bd aeec b83c
00000280: e30d 3bbe c5c6 a3bb 2a32 28be 4d01 1bbe
00000290: 83a6 19bc 512d 413e e227 08bc e756 b9bb
000002a0: f9b3 b13d 14fa d73d c866 70be 0a42 2dbe
000002b0: f4f0 933d a87c 4dbe 8593 293e 189f 2f3e
000002c0: 1afd 25be ac63 743d 5c88 e83d c01e 813e
000002d0: 5891 8ebd d503 1bbe ba56 0fbe c421 173e
000002e0: cc59 053d a247 773d e21c 30bd 0331 18bc
000002f0: 0fe7 853d ed85 27be 8d5d 75be 26e0 82be
00000300: cd2e 1f3d 37b0 0abe d53a 6dbd c576 753e
00000310: ed5e ffbd 9444 47be 98bc 723d 32d6 d23d
00000320: 8456 0e3e d69c a43c 6039 123d 44c2 c5bd
00000330: f4a2 ea3d 1436 76be 2b0d 073c d370 1f3e
00000340: b680 2a3d 8875 dc3d dd83 583e 10b0 87bd
00000350: facb 4a3d 2b45 363d e2e4 243e ce4d 2a3e
00000360: 0a76 753e 15d6 723e 1bfa 30be 40a6 003e
00000370: 5067 26be 202f cebc 769f 3cbe d19b 55be
00000380: 56d8 50be 8d9a 3fbe 7f1e 083d 8d63 17be
00000390: a462 2e3e e132 f13d 4f3b cebd 07be 573e
000003a0: 815e bebd 7924 f23d fa1c febd 4fb5 e33d
000003b0: 01a1 613e 3484 afbd 61d4 27bd 2b29 c2bd
000003c0: 54bf 2f3e 38ba f23d 8b04 fcbc 77de d4bd
000003d0: e04f 1cbe 8eb7 dc3d 5ad5 2e3e a8e4 6cbe
000003e0: 7fe2 0f3c 07d3 43be d289 013e 6aa0 85bc
000003f0: 1448 373e f2b7 7d3c 1fa2 b9bd 6a5d 39be

critic.linears.0.bias f4 [64]
-0.012254642 -0.04603404 0.18675776 0.15702927 -0.1349423 -0.009782773 0.07961374 0.114074156
0.23672873 -0.06265566 -0.10318767 -0.1250457 0.21460746 -0.006060471 0.026192937 0.03850438
-0.027603464 0.049177285 -0.01921881 -0.11335513 0.083275646 0.13378628 -0.17482683 -0.17536229
0.09168252 0.0025785835 -0.23641849 -0.02353519 -0.09283134 0.06937913 -0.14372404 0.12221827
-0.007689854 -0.22595079 -0.1722562 0.027901754 -0.012474099 -0.04140414 0.10960034 -0.1784018
0.13716052 0.15211932 0.033618975 -0.096088156 0.07013554 -0.19650564 -0.14830191 -0.100058325
0.028545137 0.08344367 0.21712765 0.07549923 -0.021152345 0.03818077 -0.20431522 0.12235576
0.14683849 0.2208927 0.033627573 0.119375795 0.1668762 -0.104785286 -0.12002348 -0.037914407
00000000: b2c7 48bc 318e 3cbd 6d3d 3f3e 48cc 203e
00000010: 502e 0abe ed47 20bc 870c a33d b69f e93d
00000020: 0469 723e 9c51 80bd 0f54 d3bd fb0b 00be
00000030: 0fc2 5b3e ea96 c6bb 9292 d63c c5b6 1d3d
00000040: a920 e2bc 1f6e 493d c470 9dbc bc26 e8bd
00000050: 6c8c aa3d 45ff 083e ce05 33be 2c92 33be
00000060: 0cc4 bb3d 74fd 283b b017 72be dfcc c0bc
00000070: 5c1e bebd a516 8e3d 652c 13be 934d fa3d
00000080: 2cfb fbbb a55f 67be ee63 30be 3892 e43c
00000090: 2a60 4cbc 6397 29bd 2576 e03d f6ae 36be
000000a0: cf73 0c3e 2bc5 1b3e 0db4 093d dec9 c4bd
000000b0: 39a3 8f3d c638 49be 75dc 17be 61eb ccbd
000000c0: 7ed7 e93c 84e4 aa3d b656 5e3e 579f 9a3d
000000d0: af47 adbc 7063 1c3d 0238 51be a895 fa3d
000000e0: d45c 163e b231 623e 11bd 093d 4c7b f43d
000000f0: 98e1 2a3e ab99 d6bd dfce f5bd 234c 1bbd

critic.linears.1.weight f4 [64, 64]
-0.02212156 -0.08747798 0.11576525 -0.07508796 -0.06185956 0.13122246 0.04521464 -0.058808073
0.04183143 -0.073648974 -0.09992616 0.061607227 0.012652397 0.08932335 -0.123796895 -0.0032858106
0.012385615 -0.001250713 0.020230442 -0.12631783 -0.08278651 -0.06661468 -0.032177024 0.032173764
-0.025343915 0.15783277 -0.09425393 0.068588465 -0.092994936 -0.059120614 0.043482687 0.028001748
0.08589759 0.056776218 -0.027362486 -0.1400328 0.06350943 0.05438499 0.079261 -0.12604867
-0.06497188 0.103848256 0.019554924 -0.06773114 -0.08548983 -0.032101516 0.10511239 0.10868823
0.08598619 0.13860148 0.028795151 0.118574746 -0.014347379 -0.03084997 -0.009146262 0.06240522
-0.07766147 -0.07807377 0.05056913 0.118727885 0.119258836 -0.08222788 0.006348124 -0.052916493
0.094694294 -0.055828564 0.09243116 -0.09005693 0.090041436 -0.08695477 -0.05591991 -0.08867243
0.051365614 0.02357707 0.06726687 0.020132404 -0.069661245 0.085785605 0.08070977 0.06821666
-0.08742424 -0.029831251 -0.13392979 0.08436567 0.11421176 -0.038696844 0.020762803 -0.10741428
-0.054900374 0.14388013 -0.06253916 0.03222106 -0.0888544 -0.014942564 -0.0659882 -0.097688146
-0.010475609 0.03385958 -0.12462115 -0.01891353 0.034533113 -0.023016289 0.12034562 -0.036044814
-0.05104576 -0.014291023 0.100540504 0.064312816 0.09989422 -0.12116196 -0.003997756 -0.07322462
0.04523614 -0.091123946 -0.053959005 -0.10808539 0.0012572103 -0.0036975092 0.022506211 0.036119025
-0.06647725 0.048114654 -0.03618074 -0.08820577 4.7950154e-05 -0.12988803 0.08124323 -0.07772316
-0.06664109 -0.085142575 0.045928866 0.11304101 -0.04598097 0.115143254 0.11732809 0.08495548
-0.05571152 0.063772716 0.064315856 -0.013765587 0.1188565 -0.051088978 0.024232456 0.071002506
-0.13108884 0.10471981 -0.11107332 -0.14870702 -0.050515622 -0.08719994 0.077806994 -0.09829931
0.07751493 0.15741651 -0.09272683 -0.12117186 0.042041134 -0.106336325 -0.11581646 -0.10637837
-0.06709602 0.08251145 -0.02157881 -0.078348905 -0.1173884 -0.08881892 -0.0753208 -0.020514151
0.07168955 -0.106585056 -0.113213375 0.10331724 0.01609529 -0.017691229 -0.0061853677 0.011257864
0.066143475 0.0843003 -0.11421572 0.010794382 0.081375755 0.11893552 -0.09823719 -0.11302856
-0.08620755 -0.1123774 0.0031165 -0.06543147 0.09123058 0.019006295 0.06188346 -0.1173089
0.08674009 0.016692335 -0.07576546 0.032903012 0.082883745 -0.017595066 0.054852933 0.01901099
0.12061237 0.113308586 -0.035209663 0.03153312 -0.11065264 0.03006968 -0.054816198 -0.111718394
-0.12635222 -0.0964211 -0.1532793 0.08711188 0.11925192 0.0741177 -0.11303678 -0.0642391
-0.087743916 -0.014409981 0.04220436 0.07828005 -0.116429 -0.037986606 0.08929555 -0.03584787
0.111872695 0.03609043 0.047243383 0.0071146516 -0.11177206 -0.05224948 0.015709274 -0.10471435
-0.069875225 -0.10792916 0.104745984 0.036182262 -0.011646823 -0.025007952 0.05510562 -0.06778128
-0.084107615 -0.049589843 -0.020820701 -0.054039475 -0.0069017624 0.015547746 0.05722124 0.036602642
-0.013791929 0.09266007 0.12417903 0.11479161 0.05107199 0.034728725 -0.057718687 0.11542769
00000000: 4638 b5bc a827 b3bd 5516 ed3d b7c7 99bd
00000010: 7360 7dbd 2e5f 063e fd32 393d bce0 70bd
00000020: 6f57 2b3d 46d5 96bd 16a6 ccbd dc57 7c3d
00000030: 004c 4f3c 29ef b63d 3a89 fdbd c156 57bb
00000040: 09ed 4a3c f7ee a3ba 50ba a53c 7659 01be
00000050: f98b a9bd 476d 88bd 0ecc 03bd a3c8 033d
00000060: 0b9e cfbc ea9e 213e 3408 c1bd 1c78 8c3d
00000070: 2174 bebd 7528 72bd e71a 323d ec63 e53c
00000080: 13eb af3d 2e8e 683d 4b27 e0bc c264 0fbe
00000090: 3b11 823d ccc2 5e3d 9753 a23d e712 01be
000000a0: fa0f 85bd 65ae d43d a631 a03c a0b6 8abd
000000b0: 4b15 afbd e17c 03bd 2a45 d73d ef97 de3d
000000c0: 8719 b03d 8ced 0d3e cfe3 eb3c 51d7 f23d
000000d0: 4511 6bbc 14b9 fcbc 34da 15bc 9e9c 7f3d
000000e0: fa0c 9fbd 24e5 9fbd 9321 4f3d 9b27 f33d
000000f0: fa3d f43d 1767 a8bd ec03 d03b f7be 58bd
00000100: 15ef c13d 7eac 64bd 8c4c bd3d c56f b8bd
00000110: a567 b83d 5815 b2bd 470c 65bd e499 b5bd
00000120: c064 523d b324 c13c 36c3 893d b6ec a43c
00000130: 8eaa 8ebd 5db0 af3d 2a4b a53d 2db5 8b3d
00000140: 7b0b b3bd ab60 f4bc e424 09be e9c7 ac3d
00000150: dbe7 e93d 9580 1ebd c116 aa3c 05fc dbbd
00000160: 37df 60bd 5055 133e 8814 80bd 3bfa 033d
00000170: 4cf9 b5bd a8d1 74bc d224 87bd b910 c8bd
00000180: e4a1 2bbc 58b0 0a3d 6039 ffbd 8cf0 9abc
00000190: 9872 0d3d a88c bcbc c477 f63d baa3 13bd
000001a0: 5c15 51bd e524 6abc 2ee8 cd3d 70b6 833d
000001b0: 5795 cc3d c323 f8bd 9cff 82bb caf6 95bd
000001c0: 8849 393d 319f babd 1e04 5dbd df5b ddbd
000001d0: fac8 a43a e951 72bb f25e b83c 8bf1 133d
000001e0: 3925 88bd df13 453d 4132 14bd 3aa5 b4bd
000001f0: 161e 4938 5e01 05be da62 a63d 522d 9fbd
00000200: 207b 88bd 3b5f aebd e81f 3c3d 0c82 e73d
00000210: 8b56 3cbd 3ad0 eb3d b649 f03d 24fd ad3d
00000220: c331 64bd 459b 823d 08b8 833d 0e89 61bc
00000230: 096b f33d ad42 51bd 2583 c63c c369 913d
00000240: 273c 06be 5777 d63d 697a e3bd a746 18be
00000250: 78e9 4ebd e295 b2bd 4659 9f3d 2651 c9bd
00000260: 26c0 9e3d cb31 213e 90e7 bdbd f428 f8bd
00000270: 5333 2c3d dcc6 d9bd 2e31 edbd e7dc d9bd
00000280: a369 89bd c3fb a83d 0bc6 b0bc 6475 a0bd
00000290: 5469 f0bd b2e6 b5bd cb41 9abd 4b0d a8bc
000002a0: f9d1 923d 4449 dabd 6adc e7bd fd97 d33d
000002b0: 45da 833c 32ed 90bc a0ae cabb e772 383c
000002c0: 3b76 873d a3a5 ac3d eee9 e9bd ebda 303c
000002d0: 55a8 a63d 7794 f33d 9430 c9bd 857b e7bd
000002e0: 958d b0bd 1f26 e6bd 323e 4c3b ef00 86bd
000002f0: 19d7 ba3d 17b3 9b3c 8379 7d3d a63f f0bd
00000300: caa4 b13d 5dbe 883c ec2a 9bbd 4fc5 063d
00000310: f4be a93d 8723 90bc 78ad 603d f0bc 9b3c
00000320: 9e03 f73d 550e e83d 0238 10bd df28 013d
00000330: da9d e2bd b154 f63c f386 60bd 9dcc e4bd
00000340: 7a62 01be 6d78 c5bd 40f5 1cbe b767 b23d
00000350: 5a3a f43d 05cb 973d d47f e7bd ca8f 83bd
00000360: 15b3 b3bd d717 6cbc 7bde 2c3d 4a51 a03d
00000370: 5472 eebd d897 1bbd 96e0 b63d 37d5 12bd
00000380: 831d e53d 8fd3 133d 4782 413d 0622 e93b
00000390: c0e8 e4bd 8d03 56bd bcb0 803c 7a74 d6bd
000003a0: be1a 8fbd f709 ddbd 1085 d63d da33 143d
000003b0: 51d2 3ebc 7add ccbc 6eb6 613d e9d0 8abd
000003c0: 9d40 acbd b81e 4bbd 2d90 aabc 7f58 5dbd
000003d0: 2e28 e2bb f9bb 7e3c d260 6a3d a7ec 153d
000003e0: 8bf7 61bc 90c4 bd3d 9351 fe3d dd17 eb3d
000003f0: dd30 513d b53f 0e3d 6e6a 6cbd 5a65 ec3d

critic.linears.1.bias f4 [64]
0.06489945 -0.10279643 -0.028945535 -0.027642315 -0.07772988 -0.11580648 -0.02300431 0.027327936
0.09783819 0.039267436 0.038141355 -0.108695544 -0.013579838 0.10998906 -0.1071522 0.027251856
0.08933808 -0.10115038 -0.036380935 -0.07409891 0.038772393 -0.11851112 0.1081738 0.11412142
-0.002127924 0.0075068036 -0.0050680144 -0.12644666 -0.11023104 -0.077230565 -0.08108347 0.06467264
-0.04171571 -0.12709068 -0.054039143 -0.020099543 -0.035700798 -0.028907374 0.1013146 0.00072771584
0.08622098 -0.01301782 0.11688651 0.05417804 -0.037803564 0.023773655 -0.01326816 0.11031318
-0.10755635 0.07917695 0.12192415 0.061576623 -0.07089809 0.059901997 0.11626065 0.001253849
0.03858769 0.12825729 0.11697484 -0.079156406 -0.04810809 0.021163128 -0.01574099 -0.031612962
00000000: 01ea 843d ef86 d2bd 301f edbc 2372 e2bc
00000010: d830 9fbd f32b edbd 8973 bcbc d6de df3c
00000020: 645f c83d e4d6 203d 1c3a 1c3d c59b debd
00000030: f87d 5ebc f241 e13d 9d72 dbbd 493f df3c
00000040: e2f6 b63d ee27 cfbd 2d04 15bd 2bc1 97bd
00000050: cdcf 1e3d f5b5 f2bd 3a8a dd3d 7eb8 e93d
00000060: a474 0bbb a2fb f53b 9611 a6bb 3c7b 01be
00000070: d0c0 e1bd 0f2b 9ebd 170f a6bd 1773 843d
00000080: 18de 2abd 0f24 02be 2658 5dbd cca7 a4bc
00000090: 003b 12bd 28cf ecbc 077e cf3d 2fc4 3e3a
000000a0: a094 b03d b248 55bc 3262 ef3d cbe9 5d3d
000000b0: e9d7 1abd f8c0 c23c b262 59bc e0eb e13d
000000c0: 8146 dcbd 8627 a23d 5eb3 f93d c537 7c3d
000000d0: 0533 91bd cc5b 753d 101a ee3d 3158 a43a
000000e0: 200e 1e3d e155 033e 8190 ef3d c11c a2bd
000000f0: fd0c 45bd 4c5e ad3c 40f3 80bc 987c 01bd

critic.linears.2.weight f4 [1, 64]
-0.010191713 -0.038875762 -0.115498565 -0.11418377 0.0027113326 0.04240736 0.078952305 0.0052653
0.087987185 0.051792696 -0.091804236 0.1019324 0.016078956 0.11712509 -0.093403816 -0.07429447
-0.095249645 -0.05053014 -0.019555664 0.060732372 0.07562723 0.028846439 -0.11503838 0.08237578
0.1290682 -0.04438199 0.09543262 0.13525969 0.092673875 0.10170269 -0.0013808192 -0.12226204
-0.008664665 0.062323898 -0.073116586 0.09350833 0.023704296 0.077361576 0.0050216443 -0.031632185
-0.086263254 -0.10447472 -0.11568767 -0.016613474 -0.099303134 0.11124847 0.008002526 -0.011264434
0.103681535 -0.022641476 -0.12175447 0.117282495 -0.015449028 -0.030163037 -0.025249487 0.015055224
0.07977334 -0.1218471 -0.12378866 -0.0766104 -0.034655925 -0.026299294 0.09369889 0.059825286
00000000: 25fb 26bc 313c 1fbd 838a ecbd 2ed9 e9bd
00000010: 9db0 313b 57b3 2d3d bfb1 a13d 8a88 ac3b
00000020: a032 b43d 9424 543d dc03 bcbd efc1 d03d
00000030: 04b8 833c 47df ef3d 804a bfbd b327 98bd
00000040: 3f12 c3bd b1f8 4ebd 3333 a0bc 82c2 783d
00000050: 73e2 9a3d 5e4f ec3c 3e99 ebbd a2b4 a83d
00000060: 742a 043e e4c9 35bd 2d72 c33d 8481 0a3e
00000070: cdcb bd3d 8049 d03d 9bfc b4ba 8564 fabd
00000080: 3df6 0dbc 5847 7f3d 26be 95bd 4c81 bf3d
00000090: 832f c23c bf6f 9e3d 9b8c a43b c090 01bd
000000a0: caaa b0bd d8f6 d5bd a8ed ecbd fb18 88bc
000000b0: 715f cbbd 3dd6 e33d 071d 033c 768e 38bc
000000c0: fc56 d43d 9e7a b9bc 685a f9bd ce31 f03d
000000d0: ec1d 7dbc 7918 f7bc 03d8 cebc 30aa 763c
000000e0: 3460 a33d f98a f9bd e984 fdbd eae5 9cbd
000000f0: 5ff3 0dbd 9e71 d7bc 34e5 bf3d 5c0b 753d
