trained_network/SD2/same_10_5_12_dim128.pth (torch, 304103 bytes, 26 tensors)

feature_exact.j_encoder.layers.0.weight f4 [64, 14]
0	0xbd915868	-0.0709694
1	0x3e50e37e	0.20399281
2	0xbdd32c95	-0.10311238
3	0x3e0e154c	0.13875312
4	0x3ccf1dba	0.02528273
5	0x3d7ed68e	0.062216334
6	0xbe8b6f67	-0.2723343
7	0x3e32f57f	0.17476462
8	0x3e7ed4b2	0.24885824
9	0x3e0573a7	0.13032399
10	0xbd890492	-0.06690325
11	0xbd5aa66a	-0.05338136
12	0xbe31764b	-0.17330281
13	0xbe7dd75c	-0.24789184
14	0x3dd76b09	0.10518462
15	0x3e8fe9b2	0.28107983
16	0xbdb47a20	-0.08812356
17	0xbe6fc95f	-0.2341666
18	0xbe0c7c17	-0.13719212
19	0xbde0442f	-0.10950505
20	0x3cdad5c5	0.026713261
21	0x3d45de7c	0.04830788
22	0x3e915bf9	0.28390482
23	0xbe60a646	-0.21938428
24	0x3e16261b	0.14662974
25	0xbe3fe08a	-0.18737999
26	0x3df7d65d	0.121014334
27	0xbdfd3696	-0.12363927
28	0x3e6bf2a7	0.23041783
29	0x3e44f281	0.19233133
30	0xbe92496d	-0.28571644
31	0xbe567cba	-0.20946017
32	0xbd9766af	-0.07392632
33	0xbda95e6d	-0.082699634
34	0x3e19d025	0.15020807
35	0xbde2aefe	-0.11068533
36	0xbdb9eda8	-0.090785325
37	0x3e510fc9	0.20416178
38	0x3dc28370	0.09497726
39	0xbd52da21	-0.051477555
40	0x3daa6105	0.08319286
41	0x3e344818	0.17605627
42	0xbe36cb1a	-0.17850915
43	0x3e12e1ec	0.14343995
44	0x3dee5559	0.116373725
45	0x3a6bd550	0.00089963246
46	0x3d5e7751	0.054313008
47	0x3e76b72f	0.24093316
48	0xbe3d209b	-0.18469469
49	0xbe812b07	-0.2522814
50	0xbe376acd	-0.17911835
51	0x3e48fd31	0.19627835
52	0xbe5d9847	-0.2164012
53	0xbe1987a1	-0.14993145
54	0xbe91e4f4	-0.2849499
55	0x3e51c8d0	0.2048676
56	0x3e26ae25	0.16277368
57	0xbc53af5f	-0.01292023
58	0xbe8f27fa	-0.27960187
59	0x3e05175e	0.12997195
60	0xbd815ec2	-0.06316902
61	0xbdbe618c	-0.09295949
62	0xbe2d3515	-0.1691478
63	0xbd71c9fa	-0.05903051
64	0x3e10b224	0.14130455
65	0x3e5a2ee6	0.21306953
66	0x3e1859cd	0.14878006
67	0xbd2bb1c4	-0.041917577
68	0x3bd07ac0	0.006362289
69	0x3e388cef	0.18022512
70	0x3dd1cc3c	0.10244033
71	0xbe8aed94	-0.27134383
72	0xbd92c598	-0.07166594
73	0x3d183371	0.037158433
74	0x3de71bb4	0.11284581
75	0xbe2623f9	-0.1622466
76	0xbe5bfb8d	-0.21482678
77	0x3e5830b0	0.21112323
78	0x3d0a1a95	0.033716757
79	0xbc96a951	-0.018391283
80	0xbe2dd7e6	-0.1697689
81	0x3ca7a801	0.020465853
82	0x39e85496	0.0004431351
83	0xbd376a90	-0.04477936
84	0xbceb5e16	-0.028731387
85	0x3e516c4b	0.20451467
86	0x3db96ac5	0.09053568
87	0xbb1b798f	-0.0023723578
88	0x3e863c30	0.26217794
89	0xbe0bbdbd	-0.13646598
90	0xbe6bc8d5	-0.2302583
91	0x3de3321b	0.11093541
92	0xbdedffe8	-0.11621076
93	0x3e2992bb	0.1655988
94	0xbdb5f544	-0.08884671
95	0x3e087a02	0.13327792
96	0xbabbac9e	-0.0014318412
97	0xbe5ca590	-0.21547532
98	0xbe0a9fa4	-0.1353746
99	0xbd915d3d	-0.07097862
100	0x3e5279bf	0.20554255
101	0x3e5d2135	0.21594699
102	0xbe814d73	-0.25254402
103	0xbc7b23e2	-0.015328379
104	0x3e61e8d7	0.22061478
105	0xbe94dca3	-0.29074582
106	0xbc8ce1ca	-0.017197508
107	0x3da02de0	0.0782125
108	0x3d80181e	0.062546
109	0x3e2673c0	0.16255093
110	0xbe736d58	-0.2377218
111	0xbe02f06e	-0.12787029
112	0xbe0b5b4a	-0.13609043
113	0xbe35be68	-0.17748415
114	0xbd815095	-0.06314198
115	0xbe1e8e6d	-0.15484019
116	0xbe0b607f	-0.13611029
117	0xbdcad5dc	-0.09904072
118	0xbdb2ba41	-0.08726931
119	0xbd63e2e6	-0.05563631
120	0x3e04a1f4	0.12952405
121	0x3a0b3ec2	0.0005311781
122	0xbe68f4b5	-0.22749598
123	0xbe80fce0	-0.25192928
124	0x3e63c988	0.22244847
125	0x3e291060	0.16510153
126	0x3dc86fd5	0.09786955
127	0xbd7a6722	-0.06113351
128	0xbd9d2fd2	-0.076751366
129	0xbdc3968f	-0.09550201
130	0x3b209b30	0.0024506561
131	0x3ddd71b4	0.10812703
132	0x3d8f0e94	0.069852024
133	0xbe6f4059	-0.2336439
134	0xbe2c795b	-0.16843168
135	0x3d9cd325	0.0765746
136	0xbe89fc36	-0.26950234
137	0xbe5ceb4d	-0.21574135
138	0xbe00c58b	-0.12575357
139	0x3d8d3285	0.068944015
140	0x3d6ea6d7	0.05826458
141	0xbe6d9ea9	-0.23205055
142	0x3cd415be	0.025889274
143	0x3b24f597	0.0025170797
144	0x3da37135	0.07980577
145	0xbe516b4c	-0.20451087
146	0xbe17557d	-0.14778705
147	0xbd455bac	-0.04818313
148	0x3df59122	0.119905725
149	0x3e7cd22b	0.24689548
150	0xbd11cdd8	-0.0355967
151	0x3e1f08ee	0.1553075
152	0xbe805841	-0.25067332
153	0xbe59a00d	-0.21252461
154	0xbe3ab2a3	-0.18232207
155	0xbe0fd9a9	-0.14047875
156	0xbdb2bad8	-0.08727044
157	0xbcf93871	-0.030422421
158	0x3e3ea8de	0.18619105
159	0xbe1d9f0e	-0.15392706
160	0xbd4a8b86	-0.049449466
161	0x3e2e60bb	0.17029087
162	0x3e63d98e	0.2225096
163	0x3e73fc63	0.23826747
164	0xbe35858e	-0.17726728
165	0x3ddb568e	0.10709868
166	0xbdcb18be	-0.099168286
167	0x3e1504f8	0.14552677
168	0x3bc980be	0.0061493805
169	0xbd06e084	-0.03292896
170	0x3e1d94d4	0.15388805
171	0xbe9b2a2d	-0.30305615
172	0xbe0f1f87	-0.1397687
173	0xbe1b1326	-0.15144023
174	0x3ddfd9bb	0.10930201
175	0x3db9b19f	0.09067082
176	0xbe056b25	-0.13029154
177	0xbc83d357	-0.016091986
178	0xbe49e48e	-0.19716093
179	0x3e0654aa	0.13118234
180	0xbdb408d0	-0.08790743
181	0xbe9311c6	-0.28724498
182	0x3e54b877	0.20773493
183	0x3db7789d	0.08958552
184	0xbe641887	-0.22274981
185	0xbe73e8b8	-0.23819244
186	0x3e40cf76	0.1882914
187	0xbdee4b2b	-0.11635431
188	0xbdde202d	-0.10845981
189	0x3c79a70a	0.015237579
190	0xbabccd7d	-0.0014404502
191	0xbe4a69ee	-0.19766971
192	0x3e3b90ab	0.18316905
193	0x3d68f0ea	0.05687038
194	0x3e112b5c	0.14176697
195	0x3d08935d	0.03334366
196	0x3ddee67d	0.10883806
197	0xbce93e26	-0.028472017
198	0xbe1f6f4c	-0.155698
199	0x3de7f768	0.11326486
200	0x3def5e8b	0.116879545
201	0xbd955402	-0.07291414
202	0xbe5be3d7	-0.21473633
203	0xbe0caec1	-0.13738538
204	0x3e346a3d	0.17618652
205	0xbcec7603	-0.028864866
206	0x3d57b0d0	0.052658856
207	0xbdc65067	-0.09683304
208	0xbe1e9ecf	-0.15490268
209	0xbe33361a	-0.17501107
210	0xbe19559d	-0.14974065
211	0x3de580fb	0.11206242
212	0xbe94b3c8	-0.29043412
213	0xbe15b274	-0.14618856
214	0x3e00a5cf	0.12563251
215	0x3d8e7013	0.0695497
216	0x3cee359a	0.029078294
217	0x3e38a9e4	0.18033558
218	0x3e6d7e7f	0.23192786
219	0xbd746a27	-0.059671547
220	0x3e7f7733	0.24947815
221	0x3df03682	0.117291465
222	0x3e9af6cb	0.30266413
223	0xbe6553a7	-0.22395192
224	0x3c4a5704	0.012349848
225	0x3a896eea	0.0010485325
226	0xbd424ef6	-0.047438584
227	0xbc35b1cf	-0.011089756
228	0xbb96ffe2	-0.0046081403
229	0xbe701645	-0.23445995
230	0xbe08b0e2	-0.13348725
231	0xbe50d800	-0.20394897
232	0x3daee2f7	0.08539384
233	0x3e4c67d4	0.19961482
234	0xbe0df1eb	-0.13861816
235	0xbe349640	-0.17635441
236	0x3e30b0bb	0.17254917
237	0x3cba4dc9	0.022742169
238	0xbda3d27d	-0.07999132
239	0x3d8b8f46	0.068144366
240	0x3d809d3b	0.06279989
241	0xbe3fdf0d	-0.18737431
242	0x3e8c298b	0.27375445
243	0xbe8fc2c6	-0.28078288
244	0x3e22378f	0.15841506
245	0x3de5d07c	0.11221406
246	0xbd2684f0	-0.040654123
247	0xbe452091	-0.19250704
248	0x3e01ae11	0.12664057
249	0xbdce4d7c	-0.10073373
250	0xbe8f3ac9	-0.27974537
251	0xbe6ffb9f	-0.2343583
252	0x3e128ceb	0.14311568
253	0x3cd00ed4	0.025397696
254	0x3e058f70	0.13042998
255	0xbe2a65e8	-0.16640437

feature_exact.j_encoder.layers.0.bias f4 [64]
0	0xbe60cb5d	-0.21952577
1	0xbd2acff2	-0.04170222
2	0xbdd83cfb	-0.10558506
3	0x3d2b44c1	0.041813616
4	0xbe41d577	-0.18929087
5	0xbd990547	-0.0747171
6	0xbbb4ecbf	-0.0055213864
7	0xbe7441aa	-0.23853174
8	0x3bee570c	0.0072735604
9	0xbde0fb70	-0.10985458
10	0xbde2591d	-0.11052153
11	0x3c9cb7b4	0.019130565
12	0xbd51c054	-0.05120881
13	0x3e8128d4	0.25226462
14	0x3e1fef7c	0.156187
15	0x3d672589	0.05643228
16	0xbe47b78d	-0.19503613
17	0xbd9784a4	-0.07398346
18	0x3baee4c4	0.0053373296
19	0x3d3b443c	0.04571937
20	0xbe2b03fc	-0.16700739
21	0x3e04a32d	0.12952872
22	0x3e436ae7	0.19083749
23	0x3dde476c	0.108534664
24	0xbda2918d	-0.07937918
25	0x3e0c131f	0.13679169
26	0x3e702e54	0.23455173
27	0x3c7ddf59	0.015495145
28	0x3d983971	0.07432831
29	0x3e8ed4f0	0.27896833
30	0xbe4c8b7f	-0.19975089
31	0xbd94c8ab	-0.07264837
32	0x3e53c9c8	0.20682442
33	0xbe37e4c0	-0.17958355
34	0x3c183a40	0.009291232
35	0xbdd0d213	-0.101963185
36	0x3d866c1c	0.06563589
37	0x3ca20f8c	0.019782804
38	0xbb0cd5ee	-0.0021489817
39	0xbe034506	-0.12819299
40	0x3bf9c36d	0.0076221735
41	0xbd4feeee	-0.05076497
42	0xbe1fe501	-0.15614702
43	0x3dcb3e86	0.09924035
44	0xbe7a52f3	-0.24445705
45	0x3ba3c8fb	0.004998324
46	0x3e0c5702	0.13705066
47	0xbe84411a	-0.2583092
48	0xbd1c316e	-0.038133077
49	0xbe085d34	-0.13316804
50	0x3e7cdc0e	0.24693319
51	0x3e7999a0	0.2437501
52	0x3d234241	0.039858107
53	0x3e0539c1	0.13010313
54	0x3e62a4ed	0.22133227
55	0x3db13123	0.0865195
56	0x3e57e2ec	0.21082658
57	0x3e67009a	0.22558823
58	0x3e0e3e44	0.1389094
59	0x3e5f0378	0.21778667
60	0x3e8ae6cb	0.27129206
61	0x3dbeb998	0.09312743
62	0xbe670ef7	-0.22564302
63	0x3c8aabcc	0.016927622

feature_exact.j_encoder.layers.1.weight f4 [64, 64]
0	0x3c10db80	0.008841395
1	0xbe31b6ea	-0.17354932
2	0x3c713959	0.014723145
3	0xbd82c475	-0.063851275
4	0xbd90f98c	-0.07078847
5	0x3de282a2	0.110600725
6	0xbd997e88	-0.07494837
7	0xbe00b2de	-0.12568232
8	0x3d076a8b	0.03306059
9	0xbd9d9956	-0.07695262
10	0xbddc340f	-0.10752117
11	0x3d9de0ba	0.07708879
12	0xbd81232f	-0.06305539
13	0xbcc876f4	-0.024470784
14	0x3d9fb110	0.07797444
15	0xbc1a25f3	-0.009408462
16	0xbc34242a	-0.01099495
17	0xbc026b81	-0.007960201
18	0xbdad80df	-0.08471846
19	0x3c5edb16	0.013602039
20	0xbdbc4a7e	-0.09193896
21	0x3cac31e7	0.021019889
22	0xbe00ac2f	-0.12565683
23	0xbe175d00	-0.1478157
24	0xbcaeed77	-0.021353466
25	0x3dd84fac	0.10562071
26	0xbd134ff0	-0.035964906
27	0xbd81c3c7	-0.0633617
28	0xbdecabd7	-0.11556213
29	0xbd29e6f5	-0.041480023
30	0xbdc9db4d	-0.098562814
31	0x3d813e25	0.06310681
32	0x3c03b947	0.008039779
33	0x3db69af7	0.08916276
34	0xbd11ebe7	-0.035625365
35	0x3d9e0e00	0.07717514
36	0xbd0d2361	-0.034457568
37	0x3e012802	0.12612918
38	0xbd9bc768	-0.07606393
39	0xbd0dcd79	-0.034619782
40	0xbce6519d	-0.028115088
41	0x3c828aee	0.015935387
42	0xbd84c925	-0.06483678
43	0x3d75c6ee	0.060004167
44	0xbe079ac8	-0.13242638
45	0xbdb311b9	-0.08743615
46	0xbbd333c6	-0.006445381
47	0xbdaf7389	-0.085669585
48	0x3cc851f5	0.024453143
49	0xbd2f4b42	-0.04279638
50	0xbd338e18	-0.043836683
51	0x3cae5b78	0.02128385
52	0x3dbace0a	0.0912133
53	0xbdd744fd	-0.10511205
54	0x3d0e607c	0.034759983
55	0x3da6e09c	0.081483096
56	0x3da248e5	0.0792406
57	0x3d605210	0.05476576
58	0xbd0e0489	-0.034672294
59	0xbd3c7a62	-0.04601515
60	0x3d203495	0.039112646
61	0x3c75edf1	0.015010343
62	0xbdbf0478	-0.09327024
63	0xbda3721c	-0.07980749
64	0xbe04a914	-0.12955123
65	0xbcd96372	-0.026536677
66	0x3ddddee6	0.1083353
67	0x3cdb4b70	0.02676937
68	0xbd82c5ad	-0.0638536
69	0x3d153ed8	0.036436886
70	0xbd823d9f	-0.063594095
71	0xbe0c2ead	-0.1368968
72	0xbd3d3ed3	-0.046202492
73	0xbda1e7cd	-0.079055406
74	0xbdca72b2	-0.09885158
75	0x3d7564ca	0.059910573
76	0x3d9612ef	0.0732783
77	0x3d5942af	0.05304211
78	0x3d9b5ac0	0.075856686
79	0xbd9396f2	-0.07206525
80	0xbc328720	-0.010896474
81	0xbdcfd20d	-0.10147486
82	0xbdd750d8	-0.105134666
83	0xbd9afd77	-0.07567876
84	0x3de26de1	0.11056114
85	0x3d06948a	0.0328565
86	0x3da0236a	0.07819255
87	0xbe0ef262	-0.13959649
88	0xbda25e06	-0.0792809
89	0x3db87cda	0.090081885
90	0xbdd02c2f	-0.10164677
91	0xbde367a9	-0.11103756
92	0x3e1cdce5	0.1531864
93	0x3da16035	0.07879678
94	0xbc5bc5e9	-0.013413885
95	0x3d6c0060	0.057617545
96	0x3dd46ea3	0.10372665
97	0x3d6e3c5f	0.058163043
98	0xbd8f1565	-0.069865026
99	0xbc4e4d50	-0.012591675
100	0xbdeea596	-0.11652677
101	0x3cc920d7	0.024551792
102	0x3dd86c1f	0.105674975
103	0x3b308bd0	0.0026938803
104	0xbe070039	-0.13183679
105	0xbd8f4dc7	-0.06997257
106	0xbd8a3297	-0.067479305
107	0xbd3c82a3	-0.046023022
108	0x3d9b9b86	0.07598023
109	0xbc509c98	-0.012732647
110	0xbd7f5370	-0.06233543
111	0xbd2d9ea2	-0.042387612
112	0x3d9beb37	0.07613223
113	0x3df83518	0.12119502
114	0x3d3fc83b	0.046821814
115	0x3d65cb6d	0.056102205
116	0xbccff5d7	-0.02538578
117	0xbabdcd67	-0.001448077
118	0x3c86d494	0.016458787
119	0x3d8dc515	0.06922356
120	0x3dd2455e	0.10267137
121	0x3d025cd8	0.031826824
122	0x3b7894da	0.003793052
123	0xbcfb0d2c	-0.03064593
124	0x3d98d4a9	0.07462437
125	0x3c90d603	0.017680174
126	0x3b89069a	0.004181695
127	0xbd360a42	-0.044443376
128	0xbd5c88eb	-0.053841513
129	0x3dace57e	0.0844221
130	0xbdb40024	-0.08789089
131	0xbbc914a8	-0.0061364956
132	0xbdcedd1e	-0.101007685
133	0xbda9fa84	-0.08299735
134	0x3d7c901d	0.061660875
135	0x3c96d3f1	0.018411608
136	0xbd19d88e	-0.03756004
137	0xbdc97513	-0.09836783
138	0x3de88860	0.113541365
139	0xbc93c3d5	-0.018037716
140	0x3da75f74	0.08172503
141	0x3d9699b0	0.07353532
142	0xbb8bf74e	-0.0042714244
143	0x3d419bc8	0.047267705
144	0x3e020cf1	0.12700249
145	0xbc69b82d	-0.014265102
146	0x3cb6a836	0.022297006
147	0xbdb1b0e2	-0.08676316
148	0x3da6789b	0.081284724
149	0xbd9d691e	-0.07686065
150	0xbd777507	-0.06041434
151	0x3cdafbaf	0.02673134
152	0x3d77b2b0	0.060473144
153	0x3db76026	0.08953886
154	0xbd6661c8	-0.056245595
155	0xbd19b9be	-0.037530653
156	0xbd05f298	-0.03270206
157	0x3e02f58a	0.12788978
158	0xbdf757cd	-0.120772935
159	0x3df8183b	0.121139966
160	0xbd34af66	-0.044112585
161	0x3d92e682	0.07172872
162	0xbd638371	-0.055545274
163	0xbe15aca7	-0.14616643
164	0x3df23451	0.11826385
165	0xbce86356	-0.02836768
166	0xbd20af9a	-0.039229967
167	0xbd8182b6	-0.06323759
168	0xbddf68b3	-0.10908642
169	0xbd870489	-0.06592662
170	0x3cf73ba7	0.030179812
171	0x3d97f350	0.07419455
172	0x3e0bbd7f	0.13646506
173	0xbd81a6c4	-0.06330636
174	0x3d8778b2	0.06614818
175	0xbdd49bf7	-0.103813104
176	0xbc340e09	-0.010989674
177	0xbd8a5a11	-0.0675546
178	0x3db8bdd2	0.0902058
179	0xbd2a645c	-0.041599616
180	0x3d928e61	0.07156063
181	0x3d9a1f94	0.07525554
182	0xbda3079b	-0.07960435
183	0xbcf7bb92	-0.030240808
184	0x3d939e50	0.0720793
185	0x3c9714a2	0.018442456
186	0x3db317f5	0.08744804
187	0xbd2c5917	-0.04207715
188	0x3d93d40a	0.072181776
189	0x3e11c289	0.14234366
190	0x3dbe6011	0.09295667
191	0xbb37d2c2	-0.0028049205
192	0x3daa3c5e	0.083122954
193	0x3c1756c6	0.009236997
194	0xbc65640d	-0.014000905
195	0x3d9db73d	0.077009656
196	0xbd3dd638	-0.046346873
197	0xbc035662	-0.008016201
198	0x3d4599c9	0.048242364
199	0xbb02e0d5	-0.0019970436
200	0xbdc4167a	-0.095745996
201	0xbdcabc6d	-0.098992206
202	0xbda8c3de	-0.08240484
203	0x3dd553ff	0.104164116
204	0x3df48b49	0.11940629
205	0x3d10ae20	0.03532231
206	0xbe032507	-0.12807094
207	0x3def5eec	0.11688027
208	0xbdd6477b	-0.104628526
209	0x3d7cf24a	0.061754502
210	0x3ce3ab26	0.02779157
211	0x3dc3148e	0.09525405
212	0x3c9a39e5	0.018826434
213	0xbdb42d46	-0.08797698
214	0x3da9188d	0.08256636
215	0x3d4304e9	0.047612105
216	0xbc909f0e	-0.017653968
217	0xbd8a9c30	-0.06768072
218	0xbd7fcf16	-0.062453352
219	0x3de20c78	0.110375345
220	0x3d988c77	0.074486665
221	0x3d306530	0.04306525
222	0x3c8dfc3d	0.01733219
223	0xbdddeed0	-0.108365655
224	0xbe0f571f	-0.13998078
225	0xbd7fa04e	-0.062408738
226	0xbcb8662c	-0.022509657
227	0xbbb456f3	-0.005503529
228	0x3d46ec82	0.048565395
229	0x3d138bb9	0.03602192
230	0x3c03bb46	0.008040255
231	0xbd1d16c8	-0.038351804
232	0xbd26e727	-0.040747788
233	0xbddae42d	-0.10688052
234	0x3dcfee38	0.101528585
235	0xbc875de7	-0.016524268
236	0x3cd313af	0.025766222
237	0x3dcdb364	0.10043982
238	0xbd725a77	-0.059168305
239	0xbd77b2fd	-0.06047343
240	0x3dd476c3	0.103742145
241	0x3c9a7096	0.018852513
242	0x3da75cf4	0.08172026
243	0xbdddbf61	-0.10827518
244	0xba0276c1	-0.0004976802
245	0x3d85e9b4	0.06538716
246	0x3db069fa	0.086139634
247	0xbd9f7e7b	-0.07787796
248	0x3dc3c37e	0.095587716
249	0x3d945749	0.07243211
250	0x3d9043ad	0.07044158
251	0x3d8e00a9	0.0693372
252	0x3dd6e695	0.10493199
253	0xbc770821	-0.015077622
254	0xbb9922db	-0.0046733445
255	0xbd0083bf	-0.031375643

feature_exact.j_encoder.layers.1.bias f4 [64]
0	0xbdccf272	-0.1000718
1	0xbdf81e3d	-0.121151425
2	0x3dfd4c2b	0.123680435
3	0xbdeaaa28	-0.11458236
4	0x3beb8187	0.0071870717
5	0xbc64d732	-0.013967322
6	0x3d5257ef	0.05135339
7	0xbdd700bd	-0.10498188
8	0xbc0c60b1	-0.008567975
9	0xbd8d805b	-0.069092475
10	0xbd488480	-0.048954487
11	0xbdc715e5	-0.09720973
12	0x3d44100e	0.047866873
13	0xbcf86fc7	-0.030326737
14	0xbd99e0ef	-0.07513606
15	0xbde2c34a	-0.11072405
16	0x3dde932d	0.10867915
17	0x3c489e08	0.012244709
18	0x3c9b1f8c	0.018935941
19	0xbdecd8b1	-0.11564768
20	0xbbf76758	-0.0075501613
21	0xbdd9cd97	-0.10634916
22	0x3d3dbfca	0.046325482
23	0x3cc67bb3	0.024228906
24	0xbd44084a	-0.047859468
25	0x3c035094	0.008014817
26	0x3dd72227	0.10504561
27	0x3d33f871	0.043938104
28	0xbe10ff0d	-0.14159794
29	0x3b27a72e	0.0025581825
30	0xbd4f8767	-0.05066624
31	0xbdb34485	-0.087533034
32	0x3c8c89b9	0.017155515
33	0xbd84989b	-0.0647442
34	0x3e116424	0.14198357
35	0x3dd55a93	0.10417666
36	0x3dd97b26	0.10619192
37	0x3cb9d77a	0.022685755
38	0x3cbef632	0.023310754
39	0x3d9cef01	0.07662774
40	0x3e016cf4	0.12639219
41	0x3d9bb182	0.07602216
42	0xbda27c8b	-0.07933911
43	0xbd206125	-0.039155144
44	0x3d51a174	0.051179364
45	0x3c827ad0	0.015927702
46	0xbe07d4de	-0.13264796
47	0xbd0ecf31	-0.034865562
48	0x39b69ce9	0.00034830652
49	0x3d21854d	0.039433766
50	0x3d74cae5	0.059763808
51	0xbd3b5250	-0.045732796
52	0x3c876c97	0.016531272
53	0x3debff32	0.11523284
54	0xbc71b959	-0.014753663
55	0x3db9ed3f	0.09078454
56	0xbd3404e6	-0.043949984
57	0xbdd4d2cb	-0.10391768
58	0x3dccfc2a	0.10009034
59	0xbd284529	-0.04108158
60	0x3ccefda1	0.025267424
61	0x3cb30204	0.021851547
62	0xbd2eb44b	-0.04265241
63	0xbcf179aa	-0.02947696

feature_exact.j_encoder.layers.2.weight f4 [32, 64]
0	0xbd93f362	-0.07224156
1	0x3d1d64d4	0.038426235
2	0x3c8006fb	0.015628329
3	0x3d6fe046	0.058563493
4	0x3d898b83	0.06716063
5	0xbd7127f0	-0.058875978
6	0x3d475a34	0.04867001
7	0x3e09eefe	0.13470075
8	0xbd0fdae4	-0.03512086
9	0x3d7b71f2	0.061387964
10	0x3db236ad	0.08701835
11	0xbe13d40f	-0.14436363
12	0xbd366674	-0.0445313
13	0x3d9acaeb	0.07558235
14	0xbdbfa9bc	-0.09358546
15	0xbb475b9e	-0.0030419598
16	0x3c801516	0.015635055
17	0x3d03f098	0.03221187
18	0xbd498571	-0.049199525
19	0x3e165044	0.14679056
20	0x3e0064de	0.12538478
21	0xbdaf2ad6	-0.08553092
22	0xbd624456	-0.05524095
23	0x3d3996be	0.045309775
24	0x3d38b35c	0.045092925
25	0xbdfc9e48	-0.12334877
26	0x3cbedcf7	0.023298724
27	0xbd8068a0	-0.06269956
28	0xbdc71cac	-0.097222656
29	0x3dcee20f	0.10101711
30	0x3e0857a0	0.13314676
31	0xbdcefd0c	-0.101068586
32	0xbcc4e058	-0.024032757
33	0x3ce429e2	0.027852003
34	0xbda00f15	-0.07815377
35	0xbde92279	-0.11383528
36	0xbd540552	-0.051762886
37	0xbd9800bb	-0.07422014
38	0xbd810a41	-0.06300784
39	0xbdf9cf18	-0.12197703
40	0xbbcb1930	-0.006198071
41	0x3de99c2e	0.11406742
42	0xbd86a567	-0.06574517
43	0x3ddcf051	0.10788024
44	0x3d3e0df1	0.046400014
45	0xbd3536dd	-0.044241775
46	0x3d91f094	0.07125965
47	0x3a7b24ef	0.00095803937
48	0x3d4a9db6	0.04946681
49	0xbde8e9cc	-0.11372718
50	0xbd8fa2ad	-0.0701345
51	0x3c9063b3	0.017625665
52	0x3d424dd4	0.047437504
53	0xbd93cf3c	-0.07217261
54	0x3dca2862	0.09870984
55	0xbdea5480	-0.11441898
56	0xbcf51e0c	-0.029921554
57	0xbe149540	-0.1451006
58	0x3df73bf8	0.12071985
59	0xbd00bfc2	-0.031432875
60	0x3d7bdf99	0.061492536
61	0x3d5d989e	0.054100625
62	0xbdead885	-0.11467079
63	0x3d9bd238	0.076084554
64	0xbdab5e9d	-0.083676554
65	0xbda148a9	-0.07875187
66	0x3ddec7bc	0.1087794
67	0xbdc7f4ae	-0.09763466
68	0x3b208804	0.0024495134
69	0x3ccffc18	0.025388762
70	0x3d163f93	0.036681723
71	0x3dae392d	0.08506999
72	0x3be06448	0.006847892
73	0x3dcebc79	0.10094542
74	0x3d080bd7	0.033214416
75	0x3bfda8f4	0.007741088
76	0xbdda83df	-0.10669684
77	0xbd903488	-0.070412695
78	0x3d880c78	0.06643003
79	0xbdba9997	-0.09111326
80	0xbd8a7eef	-0.06762492
81	0xbd023bd3	-0.031795334
82	0x3d9b152e	0.07572399
83	0x3d759799	0.059959028
84	0xbbdcfb7c	-0.0067438465
85	0x3dd75a66	0.10515289
86	0xbd9a82e5	-0.075444974
87	0xbdbb47c7	-0.0914455
88	0xbcf82578	-0.030291304
89	0x3d314882	0.04328204
90	0x3dbc0de5	0.09182338
91	0xbe0dfcdd	-0.13865991
92	0x3cf13bd4	0.029447474
93	0xbdbdfa1b	-0.092762195
94	0xbde12535	-0.10993425
95	0xbd84219f	-0.06451725
96	0xbcc5947d	-0.024118656
97	0xbe25761f	-0.16158341
98	0xbde4915e	-0.11160539
99	0xbbaf0ddd	-0.005342229
100	0xbb8a83f7	-0.004227157
101	0x3d939240	0.07205629
102	0xbe444658	-0.19167459
103	0x3df2732d	0.11838374
104	0x3dcb625d	0.09930871
105	0xbdae0382	-0.08496763
106	0x3aaf26a6	0.0013362959
107	0x3cbd12c6	0.023080241
108	0xbdc2fc91	-0.095208295
109	0xbdb8ce92	-0.09023775
110	0xbdc55a4b	-0.09636363
111	0x3d1a219d	0.037629712
112	0x3d8b8dbc	0.06814143
113	0x3cb50ba3	0.022100275
114	0x3d70163e	0.05861496
115	0xbdd37f4d	-0.10327015
116	0xbe306483	-0.17225842
117	0xbd5893f5	-0.052875478
118	0xbda76cfd	-0.08175085
119	0x3cb6d4f4	0.02231834
120	0x3c6ae725	0.014337336
121	0x3e066446	0.13124189
122	0x3d00bc44	0.031429544
123	0x3b9e0e24	0.004823463
124	0x3de8f8e7	0.11375599
125	0x3dd4019c	0.103518695
126	0xbdedf118	-0.116182506
127	0x3d4130c6	0.047165655
128	0xbd08287d	-0.033241738
129	0x3d957faf	0.07299744
130	0xbd5cc367	-0.053897288
131	0x3c8d5636	0.017253023
132	0x3da397a2	0.07987906
133	0x3d7b14c5	0.061299104
134	0x3b9830d7	0.004644494
135	0x3dd8deb3	0.105893515
136	0x3c4d3ca5	0.012526666
137	0xbd2c7399	-0.04210243
138	0x3d7c7fbc	0.061645254
139	0x3db00e76	0.08596508
140	0x3db51708	0.088422835
141	0x3c819097	0.015816016
142	0x3dd76086	0.10516457
143	0x3dcd0c95	0.100121655
144	0x3d027a4b	0.03185491
145	0xbdc200e1	-0.09472824
146	0xbddbe3dd	-0.10736821
147	0xbe80fd4c	-0.2519325
148	0xbd1948f7	-0.0374231
149	0xbc9ec855	-0.019382635
150	0xbd40d331	-0.047076408
151	0x3df3c892	0.1190349
152	0x3da0b3cc	0.078467935
153	0x3e000789	0.12502874
154	0x3d4b3de7	0.04961958
155	0x3d759433	0.059955787
156	0xbd8da63c	-0.06916472
157	0x3c95ea0b	0.018300077
158	0xbddaeccb	-0.10689696
159	0x3ce2692b	0.027638039
160	0x3d69589d	0.056969274
161	0x3d30411c	0.043030843
162	0xbb1c7f71	-0.0023879672
163	0x3d7c5471	0.061603967
164	0xbdc9db05	-0.09856228
165	0x3dd59692	0.1042911
166	0x3e196a69	0.14981999
167	0xbdb3ca40	-0.087788105
168	0xbdb2d126	-0.08731298
169	0xbb0e42ba	-0.0021707253
170	0x3c629201	0.013828755
171	0x3d8fd6f6	0.070234224
172	0xbb09fce1	-0.0021055269
173	0x3c8f61e9	0.017502742
174	0xbe04213b	-0.12903301
175	0x3cb3e5f5	0.021960238
176	0xbde69ddc	-0.11260578
177	0x3d446b7a	0.04795406
178	0xbd9b28e9	-0.07576162
179	0x3df20117	0.11816614
180	0x3dee9f85	0.1165152
181	0xbc518d37	-0.012790016
182	0xbd328294	-0.04358156
183	0xbdc1c096	-0.09460561
184	0xbd041519	-0.032246683
185	0xbcb0a3eb	-0.021562537
186	0xbd94787f	-0.07249545
187	0x3c794c4c	0.0152159445
188	0x3dd25003	0.10269167
189	0x3da3a078	0.07989591
190	0x3df27048	0.11837822
191	0x3e0c1129	0.13678421
192	0x3da67dec	0.081294864
193	0x3d171492	0.03688485
194	0x3df94ce2	0.12172867
195	0xbd48b8df	-0.04900443
196	0xbd966be4	-0.07344797
197	0x3dc589d0	0.09645426
198	0xbe1d6c4f	-0.15373348
199	0xbd843113	-0.06454673
200	0x3de0c2f5	0.10974685
201	0xbd9dc7e5	-0.077041425
202	0xbcaa9eb6	-0.020827632
203	0xbe086e0e	-0.13323233
204	0xbd1ec6d2	-0.03876383
205	0x3cc2cba1	0.023778738
206	0xbdbb5a85	-0.091481246
207	0xbdb34bba	-0.08754678
208	0x3d748c52	0.059704132
209	0xbd9374d5	-0.07200018
210	0xbd021f48	-0.031768113
211	0x3e15cf14	0.14629775
212	0x3d61b377	0.05510279
213	0x3ddb9d40	0.107233524
214	0xbd6f53cb	-0.05842952
215	0x3dc0f454	0.09421602
216	0x3d81e892	0.063431874
217	0xbd89133d	-0.066931225
218	0x3e05b870	0.13058639
219	0xbd6e98d8	-0.058251232
220	0x3cf5ce97	0.030005736
221	0x3de2cbce	0.11074029
222	0x3d062918	0.032754034
223	0xbdda53ae	-0.10660492
224	0x3dc9020c	0.098148435
225	0xbd1f2189	-0.03885034
226	0xbd4fb74c	-0.050711915
227	0x3e0a2992	0.1349242
228	0xbdd9f3cf	-0.10642206
229	0x3dbad209	0.09122092
230	0xbd8374ef	-0.06418788
231	0x3d9e7bc6	0.07738452
232	0xbd073535	-0.033009727
233	0x3ddae066	0.10687332
234	0xbbed1c6e	-0.007236055
235	0x3c20174c	0.009771179
236	0x3de5c335	0.112188734
237	0xbdc79085	-0.09744362
238	0x3d8c9826	0.068649575
239	0xbd051985	-0.03249504
240	0xbdf47b18	-0.11937541
241	0xbd937b56	-0.07201259
242	0xba9e4b31	-0.0012076852
243	0xbdbbeb08	-0.09175688
244	0xbcab00b2	-0.020874355
245	0xbcd90b4e	-0.026494648
246	0xbd937dc1	-0.0720172
247	0xbdf399d7	-0.11894577
248	0xbd76fddc	-0.060300693
249	0x3d9760de	0.07391523
250	0x3da67e9c	0.081296176
251	0x3d7e4e95	0.06208666
252	0xbd60c9ce	-0.054879956
253	0x3b08b0d3	0.0020857349
254	0x3cb053f3	0.021524405
255	0xbcd8134c	-0.026376389

feature_exact.j_encoder.layers.2.bias f4 [32]
0	0x3df1b632	0.11802329
1	0xb8a33306	-7.7819495e-05
2	0xbcee05c4	-0.029055484
3	0xbc700916	-0.014650604
4	0xbdfa0078	-0.12207121
5	0xbe01907f	-0.12652777
6	0x3db4a66d	0.08820806
7	0xbdc49fed	-0.09600816
8	0x3caa1c8b	0.020765563
9	0x3d9d98e8	0.0769518
10	0xbca49ba2	-0.020093743
11	0x3dd7e195	0.10541073
12	0x3d75394e	0.059869103
13	0x38fa150b	0.000119248485
14	0xbdeb4ed9	-0.11489648
15	0xbd736384	-0.059421077
16	0xbe0dbcbb	-0.13841526
17	0x3cf2a44a	0.029619355
18	0x3d93a9c8	0.072101176
19	0x3b64a62f	0.0034889092
20	0x3db5ada8	0.08871013
21	0x3d2f00a5	0.042725224
22	0xbd6d7472	-0.05797238
23	0xb990bedb	-0.0002760802
24	0x3dfc9f6b	0.12335094
25	0xbe07759a	-0.13228455
26	0xbd925d00	-0.071466446
27	0x3d954e79	0.07290358
28	0xbd0e3a9d	-0.034723867
29	0xbca7595f	-0.020428358
30	0xbd876e65	-0.06612853
31	0xbdeea08a	-0.11651714

feature_exact.m_encoder.layers.0.weight f4 [64, 8]
0	0xbeae6ead	-0.34068814
1	0xbbabac33	-0.0052390336
2	0x3e4fd97d	0.20297809
3	0x3e663739	0.22482003
4	0xbe00741c	-0.12544292
5	0x3e8e357c	0.2777518
6	0xbebafcee	-0.36521095
7	0x3dd7849d	0.10523341
8	0x3e482a2c	0.19547337
9	0x3db95377	0.09049123
10	0xbe8a7f5d	-0.27050295
11	0xbe6db18f	-0.23212264
12	0xbde5773f	-0.11204385
13	0xbe331ec6	-0.17492208
14	0xbe249946	-0.16074094
15	0xbe8c4043	-0.27392778
16	0xbdc20d2a	-0.09475167
17	0x3eb45926	0.35224265
18	0x3eb946fe	0.36186975
19	0xbebcb7a4	-0.36858857
20	0xbe3ff519	-0.18745841
21	0xbe644c45	-0.2229472
22	0x3e32e835	0.17471392
23	0x3e80a423	0.25125226
24	0x3e24a16b	0.16077201
25	0x3d823c3f	0.06359147
26	0x3eae126b	0.33998427
27	0x3e80e6ad	0.25175992
28	0x3e1f11aa	0.15534082
29	0xbcd40102	-0.025879387
30	0x3e2b696e	0.16739437
31	0x3d63639b	0.055514913
32	0x3c936209	0.017991083
33	0xbe93ab31	-0.28841546
34	0xba37d2c0	-0.00070123
35	0xbeb41fe9	-0.35180596
36	0xbe8291b4	-0.25501788
37	0x3e3ef06b	0.186464
38	0xbe878342	-0.2646733
39	0xbe2793d4	-0.16364986
40	0x3e5bb4cd	0.21455689
41	0xbe7a9a95	-0.24473031
42	0x3e55416d	0.20825739
43	0x3ea8e6f5	0.32988706
44	0xbe22c656	-0.15895972
45	0xbde0af87	-0.10970979
46	0xbe6fe6c2	-0.23427871
47	0x3e3f0997	0.18656002
48	0xbe6a288f	-0.22867034
49	0x3ded2eb8	0.115811765
50	0xbe267f4d	-0.16259499
51	0x3e3906a9	0.18068947
52	0x3e363c76	0.17796502
53	0x3e849478	0.25894523
54	0xbdeaa382	-0.11456968
55	0x3db7aa0f	0.08967983
56	0x3ea12bca	0.3147872
57	0xbd8102a2	-0.0629933
58	0xbde5ff93	-0.112303875
59	0xba5f28e1	-0.00085128663
60	0xbe274f69	-0.16338886
61	0x3e31d237	0.17365347
62	0xbeac6f04	-0.33678448
63	0xba75e0b9	-0.00093794946
64	0x3e05eeef	0.13079427
65	0x3e9563a6	0.29177588
66	0xbe5a8242	-0.21338752
67	0x3e0193cc	0.12654036
68	0x3ea269c0	0.31721306
69	0xbcf97f75	-0.030456284
70	0x3d283211	0.041063372
71	0xbe9ff51f	-0.312417
72	0x3df01637	0.11722987
73	0xbce94226	-0.028473925
74	0x3e229114	0.15875655
75	0xbe90984e	-0.282412
76	0xbe9c18a1	-0.3048754
77	0x3e5f6adb	0.21818106
78	0x3e22cf77	0.15899454
79	0xbe5dabec	-0.21647614
80	0xbe43736e	-0.19087002
81	0xbc65ab6f	-0.014017924
82	0xbda98a29	-0.08278305
83	0x3945cc87	0.00018863576
84	0x3e812fb2	0.252317
85	0xbe9e0da5	-0.30869785
86	0x3d4b792a	0.049676098
87	0x3e038a48	0.12845719
88	0x3d8b9a28	0.06816512
89	0xbe920d88	-0.2852595
90	0x3e0fdf0d	0.14049931
91	0xbe4c5f71	-0.19958283
92	0xbddfe114	-0.10931602
93	0xbeae1e1d	-0.3400735
94	0x3dced91d	0.10100005
95	0xbe9438e9	-0.2894967
96	0x3e48cecb	0.19610135
97	0x3e29b1bb	0.16571705
98	0x3e64d408	0.22346509
99	0xbd3adee5	-0.045622725
100	0xbe52072f	-0.20510553
101	0x3e2745d6	0.16335234
102	0x3e8ea278	0.2785833
103	0x3e26815a	0.16260281
104	0xbeabcdea	-0.33555537
105	0x3e8eab3c	0.27865016
106	0x3d81ef82	0.063445106
107	0xbe1ef9c0	-0.1552496
108	0xbd263fd3	-0.04058821
109	0x3e6d3c82	0.23167613
110	0x3e531d24	0.20616585
111	0x3d35c940	0.04438138
112	0x3e4944b3	0.19655113
113	0x3ded0943	0.11574032
114	0x3d4f7d40	0.050656557
115	0x3db37a57	0.08763569
116	0x3d1887e9	0.03723899
117	0xbe19d9bb	-0.15024464
118	0x3eac08bd	0.33600417
119	0xbe736a1f	-0.2377095
120	0xbe508595	-0.20363458
121	0xbe6884f3	-0.22706966
122	0x3ea23478	0.31680655
123	0xbdb0d2b9	-0.08633942
124	0xbcb9c77f	-0.022678135
125	0x3db13fc0	0.086547375
126	0x3e959235	0.2921311
127	0xbe72f3f1	-0.23725869
128	0xbe9c4693	-0.30522594
129	0x3e8199cb	0.25312647
130	0xbdcf2108	-0.10113722
131	0xbe399365	-0.18122633
132	0x3e804f28	0.2506039
133	0x3e33ddec	0.17565125
134	0x3d91c4df	0.07117628
135	0x3da0f987	0.078600936
136	0xbd8db826	-0.06919889
137	0xbec73a6c	-0.3891176
138	0x3e9d6171	0.30738404
139	0xbe141360	-0.14460516
140	0xbe202607	-0.15639506
141	0xbdee4fc3	-0.11636307
142	0x3e376cd4	0.17912608
143	0xbde5ad22	-0.11214663
144	0xbe94bb31	-0.29049066
145	0xbeb97e18	-0.36229014
146	0x3eaa8687	0.3330576
147	0x3eba54e3	0.36392888
148	0xbcdefce2	-0.027220193
149	0x3e9a8d2c	0.3018583
150	0x3e55790a	0.20846954
151	0x3e87c992	0.26520973
152	0xbe7c5e31	-0.24645306
153	0x3d1d0470	0.03833431
154	0x3dd90ad2	0.10597767
155	0xbe26c524	-0.1628614
156	0x3ea08306	0.31349963
157	0x3d2fbe44	0.04290606
158	0x3e9edc74	0.31027567
159	0x3e4764e6	0.19472083
160	0x3e90d7e3	0.28289708
161	0xbe1dba0c	-0.15403003
162	0xbe0bf3d5	-0.13667233
163	0x3d8abe51	0.06774581
164	0x3dfac71d	0.12245009
165	0x3bd2cf19	0.0064333794
166	0xbe786fd6	-0.24261412
167	0x3d638d1c	0.055554494
168	0xbeae6641	-0.3406239
169	0x3e162d7f	0.14665793
170	0x3e27c008	0.16381848
171	0xbcd19ae8	-0.02558656
172	0xbdd8e653	-0.10590806
173	0x3ea2639d	0.31716624
174	0x3ca4289a	0.020038892
175	0x3ead565b	0.33854946
176	0x3e7665db	0.24062292
177	0xbe9675ad	-0.29386654
178	0xbe1b69be	-0.15177056
179	0xbcd13c87	-0.025541557
180	0xbc8c7206	-0.017144214
181	0x3d3045fd	0.043035496
182	0xbc476ba7	-0.012171662
183	0x3e415c89	0.18882956
184	0x3e789084	0.24273878
185	0xbeab5b87	-0.33468267
186	0xbe8b438c	-0.27199972
187	0x3d71e13a	0.059052683
188	0xbe60f3bf	-0.21967982
189	0xbe3cf503	-0.1845284
190	0x3eb2d1ea	0.34925777
191	0x3e25dd2e	0.16197655
192	0x3e4ce545	0.20009334
193	0xbe9a1532	-0.30094296
194	0x3b51210a	0.0031910562
195	0x3e683139	0.22675027
196	0xbe4be4e0	-0.19911528
197	0x3dba8660	0.09107661
198	0xbeaa11d8	-0.3321674
199	0x3e154f06	0.14580926
200	0x3e72340f	0.23652671
201	0xbd484a7b	-0.048899155
202	0x3e1d76b2	0.1537731
203	0x3e49708b	0.19671838
204	0x3e14cd9c	0.14531559
205	0xbe396f83	-0.18108945
206	0x3e0ec02f	0.139405
207	0xbe37bea6	-0.1794382
208	0xbe3afa46	-0.18259534
209	0xbe8dca9e	-0.27693647
210	0x3e96ca6f	0.2945132
211	0x3e25839c	0.16163486
212	0xbdc24aa7	-0.09486895
213	0x3e1d16b8	0.15340698
214	0xbd34662f	-0.044042762
215	0x3e2f8e6a	0.1714417
216	0xbea6e134	-0.3259369
217	0x3bf0cb2b	0.0073484383
218	0xbba58b85	-0.0050520324
219	0x3d340f1f	0.043959733
220	0xbccd583a	-0.025066484
221	0x3e006671	0.12539078
222	0xbdfa236d	-0.12213788
223	0xbe7897c9	-0.24276651
224	0xbe00819b	-0.1254944
225	0xbe24aace	-0.16080782
226	0xbe64c2b2	-0.22339895
227	0x3d97d80f	0.07414257
228	0x3e0f1bf9	0.13975514
229	0x3d6815c7	0.056661393
230	0x3eabd7c0	0.33563042
231	0x3da0cd6d	0.07851682
232	0x3d89dc62	0.06731488
233	0xbeb29d42	-0.34885603
234	0xbe97afd0	-0.29626322
235	0xbcccfcde	-0.02502292
236	0xbec5d64b	-0.38640055
237	0xbe5763b5	-0.21034129
238	0xbe700f5b	-0.23443358
239	0x3e8fb6bc	0.28069103
240	0x3a8f132a	0.0010915746
241	0xbd58c41b	-0.052921396
242	0xbe44a006	-0.19201669
243	0xbdabc214	-0.08386627
244	0xbe5ce87a	-0.21573058
245	0x3e6f541e	0.23371932
246	0xbe2f68e5	-0.17129858
247	0x3d630356	0.055423103
248	0x3e4de142	0.2010546
249	0xbeaf614d	-0.34253922
250	0xbeb753c2	-0.3580609
251	0x3dfe889b	0.12428399
252	0xbdc76103	-0.097353004
253	0xbe1ee313	-0.1551631
254	0xbe01db96	-0.12681422
255	0xbea7dcf6	-0.32785767

feature_exact.m_encoder.layers.0.bias f4 [64]
0	0xbdd4ccc6	-0.1039062
1	0x3e52a170	0.20569396
2	0xbe9dfb6c	-0.30855882
3	0xbc609f8d	-0.013709915
4	0xbe8ef252	-0.2791925
5	0xbe635d61	-0.2220359
6	0x3eb24ad1	0.34822705
7	0xbe2c85fc	-0.16847986
8	0xbea357e2	-0.31902987
9	0x3e3342ea	0.17505994
10	0x3d7b4a90	0.061350405
11	0xbe995e08	-0.29954553
12	0x3e41a97a	0.18912306
13	0xbe9ef65b	-0.3104733
14	0xbea145c6	-0.31498545
15	0x3d1386fb	0.0360174
16	0x3cf93704	0.030421741
17	0xbe3ebbaf	-0.18626283
18	0x3e6fa400	0.23402405
19	0x3e46a35b	0.19398253
20	0xbeb976ed	-0.36223546
21	0x3e6f0b3f	0.23344134
22	0xbe71d173	-0.23615055
23	0x3e882d6e	0.2659716
24	0xbe023542	-0.12715629
25	0x3d51c11f	0.051209565
26	0xbc508eb5	-0.0127293365
27	0x3e926f47	0.28600523
28	0x3e84f700	0.25969696
29	0x3e3052d3	0.17219095
30	0x3d8bc97d	0.0682554
31	0x3e107ce1	0.14110138
32	0x3be2f9a0	0.0069267303
33	0xbd679511	-0.056538645
34	0xbe07f91d	-0.13278623
35	0xbe095bcd	-0.13413925
36	0xbe6eb56a	-0.23311391
37	0xbe95dbf7	-0.29269382
38	0x3e387f4a	0.18017307
39	0xbe732b7c	-0.23747057
40	0x3d95ac3d	0.073082425
41	0xbe9ce5b9	-0.30644014
42	0xbe25378b	-0.16134469
43	0xbea46df3	-0.32115135
44	0xbe798b68	-0.24369586
45	0x3d40bfe8	0.047058016
46	0xbe6072e2	-0.21918824
47	0xbead4f97	-0.33849785
48	0x3e5353eb	0.20637481
49	0x3d27755e	0.040883414
50	0xbd6ea2ea	-0.058260836
51	0x3e147fee	0.14501926
52	0x3e175b8e	0.14781019
53	0x3dfec0aa	0.124390915
54	0xbe1d861f	-0.15383194
55	0x3e982835	0.29718176
56	0xbea793e4	-0.3273002
57	0x3bca3409	0.006170754
58	0xbe866a79	-0.26253107
59	0x3e3e8c67	0.18608247
60	0xbe84913c	-0.25892055
61	0x3e8b08ab	0.2715505
62	0x3d59fe10	0.05322081
63	0x3e98f39c	0.2987336

feature_exact.m_encoder.layers.1.weight f4 [64, 64]
0	0x3d6f766e	0.058462553
1	0x3cebd043	0.02878583
2	0xbd6e72d3	-0.058214974
3	0x3d87a983	0.06624129
4	0x3cc71fd4	0.024307169
5	0x3e05bf24	0.13061196
6	0x3c82aa82	0.015950445
7	0xbde24146	-0.11047606
8	0x3d37d961	0.044885043
9	0xbc151984	-0.009100322
10	0x3d391238	0.04518339
11	0x3e061212	0.13092831
12	0x3b5313bb	0.0032207805
13	0xbd076e2e	-0.03306406
14	0xbdaeb089	-0.08529765
15	0xbc13c219	-0.009018444
16	0x3c1543e6	0.0091104265
17	0x3da79d16	0.08184259
18	0xbd08d40d	-0.033405352
19	0x3da0a4a2	0.07843901
20	0x3db74599	0.089488216
21	0xbd53ebf9	-0.051738713
22	0x3b33934d	0.002740103
23	0xbd924b13	-0.071432255
24	0x3d9fa0e7	0.077943616
25	0xbc6f7373	-0.014614928
26	0x3cd5d7cf	0.026103882
27	0x3cc3041a	0.023805667
28	0x3c4c53a9	0.012471118
29	0x3d457460	0.048206687
30	0x3d6fb4ba	0.058521964
31	0xbd0c9ce3	-0.034329306
32	0xbd343679	-0.04399726
33	0xbd071752	-0.032981224
34	0x3e0ec02a	0.13940492
35	0xbc41ff54	-0.01184066
36	0xbdab5b6c	-0.08367047
37	0x3d36c4cf	0.044621285
38	0xbddfe4d7	-0.109323196
39	0x3b96991c	0.004595889
40	0x3e01a6df	0.12661313
41	0x3d93ee1a	0.07223149
42	0xbdc77470	-0.097390056
43	0x3e107508	0.14107144
44	0xbc8edfdc	-0.017440729
45	0xbd387ed1	-0.045042817
46	0xbdb7f11f	-0.08981537
47	0xbdbee554	-0.093210846
48	0x3dfb1f3e	0.12261818
49	0x3d16c66b	0.03681032
50	0x3ddb56fa	0.10709949
51	0xbb77bbef	-0.0037801226
52	0xbddc0d1a	-0.107446864
53	0xbda58965	-0.080828466
54	0xbd85b08f	-0.065278165
55	0x3d98029d	0.074223734
56	0xbca09acf	-0.019605068
57	0xbd8f8140	-0.07007074
58	0x3dc6db9c	0.09709856
59	0x3dad9a86	0.08476739
60	0x3c678633	0.014131117
61	0xbdfc3f40	-0.123167515
62	0xbdd0eb13	-0.10201087
63	0x3dbd46cc	0.09242019
64	0x3c3f3e23	0.011672529
65	0x3d884f07	0.06655698
66	0xbd55557e	-0.052083485
67	0x3db3588f	0.087571256
68	0xbd91c238	-0.071171224
69	0xbde32a57	-0.1109206
70	0xbb6e8a1a	-0.0036398233
71	0xbe03477e	-0.12820241
72	0x3e03382f	0.12814401
73	0x3d973995	0.0738403
74	0xbd129ae4	-0.035792246
75	0xbdab425f	-0.08362269
76	0x3d31eff8	0.043441743
77	0x3d9eeae1	0.07759643
78	0xbc0d4806	-0.008623129
79	0x3d1144f6	0.035466157
80	0x3d0cf6cc	0.03441505
81	0x3c9c80cc	0.019104384
82	0x3cb8944a	0.022531647
83	0x3ce50886	0.027958166
84	0x3db2c323	0.087286256
85	0x3d7fac89	0.0624204
86	0xbdbc5656	-0.09196155
87	0xbd8d302e	-0.06893955
88	0x3db3805a	0.087647155
89	0xbd25a8c2	-0.040444143
90	0x3d4c418c	0.049867198
91	0x3d7c0d6b	0.061536234
92	0x3cc7b4a6	0.024378132
93	0x3e0433e7	0.12910424
94	0xbd0f4d7c	-0.034986004
95	0x3ddc2cdc	0.10750744
96	0x3c74558c	0.014912974
97	0x3db82085	0.089905776
98	0xbd44e16d	-0.048066545
99	0xbb18542d	-0.0023243532
100	0xbc86b8c3	-0.016445523
101	0xbda7a997	-0.081866436
102	0xbdcf9234	-0.10135308
103	0xbc9b40fe	-0.01895189
104	0xbde71707	-0.11283689
105	0x3c7fa6fa	0.015603775
106	0x3c3dc75b	0.011583175
107	0xbdd5c7aa	-0.104384735
108	0xbc82210a	-0.015884895
109	0xbde09b69	-0.10967142
110	0xbd80bcb0	-0.06285989
111	0x3d496152	0.049165078
112	0x3dfab618	0.12241763
113	0xbd337ff4	-0.043823197
114	0xbd2bd4e6	-0.041951083
115	0xbc6647c5	-0.014055197
116	0x3db0ed41	0.086390026
117	0x3d51692d	0.051125694
118	0x3e10db16	0.14146075
119	0xbd56b60d	-0.05241971
120	0xbda852b2	-0.08218898
121	0xbbfb8e7f	-0.007676899
122	0xbbc97f8c	-0.006149238
123	0xbdb6bc45	-0.08922628
124	0x3d822be0	0.06356025
125	0xbd8461aa	-0.064639404
126	0x3ba43829	0.0050115776
127	0x3dbb9dc1	0.091609485
128	0xb944899e	-0.00018743283
129	0xbd85ea8d	-0.06538878
130	0xbdfec178	-0.12439245
131	0xbce9239c	-0.028459363
132	0x3def39ff	0.11680984
133	0x3d6a5c32	0.05721683
134	0xbb5da92f	-0.0033822765
135	0xbd720d18	-0.05909452
136	0x3bce2bbe	0.0062918356
137	0xbd47c697	-0.048773374
138	0xbd42fb26	-0.047602795
139	0x3d0c874d	0.03430872
140	0x3ccb8b4a	0.024846692
141	0x3dd0c1a8	0.10193187
142	0xbde14a06	-0.11000447
143	0x3dd4cc81	0.103905685
144	0x3c1ac42f	0.009446188
145	0x3d3262a6	0.04355111
146	0x3dc7e685	0.09760765
147	0xbdd03b12	-0.10167517
148	0x3de6196e	0.11235319
149	0xbdae5acc	-0.08513412
150	0xbd56363c	-0.052297816
151	0xbc9f3369	-0.019433694
152	0xbce22c0b	-0.027608892
153	0xbc5f233b	-0.013619239
154	0xbcb64820	-0.022251189
155	0xbcb84e6b	-0.02249833
156	0xbc32a8b7	-0.010904483
157	0x3d84de4d	0.06487713
158	0x3d4df632	0.05028362
159	0xbce074e7	-0.027399493
160	0x3d3fb40b	0.04680256
161	0x3c88437d	0.016633743
162	0x3c2a5799	0.0103968615
163	0x3d2c58ce	0.04207688
164	0xbdbe6483	-0.09296515
165	0x3dcff782	0.1015463
166	0x3c8b5efe	0.01701307
167	0xbc8fa1fe	-0.017533299
168	0xbe0020bf	-0.12512492
169	0x3de2b0c6	0.11068873
170	0x3df893a2	0.12137534
171	0x3c2ac945	0.010423963
172	0xbd9169da	-0.07100268
173	0xbd3e2258	-0.04641947
174	0x3e397433	0.18110733
175	0xbdb3393a	-0.087511495
176	0x3d59ec73	0.05320401
177	0x3cd21978	0.02564691
178	0x3e000a01	0.12503816
179	0x3dec9210	0.11551297
180	0x3dba4987	0.090960555
181	0xbe011d97	-0.12608944
182	0xbd95bf7d	-0.07311914
183	0xbe033f39	-0.12817086
184	0x3df5c2fe	0.120000824
185	0x3dcaf605	0.09910206
186	0xbcd901f6	-0.026490193
187	0x3dab2423	0.08356502
188	0xbc8398e9	-0.016064124
189	0xbd0b1330	-0.033953846
190	0x3dc68462	0.09693219
191	0xbd4cb5e8	-0.049978167
192	0xbdadbb79	-0.08483023
193	0x3cbfe0e3	0.023422664
194	0xbd802777	-0.06257527
195	0xbc34ea25	-0.0110421525
196	0x3a7cd0a6	0.0009644128
197	0x3e071e8c	0.13195246
198	0xbde03497	-0.10947531
199	0x3d2f5f01	0.042815212
200	0x3de8fd34	0.1137642
201	0x3d9c89ec	0.07643494
202	0xbd670d4f	-0.056409176
203	0xbdf0398e	-0.11729728
204	0xbd56d882	-0.05245257
205	0xbcf81138	-0.030281648
206	0xbdb8391b	-0.08995267
207	0x3d9db99b	0.07701417
208	0x3dd7c3b3	0.105353735
209	0x3e0e8561	0.13918068
210	0xbb4929a3	-0.0030694983
211	0xbd6a79e6	-0.057245158
212	0x3db9ce45	0.09072546
213	0xbda91981	-0.082568176
214	0xbd953b24	-0.07286671
215	0xbc59e5de	-0.0132994335
216	0xbc034ec0	-0.008014381
217	0xbcecec4e	-0.028921273
218	0x3e04e9b4	0.12979776
219	0x3d92082e	0.071304664
220	0x3ccdbb6c	0.025113784
221	0xbcdeb740	-0.02718699
222	0xbc1a276a	-0.009408811
223	0x3df08f02	0.117460266
224	0xbdb92a77	-0.09041303
225	0xbcc3daf2	-0.023908112
226	0x3cb1d0b7	0.021705968
227	0x3dbb66df	0.091504805
228	0x3db2c8e2	0.087297216
229	0xbd99b0f0	-0.07504451
230	0xbdd48a30	-0.1037792
231	0x3d853150	0.06503546
232	0x3df77265	0.12082366
233	0xbd8c0f6d	-0.0683888
234	0xbdd46638	-0.10371059
235	0x3df9409c	0.121705264
236	0x3d505ea6	0.050871514
237	0x3de1be9b	0.11022683
238	0x3c393bf4	0.011305798
239	0x3c705e3a	0.014670903
240	0x3da9a526	0.08283453
241	0x3cc3633e	0.023851033
242	0xbd4eb198	-0.050462335
243	0x3dc319eb	0.09526428
244	0xbdf2c951	-0.11854804
245	0x3db4e3b9	0.08832497
246	0xbd346314	-0.0440398
247	0x3cfa600a	0.030563373
248	0x3e04a181	0.12952234
249	0x3e07c239	0.13257684
250	0x3d923e7e	0.07140826
251	0x3ac55397	0.0015054819
252	0x3d9a3549	0.075296946
253	0x3d9fb8bf	0.077989094
254	0x3da380e6	0.0798357
255	0xbda58349	-0.08081681

feature_exact.m_encoder.layers.1.bias f4 [64]
0	0x3d2d98b8	0.042381972
1	0xbc383594	-0.011243243
2	0xbdbedbee	-0.09319292
3	0xbd4380c2	-0.047730215
4	0xbd9bd679	-0.07609267
5	0xbd8b80e0	-0.0681169
6	0x3ccd8c17	0.025091214
7	0x3daed9ab	0.085376106
8	0xbd65f9f1	-0.056146566
9	0x3d8ba63a	0.068188146
10	0xbda05cdd	-0.07830212
11	0x3cf86443	0.030321246
12	0xbd2cc8f1	-0.04218382
13	0xbc2af589	-0.010434517
14	0xbd1bdd8f	-0.03805309
15	0xbe1b86af	-0.15188096
16	0xbd02a40c	-0.03189473
17	0xbddfca71	-0.109272845
18	0xbddf4502	-0.10901834
19	0x3aae7d74	0.0013312534
20	0x3dbab440	0.09116411
21	0xbda86e8d	-0.08224211
22	0xbb252610	-0.002519969
23	0xbcf590f8	-0.029976353
24	0xbd39d6d4	-0.04537089
25	0x3d41c966	0.04731121
26	0xbdb947b6	-0.09046881
27	0x3d6fa837	0.05851003
28	0xbcbe272e	-0.023212042
29	0xbd8c4a6a	-0.06850131
30	0xbd88a67a	-0.06672378
31	0x3e02a22b	0.12757175
32	0xbde315d6	-0.11088149
33	0x3d1faa4a	0.03898076
34	0x3d93b36a	0.07211955
35	0x3dc5ce0b	0.0965844
36	0xbbd47303	-0.006483437
37	0xbe076fb7	-0.1322621
38	0xbd995bc3	-0.07488205
39	0x3c88d581	0.01670337
40	0xbe01d25b	-0.126779
41	0x3e0c8e3a	0.1372613
42	0xbd9436ce	-0.07237016
43	0xbd9f31be	-0.077731594
44	0xbc238807	-0.009981162
45	0xbc4fdf6f	-0.012687548
46	0xbdf7010b	-0.12060746
47	0xbdbbfd3c	-0.0917916
48	0x3d6ac01c	0.057312116
49	0xbdc7ccd2	-0.09755863
50	0x3d93e9ac	0.07222304
51	0xbc3625a6	-0.0111173745
52	0x3df6d453	0.120522164
53	0xbd1402c9	-0.03613547
54	0x3d2dc50c	0.042424247
55	0xbdbf65b1	-0.09345568
56	0xbd8dfdb4	-0.06933156
57	0xbd1695fd	-0.036764134
58	0x3d6c7e03	0.05773736
59	0x3c49af42	0.012309851
60	0x3d83719f	0.06418156
61	0xbc83fdcc	-0.01611223
62	0xbd36f199	-0.044664
63	0xbd854141	-0.06506587

feature_exact.m_encoder.layers.2.weight f4 [32, 64]
0	0x3d3e5e16	0.046476446
1	0x3da0e3f9	0.07855982
2	0xbc02ac61	-0.007975669
3	0x3da12abc	0.07869479
4	0x3d93fc13	0.07225814
5	0xbe24f0ca	-0.16107479
6	0xbc8ddec4	-0.017318137
7	0xbdccd911	-0.1000234
8	0x3d858b5b	0.065207206
9	0xbb2db0e1	-0.0026503133
10	0xbdf2ceaa	-0.11855824
11	0x3b7cd95c	0.0038581705
12	0x3db2ffa0	0.08740163
13	0xbd66836b	-0.056277674
14	0x3c7d458d	0.015458477
15	0x3dbc0969	0.09181482
16	0xbdf1197a	-0.117724374
17	0xbc1f73a2	-0.009732159
18	0xbd539ad9	-0.051661346
19	0x3db73d74	0.08947268
20	0x3d538ccd	0.05164795
21	0x3d5c6ada	0.05381284
22	0xbd867f2f	-0.06567227
23	0x3dc27298	0.09494513
24	0xbd088e33	-0.033338737
25	0x3d8d3dca	0.06896551
26	0x3d635ad1	0.05550653
27	0xbd071ec6	-0.032988332
28	0xbd1e6970	-0.03867477
29	0xbca5e7a1	-0.02025205
30	0x3c54ac3e	0.012980519
31	0xbdda7cff	-0.10668372
32	0xbd8f7925	-0.07005528
33	0xbc95293b	-0.018208137
34	0xbde5328f	-0.11191284
35	0x3da2b6b8	0.07945007
36	0xbd70df78	-0.058806866
37	0xbd5af7e5	-0.053459067
38	0xbd261a92	-0.040552683
39	0x3d96cf0c	0.0736371
40	0xbe12bcf1	-0.14329888
41	0xbda039b7	-0.07823508
42	0x3dca610f	0.09881794
43	0xbda11e78	-0.078671396
44	0xbd8fc409	-0.070198126
45	0xbd65b8aa	-0.056084312
46	0xbdce7536	-0.1008095
47	0x3b15dde6	0.0022867857
48	0x3d8d2b4f	0.06893026
49	0xbd9b3863	-0.07579114
50	0x3db9c2e9	0.09070379
51	0xbd5a9caa	-0.053372063
52	0xbde313d1	-0.11087764
53	0x3dda16de	0.10648893
54	0x3c2479a0	0.010038763
55	0x3d73b79f	0.059501287
56	0x3c7adc7b	0.015311356
57	0xbd735c87	-0.059414413
58	0x3dab197b	0.083544694
59	0x3d5506ce	0.052008443
60	0x3d2a15c4	0.041524664
61	0xbd60f425	-0.054920334
62	0x3b9db716	0.0048130853
63	0xbe041ba1	-0.12901165
64	0x3da2c191	0.07947076
65	0x3dfe144b	0.12406214
66	0x3d542a3f	0.0517981
67	0xbd905060	-0.0704658
68	0x3d352abb	0.044230204
69	0xbc80197d	-0.015637154
70	0x3d39a19d	0.045320142
71	0x3d5a39ce	0.053277783
72	0x3cbe5a60	0.023236454
73	0x3df0adfc	0.11751935
74	0xbdb75c4a	-0.089531496
75	0xbdb09ff6	-0.0862426
76	0x3c8062f8	0.015672192
77	0xbd34c25a	-0.04413066
78	0x3d4e63c2	0.050388105
79	0x3d74126b	0.059587877
80	0x3dfdc4f2	0.1239108
81	0x3de9abf0	0.114097476
82	0xbda9e957	-0.08296459
83	0x3d6d3377	0.05791041
84	0xbd4de43d	-0.050266493
85	0x3cce3a39	0.025174247
86	0xbdae677d	-0.085158326
87	0xbd84a629	-0.06477005
88	0xbd9f235c	-0.07770416
89	0xbcad8185	-0.021179924
90	0x3d4c3662	0.04985655
91	0x3cf345d6	0.029696386
92	0x3dccc3e2	0.09998299
93	0x3e0dfe8b	0.13866632
94	0x3e0d42fe	0.13795087
95	0xbe03ed30	-0.12883449
96	0x3d6248da	0.055245258
97	0xbbdc94d0	-0.006731607
98	0x3dafd09c	0.08584711
99	0xbda0917f	-0.07840251
100	0xbd1e7283	-0.038683426
101	0xbcf77bb7	-0.030210359
102	0x3d432558	0.047643036
103	0xbdb46631	-0.08808554
104	0xbd909bd7	-0.07060974
105	0x3dd5d67f	0.104413025
106	0x3e073e15	0.13207276
107	0xbd851fdd	-0.06500218
108	0xbcba6a04	-0.02275563
109	0xbdb1dde0	-0.086848974
110	0xbdc65e06	-0.09685902
111	0x3d2e08b8	0.042488784
112	0xbd37877a	-0.044806935
113	0xbc217f8f	-0.0098570725
114	0x3dfe26c7	0.1240974
115	0xbdcbed63	-0.09957387
116	0x3e018ebc	0.12652105
117	0xbc81b8c7	-0.015835179
118	0xbba35185	-0.004984083
119	0xbd9be8c1	-0.07612754
120	0x3d87bc05	0.06627659
121	0x3cd3b2a2	0.025842015
122	0x3c301587	0.01074732
123	0xbdb4eef2	-0.08834638
124	0xbd439460	-0.047748923
125	0xbdb00776	-0.08595173
126	0x3de3d314	0.11124244
127	0x3cd30fc8	0.025764361
128	0x3daac642	0.08338596
129	0x3d55bab1	0.052179996
130	0xbd7985f0	-0.06091875
131	0x3ddf110a	0.10891922
132	0x3dbb5a99	0.091481395
133	0x3e15e55a	0.14638272
134	0x3d2a875b	0.04163299
135	0x3d81b16b	0.06332668
136	0x3bdf3148	0.0068112947
137	0xbbd1fa0e	-0.0064079827
138	0xbda89ada	-0.082326606
139	0x3d841b42	0.064505115
140	0x3de88927	0.11354285
141	0xbdcb6ec4	-0.09933236
142	0xbdefb62d	-0.11704669
143	0x3df4cc04	0.119529754
144	0xbdb29404	-0.08719638
145	0xbe0c0fe1	-0.13677932
146	0xbd1d365d	-0.038381923
147	0x3ddad2fd	0.10684774
148	0xbd8c92c5	-0.068639316
149	0x3cc4822a	0.023987848
150	0x3d63c292	0.05560548
151	0x3d996187	0.07489305
152	0x3debb4cc	0.11509094
153	0xbdd9c82a	-0.106338814
154	0x3c9f9970	0.019482344
155	0x3c429b36	0.0118778255
156	0xbdd4263b	-0.103588544
157	0xbdfa92df	-0.12235045
158	0xbd0e5cf4	-0.034756616
159	0x3e0430bd	0.12909217
160	0xbd84da1d	-0.06486914
161	0x3d2cfd76	0.042233907
162	0xbcfbe199	-0.030747222
163	0x3dfa685f	0.122269385
164	0x3dcd446c	0.10022816
165	0xbdf8b009	-0.12142951
166	0xbd3f28ee	-0.046669893
167	0x3d9de11a	0.0770895
168	0xbbbb7c26	-0.0057215868
169	0xbd85138b	-0.06497868
170	0xbd8ae19b	-0.06781312
171	0xbd7096a9	-0.05873743
172	0xbd66c710	-0.056342185
173	0x3d0342f8	0.03204629
174	0x3c9d75f3	0.019221282
175	0x3de44c11	0.11147321
176	0x3d5cb574	0.053883985
177	0xbe094897	-0.13406597
178	0xbc838dad	-0.016058767
179	0xbdb5b025	-0.088714875
180	0xbdccc25d	-0.09998009
181	0x3d641908	0.055687934
182	0x3dbdef75	0.092741884
183	0x3d988722	0.074476495
184	0x3d9c0ddb	0.0761983
185	0x3d676473	0.05649228
186	0x3da64e5a	0.08120413
187	0xbda07187	-0.078341536
188	0xbd5b7eb7	-0.05358764
189	0x3d12b005	0.035812397
190	0xbdd33dce	-0.10314523
191	0xbc0b890a	-0.008516559
192	0xbda69e7d	-0.08135698
193	0xbd284d7e	-0.041089527
194	0xbd53a661	-0.051672343
195	0x3dd0dd8e	0.10198508
196	0xbda45e4c	-0.08025798
197	0xbd13390f	-0.035943087
198	0xbde1304a	-0.109955385
199	0xbd90cd49	-0.07070405
200	0x3d4334f8	0.047657937
201	0x3c7bec98	0.015376233
202	0x3d809873	0.062790774
203	0xbd6679d7	-0.05626854
204	0x3db51685	0.08842186
205	0xbc95a583	-0.018267399
206	0xbdd3534b	-0.10318621
207	0xbd909c3b	-0.070610486
208	0x3d2b172c	0.041770145
209	0x3d8fb598	0.07017058
210	0xbd4cc4b0	-0.049992263
211	0xbcb9423c	-0.02261459
212	0xbd64aae6	-0.055827044
213	0x3b77cb23	0.0037810288
214	0xbde44970	-0.111468196
215	0xbd5ef893	-0.054436278
216	0xba27b3fb	-0.00063973636
217	0xbd2df025	-0.042465348
218	0x3be08f4c	0.00685302
219	0x3c5b28ce	0.013376428
220	0xbe287c65	-0.16453703
221	0x3d63f30c	0.05565171
222	0x3deae65b	0.11469718
223	0xbca37233	-0.019951915
224	0x3c1a7041	0.0094261775
225	0x3d78e9be	0.06076979
226	0xbcb72f54	-0.022361435
227	0x3c989e89	0.018630283
228	0x3c00cb8a	0.0078610275
229	0xbdbaf108	-0.09128004
230	0x3cc6fb07	0.024289621
231	0xbd32a232	-0.043611713
232	0x3d6a5fc6	0.057220243
233	0x3db910fa	0.09036441
234	0xbd794ed6	-0.0608662
235	0x3db30ccd	0.08742676
236	0xbd7f0020	-0.06225598
237	0xbd96f372	-0.07370652
238	0xbd1511f3	-0.03639407
239	0x3d827cb3	0.06371441
240	0xbdb95f1e	-0.09051345
241	0x3dcf7a18	0.101307094
242	0x3db046d6	0.08607261
243	0xbd86f749	-0.06590135
244	0x3cbbb02a	0.02291115
245	0x3d95882d	0.07301364
246	0x3ce48575	0.027895669
247	0xbd236635	-0.039892394
248	0x3dcdfdd6	0.10058181
249	0x3d59da62	0.05318678
250	0x3da7509e	0.081696734
251	0xbdb6a0db	-0.089173995
252	0x3c82b542	0.015955571
253	0x3d1411ab	0.036149662
254	0xbe0604c9	-0.13087763
255	0x3dc0c28d	0.094121076

feature_exact.m_encoder.layers.2.bias f4 [32]
0	0xbd1f0581	-0.03882361
1	0xbcecfb43	-0.028928405
2	0xbc847450	-0.016168743
3	0x3ca673a6	0.020318817
4	0xbd9d9a37	-0.0769543
5	0x3df54159	0.11975355
6	0x3e022705	0.12710197
7	0xbcf7e756	-0.030261677
8	0xbdb48b17	-0.08815592
9	0x3d908fce	0.070586786
10	0x3d99cf1d	0.07510207
11	0x3c9e67a4	0.01933653
12	0xbdb461fd	-0.08807752
13	0x3d95a0dc	0.07306072
14	0x3d01c9f0	0.031686723
15	0xbd619bbd	-0.055080164
16	0x3b226f10	0.0024785437
17	0x3cffb387	0.031213535
18	0x3daaa05c	0.083313674
19	0x3d935ece	0.07195817
20	0xbd64ec8f	-0.055889662
21	0xbbb0ce01	-0.0053956513
22	0x3d254435	0.04034825
23	0x3dbb700e	0.09152232
24	0xbd2d3438	-0.042286128
25	0x3e00c5ed	0.12575503
26	0xbd910a9d	-0.070821024
27	0x3ce93d4f	0.028471617
28	0xbdae2805	-0.08503727
29	0x3c45ceeb	0.012073259
30	0xbd47af87	-0.04875138
31	0x3d82fb82	0.063956276

feature_exact.j_ln.weight f4 [32]
0	0x3f809fbd	1.0048748
1	0x3f871736	1.0553958
2	0x3f836c47	1.0267419
3	0x3f81e148	1.0146875
4	0x3f7bf128	0.9841485
5	0x3f7a9a98	0.9789214
6	0x3f81a6c2	1.0129015
7	0x3f823f36	1.017554
8	0x3f819df0	1.0126324
9	0x3f801e68	1.0009279
10	0x3f816ed2	1.0111945
11	0x3f806182	1.0029757
12	0x3f812b3d	1.009132
13	0x3f79af3b	0.97533005
14	0x3f7f3f60	0.9970608
15	0x3f7c7c30	0.98626995
16	0x3f7cb5f2	0.98715127
17	0x3f806323	1.0030254
18	0x3f7c9a76	0.9867319
19	0x3f80beca	1.0058224
20	0x3f7ec7b1	0.99523455
21	0x3f826a0d	1.0188614
22	0x3f83e6d6	1.030482
23	0x3f829b22	1.0203593
24	0x3f7f09e7	0.99624485
25	0x3f833a40	1.0252151
26	0x3f808867	1.0041627
27	0x3f829c49	1.0203944
28	0x3f7f25f9	0.99667317
29	0x3f8348cd	1.0256592
30	0x3f84d399	1.0377074
31	0x3f8268b3	1.0188202
