trained_network/SD2/same3-1.pth (torch, 60623 bytes, 26 tensors)

feature_exact.j_encoder.linears.0.weight f4 [8, 14]
0	0xbce9625d	-0.028489286
1	0x3e59c895	0.21267922
2	0xbc2bc0cc	-0.010482978
3	0x3d576651	0.05258781
4	0x3dd8632e	0.10565792
5	0x3dcd6807	0.10029607
6	0xbe6feb94	-0.2342971
7	0x3e78712f	0.24261926
8	0x3e9d1bd0	0.30685282
9	0x3de878d5	0.11351172
10	0x3c901460	0.01758784
11	0xbd53db36	-0.051722728
12	0xbdfc1908	-0.12309462
13	0xbe80c8e8	-0.2515328
14	0x3a00e54a	0.0004916979
15	0x3e9a75d6	0.30168027
16	0xbcedc260	-0.02902335
17	0xbea8e998	-0.32990718
18	0xbe14f853	-0.14547853
19	0xbd892017	-0.06695574
20	0xbdb864f0	-0.09003627
21	0x3d82c7be	0.06385754
22	0x3e911d0e	0.2834248
23	0xbe9fb8b3	-0.31195602
24	0x3e03ed8d	0.12883587
25	0xbe45d5cd	-0.1931984
26	0x3d25b213	0.040453028
27	0xbe07107a	-0.13189879
28	0x3e740f17	0.23833881
29	0x3e27bbe9	0.16380276
30	0xbe6b1ffb	-0.22961418
31	0xbe129203	-0.14313512
32	0x3b874cc6	0.004129025
33	0xbdc4fc3a	-0.09618421
34	0x3e5001dc	0.2031321
35	0xbe4a8dd3	-0.19780664
36	0xbdf38159	-0.118899055
37	0x3e58a156	0.21155295
38	0x3d87487f	0.066056244
39	0xbd96f8d8	-0.07371682
40	0x3d232f27	0.03983989
41	0x3e587d55	0.2114156
42	0xbe1c6c3c	-0.15275663
43	0x3e23614e	0.15955088
44	0x3e95e360	0.29275036
45	0xbe20aca5	-0.15690859
46	0x3e31fa4d	0.17380638
47	0x3e8d23b5	0.27566305
48	0xbe293067	-0.1652237
49	0xbe7d53b1	-0.24738957
50	0xbe6205ab	-0.22072475
51	0x3de33551	0.11094154
52	0xbe72d98f	-0.23715805
53	0xbe0b2a62	-0.13590387
54	0xbe6eea76	-0.23331627
55	0x3e1ff14c	0.15619391
56	0x3e4121d9	0.18860568
57	0xbc53f96f	-0.012937888
58	0xbe3f8590	-0.18703294
59	0x3d4e4530	0.05035895
60	0xbbe5f2a4	-0.0070174504
61	0xbda032fc	-0.078222245
62	0xbe06271a	-0.13100854
63	0xbd8bec41	-0.06832171
64	0x3e087cc3	0.13328843
65	0x3e5779e1	0.21042587
66	0x3dfd37a4	0.12364128
67	0xbd2f4657	-0.04279169
68	0x3db4d807	0.088302664
69	0x3e48d42f	0.19612192
70	0x3dc9cd0c	0.09853563
71	0xbe6e48f0	-0.23270011
72	0x3d407e2c	0.046995327
73	0xbcd42bc0	-0.025899768
74	0x3e63d019	0.22247352
75	0xbe203d13	-0.15648298
76	0xbe6873ac	-0.22700375
77	0x3e5bcc21	0.21464588
78	0x3d8b6d57	0.06807964
79	0xbd796962	-0.060891517
80	0xbe16799f	-0.14694832
81	0x3ccfa125	0.025345394
82	0x3c47f768	0.012204982
83	0xbce5d563	-0.028055852
84	0x3ad5cf79	0.0016312442
85	0x3e26ecf3	0.16301326
86	0x3df1d40a	0.11808021
87	0xbd44017b	-0.047852974
88	0x3e95c92b	0.2925504
89	0xbdb40b77	-0.08791249
90	0xbe5d1842	-0.21591285
91	0x3e12f202	0.14350131
92	0xbdecda87	-0.11565118
93	0x3de805c1	0.113292225
94	0xbd871167	-0.06595116
95	0x3e2d6fa0	0.16937113
96	0x3d5713af	0.052509006
97	0xbe6531e5	-0.22382315
98	0xbe1f594f	-0.15561412
99	0xbddb80dd	-0.10717938
100	0x3e809210	0.25111437
101	0x3e46b801	0.1940613
102	0xbe4a2fa5	-0.19744737
103	0x3cc54f11	0.024085553
104	0x3e5975e5	0.2123638
105	0xbe802189	-0.25025585
106	0x3cc8a8ea	0.024494607
107	0x3dd70c30	0.105003715
108	0x3e0eddea	0.13951841
109	0x3e47cf68	0.19512713
110	0xbe6ea109	-0.23303618
111	0xbe395713	-0.18099622

feature_exact.j_encoder.linears.0.bias f4 [8]
0	0xbe57cbb3	-0.21073799
1	0x3d2038f8	0.03911683
2	0xbdd221b7	-0.10260337
3	0x3cf6eced	0.030142272
4	0xbe6a3ccb	-0.22874753
5	0xbcf0b7c1	-0.029384496
6	0x3d80ce76	0.06289379
7	0xbe4cc074	-0.1999529

feature_exact.j_encoder.linears.1.weight f4 [8, 8]
0	0x3c829256	0.015938919
1	0xbe9a03c0	-0.30080986
2	0xbd1769a3	-0.036965977
3	0xbd9f4ad5	-0.07777945
4	0xbe10ceec	-0.14141434
5	0x3ea740bc	0.32666576
6	0xbe858186	-0.2607538
7	0xbea74143	-0.32666978
8	0x3e4ffd0b	0.20311372
9	0xbe207ba0	-0.15672159
10	0xbe97763d	-0.29582396
11	0x3e92a7b3	0.2864357
12	0xbe2a78f1	-0.16647698
13	0x3cfac7b7	0.03061281
14	0x3e9b2b4c	0.3030647
15	0x3d1041e8	0.035219103
16	0x3d0c761c	0.034292325
17	0xbd1e1a8a	-0.03859953
18	0xbe5ff62f	-0.21871255
19	0xbd5dd9bf	-0.054162737
20	0xbe121298	-0.14264905
21	0x3de31c41	0.110893734
22	0xbe92e42c	-0.28689706
23	0xbeb5328f	-0.35390136
24	0x3c772cec	0.015086394
25	0x3ea79dab	0.3273748
26	0xbda36b92	-0.07979502
27	0xbdc014f1	-0.09378994
28	0xbe9154f9	-0.28385141
29	0x3bd2a274	0.0064280573
30	0xbe118b59	-0.14213313
31	0x3e3cb7c9	0.18429483
32	0x3de2a9bb	0.1106753
33	0x3ecb058b	0.39652666
34	0xbd9249ec	-0.07143006
35	0x3e9c73ef	0.305572
36	0x3d91a8ff	0.071123116
37	0x3eaf7f23	0.34276685
38	0x3d4ef5e0	0.050527453
39	0xbd0c9bbf	-0.03432822
40	0xbd2e15eb	-0.04250137
41	0xbca7e0e3	-0.020492977
42	0xbe4f4e0a	-0.20244613
43	0x3e33bd3b	0.17552654
44	0xbe96f68f	-0.29484984
45	0xbe7d8568	-0.24757922
46	0xbd3f3b52	-0.04668743
47	0xbe881235	-0.2657639
48	0x3d0b9706	0.034079574
49	0xbe4683b7	-0.19386183
50	0xbdf8e323	-0.12152698
51	0x3dcd6cf3	0.10030546
52	0x3e930df0	0.2872157
53	0xbea386a5	-0.31938663
54	0x3e386f70	0.1801126
55	0x3e8d1217	0.27552864
56	0x3e9374f7	0.28800175
57	0x3e80470a	0.25054199
58	0xbcdb16f1	-0.026744338
59	0x3b871bba	0.0041231783
60	0x3e6475da	0.22310582
61	0x3dcfb54b	0.10142001
62	0xbe26169d	-0.16219564
63	0xbde79129	-0.11306984

feature_exact.j_encoder.linears.1.bias f4 [8]
0	0xbe645d6b	-0.22301261
1	0xbe91c20b	-0.28468356
2	0x3ea695fe	0.3253631
3	0xbe7b46e3	-0.2453876
4	0x3d452147	0.04812744
5	0xbd92537b	-0.07144829
6	0x3df80ecf	0.121121995
7	0xbe71afb7	-0.23602186

feature_exact.j_encoder.linears.2.weight f4 [8, 8]
0	0xbea13f8d	-0.31493798
1	0x3de2422b	0.11047777
2	0xbc51ed4f	-0.012812926
3	0x3e39e287	0.1815282
4	0x3e36e453	0.17860536
5	0xbe63d04a	-0.22247425
6	0x3d09fa57	0.03368601
7	0x3e8096c0	0.25115013
8	0x3d493d2d	0.049130607
9	0x3e0fad3c	0.14030927
10	0x3ea619f3	0.32441673
11	0xbea46c62	-0.3211394
12	0xbda5c20e	-0.080936536
13	0x3e124cec	0.14287156
14	0xbe85cd90	-0.26133394
15	0x3e273c03	0.16331486
16	0x3e054d45	0.13017757
17	0x3da05965	0.07829551
18	0xbe25503b	-0.16143887
19	0x3ebbd753	0.36687717
20	0x3ebd5fa7	0.3698704
21	0xbdf2511a	-0.11831875
22	0xbe02256c	-0.12709588
23	0x3e10acca	0.14128414
24	0x3dadd594	0.084880024
25	0xbe98569b	-0.29753575
26	0x3df6f6c6	0.12058787
27	0xbdb8ef9d	-0.090300776
28	0xbeb5274a	-0.35381538
29	0x3e3f1b91	0.1866286
30	0x3e9dd95d	0.30829898
31	0xbe92bc20	-0.28659153
32	0xbe26dcea	-0.1629521
33	0xbd5a0c4e	-0.05323439
34	0xbe418fb4	-0.18902475
35	0xbe9e1cc7	-0.3088133
36	0xbe193400	-0.14961243
37	0xbe8fad3e	-0.2806186
38	0xbe872b86	-0.26400393
39	0xbe9cb9d5	-0.3061053
40	0x3d61b9d1	0.05510885
41	0x3ec26e1f	0.3797464
42	0xbdf8f6ee	-0.12156473
43	0x3eb41ba2	0.35177332
44	0x3e5a9dfe	0.21349332
45	0xbbb47e52	-0.0055082226
46	0x3e665b8d	0.22495861
47	0xbcc8e3e5	-0.024522731
48	0x3dd63420	0.10459161
49	0xbe571206	-0.21002969
50	0xbe305c28	-0.17222655
51	0xbd9319d7	-0.07182663
52	0xbd0cdac6	-0.034388326
53	0xbe3f276b	-0.1866738
54	0x3e9654bb	0.2936152
55	0xbeb69a18	-0.3566444
56	0xbc86011a	-0.016357947
57	0xbe6b09a1	-0.22952892
58	0x3ebe4b8a	0.37167007
59	0xbd63995c	-0.055566177
60	0x3e10697a	0.14102736
61	0x3e4668b4	0.19375879
62	0xbe9ef879	-0.31048945
63	0x3e9bc000	0.30419922

feature_exact.j_encoder.linears.2.bias f4 [8]
0	0x3e86ee9f	0.26353928
1	0xbcf7195a	-0.030163456
2	0xbdb6e248	-0.089298785
3	0xbcb1be60	-0.021697223
4	0xbe8e5008	-0.27795434
5	0xbe9ab056	-0.3021266
6	0x3e55ffee	0.2089841
7	0xbe8b6c83	-0.27231225

feature_exact.m_encoder.linears.0.weight f4 [8, 8]
0	0xbea89700	-0.32927704
1	0x3da727e6	0.08161907
2	0x3e314f63	0.1731544
3	0x3e608d31	0.2192886
4	0xbe3ad7ca	-0.1824638
5	0x3e9d4852	0.3071924
6	0xbe98cdf4	-0.2984463
7	0x3df35d82	0.118830696
8	0x3e56368f	0.2091925
9	0x3c7f9bb9	0.015601092
10	0xbea3b40a	-0.31973296
11	0xbe949a64	-0.2902404
12	0xbe282508	-0.16420376
13	0xbe362400	-0.1778717
14	0xbdffeb40	-0.12496042
15	0xbe7f33d0	-0.24922109
16	0xbd59f9e3	-0.053216826
17	0x3eb82034	0.3596207
18	0x3ea40afe	0.32039636
19	0xbeb316b2	-0.34978253
20	0xbe568e7c	-0.20952791
21	0xbe7ffec3	-0.24999528
22	0x3e2a81e8	0.16651118
23	0x3e673a65	0.2258087
24	0x3e480637	0.19533621
25	0x3cbaa73d	0.022784824
26	0x3e96a569	0.29423073
27	0x3e7fcd16	0.24980578
28	0x3e17c653	0.14821748
29	0xbd309712	-0.043112822
30	0x3e3e9470	0.18611312
31	0x3d3a6b48	0.045512468
32	0xbd1584ec	-0.036503717
33	0xbeaab0c4	-0.33337986
34	0x3bf14c01	0.0073637967
35	0xbea6b1b7	-0.3255746
36	0xbe85674e	-0.26055378
37	0x3e607304	0.21918875
38	0xbe5aa501	-0.21352006
39	0xbdfd5499	-0.12369651
40	0x3e790484	0.24318129
41	0xbe917edf	-0.28417107
42	0x3e209f71	0.15685822
43	0x3ea40f40	0.32042885
44	0xbe366934	-0.1781357
45	0xbe1356c6	-0.1438857
46	0xbe8ae9ff	-0.2713165
47	0x3e0ebd2e	0.13939354
48	0xbe711e06	-0.2354661
49	0x3e11a643	0.1422358
50	0xbe4c8316	-0.1997188
51	0x3e404074	0.18774587
52	0x3e1ccdb1	0.1531284
53	0x3e7be25a	0.24598065
54	0xbdbf4b8d	-0.09340582
55	0x3d897fcc	0.067138284
56	0x3e85691e	0.2605676
57	0x3d0ef888	0.034904987
58	0xbddb2dde	-0.10702108
59	0x3c724990	0.0147880465
60	0xbe1f0b2c	-0.15531605
61	0x3e6f6a42	0.23380378
62	0xbe95574e	-0.2916817
63	0x3d3de602	0.04636193

feature_exact.m_encoder.linears.0.bias f4 [8]
0	0xbdea4093	-0.11438098
1	0x3e7622d6	0.24036726
2	0xbea93d53	-0.330546
3	0xbb8453a4	-0.004038291
4	0xbe9a6473	-0.30154762
5	0xbe62aa23	-0.22135215
6	0x3ea9a700	0.33135223
7	0xbe667c46	-0.22508344

feature_exact.m_encoder.linears.1.weight f4 [8, 8]
0	0x3d9dce3a	0.0770535
1	0x3dfa5f6a	0.1222523
2	0xbd84d2ea	-0.06485541
3	0x3e2588b0	0.16165423
4	0x3db3bbc5	0.087760486
5	0x3ec66016	0.38745183
6	0x3b8df8ea	0.0043326514
7	0xbea6077a	-0.3242758
8	0x3d63bd6a	0.05560056
9	0x3d44f6cf	0.048086938
10	0x3e122d66	0.1427513
11	0x3e9e2fe1	0.30895904
12	0x3db1f112	0.08688559
13	0x3dabee3b	0.08395048
14	0xbe56acf9	-0.20964421
15	0x3cf099d3	0.029370224
16	0x3dc608e0	0.096696615
17	0x3e5861d0	0.21131063
18	0xbddd9a2b	-0.10820421
19	0x3e8cdd9b	0.27512822
20	0x3e0b6c3b	0.13615505
21	0xbd5515dc	-0.0520228
22	0xbdb3b033	-0.08773842
23	0xbe2fa6b3	-0.17153434
24	0x3e1b2b7c	0.15153307
25	0xbd48326e	-0.04887622
26	0x3d1e66b9	0.038672183
27	0x3ccf6dd1	0.02532092
28	0x3d9f055d	0.07764695
29	0x3e50cb34	0.20390016
30	0x3e656e2e	0.22405311
31	0xbdba7b6b	-0.09105571
32	0xbe3f21b3	-0.18665199
33	0xbe34a71e	-0.17641875
34	0x3eaf2bcf	0.3421311
35	0xbda8d12f	-0.082430236
36	0xbe11c26f	-0.14234327
37	0x3daa3665	0.08311156
38	0xbe90b999	-0.282666
39	0xbd4a9726	-0.049460553
40	0x3ea7a92d	0.32746258
41	0x3e347e5b	0.17626326
42	0xbe95941c	-0.2921456
43	0x3eaca649	0.33720616
44	0xbe1268d5	-0.14297803
45	0xbe2504e8	-0.16115153
46	0xbe724e0e	-0.23662588
47	0xbe9e300b	-0.3089603
48	0x3eaddf97	0.33959648
49	0x3de4e3b6	0.11176245
50	0x3e6313c1	0.22175504
51	0xba8452d0	-0.0010095481
52	0xbe53c31d	-0.20679899
53	0xbe59f289	-0.21283926
54	0xbe91b55e	-0.28458685
55	0x3e842391	0.25808385
56	0xbe3eb0b6	-0.18622097
57	0xbe0efd31	-0.13963772
58	0x3ea03747	0.31292173
59	0x3ea82e93	0.32848033
60	0x3ce450c7	0.027870549
61	0xbe95b374	-0.29238474
62	0xbe85d10f	-0.26136062
63	0x3e847c59	0.2587612

feature_exact.m_encoder.linears.1.bias f4 [8]
0	0x3df40152	0.11914314
1	0x3be4d7dc	0.0069837403
2	0xbe91c39b	-0.28469548
3	0xbe434f50	-0.19073224
4	0xbde396d7	-0.11112755
5	0xbe2b2db4	-0.16716653
6	0x3da02232	0.07819022
7	0x3e7238b5	0.23654445

feature_exact.m_encoder.linears.2.weight f4 [8, 8]
0	0x3e025e15	0.12731202
1	0x3e6b2633	0.2296379
2	0x3d534e82	0.051588543
3	0x3e45dcb3	0.19322471
4	0x3e7d036d	0.24708338
5	0xbeab6511	-0.33475545
6	0xbdbc4341	-0.09192515
7	0xbe9255e8	-0.28581166
8	0x3e2b3496	0.16719279
9	0xbd2ee6aa	-0.042700447
10	0xbe95a374	-0.29226267
11	0x3c940a47	0.018071307
12	0x3e71d77f	0.23617361
13	0xbdd20115	-0.10254113
14	0x3d1f434c	0.03888254
15	0x3e7b28f2	0.24527338
16	0xbea84989	-0.32868603
17	0xbd7bbd58	-0.06145987
18	0xbe636548	-0.22206604
19	0x3e022957	0.12711082
20	0x3e6976eb	0.2279927
21	0x3e2ee9e1	0.17081405
22	0xbe2c1c65	-0.16807707
23	0x3e9eefa6	0.31042212
24	0xbd11d8dc	-0.035607204
25	0x3e50de97	0.20397411
26	0x3e138f73	0.1441019
27	0xbd73fc93	-0.059567045
28	0xbd599fd8	-0.053130955
29	0x3d529c2d	0.051418472
30	0x3d0c41a2	0.03424228
31	0xbe8cb172	-0.2747913
32	0xbd92187c	-0.07133576
33	0xbd601194	-0.054704264
34	0xbe751fa6	-0.23937854
35	0x3e51ac54	0.20475894
36	0xbe19bdfb	-0.15013878
37	0xbe172b84	-0.14762694
38	0xbddc4ca7	-0.10756808
39	0x3e5fff23	0.2187467
40	0xbeb53d49	-0.3539832
41	0xbe846294	-0.2585646
42	0x3dce3c28	0.10070068
43	0xbe7a2ba5	-0.24430712
44	0xbe4da817	-0.20083652
45	0xbe266364	-0.16248852
46	0xbe92a37c	-0.28640354
47	0x3d875f3c	0.066099614
48	0x3e2fde74	0.17174703
49	0xbe2ff147	-0.17181884
50	0x3e9bd74e	0.30437702
51	0xbe1e41ed	-0.15454836
52	0xbe8ed4b7	-0.27896664
53	0x3eb29c23	0.34884748
54	0x3d744806	0.059639
55	0x3e3075b0	0.17232394
56	0x3db15f44	0.086607486
57	0xbe4c0c5f	-0.19926594
58	0x3e5e6110	0.21716714
59	0x3e302838	0.17202842
60	0x3dfdd3ac	0.12393889
61	0xbe06bb09	-0.13157286
62	0x3c93fb11	0.018064054
63	0xbe857a83	-0.26070032

feature_exact.m_encoder.linears.2.bias f4 [8]
0	0xbdc9ead7	-0.09859245
1	0xbde6c79c	-0.11268541
2	0xbda36f2e	-0.0798019
3	0xbca2a6a6	-0.019854855
4	0xbe09442d	-0.13404913
5	0x3ea2ae9e	0.31773847
6	0x3eaa0607	0.33207723
7	0xbe055ecb	-0.13024442

feature_exact.j_ln.weight f4 [8]
0	0x3f8090d6	1.00442
1	0x3f838ee9	1.0277988
2	0x3f8a0a66	1.0784423
3	0x3f869194	1.0513177
4	0x3f7ff439	0.9998203
5	0x3f843307	1.0328072
6	0x3f82262d	1.01679
7	0x3f80647e	1.0030668

feature_exact.j_ln.bias f4 [8]
0	0x3b25c5f1	0.0025294984
1	0x3b53add5	0.0032299657
2	0xbc1b60e2	-0.009483548
3	0x3c524bc2	0.012835445
4	0xb847d9e2	-4.7648216e-05
5	0xbac4feb2	-0.0015029518
6	0x3c31bdc7	0.010848469
7	0xbaca2d87	-0.0015424945

feature_exact.m_ln.weight f4 [8]
0	0x3f8060bc	1.0029521
1	0x3f7ed5b1	0.9954482
2	0x3f80b973	1.0056595
3	0x3f7fc046	0.9990276
4	0x3f7f60cb	0.9975707
5	0x3f7d57f4	0.9896233
6	0x3f7e717d	0.9939192
7	0x3f7d7433	0.9900543

feature_exact.m_ln.bias f4 [8]
0	0x3bbc11f4	0.005739445
1	0x3aa85e9a	0.0012845576
2	0xbb99c0f0	-0.0046921894
3	0x3b80b397	0.003927659
4	0x3b0d7841	0.002158657
5	0xbc57f934	-0.013181973
6	0xbbef2661	-0.0072982763
7	0x3cb1ed04	0.021719463

actor.linears.0.weight f4 [64, 40]
0	0xbd174949	-0.036935125
1	0x3dd06809	0.10176093
2	0xbd2f9754	-0.042868927
3	0x3d0861aa	0.033296265
4	0x3ce58b13	0.028020417
5	0x3dcf37e3	0.101180814
6	0xbe01daf3	-0.12681179
7	0xbd40aa45	-0.04703738
8	0x3d066663	0.032812487
9	0xbd159d01	-0.036526684
10	0xbe42d7b3	-0.19027595
11	0x3e2316c3	0.15926652
12	0x3c3d38f4	0.011549223
13	0xbdc9ce84	-0.09853843
14	0x3db83c28	0.08995849
15	0x3dd4680c	0.10371408
16	0xbd985140	-0.07437372
17	0xbddb8905	-0.10719494
18	0xbe0311d6	-0.12799773
19	0x3e021724	0.1270414
20	0xbe315993	-0.17319326
21	0x3d46aa38	0.048502177
22	0x3e1b04b1	0.15138508
23	0x3c9c93a8	0.019113377
24	0xbdcf17ec	-0.101119846
25	0xbd09d4a6	-0.033650063
26	0xbde55633	-0.11198082
27	0xbe3e6b0a	-0.1859552
28	0x3db253c1	0.08707381
29	0xbda32e92	-0.07967867
30	0xbc59b83b	-0.013288553
31	0x3da5110a	0.080598906
32	0x3cd96b34	0.026540376
33	0xbdf428f9	-0.119218774
34	0xbdf97685	-0.12180809
35	0xbdde3c70	-0.10851371
36	0x3d0c5e83	0.03426982
37	0x3dd7ec98	0.105431736
38	0xbdf94409	-0.1217118
39	0x3dc5c09f	0.0965588
40	0xbd91408e	-0.07092391
41	0xbd91a880	-0.07112217
42	0x3e0061fa	0.12537375
43	0x3d90208e	0.07037459
44	0x3db7dbb5	0.08977453
45	0x3e0ab8ab	0.13547008
46	0x3d95fd79	0.07323737
47	0xbd0f4c9f	-0.03498518
48	0x3df2eeff	0.11861991
49	0x3c029e19	0.007972264
50	0x3c4bea2e	0.0124459695
51	0x3dc86a65	0.09785918
52	0xbde339cc	-0.11095008
53	0xbd3fb174	-0.046800092
54	0xbd1b218d	-0.037873793
55	0xbab9c846	-0.0014174066
56	0x3e2d784c	0.16940421
57	0x3d8a24dd	0.06745312
58	0x3df70ac4	0.120626
59	0xbe094364	-0.13404614
60	0xbd87cb40	-0.06630564
61	0x3d783e94	0.060606554
62	0x3abaf34d	0.0014263183
63	0x3cbaf186	0.022820245
64	0x3d090af6	0.03345772
65	0xbd9e6064	-0.07733229
66	0xbe20d1aa	-0.1570498
67	0xbdf2e9bf	-0.1186099
68	0xbdf3c9e0	-0.11903739
69	0xbdd743d6	-0.105109856
70	0xbd693339	-0.056933615
71	0xbceeb197	-0.029137416
72	0xbd5e0577	-0.05420443
73	0xbe34fff2	-0.1767576
74	0xbd107f14	-0.03527744
75	0x3da7b5a0	0.08188939
76	0xbdb2ab2f	-0.08724057
77	0x3cf5a32f	0.029985039
78	0xbd2d5354	-0.042315796
79	0x3d1d4a4b	0.03840093
80	0x3cc52ed5	0.024070183
81	0x3cf3037d	0.02966475
82	0x3d447032	0.04795856
83	0x3dc7a8ec	0.09749016
84	0x3cb55ae0	0.02213806
85	0xbd4e60ad	-0.050385166
86	0xbd26d208	-0.040727645
87	0x3db0b715	0.0862867
88	0xbe310dea	-0.17290464
89	0xbe1089fc	-0.14115137
90	0x3e417720	0.18893099
91	0x3d6a5272	0.057207532
92	0x3d21f561	0.039540652
93	0x3c9e895d	0.01935261
94	0xbe0e6c44	-0.13908488
95	0x3e025b05	0.12730034
96	0xbdbb4218	-0.09143466
97	0xbdeae404	-0.11469272
98	0xbda1f6c3	-0.07908394
99	0x3e06a74e	0.13149759
100	0xbd1a82df	-0.037722465
101	0xbbbb60c9	-0.005718325
102	0x3da62601	0.081127174
103	0xbd326255	-0.043550808
104	0xbda566e3	-0.08076265
105	0xbce23f66	-0.027618121
106	0x3daea4d9	0.08527536
107	0x3d26d799	0.040732954
108	0xbdbbc774	-0.09168902
109	0x3e134cd3	0.14384775
110	0x3d992ae5	0.074788846
111	0x3e0c96cc	0.137294
112	0xbd6330cc	-0.05546646
113	0x3d87a7b3	0.06623783
114	0x3e29f30a	0.16596618
115	0x3d8209ac	0.06349501
116	0x3d357f90	0.044311106
117	0x3dd4a193	0.1038238
118	0xbd8de438	-0.06928295
119	0xbd81d02e	-0.06338535
120	0x3dde41eb	0.108524166
121	0x3dd5cf00	0.10439873
122	0x3db22db1	0.08700121
123	0xbd6d152d	-0.057881523
124	0xbce50e5d	-0.02796095
125	0xbcab2cfe	-0.020895477
126	0xbcd8055a	-0.02636974
127	0xbddc3cdd	-0.10753796
128	0x3c336381	0.010949017
129	0x3ddab558	0.1067912
130	0x3e1230f8	0.14276493
131	0x3ca4e334	0.02012787
132	0xbdb60f56	-0.08889644
133	0x3bb2e080	0.0054588914
134	0x38b37113	8.556447e-05
135	0x3cda3ab8	0.026639327
136	0x3aeff123	0.0018306117
137	0xbe1e8382	-0.15479854
138	0xbdee2552	-0.11628212
139	0xbdb7535f	-0.08951449
140	0xbcf5e86b	-0.030018052
141	0xbde81b5a	-0.11333342
142	0xbdca14a7	-0.0986722
143	0xbca7c5d1	-0.020480068
144	0xbcba0d78	-0.0227115
145	0x3e249967	0.16074143
146	0x3de96af5	0.113973536
147	0x3d888498	0.06665915
148	0x3d7cf37f	0.061755653
149	0x3c96363a	0.018336404
150	0xbd87e9f3	-0.06636419
151	0x3dece94f	0.115679376
152	0x3e22d360	0.15900946
153	0x3e13e7fe	0.14443967
154	0x3d42c53e	0.047551386
155	0xbd9f9c85	-0.077935256
156	0xbe08ace0	-0.13347197
157	0x3e3a9ad3	0.18223123
158	0x3d8140b3	0.063111685
159	0x3e177f0d	0.1479456
160	0x3d78f324	0.060778752
161	0x3dc9625e	0.09833215
162	0xbd25b6ba	-0.040457465
163	0x3e067fa5	0.1313463
164	0x3c92a42a	0.017900545
165	0xbd957216	-0.07297151
166	0xbdcf8b77	-0.10134023
167	0x3d6a86c6	0.057257436
168	0x3db299e9	0.08720762
169	0xbe09e91a	-0.13467827
170	0xbb9b250f	-0.0047346423
171	0x3d13b913	0.036065172
172	0x3deeed20	0.11666322
173	0xbce09e57	-0.027419252
174	0xbde78e2b	-0.11306413
175	0x3c4e304b	0.012584756
176	0xbd9cbe08	-0.07653433
177	0x3ba5cc1b	0.0050597317
178	0x3c5b46f4	0.013383616
179	0xbd23fac3	-0.040034067
180	0x3de58e25	0.112087525
181	0x3d119be2	0.035549052
182	0x3c3dc610	0.011582866
183	0x3d034085	0.032043952
184	0xbe45fb0c	-0.19334048
185	0xbe0c1a06	-0.13681802
186	0x3dc30fbe	0.09524487
187	0xbc9a8758	-0.018863365
188	0xbdd3c624	-0.10340527
189	0x3dba5c5d	0.09099648
190	0xbbe24020	-0.006904617
191	0xbe0d2b87	-0.13786136
192	0x3de6e733	0.112745665
193	0x3e146186	0.14490327
194	0xbdb15eb6	-0.08660643
195	0xbc648425	-0.013947521
196	0x3e099e42	0.13439277
197	0x3e10d007	0.14141856
198	0x3dd06201	0.10174943
199	0xbe09e696	-0.13466868
200	0x3d7069d3	0.05869467
201	0x3d1350b2	0.03596563
202	0xbe46d746	-0.19418058
203	0xbc88d84c	-0.0167047
204	0x3df5cd27	0.1200202
205	0x3c053c6d	0.008132082
206	0x3e2422ff	0.16028975
207	0xbd33f2f8	-0.043932885
208	0xbdfd3141	-0.1236291
209	0x3e1939fc	0.14963526
210	0x3e02ffc7	0.12792884
211	0xbe104df4	-0.14092237
212	0x3e0a744c	0.13520926
213	0x3b93a987	0.004506293
214	0xbd957927	-0.072984986
215	0x3bc249aa	0.0059291916
216	0x3d5d891f	0.054085847
217	0xbdf0de49	-0.117611475
218	0xbe2b44dd	-0.16725488
219	0x3d281385	0.04103424
220	0xbde921b3	-0.11383381
221	0x3d4d5561	0.05013025
222	0xbdae2043	-0.08502247
223	0x3d276068	0.040863425
224	0x3d73c5aa	0.05951468
225	0xbc608116	-0.0137026515
226	0x3e0b13bc	0.13581747
227	0xbe13d5cb	-0.14437024
228	0x3cefa5e9	0.029253917
229	0xbdd7cf1a	-0.10537548
230	0xbd38b684	-0.045095935
231	0xbd854182	-0.06506635
232	0xbcc168f5	-0.023609618
233	0x3e4b0369	0.1982552
234	0x3db678d5	0.08909766
235	0x3c77a596	0.015115162
236	0x3d778189	0.06042627
237	0x3de1dd11	0.11028493
238	0xbdba2de8	-0.09090787
239	0xbde2fc03	-0.11083224
240	0xbdd63973	-0.10460176
241	0x3e26c593	0.16286306
242	0xbd966e12	-0.07345213
243	0xbdf9f2a0	-0.1220448
244	0x3d954218	0.07287997
245	0x3d26523b	0.040605765
246	0x3d20ac80	0.03922701
247	0x3dba2350	0.090887666
248	0xbd6b168a	-0.05739454
249	0xbe292169	-0.16516651
250	0x3d9e4abf	0.077291004
251	0xbc81e999	-0.015858458
252	0xbd3ea560	-0.046544433
253	0xbc897e2e	-0.0167838
254	0xbe1c15f2	-0.15242746
255	0xbded44f3	-0.11585417

actor.linears.0.bias f4 [64]
0	0x3d867c62	0.06566693
1	0x3e1005d0	0.14064717
2	0x3d6fdaad	0.058558155
3	0xbdcde298	-0.10052985
4	0x3cf84dd1	0.030310543
5	0xbd516d1b	-0.05112944
6	0xbdc804d0	-0.09766543
7	0xbd5de3e8	-0.054172426
8	0xbe21ab07	-0.15787898
9	0xbdbdc54d	-0.09266148
10	0x3d999148	0.07498413
11	0xbdbd77f5	-0.092513956
12	0xbb77a460	-0.0037787184
13	0xbe170f37	-0.14751898
14	0x3cac221d	0.02101236
15	0xbe0fa8c2	-0.1402922
16	0x3e129829	0.14315857
17	0xbe1261e0	-0.14295149
18	0xbd98aa99	-0.07454414
19	0xbdd9c035	-0.10632364
20	0xbc6fbf5e	-0.014633028
21	0xbbb3b71c	-0.005484475
22	0x3dca3fd1	0.09875453
23	0xbd324f8d	-0.043532897
24	0x3e3623af	0.1778705
25	0xbb9d6c08	-0.004804138
26	0xbde28665	-0.1106079
27	0x3b699305	0.003564061
28	0xbe41af8a	-0.18914619
29	0x3dd00309	0.10156829
30	0x3e0dd660	0.13851309
31	0x3e056dfc	0.13030237
32	0xbc662f55	-0.014049371
33	0xbd30dc52	-0.043178864
34	0xbdd8ab44	-0.10579541
35	0xbdb47f46	-0.08813338
36	0xbdb4ade5	-0.0882223
37	0xbe14244d	-0.14466973
38	0xbdbc2512	-0.09186758
39	0x3cb8a6df	0.022540508
40	0xbd7194eb	-0.05897991
41	0x3e000473	0.12501697
42	0xbe248ca2	-0.16069272
43	0xbd933fc4	-0.07189897
44	0xbc102943	-0.0087989
45	0x3d606686	0.054785274
46	0x3db46232	0.08807792
47	0xbdafb0e9	-0.08578665
48	0x3e154701	0.14577867
49	0xbcbeaace	-0.023274805
50	0xbdfbda03	-0.12297442
51	0xbda90ec4	-0.082547694
52	0xbd2bc5f7	-0.04193684
53	0xbc564f1b	-0.013080384
54	0xbdabbffc	-0.083862275
55	0xbc888e03	-0.016669279
56	0xbc1ebc7a	-0.009688491
57	0xbd1e0087	-0.03857472
58	0x3e09d19b	0.13458864
59	0xbd4d9d4e	-0.050198846
60	0x3da2e9df	0.079547636
61	0xbda8db22	-0.08244921
62	0xbdedd90d	-0.11613665
63	0x3dbe11f0	0.09280765

actor.linears.1.weight f4 [64, 64]
0	0xbdc129fa	-0.094318345
1	0x3c5daf8b	0.013530622
2	0x3d81b2d9	0.063329406
3	0x3da22c33	0.079185866
4	0x3d20dba0	0.03927195
5	0x3e0b546f	0.13606428
6	0xbdcf4f94	-0.101226
7	0xbd7baf32	-0.061446376
8	0x3de26cf6	0.11055939
9	0xbd2691bc	-0.040666327
10	0xbdf6b4ad	-0.1204618
11	0xbd5dc67d	-0.05414437
12	0x3ba13bc5	0.004920455
13	0x3dc380d7	0.095460586
14	0xbdb0a58f	-0.08625328
15	0x3dc058b1	0.093919165
16	0x3d6fcfb8	0.058547705
17	0xbd1626f1	-0.03665823
18	0xbdf733b0	-0.120704055
19	0x3e18a5b2	0.14906958
20	0xbdcc4d1a	-0.099756435
21	0xbe20fde1	-0.15721847
22	0x3d421c55	0.0473903
23	0xbd49c563	-0.04926051
24	0xbdb3d41b	-0.0878069
25	0x3d35c4e8	0.044377238
26	0x3d0915b1	0.033467952
27	0xbd74a56b	-0.059728067
28	0xbdfcfc6d	-0.12352834
29	0xbd4accfa	-0.049511887
30	0x3d2052ed	0.039141584
31	0xbd9f0cba	-0.07766099
32	0xbe04a5f3	-0.1295393
33	0x3d44871e	0.04798042
34	0x3d2fc604	0.04291345
35	0xbc16d558	-0.009206139
36	0xbd097a56	-0.033563934
37	0xbe03af61	-0.1285987
38	0xbe039bff	-0.12852477
39	0xbc916384	-0.017747648
40	0xbcfb320c	-0.030663513
41	0xbbf5d634	-0.0075023416
42	0xbda5d9cf	-0.08098184
43	0x3d2b0f8f	0.041762885
44	0xbda67835	-0.081283964
45	0x3db7c24e	0.089726076
46	0xbc179ef5	-0.009254207
47	0xbd8b264a	-0.067944124
48	0x3dd09f67	0.101866536
49	0xbd904fde	-0.070464835
50	0x3dccfc3e	0.10009049
51	0x3ba5c16f	0.0050584595
52	0xbdbff9e8	-0.09373838
53	0xbdda0a42	-0.10646488
54	0xbdcdc750	-0.100477815
55	0x3d13941a	0.036029913
56	0x3e12d3c0	0.14338589
57	0xbe1b1293	-0.15143804
58	0xbddfa7c2	-0.10920669
59	0xbdaab3e7	-0.08335095
60	0xbe388f90	-0.18023515
61	0xbb65bc0e	-0.0035054716
62	0xba61ac03	-0.00086087006
63	0xbe02390a	-0.12717071
64	0x3d01e8fb	0.031716328
65	0x3ccb699a	0.024830628
66	0x3d2d3ed5	0.04229625
67	0xbd7ef981	-0.062249664
68	0xbbb4d3fd	-0.005518435
69	0x3dcb4f89	0.099272795
70	0x3e263ca3	0.16234069
71	0xbdb99f80	-0.09063625
72	0x3e213c71	0.15745713
73	0xbdb8802c	-0.09008822
74	0xbb9127fa	-0.0044298144
75	0xbdfafe54	-0.122555405
76	0x3db37193	0.08761897
77	0x3da650b6	0.08120863
78	0xbdd2bcd6	-0.10289924
79	0xbd6a21f4	-0.057161286
80	0xbda90c26	-0.0825427
81	0x3ca81afb	0.020520678
82	0x3d2fa553	0.042882275
83	0xbc6e27bf	-0.014535843
84	0xbdafa237	-0.08575862
85	0xbe32f2c5	-0.17475422
86	0x3e0136b5	0.12618525
87	0xbd4d2a77	-0.050089326
88	0x3dcc5ed7	0.09979027
89	0xbe03cfcc	-0.12872237
90	0xbdbf64f9	-0.09345431
91	0x3d9fef69	0.07809336
92	0xbdea3db9	-0.11437554
93	0xbe1618ee	-0.14657947
94	0x3d6ead9b	0.05827103
95	0x3db42ac5	0.0879722
96	0x3d417c13	0.047237467
97	0xbdaade82	-0.08343221
98	0x3d0ad69e	0.03389608
99	0xbd6a7ab8	-0.05724594
100	0x3da569d9	0.080768295
101	0x3d480738	0.04883501
102	0xbc43af6f	-0.011943682
103	0x3c95840b	0.01825144
104	0xbdb616e0	-0.08891082
105	0xbc4baf17	-0.012431881
106	0x3bd078d2	0.006362059
107	0x3dae6839	0.08515973
108	0xbc006fcc	-0.007839154
109	0xbdc0ca4c	-0.09413585
110	0x3dac4dd6	0.084132835
111	0xbd940f81	-0.0722952
112	0x3dfdfdd5	0.1240193
113	0xbd314374	-0.04327722
114	0xbe06f52e	-0.13179466
115	0x3d5c91fe	0.053850166
116	0x3e1a1149	0.15045656
117	0xbe2d7b12	-0.16941479
118	0xbd61d6cb	-0.055136483
119	0x3c910725	0.017703602
120	0x3e118aee	0.14213154
121	0xbdf68bc7	-0.12038379
122	0xbccb6c3c	-0.024831884
123	0xbda6d0f8	-0.081453264
124	0x3ce8021a	0.028321315
125	0x3c73a469	0.014870741
126	0x3de2b058	0.11068791
127	0x3babfbc3	0.005248518
128	0x3de85288	0.113438666
129	0x3c326ca7	0.010890163
130	0x3d88d9eb	0.066821896
131	0x3df7f37d	0.121069886
132	0x3e06ea54	0.13175327
133	0x3cb675aa	0.022272903
134	0x3d29bc64	0.04143943
135	0xbccb65e8	-0.024828866
136	0x3d7b68f1	0.061379377
137	0xbc46867a	-0.012117023
138	0xbdd722cf	-0.10504686
139	0x3cde439b	0.027131846
140	0xbd8dfbdf	-0.06932806
141	0x3dee9e91	0.11651338
142	0xbdd6cd92	-0.10488428
143	0x3d5dc5fb	0.054143887
144	0xbddf7d2f	-0.10912549
145	0x3dabe275	0.083928026
146	0x3d9679ed	0.07347474
147	0xbcffd3fe	-0.031229015
148	0xbe0389b1	-0.12845494
149	0xbd34d70f	-0.04415041
150	0xbce74621	-0.028231682
151	0xbe27c709	-0.1638452
152	0x3dd053bb	0.1017222
153	0x3d6972a9	0.056994114
154	0x3ce6bfaa	0.028167564
155	0x3dabd79f	0.08390736
156	0xbdff6ee9	-0.12472326
157	0x3d785356	0.06062635
158	0x3dbcc2ed	0.09216867
159	0xbda0f316	-0.07858865
160	0x3dc939d4	0.09825483
161	0x3db683a8	0.0891183
162	0x3b7679c8	0.0037609208
163	0xbd206c1c	-0.0391656
164	0x3d113667	0.035452273
165	0xbd9c2d9d	-0.076258875
166	0xbdd15405	-0.102211036
167	0xbe33983b	-0.1753854
168	0x3d5be3ce	0.05368405
169	0xbdc25d34	-0.09490433
170	0xbdccced1	-0.100003846
171	0x3dddf82a	0.10838349
172	0xbcbeebd3	-0.02330581
173	0xbdd27354	-0.10275903
174	0x3d84491e	0.064592585
175	0xbdbb7731	-0.09153593
176	0x3ca2fe62	0.01989669
177	0xbc5397a3	-0.012914571
178	0xbdc08a5e	-0.094013914
179	0x3dc44e78	0.09585279
180	0xbd28374b	-0.041068356
181	0xbdf9927d	-0.121861435
182	0x3ae6e9d4	0.0017617294
183	0xbdce0d85	-0.100611724
184	0x3e166f7f	0.1469097
185	0xbe15e186	-0.14636812
186	0xbe06116a	-0.1309258
187	0xbe029e40	-0.1275568
188	0x3cf3eb3a	0.02977525
189	0x3d7ff26e	0.06248706
190	0x3c8eba51	0.017422827
191	0xbd7f17fc	-0.062278733
192	0xbdc14ac9	-0.09438092
193	0x3d17db19	0.037074182
194	0xbe2aac6b	-0.16667335
195	0x3cec9581	0.028879883
196	0xbd235edf	-0.039885398
197	0xbdb3d679	-0.08781142
198	0xbd2ddef6	-0.04244896
199	0xbd150ee1	-0.036391143
200	0xbe0363fb	-0.12831108
201	0x3dc26b47	0.09493118
202	0xba603d84	-0.00085540884
203	0xbbc6f792	-0.006071993
204	0xbc60d175	-0.013721813
205	0xbdf7ecf2	-0.121057406
206	0x3e068b6c	0.13139123
207	0xbce92acf	-0.028462796
208	0x3cf1091c	0.029423289
209	0xbdfb6233	-0.122745894
210	0x3d8c250c	0.06843004
211	0x3d42f090	0.0475927
212	0x3ddf35c4	0.10898927
213	0x3d2fcefb	0.042922
214	0xbda101b5	-0.07861654
215	0x3daee8fd	0.08540533
216	0x3d3c84f1	0.04602522
217	0x3e131e32	0.14366987
218	0x3cc40910	0.023930103
219	0x3dc208d1	0.09474338
220	0x3d3b8d48	0.045789033
221	0x3d4f72cf	0.0506466
222	0x3dd4693e	0.10371636
223	0x3da7dbdc	0.08196232
224	0x3c923267	0.0178463
225	0x3d5d101f	0.053970452
226	0xbdbf0389	-0.09326846
227	0xbc814c21	-0.015783371
228	0xbc733131	-0.014843271
229	0x3d86b641	0.06577731
230	0x3de9736e	0.113989696
231	0xbd663267	-0.05620041
232	0xbb13882a	-0.002251158
233	0x3e0fb9bf	0.140357
234	0xbd84d9b4	-0.06486836
235	0xbd399a76	-0.04531332
236	0x3d576d56	0.052594505
237	0x3d30e075	0.04318281
238	0x3d0a5feb	0.03378288
239	0xbda54937	-0.08070605
240	0x3dc84f8c	0.09780797
241	0x3da4fc88	0.08055979
242	0x3d4e045b	0.050297122
243	0x3c88e4ab	0.0167106
244	0x3d641be8	0.055690676
245	0x3e292e56	0.16521582
246	0x3d355536	0.044270717
247	0x3d9fa9e7	0.07796078
248	0xbe2a93cb	-0.16657941
249	0x3de69a45	0.11259893
250	0xbccc126f	-0.024911134
251	0xbc9d2ac0	-0.019185424
252	0xbd453326	-0.048144482
253	0x3dd8a4b7	0.10578292
254	0xbddfec1f	-0.109337084
255	0xba25d3b2	-0.00063257955

actor.linears.1.bias f4 [64]
0	0xbc919939	-0.017773258
1	0xbcd8a06c	-0.026443683
2	0x3d1fd7bb	0.039024096
3	0xbd4da010	-0.050201476
4	0x3d94d18d	0.07266531
5	0x3d5ec466	0.05438652
6	0x3c98232c	0.018571459
7	0xbcd29ae2	-0.02570862
8	0x3dee68b8	0.11641067
9	0xbb569733	-0.003274393
10	0xbdbd2819	-0.09236164
11	0x3da92381	0.08258725
12	0xbd6d80e2	-0.05798424
13	0xbce14584	-0.027498968
14	0xbdbda607	-0.09260183
15	0x3d742c8f	0.059612807
16	0x3a027964	0.0004977195
17	0xbd3c1f39	-0.045928214
18	0x3d5ebdc1	0.054380182
19	0xbd4437ba	-0.047904707
20	0x3da4a0f9	0.080385156
21	0x3bd5ece6	0.0065284846
22	0x3dc56bcf	0.096397035
23	0xbd5442ba	-0.051821448
24	0x3ca4f84f	0.020137934
25	0x3c915585	0.017740974
26	0x3d02200a	0.031768836
27	0x3d017562	0.031606086
28	0xbc2619a5	-0.01013795
29	0x3c635425	0.013875042
30	0x3d29b62f	0.04143351
31	0x3b83c505	0.0040212893
32	0xbd482153	-0.048859905
33	0xbdcb5f72	-0.09930314
34	0xbdd271cc	-0.10275611
35	0x3ce633ca	0.028100867
36	0xbd8ffecf	-0.07031023
37	0x3dfdf43d	0.124001004
38	0xbbc3bf4a	-0.005973731
39	0x3d7d2989	0.06180719
40	0xbacd1a67	-0.0015648127
41	0x3bd18a41	0.006394655
42	0xbd176f26	-0.036971234
43	0x3c70253a	0.014657313
44	0x3d7cfdc1	0.061765436
45	0x3c8131c9	0.01577081
46	0xbdc5b645	-0.09653906
47	0xbd964efb	-0.07339283
48	0xbd72cdd5	-0.059278328
49	0xbcba9532	-0.02277622
50	0x3d6940e3	0.056946646
51	0xbd8a4779	-0.067519136
52	0x3d0336c4	0.03203465
53	0x3d84bcaa	0.06481297
54	0x3d9ca948	0.07649475
55	0xbd68518c	-0.056718394
56	0xbd803df9	-0.0626182
57	0x3d879a76	0.06621258
58	0x3d5088fa	0.05091188
59	0x3da19b36	0.07890932
60	0x3d8c5b63	0.06853368
61	0x3d3256e4	0.043539897
62	0x3d2b51bd	0.041826
63	0x3d2f3d60	0.04278314

actor.linears.2.weight f4 [1, 64]
0	0xbd7e2209	-0.062044177
1	0xbdbddcc0	-0.0927062
2	0xbddcbf80	-0.10778713
3	0x3dfaeafb	0.1225185
4	0xbe2d8c36	-0.16948017
5	0xbdecce0d	-0.115627386
6	0xbdce86b5	-0.10084287
7	0x3d9f940a	0.07791908
8	0x3d853d48	0.06505829
9	0x3dced014	0.100982815
10	0xbe0de74b	-0.13857763
11	0xbe3ea52e	-0.18617699
12	0xbdd0ee7a	-0.10201736
13	0xbdadd1e3	-0.08487298
14	0xbd96551b	-0.07340451
15	0x3e3d1360	0.18464422
16	0x3e2bffd1	0.16796805
17	0x3e2d3f8c	0.16918772
18	0x3e2da31f	0.16956757
19	0x3dd3b1c3	0.1033664
20	0x3e0a3b63	0.13499217
21	0x3de13334	0.10996094
22	0x3dac7148	0.08420044
23	0xbe13d3e6	-0.14436302
24	0xbde8ec06	-0.11373143
25	0xbe171c4f	-0.14756893
26	0x3aa63db9	0.001268319
27	0xbdade127	-0.0849021
28	0x3e0f494f	0.13992809
29	0x3e3d4c1c	0.18486065
30	0xbda8a52b	-0.08234628
31	0xbd9ef755	-0.077620186
32	0xbe0e004c	-0.13867301
33	0xbcd164a6	-0.025560688
34	0xbdd68ba7	-0.10475855
35	0x3e0a9feb	0.13537566
36	0x3e293c50	0.16526914
37	0x3e1db481	0.15400888
38	0xbe3e4532	-0.18581083
39	0x3d85f05a	0.06539984
40	0x3dae3e42	0.085079685
41	0xbe0b64a0	-0.13612604
42	0x3da361fc	0.079776734
43	0xbe0ae0ae	-0.13562271
44	0xbd9be1c0	-0.07611418
45	0xbdcc1f77	-0.09966939
46	0xbd41eed1	-0.047346894
47	0xbda2859e	-0.07935642
48	0x3e005851	0.1253369
49	0xbdeca85f	-0.11555552
50	0x3d9a3a51	0.07530654
51	0x3da5b0e7	0.08090382
52	0xbd7a327e	-0.06108331
53	0x3e07c1f0	0.13257575
54	0xbe276ea9	-0.16350807
55	0xbde92ae8	-0.11385137
56	0xbd949b0c	-0.07256135
57	0xbe126b19	-0.14298667
58	0xbe20d31d	-0.15705533
59	0xbd94ab50	-0.07259238
60	0x3dbaeafd	0.09126852
61	0xbd938ed4	-0.07204977
62	0xbe1003b8	-0.14063919
63	0xbe2f24a2	-0.17103818

critic.linears.0.weight f4 [64, 16]
0	0xbd6848cc	-0.05671005
1	0xbb8067e7	-0.003918636
2	0x3db1b52a	0.086771324
3	0x3e2ce29d	0.16883321
4	0xbd201d14	-0.03909023
5	0x3e1f77d6	0.15573058
6	0x3e170c5f	0.14750813
7	0x3e1fdc48	0.15611374
8	0x3cc99c7d	0.024610752
9	0x3bdb0f92	0.0066852057
10	0x3d4ecb9e	0.050487153
11	0xbe08f047	-0.13372909
12	0xbe35edb0	-0.17766452
13	0xbd12d450	-0.03584701
14	0xbdd0214a	-0.101625994
15	0xbe539461	-0.20662071
16	0x3b53c72b	0.0032314758
17	0xbe41e4ff	-0.18935011
18	0xbe6f3fdb	-0.23364203
19	0x3e8f0c9e	0.27939314
20	0xbe4a5f3e	-0.19762895
21	0xbe5ab2f9	-0.21357335
22	0xbb8512b8	-0.0040610693
23	0xbdb41ae1	-0.08794189
24	0x3dd38ff4	0.10330191
25	0xbd7209d4	-0.059091404
26	0x3e0c934f	0.13728069
27	0xbe50d0be	-0.20392129
28	0xbd6b0231	-0.057375137
29	0xbe57d63d	-0.21077819
30	0x3e46d075	0.19415458
31	0xbe1e656b	-0.15468375
32	0x3dc34905	0.09535412
33	0x3c1bd9d7	0.009512386
34	0x3e8f04de	0.279334
35	0x3d2e7759	0.042594288
36	0xbe356db4	-0.1771763
37	0xbca384b4	-0.019960739
38	0xbe1b0a36	-0.15140614
39	0xbe738d91	-0.23784472
40	0xbd9be4f5	-0.076120295
41	0xbc4317fd	-0.011907575
42	0x38f142d6	0.00011504225
43	0x3d898db7	0.06716483
44	0xbd910b53	-0.07082238
45	0x3e15c888	0.14627278
46	0xbd941a8e	-0.072316274
47	0x3e00d4ba	0.12581149
48	0xbd703f32	-0.058654018
49	0x3d82467d	0.06361101
50	0x3dc3eb6e	0.09566389
51	0xbe7deb09	-0.2479669
52	0xbe25dcd9	-0.16197528
53	0x3e0627f6	0.13101181
54	0x3d22111a	0.03956709
55	0xbe4203a3	-0.189467
56	0xbe2cd803	-0.16879277
57	0xbe2b0979	-0.16702832
58	0x3ccd5f4d	0.025069857
59	0x3e49d3b0	0.19709659
60	0x3d4f6873	0.05063672
61	0x3cb09c00	0.021558762
62	0xbe41dc38	-0.18931663
63	0x3e24b06c	0.16082925
64	0xbd7a39ca	-0.06109027
65	0xbe182472	-0.14857653
66	0x3e34f2c7	0.17670737
67	0xbdc5d6b8	-0.09660095
68	0x3d3b1c66	0.04568138
69	0xbd5da598	-0.054113
70	0x3deb6de6	0.11495571
71	0xbe6a7d0c	-0.22899264
72	0x3d2dc03f	0.04241967
73	0xbe6c5821	-0.23080494
74	0x3e4e0bfa	0.20121756
75	0xbe68a632	-0.22719648
76	0x3e5b2843	0.21402077
77	0x3d2d04d4	0.042240933
78	0xbd247e9b	-0.040159803
79	0x3e7d495d	0.24735017
80	0xb9a8ce10	-0.00032196986
81	0x3e1f0a74	0.15531331
82	0xbdcf2573	-0.10114565
83	0xbe922fc9	-0.28552082
84	0xbe1df6ae	-0.15426132
85	0xbe5737e7	-0.21017419
86	0xbe55ca2f	-0.20877908
87	0xbe2d8ae6	-0.16947517
88	0x3e40fc2c	0.18846196
89	0xbd8f2fb7	-0.06991523
90	0xbe174bf9	-0.14775075
91	0xbe3841dc	-0.17993873
92	0xbd6a2e26	-0.057172917
93	0xbdbccaa6	-0.092183396
94	0xbd5717ce	-0.052512936
95	0x3c2b7f29	0.010467329
96	0xbe555751	-0.2083409
97	0x3e3067c2	0.1722708
98	0xbe3f00d7	-0.18652664
99	0x3dd0c871	0.10194481
100	0xbe4f9fc4	-0.2027579
101	0xbd8d5cf1	-0.06902493
102	0xbe7a208d	-0.2442648
103	0xbe433af5	-0.19065459
104	0x3e0be61c	0.13661999
105	0xbd5dd22d	-0.054155517
106	0x3c1d72a9	0.009609857
107	0xbdd4987e	-0.10380648
108	0xbe3ca748	-0.18423188
109	0x3e0e9599	0.13924254
110	0x3dae5b77	0.08513539
111	0xbb722bb4	-0.0036952319
112	0x3e599722	0.21249059
113	0xbc9f6279	-0.019456135
114	0x3e1f64d5	0.15565808
115	0x3b8ec367	0.00435679
116	0x3e0607fd	0.13088985
117	0x3bfcd9c2	0.0077163884
118	0xbe5b6f04	-0.21429068
119	0xbe2a52a1	-0.16633083
120	0x3e577c9b	0.21043627
121	0xbe16766b	-0.1469361
122	0x3e151f41	0.14562704
123	0xbe79f3f4	-0.24409467
124	0xbe4097c8	-0.188079
125	0x3e0142ac	0.1262309
126	0x3df89d52	0.121393815
127	0xbe47ecb9	-0.19523896
128	0x3b6a6cc9	0.0035770407
129	0x3da67904	0.08128551
130	0x3bbdd829	0.0057935906
131	0xbe862db3	-0.2620674
132	0x3e2d5a61	0.16929008
133	0x3e1e3113	0.15448408
134	0x3e7fd2a4	0.24982697
135	0x3dbae7f4	0.09126273
136	0x3e6f08d8	0.23343217
137	0xbe80a226	-0.2512371
138	0xbd18da7c	-0.037317738
139	0x3daecaaf	0.085347526
140	0xbe002fbd	-0.1251821
141	0xbe092c61	-0.13395835
142	0xbcd745a5	-0.026278326
143	0xbc07c80a	-0.008287439
144	0x3e1f6dde	0.15569255
145	0xbda4bd16	-0.08043878
146	0x3ddc9644	0.107708484
147	0xbc65f7de	-0.014036147
148	0xbd61fdb1	-0.05517358
149	0x3e0cbb61	0.13743354
150	0x3e6afd81	0.22948267
151	0xbe6b4a33	-0.22977524
152	0x3e48b483	0.1960011
153	0x3d1e4db4	0.038648322
154	0x3e2a62de	0.16639277
155	0x3e07b1c7	0.1325141
156	0xbc1ab614	-0.009442825
157	0x3e292e99	0.16521682
158	0xbdbc5bc1	-0.09197188
159	0x3cc76e14	0.024344482
160	0xbe396278	-0.18103969
161	0xb8e1cdce	-0.0001076717
162	0xbe235f96	-0.15954432
163	0xbe209343	-0.15681176
164	0xbc4a6748	-0.012353726
165	0x3e410c4e	0.1885235
166	0xbc0196c6	-0.007909482
167	0xbb9b457c	-0.004738508
168	0x3da9f29d	0.08298228
169	0x3dcffd3c	0.101557225
170	0xbe72e037	-0.23718344
171	0xbe2cbd33	-0.16869049
172	0x3d8d7352	0.06906761
173	0xbe4aa023	-0.1978765
174	0x3e2bbac8	0.1677047
175	0x3e2dcbb1	0.16972233
176	0xbe2b0162	-0.16699746
177	0x3d2690c9	0.04066542
178	0x3e4304ae	0.19044754
179	0x3e38ec9a	0.18059006
180	0xbd850fc1	-0.064971454
181	0xbe0ec6c0	-0.13943005
182	0xbe1845a7	-0.1487032
183	0x3e209297	0.1568092
184	0x3d15fa23	0.036615502
185	0x3d83ca5d	0.06435082
186	0xbd1eb55d	-0.03874718
187	0xb951b7af	-0.0002000022
188	0x3d8ce2ed	0.0687922
189	0xbe2ce765	-0.16885145
190	0xbe7a5e04	-0.24449927
191	0xbe7fd7dc	-0.24984688
192	0x3d1e6550	0.038670838
193	0xbdfc423c	-0.12317321
194	0xbd74a3a1	-0.05972636
195	0x3e811f74	0.2521931
196	0xbe0204bf	-0.12697123
197	0xbe47deb2	-0.19518545
198	0x3d752985	0.05985405
199	0x3dd35c86	0.10320382
200	0x3e09599c	0.1341309
201	0x3c89f891	0.016842159
202	0x3d0c2989	0.0342193
203	0xbdc0526f	-0.09390723
204	0x3de48c9b	0.11159631
205	0xbe740778	-0.23830974
206	0x3c2081be	0.009796558
207	0x3e1ea4cf	0.15492557
208	0x3d2070f2	0.039170213
209	0x3dbebae1	0.09312988
210	0x3e5939ad	0.21213408
211	0xbd843c0d	-0.06456766
212	0x3d5b1db0	0.05349511
213	0x3d3d0619	0.046148393
214	0x3e23a16c	0.15979546
215	0x3e2b4b90	0.16728044
216	0x3e78d3f9	0.24299611
217	0x3e77f9b1	0.24216343
218	0xbe2cfe2b	-0.16893832
219	0x3e0017ca	0.12509075
220	0xbe220d82	-0.15825465
221	0xbce6cdf6	-0.028174382
222	0xbe3fb875	-0.18722709
223	0xbe538723	-0.2065702
224	0xbe502038	-0.2032479
225	0xbe4bc32d	-0.19898672
226	0x3da18d9c	0.07888338
227	0xbe4bcf84	-0.1990338
228	0x3e2e6f2b	0.17034595
229	0x3df717c9	0.120650835
230	0xbdd24d04	-0.10268596
231	0x3e5aefc3	0.21380524
232	0xbdbca323	-0.09210803
233	0x3df13e39	0.11779446
234	0xbdff8c9d	-0.12477992
235	0x3de7d36c	0.113196224
236	0x3e617793	0.2201827
237	0xbdb02bd6	-0.08602111
238	0xbd26ea76	-0.040750943
239	0xbdc326f9	-0.09528918
240	0x3e2dbbc7	0.16966163
241	0x3de5f69b	0.11228677
242	0xbd343b00	-0.04400158
243	0xbdb6e074	-0.0892953
244	0xbe18a057	-0.14904915
245	0x3dda75e5	0.10667018
246	0x3e2f8145	0.17139156
247	0xbe6f0056	-0.23339972
248	0x3c4b0eb5	0.012393643
249	0xbe3ed3dd	-0.18635507
250	0x3e04fd8d	0.12987347
251	0xbc98e119	-0.018662022
252	0x3e3b5865	0.18295439
253	0x3c508dc8	0.012729116
254	0xbdbe8cf2	-0.09304227
255	0xbe37b86a	-0.17941442

critic.linears.0.bias f4 [64]
0	0xbc80b358	-0.015710518
1	0xbd33411e	-0.043763272
2	0x3e3cd871	0.18441941
3	0x3e2840cc	0.16430968
4	0xbe09343d	-0.13398834
5	0xbc44dfc6	-0.012016242
6	0x3d9ce9b1	0.076617606
7	0x3df53a57	0.11974018
8	0x3e71da61	0.23618461
9	0xbd8572f5	-0.06516067
10	0xbdcf68c4	-0.10127404
11	0xbe05aba7	-0.13053761
12	0x3e5d0437	0.21583639
13	0xbc136559	-0.008996331
14	0x3cd4c27e	0.025971647
15	0x3d1510e9	0.03639308
16	0xbcc4306f	-0.023948876
17	0x3d4d59c3	0.05013443
18	0xbcf83594	-0.030298986
19	0xbde5c111	-0.11218465
20	0x3daa3417	0.083107166
21	0x3e078103	0.13232808
22	0xbe361b60	-0.1778388
23	0xbe326adf	-0.1742358
24	0x3dc0141a	0.09378834
25	0xb8f5f4fd	-0.00011728143
26	0xbe70f2f1	-0.23530175
27	0xbcc784a3	-0.024355238
28	0xbdbb7e83	-0.091549896
29	0x3d727b69	0.059199724
30	0xbe14bd2d	-0.1452529
31	0x3df8827e	0.121342644
32	0xbbda64ac	-0.006664833
33	0xbe64d504	-0.22346884
34	0xbe2e8a5c	-0.17044967
35	0x3cc2cc37	0.023779018
36	0xbbe23509	-0.006903295
37	0xbd223270	-0.039598882
38	0x3dd93c37	0.10607188
39	0xbe34c157	-0.17651878
40	0x3e0a9834	0.13534623
41	0x3e1cbd81	0.15306665
42	0x3d038930	0.032113254
43	0xbdc51878	-0.09623808
44	0x3d87fdd1	0.066402085
45	0xbe44d1e3	-0.1922069
46	0xbe1a749f	-0.1508355
47	0xbdd148da	-0.102189735
48	0x3cf3774d	0.029719973
49	0x3da6b792	0.08140482
50	0x3e61326a	0.21991888
51	0x3d9d648e	0.07685195
52	0xbcc3547c	-0.023843996
53	0x3d24b5c6	0.040212415
54	0xbe4daeea	-0.20086256
55	0x3e03c816	0.12869295
56	0x3e197c80	0.14988899
57	0x3e62e4f1	0.22157647
58	0x3d01d473	0.031696748
59	0x3dee1ae0	0.1162622
60	0x3e24324a	0.16034809
61	0xbddfee41	-0.10934115
62	0xbdf2812d	-0.118410446
63	0xbd0f8bbc	-0.03504537

critic.linears.1.weight f4 [64, 64]
0	0xbc16c4be	-0.00920218
1	0xbdb05ccd	-0.0861145
2	0x3de5b4c9	0.11216123
3	0xbdabeb2d	-0.083944656
4	0xbd7146f4	-0.058905557
5	0x3df96164	0.12176779
6	0x3d37c156	0.044862114
7	0xbd833947	-0.06407409
8	0x3ce37828	0.027767256
9	0xbd945864	-0.07243422
10	0xbdcf8c2e	-0.10134159
11	0x3d8303c2	0.06397201
12	0x3ce7d8a2	0.02830154
13	0x3dada1c2	0.084781185
14	0xbdfd0d33	-0.12356033
15	0xbb544207	-0.0032387988
16	0x3d0fd6d1	0.035116974
17	0x3b1594f3	0.0022824376
18	0x3e11c8bb	0.14236729
19	0xbdbff454	-0.09372774
20	0xbdae0c4c	-0.08498439
21	0xbd8961e1	-0.06708122
22	0xbd3274de	-0.043568484
23	0x3d094218	0.033510298
24	0xbca666fa	-0.020312775
25	0x3de02754	0.10945001
26	0xbda36468	-0.07978135
27	0x3d80c06b	0.06286701
28	0xbdbc38aa	-0.09190495
29	0xbd1faf8b	-0.03898577
30	0x3d4f22bc	0.050570235
31	0x3cca1a6c	0.024670802
32	0x3dae65e0	0.08515525
33	0x3d535213	0.051591944
34	0xbcd19b32	-0.025586698
35	0xbe065766	-0.13119277
36	0x3d6da984	0.05802299
37	0x3d7035a2	0.0586449
38	0x3d96d2e4	0.07364443
39	0xbdf92aad	-0.12166343
40	0xbd6bd7ad	-0.05757873
41	0x3dd8d3c8	0.10587269
42	0x3d1e2b9f	0.03861582
43	0xbd8624de	-0.065500006
44	0xbdd81863	-0.105515264
45	0xbd17b29b	-0.037035566
46	0x3dbb8e0a	0.09157951
47	0x3de1e558	0.11030072
48	0x3daaaaf1	0.08333386
49	0x3e02c988	0.1277219
50	0x3d029c0b	0.031887095
51	0x3df12b6f	0.117758624
52	0xbcd9dd5d	-0.026594812
53	0xbd04e096	-0.032440744
54	0xbcd26474	-0.025682665
55	0x3d60d4f0	0.054890573
56	0xbd9388f0	-0.07203853
57	0xbd70dab1	-0.05880231
58	0x3d49cf3d	0.049269903
59	0x3df531b9	0.119723745
60	0x3df488b4	0.119401366
61	0xbd8961c8	-0.067081034
62	0x3c0e9cb9	0.008704358
63	0xbd366090	-0.044525683
64	0x3dbe4748	0.092909396
65	0xbd716641	-0.058935408
66	0x3db834d4	0.08994451
67	0xbdb54369	-0.08850748
68	0x3dc10c2d	0.094261505
69	0xbdb77db9	-0.089595266
70	0xbd77f0a0	-0.060532212
71	0xbdb9ea90	-0.09077942
72	0x3d6fd95e	0.058556907
73	0x3cc3e121	0.02391106
74	0x3d8e1d9f	0.069392435
75	0x3cb7a2d7	0.022416515
76	0xbd9227ce	-0.071364984
77	0x3dba7f2d	0.09106288
78	0x3da9d479	0.08292479
79	0x3d889ea7	0.066708855
80	0xbda90755	-0.082533516
81	0xbcdd0464	-0.026979633
82	0xbd7f3d37	-0.06231424
83	0x3dac8b49	0.08425004
84	0x3de42e10	0.11141598
85	0xbd29cf99	-0.041457746
86	0x3c75ca59	0.015001857
87	0xbdd63215	-0.10458771
88	0xbd6515bb	-0.055928927
89	0x3e0b98e3	0.1363254
90	0xbd6a2b38	-0.057170123
91	0x3d0fe18b	0.035127204
92	0xbdb23767	-0.087019734
93	0xbcaa91b5	-0.020821432
94	0xbd8927d4	-0.0669705
95	0xbdb77837	-0.08958476
96	0xbc54bccc	-0.012984466
97	0x3d2a097e	0.04151296
98	0xbdf96156	-0.121767685
99	0xbcb1cead	-0.021704996
100	0x3d02b73f	0.03191304
101	0xbca326b6	-0.01991592
102	0x3dffeb71	0.12496079
103	0xbd0c2323	-0.034213196
104	0xbd629b93	-0.05532415
105	0xbc596bd8	-0.013270341
106	0x3dc91af7	0.09819596
107	0x3d88f6fc	0.066877335
108	0x3dc227df	0.09480261
109	0xbdf71a27	-0.12065535
110	0xbbeba2f5	-0.007191057
111	0xbd8f4436	-0.06995432
112	0x3d2f8915	0.04285534
113	0xbdc0bee4	-0.094114095
114	0xbd6a11e4	-0.057145968
115	0xbde198ee	-0.11015497
116	0x3b5b70c9	0.0033483973
117	0xbbd5f04f	-0.006528891
118	0x3c9a16a1	0.018809618
119	0x3d06d2e5	0.03291597
120	0xbd85553c	-0.06510398
121	0x3d6b5500	0.05745411
122	0xbd1d44f1	-0.038395826
123	0xbdb8cb6d	-0.090231754
124	0xbb123ac9	-0.002231287
125	0xbe01b308	-0.12665951
126	0x3d9bb185	0.076022185
127	0xbd9ab68a	-0.07554348
128	0xbd850b6b	-0.064963184
129	0xbdb483b2	-0.088141814
130	0x3d2dd41f	0.042438623
131	0x3de89b3e	0.11357735
132	0xbd281c0f	-0.041042384
133	0x3de1036b	0.1098698
134	0x3de6778d	0.11253271
135	0x3da6e9cd	0.08150063
136	0xbd57b74a	-0.052665032
137	0x3d820964	0.06349447
138	0x3d886891	0.066605695
139	0xbc2ec90a	-0.010668049
140	0x3df56e54	0.11983934
141	0xbd41cc3d	-0.047313917
142	0x3cdcc18d	0.026947761
143	0x3d8d1ef8	0.068906724
144	0xbdf90daf	-0.12160813
145	0x3dde8f2a	0.1086715
146	0xbcde9c7a	-0.027174223
147	0xbe10a410	-0.14125085
148	0xbd5d9692	-0.054098673
149	0xbdb90803	-0.09034731
150	0x3d8fe307	0.07025724
151	0xbdc2265e	-0.09479974
152	0x3d9e0f94	0.07717815
153	0x3e0fa296	0.14026865
154	0xbdadff4a	-0.08495958
155	0xbdf42740	-0.11921549
156	0x3d36e266	0.044649504
157	0xbddad19a	-0.106845096
158	0xbdee0100	-0.116212845
159	0xbdccb1cd	-0.0999485
160	0xbd8f9170	-0.07010162
161	0x3db40ea0	0.08791852
162	0xbc928e0d	-0.01789
163	0xbda324cb	-0.07966002
164	0xbdf86ffb	-0.121307336
165	0xbdad2a14	-0.084552914
166	0xbd93d91d	-0.072191454
167	0xbc8e5aa6	-0.017377209
168	0x3d8e3d19	0.06945247
169	0xbdd5ac46	-0.10433249
170	0xbde3389d	-0.110947825
171	0x3dda8c39	0.106712766
172	0x3be3a22c	0.0069468226
173	0xbc8e24a7	-0.017351462
174	0xbc4125ae	-0.011788769
175	0x3c755a1a	0.014975095
176	0x3d80d49e	0.062905535
177	0x3da2347d	0.079201676
178	0xbdef8597	-0.11695402
179	0x3c046f0a	0.008083114
180	0x3da2d532	0.0795082
181	0x3decb97b	0.11558815
182	0xbdd70e7a	-0.10500808
183	0xbdf0f98c	-0.11766347
184	0xbdaac3a5	-0.083380975
185	0xbdcbe36c	-0.09955487
186	0x388edb86	6.811977e-05
187	0xbd8ae354	-0.06781641
188	0x3db5383d	0.08848617
189	0x3cc69635	0.024241546
190	0x3d6c7de4	0.057737246
191	0xbde78074	-0.11303797
192	0x3db3a59b	0.08771821
193	0x3c6cb28e	0.014446868
194	0xbda0381a	-0.078232005
195	0x3d0721cd	0.03299122
196	0x3db18ede	0.08669828
197	0xbcae3eed	-0.02127024
198	0x3d519ef8	0.051176995
199	0x3c87e9b0	0.016590923
200	0x3dfe7b91	0.12425912
201	0x3de8fd9c	0.11376497
202	0xbd0a4517	-0.033757295
203	0x3d09f8a1	0.033684377
204	0xbde15a90	-0.110036016
205	0x3d090631	0.03345317
206	0xbd592e05	-0.053022403
207	0xbde740ac	-0.11291632
208	0xbdf46608	-0.119335234
209	0xbdbfc017	-0.0936281
210	0xbd8e347a	-0.06943603
211	0x3dbef103	0.09323313
212	0x3def12bc	0.11673495
213	0x3d932086	0.07183938
214	0xbdf3f4fd	-0.11911962
215	0xbd7d4006	-0.061828636
216	0xbdb3d067	-0.08779984
217	0xbcea9b12	-0.028638396
218	0x3d46188c	0.048363253
219	0x3da348e2	0.07972886
220	0xbdeb049d	-0.11475489
221	0xbd1a3fb1	-0.037658397
222	0x3db764bf	0.08954763
223	0xbcf8ce59	-0.030371832
224	0x3de0db4f	0.1097933
225	0x3d26aefb	0.040694218
226	0x3d4c1003	0.049819957
227	0x3bcccdda	0.0062501254
228	0xbdeac6a3	-0.11463668
229	0xbd4937ae	-0.049125366
230	0x3c9709f0	0.018437356
231	0xbdd220b0	-0.10260141
232	0xbd928253	-0.071537636
233	0xbdda4c40	-0.10659075
234	0x3dd8df09	0.105894156
235	0x3d1dd8d5	0.038536865
236	0xbc976cc2	-0.018484477
237	0xbccf07ab	-0.025272211
238	0x3d4fae39	0.05070326
239	0xbd856db4	-0.06515065
240	0xbdb0ca4f	-0.08632337
241	0xbd5ae258	-0.053438514
242	0xbcbb25dc	-0.022845201
243	0xbd6481b9	-0.055787776
244	0xbbe3fa36	-0.0069573177
245	0x3c574974	0.013140071
246	0x3d54a3ba	0.051913954
247	0x3d07386c	0.033012792
248	0xbc4191ef	-0.011814578
249	0x3dd39c4e	0.10332547
250	0x3dfa1518	0.122110546
251	0x3de81f9a	0.113341525
252	0x3d49ee3a	0.049299456
253	0x3d271403	0.04079057
254	0xbd7b2b1e	-0.061320417
255	0x3df33423	0.11875179

critic.linears.1.bias f4 [64]
0	0x3d834427	0.064094834
1	0xbdd6da8e	-0.10490905
2	0xbd01cc31	-0.031688873
3	0xbcf0f5a6	-0.02941401
4	0xbd9a8731	-0.07545317
5	0xbde9a8a0	-0.11409116
6	0xbcae2401	-0.021257402
7	0x3ce076ff	0.027400492
8	0x3dcae3be	0.099067196
9	0x3d2aba56	0.04168161
10	0x3d158eaa	0.03651301
11	0xbddb221f	-0.106998675
12	0xbc479460	-0.012181371
13	0x3de51f26	0.11187582
14	0xbdded180	-0.10879803
15	0x3cd29a85	0.025708446
16	0x3db36a8a	0.08760555
17	0xbdd1c12b	-0.10241922
18	0xbd1ad7b6	-0.037803374
19	0xbd94219b	-0.07232972
20	0x3d270ad6	0.04078182
21	0xbdeeab29	-0.1165374
22	0x3dd9c054	0.10632387
23	0x3decf457	0.115700416
24	0x391bf55d	0.00014873357
25	0x3bb77c29	0.005599518
26	0xbb630815	-0.0034642268
27	0xbdff66e3	-0.12470796
28	0xbdde02a9	-0.10840351
29	0xbd9b2431	-0.07575262
30	0xbda738e2	-0.081651464
31	0x3d80b592	0.06284632
32	0xbd34f5cd	-0.044179726
33	0xbe008d26	-0.12553844
34	0xbd637b7d	-0.05553769
35	0xbc968877	-0.018375618
36	0xbd08b0f2	-0.033371873
37	0xbcd8e50d	-0.026476407
38	0x3dd35089	0.10318095
39	0xbab197c4	-0.0013549258
40	0x3dad558e	0.08463584
41	0xbc6ec5cf	-0.014573528
42	0x3debdac9	0.11516339
43	0x3d51ca42	0.05121828
44	0xbd2399a5	-0.03994145
45	0x3cd0b74f	0.025478033
46	0xbc4304e6	-0.011903023
47	0x3ddf8389	0.1091376
48	0xbdd94596	-0.106089756
49	0x3d9d116e	0.0766934
50	0x3df5d4ab	0.12003454
51	0x3d81a111	0.06329549
52	0xbd93a134	-0.072084814
53	0x3d6e8aea	0.058237948
54	0x3deb27f6	0.11482231
55	0x3b280c0e	0.002564195
56	0x3d24eb30	0.040263355
57	0x3e012887	0.12613116
58	0x3decd261	0.11563564
59	0xbda60173	-0.08105745
60	0xbd4ca67d	-0.049963463
61	0x3ca0f40d	0.019647622
62	0xbc66ee70	-0.014094934
63	0xbce64f75	-0.02811406

critic.linears.2.weight f4 [1, 64]
0	0xbc00243e	-0.007821141
1	0xbd24a7ca	-0.04019908
2	0xbddf97fb	-0.1091766
3	0xbde6bcaf	-0.11266457
4	0x3c908317	0.017640634
5	0x3d36c5c1	0.044622187
6	0x3d9dfba2	0.07714011
7	0x3bba2a3d	0.0056813047
8	0x3dba607a	0.09100433
9	0x3d4b4ab1	0.04963178
10	0xbdb621f3	-0.08893194
11	0x3dd68c48	0.10475975
12	0x3c5e2e0e	0.013560785
13	0x3df04f1c	0.11733839
14	0xbdb8514d	-0.08999882
15	0xbd98b3e6	-0.07456188
16	0xbdd25648	-0.10270363
17	0xbd63929c	-0.05555974
18	0xbcac0a58	-0.021001026
19	0x3d7a9c0d	0.061183978
20	0x3d96350e	0.07334338
21	0x3ccee20d	0.025254274
22	0xbde35a83	-0.11101248
23	0x3da39017	0.07986467
24	0x3dfda877	0.12385648
25	0xbd42fe13	-0.047605585
26	0x3dbe0e5a	0.09280081
27	0x3e00b214	0.12567931
28	0x3dbc210c	0.09185991
29	0x3dc5b8d0	0.09654391
30	0xbb74cceb	-0.0037353586
31	0xbdf1b6fb	-0.11802479
32	0xbb52b143	-0.0032149113
33	0x3d76acae	0.060223274
34	0xbd9ab8dd	-0.07554791
35	0x3db43405	0.087989844
36	0x3c795298	0.015217446
37	0x3d9741b5	0.073855795
38	0x3c05a6f6	0.008157482
39	0xbd0f5a27	-0.034998085
40	0xbdb409f7	-0.08790963
41	0xbdcb598c	-0.09929189
42	0xbde6077e	-0.11231898
43	0xbcc13aae	-0.023587551
44	0xbdd14f28	-0.10220176
45	0x3de19730	0.11015165
46	0x3c2bfaa5	0.01049677
47	0xbc168368	-0.009186603
48	0x3dd0a43e	0.10187577
49	0xbca86c77	-0.020559533
50	0xbdf58ab5	-0.11989347
51	0x3dee7de4	0.116451055
52	0xbc2d2208	-0.010567196
53	0xbcd6a248	-0.026200429
54	0xbcbf42f5	-0.023347357
55	0x3c944983	0.01810146
56	0x3db2eefc	0.08736989
57	0xbdf2e14d	-0.11859379
58	0xbdf84379	-0.121222444
59	0xbd99bb73	-0.07506456
60	0xbd1468a0	-0.03623259
61	0xbcecd170	-0.028908461
62	0x3dc43850	0.09581053
63	0x3d56daa6	0.052454613
