trained_network/SD2/same_dim128_mix_train_1000_new_state_seed2.pth (torch, 421173 bytes, 26 tensors)

feature_exact.j_encoder.layers.0.weight f4 [64, 14]
-0.043328606 0.16853394 -0.11722141 0.10843537 -0.12914307 0.08799695 -0.24997911 0.2124688
0.20597622 0.16663876 -0.0513535 -0.050682876 -0.195265 -0.29792434 0.10184753 0.14248155
-0.12952071 -0.34596092 -0.20218101 -0.060402792 -0.00649818 0.045436274 0.19412594 -0.26676777
-0.001764925 -0.18046924 -0.008010185 -0.09027315 0.24604073 0.2676937 -0.25787207 -0.20655923
-0.051151995 -0.060747858 0.16681005 -0.15875489 -0.10541336 0.19177265 0.088507235 -0.08406311
0.014479916 0.1677886 -0.12769228 0.17915124 0.26336107 -0.009496794 0.07960688 0.16986375
-0.13477744 -0.2745199 -0.19600146 0.19388513 -0.24157348 -0.18252985 -0.31320503 0.12956418
0.2268352 -0.051848933 -0.2606259 0.08612542 -0.11162721 -0.07333932 -0.098344274 0.042447563
0.17738102 0.14033568 0.21370222 -0.062092043 -0.06416373 0.22072016 0.01854003 -0.2530846
-0.11002861 -0.013453245 0.19713253 -0.14091465 -0.26740855 0.22533503 0.13047001 -0.066943936
-0.1075453 0.030276898 0.032436833 0.039365925 -0.010907298 0.15062109 0.036202777 0.031749006
0.36268428 -0.122114815 -0.2487149 0.16457161 -0.095650986 0.14111486 -0.047145285 0.18024763
0.04188482 -0.14379743 -0.20046699 -0.006485861 0.17308813 0.33363366 -0.19876215 -0.012315439
0.060671575 -0.21714431 -0.03507208 0.17459856 0.13884255 0.119324334 -0.21968552 -0.23212406
-0.12271885 -0.12950468 -0.049789738 -0.18035524 -0.096311375 -0.121770635 -0.06378952 -0.06418395
0.12721515 -0.061844498 -0.20079626 -0.2241297 0.21499538 0.17031613 0.15210027 -0.056714464
-0.10422678 -0.105817646 -0.021304129 0.113357656 0.13176051 -0.20765798 -0.1526888 0.08875204
-0.22261454 -0.21603799 -0.08355797 -0.059096254 0.015646612 -0.20918615 0.041458048 -0.020538112
0.013285962 -0.13377279 -0.13994308 -0.040471476 0.15584382 0.31194875 -0.08636797 0.07286527
-0.3113755 -0.26250482 -0.15770726 -0.08886703 -0.09503326 -0.12343731 0.16264178 -0.16156773
0.0010442925 0.21755639 0.18456008 0.2451449 -0.22648971 0.1135994 -0.09951384 0.19364907
0.061294284 -0.03453105 0.23364465 -0.30606112 -0.19369149 -0.09444648 0.17959483 0.1455027
-0.07672549 0.010235761 -0.17393196 0.10514231 -0.16692021 -0.073394805 0.23659652 0.10288163
-0.23598048 -0.17223002 0.3093098 -0.1417653 -0.093759514 0.033393864 0.011917457 -0.09457454
0.14901398 -0.047439568 0.1597394 0.04595281 0.15850408 -0.022704428 -0.2065189 0.13191816
0.0044476604 -0.114117 -0.16555457 -0.09543996 0.15786573 -0.025544768 0.107165635 -0.016083905
-0.14806342 -0.2739213 -0.25852987 0.13665207 -0.22743925 -0.1627235 0.16279028 0.1348355
-0.06988321 0.037072994 0.20157564 -0.044696823 0.23734018 0.15870826 0.34786233 -0.017617943
0.0661208 -0.0135602495 -0.083294794 0.017873293 0.13529605 -0.19439615 -0.14175712 -0.17868207
0.117285594 0.2674718 -0.040625766 -0.08196526 0.19308604 0.1271847 -0.09333808 0.014369923
0.11681087 -0.37546417 0.25228375 -0.15852253 0.102715574 0.0077944407 -0.07380394 -0.2537692
0.028313437 -0.020458452 -0.30262917 -0.18801776 0.12181243 -0.039151255 0.16395737 -0.16794471
00000000: 5679 31bd 2994 2c3e c711 f0bd 5d13 de3d
00000010: 153e 04be bf37 b43d 86fa 7fbe 6c91 593e
00000020: 6eeb 523e 5aa3 2a3e 0c58 52bd d998 4fbd
00000030: 8cf3 47be 8a89 98be 7095 d03d afe6 113e
00000040: 14a1 04be ca21 b1be 8a08 4fbe eb68 77bd
00000050: afee d4bb 631b 3a3d f3c8 463e c995 88be
00000060: 0e55 e7ba eecc 38be 273d 03bc 21e1 b8bd
00000070: 1af2 7b3e 260f 893e cf07 84be 4384 53be
00000080: c184 51bd bfd2 78bd 41d0 2a3e a490 22be
00000090: f6e2 d7bd 0d60 443e 4843 b53d 4829 acbd
000000a0: 2b3d 6d3c c6d0 2b3e c4c1 02be 6c73 373e
000000b0: 43d7 863e 7198 1bbc ef08 a33d c3f0 2d3e
000000c0: 1903 0abe df8d 8cbe 9bb4 48be d389 463e
000000d0: 0a5f 77be 1be9 3abe 695c a0be 79ac 043e
000000e0: 7d47 683e 8c5f 54bd c270 85be 8662 b03d
000000f0: cf9c e4bd ed32 96bd b968 c9bd 7fdd 2d3d
00000100: 5fa3 353e 28b4 0f3e c1d4 5a3e 3a54 7ebd
00000110: 4668 83bd 7704 623e 43e1 973c 4e94 81be
00000120: ae56 e1bd 006b 5cbc 1cdd 493e ee4b 10be
00000130: c6e9 88be 3abe 663e ee99 053e e719 89bd
00000140: b640 dcbd 4207 f83c 7cdc 043d 2a3e 213d
00000150: 86b4 32bc 6a3c 1a3e 5d49 143d 3f0b 023d
00000160: c1b1 b93e 5517 fabd 1eaf 7ebe 7685 283e
00000170: aae4 c3bd 6a80 103e 6a1b 41bd d692 383e
00000180: 6b8f 2b3d a23f 13be 3847 4dbe 5887 d4bb
00000190: 043e 313e 08d2 aa3e 4e88 4bbe b2c6 49bc
000001a0: c282 783d 145b 5ebe bea7 0fbd f7c9 323e
000001b0: be2c 0e3e 5160 f43d 3ef5 60be eeb1 6dbe
000001c0: 0554 fbbd e09c 04be 53f0 4bbd 0baf 38be
000001d0: e63e c5bd e262 f9bd 14a4 82bd e072 83bd
000001e0: b044 023e a850 7dbd 899d 4dbe 4282 65be
000001f0: c027 5c3e 5a67 2e3e 2cc0 1b3e 6d4d 68bd
00000200: da74 d5bd ecb6 d8bd ff85 aebc 0f28 e83d
00000210: 3aec 063e 4ba4 54be 745a 1cbe a1c3 b53d
00000220: 11f5 63be 1039 5dbe 7120 abbd ea0e 72bd
00000230: 532d 803c e534 56be eacf 293d 8b3f a8bc
00000240: 5dad 593c bcfb 08be 3d4d 0fbe 6bc5 25bd
00000250: 8695 1f3e bfb7 9f3e b1e1 b0bd 633a 953d
00000260: 9c6c 9fbe 0867 86be 037e 21be ebff b5bd
00000270: cca0 c2bd b3cc fcbd 918b 263e 0372 25be
00000280: a4e0 883a 1ac7 5e3e 51fd 3c3e 4407 7b3e
00000290: ebec 67be cda6 e83d eacd cbbd f14b 463e
000002a0: b70f 7b3d 6e70 0dbd 8b40 6f3e 0bb4 9cbe
000002b0: 1057 46be 286d c1bd b5e7 373e a9fe 143e
000002c0: 4122 9dbd e5b3 273c 381b 32be da54 d73d
000002d0: 22ed 2abe 0450 96bd 5c46 723e 9bb3 d23d
000002e0: dea4 71be 115d 30be db5d 9e3e ec2a 11be
000002f0: fd04 c0bd 01c8 083d 7041 433c 4cb0 c1bd
00000300: 1f97 183e fe4f 42bd ba92 233e 0439 3c3d
00000310: e54e 223e a3fe b9bc b179 53be 8e15 073e
00000320: aebd 913b 2cb6 e9bd 2387 29be 0776 c3bd
00000330: 8ea7 213e 4343 d1bc a879 db3d 65c2 83bc
00000340: f09d 17be 6a3f 8cbe 075e 84be 85ee 0b3e
00000350: d6e5 68be fda0 26be 7fb2 263e 5112 0a3e
00000360: ee1e 8fbd dad9 173d d869 4e3e 0414 37bd
00000370: 4e09 733e 6b84 223e 031b b23e 8153 90bc
00000380: 586a 873d cf2b 5ebc 7696 aabd 036b 923c
00000390: 0c8b 0a3e c90f 47be c728 11be 6ff8 36be
000003a0: 6e33 f03d 10f2 883e 3467 26bd 67dd a7bd
000003b0: 59b8 453e b53c 023e 0928 bfbd d36f 6b3c
000003c0: 8a3a ef3d d73c c0be 562b 813e bb53 22be
000003d0: 8b5c d23d 8268 ff3b 8526 97bd 09ee 81be
000003e0: 95f1 e73c 7c98 a7bc 36f2 9abe ba87 40be
000003f0: cc78 f93d 115d 20bd 71e4 273e b3f9 2bbe

feature_exact.j_encoder.layers.0.bias f4 [64]
-0.21230909 -0.052438114 -0.102822825 0.035953198 -0.20058337 -0.057371084 -0.014248858 -0.15547079
-0.003493913 -0.16155921 -0.10722627 0.00984695 -0.105968155 0.21877894 0.1242176 0.07467034
-0.20385787 -0.0146164745 -0.0038321852 0.06284969 -0.12793295 0.12489162 0.15162182 0.12126456
-0.13408151 0.15812485 0.22355777 0.03617598 0.03832434 0.26995546 -0.21173833 -0.17542648
0.1973131 -0.19038765 0.060419943 -0.061859705 0.03686863 5.2656327e-05 0.051632132 -0.07220105
-0.037279017 0.021556433 -0.13590936 0.12680629 -0.21835914 -0.042624038 0.13968965 -0.19865023
0.0040924074 -0.1512631 0.2403891 0.2780632 0.019755559 0.11841026 0.20394759 0.09939532
0.18476656 0.25502944 0.07546151 0.20120138 0.25503016 0.089660615 -0.21933635 0.040186834
00000000: 8e67 59be 59c9 56bd c694 d2bd a943 133d
00000010: ba65 4dbe f1fd 6abd 0b74 69bc bc33 1fbe
00000020: 22fa 64bb c76f 25be 7299 dbbd 1a55 213c
00000030: d505 d9bd 9607 603e cc65 fe3d c3ec 983d
00000040: 1ec0 50be f079 6fbc 6625 7bbb 57b7 803d
00000050: db00 03be 2dc7 ff3d c042 1b3e 8e59 f83d
00000060: aa4c 09be 7beb 213e 54ec 643e 442d 143d
00000070: fcf9 1c3d 9a37 8a3e efd1 58be 00a3 33be
00000080: 720c 4a3e fbf4 42be e77a 773d 9a60 7dbd
00000090: 9003 173d 4ddb 5c38 377c 533d 25de 93bd
000000a0: e2b1 18bd 1e97 b03c d32b 0bbe 82d9 013e
000000b0: 8a99 5fbe 8b96 2ebd ce0a 0f3e f76a 4bbe
000000c0: 9a19 863b b7e4 1abe 8f28 763e 4d5e 8e3e
000000d0: 69d6 a13c 1481 f23d a3d7 503e c68f cb3d
000000e0: 7233 3d3e 3893 823e 908b 9a3d bc07 4e3e
000000f0: 5093 823e fc9f b73d b599 60be f39a 243d

feature_exact.j_encoder.layers.1.weight f4 [64, 64]
-0.02307787 -0.088572726 0.007868603 0.04011307 -0.085629135 0.10869566 -0.06613102 -0.14060333
0.06772811 -0.011669996 -0.15635315 0.07962791 -0.05276937 0.015264666 0.07218912 0.037032608
-0.0341683 0.049507618 -0.05844203 0.05575918 -0.10611424 0.052989826 -0.0711502 -0.124704376
0.051138207 0.10451801 -0.008185045 -0.024737017 -0.14113103 -0.0012214616 -0.053952012 0.050472256
0.03695118 0.08475695 -0.022730198 0.15247515 0.025463859 0.15931 -0.0047337343 -0.022539377
-0.053192254 0.016647998 -0.04407683 0.06703894 -0.09737397 -0.052794397 0.041212577 -0.23052707
0.024905225 -0.18964738 -0.03543224 0.022328477 0.10519165 -0.09911088 0.0812062 0.08635307
0.10166548 0.08593068 0.010242987 -0.012928676 0.08121805 0.037339233 -0.048187666 -0.0553531
-0.14511298 -0.029744046 0.10307482 0.004014663 -0.057286516 -0.005015024 -0.06470239 -0.11947347
-0.053669695 -0.08754919 -0.07276484 0.08359238 0.107355975 0.07411104 0.050201304 -0.06785817
0.03984721 -0.13076796 -0.099270634 -0.08992768 0.08400522 0.022160875 0.061004207 -0.08062793
-0.07653723 0.056929067 -0.0976706 -0.048837375 0.13128036 0.06327837 0.009022825 0.03395868
0.07680272 0.07617123 -0.064001665 -0.028433813 -0.07232419 0.057928983 0.12141998 0.046973903
-0.09207746 -0.079116546 -0.068351954 -0.0011992424 0.08656598 -0.023654416 -0.07877346 0.024697546
0.1307117 0.109756455 0.055037204 0.091193624 -0.047985755 0.001537961 0.0278364 0.046335496
0.11573083 0.08846537 0.03062113 -0.030585201 0.10536453 0.033025987 0.05652588 -0.047234964
-0.084475294 0.06623884 -0.07048601 -0.021762997 -0.10902146 -0.11894076 0.06784382 0.07641083
-0.045241762 -0.10050957 0.083348 -0.027066225 0.105996795 0.084533595 0.008772485 0.03574182
0.1739867 -0.015295467 0.008932539 -0.08608141 0.09696684 -0.07038196 -0.02989714 0.04890902
0.0659744 0.09588996 -0.042182103 -0.020296356 -0.042627964 0.14975123 -0.100695364 0.08676858
-0.03435253 0.060135152 -0.055111036 -0.124225914 0.11502821 -0.039970018 -0.05318413 -0.0978747
-0.10048399 -0.059643593 0.0010490748 0.08492808 0.12279303 -0.092290185 0.062089916 -0.048106663
-0.058902953 -0.06811212 0.09314481 -0.02326688 0.07232229 0.110940054 -0.07076036 -0.031647075
0.0786979 0.03697335 0.10412681 -0.02576137 0.087693244 0.14587592 0.0890042 0.0062285815
0.054013565 -0.0062573934 -0.016529202 0.10678573 -0.029888028 0.010707633 0.03505426 -0.022349495
-0.07766411 -0.08274383 -0.08559183 0.09115818 0.029406127 0.029848965 -0.11958412 0.10924953
-0.12131412 0.1100463 0.03969238 0.10154548 0.018377095 -0.02843707 0.076796055 0.028805615
-0.013620044 -0.09080345 -0.03542796 0.09594979 0.12151615 0.058749188 -0.051877934 -0.12397811
-0.1176934 -0.07027269 -0.019421484 -0.045231026 0.0069637434 0.011742633 0.004602637 -0.06501161
-0.07700498 -0.09430212 0.15417078 -0.03649256 -0.022427075 0.107046425 -0.06208645 -0.11795509
0.09463302 -0.038904164 0.11660313 -0.098377794 -0.019406587 0.013670656 0.06878087 -0.10562066
0.09767812 0.10960295 0.07164727 0.06873762 0.11114902 0.0009838379 0.012592276 -0.02392603
00000000: cd0d bdbc 9e65 b5bd 50eb 003c 9a4d 243d
00000010: 545e afbd d59b de3d b36f 87bd 52fa 0fbe
00000020: 09b5 8a3d 8333 3fbc 0a1b 20be f513 a33d
00000030: b224 58bd a618 7a3c e4d7 933d 81af 173d
00000040: 0ff4 0bbd 80c8 4a3d e960 6fbd bd63 643d
00000050: 6c52 d9bd dc0b 593d 32b7 91bd 0265 ffbd
00000060: 4c76 513d 8a0d d63d 911a 06bc 49a5 cabc
00000070: a784 10be 7319 a0ba c9fc 5cbd ffbb 4e3d
00000080: 1f5a 173d 0d95 ad3d ae34 babc 7222 1c3e
00000090: 9599 d03c 2922 233e 711d 9bbb 80a4 b8bc
000000a0: 1fe0 59bd 6261 883c e889 34bd b64b 893d
000000b0: 016c c7bd f03e 58bd 85ce 283d 4a0f 6cbe
000000c0: 0b06 cc3c ec32 42be 6621 11bd 36ea b63c
000000d0: b86e d73d a5fa cabd 704f a63d e1d9 b03d
000000e0: fe35 d03d 6dfc af3d 34d2 273c ccd2 53bc
000000f0: a655 a63d 06f1 183d 6e60 45bd efb9 62bd
00000100: 7f98 14be c9a9 f3bc e418 d33d 6f8d 833b
00000110: 44a5 6abd 1255 a4bb b082 84bd 82ae f4bd
00000120: c1d4 5bbd fd4c b3bd bc05 95bd 7b32 ab3d
00000130: 73dd db3d 87c7 973d e29f 4d3d 39f9 8abd
00000140: d436 233d 09e8 05be 674e cbbd 012c b8bd
00000150: ee0a ac3d b98a b53c 8cdf 793d 4220 a5bd
00000160: 8dbf 9cbd 742e 693d 8607 c8bd b309 48bd
00000170: 5c6e 063e 1798 813d 79d4 133c 4218 0b3d
00000180: bf4a 9d3d a9ff 9b3d 4e13 83bd 07ee e8bc
00000190: b41e 94bd f146 6d3d 0aab f83d b567 403d
000001a0: 1b93 bcbd db07 a2bd 1cfc 8bbd e62f 9dba
000001b0: 8149 b13d e8c6 c1bc fb53 a1bd 8252 ca3c
000001c0: 4ad9 053e fec7 e03d b16e 613d b9c3 ba3d
000001d0: b68c 44bd 6895 c93a 2909 e43c 4aca 3d3d
000001e0: 4904 ed3d 552d b53d 2ad9 fa3c d18d fabc
000001f0: 5cc9 d73d 4246 073d ae87 673d 7379 41bd
00000200: 6201 adbd 3ba8 873d f85a 90bd 5048 b2bc
00000210: a546 dfbd 3797 f3bd b3f1 8a3d 487d 9c3d
00000220: 6d4f 39bd f6d7 cdbd 5bb2 aa3d fdb9 ddbc
00000230: d914 d93d f31f ad3d 78ba 0f3c 0466 123d
00000240: 9229 323e d799 7abc c959 123c 734b b0bd
00000250: 8d96 c63d 6b24 90bd d9ea f4bc d354 483d
00000260: 961d 873d f561 c43d 24c7 2cbd 8b44 a6bc
00000270: a99a 2ebd 6358 193e 5f39 cebd bab3 b13d
00000280: 3db5 0cbd 4750 763d 1cbc 61bd 286a febd
00000290: e993 eb3d 9ab7 23bd 9ad7 59bd 8872 c8bd
000002a0: 8dca cdbd d74c 74bd 1c81 893a c6ee ad3d
000002b0: ea7a fb3d a302 bdbd ff51 7e3d 7e0b 45bd
000002c0: 3944 71bd 5e7e 8bbd b5c2 be3d 2f9a bebc
000002d0: b51d 943d 8a34 e33d cfea 90bd 5da0 01bd
000002e0: 5d2c a13d 5e71 173d 7040 d53d 8209 d3bc
000002f0: 8498 b33d 7f60 153e d647 b63d 2119 cc3b
00000300: 543d 5d3d d20a cdbb 4068 87bc 7ab2 da3d
00000310: bdd7 f4bc 116f 2f3c 0e95 0f3d 4a16 b7bc
00000320: 5c0e 9fbd 9975 a9bd c54a afbd 24b1 ba3d
00000330: 1ee5 f03c d185 f43c 85e8 f4bd 38be df3d
00000340: 8a73 f8bd f45f e13d 7a94 223d 14f7 cf3d
00000350: 908b 963c dcf4 e8bc 4047 9d3d c1f9 eb3c
00000360: 9b26 5fbc 29f7 b9bd e91c 11bd 5381 c43d
00000370: 76dd f83d fda2 703d f57d 54bd 3ce8 fdbd
00000380: 3d09 f1bd 21eb 8fbd ce19 9fbc 2b44 39bd
00000390: 1d30 e43b 2c64 403c b8d1 963b cf24 85bd
000003a0: c9b4 9dbd 7821 c1bd f2de 1d3e 3979 15bd
000003b0: fcb8 b7bc 283b db3d 5d4e 7ebd 7092 f1bd
000003c0: f5ce c13d f959 1fbd 9fcd ee3d 4c7a c9bd
000003d0: 90fa 9ebc e3fa 5f3c fcdc 8c3d a54f d8bd
000003e0: 770b c83d 8377 e03d cebb 923d 4fc6 8c3d
000003f0: 19a2 e33d 1ff4 803a d54f 4e3c 8600 c4bc

feature_exact.j_encoder.layers.1.bias f4 [64]
-0.07144729 -0.12121087 0.13969049 -0.08822533 0.033831436 -0.006521568 0.035742078 -0.12640455
-0.01737141 -0.08876645 -0.07147008 -0.11537587 0.06449806 0.0049111154 -0.08653283 -0.10789348
0.086243115 0.07636154 -0.010466403 -0.15205069 0.014928799 -0.0945009 0.052001208 0.006128634
-0.048304707 0.024150724 0.130709 0.03944523 -0.103910655 0.0057937806 -0.12068551 -0.07347378
0.0112064285 -0.05961101 0.12207644 0.11038304 0.100649625 -0.010835382 0.024024198 0.0664606
0.13992132 0.0661476 -0.0675991 -0.0069120303 0.053125672 0.00552166 -0.10065315 0.008704339
-0.042083196 0.10709103 0.059095226 -0.05011598 0.011557771 0.09184895 -0.05050383 0.09442421
-0.087620646 -0.08878692 0.07906021 -0.029695649 0.020292226 0.04323016 -0.025219312 -0.050685607
00000000: f552 92bd 683d f8bd 060b 0f3e 7baf b4bd
00000010: d592 0a3d e1b2 d5bb 4966 123d 3270 01be
00000020: 7d4e 8ebc 2fcb b5bd e85e 92bd 2f4a ecbd
00000030: 8f17 843d 6ced a03b 2038 b1bd 42f7 dcbd
00000040: 3ba0 b03d 7063 9c3d 477b 2bbc 2db3 1bbe
00000050: ec97 743c b089 c1bd 38ff 543d b5d2 c83b
00000060: 28db 45bd bdd7 c53c 95d8 053e 5291 213d
00000070: 1ccf d4bd c1d9 bd3b f729 f7bd 6c79 96bd
00000080: 2b9b 373c ad2a 74bd 3603 fa3d 8110 e23d
00000090: 6421 ce3d e386 31bc 65ce c43c 7f1c 883d
000000a0: 8947 0f3e 6578 873d 6671 8abd 507e e2bb
000000b0: 4e9a 593d 0bef b43b 3d23 cebd a59c 0e3c
000000c0: 6e5f 2cbd 8b52 db3d d60d 723d 6a46 4dbd
000000d0: ce5c 3d3c 4d1b bc3d 1bdd 4ebd 7b61 c13d
000000e0: 7472 b3bd ebd5 b5bd 52ea a13d 4a44 f3bc
000000f0: e23b a63c 1c12 313d bb98 cebc b69b 4fbd

feature_exact.j_encoder.layers.2.weight f4 [64, 64]
-0.05510312 0.07380189 0.043302152 0.04705123 0.10340624 -0.042486038 -0.010470446 0.007988702
0.007841127 0.035449404 0.07364018 -0.10346331 -0.05691063 0.008837417 -0.12542613 -0.01821109
0.006335433 -0.00711936 -0.044174213 0.04979318 0.07016611 -0.15991987 -0.036184646 0.018529119
-0.008589062 -0.09607282 0.029682681 0.0053330334 -0.1155565 0.026601512 -0.011839134 -0.20904677
-0.0646669 -0.023493236 -0.08508275 -0.087234005 -0.0418901 -0.10243058 -0.115708895 -0.14878307
0.036450054 0.1116896 -0.07319277 0.10796527 0.044555824 -0.03933109 -0.035222404 0.11506895
-0.00597445 -0.04074608 -0.05284051 -0.05620573 0.0049211495 -0.09414107 0.08080429 -0.14350101
-0.025061224 -0.10028804 0.11537619 -0.0379135 0.077238746 0.07972738 -0.111757234 0.07386565
-0.13178864 -0.08059476 0.09961356 -0.09282503 -0.015288974 0.024232728 0.079269245 0.230281
-0.12081559 0.11611686 0.06358761 -0.04899202 -0.10811272 0.01316691 0.09382795 -0.08153346
-0.06643983 0.004086822 0.0946032 0.10456211 0.019210879 0.16179115 -0.090749264 -0.15908736
-0.016012326 0.10992962 0.07521026 -0.13069522 0.05423406 -0.06086666 0.038556162 -0.066665605
0.05617608 -0.1101113 -0.122990996 -0.026021214 -0.0045610084 0.08200796 -0.15841843 0.08653935
0.083251305 -0.07711368 -0.024305657 0.023659032 -0.09682 -0.08262179 -0.11302401 0.034018457
0.057437066 -0.009469179 0.06369643 -0.09602112 -0.060286872 -0.01901429 -0.06446328 0.04213732
0.0025005683 0.116006106 0.027450776 0.009724215 0.1261796 0.07340437 -0.09385527 0.060742762
0.002356198 0.04801036 -0.047850717 0.038095478 0.074844815 0.06862185 0.016317219 -0.049934503
0.08577332 -0.038368925 0.0506323 0.13193215 0.07778536 -0.040138897 0.08746436 0.115999244
0.014798827 -0.078741 -0.12087144 -0.23201811 -0.05117742 -0.064450994 -0.031013543 0.20985481
0.08048263 0.073947035 0.062923975 0.02543067 -0.05625374 0.0055514993 -0.2220782 0.061972342
-0.019981995 0.037337564 0.0063603832 0.06368226 -0.09996464 0.10210778 0.12850854 -0.080364145
-0.0942306 0.0057996716 0.031557836 0.08978091 -0.002693312 0.019000674 -0.09018679 0.057813562
-0.12594122 0.010287376 -0.079568446 0.14601523 0.036778376 -0.06113225 -0.04383695 -0.11398418
-0.017160648 -0.04743253 -0.07711429 0.046933606 0.11457098 0.08025596 0.1534267 0.14135692
0.014852326 0.006727203 0.13046741 -0.06305504 -0.06850499 0.07139006 -0.12468768 0.05216109
0.016405262 -0.07999676 -0.047701214 -0.1848619 -0.033579946 0.023926392 -0.08753716 -0.10424709
0.09792166 -0.11299261 -0.024023436 0.047427528 0.04497808 0.08175392 -0.0471528 0.021058954
0.02284247 0.00018342452 0.13206393 -0.09986221 0.008622879 0.08284618 0.1665934 -0.10435735
0.12699303 -0.058756754 -0.04780582 0.13133349 -0.10412174 0.1153366 -0.17908129 0.059181526
-0.003524272 0.12218869 -0.05991667 0.019078383 0.119357266 -0.099367335 0.014480583 -0.10149016
-0.051799998 -0.06105984 0.010277595 -0.11810627 0.09500722 -0.004063111 -0.069521904 -0.12040879
-0.051809054 0.048460934 0.10992863 0.056229394 -0.037687752 -0.0024885866 -0.037533663 -0.03061449
00000000: cfb3 61bd 7225 973d 995d 313d cab8 403d
00000010: a7c6 d33d d705 2ebd 3c8c 2bbc 0be3 023c
00000020: 1278 003c 6533 113d aad0 963d 92e4 d3bd
00000030: 1f1b 69bd d0ca 103c b56f 00be 6c2f 95bc
00000040: 7799 cf3b 8549 e9bb 05f0 34bd eff3 4b3d
00000050: 40b3 8f3d 09c2 23be 5a36 14bd 61ca 973c
00000060: 23b9 0cbc d4c1 c4bd 1829 f33c bac0 ae3b
00000070: e3a8 ecbd 6aeb d93c edf8 41bc 5b10 56be
00000080: 1470 84bd e374 c0bc dd3f aebd bea7 b2bd
00000090: f494 2bbd 20c7 d1bd c9f8 ecbd 975a 18be
000000a0: a74c 153d 84bd e43d 17e6 95bd e51c dd3d
000000b0: 2b80 363d a319 21bd 5e45 10bd 45a9 eb3d
000000c0: 52c5 c3bb 5de5 26bd 4a6f 58bd fb37 66bd
000000d0: 9841 a13b 09cd c0bd b87c a53d eef1 12be
000000e0: 324d cdbc d163 cdbd 5a4a ec3d 304b 1bbd
000000f0: 592f 9e3d 1c48 a33d fae0 e4bd e046 973d
00000100: 9af3 06be de0e a5bd 3202 cc3d 0d1b bebd
00000110: 9b7e 7abc b783 c63c ea57 a23d c8ce 6b3e
00000120: 2a6e f7bd adce ed3d 393a 823d dbab 48bd
00000130: 346a ddbd 06ba 573c de28 c03d 04fb a6bd
00000140: 9b11 88bd bfea 853b 53bf c13d a924 d63d
00000150: 2260 9d3c 94ac 253e c0da b9bd cce7 22be
00000160: 482c 83bc c822 e13d d607 9a3d f8d4 05be
00000170: 8924 5e3d 524f 79bd 11ed 1d3d fa87 88bd
00000180: e418 663d 0982 e1bd b4e2 fbbd 712a d5bc
00000190: 8374 95bb caf3 a73d 7138 22be 8b3b b13d
000001a0: a97f aa3d c7ed 9dbd a81c c7bc 96d0 c13c
000001b0: 9049 c6bd 9d35 a9bd 2279 e7bd f056 0b3d
000001c0: 2143 6b3d 9e24 1bbc 4673 823d b9a6 c4bd
000001d0: 5eef 76bd dbc3 9bbc 5305 84bd 2f98 2c3d
000001e0: 93e0 233b 9c94 ed3d 73e0 e03c 5052 1f3c
000001f0: 3a35 013e 0855 963d 3137 c0bd 67cd 783d
00000200: 716a 1a3b 83a6 443d 1dff 43bd 010a 1c3d
00000210: 3d48 993d 9d89 8c3d b0ab 853c 1f88 4cbd
00000220: eca9 af3d bc28 1dbd d163 4f3d 3919 073e
00000230: ee4d 9f3d af68 24bd 8420 b33d 0391 ed3d
00000240: c776 723c f642 a1bd 728b f7bd 2896 6dbe
00000250: 6a9f 51bd e2fe 83bd 1d10 febc 2ee4 563e
00000260: 14d4 a43d 8b71 973d 49de 803d fb53 d03c
00000270: 526a 66bd 5ae9 b53b 7868 63be b6d6 7d3d
00000280: 48b1 a3bc 46ef 183d c36a d03b d86b 823d
00000290: 43ba ccbd e21d d13d be97 033e f595 a4bd
000002a0: f9fb c0bd 2c0b be3b ca42 013d 0edf b73d
000002b0: 4782 30bb 4da7 9b3c dab3 b8bd eacd 6c3d
000002c0: bcf6 00be 628c 283c c8f4 a2bd 0485 153e
000002d0: eca4 163d cf65 7abd 608e 33bd 8a70 e9bd
000002e0: 7d94 8cbc 9d48 42bd 19ee 9dbd 743d 403d
000002f0: 31a4 ea3d 3d5d a43d e41b 1d3e debf 103e
00000300: 2c57 733c de6f dc3b 4099 053e 0023 81bd
00000310: 584c 8cbd f434 923d 415c ffbd dea6 553d
00000320: 5464 863c 57d5 a3bd 5962 43bd 704c 3dbe
00000330: 208b 09bd 4801 c43c af46 b3bd 807f d5bd
00000340: 278b c83d ab68 e7bd cccc c4bc 5e43 423d
00000350: ef3a 383d 996e a73d 4b23 41bd d483 ac3c
00000360: 2220 bb3c a555 4039 c43b 073e 8f84 ccbd
00000370: fa46 0d3c 42ab a93d 7697 2a3e 4eb9 d5bd
00000380: 760a 023e ecaa 70bd 09d0 43bd 497c 063e
00000390: c73d d5bd 9835 ec3d 1661 37be 5468 723d
000003a0: 79f7 66bb 103e fa3d 2f6b 75bd 454a 9c3c
000003b0: 9571 f43d 1a81 cbbd f83f 6d3c 13da cfbd
000003c0: 3c2c 54bd e219 7abd 5c63 283c b3e1 f1bd
000003d0: 2593 c23d d823 85bb 8061 8ebd e298 f6bd
000003e0: bb35 54bd f97e 463d 4322 e13d cb50 663d
000003f0: 795e 1abd 8e17 23bb e6bc 19bd 3dcb fabc

feature_exact.j_encoder.layers.2.bias f4 [64]
0.12579261 -0.007490533 -0.024347955 -0.0055972817 -0.11780128 -0.10525694 0.08255169 -0.11882287
0.0016138301 0.053823855 -0.01233153 0.07735227 0.07061483 -0.024020182 -0.10771874 -0.051776767
-0.12460713 0.03582749 0.09630021 0.019027082 0.08275754 0.027926726 -0.052703157 0.0013192815
0.12252848 -0.12072775 -0.0713252 0.07215431 -0.054665927 -0.012054911 -0.067703396 -0.11360773
0.07780281 0.028476004 0.1032641 -0.15368815 0.028772712 -0.018215189 -0.09153724 -0.023275191
-0.021487324 0.087091975 -0.1004239 0.12970941 -0.019590383 -0.043060552 -0.107102305 0.015962144
0.013799597 0.04270916 -0.066637285 0.015743079 0.14620069 0.046562556 -0.07718386 0.045244608
-0.12597938 0.07089121 0.051870104 -0.052740995 -0.08663148 -0.09483238 -0.06445058 0.1346093
00000000: c7cf 003e 2573 f5bb 5d75 c7bc 6769 b7bb
00000010: cc41 f1bd f390 d7bd dc10 a93d 6859 f3bd
00000020: 2787 d33a 6776 5c3d 300a 4abc de6a 9e3d
00000030: 829e 903d f9c5 c4bc a59b dcbd e013 54bd
00000040: 0632 ffbd d9bf 123d 0b39 c53d afde 9b3c
00000050: c97c a93d 97c6 e43c 44df 57bd beeb ac3a
00000060: 36f0 fa3d 1c40 f7bd f212 92bd a4c5 933d
00000070: 61e9 5fbd f681 45bc 14a8 8abd 2bab e8bd
00000080: 1457 9f3d 8246 e93c 217c d33d 6d60 1dbe
00000090: c0b4 eb3c 0538 95bc e077 bbbd 9dab bebc
000000a0: 2f06 b0bc 475d b23d 0cab cdbd 8bd2 043e
000000b0: 037c a0bc 4360 30bd 7458 dbbd 0bc3 823c
000000c0: b417 623c cdef 2e3d 2179 88bd a1f7 803c
000000d0: a2b5 153e 61b8 3e3d 9212 9ebd 6952 393d
000000e0: bd00 01be 692f 913d bf75 543d f106 58bd
000000f0: d86b b1bd 7b37 c2bd aafe 83bd 05d7 093e

feature_exact.m_encoder.layers.0.weight f4 [64, 9]
-0.33066514 -0.048302338 0.12886888 0.1541999 -0.038628053 0.27082667 -0.39448437 0.05483914
0.19928165 -0.010912966 -0.29528567 -0.2801055 -0.12807152 -0.07160819 -0.11401235 -0.18601891
-0.0199391 0.275377 0.27832228 -0.30575025 -0.2475891 -0.2178283 0.20888868 0.25720578
0.19315268 0.088833824 0.32228923 0.22068897 0.1406971 -0.07661633 0.17980714 0.018514432
-0.0013269171 -0.27343583 0.0049396544 -0.31264916 -0.24952029 0.23918259 -0.21213263 -0.1155488
0.17300905 -0.17793599 0.19197308 0.38642815 -0.17747423 -0.13767794 -0.250114 0.19582452
-0.20329593 0.11818679 -0.17792737 0.17412597 0.120374486 0.16794726 -0.12673922 0.12086095
0.28829828 -0.011628784 -0.117197335 0.0019532104 -0.16320571 0.23250706 -0.31490052 0.051242787
0.20562789 0.34206185 -0.16291308 0.054133747 0.29354686 -0.06992448 -0.026349895 -0.35898772
0.022678021 -0.073648304 0.1857834 -0.17611934 -0.2474156 0.24875781 0.19917586 -0.15750934
-0.19201821 0.025364868 0.023557657 -0.09378638 0.14404653 -0.28243774 0.09725325 0.15605162
0.1261948 -0.32300824 0.095957294 -0.19996892 -0.08262736 -0.3271928 0.066710465 -0.26926798
0.18653451 0.17558926 0.21111077 -0.067217305 -0.21879725 0.17164506 0.25304946 0.112345174
-0.2810385 0.3209431 0.14691894 -0.17957015 -0.038103387 0.22921324 0.10719761 -0.0021772084
0.20337246 0.09586557 0.088427514 0.069686 0.076398075 -0.19715598 0.2753438 -0.24882124
-0.2820186 -0.30739993 0.219184 -0.103266954 -0.0132693 0.09620296 0.31142154 -0.1538569
-0.3317146 0.27065945 -0.06849778 -0.1430931 0.2641586 0.16115177 0.041179936 0.061514158
-0.028064908 -0.35877252 0.27472568 -0.14373162 -0.14042899 -0.10189824 0.16622978 -0.058933236
-0.27514812 -0.2828566 0.24355486 0.31191108 -0.10656591 0.26883516 0.23138921 0.2631898
-0.20823789 -0.0050385417 0.08983382 -0.16396567 0.34906074 0.10662609 0.21482658 0.08980577
0.26773646 -0.14520867 -0.16080126 -0.025569307 0.12965441 0.024179658 -0.3190312 0.043735377
-0.25898874 0.12303179 0.17330341 0.027719054 -0.09326399 0.33890873 0.01721523 0.21695203
0.21009345 -0.23142157 -0.14949109 0.026220033 0.001940664 0.10703219 0.06758122 0.30590817
0.19570367 -0.35622197 -0.23213604 0.04055068 -0.19486472 -0.22159827 0.33177137 0.104582414
0.1976921 -0.27898008 0.049434446 0.2315432 -0.1489738 0.042850386 -0.2768302 0.26259324
0.25412002 0.043327816 0.15975021 0.20595887 0.1435801 -0.15973607 0.16435874 -0.13333002
-0.21567996 -0.310994 0.30294308 0.20063077 -0.118602544 0.08997576 -0.1100487 0.1709057
-0.38729534 -0.016377328 0.008363771 0.025009936 -0.05359922 0.068726175 -0.14815727 -0.32663736
-0.08330173 -0.158165 -0.22953722 0.13731666 0.1422087 0.05275056 0.24590555 0.009152882
0.0037711065 -0.27148497 -0.28279248 0.004696995 -0.3440028 -0.11727636 -0.23452918 0.2922369
-0.003963211 0.0065466007 -0.22213495 -0.13616563 -0.12956895 0.27232805 -0.16827877 -0.011792387
0.21657658 -0.26765832 -0.2718978 0.0629324 -0.11861731 -0.16070865 -0.19826734 -0.3201111
00000000: f14c a9be acd8 45bd 34f6 033e 94e6 1d3e
00000010: 7338 1ebd cba9 8a3e dbf9 c9be 029f 603d
00000020: 7d10 4c3e 4ccc 32bc af2f 97be fd69 8fbe
00000030: 2e25 03be 51a7 92bd 4f7f e9bd be7b 3ebe
00000040: 5357 a3bc 37fe 8c3e 4280 8e3e 4c8b 9cbe
00000050: ff87 7dbe 620e 5fbe eae6 553e 7ab0 833e
00000060: d1c9 453e 82ee b53d 1803 a53e 4afc 613e
00000070: e712 103e 06e9 9cbd 5d1f 383e 94ab 973c
00000080: f3eb adba c8ff 8bbe d3dc a13b 8d13 a0be
00000090: 3f82 7fbe 48ec 743e 4c39 59be d9a4 ecbd
000000a0: 4929 313e da34 36be 9794 443e e9d9 c53e
000000b0: cebb 35be 72fb 0cbe f10e 80be 3986 483e
000000c0: cf2c 50be ea0b f23d 9832 36be 144e 323e
000000d0: e686 f63d 5efa 2b3e edc7 01be f285 f73d
000000e0: d59b 933e a886 3ebc 2805 f0bd 6f01 003b
000000f0: 661f 27be 5516 6e3e a43a a1be f5e3 513d
00000100: 1e90 523e bb22 af3e b0d2 26be 59bb 5d3d
00000110: c64b 963e 9134 8fbd bcdb d7bc 3dcd b7be
00000120: 42c7 b93c ecd4 96bd 013e 3e3e a158 34be
00000130: 845a 7dbe 5eba 7e3e c2f4 4b3e 214a 21be
00000140: 6ca0 44be fcc9 cf3c fdfb c03c 1313 c0bd
00000150: ef80 133e ae9b 90be b62c c73d ffcb 1f3e
00000160: 3639 013e 5661 a5be 4285 c43d a7c4 4cbe
00000170: 8938 a9bd d185 a7be 7f9f 883d 7edd 89be
00000180: e702 3f3e accd 333e 6c2d 583e 3aa9 89bd
00000190: 630c 60be b9c3 2f3e b38f 813e 3a15 e63d
000001a0: 47e4 8fbe a752 a43e eb71 163e 3de1 37be
000001b0: 4c12 1cbd e0b6 6a3e 6c8a db3d 7faf 0ebb
000001c0: df40 503e 2b55 c43d 7c19 b53d 89b7 8e3d
000001d0: 9876 9c3d 42e3 49be ddf9 8c3e ffca 7ebe
000001e0: be64 90be 8663 9dbe c571 603e a07d d3bd
000001f0: 7a67 59bc 0f06 c53d a572 9f3e aa8c 1dbe
00000200: 7fd6 a9be e093 8a3e 9048 8cbd ff86 12be
00000210: cc3f 873e f804 253e 4bac 283d 45f6 7b3d
00000220: 61e8 e5bc 08b1 b7be d8a8 8c3e 622e 13be
00000230: 9ecc 0fbe 06b0 d0bd 2438 2a3e fa63 71bd
00000240: 37e0 8cbe 95d2 90be 7266 793e cfb2 9f3e
00000250: 3a3f dabd c3a4 893e 4bf1 6c3e d0c0 863e
00000260: 503c 55be 5a1a a5bb cbfa b73d 9ee6 27be
00000270: 17b8 b23e c85e da3d 80fb 5b3e 16ec b73d
00000280: c114 893e 95b1 14be 16a9 24be b976 d1bc
00000290: 20c4 043e 6b14 c63c 0f58 a3be de23 333d
000002a0: 2c9a 84be 17f8 fb3d 7376 313e 1213 e33c
000002b0: 3101 bfbd 7285 ad3e f406 8d3c ac28 5e3e
000002c0: bd22 573e c7f9 6cbe 3114 19be 65cb d63c
000002d0: e15d fe3a b133 db3d 0668 8a3d ff9f 9c3e
000002e0: 8b66 483e ba62 b6be 12b5 6dbe 7818 263d
000002f0: 9e8a 47be a8ea 62be f0dd a93e 4e2f d63d
00000300: cc6f 4a3e 7ad6 8ebe c67b 4a3d a919 6d3e
00000310: 968c 18be e383 2f3d b0bc 8dbe 9f72 863e
00000320: 051c 823e 8278 313d 8f95 233e e2e6 523e
00000330: a906 133e da91 23be a84d 283e aa87 08be
00000340: 35db 5cbe 9b3a 9fbe 5b1b 9b3e 2772 4d3e
00000350: e4e5 f2bd 3645 b83d 3661 e1bd e701 2f3e
00000360: 934b c6be bf29 86bc 3308 093c a3e1 cc3c
00000370: db8a 5bbd 4fc0 8c3d 8ab6 17be 033d a7be
00000380: 199a aabd 01f6 21be ce0b 6bbe bd9c 0c3e
00000390: 289f 113e f910 583d aace 7b3e f8f5 153c
000003a0: ab24 773b 1400 8bbe 2dca 90be 40e9 993b
000003b0: 2321 b0be 972e f0bd 6b28 70be 13a0 953e
000003c0: d3dd 81bb de84 d63b 5877 63be 016f 0bbe
000003d0: b9ad 04be 956e 8b3e 4551 2cbe db34 41bc
000003e0: 40c6 5d3e 830a 89be 3036 8bbe b4e2 803d
000003f0: a2ed f2bd cf90 24be 9806 4bbe 9ae5 a3be

feature_exact.m_encoder.layers.0.bias f4 [64]
-0.124541245 0.19304466 -0.32900202 0.011514016 -0.24496254 -0.26325595 0.3265635 -0.16059835
-0.29443547 0.13051009 0.027401406 -0.26460728 0.122886285 -0.27362105 -0.2744858 0.016529134
0.05853526 -0.20423041 0.17272411 0.14317197 -0.28051698 0.21272177 -0.17742218 0.2546521
-0.0948413 0.05918739 0.0024563323 0.32705238 0.25317854 0.14170615 0.058084816 0.1713092
0.013783521 -0.014758612 -0.08697594 -0.13140151 -0.22314991 -0.30083072 0.13840778 -0.20672621
0.10010369 -0.328534 -0.15170632 -0.28913563 -0.3078453 0.09977122 -0.25275788 -0.32027432
0.17097043 0.05094497 -0.031762484 0.144993 0.12245158 0.096847944 -0.11893592 0.30952793
-0.32850665 -0.021969464 -0.2401113 0.14651176 -0.19660546 0.20235623 -0.023458857 0.27270582
00000000: 7b0f ffbd 80ad 453e f472 a8be 49a5 3c3c
00000010: 76d7 7abe 7cc9 86be 5533 a73e e573 24be
00000020: 3fc0 96be 70a4 053e ea78 e03c 9b7a 87be
00000030: ceab fb3d 0f18 8cbe 6789 8cbe 1b68 873c
00000040: abc2 6f3d c721 51be 97de 303e ac9b 123e
00000050: ec9f 8fbe bcd3 593e 29ae 35be c361 823e
00000060: 283c c2bd 7a6e 723d 6bfa 203b 6973 a73e
00000070: 9ea0 813e 6b1b 113e 58ea 6d3d ae6b 2f3e
00000080: 47d4 613c 1bce 71bc 7120 b2bd 1e8e 06be
00000090: 6981 64be 7c06 9abe c5ba 0d3e 09b0 53be
000000a0: 2a03 cd3d 9c35 a8be e758 1bbe 9609 94be
000000b0: e69d 9dbe da54 cc3d 7b69 81be fffa a3be
000000c0: df12 2f3e acab 503d 6119 02bd 0c79 143e
000000d0: e5c7 fa3d 3758 c63d ad94 f3bd 727a 9e3e
000000e0: 0632 a8be 4ef9 b3bc bddf 75be 2e07 163e
000000f0: f152 49be 7936 4f3e ca2c c0bc 19a0 8b3e

feature_exact.m_encoder.layers.1.weight f4 [64, 64]
0.026958566 -0.02499119 -0.10911746 0.026469843 -0.031308867 0.19472463 0.025940647 -0.13375197
0.027510302 0.01281064 -0.021838153 0.117688544 0.011409234 -0.0057879775 -0.058211297 -0.03411026
0.049495332 0.07366397 -0.015091942 0.070523724 0.01486902 -0.035324242 0.0067919362 -0.08422866
0.22291754 -0.0075542694 0.014715414 0.005122172 0.0117483 0.086189084 0.10684322 -0.044014707
-0.06506002 -0.063526064 0.13887471 -0.05983351 -0.15540347 -0.0011676128 -0.062045895 0.033274163
0.065982156 0.04428701 -0.09024047 0.10831902 -0.044502627 -0.092697315 -0.13045192 -0.15817624
0.09041573 -0.0009158073 0.0510094 0.0061506163 -0.070946105 -0.106637344 -0.14799793 0.038211092
-0.05738554 -0.0034228284 0.10019025 0.0856108 0.038226545 -0.11459332 -0.16804346 0.101179294
-0.0010739145 0.09093987 -0.0626284 0.12174543 -0.07110427 -0.03643946 0.027291808 -0.124857605
0.12516126 0.043561377 0.00810011 -0.084006906 0.06882929 0.06666351 -0.0020631151 0.035514425
0.001906113 0.01619534 0.040823728 0.018934088 0.089498766 0.05214043 -0.12846498 -0.07173722
0.19316985 -0.016715636 0.058296595 0.10628034 0.047784794 0.13102365 -0.08437579 0.11559751
0.056203116 0.1557579 -0.0583284 -0.039365638 -0.07519857 -0.009654407 -0.10418213 -0.0032261421
-0.09079793 -0.000593881 -0.029441448 -0.05323127 -0.0071468847 -0.103055544 -0.09612915 -0.012872243
0.09963189 -0.0034423466 -0.010897246 -0.04254876 0.11446134 0.084800035 0.123985514 -0.052745048
-0.046053182 -0.007821366 -0.045165524 -0.08706493 0.009265693 -0.07353124 0.03533095 0.08956006
-0.22236535 -0.02360336 -0.09341278 -0.029541666 0.03540177 -0.030935448 -0.02082069 -0.007592232
0.041710254 -0.095401034 -0.07248122 -0.05279103 0.042732377 0.11650558 -0.11917896 0.029156417
-0.06828986 0.037151493 0.10528696 -0.10915412 0.051950186 -0.09359037 -0.08101607 -0.05367765
-0.18571076 -0.02465825 -0.08875893 -0.035955783 -0.042472888 0.046215728 0.05093049 -0.1002746
0.03293776 0.06430985 -0.073787436 0.09234034 -0.12219788 0.0842007 0.007259518 0.1067963
-0.1445569 -0.044017397 0.067978986 0.06686214 -0.13244992 -0.13554716 0.12754144 -0.05746118
0.030708473 0.04997751 0.1733895 0.08494745 0.10284083 -0.06907905 -0.0661476 -0.11180315
0.120076805 0.118247695 -0.06781407 0.122627094 0.0042777755 -0.00917936 0.10090344 -0.048207637
-0.13938661 0.028962033 -0.004703476 -0.02858947 -0.021908 0.12623352 -0.09288881 0.051053166
0.10075463 0.08109193 -0.012674853 -0.12205363 -0.065992974 -0.030805524 -0.08935462 0.06830226
0.11498773 0.11545655 -0.007892351 -0.054148167 0.10932139 -0.093119375 -0.07661643 -0.01793356
-0.11034658 -0.06456146 0.10257218 0.07659794 0.042750113 -0.02378454 -0.004360119 0.096778855
-0.122155026 -0.07734409 0.036714047 0.099317744 0.09877445 -0.11794636 -0.10209882 -0.0009771751
0.09905678 -0.022183126 -0.12516306 0.07646758 0.06448614 0.09785359 -0.017426861 0.064634345
0.07947218 0.023876252 -0.030634573 0.08817376 -0.11293803 0.066218436 -0.02839245 0.024349984
0.058359917 0.11919536 0.0385562 0.021188745 0.08793712 0.104792506 0.07910074 -0.082219124
00000000: 36d8 dc3c 53ba ccbc fa78 dfbd 49d7 d83c
00000010: ba3d 00bd e565 473e 7b81 d43c 47f6 08be
00000020: 495d e13c b8e3 513c ede5 b2bc b106 f13d
00000030: cced 3a3c 13a9 bdbb f86e 6ebd 33b7 0bbd
00000040: 9ebb 4a3d 23dd 963d 3144 77bc be6e 903d
00000050: 319d 733c 27b0 10bd e48e de3b 1380 acbd
00000060: 7f44 643e ce89 f7bb eb18 713c e5d7 a73b
00000070: f17b 403c e783 b03d 9ed0 da3d c448 34bd
00000080: 303e 85bd f419 82bd 2c35 0e3e fc13 75bd
00000090: 1622 1fbe 960a 99ba d623 7ebd 7d4a 083d
000000a0: a721 873d 4c66 353d ffcf b8bd 5dd6 dd3d
000000b0: 6348 36bd 17d8 bdbd 3095 05be f4f8 21be
000000c0: e22b b93d ca12 70ba 3cef 503d 1c8b c93b
000000d0: 314c 91bd ae64 dabd c58c 17be 3c83 1c3d
000000e0: 1a0d 6bbd 8851 60bb 8c30 cd3d b754 af3d
000000f0: 7093 1c3d e7af eabd 9613 2cbe 1737 cf3d
00000100: 97c2 8cba af3e ba3d 5243 80bd ab55 f93d
00000110: 1e9f 91bd 8b41 15bd 1293 df3c 58b5 ffbd
00000120: 462a 003e 6a6d 323d 53b6 043c d00b acbd
00000130: 5ff6 8c3d e186 883d 5435 07bb 9377 113d
00000140: 8ad6 f93a 17ac 843c c836 273d a91b 9b3c
00000150: 214b b73d 3491 553d 538c 03be f7ea 92bd
00000160: 51ce 453e 3bef 88bc 69c8 6e3d 82a9 d93d
00000170: fdb9 433d 102b 063e 37cd acbd 63be ec3d
00000180: 3d35 663d 007f 1f3e c3e9 6ebd dd3d 21bd
00000190: b501 9abd 852d 1ebc 715d d5bd af6d 53bb
000001a0: 44f4 b9bd aeae 1bba 312f f1bc 0809 5abd
000001b0: 6a30 eabb c90e d3bd 5cdf c4bd 1ae6 52bc
000001c0: ce0b cc3d fe98 61bb 5d8a 32bc 9c47 2ebd
000001d0: b56a ea3d a4ab ad3d 1eec fd3d 310b 58bd
000001e0: 43a2 3cbd 3025 00bc 7cff 38bd 194f b2bd
000001f0: 22cf 173c 8c97 96bd 30b7 103d 446b b73d
00000200: beb3 63be d55b c1bc 334f bfbd 5d01 f2bc
00000210: 7201 113d 566c fdbc 2790 aabc 42c8 f8bb
00000220: 5fd8 2a3d 9e61 c3bd 0971 94bd 683b 58bd
00000230: 2508 2f3d 7a9a ee3d 1914 f4bd 70d9 ee3c
00000240: 8edb 8bbd 2a2c 183d b1a0 d73d 328c dfbd
00000250: b8c9 543d 4fac bfbd c1eb a5bd 18dd 5bbd
00000260: f62a 3ebe 1900 cabc 3ec7 b5bd 5f46 13bd
00000270: 0df8 2dbd b44c 3d3d 7d9c 503d c55c cdbd
00000280: bfe9 063d e2b4 833d de1d 97bd ef1c bd3d
00000290: e242 fabd 6b71 ac3d 40e1 ed3b 05b8 da3d
000002a0: b906 14be 964b 34bd 9138 8b3d 05ef 883d
000002b0: f4a0 07be e0cc 0abe 399a 023e 6a5c 6bbd
000002c0: 5690 fb3c 38b5 4c3d 048d 313e eef8 ad3d
000002d0: 379e d23d 5179 8dbd 6578 87bd 0df9 e4bd
000002e0: d4ea f53d d92b f23d 1ae2 8abd ea23 fb3d
000002f0: 952c 8c3b 0765 16bc 76a6 ce3d 5f75 45bd
00000300: 5dbb 0ebe c941 ed3c 9e1f 9abb 7734 eabc
00000310: 6878 b3bc 5c43 013e 7d3c bebd 201d 513d
00000320: 7258 ce3d 8713 a63d 30aa 4fbc 41f7 f9bd
00000330: 5327 87bd de5b fcbc 8eff b6bd 0ee2 8b3d
00000340: b07e eb3d 7c74 ec3d eb4e 01bc 78ca 5dbd
00000350: e5e3 df3d 5fb5 bebd 13e9 9cbd 67e9 92bc
00000360: 63fd e1bd cc38 84bd 5d11 d23d 61df 9c3d
00000370: be1a 2f3d ccd7 c2bc 54df 8ebb fe33 c63d
00000380: 6a2c fabd 9466 9ebd 7861 163d 1a67 cb3d
00000390: 424a ca3d dc8d f1bd 3019 d1bd 8e14 80ba
000003a0: 48de ca3d 63b9 b5bc bf2a 00be 099b 9c3d
000003b0: 4f11 843d 7767 c83d c7c2 8ebc 035f 843d
000003c0: 4fc2 a23d 2198 c33c 5bf5 fabc 7294 b43d
000003d0: 0e4c e7bd 889d 873d 4997 e8bc 9e79 c73c
000003e0: cf0a 6f3d b21c f43d 1bed 1d3d 0594 ad3c
000003f0: 6018 b43d 749d d63d 92ff a13d 8062 a8bd

feature_exact.m_encoder.layers.1.bias f4 [64]
0.027749171 0.019389894 -0.09377524 -0.06288043 -0.034925707 -0.05370379 0.02141436 0.094093084
-0.02212153 0.05756765 -0.03827898 0.055818655 -0.026371269 -0.006940108 -0.009722291 -0.12326604
-0.030428547 -0.109732285 -0.12414392 0.011373818 0.0711635 -0.065638274 -0.008214762 0.007971152
-0.064480424 0.014005735 -0.09016713 0.043697227 -0.011136043 -0.029240865 -0.025537329 0.09010504
-0.12114994 0.06262573 0.08200701 0.07897136 -0.013440749 -0.10473237 -0.008337149 -0.0049281274
-0.100906126 0.12178083 -0.051702466 -0.07482137 0.016227324 -0.049159504 -0.11769152 -0.104839675
0.04706958 -0.10135365 0.041624427 0.0016826622 0.12969701 -0.060690943 0.044655684 -0.036398064
-0.120056845 -0.058627892 0.046920095 0.051854227 0.089850865 -0.0049424735 -0.02757697 -0.06477326
00000000: 3b52 e33c 8ed7 9e3c 3c0d c0bd 74c7 80bd
00000010: 420e 0fbd 81f8 5bbd 2b6d af3c e0b3 c03d
00000020: 3638 b5bc 0ecc 6b3d 6bca 1cbd 1aa2 643d
00000030: 8f08 d8bc d869 e3bb 3e4a 1fbc e872 fcbd
00000040: 4a45 f9bc 52bb e0bd 2b3f febd 4059 3a3c
00000050: 2bbe 913d 5c6d 86bd 3697 06bc 6f99 023c
00000060: 500e 84bd 4f78 653c 8ba9 b8bd ddfb 323d
00000070: f373 36bc 8a8a efbc a933 d1bc fe88 b83d
00000080: 761d f8bd eb41 803d 4bf3 a73d bdbb a13d
00000090: 9636 5cbc ed7d d6bd 8a98 08bc 217c a1bb
000000a0: dfa7 cebd 3a68 f93d f7c5 53bd f23b 99bd
000000b0: 2aef 843c 7a5b 49bd 4008 f1bd 2fb6 d6bd
000000c0: 08cc 403d 8192 cfbd 607e 2a3d c68c dc3a
000000d0: 4bcf 043e 1197 78bd e1e8 363d 2316 15bd
000000e0: 5de0 f5bd cd23 70bd 492f 403d 1965 543d
000000f0: bb03 b83d 79f4 a1bb 19e9 e1bc d8a7 84bd

feature_exact.m_encoder.layers.2.weight f4 [64, 64]
0.07575301 0.08699346 -0.12141809 0.082047924 0.08733519 -0.14636196 -0.043391116 -0.09565656
0.10520648 0.0043394724 -0.08657095 0.024610322 0.08779958 -0.01753855 0.024162339 -0.03528702
-0.15182415 -0.02253538 -0.03721427 0.020209197 0.09215638 0.07662671 -0.052627996 0.11242827
-0.020362388 0.07883272 0.04125248 0.020413263 -0.026768347 0.011040969 0.018888554 -0.115108244
-0.031605568 -0.0010234028 -0.100544035 -0.00392171 -0.05707682 -0.052821014 0.003977636 0.08190649
-0.1330986 -0.07876055 -0.007779155 -0.10625748 -0.058370873 -0.03143367 -0.08870546 0.029509228
0.084185414 0.005889175 0.07226338 -0.06774285 -0.10025502 0.117259115 0.02378901 0.098664664
0.0010557332 -0.104181215 0.08545275 0.05621491 0.062238276 -0.044748027 0.024733571 -0.10901531
0.092838034 0.114799246 0.08955903 -0.07079248 0.079877876 0.059853908 0.045958295 0.067055516
-0.004270207 0.091232084 -0.12656774 -0.08452755 0.052175365 -0.031464837 0.064080946 0.004102905
0.18276028 0.120550565 -0.078495 0.08661812 -0.06943192 0.046143904 -0.113832496 -0.053409632
-0.108772494 -0.029407354 0.08213856 0.033375613 0.13971128 0.10939683 0.12990811 -0.124553576
0.023610312 0.016001115 0.06992376 -0.0869552 -0.04800897 -0.054227937 0.08755549 -0.077053346
-0.06238976 0.08696362 -0.026877318 -0.07191869 -0.024964934 -0.092911735 -0.094617434 0.05132714
-0.024898497 0.024532078 0.15260965 -0.11755687 0.12134755 -0.050649345 0.0033106674 -0.08882479
0.03424023 0.051483672 0.035979267 -0.10971753 -0.0035241335 -0.09270948 0.0877727 0.04144945
0.09006742 0.06349457 0.010541649 0.10875484 0.10606531 0.079150155 0.082761735 0.051609572
0.032001384 0.019449513 -0.11674362 0.05865294 0.1278221 -0.11561519 -0.13003397 0.15751058
-0.057227567 -0.11737769 -0.024259334 0.10777976 -0.013308396 0.024853649 0.027619656 0.0969721
0.114333734 -0.11103208 0.04735855 0.050389383 -0.11161788 -0.15429737 -0.02537738 0.16219664
-0.066577464 0.08291958 0.029203922 0.12967946 0.08063024 -0.12559766 -0.0707306 0.06907922
0.059344895 -0.06883174 -0.023541987 -0.05040164 -0.052307293 0.010250501 0.026485449 0.101643145
0.044711083 -0.1755472 -0.0058727916 -0.101600595 -0.091265075 0.04572351 0.100956425 0.104498684
0.13332863 0.044200838 0.07723854 -0.04550198 -0.09205671 0.035136875 -0.08316816 -0.040731367
-0.0898083 -0.03349451 -0.067850195 0.09214148 -0.09767016 0.020366315 -0.15263285 -0.07528568
0.039095763 0.011158261 0.12343763 -0.035027258 0.07446094 -0.0074553606 -0.11640492 -0.11941072
-0.04997914 0.050340325 -0.05301579 -0.060282633 -0.07566126 0.004221487 -0.100082956 -0.079000376
0.07155645 -0.02282178 -0.021235222 -0.060615834 -0.14339943 0.078063436 0.13616006 -0.049373653
0.020893188 0.0458494 -0.05416157 -0.007230072 0.036873315 -0.07698083 0.009091064 -0.048234474
0.0488834 0.050292503 -0.12012926 0.060543608 -0.05861541 -0.10308961 -0.013967 0.07535158
-0.12048641 0.10649085 0.10108163 -0.03870226 0.04284867 0.108641975 0.01350282 -0.063188754
0.08850332 0.03239412 0.045935977 -0.082086526 0.01822626 0.042926263 -0.09275562 0.03008956
00000000: 6524 9b3d a129 b23d 0caa f8bd be08 a83d
00000010: cbdc b23d e9df 15be e2ba 31bd 96e7 c3bd
00000020: 7f76 d73d 2232 8e3b 1c4c b1bd 969b c93c
00000030: 44d0 b33d 01ad 8fbc 19f0 c53c 1f89 10bd
00000040: ca77 1bbe 1e9c b8bc fe6d 18bd c28d a53c
00000050: 7cbc bc3d 77ee 9c3d 7490 57bd cb40 e63d
00000060: 06cf a6bc 0d73 a13d 5cf8 283d b739 a73c
00000070: 4b49 dbbc 2ee5 343c 2bbc 9a3c dfbd ebbd
00000080: d774 01bd b323 86ba 08ea cdbd b081 80bb
00000090: 62c9 69bd d95a 58bd d456 823b 97be a73d
000000a0: 004b 08be 364d a1bd 48e8 febb 869d d9bd
000000b0: 4c16 6fbd 98c0 00bd 35ab b5bd 56bd f13c
000000c0: 6769 ac3d fbf9 c03b d3fe 933d c3bc 8abd
000000d0: 8152 cdbd 8c25 f03d 2be1 c23c b310 ca3d
000000e0: 8760 8a3a f65c d5bd da01 af3d 9b41 663d
000000f0: 90ed 7e3d b549 37bd 0f9e ca3c 6b43 dfbd
00000100: de21 be3d de1b eb3d ba6a b73d a6fb 90bd
00000110: 0397 a33d 5f29 753d c43e 3c3d 6754 893d
00000120: 18ed 8bbb e3d7 ba3d f99a 01be c81c adbd
00000130: d6b5 553d 46e1 00bd df3c 833d a971 863b
00000140: 8325 3b3e 37e3 f63d fdc1 a0bd d764 b13d
00000150: 5332 8ebd 6401 3d3d 0321 e9bd 0fc4 5abd
00000160: 1dc4 debd b1e7 f0bc 4338 a83d deb4 083d
00000170: 7910 0f3e 720b e03d a206 053e f215 ffbd
00000180: 6a6a c13c c514 833c 3034 8f3d 9115 b2bd
00000190: 0ea5 44bd 1d1e 5ebd 4b50 b33d 25ce 9dbd
000001a0: 688c 7fbd fb19 b23d d22d dcbc 1b4a 93bd
000001b0: 4383 ccbc 8248 bebd c9c6 c1bd 683c 523d
000001c0: eff7 cbbc 7ff7 c83c b445 1c3e a8c1 f0bd
000001d0: 1085 f83d b075 4fbd c8f7 583b c6e9 b5bd
000001e0: 7c3f 0c3d 8be0 523d ff5e 133d 96b3 e0bd
000001f0: 26f5 66bb 78de bdbd 2cc2 b33d e6c6 293d
00000200: 4475 b83d 7109 823d e1b6 2c3c dcba de3d
00000210: c538 d93d 7a19 a23d fc7e a93d 8f64 533d
00000220: e213 033d 9654 9f3c 4717 efbd 113e 703d
00000230: cce3 023e a8c7 ecbd a027 05be 744a 213e
00000240: 7467 6abd b763 f0bd 83bb c6bc a3bb dc3d
00000250: 750b 5abc e199 cb3c 9e42 e23c 4f99 c63d
00000260: ce27 ea3d ca64 e3bd 0afb 413d 1965 4e3d
00000270: ea97 e4bd 2100 1ebe 39e4 cfbc e016 263e
00000280: c459 88bd bed1 a93d 103d ef3c b1ca 043e
00000290: 7821 a53d ac9c 00be 34db 90bd 6879 8d3d
000002a0: a213 733d a8f7 8cbd 20db c0bc f371 4ebd
000002b0: 2c40 56bd b8f1 273c 03f8 d83c 482a d03d
000002c0: f822 373d a5c2 33be 8c70 c0bb f913 d0bd
000002d0: 2fe9 babd 9348 3b3d 3ec2 ce3d 6803 d63d
000002e0: 4d87 083e f00b 353d 3d2f 9e3d 4960 3abd
000002f0: 3a88 bcbd afeb 0f3d 1154 aabd efd5 26bd
00000300: 6aed b7bd 8a31 09bd 0bf5 8abd acb4 bc3d
00000310: 4b07 c8bd 42d7 a63c c94b 1cbe 612f 9abd
00000320: e122 203d 24d1 363c decc fc3d be78 0fbd
00000330: fa7e 983d 194c f4bb b465 eebd 9c8d f4bd
00000340: edb6 4cbd a831 4e3d 1627 59bd ecea 76bd
00000350: 4af4 9abd 6654 8a3b 4bf8 ccbd f3ca a1bd
00000360: 308c 923d bef4 babc 7df5 adbc 4f48 78bd
00000370: 4dd7 12be b9df 9f3d 8b6d 0b3e 073c 4abd
00000380: 3128 ab3c 95cc 3b3d 86d8 5dbd 3dea ecbb
00000390: 7908 173d 20a8 9dbd b0f2 143c 8391 45bd
000003a0: f639 483d 83ff 4d3d 5406 f6bd 93fc 773d
000003b0: b616 70bd a520 d3bd d8d5 64bc ee51 9a3d
000003c0: 94c1 f6bd e017 da3d e303 cf3d 4386 1ebd
000003d0: 1682 2f3d af7f de3d ef3a 5d3c 1b69 81bd
000003e0: 3b41 b53d b2af 043d 5d27 3c3d fb1c a8bd
000003f0: 3d4f 953c 73d3 2f3d a9f6 bdbd 627e f63c

feature_exact.m_encoder.layers.2.bias f4 [64]
-0.027915005 -0.025831765 -0.025654055 0.0011881198 -0.06459175 0.09575935 0.10428673 -0.030196723
-0.062078044 0.05468357 0.08273523 0.015214689 -0.07055269 0.08908744 0.02512614 -0.040579256
0.0033442245 0.017245699 0.0658597 0.084639825 -0.030167507 -0.022826614 0.043383393 0.0975571
-0.033445887 0.11945149 -0.06472205 0.035934426 -0.08376596 0.011289331 -0.047939233 0.04490451
-0.090113126 -0.09287922 0.057075106 0.09335585 0.11267824 -0.051956475 0.0684313 0.10533518
0.06967496 -0.10832845 0.015052065 0.023659302 -0.08296274 0.019252857 -0.025686802 0.07796902
-0.042655464 0.08326251 0.034733705 -0.007564672 -0.03283736 0.10311414 0.11598576 0.05001722
0.054105394 0.08700344 -0.08826493 0.053525332 0.010573497 0.08031858 -0.04388573 -0.04253519
00000000: 02ae e4bc 239d d3bc 7428 d2bc afba 9b3a
00000010: ae48 84bd 7a1d c43d 4894 d53d 1e5f f7bc
00000020: 8c45 7ebd e1fb 5f3d 1771 a93d 0847 793c
00000030: ee7d 90bd 7a73 b63d 56d5 cd3c 6f36 26bd
00000040: c72a 5b3b da46 8d3c 73e1 863d a557 ad3d
00000050: d921 f7bc e1fe babc c9b2 313d 04cc c73d
00000060: 8efe 08bd fca2 f43d ff8c 84bd fa2f 133d
00000070: 7d8d abbd e3f6 383c ee5b 44bd cbed 373d
00000080: 3b8d b8bd 7637 bebd 96c7 693d 5a31 bf3d
00000090: d9c3 e63d 50d0 54bd b625 8c3d f9b9 d73d
000000a0: bfb1 8e3d 4edb ddbd f09c 763c 27d1 c13c
000000b0: 5ee8 a9bd 2bb8 9d3c 216d d2bc 39ae 9f3d
000000c0: 7fb7 2ebd 8985 aa3d ee44 0e3d 11e1 f7bb
000000d0: 7880 06bd 822d d33d f189 ed3d dbde 4c3d
000000e0: 9e9d 5d3d dc2e b23d 3ec4 b4bd 613d 5b3d
000000f0: 763c 2d3c 117e a43d 86c1 33bd 6139 2ebd

feature_exact.j_ln.weight f4 [64]
0.9928256 1.0410616 1.0905337 1.0924451 0.9979565 0.94458294 0.9967947 0.9697854
1.0427595 1.0464004 1.0735213 1.0077533 1.0062075 1.0525845 0.9868895 0.9944497
0.95963573 1.0141587 0.99742043 1.0287918 1.006041 1.0454584 1.0513569 0.997852
0.99020934 1.017262 0.9992376 1.0190308 1.0073637 1.0377691 1.0426784 1.1324022
0.9949833 1.0420955 0.99678165 0.99045783 0.98828495 1.0235078 1.0036457 1.0277419
1.0323094 1.0053947 1.0076399 0.97739327 1.1333106 1.0101677 1.0147285 1.1367645
1.0168188 1.0594294 0.9928497 1.166463 1.0026383 1.0058545 1.0445955 1.0305886
1.0209801 1.0791299 1.036818 1.0108473 1.0140288 1.0401928 1.0511736 0.9655421
00000000: d229 7e3f 8241 853f 9c96 8b3f 3ed5 8b3f
00000010: 147a 7f3f 30d0 713f f02d 7f3f db43 783f
00000020: 2579 853f 73f0 853f 2569 893f 0ffe 803f
00000030: 68cb 803f 17bb 863f caa4 7c3f 4194 7e3f
00000040: b0aa 753f f4cf 813f f256 7f3f 73af 833f
00000050: f4c5 803f 95d1 853f dd92 863f 3b73 7f3f
00000060: 5c7e 7d3f a435 823f 09ce 7f3f 9a6f 823f
00000070: 4bf1 803f 9ed5 843f 7c76 853f 8ef2 903f
00000080: 3ab7 7e3f 6363 853f 152d 7f3f a58e 7d3f
00000090: 3e00 7d3f 4e02 833f 7677 803f 0c8d 833f
000000a0: b722 843f c6b0 803f 58fa 803f 7236 7a3f
000000b0: 5210 913f 2d4d 813f a0e2 813f 8081 913f
000000c0: 1e27 823f 629b 873f 662b 7e3f a94e 953f
000000d0: 7456 803f d7bf 803f 4eb5 853f 54ea 833f
000000e0: 7aaf 823f ee20 8a3f 74b6 843f 7263 813f
000000f0: b2cb 813f 0a25 853f db8c 863f c42d 773f

feature_exact.j_ln.bias f4 [64]
-0.03974941 -0.0011777721 0.009718029 -0.00877867 0.0369698 0.06563495 -0.022677274 0.031047873
-0.010313097 0.001087419 -0.00559535 -0.017378846 -0.010286733 0.0026996327 0.020517353 -0.00081692624
0.024916524 -0.012986062 -0.019059844 -0.001462134 -0.015702901 -0.012970859 -0.010611996 0.0052026296
-0.004234674 0.012804191 0.018558992 -0.016876243 -0.0008843987 0.0031848575 -0.0016401013 -0.005154022
-0.009332057 -0.007102672 -0.024925224 0.021876875 -0.019013353 -0.010425839 0.04443688 0.014005176
0.007404831 0.0022118555 -0.003846063 -0.043152012 0.008377575 -0.0036505018 0.0008467325 0.00623786
-0.010712955 0.0068592937 0.007387425 0.007883328 -0.015503396 0.000110836874 -0.002497208 0.010734184
0.013993547 -0.0016668648 0.0046164505 -0.002428826 0.028938109 0.01972849 -0.001680851 -0.039481297
00000000: 47d0 22bd 795f 9aba 5e38 1f3c 69d4 0fbc
00000010: a56d 173d 9e6b 863d b1c5 b9bc 1c58 fe3c
00000020: 44f8 28bc ba87 8e3a 3359 b7bb 155e 8ebc
00000030: af89 28bc 52ec 303b 0214 a83c fe26 56ba
00000040: bd1d cc3c 7ec3 54bc 6423 9cbc 13a5 bfba
00000050: 5fa3 80bc ba83 54bc f0dd 2dbc d27a aa3b
00000060: 05c3 8abb abc8 513c 0709 983c 0c40 8abc
00000070: fed6 67ba 0bb9 503b abf8 d6ba 12e3 a8bb
00000080: 7ce5 18bc 88bd e8bb fc2f ccbc 2237 b33c
00000090: e4c1 9bbc 23d1 2abc 7203 363d f775 653c
000000a0: 39a4 f23b c7f4 103b 3b0e 7cbb 2ac0 30bd
000000b0: 1942 093c 423d 6fbb 42f7 5d3a f666 cc3b
000000c0: 6485 2fbc edc3 e03b 3612 f23b 1329 013c
000000d0: f501 7ebc 1871 e838 33a8 23bb 6ede 2f3c
000000e0: 3145 653c b47a daba 9845 973b f02c 1fbb
000000f0: 9d0f ed3c a49d a13c 0050 dcba 24b7 21bd
