trained_network/SD2/same2-4.pth (torch, 60623 bytes, 26 tensors)

feature_exact.j_encoder.linears.0.weight f4 [8, 14]
000000 aa c9 75 bd 10 5d 4b bd 84 f5 18 bd 8b 8a ee 3d
       -0.060006775 -0.0496493 -0.037343517 0.11647519
000010 e5 61 ba 3c 29 f0 a0 3d 78 32 8f be 90 12 f2 3d
       0.022751758 0.07858307 -0.27968192 0.11819947
000020 05 9b 8d 3e 88 25 c3 3c 15 49 ae 3d 49 38 48 3c
       0.27657333 0.023821607 0.08510033 0.012220451
000030 56 bb 94 3e 13 2b 19 bf 9e b6 ba 3d cd 07 4e 3d
       0.29049176 -0.5983135 0.09116863 0.05030041
000040 e3 f9 0a bd 20 78 10 be 33 0f 39 3d b4 00 d8 3c
       -0.033929717 -0.14108324 0.04518051 0.026367523
000050 2a d6 40 bd 13 fd 41 3d 6c 08 64 3e 06 d9 8a be
       -0.047079243 0.04736049 0.22268838 -0.271187
000060 e8 e3 87 3e d4 73 e7 bd c3 40 b5 3e 14 08 0d bf
       0.26541066 -0.11301389 0.35400972 -0.5509045
000070 19 dd e9 3e 52 5c f6 3d 04 91 a4 be 56 33 a2 3d
       0.45676497 0.120293275 -0.32141888 0.07919948
000080 ec 54 72 bb 26 e8 6f be 2f 94 e4 3e f9 8d a9 3c
       -0.0036976887 -0.23428401 0.44644305 0.02069758
000090 38 b8 4d bd f5 bc 2e 3e b4 64 23 3e ad 6d a4 bd
       -0.050224513 0.17064269 0.15956384 -0.080287315
0000a0 17 84 bd 3c 52 44 14 3d 5b 35 4a be e5 75 74 3e
       0.023134274 0.036197968 -0.19746916 0.23873098
0000b0 af 5f 6f 3e 10 e8 20 be 9d 21 05 3e 37 85 1e 3e
       0.23376344 -0.15713525 0.13001104 0.15480505
0000c0 4f 32 66 be 45 ba d8 be 0a 45 87 be 32 7a c2 bd
       -0.22480129 -0.42329612 -0.2641986 -0.09495963
0000d0 b9 6e 7b be f2 c7 0d bd 0f 2e ca be bc db bb 3e
       -0.24553956 -0.03461451 -0.39488265 0.36691082
0000e0 ad 5f 64 3e c8 2f cd bc a8 fb 96 bd 61 48 e7 3c
       0.22302122 -0.025047198 -0.07372218 0.028232755
0000f0 0e da 21 3e 32 e9 93 bc 8b 66 c7 bc 93 ce 6a 3d
       0.15805838 -0.018055532 -0.024340888 0.05732591
000100 2f 44 62 3e 34 c1 34 3d ec 5d 3d 3e 56 81 62 bd
       0.22096322 0.044129565 0.1849286 -0.055299126
000110 06 21 bd 3d 43 e7 30 3e 3f 7c 6a bd 60 1d 96 be
       0.09234814 0.1727572 -0.057247397 -0.29319286
000120 03 1b 23 3d 31 29 43 bc 7a a9 38 3e d5 6b b4 bd
       0.039820682 -0.011911676 0.180334 -0.0880963
000130 ce b0 a7 be 70 6c 15 3e c9 73 58 3e 15 77 00 be
       -0.3275208 0.14592147 0.21137919 -0.12545426
000140 6c df 03 be 67 d3 1b 3d 90 a1 5e 3e c8 c0 99 3e
       -0.12878197 0.038043406 0.21741319 0.30029893
000150 68 7a 7a be 07 88 06 3c f4 88 bc 3d e5 d4 1b be
       -0.24460757 0.008211142 0.09205809 -0.15217932
000160 e1 1c 50 3e 26 b4 24 bc e7 1e e3 be 66 d4 18 3e
       0.20323516 -0.010052716 -0.44359514 0.14924774
000170 a0 48 57 bd 7c 6b 10 be bd 2b ea bd 84 99 85 3d
       -0.052559495 -0.14103502 -0.11434124 0.065234214
000180 01 15 9d bd c0 bd 10 be bb 54 9d bd 32 be 37 3e
       -0.07670022 -0.14134884 -0.07682177 0.17943648
000190 2f 0c b5 3e 04 e5 5c 3d 9b a3 3f be 23 99 58 3c
       0.35360858 0.053929344 -0.18714754 0.013220104
0001a0 00 23 8e 3e 2f ab d8 bd ff 5f 2d 3e 00 47 97 bd
       0.27761078 -0.10579526 0.16931151 -0.07386589
0001b0 2c 5f c3 3d 8c a9 fe 3d 9e fa 49 be 34 be 99 bc
       0.09539637 0.12434682 -0.19724509 -0.018767454

feature_exact.j_encoder.linears.0.bias f4 [8]
000000 11 4c 58 be 70 4c 2f bb d9 fa 49 be e1 8d 8e 3d
       -0.21122767 -0.002674844 -0.19724597 0.06960655
000010 98 0e 99 be 2e 34 13 be af 8b 90 3e 51 e8 90 be
       -0.29893947 -0.14375374 0.2823157 -0.28302243

feature_exact.j_encoder.linears.1.weight f4 [8, 8]
000000 e5 9b d7 3d bd 60 37 be 15 01 3b bd 64 eb ed bd
       0.105277814 -0.17907996 -0.04565533 -0.11617163
000010 64 a2 3f be 89 24 e8 3e db db 60 bd c9 0d 1b be
       -0.18714291 0.45340374 -0.05489717 -0.15141977
000020 f2 70 c3 3d 47 65 00 be 0c 40 61 be bf 4e 93 3e
       0.09543027 -0.12538634 -0.21997088 0.28771016
000030 bd d2 07 be cb ab a1 3d 30 ce 7b 3e c8 2e a0 bd
       -0.13263984 0.07894095 0.24590373 -0.07821423
000040 fe 8e 22 3d 63 81 a0 bc aa 2d 37 be 36 18 f1 3c
       0.03968715 -0.019592946 -0.17888513 0.02943049
000050 f1 d6 ab bd c0 1f 17 3e 91 1d 87 be 2d 66 25 be
       -0.08390606 0.14758205 -0.26389745 -0.16152258
000060 6f de 8f 3c e8 3a 81 3e 8e 4d 35 3d 03 0e 49 bd
       0.01756212 0.25240254 0.044263415 -0.04908563
000070 3b b5 ab 3d 08 9a e5 bc bd 6b d8 bd 10 2e ac 3e
       0.08384176 -0.02802755 -0.105674244 0.33628893
000080 18 82 18 3e f7 01 bb 3e 12 93 29 3e ac 25 8c 3e
       0.14893377 0.36524937 0.16560009 0.2737249
000090 7c 51 5a 3d e2 35 be 3e 8e d9 7b 3d 1f 25 b1 bd
       0.053300366 0.37150484 0.061486773 -0.086496584
0000a0 40 d7 58 3d f0 58 b5 3d b8 a9 1c be f9 56 76 3e
       0.052939653 0.08854854 -0.15299118 0.24056615
0000b0 9b c9 18 be 53 53 96 bd c1 c4 96 bd 25 96 bb bd
       -0.14920656 -0.073401116 -0.073617466 -0.09159497
0000c0 8f 0c 92 3c 66 b3 34 bd 9e 69 ce be 9e 98 b5 3d
       0.017828254 -0.0441164 -0.40314955 0.08867
0000d0 8b 93 98 3e 3f 30 b2 be 83 7f 92 3e 0a d8 0b 3f
       0.29800066 -0.34802434 0.2861291 0.54626524
0000e0 53 6f c6 3e 62 11 5b 3e 88 76 34 3d c6 19 62 bc
       0.3875681 0.2139335 0.044058353 -0.01380009
0000f0 5e 86 68 3e 33 78 86 3e 0f e2 37 be fb 0b 37 be
       0.22707507 0.2626358 -0.17957328 -0.17875664

feature_exact.j_encoder.linears.1.bias f4 [8]
000000 47 22 ea bd f5 7f a6 be 94 56 d1 3e a6 4d ae be
       -0.11432319 -0.32519498 0.40886366 -0.34043616
000010 4e a5 d1 3c 82 04 3f 3c 0e 1a 26 3e cf a8 11 be
       0.025591519 0.01165879 0.16220877 -0.14224552

feature_exact.j_encoder.linears.2.weight f4 [8, 8]
000000 ec 87 a3 be fa 71 e0 3d b6 7b 2f bd b1 af aa 3d
       -0.31939638 0.10959239 -0.04284259 0.08334292
000010 cd 22 13 3e ad b5 5d be 2d 4e c9 bc 3c d1 d4 3d
       0.14368744 -0.21651335 -0.02457341 0.10391471
000020 a2 64 4e 3d d3 26 58 3e ea 39 9a 3e 69 75 f1 be
       0.05038894 0.2110856 0.3012231 -0.4715989
000030 de ea a1 bd 21 1f 3a 3e 31 df 98 be a6 72 17 3e
       -0.079061255 0.18175937 -0.29857782 0.14789829
000040 26 d0 78 3e ac 0c aa 3d 10 cb 1e be 89 dd a4 3d
       0.24298152 0.08303198 -0.1550715 0.08050067
000050 65 b8 b7 3e 49 82 af bd 6b ae 1c be b8 00 33 3e
       0.3588287 -0.08569772 -0.1530091 0.17480743
000060 2b 80 9e bd a5 83 b2 be 6f 0d 05 3e 06 49 dd 3e
       -0.0773929 -0.34866062 0.12993406 0.43219775
000070 c2 39 af be c1 81 a6 3d f4 4d c8 3e f5 a1 a9 be
       -0.34223753 0.08130217 0.39121974 -0.33131376
000080 c0 ce 24 be f6 32 aa 3d 86 2f 63 be c8 b3 9d be
       -0.16094494 0.08310501 -0.22186098 -0.30801225
000090 b2 fc a0 bd b2 2e 5c be c2 7c 65 be 52 1d 7c be
       -0.07860698 -0.21502188 -0.22410873 -0.2462056
0000a0 0a 4f 4c 3e ce 52 99 3e 34 c6 c7 bd 16 dc bc 3e
       0.19952026 0.29945987 -0.09754601 0.36886662
0000b0 bb de 61 3e d4 3f 27 3d a0 93 2e 3e 32 76 79 bc
       0.22057621 0.040832356 0.17048502 -0.015225934
0000c0 92 56 84 3d 5c 4f 7b be aa 1c 4f be ff 42 2f 3e
       0.064618245 -0.24541992 -0.20225778 0.171154
0000d0 5c 17 e8 3b 16 ca 6c be b8 d1 d8 3e 9d 1d df be
       0.007082863 -0.23123965 0.42347503 -0.4357728
0000e0 b0 be 1a be fb 28 4b be 81 3e ce 3e 4c db fd bd
       -0.15111804 -0.19839852 0.40282062 -0.12395343
0000f0 2b ec ce 3d 02 4a 66 3e 82 89 b3 be ea ee 89 3e
       0.10103639 0.22489169 -0.35065848 0.2694009

feature_exact.j_encoder.linears.2.bias f4 [8]
000000 a5 d9 82 3e 3e ff 00 3c 4e d8 de bd 1f b7 05 39
       0.25556675 0.0078733545 -0.108811006 0.00012752086
000010 f1 21 8f be 17 85 b1 be 99 d4 59 3e 8f f8 8d be
       -0.27955583 -0.34671852 0.21272506 -0.27728698

feature_exact.m_encoder.linears.0.weight f4 [8, 8]
000000 d5 e8 e2 be b2 14 8e 3c 16 32 5c 3e 86 11 90 3e
       -0.44318262 0.017343853 0.21503481 0.2813837
000010 1f 13 92 be c9 0b a3 3e 26 59 6c be 07 af 14 3e
       -0.28530213 0.3184493 -0.23080882 0.14519893
000020 ef 61 af 3d 9e 0a 3b 3d c8 a6 cf be 9e 57 94 be
       0.08563601 0.045664422 -0.40556931 -0.28973097
000030 68 3f 06 be 58 9b 5e be 37 07 3c be 1e c7 80 be
       -0.13110125 -0.21738946 -0.18362127 -0.25151914
000040 88 69 a0 bb 10 7a b6 3e 5a 56 94 3e 81 12 36 be
       -0.004895393 0.3564 0.2897213 -0.17780496
000050 9a 96 bd be cc cb d6 bd 06 ce a8 3e aa 17 4c 3e
       -0.37028962 -0.1048809 0.32969683 0.19930902
000060 63 f5 53 3d 97 92 23 be b8 86 c3 3e 46 94 5c 3e
       0.05174769 -0.15973888 0.3818872 0.21540937
000070 01 3b 14 3e 2e 6f 49 bd a3 1a 44 3e ec c5 8f 3d
       0.14475633 -0.049178295 0.19150786 0.070201725
000080 3b e4 27 be 8f 7e d1 be be 68 91 bd 7a 25 af be
       -0.16395657 -0.4091687 -0.07100056 -0.3420828
000090 ae b7 75 be a6 37 80 3e 79 36 77 be bd 7e 02 be
       -0.2399585 0.25042456 -0.24141873 -0.1274366
0000a0 3c 77 0f 3e 4a 71 89 be 94 93 14 3e 38 20 ae 3e
       0.14010328 -0.26844245 0.14509422 0.34008956
0000b0 be 5d fa bd 06 17 02 be e2 61 8a be 59 14 22 3e
       -0.12224911 -0.12704095 -0.27027804 0.15828075
0000c0 ea 03 a8 be 81 d9 a3 3d 97 ae 1a be f2 a4 af 3d
       -0.32815486 0.0800047 -0.15105663 0.08576383
0000d0 ff 1e c7 3d 8b 61 a4 3e bb c7 1d 3c 51 23 55 3e
       0.09722709 0.3210567 0.009630139 0.20814253
0000e0 15 af b2 3e 5f 21 ea bc ae 12 92 bd 4a b7 cb bc
       0.34899202 -0.028580366 -0.07132469 -0.024867672
0000f0 39 57 23 bd 69 a6 67 3e 32 3e ae be 35 0e 3c 3d
       -0.039878104 0.22622074 -0.34031826 0.045911986

feature_exact.m_encoder.linears.0.bias f4 [8]
000000 87 0e 1e 3d bb 9f 57 3e a2 db b5 be b7 60 b1 3c
       0.038588073 0.21057026 -0.3551913 0.021652563
000010 ca a9 5e be 62 bb 8c be 5c db c3 3e d8 17 ed bd
       -0.21744457 -0.27486712 0.38253295 -0.115768135

feature_exact.m_encoder.linears.1.weight f4 [8, 8]
000000 87 5d f4 3d e6 3f d5 3d f5 26 1a bd 61 78 28 3e
       0.119319014 0.10412578 -0.03763481 0.16452171
000010 4c 81 ce 3d 09 4e a5 3e 5c 9e 47 3e 30 ad bf be
       0.10083255 0.322861 0.19494003 -0.3743682
000020 aa c9 9d 3d 97 96 93 bc 8d f0 84 3e 2d 3c a5 3e
       0.0770448 -0.018016143 0.25964776 0.32272473
000030 00 ad 90 3c af e2 7f 3d f7 12 11 be 26 05 6e ba
       0.017660618 0.06247204 -0.14167391 -0.00090797467
000040 f7 88 5a bd 92 95 a2 3e dd 90 a6 3c 0b ec 44 3e
       -0.053353276 0.31754738 0.020332748 0.19230668
000050 c1 d9 09 3e dd 62 08 bd ba f1 be 3d cf 2f a6 bb
       0.13461973 -0.03329741 0.093234494 -0.005071617
000060 35 4d 3b 3e cb 95 8d 3c 10 75 4c bd 8d c4 39 3d
       0.18291171 0.01728334 -0.049916327 0.04535346
000070 a6 28 4e 3e 7a fe 41 3e 4f 43 75 3e d8 1d 8f be
       0.20132694 0.18944731 0.23951457 -0.27952456
000080 8a cf 7a be 39 22 6e be 66 db 7c 3e 58 64 b0 bd
       -0.24493232 -0.23255242 0.24693069 -0.08612889
000090 9b fd 07 be e3 a7 17 3e dc 55 89 be 48 8a e8 bc
       -0.13280337 0.14810137 -0.26823318 -0.02838625
0000a0 d4 5d ee 3e 7b 63 e9 3c b1 3d 13 bf f7 ad ba 3e
       0.4655596 0.028489819 -0.5751601 0.3646085
0000b0 a9 eb bd bd 9a fa 21 b9 bc 65 19 be 7d 56 01 bf
       -0.09273464 -0.00015447513 -0.14980215 -0.50522596
0000c0 13 b9 cb 3e 5b 4d e6 3d af 30 9d 3e 37 06 e3 bd
       0.39789638 0.11245223 0.30701205 -0.1108517
0000d0 a8 d0 7b be 86 1f b4 be 56 eb 0a be da dd 6e 3e
       -0.24591315 -0.351803 -0.13566336 0.23326817
0000e0 b9 5e 28 be c3 5b f2 bd a3 10 44 3e 5b d1 ad 3e
       -0.16442384 -0.118339084 0.19146971 0.33948788
0000f0 8a 01 a3 3d 16 48 71 be ad a1 bb be 16 c0 7a 3e
       0.07959278 -0.23562655 -0.36646786 0.24487337

feature_exact.m_encoder.linears.1.bias f4 [8]
000000 a6 dd 34 3e db 44 2c bd 6c 7a 3b be ee a2 30 be
       0.17662677 -0.042057853 -0.18308419 -0.17249653
000010 67 c9 39 be bd 76 0e be a1 bf c5 3c aa a4 8c 3e
       -0.18143235 -0.13912483 0.024139227 0.2746938

feature_exact.m_encoder.linears.2.weight f4 [8, 8]
000000 e7 21 04 3e fc ea 7f 3e 17 ab 4b 3d 67 98 24 3e
       0.12903558 0.24991983 0.04972371 0.16073762
000010 e9 77 9c 3e b4 8f d3 be fa 96 88 bc a5 30 96 be
       0.30560234 -0.41320574 -0.016673554 -0.29333988
000020 98 ff 27 3e 13 9c 90 bd 84 7d d9 be c4 f0 3b bd
       0.16406095 -0.07061019 -0.42478573 -0.04588391
000030 be d9 4b 3e 74 b2 2a be fe 57 51 bd bf 09 5c 3e
       0.19907281 -0.16669637 -0.051109307 0.21488093
000040 ec b2 a8 be 73 ab 37 bd 32 2f 26 be 45 00 53 3e
       -0.32949007 -0.04484124 -0.16228941 0.20605572
000050 82 fa 4e 3e 45 50 b2 3e 49 a4 69 be 3c 72 ab 3e
       0.20212749 0.34826866 -0.22816576 0.3348559
000060 91 ec 3d bd 30 62 36 3e 85 58 7c 3d b6 b9 14 be
       -0.046368185 0.17810893 0.061607856 -0.14523968
000070 ad 21 2e bc af 13 bf bc bf dd e5 3d 2a f6 9b be
       -0.010628146 -0.023324816 0.11223935 -0.30461246
000080 02 ba 94 bd 1a 41 53 bb 91 2c 0d be 7e 52 96 3e
       -0.07262041 -0.0032234848 -0.13786532 0.29359812
000090 11 07 42 be ec 38 11 3d 9d bc bc bd 0c 72 85 3e
       -0.18948008 0.035454676 -0.09215663 0.26063573
0000a0 78 85 be be c3 92 69 be 26 8a 11 3e 0c f5 5b be
       -0.37211204 -0.22809891 0.14212856 -0.21480197
0000b0 2d 32 dc bd 06 d7 3e be 0e d1 51 be 8a 1b 07 3e
       -0.10751758 -0.18636712 -0.20489904 0.13194099
0000c0 b6 4e 5d 3e cc 11 4f be 75 c1 d4 3e 63 4d 7e bd
       0.21612057 -0.20221633 0.41553846 -0.06208552
0000d0 b2 e2 ab be 75 e3 f2 3e bb f7 ef bc 03 f5 78 3d
       -0.33571392 0.4743916 -0.029292932 0.060780536
0000e0 72 32 81 3d ba c1 80 be 40 69 24 3e 42 ff 84 3d
       0.0630845 -0.25147802 0.16055775 0.06493999
0000f0 74 24 c8 3d ec 28 9b be d7 3b 23 3c e2 15 96 be
       0.09772578 -0.30304658 0.009962997 -0.2931357

feature_exact.m_encoder.linears.2.bias f4 [8]
000000 89 11 68 bd 84 6e c5 bd 74 6d fc bd 87 3c 0f 3c
       -0.056657348 -0.0964022 -0.12325564 0.008742458
000010 ea f7 1e be bc b3 8e 3e 8e af a1 3e 0d d0 04 be
       -0.15524259 0.278715 0.3157925 -0.1296999

feature_exact.j_ln.weight f4 [8]
000000 65 dc 7c 3f 77 59 85 3f 59 20 90 3f 30 74 91 3f
       0.98773795 1.0417928 1.1259872 1.1363583
000010 2e ac 81 3f 22 78 86 3f 6f 7b 81 3f 04 f5 85 3f
       1.013067 1.0505412 1.0115794 1.0465398

feature_exact.j_ln.bias f4 [8]
000000 c4 be ef bb ab dc f9 3b 45 f4 e5 bb 08 8f 83 3c
       -0.007316442 0.0076251826 -0.0070176446 0.016059414
000010 e7 a4 3a 3c f0 4b d1 3c 88 ab 4e bb 67 f0 a1 bb
       0.011391855 0.025548905 -0.0031535346 -0.0049419883

feature_exact.m_ln.weight f4 [8]
000000 d1 62 73 3f d2 63 7a 3f ee 41 80 3f 3d c0 84 3f
       0.95072657 0.97808564 1.002012 1.0371166
000010 6b c0 79 3f 91 c9 76 3f ed 64 70 3f e9 99 81 3f
       0.9755923 0.96401316 0.93904 1.0125095

feature_exact.m_ln.bias f4 [8]
000000 2e fc 6f 3c ca 4a d2 3c d7 88 a3 3a 45 4c c1 3c
       0.014647527 0.025670428 0.0012476695 0.023595938
000010 ab a6 06 3d e9 7a 2d bd 5c b8 70 bd cf 40 62 bc
       0.03287379 -0.042353544 -0.05876957 -0.013809397

actor.linears.0.weight f4 [64, 40]
000000 2c 0f 71 bd 76 7c bf 3d 69 7e 72 bc 1b e5 2a 3c
       -0.05885236 0.09349911 -0.014800646 0.0104306
000010 d4 79 f7 3b fc 87 0d 3e 83 50 1f be 75 97 4c bd
       0.007552365 0.13821405 -0.15558057 -0.04994913
000020 29 f0 22 3d ec e0 46 bd e3 1a 62 be 7d 6b 6b 3e
       0.039779816 -0.048554346 -0.22080569 0.22990222
000030 90 06 b3 bc 2f 66 6c bd 42 5e 33 3d 91 9c 17 3e
       -0.021853715 -0.057714637 0.043791063 0.14805819
000040 91 03 d3 bd 2d d2 b8 bd 1e dd 0d be 8e 6c fa 3d
       -0.103034146 -0.09024463 -0.13853881 0.122277364
000050 13 9b 13 be 22 c4 82 3d 9c f3 ec 3d 50 a4 7b 3d
       -0.14414625 0.063850656 0.11569902 0.061435997
000060 dd 90 91 bd bf 59 8c 3b 28 d9 b5 bd 4f a9 81 bd
       -0.071077086 0.0042831595 -0.0887931 -0.06331121
000070 bf 89 e4 3d 67 bd d2 bd ed 47 27 bd 97 3b d1 3d
       0.111590855 -0.10290032 -0.04084008 0.10216444
000080 89 31 74 bc 30 21 3e be 01 6f 2a be a3 51 24 be
       -0.014904388 -0.18567348 -0.16643907 -0.16046767
000090 32 2b 12 3b fd be 7a 3d 0a be 1a be eb ff 0b 3e
       0.0022303578 0.061217297 -0.15111557 0.13671844
0000a0 14 95 86 bd 30 55 a5 bd 25 97 ed 3d fd 07 9b 3d
       -0.06571403 -0.08072889 0.11601094 0.07569883
0000b0 52 19 b1 3d 39 b2 21 3e f0 20 df 3d 40 10 d6 bd
       0.086474076 0.15790643 0.10894954 -0.10452318
0000c0 fa 90 a7 3d 95 28 01 bc f3 d8 d4 bb cc d9 d9 3d
       0.08181949 -0.007883211 -0.006495589 0.106372446
0000d0 99 7a 1e be 6c 26 8b 3c 85 1b f9 bc 04 78 91 3c
       -0.15476455 0.016986094 -0.03040863 0.017757423
0000e0 f5 b3 3a 3e 8e 0e 3e 3d 5b fa b3 3d b2 3b c5 bd
       0.1823271 0.0464006 0.08787986 -0.096305266
0000f0 96 78 9a bd ca 73 51 3d 54 92 e1 3c ab 45 7d bc
       -0.07542531 0.051135816 0.027535595 -0.015458505
000100 8f f5 05 bd 6a 6d de bd de 5a 22 be 4d b5 33 be
       -0.032704886 -0.10860713 -0.15854976 -0.1754963
000110 37 43 e9 bd 3b de cd bd 6f 49 2d bd e4 3a 63 bd
       -0.11389773 -0.10052153 -0.04230636 -0.055476084
000120 ee f1 c4 bd 0e eb 4a be 06 f3 97 bd 32 b8 a4 3c
       -0.09616457 -0.19816229 -0.074194 0.020107362
000130 b6 bf ed bd 89 41 5b bc ef 65 b9 bd 4a d3 8f 3d
       -0.116088316 -0.013382324 -0.090526454 0.07022722
000140 a1 4f 9a 3d e6 b6 d9 3d 21 46 d7 3d a7 65 10 3d
       0.07534719 0.10630588 0.10511423 0.035253193
000150 1e cf 11 bd 33 6b 2e bd f3 3e e7 bd 3a 5e 23 3e
       -0.035597913 -0.042582702 -0.112913035 0.15953913
000160 bb 86 88 bd 03 ef 04 be 69 33 0d 3e 17 73 19 3e
       -0.06666323 -0.129818 0.13789143 0.1498531
000170 11 a5 27 3d 06 4d 9f bd 8d 5d 0a be 81 37 17 3e
       0.040928904 -0.07778363 -0.1351225 0.14767267
000180 89 c3 d5 bd e7 5f a0 bd 65 1a 52 bd 7a 6c c6 3d
       -0.10437686 -0.07830792 -0.051294703 0.09688659
000190 9e 78 e8 bc 69 9a 0a 3b ab dc 50 3d ed b4 28 bb
       -0.028377827 0.0021149165 0.050991695 -0.0025742606
0001a0 7d 79 ae bc d0 6c 5c bd 2e 72 ab 3d c0 b1 35 3e
       -0.021298165 -0.05381471 0.083713874 0.17743587
0001b0 de d5 d5 bd 1c 1b 16 3e fc 48 75 3d fa 77 2a 3e
       -0.104411826 0.14658779 0.059884056 0.1664733
0001c0 07 c1 ac bd 5b 83 23 bc b4 fe 08 3e 42 2c 0d 3d
       -0.084352545 -0.009980048 0.13378412 0.034466036
0001d0 26 a1 29 3c 4d 3d 95 3d 69 a1 e6 bd dc 90 83 bd
       0.010353362 0.07287083 -0.11261255 -0.06424114
0001e0 7f 8d fa 3d dd 62 9c 3d 28 c7 e2 3d e0 55 87 bd
       0.122340195 0.07636044 0.11073142 -0.06608176
0001f0 7e e5 80 bd fb 50 0f bd 96 61 51 bc 7a 3e a3 bd
       -0.06293772 -0.03498934 -0.012779614 -0.07970901
000200 30 81 30 3c 5b 66 32 3e e5 87 1f 3e 09 ce 89 bc
       0.010772988 0.17421858 0.15579183 -0.016821878
000210 b0 31 6e bd d3 e1 bb 3c e0 52 57 bc 84 7b 3d bd
       -0.058152854 0.02293483 -0.0131423175 -0.04626037
000220 6a 3f d7 bb 0e ae 1d be d3 de 3b be e2 fd 02 bd
       -0.006568839 -0.15398428 -0.1834672 -0.031980403
000230 dc 83 e3 bc 1c cb f7 bd bb 91 c6 bd 29 51 5d bc
       -0.027772836 -0.12099287 -0.09695765 -0.01350812
000240 8d 19 cb 3c 57 a7 80 3e 05 21 dd 3d e4 38 28 3d
       0.024792457 0.2512767 0.107973136 0.04106988
000250 99 5c 6e 3d a2 ce ca 3c 0a 18 94 bd e0 ad f2 3d
       0.058193777 0.024756733 -0.072311476 0.1184957
000260 ab 33 48 3e 03 f6 5e 3e 9a 5f b3 3d 35 a5 07 bd
       0.1955096 0.21773534 0.08758469 -0.033116538
000270 ec 59 88 bd de 71 64 3e 0b 97 0e 3e 92 5d 1f 3e
       -0.06657776 0.22309062 0.13924806 0.15563038
000280 42 95 82 3d c1 9b 22 3e f0 e1 ac bd f0 37 2e 3e
       0.06376125 0.15879728 -0.08441532 0.17013526
000290 2a a5 05 3d c4 46 e1 bd cd c3 de bd e6 e6 c4 3d
       0.032628216 -0.109998256 -0.1087719 0.09614353
0002a0 a1 5b d3 3d fd 9a 1b be b3 6b 29 3c d1 b3 be 3c
       0.10320211 -0.15195842 0.010340619 0.023279103
0002b0 2f 2b 0d 3e f5 00 a1 bd b5 2a bc bd 80 ec 9f 3b
       0.13786004 -0.07861511 -0.09187833 0.004880488
0002c0 ab 1f 98 bd 3b d8 39 3b 57 06 da 3c c1 7d c3 bc
       -0.07427915 0.0028357643 0.026614351 -0.023863675
0002d0 e1 97 d7 3d a9 86 27 3d b7 ca 4c 3c e9 2e ff 3c
       0.105270155 0.040899906 0.012499503 0.031150298
0002e0 e2 fd 2e be e2 7b 0d be bd b9 bc 3d 65 4c 11 bd
       -0.17089036 -0.13816789 0.09215114 -0.035473246
0002f0 e6 6e f4 bd cf 15 c8 3d 95 b3 92 bb 84 55 04 be
       -0.11935215 0.09769785 -0.0044769743 -0.12923247
000300 49 03 17 3e d1 54 32 3e a9 04 5a bd 98 f9 11 3d
       0.14747347 0.17415167 -0.0532271 0.03563842
000310 67 19 21 3e a9 45 36 3e 35 0f f5 3d 2d 91 2d be
       0.15732346 0.1780001 0.11965791 -0.16949911
000320 9d 1a d2 3d b9 ca 95 3d 03 74 57 be ce 5f 52 bc
       0.10258982 0.07314057 -0.21040349 -0.012840224
000330 e2 e7 f9 3d 11 e3 2d 3b 4d 91 39 3e 3c 2c 88 bd
       0.12202431 0.0026533047 0.18121834 -0.06649062
000340 d5 9a cf bd fc 5e 24 3e 3d fd db 3d 69 b8 59 be
       -0.10136954 0.16051859 0.10741661 -0.21261753
000350 09 6a 1c 3e 97 48 1b bd 38 29 d2 bc d0 1a 16 bd
       0.15274824 -0.037911024 -0.02565442 -0.036646664
000360 fc db a4 3d 99 dd 18 be 88 72 47 be da 9d a7 3d
       0.08049771 -0.14928283 -0.19477284 0.08184405
000370 b4 23 10 be 66 85 05 3d 8f 34 23 bd f7 2b 87 bc
       -0.1407612 0.03259792 -0.039845046 -0.016500456
000380 b7 bb d0 bb 22 74 61 3b e8 39 f2 3d 6f 61 a6 be
       -0.0063700336 0.0034401496 0.11827451 -0.3249621
000390 f9 02 84 3c 5d 62 9d bd 67 d4 8d bc de c8 c7 bd
       0.016114699 -0.07684777 -0.017313195 -0.09755109
0003a0 af 99 60 bc 4d de 8d 3e ec 58 de 3d 48 8c 0c 3d
       -0.013708516 0.27708665 0.10856804 0.03431347
0003b0 e5 7a bb 3d c9 9d 01 3e 33 89 ac bd 47 59 12 be
       0.091543 0.12657847 -0.08424606 -0.14291869
0003c0 cd 04 c3 bd 9b d2 50 3e df 0d cc bd 98 81 ce bd
       -0.095224 0.2039284 -0.09963583 -0.10083312
0003d0 c7 fa 6f 3d 7e 3f 4c 3c d0 1a 0f 3d 59 91 f1 3d
       0.05858877 0.01246631 0.03493768 0.11795301
0003e0 0e 5a 00 bd 76 aa 3a be 94 af a8 3d 9c 4a 0e ba
       -0.031335883 -0.18229088 0.08236614 -0.0005427988
0003f0 14 73 01 bd 1f 97 75 bd 5d ae 17 be 0d 59 05 be
       -0.031603888 -0.059958573 -0.14812608 -0.13022251

actor.linears.0.bias f4 [64]
000000 5d c2 18 3d e7 08 1d 3e 10 e2 3b 3d 1b 56 cf bd
       0.037294734 0.15335427 0.045869887 -0.10123845
000010 98 a0 0c 3d 51 8a b1 bc 17 80 c2 bd 50 e7 18 bd
       0.03433284 -0.0216724 -0.094970874 -0.03732997
000020 0d 88 19 be 23 d5 8d bd 60 75 89 3d 89 91 6c bd
       -0.14993306 -0.06925418 0.06711841 -0.05775598
000030 74 22 ac 3c f9 83 12 be c1 62 8b 3c 32 80 31 be
       0.021012522 -0.14308156 0.017014863 -0.17334059
000040 1f 08 ea 3d a1 42 26 be 8d 27 8f bd 07 3a 33 bd
       0.1142733 -0.16236354 -0.069899656 -0.04375651
000050 ce 33 cf bb 65 10 75 bc 3d 16 f0 3d 52 0f 4c bd
       -0.0063233143 -0.014957522 0.117229916 -0.049819298
000060 e9 29 46 3e ea ca 10 bd 48 c7 09 be 99 8f 9b 3c
       0.19351925 -0.035349764 -0.13454926 0.018989371
000070 fd 6c 3c be 16 4d ec 3d 3f fa 31 3e 02 e7 10 3e
       -0.1840095 0.115381405 0.17380618 0.14150622
000080 b4 a7 0c bc 6b d4 df bc a2 3b db bd c9 0c e5 bd
       -0.008584905 -0.027322968 -0.107047334 -0.11184079
000090 2c ac be bd de 07 be bd bb 96 fb bd f6 63 92 3c
       -0.09310183 -0.09278844 -0.12284609 0.01786993
0000a0 0b 4e a8 bd 7d ba 03 3e 32 3f 25 be b7 f2 87 bd
       -0.082180105 0.12864108 -0.16137388 -0.06638091
0000b0 ba b7 a9 bc 22 29 0c 3d 5b 03 f8 3d 6c 48 99 bd
       -0.02071749 0.034218915 0.12110015 -0.074845165
0000c0 96 f2 26 3e 9d 2c 3f 3b aa 22 ee bd a5 91 82 bd
       0.16303477 0.0029170879 -0.116277054 -0.06375436
0000d0 3f ea 22 bd a4 c7 c5 bc af de df bd 56 41 b2 bc
       -0.039774176 -0.024143048 -0.109311454 -0.02175967
0000e0 48 67 88 3a 71 a4 0b bd b8 b3 d4 3d 3f 39 38 bd
       0.0010406757 -0.03409237 0.10385841 -0.04497647
0000f0 9a cf a9 3d fe 2f 93 bd 46 a3 fe bd 53 56 ba 3d
       0.0829155 -0.07186888 -0.12433486 0.09098496

actor.linears.1.weight f4 [64, 64]
000000 e2 83 6e bd d5 eb bf 3d f3 50 c3 3b 7a 3f 90 3d
       -0.058231242 0.09371153 0.0059605776 0.07043357
000010 68 6d 17 be 2d 27 6f 3d 02 c5 4a be cd cb aa bb
       -0.14787829 0.05838697 -0.19801715 -0.005212283
000020 78 19 ca bd 2b 15 62 3d 73 83 20 be be 17 2c bd
       -0.09868139 0.05519597 -0.15675144 -0.04201483
000030 e7 66 df 3d f8 f2 a3 bd ad 93 ee 3d 4f ce 0c 3c
       0.10908299 -0.08005327 0.11649261 0.00859411
000040 18 ca e9 3d fb dc 23 be 23 1f 2e be ec 64 f6 3d
       0.114154994 -0.16002266 -0.17004065 0.12030968
000050 df 70 81 bc 74 4a bd 3b dd 6e b9 bd 55 a7 16 3e
       -0.015800891 0.005776698 -0.090543486 0.1471227
000060 e8 a5 94 bc ac bf fd 3d c2 6a 1b 3e 3c 4a 33 bc
       -0.018145517 0.12390074 0.15177444 -0.010942992
000070 35 a8 14 3b ad b1 17 3c 98 3c ee 3d 0c 46 36 3d
       0.0022683267 0.00925867 0.11632651 0.044500396
000080 ed f3 1d bd f3 d7 bd bd 63 2a 4a bd af 94 57 bb
       -0.038562704 -0.09269705 -0.04935683 -0.0032895019
000090 51 8c 41 bd 58 93 05 be 2e b9 d9 bd 35 a9 38 3e
       -0.047252957 -0.13044488 -0.10631023 0.18033297
0000a0 00 22 d5 3d b0 c9 51 bc 07 f1 82 bc 2e 96 5f 3c
       0.104068756 -0.012804434 -0.015984071 0.0136466455
0000b0 53 c4 94 3d d8 dc 26 3e 61 c1 ad bd 67 4f 3a be
       0.072640084 0.16295183 -0.0848415 -0.18194352
0000c0 b6 d9 05 3d be 3e 26 be 79 6e b7 3d a5 52 11 be
       0.03267833 -0.16234872 0.08956618 -0.14191683
0000d0 6c 2d 61 be 91 07 74 3d 5c 18 8a bc 97 0f 94 3d
       -0.21989983 0.05957753 -0.016857319 0.07229536
0000e0 32 67 74 3a ec c3 57 3c a4 0f 44 bd fe 1c 26 bd
       0.00093232386 0.01316927 -0.04786648 -0.040554993
0000f0 e5 10 19 3d f1 21 de 3d d2 8c 34 be 7c 41 a1 3d
       0.037369628 0.108463176 -0.17631844 0.07873818
000100 be 40 93 bd 74 d0 86 bc 9d 87 8f bc da 21 02 bd
       -0.07190083 -0.01645682 -0.01752072 -0.031770565
000110 e1 b6 2f 3d 44 9c 19 3e 57 3a 38 3e 6c fd ea bd
       0.042899016 0.15001017 0.17991005 -0.11474118
000120 c1 13 40 3e 0f 88 f2 bd 21 40 b0 3d a2 bb 95 bc
       0.18757536 -0.11842357 0.086059816 -0.018277947
000130 fc 5c d6 3d 18 ed 59 3e 78 e4 0a be 53 82 54 bd
       0.10466954 0.2128185 -0.13563716 -0.0518821
000140 09 18 06 be f2 99 27 3d 15 7e 6c 3d 18 4e 56 bd
       -0.13095106 0.040918298 0.05773743 -0.05232057
000150 80 1f ca bd 4a 4a 6f be cc 6d 67 3e d1 12 c9 bd
       -0.098692894 -0.23368183 0.22600478 -0.09818042
000160 56 35 83 3b 2b 80 68 be 5e 92 61 be b7 89 ac 3d
       0.004004161 -0.22705142 -0.22028491 0.084247045
000170 fd 01 0a be 6e d8 3e be a0 89 a0 3c 4a b7 c4 3d
       -0.13477321 -0.18637249 0.019596875 0.09605272
000180 2a 02 d5 ba 2e 66 1c bb 3c 52 19 3d d7 79 8d bd
       -0.0016251255 -0.0023864615 0.03743194 -0.06908005
000190 1b e9 b6 3d 1c 28 17 3e ef 2d ca bd 2f 0d d2 bc
       0.0893118 0.14761394 -0.098720424 -0.025641052
0001a0 05 4f 35 be c0 f2 75 3d 9f 14 a4 bc 51 a9 20 3e
       -0.17705925 0.060045958 -0.020029364 0.15689589
0001b0 2e 08 bd bd 24 3a 1e be 28 d2 52 3e 38 bf 10 bd
       -0.09230076 -0.15451866 0.20587981 -0.03533861
0001c0 ec 19 29 3e 01 23 76 3d ca 9f 29 bd 06 c3 81 3e
       0.16513795 0.060091976 -0.041412152 0.25344104
0001d0 f7 60 9e 3e e5 ad 83 be b4 ad 29 be 3e 74 8e bc
       0.30933353 -0.25718608 -0.16570169 -0.017389413
0001e0 7c 8e 56 3e b2 30 dd bd 92 a4 0d be 40 00 d4 bd
       0.20952791 -0.108003035 -0.1383231 -0.1035161
0001f0 45 44 52 bd f6 4f 89 3c e4 5b fc 3d 2c 80 a4 bd
       -0.05133464 0.016761761 0.12322214 -0.08032259
000200 be 2a 03 3e 24 6d be bc 56 92 9d 3d aa fe 05 3e
       0.12809274 -0.023245402 0.07693927 0.13085428
000210 ee c0 5e 3e 52 f3 13 bd a7 6f a8 3d ec a3 62 bd
       0.21753284 -0.03612072 0.08224421 -0.05533211
000220 d8 53 a2 3d cf c2 d7 bd fc 1d d2 bc 3e af 22 3d
       0.07926148 -0.10535204 -0.025649063 0.039717905
000230 ac b7 05 be ac ae 04 3e 07 41 2f be d4 bb 00 3e
       -0.13058347 0.12957257 -0.1711465 0.1257165
000240 aa a6 ff bd a6 a0 2c 3e f4 17 c7 3d 59 87 ca bd
       -0.124829605 0.16858158 0.097213656 -0.09889097
000250 ae 79 0c be 34 68 60 bd 58 f0 ea 3b 58 99 67 be
       -0.13718292 -0.054786876 0.0071697645 -0.2261709
000260 b6 c7 a5 3b 37 b0 8e 3d 37 58 88 3d 0e 49 1a 3d
       0.005059208 0.06967204 0.06657451 0.037667327
000270 a7 24 f5 bd eb 72 90 3c e6 3a 51 3c 07 9d 12 be
       -0.119698815 0.017632922 0.01277039 -0.14317714
000280 06 e6 c8 3d 63 87 27 3e 86 6e b9 3d 81 92 ec bc
       0.098094985 0.1636024 0.09054284 -0.028878452
000290 9f 83 68 3d 19 a6 00 be eb 6b 06 bd c1 58 86 be
       0.05676615 -0.12563361 -0.032817762 -0.2623959
0002a0 ad bf 2a 3d b8 41 90 bd 26 e0 a0 bd d4 c8 e3 3d
       0.041686703 -0.07043785 -0.07855253 0.11122289
0002b0 95 8a e5 bc c1 78 f8 bd 2f b9 5a 3d 42 90 79 bd
       -0.028020183 -0.12132407 0.05339926 -0.06092859
0002c0 82 e5 9d 3c 75 4a 2c bc f1 0c c0 bd ec 4f b5 3d
       0.019274477 -0.010515799 -0.093774684 0.088531345
0002d0 c8 75 e4 bc 48 f9 21 be 8f 3f 9f 3c b8 f7 ff bd
       -0.027888194 -0.1581775 0.019439487 -0.124984205
0002e0 a8 ae 44 3e 46 af 50 be 01 c7 e4 bd 05 45 11 be
       0.19207251 -0.20379362 -0.111707695 -0.14186485
0002f0 0e ee 51 bb f4 4f c6 3c 84 04 e9 3d e8 ab ef bd
       -0.003203276 0.024208046 0.113778144 -0.117027104
000300 1b 20 be bd 75 eb 8f 3d 4a b3 19 be 23 a1 f1 3c
       -0.092834674 0.07027332 -0.150098 0.029495781
000310 ef f5 25 be e8 dd 9e bc a0 0d c0 bd ee 51 9b 3c
       -0.16207097 -0.019392923 -0.09377599 0.018959966
000320 1e 8b 2c be 74 66 49 3e 20 db d9 bd cb ae 6a bd
       -0.16849944 0.19667989 -0.10637498 -0.0572956
000330 38 15 37 3d 7d 97 3d be 42 97 44 3e e1 ca cb bd
       0.04469797 -0.1851482 0.19198325 -0.099508055
000340 60 d8 66 3d 05 a1 78 be 72 8b 58 3c 73 f1 c8 3d
       0.056358695 -0.24280174 0.01321684 0.09811678
000350 a6 61 11 3e 0a 69 bc 3d f4 bc 11 be 58 5a 2a 3e
       0.14197406 0.09199722 -0.14232236 0.16636026
000360 43 42 32 3e 20 62 23 3e 72 eb 0d 3c 62 e2 20 3e
       0.1740809 0.159554 0.008662092 0.15711358
000370 4b 4f 25 3d 19 9c ad 3d 93 29 46 3e 25 9c 11 3e
       0.040358823 0.08477039 0.19351797 0.1421972
000380 93 ce 44 3d 3d 1a 64 bd 75 c8 42 be fa bd b8 bc
       0.048048567 -0.055689085 -0.19021781 -0.022551525
000390 ca d8 2e bd f9 65 b5 3d 83 f5 90 3d 2c a6 41 3d
       -0.042687215 0.0885734 0.07078078 0.047277614
0003a0 28 56 37 3c fc da d1 3d 12 86 c3 bd 11 bc b3 bd
       0.011189975 0.10246846 -0.09547056 -0.08776105
0003b0 b7 8b 90 3d 78 06 7d 3d fc 60 24 3d 70 09 d4 bd
       0.070578985 0.061773747 0.040131554 -0.103533626
0003c0 b2 db 96 3d ee 99 12 3d 6e a1 fd 3c 14 14 00 bd
       0.07366122 0.03579133 0.030960765 -0.031269148
0003d0 ba 41 64 bc 52 9a 77 3e 9c ff 30 3d 7d 01 00 3e
       -0.013931686 0.24179962 0.043212518 0.12500568
0003e0 30 f4 63 be cd d8 5c 3e 6c 4b c5 bc af af df bb
       -0.22261119 0.21567078 -0.024083816 -0.006826363
0003f0 6d 1b 74 3c 7c ff 2a 3e f9 ef 44 be f0 9f 9c 3d
       0.014899117 0.16699022 -0.19232167 0.07647693

actor.linears.1.bias f4 [64]
000000 a7 1b a4 3d 95 5a 3d 3d bd 81 b1 3c 3f bc 2b bd
       0.08013087 0.046228964 0.02166831 -0.041927572
000010 1e ef 62 3d f2 fb ff 3d 01 b6 5b bd 30 d1 23 bd
       0.05540382 0.12499227 -0.05364037 -0.03999442
000020 65 01 d0 3d da 45 b5 3d 63 f4 0e be 95 70 b1 3d
       0.10156516 0.08851214 -0.13960414 0.086640514
000030 80 3f d4 3a 00 5e af bd b2 bc 0d be 6a 12 5c 3d
       0.0016193241 -0.08562851 -0.13841513 0.0537285
000040 de 56 b5 3c 31 08 bf bc c7 2a fc 3c ef 55 90 bd
       0.022136148 -0.023319336 0.030782117 -0.070476405
000050 5d 98 8e 3d 4b 6c 95 bc db b0 09 3e 64 2e bd bd
       0.06962655 -0.018240115 0.13446371 -0.09237364
000060 65 46 45 bd 2e 58 9d 3d 9c 04 64 3d 73 17 98 3d
       -0.048162837 0.076828346 0.05566846 0.074263476
000070 5b 27 33 bd dd 11 32 3d cd 3c 6b 3d 9a 89 f3 3c
       -0.043738704 0.043474067 0.05743103 0.0297287
000080 f1 17 30 bd f4 5f 34 bd a2 9f f9 bd 2d 91 89 bc
       -0.042991582 -0.04403682 -0.12188651 -0.016792858
000090 88 8a c7 bd ca ec 27 3e 0c 73 91 3d 72 11 e9 3d
       -0.097432196 0.16398922 0.071020216 0.113802806
0000a0 df 3a 13 3d 69 45 15 3d ac 2c 61 3d 0b 33 92 3d
       0.035944816 0.036443148 0.054974243 0.07138642
0000b0 f0 8e 24 3d 4b 26 b5 bc d5 0f c5 bd 3d 01 ad bd
       0.04017538 -0.022112986 -0.0962216 -0.08447502
0000c0 29 10 58 bc f9 d5 8b bd de b6 87 3d bb 8a 87 bd
       -0.013187447 -0.068279214 0.06626676 -0.066182576
0000d0 05 3f 31 bd 0b 27 df 3d 78 14 00 3e d8 38 c9 bd
       -0.04327299 0.10896119 0.12507808 -0.09825295
0000e0 e9 46 97 bd 0c 3f d9 3c 47 be cc 3d fc b2 40 3d
       -0.07386572 0.02651932 0.0999723 0.047045693
0000f0 e0 fd 1a 3e 92 a3 ca bc 15 0b 8c 3d 26 c9 51 bb
       0.15135908 -0.0247362 0.06838051 -0.0032010763

actor.linears.2.weight f4 [1, 64]
000000 04 42 65 3e aa 6e 8d be 14 f8 80 be e7 40 af 3e
       0.22388464 -0.27623492 -0.2518927 0.34229204
000010 90 70 bf be 42 45 9b be ca dd ab be 28 35 8f 3e
       -0.37390566 -0.30326277 -0.3356765 0.27970243
000020 b1 6c 84 3e 26 bd 96 3e 1f d7 b2 be f4 82 bc be
       0.25864175 0.29441184 -0.3492975 -0.3681866
000030 9a f0 9a be 0a da 89 be 0c 9f 89 be 52 a6 c6 3e
       -0.3026169 -0.26924163 -0.26879156 0.38798767
000040 fc 6c ba 3e da 97 b5 3e 78 71 b2 3e a7 07 91 3e
       0.36411273 0.35467416 0.34852195 0.2832615
000050 18 e5 ae 3e 3b 53 a8 3e bc c6 81 3e eb f9 a5 be
       0.3415916 0.32876 0.25346935 -0.32417235
000060 64 81 a9 be 79 40 a7 be d5 ea 87 be b4 cb 87 be
       -0.3310653 -0.32666376 -0.2654635 -0.265226
000070 ea 1c a8 3e 60 5d bc 3e cf 15 96 be ac 12 79 be
       0.3283456 0.3678999 -0.29313514 -0.24323529
000080 67 bc 94 be 88 7f 95 3e bb af 95 be a3 df a8 3e
       -0.2904999 0.2919886 -0.29235634 0.3298312
000090 37 d5 a6 3e 75 b5 ae 3e ba 32 d1 be fe e7 81 3e
       0.32584545 0.34122816 -0.40859014 0.25372308
0000a0 9b 70 96 3e 40 cf 94 be 28 5a 67 3e 9e 71 b8 be
       0.29382786 -0.2906437 0.22592986 -0.36024183
0000b0 9c c6 7a be 68 68 90 be 33 2e 81 be 95 b7 76 be
       -0.24489826 -0.28204656 -0.2523056 -0.24093468
0000c0 e2 ef a8 3e 26 ef 91 be f3 fd 92 3e 4e 65 99 3e
       0.32995516 -0.28502768 0.28709373 0.29960102
0000d0 c0 93 73 3e 06 c2 97 3e a1 cd b9 be 5e c0 ab be
       0.23786831 0.29640216 -0.36289695 -0.33545202
0000e0 86 04 92 be a1 d0 9b be 51 4d ad be e9 aa 85 be
       -0.28519076 -0.3043261 -0.3384805 -0.26106957
0000f0 6b 3d a4 3e 8c 5a 7f be 90 2b c4 be 45 22 ab be
       0.32078108 -0.24936885 -0.38314486 -0.33424583

critic.linears.0.weight f4 [64, 16]
000000 5e 67 8b bd 81 15 ea bb ab bc 47 bd 36 31 9b 3e
       -0.06806825 -0.0071436767 -0.048763912 0.30310982
000010 0c 45 5c bd db 4e 30 3e 4a aa 15 3e 0b 45 33 3e
       -0.053776786 0.17217581 0.14615741 0.17506807
000020 63 37 7f 3d 88 ef 90 bc 81 63 45 3d 3b 96 b3 bd
       0.06230868 -0.017692342 0.048190597 -0.087688886
000030 50 45 34 be 82 42 09 bd 77 ec d8 bd 28 1f 4a be
       -0.17604566 -0.033510692 -0.10591977 -0.19738448
000040 66 74 14 bb cb f2 54 be 70 33 d7 bd ad 57 49 3e
       -0.0022652387 -0.20795743 -0.10507858 0.19662352
000050 1a 87 57 be e2 a7 36 be 2f 3c a3 bc 21 cc 7a bd
       -0.21047631 -0.1783748 -0.019926159 -0.06122983
000060 7c df ed 3d 8a da 85 bd 88 b1 10 3e d0 54 58 be
       0.11614892 -0.06535824 0.14130223 -0.21126103
000070 92 e0 52 bd 6f 29 54 be f2 bf 3e 3e fc 6a 14 be
       -0.0514837 -0.2071893 0.18627909 -0.14493936
000080 3b f0 d7 3d 2e c8 05 3d 44 de e7 3e 27 95 08 be
       0.10543867 0.03266161 0.45286763 -0.13338147
000090 58 14 2e be 45 d7 03 bc 2a 28 36 be 89 35 60 be
       -0.16999948 -0.00804693 -0.17788759 -0.21895422
0000a0 38 78 02 be 95 ab 8c 3c 31 59 f5 3b 99 38 fa 3a
       -0.12741172 0.01717166 0.007487439 0.0019090354
0000b0 ca e8 92 bd 52 19 24 3e 39 f5 9a bd 02 47 01 3e
       -0.07173307 0.16025284 -0.07566304 0.12624744
0000c0 c1 63 5d bd ff 78 c0 3d 0c 46 0c 3d e2 a1 ed bd
       -0.05405021 0.09398078 0.03424649 -0.11603142
0000d0 57 ba 44 be ba 27 03 3e f9 f3 59 3d 55 98 42 be
       -0.19211708 0.12808123 0.053211186 -0.19003423
0000e0 f8 b8 26 be 34 c9 49 be 60 dd f1 3b e0 c9 3a 3e
       -0.16281497 -0.19705659 0.0073811263 0.18241072
0000f0 78 9c 07 3d 83 01 5b 3d b5 2c 33 be 6b 11 19 3e
       0.033108205 0.05346824 -0.17497523 0.1494805
000100 f3 ce 89 bd ee 3a 2e be cf 71 b7 3d 60 27 eb 3b
       -0.067289256 -0.17014667 0.08957254 0.0071763247
000110 3e 6a 17 3d 35 95 51 bd f4 d3 03 3e 2b 81 73 be
       0.036966555 -0.051167686 0.12873822 -0.23779742
000120 4e c8 88 3d 95 55 7c be 38 1f 4a 3e c5 d3 69 be
       0.0667883 -0.24642022 0.19738472 -0.2283469
000130 84 40 5e 3e d6 27 08 3d 54 f2 20 bd 39 dc 7f 3e
       0.21704298 0.033241116 -0.039293602 0.24986352
000140 9b 1a 00 3c 9b db 2e 3e 0e 8d 0c bc b0 8b cc be
       0.007818843 0.1707596 -0.008578552 -0.39950323
000150 c3 e0 12 be 9b ef 5b be 05 26 5f be 1c f5 2f be
       -0.14343552 -0.21478121 -0.21791847 -0.17183346
000160 bf 4c 0f 3e af 84 4b bd cb c3 13 be b5 f8 60 be
       0.1399412 -0.049687084 -0.14430158 -0.21969874
000170 23 62 72 bd 0c 73 b2 bd b6 d6 52 bd 7d 4a bf 3b
       -0.05917562 -0.0871335 -0.051474296 0.005837737
000180 d7 f6 8a be 4c e8 ea 3d d3 ad 98 be 37 3e 26 3e
       -0.2714145 0.11470088 -0.29820117 0.1623467
000190 c8 ef 13 be f6 f4 25 bd e3 fc 8e be 88 7d 17 be
       -0.14446938 -0.040516816 -0.27927312 -0.1479398
0001a0 96 6a 92 3e c4 43 db bd cd f4 58 3d 97 37 af 3d
       0.28596944 -0.10706285 0.052967835 0.08555525
0001b0 04 a3 11 be 2c 7e 88 3d a6 30 1d 3d 73 07 5a 3d
       -0.14222342 0.066646904 0.038376473 0.05322976
0001c0 72 2f 64 3e 8d 2a e1 bc 30 a7 db 3e 65 b5 84 be
       0.22283724 -0.02748611 0.4290099 -0.25919643
0001d0 55 8c 15 3e 93 85 5a 3c 75 3e 6b be 9a 8a 2d be
       0.14604314 0.013337511 -0.22973044 -0.16947404
0001e0 91 06 30 3e 02 67 f6 bd 1a 9b 18 3e 2c 6d 8d be
       0.17190005 -0.12031366 0.14902917 -0.27622354
0001f0 ba bf 41 be 04 5f fe 3d 33 5f f9 3d a9 10 4b be
       -0.18920794 0.124204665 0.12176361 -0.19830574
000200 49 3f 1e 3c 4a 75 d2 3d c3 f1 d7 3c a0 1c 9f be
       0.009658643 0.10276277 0.026360398 -0.31076527
000210 5d 7a 3d 3e d5 16 0c 3e 58 f2 7f 3e 62 17 9c 3d
       0.18503709 0.13680585 0.2499479 0.076216474
000220 f4 4f 52 3e 5d 3b 78 be a9 fc 08 bd e1 fe 88 3d
       0.20538312 -0.24241395 -0.03344408 0.06689239
000230 74 a1 01 be 18 0c 0d be 3b 37 c6 bc e7 11 75 bc
       -0.12659246 -0.13774145 -0.024196258 -0.0149578815
000240 f3 18 28 3e fc f3 6a bd cd f6 5c 3e 38 bb 01 be
       0.16415767 -0.057361588 0.21578522 -0.12669075
000250 d3 c9 64 bd f0 15 10 3e 9c 5a 5d 3e 4f 5a 5f be
       -0.055856537 0.14070868 0.21616596 -0.21811794
000260 0e c5 08 3e 39 7b 5e 3d de b2 32 3e b6 7b bf 3d
       0.1335642 0.054316733 0.17451045 0.09349768
000270 1e 56 1c bc b5 95 44 3e 5a 86 c1 bd b7 9c 50 3c
       -0.009542016 0.19197734 -0.09449454 0.012732676
000280 7a 6f 35 be 89 b8 ec bb 53 b4 2e be f5 da e0 bd
       -0.17718306 -0.0072241467 -0.17060976 -0.10979263
000290 af d6 15 bd ca 27 4b 3e 32 e1 81 3a 7b 9b 22 bb
       -0.03658169 0.19839397 0.0009909032 -0.0024811912
0002a0 c0 0d e7 3d 5e c7 a6 3d 2f ce 80 be 5c b7 2a be
       0.112819195 0.08143495 -0.25157306 -0.16671509
0002b0 97 b6 76 3d 6f 91 42 be d1 db 33 3e f1 01 2c 3e
       0.060232725 -0.19000791 0.17564322 0.16797616
0002c0 a4 0e 09 be 36 9a c6 3d a3 4f ce bb 15 12 b9 3e
       -0.13384491 0.09697382 -0.0062961145 0.36146608
0002d0 cc f7 d6 bd 7c b7 42 be 6b a5 ca bd af 2e e1 3d
       -0.10496482 -0.19015306 -0.09894832 0.10995232
0002e0 0b 5c c6 3d 1d 64 9c 3c 13 1d 9b bd fd 2c 99 3b
       0.096855246 0.019090706 -0.07573905 0.0046745525
0002f0 b3 a6 28 3d 4d e5 15 be c1 bb 58 be ae ae 91 be
       0.0411746 -0.14638253 -0.21165372 -0.28453583
000300 81 d1 d2 3c e0 3f 1e be 69 9d 1d 3d 5a 0e 28 3e
       0.025734665 -0.15454054 0.038480196 0.16411725
000310 a4 24 07 be f4 be 28 be fe 4e 40 3d ba 5e 03 3e
       -0.13197571 -0.16479093 0.046950333 0.12829104
000320 4f c7 3f 3e 7f 36 52 3c 11 b7 2a 3d 28 26 a7 bd
       0.18728374 0.012830376 0.041678492 -0.081615746
000330 77 70 ff 3d 49 5b 81 be 33 af 49 bb 2c 43 30 3e
       0.12472623 -0.25264958 -0.0030774593 0.17213124
000340 ac 75 b3 3d cf 84 36 3e 6e 19 e2 3e 70 01 7f be
       0.087626785 0.178241 0.44160026 -0.24902892
000350 20 34 06 3c a2 76 3b 3d ee fc 17 3e 4b 59 3d 3e
       0.0081911385 0.045767434 0.14842579 0.18491094
000360 7f 50 65 3e bb 3f 72 3e a6 ff 41 be 7b 1b a1 3d
       0.22393988 0.23657124 -0.18945178 0.078665696
000370 c2 95 3e be f2 c5 cc 3c 47 b1 27 be 98 ec 71 be
       -0.18611816 0.024996731 -0.1637622 -0.2362541
000380 2a a8 38 be 31 43 27 be 45 c4 03 bd 06 ef 5f bd
       -0.180329 -0.16334225 -0.0321696 -0.05467131
000390 59 d7 f9 3d c9 c6 cf 3d fa 67 89 bd eb b1 43 3e
       0.121992774 0.10145337 -0.06709285 0.19110839
0003a0 97 23 ab bd 94 0c 9f 3d 47 07 26 be 39 81 e6 3d
       -0.083563976 0.07766071 -0.16213714 0.11255116
0003b0 eb 2b 3f 3e 70 6c 44 bd ab c4 2b bc 39 5d f8 bd
       0.18669097 -0.047954977 -0.010483901 -0.12127156
0003c0 0a 09 29 3e 8a eb 04 3e f2 08 f9 3d cf 77 84 be
       0.16507354 0.12980476 0.12159909 -0.25872657
0003d0 16 f6 05 be 62 9b 02 3e f8 c1 08 3e 3e 70 4b be
       -0.13082156 0.12754586 0.13355243 -0.19867036
0003e0 cc db bd bb 7c 49 1c be f7 af 1b 3e 65 68 37 bd
       -0.005794024 -0.15262407 0.15203844 -0.044777293
0003f0 a4 0d 48 3e 3d 71 c7 3c a5 d5 e2 bd 7a c2 2e be
       0.19536453 0.024345988 -0.11075906 -0.17066374

critic.linears.0.bias f4 [64]
000000 ef f9 da bc 59 f7 69 bd 61 ab 3f 3e 47 fd 30 3e
       -0.026730506 -0.057120655 0.1871772 0.17284118
000010 8a c9 0d be 8f 0f b7 bb b3 22 bc 3c 4a 25 00 3e
       -0.13846412 -0.0055865715 0.022965765 0.12514225
000020 05 7d 7a 3e 70 e3 7a bd b3 dc cc bd 03 68 c3 bd
       0.24461754 -0.061252058 -0.100030325 -0.09541323
000030 7b 4a 4a 3e 0c d2 b7 3c ce 6f 4f 3d 74 02 cf 3c
       0.19754975 0.022439025 0.050643735 0.025269724
000040 e5 51 e3 bc 8d 52 59 3d b8 59 e9 bc 31 8f 0e be
       -0.027749011 0.053057242 -0.028485164 -0.1392181
000050 03 f5 a1 3d cf 57 f2 3d db 90 33 be 95 a2 38 be
       0.079080604 0.118331544 -0.17535727 -0.1803077
000060 78 3f aa 3d 43 a2 9f 3c 1e 76 80 be 49 c9 9b bc
       0.08312887 0.019486552 -0.25090116 -0.019016879
000070 fa e1 61 bd 5d 52 9a 3d 75 1f 3c be 65 3b 03 3e
       -0.05514715 0.07535241 -0.18371375 0.12815626
000080 e4 6f 7d bd df 95 62 be 57 5d 32 be 6e 1c 07 3d
       -0.061874285 -0.22127484 -0.17418419 0.032986097
000090 29 a1 0b bd 31 7a 40 bd 6d aa 17 3e 63 0d 41 be
       -0.03408924 -0.04699153 0.14811106 -0.18852763
0000a0 b1 b2 08 3e ec e1 2d 3e db c6 10 3d 7e c6 9c bd
       0.13349415 0.16980714 0.035345893 -0.07655047
0000b0 f0 e0 ac 3d df 1f 44 be 25 2e 12 be 0a e9 97 bd
       0.08441341 -0.19152783 -0.14275415 -0.074174955
0000c0 d8 0c 08 3d 60 87 d5 3d 8d a3 4c 3e cf 1e 57 3d
       0.033215374 0.10426211 0.19984265 0.052519616
0000d0 e0 3d c2 bb 43 67 67 3c 38 94 4d be c1 c6 f0 3d
       -0.005927786 0.014123741 -0.20076072 0.11756659
0000e0 55 35 0f 3e 3d b7 58 3e 5e 86 12 3d ad d1 de 3d
       0.13985188 0.2116365 0.035772674 0.10879836
0000f0 77 0d 40 3e d1 1f f2 bd 2f 0e 04 be 27 67 76 bd
       0.18755136 -0.11822475 -0.12896036 -0.060156967

critic.linears.1.weight f4 [64, 64]
000000 e2 17 16 bf 70 21 cb bd 91 8b 3c 3e 37 c2 5b 3d
       -0.5863019 -0.09918487 0.18412615 0.053652015
000010 f0 ea 74 bd a2 22 6e 3e 15 6b 7f bd 64 ef 0c 3e
       -0.059794366 0.23255399 -0.06235798 0.13763195
000020 e6 e0 d1 3e ef 5d ca bc 9a 9e d9 bd 7e 1b 76 3c
       0.40991896 -0.024702994 -0.10625954 0.015021203
000030 de 2a 23 bd 94 f7 f5 3e 15 00 f5 bd 3e 43 e3 3c
       -0.039835803 0.4804045 -0.11962906 0.027742025
000040 57 f0 10 be 33 77 19 bd cb d4 ac bd 75 23 b9 be
       -0.14154182 -0.037467193 -0.084390245 -0.36159864
000050 66 a8 9c bd 14 69 80 bd dc 80 3b 3d 2a 1e 20 3d
       -0.07649307 -0.06270042 0.045777187 0.039091267
000060 a5 55 83 bd b7 40 ea 3e 5b d9 47 bf fa 4a 0c 3e
       -0.0641282 0.45752499 -0.78066033 0.13700476
000070 7b 10 05 be 85 1e 4f bd d2 54 97 be e2 45 92 3e
       -0.12994568 -0.050566215 -0.295569 0.2856894
000080 69 63 aa 3d 54 27 55 3e e5 31 9f bc 99 e5 2b be
       0.08319742 0.20815784 -0.019432971 -0.16786803
000090 fa 9c b7 3e e8 d9 55 be 24 45 3d 3e 15 2d 9b be
       0.3586195 -0.20883906 0.18483406 -0.30307832
0000a0 31 f7 80 be 23 6f e7 3d 32 48 4d be 32 18 bf bd
       -0.25188592 0.113004945 -0.20047072 -0.09330787
0000b0 e8 2d b5 bc 07 e1 a0 bc 04 7c a3 3e c7 b7 01 3e
       -0.022116616 -0.019638551 0.31930554 0.12667762
0000c0 a8 1b 0b 3e a7 b7 97 3e 86 15 42 3d 1e 03 fd 3d
       0.13584769 0.29632303 0.047383808 0.1235411
0000d0 6a 7b 22 3f 6d fb 2e bd ea d2 87 3d 1f 04 52 3e
       0.63469565 -0.042720247 0.066320255 0.20509385
0000e0 b3 c4 33 be 48 d0 d2 be 31 9e 9c 3d d4 d9 e7 3d
       -0.17555504 -0.4117453 0.0764736 0.11320844
0000f0 5e 93 f0 3d f8 98 10 be 3c 50 85 be f4 93 cd be
       0.11746858 -0.14120853 -0.26037776 -0.40151942
000100 61 bf e5 3c 0b fc 3c bd d6 dc b9 3d f5 a2 d2 bd
       0.028045358 -0.046138804 0.09075324 -0.10284988
000110 98 ac b5 3d b5 5c ae bd 7e 41 7e bd 2e 0c 93 bd
       0.0887081 -0.08513776 -0.062074177 -0.071800575
000120 95 1c 9c 3d 7a 15 99 3c f2 07 51 3d f7 2b 44 3c
       0.07622639 0.018686999 0.051032968 0.011973373
000130 18 c9 7d bd 33 a8 52 3d 0a b6 9b 3d af 2e 8e 3d
       -0.061959356 0.05142994 0.076030806 0.06942498
000140 0d d4 1d bd 39 aa ea bc 51 00 e3 bd 41 4c 00 3e
       -0.038532306 -0.028645622 -0.11084045 0.12529089
000150 be 0b eb 3d d9 bc 42 bd 7b aa 26 bc 4d 42 e6 bd
       0.11476849 -0.04754338 -0.010172482 -0.112431146
000160 fe 47 26 bd a0 cc ab 3d e4 70 7c bc f6 68 da 3b
       -0.040596 0.083886385 -0.015407775 0.0066653444
000170 51 bd b6 bd 0a 9c 71 3c f8 a8 e0 bc 91 78 fc bd
       -0.08922828 0.014746675 -0.02742432 -0.12327684
000180 11 b6 2c bc e8 61 9a 3d 48 33 04 be ca ca 78 bb
       -0.010541455 0.075382054 -0.12910187 -0.0037962669
000190 f6 98 ad 3c a1 29 0c bd 2c ad d2 3d 27 3b e2 bc
       0.021191102 -0.034219388 0.10286936 -0.027616097
0001a0 57 7a 16 bd 97 c3 c6 bc 07 ca 12 3e 40 91 90 3d
       -0.036737766 -0.024263186 0.1433488 0.07058954
0001b0 be 6a c3 3d da 2e 0c be d8 fe 0a bd 1b 77 92 bd
       0.09541844 -0.13689747 -0.033934444 -0.07151624
0001c0 a9 32 43 3d 0f 62 c3 bd db 3f 4a bd a1 9b d0 bd
       0.047655735 -0.095401876 -0.049377304 -0.10185934
0001d0 89 d7 8c 3d fd d9 5d bb 6c 20 51 3c 59 9c a2 3c
       0.068770476 -0.0033851855 0.012764078 0.019849943
0001e0 ad 99 84 bd f8 48 cb 3d f3 bb 02 bd e3 5f 99 bd
       -0.06474624 0.09926027 -0.031917524 -0.07488992
0001f0 38 64 fa 3b 8b 76 c1 bd 3f 10 95 3d f4 d0 9e bd
       0.0076413415 -0.094464384 0.07278489 -0.077546984
000200 4a aa 69 be e4 ab 9a bd 71 2c 76 3d 1d 27 fd 3d
       -0.22818866 -0.07552317 0.060100976 0.12360976
000210 28 03 4c bd 6d fd 0a 3e 1c b0 c2 3d c8 fb 0a 3e
       -0.049807698 0.13573237 0.095062464 0.1357261
000220 f0 1b 39 3c 46 74 a1 3d f7 bc 0e 3d 2b 72 0f bd
       0.011298165 0.078835055 0.03484818 -0.03502099
000230 09 47 f0 3d aa 2e fc bc 06 47 8f 3c 9b 59 a3 3d
       0.11732299 -0.03078397 0.017489921 0.07976075
000240 73 22 e8 bd 9b 4b ca 3d bf 01 c3 bd ca 77 21 be
       -0.11334696 0.09877702 -0.095218174 -0.15768352
000250 59 b3 39 bd cb af b9 bd 3e 20 87 3d f4 8a d6 bd
       -0.045337055 -0.09066733 0.065979466 -0.10475722
000260 4e 44 b9 3d 1d 58 0e 3e 72 46 07 be cc 43 1c be
       0.09046231 0.139008 -0.13210467 -0.15260237
000270 6b 4a 00 3d 69 43 8d bd dc 28 0f be 0f 3d d0 bd
       0.03132097 -0.06897623 -0.1398043 -0.10167896
000280 fb bb 83 bd 0e 59 10 3e 2c e9 dd bc c5 4d 87 bd
       -0.06432339 0.14096472 -0.027088724 -0.0660663
000290 6c bf bc bd 71 24 17 be d4 9b ad bd fa 9b 25 bd
       -0.09216198 -0.14759995 -0.084769875 -0.040431954
0002a0 fa b7 bd 3d df 08 ed bd e6 4d df bd a1 4a d6 3d
       0.09263606 -0.11573958 -0.1090353 0.10463453
0002b0 a8 93 de 3c 8f 8c 0d bd 0f 5b a1 ba 07 c7 4f 3c
       0.027170017 -0.034557875 -0.0012310463 0.012681729
0002c0 d6 78 a2 3d 4b a0 dd 3d f5 8f e1 bd fe c0 a9 3c
       0.07933204 0.10821589 -0.11013786 0.020721909
0002d0 c1 db 8e 3e e7 d4 f6 3d a4 c9 d3 bd 06 0f e0 bd
       0.27902034 0.12052327 -0.10341194 -0.109403655
0002e0 3b 06 cc bd 39 a1 b8 bd 70 92 64 3c a7 16 50 bd
       -0.09962126 -0.09015126 0.013950929 -0.050802853
0002f0 c0 36 cf 3d 2b 8c 29 3d fe 69 24 3d ff d1 2e be
       0.101178646 0.04139344 0.040140145 -0.17072295
000300 f5 a4 32 bc 88 46 9f 3c a1 c3 af bd 00 38 a0 3c
       -0.010903587 0.019442812 -0.08582235 0.019557953
000310 b4 3d b9 3d fd 93 cf bc 2d 34 02 3d d6 4d f9 3c
       0.09044972 -0.025339121 0.03178804 0.030432623
000320 4d a3 19 3e 3e 10 de 3d 42 95 4c bd 1e 2c d7 3c
       0.150037 0.10842942 -0.04994703 0.026266154
000330 8b 8b da bd 07 b3 ac bc 07 d6 54 bd 7b e0 f1 bd
       -0.10671147 -0.02108146 -0.051961925 -0.118103944
000340 28 d7 74 bd 1e 07 ad bd b7 41 03 be f9 c9 0a 3e
       -0.0597755 -0.08448623 -0.12818037 0.13553609
000350 24 d6 e3 3d 06 08 5f 3d 26 a5 23 be 75 78 7d bd
       0.111248285 0.05445101 -0.15980968 -0.061882455
000360 69 bd 95 bd 86 c7 d1 bd c0 c4 10 3e 38 c2 46 3d
       -0.07311518 -0.10243134 0.14137554 0.048525065
000370 68 1b e7 bd 40 58 06 bc f2 37 18 3e 9f a5 6c bd
       -0.11284524 -0.008199751 0.14865091 -0.057775136
000380 a8 d8 d3 3d bb 49 c3 3d 3a 8e 4c 3d f0 64 8a 3c
       0.10344058 0.09535547 0.049940325 0.016893834
000390 ba 39 08 be 15 f7 65 bd 74 77 ac bb ef 15 a8 bd
       -0.13303271 -0.05614384 -0.0052632634 -0.082073085
0003a0 e9 6c 05 bd d4 b9 e8 bd d6 6c 1b 3e 23 7e 62 3d
       -0.032574568 -0.11363569 0.15178236 0.055296075
0003b0 25 b9 be bc 08 02 18 bd c8 6e 36 3c d2 48 6a bd
       -0.023281643 -0.037111312 0.011134811 -0.057198353
0003c0 97 b3 ba bd f4 27 84 bd 55 b8 cb bc 76 f3 61 bd
       -0.09116285 -0.06452933 -0.02486817 -0.055163823
0003d0 71 c4 b2 3d 02 e2 06 3c 6f 38 07 3d 81 3c ac 3b
       0.087288745 0.008232595 0.033012804 0.005256236
0003e0 6b b3 fc 39 cc c7 42 3e 09 70 f4 3d 22 dc fa 3d
       0.00048198862 0.19021529 0.119354315 0.12249018
0003f0 91 3f 52 3d d6 b9 90 3d 97 25 8a bd 71 d3 06 3e
       0.051330153 0.070666954 -0.06745451 0.13166596
