trained_network/SD2/same4-3.pth (torch, 60623 bytes, 26 tensors)

feature_exact.j_encoder.linears.0.weight f4 [8, 14]
000000 7c 61 a7 bd 62 3d 15 3e 3b a6 0c be 1b db 1c 3e
       -0.081728905 0.14574197 -0.13735287 0.15317957
000010 dc 24 b5 3c 98 fe bc 3d 5e 2b 94 be c6 82 4a 3e
       0.022112302 0.092282474 -0.28939337 0.19776449
000020 4a 20 88 3e b2 08 61 3e 69 fc 33 bc 65 d6 24 bd
       0.26587135 0.21975973 -0.010985472 -0.040243525
000030 b4 a3 1d bb 91 a8 bb be 33 e5 a4 3b dc 2a 6b 3e
       -0.0024053873 -0.36652043 0.0050322055 0.22965568
000040 db ad f9 3c a0 b1 a7 be b5 9c ff 3c 9a 1c 91 3d
       0.030478409 -0.32752705 0.031202653 0.070855334
000050 38 e5 c7 bd ad ce bb 3d 01 aa 83 3e 1f 59 9a be
       -0.09760517 0.0917028 0.2571564 -0.3014612
000060 9e 0f 15 3e 1d a7 58 be bb c1 9d 3e f5 4c 67 be
       0.14556739 -0.21157499 0.30811867 -0.2258795
000070 59 28 6c 3e 56 d3 11 3e 6b 86 50 be e5 6a 8d be
       0.23062266 0.14240775 -0.20363776 -0.27620617
000080 e6 45 07 bd 66 f8 c2 bd 14 09 51 3e 0b 85 33 be
       -0.033025645 -0.095200345 0.2041362 -0.1753122
000090 a0 17 0c be 27 1c 34 3d c0 3c 1f 3d 37 20 40 bd
       -0.13680887 0.04397216 0.038876295 -0.046905722
0000a0 fd b3 38 bd 92 27 72 3e 41 c9 2a be 0b 2b 9e 3e
       -0.045093525 0.23647907 -0.16678335 0.30892214
0000b0 31 90 5d 3e 1e 70 e8 bd e5 77 fe 3d 0a da 9a 3e
       0.21637036 -0.1134951 0.12425212 0.30244476
0000c0 a9 18 32 be 64 b4 d9 be 81 62 86 be bb 3c 0a 3e
       -0.1739222 -0.4252044 -0.26247028 0.1349973
0000d0 e3 09 49 be 92 6f 29 3d cd a6 be be fe c5 a5 3e
       -0.19632678 0.041366167 -0.37236634 0.3237762
0000e0 e6 1a 0b 3e b9 25 67 bd 32 0d 29 be a3 a8 d9 bb
       0.1358448 -0.05643246 -0.1650894 -0.0066424175
0000f0 53 43 18 bd 2f c3 d6 bd 00 30 01 be ef f3 14 3c
       -0.03717358 -0.10486447 -0.12615967 0.009091361
000100 71 8e 29 3e 1a 23 0c 3e 43 13 72 3d 78 aa ac bd
       0.16558243 0.13685265 0.0591004 -0.08430952
000110 04 ce 17 3e 63 a2 42 3e d5 aa 46 3d f5 5d 70 be
       0.14824682 0.19007258 0.048502762 -0.23473342
000120 96 01 1a bc b6 9e 48 3c 84 6f 59 3e c4 8f fc bd
       -0.009399792 0.012244871 0.21233946 -0.123321086
000130 09 ec 91 be 57 45 64 3e 5e b1 e0 3d 56 cc 55 bd
       -0.28500393 0.22292076 0.1097133 -0.052196823
000140 85 38 4c be 10 31 97 bc 0d 28 b2 3d 53 7d 15 3e
       -0.19943435 -0.018456012 0.08699045 0.14598589
000150 10 20 34 bd 9f e5 3d 3e 4a 79 37 3d f3 37 a4 bd
       -0.04397589 0.18544625 0.044793405 -0.08018484
000160 0c 32 3d 3e 62 07 fb bd 98 0e 7a be 0d f7 7b 3d
       0.18476123 -0.122572675 -0.2441963 0.061514903
000170 e9 60 db bd 47 71 90 3d 53 60 9d bd d4 a5 44 3e
       -0.107118435 0.07052856 -0.07684388 0.19203883
000180 2f ed c7 3c 2d 6e 15 be 76 76 1e be ba 31 90 bb
       0.02440509 -0.1459281 -0.15474877 -0.004400459
000190 e9 16 88 3e 58 bb 1f 3e cb 6f 30 be 30 90 e5 3b
       0.2657998 0.1559881 -0.17230146 0.007005714
0001a0 08 7a 43 3e ad 81 49 be e8 32 e6 3c 33 ac 8b 3d
       0.1908952 -0.19678374 0.028100446 0.06819954
0001b0 05 93 12 3e 9d 9b 00 3e 09 c7 82 be d0 7c 3c be
       0.14313896 0.12559362 -0.25542477 -0.18406987

feature_exact.j_encoder.linears.0.bias f4 [8]
000000 dc 2f 55 be 33 ec 41 3c eb c2 a7 bd 84 04 cb bb
       -0.20819038 0.011836099 -0.081914745 -0.0061956067
000010 6a f7 85 be 97 2e 53 bd 6f 62 6c 3d 86 34 80 be
       -0.26165324 -0.051558103 0.05771106 -0.25040072

feature_exact.j_encoder.linears.1.weight f4 [8, 8]
000000 a4 4d 91 3d 24 15 07 be c2 89 b9 bc a6 09 a7 bd
       0.07094887 -0.13191658 -0.022648696 -0.08156137
000010 75 3f 26 bd fa 38 c6 3e 70 85 8b be 7c b4 af be
       -0.04058786 0.38715345 -0.27250242 -0.34317386
000020 db 63 7c 3e 91 79 b9 bd 1a b6 3f be c7 30 b6 3e
       0.24647467 -0.0905639 -0.1872181 0.3558409
000030 18 fe 3e bd ef 86 3d 3d f5 86 a3 3e fd 05 6d 3e
       -0.04662904 0.04627126 0.31938902 0.23146816
000040 ed 0c a3 3d 79 c8 18 bd 46 d2 5b be 61 38 80 bc
       0.0796145 -0.03730056 -0.21466932 -0.015651884
000050 a8 75 ce bd 72 b9 ee 3d 28 31 70 be f4 38 9e be
       -0.10081035 0.11656465 -0.23456252 -0.30902827
000060 26 d2 e1 bc 44 6c 82 3e 5c 63 fd bd 5d 52 6e be
       -0.027566027 0.25473225 -0.12372467 -0.23273607
000070 2a fe 94 be b8 37 c3 3c 17 3a 43 be b4 54 9f 3d
       -0.29100162 0.02383028 -0.19065128 0.07779828
000080 f3 43 83 3d a5 12 bb 3e ac 5d fe 3b 0e 61 a4 3e
       0.06409445 0.36537662 0.0077626314 0.32105297
000090 4b 1a 3f 3d 55 27 a8 3e e1 4f 2a bc e9 c0 93 3d
       0.046655934 0.32842508 -0.010395021 0.07214529
0000a0 85 6e 5f 3c 40 4d da 3a 58 7e 59 be 66 22 60 3e
       0.01363719 0.0016655102 -0.21239603 0.21888122
0000b0 f2 65 70 be ef 6e 4e be b2 52 86 bd 23 ca 61 be
       -0.23476389 -0.20159505 -0.06558742 -0.22049765
0000c0 65 43 fb 3c a5 64 88 be f9 e6 35 be a7 08 f1 bc
       0.030671785 -0.26639286 -0.1776389 -0.029423071
0000d0 05 af a6 3e 85 3c a5 be c1 6a d7 3d d2 80 1b 3e
       0.32555404 -0.32272735 0.105184086 0.1518586
0000e0 b3 62 88 3e df af 8b 3e 03 16 b1 3c f0 4f 87 3c
       0.26637802 0.27282616 0.021616941 0.01651761
0000f0 7f 99 84 3e 2b e1 20 3e 8a 0b f8 bd e2 58 41 bd
       0.25898358 0.15710895 -0.12111576 -0.047203906

feature_exact.j_encoder.linears.1.bias f4 [8]
000000 55 3d 42 be 02 4d 81 be b3 92 a9 3e 77 36 a1 be
       -0.18968709 -0.25254065 0.33119735 -0.31486866
000010 78 af 8b 3c 56 f7 0f bd 74 0d 02 3e cd 16 59 be
       0.017051443 -0.035147987 0.12700444 -0.21200104

feature_exact.j_encoder.linears.2.weight f4 [8, 8]
000000 ad c0 cd be ef ea b4 3d 79 8e a9 bc f3 47 42 3e
       -0.40186062 0.088338725 -0.02069782 0.18972759
000010 6a 0d 24 3e b4 73 4c be 4d 20 f6 bc d6 4b 33 3e
       0.16020742 -0.19966012 -0.0300447 0.17509398
000020 9a 92 db 3d 28 23 83 3e 1c da 95 3e b7 60 96 be
       0.107213214 0.2561276 0.29267967 -0.29370663
000030 04 45 40 bd 6a 1d 69 3e e7 be 7b be 46 c6 19 3e
       -0.04694082 0.22765127 -0.24584542 0.15017042
000040 dd 53 dc 3d 5d f2 f4 3d af 11 24 be 8e dc 9a 3e
       0.10758183 0.119602896 -0.16022371 0.30246395
000050 41 3a b4 3e e2 b8 d8 bd 49 fb 2a be 97 ad 07 3e
       0.35200694 -0.105821386 -0.1669742 0.13249813
000060 41 a1 ae 3d c8 91 dd be ee 5d 15 3e a4 ce 3f bd
       0.085268505 -0.43275285 0.14586613 -0.046827927
000070 e1 e7 b8 be b0 c4 ca 3d fb 4e b8 3e 6d 9a 99 be
       -0.3611441 0.099007964 0.35997757 -0.3000063
000080 30 72 7f bd b2 99 d9 3c 2e 5d 66 be df c8 98 be
       -0.062364757 0.026562545 -0.22496483 -0.29840752
000090 58 08 d9 bd 61 0c 6b be b6 2d 7a be 60 d4 8e be
       -0.105972946 -0.22953941 -0.244315 -0.27896404
0000a0 ef 29 dc 3d 8a cb a8 3e 90 f7 c0 bd 7b 89 a8 3e
       0.10750186 0.32967788 -0.09422219 0.3291739
0000b0 bc b9 3a 3e 93 f8 8c bc 7d 71 44 3e 53 fc 12 3d
       0.18234915 -0.017208373 0.19183917 0.035885166
0000c0 78 26 55 3d c2 30 a2 be 71 d5 15 be fb 43 98 bd
       0.05203864 -0.31677824 -0.14632203 -0.07434841
0000d0 bd fa 26 bd 24 44 86 be 26 a1 94 3e d3 b2 c3 be
       -0.040766466 -0.26223862 0.29029197 -0.3822237
0000e0 a3 7b 0d be 68 db cc bd 81 9d af 3e b8 ae 71 bd
       -0.13816695 -0.10002786 0.34299853 -0.059004515
0000f0 be c3 10 3e 4d 0c 80 3e bc b3 8d be c2 7a 49 3e
       0.1413717 0.25009385 -0.2767619 0.19675735

feature_exact.j_encoder.linears.2.bias f4 [8]
000000 38 d3 7d 3e b4 ac ec bc b1 18 dd bd f3 b7 ac 3c
       0.24787605 -0.028890945 -0.10795725 0.021083808
000010 e7 7c 92 be fc 3f ac be 08 0b 6d 3e 8e b7 8c be
       -0.28610918 -0.33642566 0.2314874 -0.2748379

feature_exact.m_encoder.linears.0.weight f4 [8, 8]
000000 68 70 ca be de 3b 65 3d b8 b9 56 3e 06 88 66 3e
       -0.39538884 0.055965297 0.20969284 0.22512826
000010 3b 55 2f be c7 e4 ba 3e 95 f3 83 be cf 37 3e 3e
       -0.17122357 0.36502668 -0.25771776 0.18575977
000020 bd 7f 22 3e 17 52 93 3d 9f e9 95 be 0f 70 94 be
       0.15869041 0.07193392 -0.292798 -0.28991744
000030 79 db 2e be eb 33 41 be bd 79 2e be a9 c3 73 be
       -0.1707591 -0.18867461 -0.17038627 -0.23805107
000040 ed f9 5f bc 85 60 92 3e 2b 40 87 3e a0 4e 9b be
       -0.013670427 0.28589264 0.26416144 -0.30333424
000050 58 35 96 be 1c 7a 89 be 38 b0 7c 3e 6b 3b 3b 3e
       -0.29337573 -0.26850975 0.24676597 0.18284385
000060 b7 5a 66 3e b7 3c cf 3c 26 b7 94 3e e9 e2 85 3e
       0.22495542 0.025297506 0.2904598 0.2614968
000070 3c 2a 22 3e 7c c7 8f bd c8 f3 14 3e c3 b5 16 3c
       0.15836424 -0.070204705 0.1454612 0.009198609
000080 0a cb 27 bc 01 75 8c be 3a af 6d bc a3 08 ad be
       -0.010241279 -0.27433017 -0.014507109 -0.33795652
000090 ac 32 6e be 07 62 54 3e f3 96 85 be c5 30 16 be
       -0.23261517 0.2074052 -0.26091728 -0.14667042
0000a0 89 db 66 3e 03 33 86 be 93 47 3a 3e 1a 07 af 3e
       0.22544684 -0.26210794 0.18191366 0.34185106
0000b0 74 3d 47 be 51 86 27 be 8c 45 9a be 30 b6 08 3e
       -0.19457036 -0.16359831 -0.30131185 0.13350749
0000c0 1f ac a6 be db 77 ae 3d d3 a8 ea bd 1c 4f f8 3d
       -0.32553193 0.08518954 -0.11457982 0.12124464
0000d0 6d 35 0b 3e 10 27 9e 3e df bc 7f bc 23 44 20 3e
       0.13594599 0.30889177 -0.015608995 0.15650992
0000e0 a6 47 8e 3e 93 d2 0e 3d 95 87 32 be 81 52 43 bd
       0.27789038 0.034868788 -0.17434533 -0.047686104
0000f0 97 42 83 bd e2 0e 67 3e 11 45 a0 be 54 15 6a 3d
       -0.064091854 0.22564271 -0.31302693 0.057149246

feature_exact.m_encoder.linears.0.bias f4 [8]
000000 91 a2 a6 bd 0e a1 44 3e ef 4f bd be 9e b1 68 3d
       -0.08136476 0.19202062 -0.36975047 0.056810014
000010 d5 8c 95 be 37 05 4f be 8a fe ae 3e 26 33 3a be
       -0.2920901 -0.20216833 0.34178573 -0.18183574

feature_exact.m_encoder.linears.1.weight f4 [8, 8]
000000 0f 9e f6 3d 65 c4 cf 3d f8 1d b3 ba aa aa 45 3e
       0.12041866 0.10144881 -0.0013665548 0.19303384
000010 20 16 a0 3d bd 7a bf 3e 1a dd 4c 3d 60 f3 ab be
       0.0781672 0.3739833 0.050015546 -0.33584118
000020 02 27 a1 3d 78 fa 13 3d 0a 98 44 3e 2b 4a ac 3e
       0.07868768 0.036127537 0.19198623 0.33650336
000030 82 2b 96 3d 2f f8 c3 3d 69 b2 37 be 31 2b 17 3d
       0.07332517 0.09568822 -0.17939152 0.036906425
000040 30 c6 c4 3d 8e d7 68 3e 65 49 ee bd 80 30 8e 3e
       0.09608114 0.22738478 -0.11635093 0.27771378
000050 b1 f6 fb 3d cf a2 e8 bc 80 8c a8 bd 4f ec fa bd
       0.12302912 -0.028397946 -0.08229923 -0.122521035
000060 5f 35 4e 3e 92 00 2b bd 58 cf f9 3c a8 1a 9a 3d
       0.20137547 -0.04174859 0.030494377 0.075246155
000070 f9 a2 7f bd a8 76 4d 3e 28 12 9d 3e 26 bc bb bd
       -0.062411282 0.20064795 0.30677915 -0.09166746
000080 59 b9 4b be 26 7d 1e be 2b ca b7 3e e9 ff 71 bd
       -0.19894923 -0.15477428 0.3589643 -0.059081946
000090 ab e0 ea bd f7 80 26 3d 43 df 8d be e4 ae da 3b
       -0.11468633 0.040650334 -0.27709398 0.0066736806
0000a0 7b dc 96 3e 65 86 f4 3d f2 4d a8 be 63 e7 8c 3e
       0.29465088 0.11939696 -0.32871968 0.27520284
0000b0 2f dc 05 be 50 b9 6c be c6 57 88 be 3a 5c b6 be
       -0.13072275 -0.23117566 -0.26629466 -0.35617238
0000c0 72 af d0 3e 5c 08 ba 3d 5a d3 93 3e 55 87 ad 3c
       0.40758854 0.09083626 0.28872186 0.021182695
0000d0 86 74 5d be b7 81 62 be f8 87 73 be 7b f5 69 3e
       -0.21626481 -0.22119795 -0.23782337 0.2284755
0000e0 4e 4d 70 be 5a d6 ea bd 69 44 7a 3e 96 c3 98 3e
       -0.2346699 -0.114666656 0.24440159 0.2983672
0000f0 85 48 17 3d 3e c9 93 be c0 8f 98 be 1e 10 92 3e
       0.036934394 -0.28864473 -0.29797173 0.2852792

feature_exact.m_encoder.linears.1.bias f4 [8]
000000 ce 7d fa 3d f5 2a 36 3c 39 fb 8f be 5a 49 e9 bd
       0.122310266 0.01111864 -0.28121355 -0.11390944
000010 7f 5a bd bd be e6 69 be f7 a4 8d 3d 9f 78 76 3e
       -0.092457764 -0.22841927 0.0691623 0.24069451

feature_exact.m_encoder.linears.2.weight f4 [8, 8]
000000 18 a7 0e 3e 0d 6c 82 3e 67 2c cb 3d 74 7b 60 3e
       0.13930929 0.2547306 0.099205784 0.21922094
000010 bc 7e 6d 3e ba 42 9d be b8 88 c3 bd 04 e1 8d be
       0.23192877 -0.3071497 -0.095475614 -0.27710736
000020 e2 c6 26 3e 90 23 42 bd ec 4c c3 be f6 8b 2b 3d
       0.16286805 -0.047397196 -0.38144624 0.041881524
000030 b5 bb 84 3e 8a d4 f1 bd e1 05 59 3d c6 a1 88 3e
       0.2592446 -0.11808117 0.052984122 0.26685923
000040 11 60 ab be b6 c4 99 bd c1 51 73 be f5 20 d7 3d
       -0.3347173 -0.07508223 -0.23761655 0.10504333
000050 2d 05 5a 3e 9d dd 1d 3e 8e d2 34 be 20 47 9c 3e
       0.21291037 0.1541657 -0.17658445 0.30523014
000060 86 40 e8 bc 43 cd 5d 3e 2f d3 11 3e 03 2a 30 bd
       -0.02835108 0.21660332 0.14240716 -0.043008815
000070 4a c2 94 bc 3a e2 ab 3d 4c 85 20 3d 2b 13 8a be
       -0.01815905 0.08392759 0.03918962 -0.2696775
000080 91 7a 79 bd 9b 93 3d bd 3d 48 38 be d4 c0 50 3e
       -0.060907904 -0.046283346 -0.17996307 0.20386058
000090 d9 7b 56 be 86 a0 05 be 1c 45 c8 bd 11 8f 5c 3e
       -0.20945682 -0.13049516 -0.097788066 0.2153895
0000a0 69 96 b1 be 69 31 8b be c4 0e d1 3d 4a 78 a0 be
       -0.34685066 -0.27186134 0.102078944 -0.31341773
0000b0 48 3a 6c be ae c7 2d be 4f 90 9c be 8f b6 3c 3d
       -0.23069108 -0.16970703 -0.3057885 0.04607254
0000c0 2c 86 1e 3e 0a 5c 44 be dc 60 7a 3e f5 4d 07 be
       0.1548087 -0.19175735 0.24451011 -0.13213332
0000d0 3b 00 86 be bb 11 a2 3e 81 e0 97 3d be 63 ee 3d
       -0.2617205 0.31654152 0.074158676 0.11640118
0000e0 87 d9 73 3d a7 87 54 be 1d 8d 4c 3e fb bb 29 3e
       0.059533622 -0.20754872 0.19975705 0.16575615
0000f0 2e d2 18 3e 7e 75 0b be 13 19 5c 3c fb 91 83 be
       0.14923927 -0.13619038 0.013433713 -0.25697312

feature_exact.m_encoder.linears.2.bias f4 [8]
000000 af 5e c9 bd ce da d1 bd ee 45 ab bd d2 89 6e bc
       -0.098325126 -0.10246812 -0.083629474 -0.014559226
000010 6a 44 03 be f0 ef 9e 3e 80 61 9e 3e e3 71 0e be
       -0.12819067 0.31042433 0.30933762 -0.13910632

feature_exact.j_ln.weight f4 [8]
000000 64 26 81 3f 8b ad 7e 3f 61 3f 8b 3f f1 07 8f 3f
       1.0089841 0.99483556 1.0878717 1.1174299
000010 09 e1 80 3f d3 80 80 3f 6c 20 84 3f f3 36 7e 3f
       1.0068675 1.0039314 1.0322394 0.99302596

feature_exact.j_ln.bias f4 [8]
000000 7e 9e b0 3b cc 78 df 3b e6 20 da bc a1 28 2a 3d
       0.0053899875 0.00681982 -0.026627015 0.041542653
000010 6b ed bc bb d7 af 10 bc 3a 2e cb 3c b0 09 49 3b
       -0.005765607 -0.008830986 0.024802316 0.003067594

feature_exact.m_ln.weight f4 [8]
000000 cf fb 7f 3f 69 51 7c 3f 07 35 81 3f 9e cf 7e 3f
       0.99993604 0.9856172 1.0094308 0.9953555
000010 0b af 7d 3f 46 df 7d 3f f9 52 7d 3f db 69 7f 3f
       0.9909522 0.99168813 0.9895473 0.997709

feature_exact.m_ln.bias f4 [8]
000000 c0 28 2e 3b 9b 54 5d 3c d7 e1 9f bb c8 4d f2 3b
       0.0026574582 0.013508941 -0.004879217 0.007394526
000010 3e de ea 3b 31 24 0f bc 4a 1e 44 bc 91 78 ce bb
       0.0071676066 -0.008736656 -0.011970112 -0.0063009937

actor.linears.0.weight f4 [64, 40]
000000 db 03 ba bc 04 60 23 3e c0 56 4a bd 14 d9 8a 3c
       -0.022706917 0.15954596 -0.049399137 0.016949214
000010 9a b6 39 3d 2b eb 42 3d c3 77 10 be 4c 9f d8 bc
       0.045340158 0.047587555 -0.14108185 -0.026443146
000020 1f a0 e4 3c 64 db 0b bd 51 66 30 be 95 df 18 3e
       0.027908383 -0.034144774 -0.1722653 0.1492904
000030 02 17 b2 3c cf 01 b9 bd 73 ea 93 3d f4 62 d7 3d
       0.021739487 -0.09033548 0.07222452 0.10516921
000040 b7 d1 b0 bd 02 0d e7 bd 54 f6 25 be 33 fc 21 3e
       -0.0863375 -0.11281778 -0.16207248 0.15818863
000050 de 2e 26 be a1 8b 5e 3d ed 8c 14 3e 90 31 cc 3c
       -0.16228816 0.05433238 0.14506884 0.024925977
000060 70 b5 cb bd ca 36 1d bb 6e 5f ca bd 39 97 44 be
       -0.09946716 -0.0023988956 -0.09881483 -0.19198312
000070 0f 17 d0 3d d7 8e bd bd 1b 54 b6 bc 73 bd ae 3d
       0.10160648 -0.0925576 -0.022256901 0.08532228
000080 75 a6 f1 3c a6 15 09 be f5 b7 e8 bd 84 95 d4 bd
       0.029498318 -0.13387164 -0.11363212 -0.1038008
000090 ec 4e 14 3d df 00 dc 3d 8d a4 16 be 71 40 d3 3d
       0.03620808 0.10742354 -0.14711209 0.103150256
0000a0 9d 20 1d bd 81 6a f9 bb b0 e2 de 3d 55 91 83 3d
       -0.03836118 -0.007611573 0.10883081 0.06424204
0000b0 7f ed b3 3d 51 a8 99 3d c9 54 77 3d 6a 33 b9 bc
       0.08785533 0.07502807 0.06038359 -0.022607524
0000c0 31 49 02 3e 1e c0 c5 3c ae 33 ba 3c 15 26 80 3d
       0.12723233 0.02413946 0.02272972 0.062572636
0000d0 1d f6 c5 bd c2 86 40 bd 4e 35 43 bd a9 bc ff bc
       -0.09666083 -0.047003515 -0.047658257 -0.03121789
0000e0 3b 94 2b 3e 78 42 83 3d a4 d9 90 3d 60 57 a7 bd
       0.16755764 0.06409162 0.07072762 -0.08170962
0000f0 f6 f8 86 bd 3b 2b 6f 3d 5b 34 e9 3b da 8b 64 3c
       -0.06590454 0.058390837 0.007116837 0.013949359
000100 9d 04 8c 3c 87 72 2e bd 52 29 1a be eb e4 07 be
       0.017092044 -0.04258969 -0.15054825 -0.13270919
000110 a2 8b e8 bd a9 b6 df bd ba 47 67 bd 06 23 18 bd
       -0.11354758 -0.109235115 -0.05646489 -0.037142776
000120 fd 92 56 bd 68 ea 51 be 07 f7 07 bd 5e 62 a7 3d
       -0.052386273 -0.20499575 -0.033194568 0.08173059
000130 b3 8e ac bd 3d 45 fe 3c f8 8c c8 bd 99 02 4b 3d
       -0.08425655 0.031038875 -0.09792513 0.049563024
000140 f1 58 c9 3d 89 09 95 3b 7f 5e f1 3d 25 b1 01 3d
       0.09831417 0.004548256 0.11785602 0.03166308
000150 c8 4b a9 bb 9e 3b 0e bd 1d b2 4b bd af b8 ae 3d
       -0.0051665045 -0.034724824 -0.04973041 0.08531319
000160 e2 08 00 be ef 38 0d be 6c c4 0e 3e f3 76 9e 3d
       -0.12503389 -0.1379125 0.13942116 0.077375315
000170 9d 1b 4e 3c 33 54 ab 3b bf f5 0b be 80 81 0a 3e
       0.012579826 0.005228543 -0.13667963 0.13525963
000180 40 08 b2 bd 0d 66 eb bd 35 bc 9d bd f1 85 07 3e
       -0.0869298 -0.11494074 -0.07701913 0.13234688
000190 42 ce 2d bd b2 19 03 bc 29 79 af 3d e2 0b 4c bd
       -0.04243303 -0.008001732 0.08568031 -0.04981602
0001a0 47 07 c1 bd 09 7d e0 bc a9 31 ab 3d c4 cb d3 3c
       -0.09425216 -0.027403371 0.08359081 0.025853999
0001b0 b6 11 c0 bd 88 b3 19 3e f4 c8 a1 3d 85 77 06 3e
       -0.09378378 0.15009892 0.07899657 0.1313153
0001c0 e4 05 ec bd 3e 1e cb 3b d3 b2 e5 3d a3 4b c0 b8
       -0.11524561 0.0061986735 0.11215749 -9.169362e-05
0001d0 91 d2 5a 3c 2a e3 36 3d 97 7f ee bd 54 ad b5 bd
       0.013355867 0.044650234 -0.116454296 -0.0887095
0001e0 e3 30 b5 3d 06 15 7f 3d fe 2e ed 3d f5 4e 97 bd
       0.08847215 0.06227591 0.11581229 -0.07388107
0001f0 53 00 41 bd 24 88 10 3d 55 42 2c bd 48 2f d9 bd
       -0.04711945 0.035286084 -0.042055447 -0.10604721
000200 69 cc 71 bb 24 6e dd 3d 7e af 1b 3e e1 4e 97 3c
       -0.003689552 0.10812023 0.15203664 0.01847023
000210 b6 9e b4 bd a6 49 30 3b 6c 69 c0 3b 41 e7 0b 3d
       -0.08819334 0.0026899367 0.0058719423 0.034156088
000220 33 ab a1 3a 73 da 20 be 66 12 fa bd eb 87 a6 bd
       0.0012334347 -0.15708332 -0.122105405 -0.08131393
000230 ed 89 eb bc 28 09 ed bd 40 02 c4 bd b3 23 c3 bc
       -0.028752292 -0.11574012 -0.09570742 -0.023820734
000240 2f 4f 0a bd cc fd 1e 3e 68 29 f5 3d 19 95 5a 3d
       -0.03376692 0.15526503 0.11970788 0.053364847
000250 0e 6b 7c 3d a8 15 c7 3c 10 8a 88 bd 80 0a e8 3d
       0.061625533 0.024302319 -0.06666958 0.11330128
000260 15 5c 0b 3e cf de 16 3e 4f 67 07 3d 51 12 ce bd
       0.13609345 0.14733432 0.033057507 -0.10062087
000270 e1 e3 08 be 61 71 23 3e d5 5d 99 3d 70 6e 24 3e
       -0.13368179 0.1596122 0.074886 0.16057754
000280 eb 1a 27 3d 37 af 82 3d b9 4c 12 bd 4d 76 16 3e
       0.040797155 0.06381076 -0.0357177 0.14693566
000290 f2 1b b7 3a b8 da 91 bc ab 9c da bd cb ee 3c 3d
       0.001397012 -0.017804489 -0.10674413 0.04612617
0002a0 3c b5 bf 3d a6 36 11 be 9e e6 df bc 37 88 9d 3d
       0.093607396 -0.14181003 -0.027331647 0.076919965
0002b0 99 ac dd 3d 4b f2 33 bd f2 fe d1 bd df 65 c6 3c
       0.10823936 -0.04393224 -0.10253705 0.024218498
0002c0 23 1f 91 bd 33 58 37 3c 1f e9 8b 3d 7c a7 b6 bd
       -0.07086017 0.011190462 0.06831574 -0.08918664
0002d0 f1 fa da 3d 96 f2 2d 3d 3a b7 aa 3a 8e b5 38 3d
       0.106923945 0.042467676 0.0013024576 0.04509502
0002e0 6c 35 30 be 22 cd 22 be a3 01 ac 3d bc 27 07 3c
       -0.17207879 -0.15898564 0.0839875 0.0082492195
0002f0 9a e5 e5 bd da 5a c1 3d 68 47 a6 bb 53 e6 07 be
       -0.11225434 0.09441157 -0.0050744303 -0.13271455
000300 04 39 e3 3d 96 86 31 3e f7 8f ba bd b5 e2 94 bc
       0.11094859 0.17336497 -0.0910949 -0.018174509
000310 1e b3 03 3e 53 8f 10 3e 88 e6 01 3e fb 68 0b be
       0.12861297 0.14117174 0.12685597 -0.13614266
000320 54 a4 44 3d f5 b0 31 3b ff 29 50 be 1d 5a ea 3b
       0.048008278 0.0027113531 -0.2032852 0.0071518556
000330 86 a4 dd 3d e0 19 37 3d a4 35 24 3e 50 be 55 bd
       0.10822396 0.04470241 0.16036087 -0.05218345
000340 4c ad c9 bd bd c3 0b 3e 18 c3 c6 3d b0 b6 de bd
       -0.09847507 0.13648887 0.0970518 -0.108746886
000350 3a 63 09 3e 0e 18 57 bc d0 71 90 bd a2 0c c8 3c
       0.13416758 -0.013128294 -0.07052958 0.024420086
000360 d1 73 5d 3d 7d 86 01 be 4b d9 da bd 63 f8 7a bc
       0.05406553 -0.1264896 -0.106859766 -0.015318009
000370 84 89 e7 bd 6a b6 72 3d a7 8a c1 bd 3a bd 56 3d
       -0.11305526 0.059255995 -0.09450274 0.052426554
000380 15 af a9 3d 87 8b e3 bc a7 fc 04 3e fa 7a 04 be
       0.08285347 -0.027776493 0.12987004 -0.12937537
000390 6b c0 ec 3c 42 ac e2 bd 53 f6 43 bd a0 92 62 bd
       0.028900346 -0.11068012 -0.047842335 -0.055315614
0003a0 ae d2 10 bd 82 a3 50 3e de a7 95 3d 5e 44 63 3a
       -0.03535717 0.20374873 0.07307409 0.00086695503
0003b0 85 c4 51 3d df e4 cb 3d 84 53 bf bd f7 ee f0 bd
       0.051212806 0.09955763 -0.09342101 -0.11764329
0003c0 29 46 ea bd 94 d8 f0 3d a1 04 96 bd 4e 4e d4 bd
       -0.11439163 0.11760059 -0.07325102 -0.10366498
0003d0 e1 4a 42 3d fe 7a ae 3d 07 b1 3b 3d b7 81 9c 3d
       0.04743469 0.08519553 0.045823123 0.07641929
0003e0 79 87 70 bd 2a 8f 2f be 46 f0 76 3d 9a 4e ac 3a
       -0.058722947 -0.17144457 0.060287736 0.0013145984
0003f0 e9 2a 68 bd de 7a b9 bc 66 88 08 be 12 63 f2 bd
       -0.056681547 -0.022641595 -0.13333282 -0.118353024

actor.linears.0.bias f4 [64]
000000 3e 16 66 3d 5e 3d 11 3e 22 b0 81 3d 92 da cc bd
       0.056173556 0.14183566 0.06332423 -0.100026265
000010 19 e3 04 3d 36 72 5c bd 5c df b6 bd 61 ff 50 bd
       0.03244314 -0.053819858 -0.08929321 -0.0510248
000020 50 bc 22 be 8a 55 c2 bd 51 2b c7 3d 52 51 ae bd
       -0.15892148 -0.094889715 0.09725059 -0.08511604
000030 d1 76 2c bb 18 3f 1a be f8 17 82 3c 21 bd 0c be
       -0.0026315937 -0.15063131 0.01588057 -0.13744022
000040 bc 4c 02 3e 35 90 19 be b3 b9 89 bd 28 ea 9e bd
       0.12724584 -0.14996417 -0.067248724 -0.077595055
000050 a6 11 1c bc 90 16 33 bb 95 5d e4 3d 9d ba 5b bd
       -0.009525692 -0.002732668 0.11150662 -0.053644765
000060 65 7b 22 3e db ac 9b bc 42 62 05 be a0 73 d6 bb
       0.15867384 -0.019003322 -0.13025764 -0.0065445453
000070 e0 c8 47 be 26 f2 ba 3d ba a2 0e 3e 18 86 06 3e
       -0.19510221 0.091282174 0.13929263 0.1313709
000080 e4 01 a1 bc c3 19 7d bc e4 8c d4 bd d9 8c 8c bd
       -0.019654222 -0.015448037 -0.10378435 -0.06862802
000090 b9 03 9d bd 4b ea ed bd 02 e7 e0 bd c2 da a4 3c
       -0.07666726 -0.116169535 -0.10981561 0.020123843
0000a0 6d 40 81 bd 85 ca e7 3d cd 62 29 be da 88 89 bd
       -0.06311116 0.113179244 -0.16541596 -0.067155555
0000b0 36 13 34 bc fc e9 22 3d 7e e8 cd 3d 4f f5 cf bd
       -0.010990908 0.039773926 0.1005411 -0.10154211
0000c0 d4 36 24 3e 61 37 25 bc 95 b8 0b be 32 67 b3 bd
       0.1603654 -0.010084004 -0.13644631 -0.08759917
0000d0 a3 1d 63 bd 02 7a 30 bc c5 0b a9 bd d1 57 c9 bc
       -0.055448186 -0.010771276 -0.08254198 -0.024578007
0000e0 0c b9 8c ba b5 27 8c bd 14 e3 10 3e 28 f8 74 bd
       -0.0010736301 -0.06843511 0.14149123 -0.059806973
0000f0 c7 21 9b 3d 58 8e 8e bd df 2f fc bd ff 84 bb 3d
       0.07574802 -0.06960744 -0.12313818 0.09156226

actor.linears.1.weight f4 [64, 64]
000000 2e c4 a3 bd e1 25 87 3d 6a 22 26 3d 31 52 7d 3d
       -0.07996403 0.06599022 0.040560164 0.061845962
000010 26 1d 02 bd 45 94 ca 3d 29 e4 28 be 07 f7 16 bd
       -0.03176608 0.098915614 -0.16493286 -0.036856677
000020 fa 22 de 3b 88 1a 5a bc 6d 10 e7 bd 16 51 3a bd
       0.006779072 -0.01331199 -0.1128243 -0.045487486
000030 74 76 80 3d ef a0 c2 3c aa 74 84 3c 88 84 8c 3d
       0.06272593 0.02375838 0.016168911 0.06861216
000040 6d 6a fc 3d 51 4a a2 bd 7b 0d 09 be 39 8b da 3d
       0.123249866 -0.07924331 -0.13384049 0.10671086
000050 b1 04 8b bd 40 6f 57 bd fa 18 86 bc 5f f8 27 3d
       -0.06788004 -0.05259633 -0.016369332 0.04100835
000060 74 ef b9 bd 40 40 da 3d 7c 0d e0 3d 2b 15 9b bd
       -0.09078875 0.10656786 0.10940072 -0.07572397
000070 37 9c b2 bb f6 96 0d ba fb 65 a0 3d e0 ab 7f bc
       -0.005450751 -0.0005401218 0.07831951 -0.015604943
000080 73 11 8a bd f0 e1 2c bd cd 9e 1c 3d 7f 21 b4 3b
       -0.067416094 -0.04220766 0.03823738 0.005497157
000090 22 11 6d bd 4b e0 e8 bd 21 69 cc bd a9 4b a5 3d
       -0.057877667 -0.113709055 -0.09980989 0.08071072
0000a0 08 e6 7c 3d ca 7f 81 bc db 3a a2 3c c1 87 5f 3c
       0.061742812 -0.015808005 0.019803455 0.013643206
0000b0 c8 a5 b3 3c 3c 11 25 3e 4a c2 a6 bd eb 60 bb bd
       0.021929637 0.16119856 -0.081425264 -0.09149345
0000c0 47 e6 2c 3d 08 fa 17 be 11 4f 55 3d 3e a2 93 bd
       0.042211797 -0.14841473 0.052077357 -0.072086796
0000d0 32 5d 02 be db c6 1f bc 2d 88 71 bd c0 ea 9a 3d
       -0.12730864 -0.009752001 -0.058967758 0.07564306
0000e0 ee 7e 33 3d d7 5e cd bd 9b 10 a6 bd 23 d5 81 bd
       0.04382222 -0.10027855 -0.08108636 -0.06339481
0000f0 e1 3c 61 bd e3 4f 71 3c cd c9 99 bd c0 cf 90 bc
       -0.0549897 0.014728519 -0.075091936 -0.017677188
000100 f3 e1 ba 3c 39 f9 ee 3c eb 6e 38 ba 89 24 91 bd
       0.02281282 0.029171573 -0.0007035571 -0.07087047
000110 41 48 a2 3b 80 60 ad 3d 4a 73 20 3e 64 3e b5 bd
       0.004952461 0.084656715 0.1566898 -0.08849791
000120 d1 b5 ef 3d ea df ab bd c8 71 0c 3d 20 22 a9 bd
       0.117046006 -0.083923176 0.034288198 -0.08258462
000130 df f8 a0 3d f0 28 86 3d d2 83 dc bd f3 bd b4 bd
       0.078599684 0.06550777 -0.1076733 -0.088252924
000140 6d 06 c2 bd e7 35 ad 3c d8 94 04 3d a7 82 48 bd
       -0.09473882 0.021143867 0.03236851 -0.048952725
000150 11 8a 92 bd 1e e5 25 be bd b0 d3 3d 63 7f 1d bd
       -0.0715524 -0.16200683 0.103364445 -0.038451564
000160 35 43 a0 3d f9 20 27 be 51 84 8e bd e6 c9 c5 3d
       0.07825319 -0.16321172 -0.06958831 0.0965765
000170 89 6f eb bd f4 1d 1a be a1 e2 27 3d b9 58 de 3d
       -0.11495883 -0.15050489 0.040987615 0.10856766
000180 cf c8 1c 3d f7 3a 0b bd d9 30 04 3d 9e a6 7f bd
       0.038277443 -0.03399178 0.032273147 -0.062414758
000190 5b 72 cd 3d 07 c8 80 3c b4 b3 dd bb da b0 ba 3c
       0.10031577 0.01572038 -0.006765807 0.022789408
0001a0 18 f1 b9 bd 24 05 85 3c 0e 84 88 3c 75 4f ed 3d
       -0.09079188 0.016237803 0.016664531 0.11587421
0001b0 b2 f2 95 3c 75 d5 ec bd 64 b7 b5 3d 94 54 6f bd
       0.018304203 -0.11564151 0.088728696 -0.05843027
0001c0 d4 6a 27 3e 55 05 07 3c d3 33 a5 bd f1 d8 79 3d
       0.16349345 0.008241017 -0.08066525 0.060997907
0001d0 de 47 0d 3e 5b b0 25 be 93 80 75 bd aa d8 aa ba
       0.13796946 -0.16180556 -0.05993707 -0.0013034542
0001e0 32 84 17 3e 6e ac a1 bd 86 65 2a bc 83 16 96 bd
       0.14796522 -0.078942165 -0.010400182 -0.073285125
0001f0 1d 0c 0d 3d 4d d1 0f 3d c2 32 d3 3d c0 e0 a7 3c
       0.03443538 0.035111714 0.10312416 0.020492911
000200 4e 3b da 3d ac a7 00 3c 02 c1 ba 3c 1b f0 ea 3d
       0.10655843 0.007852476 0.022797111 0.11471578
000210 76 73 0c 3e cb b3 0b bb 28 96 18 3d 21 f2 af bc
       0.1371592 -0.0021316882 0.037252575 -0.02147776
000220 63 dc a3 3c 57 03 d8 bb b4 cc 4c bd 3d 64 6f 3d
       0.02000255 -0.006592195 -0.049999908 0.058445204
000230 59 f9 ac bd f9 23 cf 3d fa 97 e1 bd 7e ad b2 3c
       -0.08445997 0.10114283 -0.11015315 0.021811243
000240 b8 dd fb bd 6a ab aa 3d e0 80 82 3d a2 0d 7d bd
       -0.12298149 0.08333476 0.06372237 -0.06178058
000250 38 76 e0 bd 58 0d ec bc dd 2e 4b bd e8 c5 1d be
       -0.109600484 -0.028814957 -0.04960524 -0.15407526
000260 ff f9 81 3d 0b 08 fc 3c 9b 7f 4f 3d de 11 eb 3d
       0.06346511 0.030765554 0.050658803 0.11478017
000270 70 66 ee bd a1 eb 5c 3d 09 fd a7 3d cc 91 6f bd
       -0.11640632 0.05393565 0.082025595 -0.058488652
000280 c3 d2 b1 3d 50 a7 0a 3e 64 8c 55 bc 90 f6 24 bd
       0.08682778 0.13540387 -0.01303396 -0.040274203
000290 aa c8 4e 3d 1c cf de bd 29 ae c7 bd e9 95 2f be
       0.050484337 -0.10879347 -0.09750015 -0.1714703
0002a0 65 ad 52 3d 26 de 81 bd e2 65 b2 bd 87 56 09 3e
       0.051434893 -0.063411996 -0.08710839 0.13411914
0002b0 15 aa ce 3b 5a 36 f8 bd ad 21 91 3d de 9d b5 bd
       0.0063068965 -0.12119742 0.07086501 -0.088680014
0002c0 2b 8c 4b 3d d2 52 05 3d 65 c2 04 bd 31 39 cc 3d
       0.04969422 0.032549687 -0.03241195 0.09971846
0002d0 6f db 63 bd 5b 3b eb bd 27 6d 88 3a 9b 97 f8 bd
       -0.05562919 -0.114859305 0.0010408506 -0.121382914
0002e0 1c b0 1b 3e 5b 32 dc bd 6f 98 eb bd 4f 32 f1 bd
       0.15203899 -0.10751792 -0.11503684 -0.11777174
0002f0 9c ad 0a 3d b2 c6 b0 3d 8b b4 3d 3c 71 21 4f bd
       0.033856973 0.08631648 0.011578689 -0.050569
000300 69 06 be bd ac 28 09 3d 6c 5d fc bd 63 fc 15 3d
       -0.092785664 0.033486053 -0.12322506 0.036617648
000310 2a 94 47 bd fb 8b 8c bd 3f 63 22 bd 31 5d 24 bd
       -0.048725285 -0.06862637 -0.03964543 -0.040127937
000320 28 fb a8 bd b9 57 b6 3d 44 9c 48 bd 3e 04 5a bd
       -0.08251029 0.089034505 -0.04897715 -0.053226702
000330 29 2e 06 bc 81 81 d9 bd 6c 75 0c 3e f2 d7 38 3a
       -0.008189716 -0.10620404 0.13716668 0.00070512213
000340 5b 2f 38 3d 68 dd fc bd d3 a3 a2 3d 86 1e a8 3d
       0.044967037 -0.123469174 0.07941403 0.08208947
000350 86 0a bf 3d 88 84 eb 3c 23 60 71 bd 1b 84 9c 3d
       0.09328179 0.02874972 -0.058929574 0.076423846
000360 f9 c7 a2 3d ca 12 31 3e d7 22 51 3a 06 14 a0 3d
       0.07948298 0.17292324 0.0007977909 0.07816319
000370 30 9a 28 3d a2 27 73 3d db 9a 00 3e 34 fe 88 3d
       0.04116267 0.05936397 0.12559073 0.066891104
000380 61 23 fb 3c cd 59 a8 bb ab c5 ce bd e7 55 2f bc
       0.030656518 -0.005137658 -0.10096296 -0.010701633
000390 93 33 0f bd 16 09 c7 3d bc 87 d9 3d 91 54 74 bd
       -0.034961294 0.0971853 0.106215924 -0.05965096
0003a0 20 0a 8d 3a 16 56 d8 3d c5 24 8d bd 68 60 92 bd
       0.0010760464 0.105632946 -0.06891779 -0.07147294
0003b0 2e d7 bf 3c 01 c1 84 3d 80 59 d2 3c 8b 2f cb bd
       0.023418035 0.06482125 0.025677443 -0.099211775
0003c0 69 98 71 3d 08 73 04 3d 2b 7e 18 bb a6 26 49 3c
       0.05898324 0.032336265 -0.0023268561 0.012277281
0003d0 f8 34 8e 3d 6a 57 23 3e a5 e3 3b 3d b8 36 ca 3d
       0.06943697 0.15951315 0.045871396 0.09873718
0003e0 0e 03 31 be 92 a7 91 3d cd b0 1a bd c9 02 dd bc
       -0.17286322 0.071120396 -0.037766267 -0.026978867
0003f0 44 40 5f bd e9 7e aa 3d 45 e1 d2 bd 53 25 2e bc
       -0.054504648 0.083249874 -0.10296873 -0.010629016

actor.linears.1.bias f4 [64]
000000 b6 f1 e7 3c 03 24 e7 bc 9b 04 7c 3d 7b 94 22 bd
       0.028313499 -0.028215414 0.06152783 -0.039692383
000010 a4 88 c5 3d 71 be 99 3d 6f 62 f2 bc a5 60 4a bc
       0.09645203 0.07507027 -0.029587952 -0.012352143
000020 47 c5 07 3e 48 ab f4 39 3e 76 06 be 3d 1e 92 3d
       0.13258849 0.0004666692 -0.13131043 0.07134674
000030 34 ca 63 bd f9 ac b8 bc 40 2d a3 bd 54 d1 5c 3d
       -0.055612758 -0.022543417 -0.07967615 0.05391057
000040 3e f8 0e bd 3f 79 89 bd 95 22 a3 3d 91 b2 3a bd
       -0.03490471 -0.06712579 0.079655804 -0.04558045
000050 ab e5 a3 3d 62 a6 b2 3c ce 5a a9 3d 49 c6 b8 bd
       0.0800279 0.021807853 0.08269273 -0.09022195
000060 40 93 b5 3c 33 cd 7b 3d 37 0e 14 3d 79 ba 84 3c
       0.02216494 0.06147499 0.03614637 0.016202198
000070 12 99 c6 bc 08 e7 ab 3c a1 f6 20 3d ca 04 90 3c
       -0.024242911 0.020984188 0.039297704 0.017580409
000080 59 69 31 bd bf 6f 7a bd f1 d4 e5 bd d6 87 80 3c
       -0.043313358 -0.061141726 -0.11222256 0.015689772
000090 44 4a 83 bd cc e1 07 3e 05 d8 0a 3d c8 dc 6d 3d
       -0.064106494 0.13269728 0.03389742 0.05807188
0000a0 1e 26 a4 3b 83 f0 c2 3c 67 bb 26 bd 37 25 0f 3d
       0.0050094267 0.023796326 -0.040706065 0.0349476
0000b0 17 32 87 3d 26 a9 df 3b 42 90 02 be 5b 1b 9f bd
       0.06601351 0.006825584 -0.12750342 -0.077688895
0000c0 e3 84 7c bd 1b 0a 0d bd 36 39 61 3d 8b 90 90 bd
       -0.06165017 -0.034433465 0.0549862 -0.070588194
0000d0 93 bb 85 3c 39 59 98 3d 5c f6 e1 3d ef 76 3c bd
       0.016324794 0.07438893 0.110333174 -0.04601186
0000e0 6a aa b6 bd 41 da 83 3d 1f 78 69 3d fc 4a 72 3d
       -0.08919223 0.06438113 0.056999322 0.059153542
0000f0 8f fc bf 3d 46 f9 34 3d b1 2b 1a 3d 93 aa 1c 3d
       0.093743436 0.04418304 0.037639324 0.03824861

actor.linears.2.weight f4 [1, 64]
000000 96 2f 08 3d 68 73 bb bd 63 bc d7 bd 69 ee e0 3d
       0.033248506 -0.09152871 -0.10533979 0.10982973
000010 00 56 1c be 78 34 bc bd 84 7d af bd 10 ba 56 3d
       -0.15267181 -0.09189695 -0.08568862 0.052423537
000020 22 e0 7c 3d 32 de 0b 3e 8b 75 03 be e5 ab 3d be
       0.061737187 0.1365898 -0.12837808 -0.18522604
000030 11 aa de bd a1 89 af bd a4 b4 62 bd 9a b2 33 3e
       -0.10872281 -0.085711725 -0.055348054 0.175486
000040 1b 6d 30 3e 21 6d 28 3e fd d7 1e 3e a7 6c d5 3d
       0.1722912 0.1644788 0.1551208 0.104211144
000050 de 8d 08 3e 2a 68 e0 3d c1 4a a3 3d 10 b2 02 be
       0.13335368 0.10957368 0.079732426 -0.12763238
000060 3c 34 05 be 48 9b 16 be 05 f1 85 bd f9 10 c8 bd
       -0.13008207 -0.14707673 -0.065401115 -0.09768862
000070 2f 11 12 3e 32 97 2c 3e bc e6 b4 bd eb cc 68 bd
       0.14264368 0.16854551 -0.088330716 -0.05683605
000080 ee 8c 00 be 60 72 8c 3d 85 a4 9a bd 70 7e 0c 3e
       -0.1255376 0.06857753 -0.07550911 0.13720107
000090 46 98 2c 3e 12 57 0d 3e 76 30 35 be 57 08 48 3d
       0.16854963 0.13802746 -0.17694268 0.04883608
0000a0 cc a3 a7 3d 5f ae 0f be 5f 62 77 3d 2b 60 06 be
       0.08185539 -0.14031361 0.06039655 -0.13122623
0000b0 14 3e a7 bd dd 3a c1 bd db 1e 51 bc df ce 9d bd
       -0.08166137 -0.094350554 -0.012763704 -0.07705473
0000c0 62 2c e2 3d ff cb e5 bd f6 69 a1 3d 3c d1 af 3d
       0.110436216 -0.1122055 0.078815386 0.0858483
0000d0 d7 98 56 3d 17 b2 16 3e e2 76 36 be c2 97 e7 bd
       0.052391853 0.14716373 -0.17818788 -0.113082424
0000e0 f7 c5 81 3d 58 85 1b be a9 26 15 be 1c 13 1a bd
       0.06336587 -0.15187585 -0.14565529 -0.03761588
0000f0 99 29 be 3d bd c9 9b bd f1 54 17 be bf e6 32 be
       0.09285278 -0.07606838 -0.14778496 -0.17470835

critic.linears.0.weight f4 [64, 16]
000000 1b 3d 48 bd 44 96 9d 3c 47 40 0e bd 8d 29 8b 3e
       -0.0488864 0.019236691 -0.03472927 0.27180138
000010 07 79 43 bd d9 00 10 3e 23 10 21 3e f7 87 19 3e
       -0.047722843 0.14062823 0.15728812 0.14993273
000020 c6 db 9b 3c 49 8d 98 3b 7b 3b 30 3d 7d c2 12 be
       0.019025695 0.0046555144 0.043025475 -0.14332004
000030 d2 c3 3b be a2 44 ea bc 44 ee c1 bd 0d e8 5b be
       -0.18336418 -0.02859718 -0.09469274 -0.21475239
000040 71 fa 10 bb 44 5c 4c be fc 38 66 be 5f e8 8c 3e
       -0.002212193 -0.19957072 -0.22482675 0.27521035
000050 b8 dd 43 be 23 46 55 be a3 65 2c bc 15 21 a5 bd
       -0.19127548 -0.20827536 -0.010522279 -0.080629505
000060 06 d7 df 3d 4d 96 46 bd 00 ca 13 3e 2b 8b 4d be
       0.10929684 -0.04848318 0.14432526 -0.2007262
000070 c7 d8 4f bd 05 70 5e be 03 63 40 3e 8d 34 18 be
       -0.050743844 -0.2172242 0.1878777 -0.14863797
000080 50 a8 d2 3d 9f 84 ba 3c 99 6c a3 3e 3d 8b 93 bc
       0.10286009 0.022768317 0.3191879 -0.01801073
000090 e7 56 3d be 27 38 6d bc e4 a5 1e be ed 9f 72 be
       -0.18490182 -0.01447872 -0.1549297 -0.2369382
0000a0 16 2a 99 bd 9d 41 0e bd 4f 2e 32 bc 93 78 9d 3d
       -0.074787304 -0.034730542 -0.010875299 0.07689013
0000b0 8e 1a a8 bd 1f 63 1b 3e 29 28 87 bd 5c d8 fd 3d
       -0.0820819 0.1517453 -0.06599457 0.12394783
0000c0 42 c8 94 bd 9f 53 91 3d d5 99 fe 3c b5 77 21 be
       -0.07264759 0.070960276 0.031079212 -0.15768321
0000d0 6b 57 19 be 9c 2b 0b 3e 67 87 09 3d 11 45 40 be
       -0.14974754 0.13590854 0.033576395 -0.18776347
0000e0 2e 01 2c be 70 65 1c be f3 64 1e 3d ef c7 4e 3e
       -0.16797325 -0.1527307 0.03867049 0.20193456
0000f0 a1 7a 7b 3d d5 63 52 3c 1d 9c 4c be 6b 47 2f 3e
       0.061396245 0.012841185 -0.19981427 0.17117088
000100 e8 98 8a bd ee cc 21 be c6 c0 12 3e a5 3c 41 bd
       -0.06767446 -0.1580083 0.1433135 -0.047176976
000110 ce ea 56 3d 56 e1 5a bd 25 01 e7 3d b9 34 67 be
       0.05247002 -0.053437553 0.11279515 -0.22578706
000120 b5 ca 35 3d fb f2 5c be 71 22 57 3e 77 c4 69 be
       0.04438277 -0.21577065 0.21009232 -0.22828852
000130 fb 5a 63 3e b4 39 17 3d 79 56 3e bd 52 ec 80 3e
       0.22202675 0.036920264 -0.046469186 0.25180298
000140 b5 e1 bb 3b a5 4a 29 3e 2e ac 6d bd 55 51 b0 be
       0.0057336935 0.16532381 -0.05802553 -0.3443705
000150 1e 75 24 be d3 b3 55 be 92 7e 55 be 81 5c 2f be
       -0.16060302 -0.20869379 -0.20849064 -0.17125131
000160 43 48 40 3e 21 b1 af bd c2 91 20 be 61 bc 35 be
       0.18777566 -0.085787065 -0.15680602 -0.17747642
000170 ab 89 85 bd f5 a8 b3 bd 75 92 3f bd c6 af f1 3b
       -0.06520399 -0.0877246 -0.04677053 0.00737569
000180 6b 92 4c be 46 dd 37 3e 90 60 26 be 21 09 82 3d
       -0.19977729 0.17955503 -0.16247773 0.063493975
000190 d9 2b 58 be b6 72 98 bd 95 cf 73 be f9 a0 49 be
       -0.21110477 -0.074437544 -0.23809655 -0.19690312
0001a0 6e aa 06 3e 92 72 8d bd d0 a8 1c b8 43 a7 d9 bd
       0.13150951 -0.06906618 -3.7350517e-05 -0.10627606
0001b0 16 bc 45 be 55 7a 16 3e 98 93 bf 3d a8 c1 3e bc
       -0.1931003 0.14695103 0.09354323 -0.011642851
0001c0 58 fb 4f 3e b7 4c 4d bd 6f b4 a2 3e 2f d5 19 be
       0.20310724 -0.05012199 0.31778285 -0.1502273
0001d0 13 71 11 3e 37 46 08 3d 0b 5f 6f be 65 6b 1a be
       0.1420329 0.033270087 -0.233761 -0.1508003
0001e0 f8 24 66 3e c0 80 14 be 7e e0 1d 3e d0 d3 68 be
       0.2247504 -0.14502239 0.15417668 -0.2273705
0001f0 8f 3a 39 be e0 2a e9 3d f1 2f e3 3d e5 47 39 be
       -0.18088745 0.11385131 0.110931285 -0.18093832
000200 a2 2f 25 3b ad 34 b5 3d 69 b8 22 3d 06 69 97 be
       0.0025205393 0.08847938 0.03972665 -0.29572314
000210 e0 6a 2d 3e 2e 4e 26 3e 65 33 7c 3e 9e c9 b7 3d
       0.16935301 0.1624076 0.2462898 0.08974002
000220 e0 58 6d 3e e1 26 87 be 84 42 23 bd b7 14 bd 3d
       0.23178434 -0.2639685 -0.039858356 0.09232467
000230 10 a7 03 be af 69 08 be f5 00 d3 bc 6e 9c cf bb
       -0.12856698 -0.13321565 -0.025757292 -0.0063357865
000240 91 64 25 3e f3 d5 8f bd 27 b2 07 3e 80 b2 66 bd
       0.16151644 -0.070232294 0.13251553 -0.056322575
000250 f8 c5 7b bd d7 67 0d 3e 5b 7e 6c 3e 26 c2 6e be
       -0.061468095 0.13809143 0.23095076 -0.23316249
000260 d3 b1 45 3e de d0 b6 3c 84 cd 21 3e 4b 8f 09 3e
       0.19306116 0.022316393 0.15801054 0.13433568
000270 70 79 91 bc 02 c8 2e 3e 11 7a b0 bd a1 7d aa 3c
       -0.017758101 0.17068484 -0.08617032 0.020811858
000280 fc 1d 40 be 41 95 22 bc b9 a4 37 be 40 c4 f9 bd
       -0.18761438 -0.00992328 -0.1793393 -0.12195635
000290 d2 57 ae bb f9 35 44 3e 2d 87 4a bc 13 c8 29 3a
       -0.0053205276 0.19161214 -0.01236133 0.0006476652
0002a0 87 0d b5 3d b4 77 ed 3d 9b cc 6a be 93 a4 2a be
       0.08840471 0.11595097 -0.22929613 -0.16664343
0002b0 64 95 9d 3d df c9 51 be 2e 05 25 3e 5e 9c 33 3e
       0.076945096 -0.20487164 0.16115257 0.17540118
0002c0 6f 76 22 be 3b 8d 91 3d 97 6d b2 3d 58 44 94 3e
       -0.15865491 0.07107016 0.08712309 0.28958392
0002d0 be 69 99 bd 57 54 29 be 6f 78 05 be bc 26 12 3e
       -0.07490872 -0.1653608 -0.13034223 0.14272588
0002e0 6b 2d c4 3c 6d 7a 8e 3d f4 2d 37 bd 85 c9 98 bc
       0.023947438 0.069569446 -0.04472156 -0.01865078
0002f0 09 5f 81 3d 78 05 22 be f4 9a 70 be ea 9f 86 be
       0.06316955 -0.15822399 -0.2349661 -0.2629388
000300 e8 82 1c 3d a6 43 0c be 94 1b 0e 3d e6 0b 2b 3e
       0.03821078 -0.13697681 0.03469427 0.16703758
000310 cf 79 00 be 0d df 45 be 5b 6d 6b 3d e4 af dc 3d
       -0.12546466 -0.19323368 0.057477336 0.10775736
000320 d1 65 0e 3e fb 17 aa 3c 7e 52 10 3d e0 98 bc bd
       0.13906027 0.020763388 0.03523492 -0.09208846
000330 55 e8 e9 3d 3c b5 76 be a5 29 ff 3b 98 00 20 3e
       0.11421267 -0.24092573 0.007786947 0.15625226
000340 8a 0e 29 3d 59 6b eb 3d d9 ac 35 3e 57 68 2c bd
       0.04127363 0.11495084 0.17741717 -0.042091694
000350 22 32 4e 3d 5c 67 32 3d a1 55 24 3e 92 1f 2a 3e
       0.05034078 0.043555602 0.1604829 0.16613606
000360 85 1c 78 3e 96 ef 72 3e 43 e7 30 be cd 58 fe 3d
       0.2422963 0.23724207 -0.1727572 0.12419281
000370 22 64 25 be 92 af d6 bc 1c 6c 3d be b3 52 54 be
       -0.16151479 -0.026206765 -0.18498272 -0.20734672
000380 b9 22 56 be 36 ce 44 be e7 32 b4 3c 1e 5c 00 be
       -0.20911683 -0.19219288 0.021996928 -0.1253514
000390 98 76 33 3e 97 c5 f3 3d 68 35 d5 bd c2 25 5d 3e
       0.17525709 0.11902922 -0.10410577 0.21596435
0003a0 c6 23 bc bd 57 ce 09 3e f8 b5 ef bd 0c fa de 3d
       -0.09186511 0.13457619 -0.1170463 0.108875364
0003b0 20 0a 68 3e b9 5f b9 bd aa 2e 3d bd 9d c9 b9 bd
       0.22660112 -0.09051461 -0.04618708 -0.09071658
0003c0 a0 3e 33 3e 0c aa fa 3d 26 47 13 bc 35 52 0f be
       0.17504358 0.12239465 -0.008989131 -0.13996203
0003d0 c2 94 1e be 92 99 dc 3d d9 66 30 3e 97 b5 71 be
       -0.15486434 0.10771479 0.17226733 -0.23604427
0003e0 a3 1e 1a 3c 6e 97 4e be e4 ec fa 3d 34 57 8f bc
       0.009406718 -0.20174953 0.122522146 -0.017497636
0003f0 6d cc 33 3e e2 ec 92 3c d3 e5 b3 bd fa 1c 3b be
       0.17558451 0.01793522 -0.0878407 -0.18272772

critic.linears.0.bias f4 [64]
000000 e3 3f fb bb be 4c 4c bd 1d 2c 42 3e c4 66 1d 3e
       -0.007667528 -0.049877875 0.1896214 0.15371233
000010 bf ff 0e be b0 38 e6 bb d9 13 ad 3d b8 af dc 3d
       -0.13964747 -0.0070258006 0.08451051 0.10775703
000020 df 42 71 3e eb 11 76 bd c6 21 dc bd 80 92 f4 bd
       0.23560666 -0.06007568 -0.10748629 -0.11942005
000030 62 5a 5b 3e ab 17 da bb d0 61 b0 3c d3 c2 27 3d
       0.21421197 -0.0066556535 0.021531016 0.040957283
000040 11 a1 fd bc 14 18 3c 3d e5 7b a9 bc d5 1a ef bd
       -0.030960592 0.0459214 -0.02068896 -0.1167504
000050 29 e5 af 3d 5f 21 0d 3e 7d 2d 30 be b1 4d 36 be
       0.08588631 0.13782261 -0.17204852 -0.17803074
000060 2a 84 b5 3d 3c 82 d5 3b ad 31 75 be 98 c2 b3 bc
       0.08863099 0.0065157693 -0.23944731 -0.021943375
000070 a0 cf c1 bd 6b 5b a0 3d 63 d0 0e be 69 75 fe 3d
       -0.094634295 0.078299366 -0.1394668 0.12424738
000080 44 04 32 bc 39 8b 6b be e6 23 33 be 16 34 02 3d
       -0.010865275 -0.23002328 -0.17494163 0.031787954
000090 cb ca 90 bc 30 1f 38 bd fc 42 e5 3d cc 17 3a be
       -0.017674824 -0.044951618 0.11194417 -0.1817314
0000a0 65 ef 11 3e 22 4f 1b 3e 34 98 18 3d ab 8a cd bd
       0.14251478 0.15166906 0.037254527 -0.100362144
0000b0 cb ab 93 3d 00 6c 4d be 82 a8 12 be 39 10 c6 bd
       0.07210501 -0.2006073 -0.14322093 -0.09671063
0000c0 9a 67 f9 3c 99 22 b1 3d 1e 2a 5c 3e e4 f7 93 3d
       0.030444909 0.08649177 0.21500441 0.07225016
0000d0 3d 28 95 bc c8 aa 10 3d c8 fe 54 be cd ec fc 3d
       -0.018207664 0.03531912 -0.20800316 0.12349854
0000e0 c9 63 12 3e 2c 54 60 3e 87 0b 18 3d 9e 45 fb 3d
       0.14295878 0.21907109 0.03712037 0.12269138
0000f0 5a 66 2e 3e 13 bd d4 bd 68 e4 f1 bd 33 01 2b bd
       0.17031232 -0.103876255 -0.11811143 -0.04174919

critic.linears.1.weight f4 [64, 64]
000000 da e1 70 bd cb ff b2 bd 38 0d f7 3d c8 53 98 bd
       -0.05880914 -0.08740195 0.12063068 -0.07437855
000010 96 19 83 bd 32 31 13 3e 4e 73 44 3d 7f 48 4c bd
       -0.064013645 0.14374235 0.047961526 -0.049873825
000020 33 9e 91 3d 53 6c 88 bd b0 98 cf bd 68 82 66 3d
       0.07110252 -0.06661286 -0.10136545 0.05627671
000030 8e d9 68 3c 7c b3 b1 3d e0 40 01 be 40 d1 77 3a
       0.014212025 0.08676812 -0.12622404 0.0009453483
000040 c7 42 1f ba b9 12 c4 bb 90 a9 64 bc 90 6c 29 be
       -0.0006075319 -0.005983677 -0.0139564425 -0.1654532
000050 6f 90 a2 bd d9 ac 84 bd 5d be bb bc 72 d3 e9 3c
       -0.07937705 -0.064782806 -0.02291792 0.028543208
000060 e9 a8 dd bc a7 f2 2b 3e 36 e0 d3 bd 80 e0 93 3d
       -0.027058082 0.16791783 -0.10345499 0.07220554
000070 bf dd c5 bd 66 45 37 bd 2e 94 46 3d bd fd 1d 3d
       -0.09661435 -0.044743918 0.04848116 0.03857206
000080 e4 d6 b5 3d 5e 93 74 3d 8d 65 02 bd 2b f5 10 be
       0.08878878 0.059710853 -0.031835128 -0.14156024
000090 75 cf 8f 3d 2b e1 4a 3d f4 94 ac 3d ca 58 04 be
       0.07021991 0.049531143 0.08426848 -0.12924495
0000a0 91 e4 8b bd c5 80 c3 3d 83 24 82 bc 82 67 91 bd
       -0.06830705 0.09546045 -0.01588655 -0.07099821
0000b0 a6 85 94 bd 25 02 09 bd a5 93 e2 3d 80 3a d2 3d
       -0.07252054 -0.03344931 0.11063317 0.10265064
0000c0 ce 09 b8 3d 50 8d 15 3e 9f a0 04 3d 66 bc f8 3d
       0.08986245 0.14604688 0.032379743 0.12145309
0000d0 98 f2 5e 3a 05 de e9 bc 4c 65 e2 3b 65 fe 8a 3d
       0.0008504777 -0.02854825 0.006909048 0.06786803
0000e0 93 ec aa bd f0 26 c1 bd 6c 78 5d 3d 27 67 f8 3d
       -0.08345904 -0.09431255 0.05406992 0.1212905
0000f0 c4 4b f9 3d 4c 66 89 bd 46 ce 62 3b 4b bc 77 bd
       0.12172654 -0.06708965 0.0034607812 -0.060482305
000100 ac 11 a7 3d d8 6f 5d bd e3 1a c5 3d a5 fd b9 bd
       0.081576675 -0.05406174 0.09624269 -0.09081582
000110 af 4b b3 3d 71 7b a2 bd 0f b1 5a bd f0 32 ab bd
       0.0875467 -0.07933701 -0.053391512 -0.08359325
000120 5f 92 82 3d d9 00 f2 3c 77 28 85 3d 17 c6 83 3c
       0.06375574 0.02954142 0.06501859 0.016085668
000130 89 e7 91 bd 4c 9a ad 3d 8f 66 9f 3d 1c a6 93 3d
       -0.0712424 0.084766954 0.077832334 0.07209417
000140 16 cf c3 bd 6d 4e 09 bd 4a 17 16 be 40 53 81 3d
       -0.09560983 -0.03352206 -0.14657322 0.06314707
000150 f2 af f0 3d 8e 5b 15 bd e4 ff d5 3c e2 39 e3 bd
       0.11752309 -0.036464266 0.026122995 -0.11095025
000160 37 24 55 bd 04 ce 19 3e 8f 00 8c bd a3 3e 03 3d
       -0.05203649 0.15019995 -0.06836044 0.032042157
000170 a2 5e bd bd 5d 98 98 bb 9a fe 79 bd 2b 99 c2 bd
       -0.092465654 -0.004656835 -0.061033823 -0.09501871
000180 e5 ac fa bb 75 fa 0c 3d 97 d4 03 be da e5 94 bc
       -0.007650005 0.034418542 -0.12874065 -0.018176008
000190 66 da 1d 3d 37 50 d7 bc d1 76 f7 3d 16 e0 1f bd
       0.03853836 -0.026283367 0.12083209 -0.039032064
0001a0 f2 dd 4c bd 2e 6e a8 bc 4c b1 b1 3d a1 e3 79 3d
       -0.05001635 -0.02056035 0.08676395 0.0610081
0001b0 41 f9 dd 3d d6 12 fe bd 9d bc db 39 a6 72 9e bd
       0.10838557 -0.124059364 0.00041911463 -0.07736711
0001c0 23 65 47 3d 0d 95 b0 bd eb d8 58 bd 65 0a d7 bd
       0.048680436 -0.08622179 -0.052941244 -0.105000295
0001d0 cc a5 30 3c 71 24 4b ba b3 fa df 3c ed 0f 23 3d
       0.010781717 -0.00077492656 0.027341222 0.03981011
0001e0 91 f3 91 bd 2f 1e 1b 3d 85 7e 07 bd 15 3b ae bd
       -0.07126535 0.037870582 -0.033079643 -0.08507363
0001f0 9e bb 42 3b 70 f9 ed bd cb 51 a5 3d 5d 90 a8 bd
       0.002971388 -0.11619842 0.080722414 -0.0823066
000200 4d 96 a6 bd a1 3f aa bd a1 89 4c 3d a2 f6 e2 3d
       -0.08134136 -0.083129175 0.04993594 0.11082198
000210 bf ee 48 bd 58 c4 fc 3d ba 60 f7 3d 89 b0 b8 3d
       -0.04905581 0.12342137 0.12078996 0.090180464
000220 7d b5 30 bd 91 9d 8e 3d 8d bd 7c 3d 3c 7b 93 bc
       -0.04314183 0.06963647 0.061704207 -0.018003099
000230 d8 b5 f5 3d 93 19 59 bd ff 18 ac 3c 1e f1 99 3d
       0.119975746 -0.053002905 0.021008013 0.075166926
000240 59 21 0e be fe 0c ce 3d a0 46 00 be bf a7 2e be
       -0.13879909 0.10061072 -0.12526941 -0.17056178
000250 5a ec 3f bd c5 0d ad bd 22 07 ab 3d dc 6f d1 bd
       -0.04685626 -0.08449892 0.0835097 -0.102264136
000260 3f 20 a3 3d 0c 30 26 3e 3d a9 c9 bd 2c f4 f8 bd
       0.07965135 0.16229266 -0.09846733 -0.12155947
000270 1b 29 1c 3d d5 85 bc bd 0b e9 e0 bd ec 13 d4 bd
       0.03812514 -0.09205214 -0.109819494 -0.10355362
000280 da d4 82 bd 17 27 a9 3d 91 c1 d6 bc 55 e0 9c bd
       -0.063882545 0.08259409 -0.026215347 -0.076599754
000290 e7 dc e7 bd c1 d3 bd bd d9 b2 99 bd 16 cf c1 bc
       -0.11321431 -0.092689045 -0.075048156 -0.023658317
0002a0 be 1a 95 3d 5a 01 e8 bd 53 85 03 be be 1a cc 3d
       0.07280491 -0.11328383 -0.12843828 0.09966038
0002b0 39 cd c7 3c 1e b2 ab bc cf a0 06 bb 41 cc da 3b
       0.02438985 -0.020958956 -0.0020542627 0.006677181
0002c0 41 de 8e 3d ca 82 b6 3d 88 b3 e5 bd bc 1c 68 3c
       0.06975985 0.08911665 -0.112158835 0.014167007
0002d0 fa 45 b9 3d 8b f0 f9 3d 88 34 be bd 94 cb df bd
       0.0904655 0.12204083 -0.09287363 -0.10927501
0002e0 fb 5a ba bd 44 fb fd bd 58 d8 df 3b 7f 80 7d bd
       -0.090993844 -0.12401441 0.00683121 -0.06189012
0002f0 a5 a6 c1 3d a8 d2 0d 3d cf 84 7c 3d bb 65 fa bd
       0.09455613 0.034624726 0.061650094 -0.12226435
000300 5c 54 96 3d 37 fa 9b 3c f1 29 93 bd 82 6a f9 3c
       0.07340309 0.01904021 -0.07185734 0.030446295
000310 3d b4 a3 3d 68 1e 25 bc 63 4f 6e 3d a3 22 c5 3c
       0.07993362 -0.01007805 0.058181178 0.024064368
000320 69 7e 06 3e 06 50 f4 3d 22 f1 1b bd 1d db df 3c
       0.13134159 0.11929326 -0.03807176 0.027326161
000330 89 a2 de bd ce b8 e6 3c 70 f0 6d bd 8c 2a dc bd
       -0.10870845 0.028164294 -0.058090627 -0.10750303
000340 d6 35 08 be 48 8f cd bd 21 bc 27 be f1 f8 8c 3d
       -0.13301787 -0.10037094 -0.16380359 0.06883419
000350 47 94 fb 3d 69 74 9d 3d ad 44 dd bd 62 87 8b bd
       0.12284141 0.07688219 -0.108041145 -0.068129316
000360 45 ef ad bd 1a fc 52 bc 6e 58 18 3d 61 02 9e 3d
       -0.08492903 -0.0128774885 0.037193708 0.077152975
000370 f8 73 f6 bd a0 af bc bc 21 83 c3 3d 5d 54 0a bd
       -0.12033838 -0.023032963 0.09546495 -0.03377186
000380 ab ae eb 3d 0b b2 10 3d f1 06 2f 3d 68 ef 19 3c
       0.11507925 0.035326045 0.04273123 0.009395458
000390 de 70 dc bd 27 85 64 bd 5d ee 7b 3c 50 d1 dc bd
       -0.10763715 -0.055791046 0.015376654 -0.10782111
0003a0 2e 93 8c bd 28 4d ea bd 13 1b ba 3d 9e e4 05 3d
       -0.0686401 -0.11440498 0.09087195 0.03268873
0003b0 31 fd 99 bb ea 4b e9 bc f1 7f 70 3d 65 a5 93 bd
       -0.004699372 -0.028478581 0.058715764 -0.07209281
0003c0 22 f2 a4 bd 7e 57 39 bd 14 cd 96 bc 14 60 4f bd
       -0.08053996 -0.045249455 -0.018408336 -0.050628737
0003d0 d2 f5 c9 3a 67 c6 98 3c 57 28 7e 3d 5e 85 24 3d
       0.0015408343 0.018649293 0.06205019 0.04016625
0003e0 7f e2 94 bc 09 2f a7 3d 84 d1 02 3e a0 80 f2 3d
       -0.018174408 0.08163268 0.12775236 0.118409395
0003f0 09 0b 5f 3d e9 02 50 3d d3 39 6b bd 80 94 e2 3d
       0.054453883 0.050784025 -0.057428192 0.110634804
