trained_network/SD2/same_20_5_224.pth (torch, 61147 bytes, 26 tensors)

feature_exact.j_encoder.linears.0.weight f4 [8, 14]
-0.25329626 0.34254724 -0.13247086 0.09374326 -0.04898378 0.0059999013 -0.47642547 0.27562392
0.3895149 0.15840742 -0.029825138 -0.10515465 -0.21745205 0.031845447 0.044716273 0.42914832
-0.07549983 -0.16235039 -0.012497512 -0.08649039 -0.08870009 0.1000311 0.04362367 -0.25127113
-0.002905568 -0.11517776 -0.14737968 -0.13954875 0.12104543 0.3036131 -0.22357127 -0.22260128
0.010053449 0.0390679 0.037034463 -0.02021612 -0.03414536 0.15750037 -0.009824292 -0.16595374
-0.2118289 0.28304598 -0.47618374 0.3427368 0.22988866 -0.15360864 0.14258681 0.16240844
-0.4732436 -0.073279284 -0.13297771 -0.08885585 -0.27760324 -0.06572583 -0.4670761 0.41394135
0.1020541 -0.12676978 -0.3275353 0.13243374 -0.13692772 -0.03254778 -0.20085968 -0.10611893
0.1633694 0.06117251 0.12539823 -0.12260036 0.07358604 0.47845158 0.02615043 -0.2338917
0.02269761 -0.12526824 0.052159283 -0.08399403 -0.2761461 0.37960124 0.2115884 -0.016923686
-0.05470007 0.14218768 0.0133557245 0.11216461 0.35741264 -0.06733061 -0.1087551 -0.051235273
-0.0027216482 0.04147989 0.19672655 0.39471662 -0.15756342 -0.02345008 -0.16184138 -0.046563234
-0.07582391 -0.16540241 -0.16025998 -0.1040731 0.33277187 0.10998037 -0.22363311 0.069836885
0.2265025 -0.021622643 0.16609396 0.054219823 -0.008503732 -0.112057194 -0.4283324 0.030611154
00000000: 0cb0 81be 5a62 af3e 71a6 07be 77fc bf3d
00000010: 37a3 48bd d29a c43b 0aee f3be 941e 8d3e
00000020: 7f6e c73e 8e35 223e d953 f4bc 525b d7bd
00000030: c0ab 5ebe 5f70 023d 6928 373d 54b9 db3e
00000040: a89f 9abd 2e3f 26be 5dc2 4cbc e021 b1bd
00000050: 65a8 b5bd 1bdd cc3d bcae 323d 9ca6 80be
00000060: 586b 3ebb 51e2 ebbd b3ea 16be dee5 0ebe
00000070: abe6 f73d 2d73 9b3e deef 64be 97f1 63be
00000080: 39b7 243c aa05 203d 73b1 173d 479c a5bc
00000090: 01dc 0bbd c747 213e 11f6 20bc c7ef 29be
000000a0: ade9 58be 67eb 903e 5bce f3be 337b af3e
000000b0: ef67 6b3e 954b 1dbe 4702 123e 664e 263e
000000c0: fc4c f2be 7313 96bd 4f2b 08be 0efa b5bd
000000d0: 0322 8ebe 449b 86bd 9924 efbe 1ff0 d33e
000000e0: bd01 d13d f0cf 01be b5b2 a7be b69c 073e
000000f0: c836 0cbe d250 05bd 29ae 4dbe e254 d9bd
00000100: 4f4a 273e 0790 7a3d 6568 003e e615 fbbd
00000110: 47b4 963d 9bf7 f43e 6d39 d63c 4e81 6fbe
00000120: 57f0 b93c 5146 00be f9a4 553d 1005 acbd
00000130: 0663 8dbe 185b c23e a1aa 583e 8ba3 8abc
00000140: 2e0d 60bd a699 113e f8d1 5a3c 8fb6 e53d
00000150: cafe b63e a1e4 89bd feba debd 14dc 51bd
00000160: ae5d 32bb d1e6 293d af72 493e 4c18 ca3e
00000170: 4e58 21be 621a c0bc bfb9 25be 17b9 3ebd
00000180: 9149 9bbd 405f 29be 311b 24be 4724 d5bd
00000190: 1361 aa3e 633d e13d 1400 65be a406 8f3d
000001a0: 45f0 673e f821 b1bc 8914 2a3e 9b15 5e3d
000001b0: 3d53 0bbc 3e7e e5bd 624e dbbe 3ec4 fa3c

feature_exact.j_encoder.linears.0.bias f4 [8]
0.013743872 -0.09703507 -0.032577902 0.08491009 -0.119912066 0.088248126 -0.23410195 -0.17713428
00000000: fa2d 613c 53ba c6bd 6870 05bd 57e5 ad3d
00000010: 7594 f5bd 6fbb b43d 6cb8 6fbe b062 35be

feature_exact.j_encoder.linears.1.weight f4 [8, 8]
0.098090336 -0.21156363 0.24549206 -0.4579554 0.09961454 0.48550695 -0.22301029 -0.09784588
0.26647455 -0.07349122 -0.23568562 0.209349 -0.068703726 -0.004004703 0.4427242 0.031115187
-0.15342104 0.044358086 -0.39993608 -7.268077e-06 -0.19962473 0.06981919 -0.07771485 -0.37726852
-0.032038696 0.21233076 -0.16085503 -0.12208487 -0.29280463 -0.02354871 -0.24091297 -0.088318214
0.31435245 0.18878321 -0.0030740148 0.4019036 0.19443105 0.3440511 -0.112272 -0.19734593
-0.14140595 0.10641588 -0.24277472 0.18698774 -0.33302194 -0.17538352 0.074128635 -0.35961217
-0.00078843045 -0.04338577 -0.012064512 0.0022074834 0.33349657 -0.259368 0.14264476 0.36857527
0.2668131 0.2367814 0.011712299 -0.012631029 0.16787082 0.09606946 -0.20446 -0.28636998
00000000: 96e3 c83d 23a4 58be 4562 7b3e 2179 eabe
00000010: b502 cc3d 5e94 f83e cf5c 64be 6c63 c8bd
00000020: 5a6f 883e 9182 96bd 9257 71be 965f 563e
00000030: 8ab4 8cbd e239 83bb bfac e23e 47e5 fe3c
00000040: 681a 1dbe d3b0 353d 6cc4 ccbe 4ee0 f3b6
00000050: 6d6a 4cbe 5dfd 8e3d f728 9fbd 5729 c1be
00000060: 023b 03bd 3c6d 593e 2eb7 24be a207 fabd
00000070: 7dea 95be 39e9 c0bc e4b1 76be 2ee0 b4bd
00000080: cef2 a03e 6350 413e 6975 49bb 4fc6 cd3e
00000090: ef18 473e 7727 b03e ddee e5bd 0d15 4abe
000000a0: b9cc 10be 92f0 d93d f099 78be b779 3f3e
000000b0: da81 aabe bd97 33be c1d0 973d 161f b8be
000000c0: acae 4eba 47b5 31bd 3baa 45bc 6dab 103b
000000d0: 10c0 aa3e e2cb 84be 7811 123e e6b5 bc3e
000000e0: ba9b 883e d376 723e f1e4 3f3c 60f2 4ebc
000000f0: 54e6 2b3e 11c0 c43d f65d 51be 169f 92be

feature_exact.j_encoder.linears.1.bias f4 [8]
-0.18087286 -0.28284067 0.37377846 -0.342736 0.035395917 -0.06097075 0.2566596 -0.33041996
00000000: bc36 39be 7ed0 90be e45f bf3e 187b afbe
00000010: 4ffb 103d 77bc 79bd e368 833e ce2c a9be

feature_exact.j_encoder.linears.2.weight f4 [8, 8]
-0.6404583 -0.06899784 -0.061917435 0.26751116 0.17754434 -0.04000689 -0.03876933 0.07060858
0.06443572 0.084259264 0.33757734 -0.31809226 -0.17700848 0.3156566 -0.26956367 -0.022258034
0.3520479 -0.1728282 -0.22998331 0.26044464 0.4216886 -0.1843678 -0.12046233 0.14666764
0.039850015 -0.10917516 0.16615549 0.004723968 -0.39116475 0.102501206 0.30596966 -0.24476406
-0.111973986 0.2604795 -0.122819036 -0.34893683 0.0076518683 -0.08512478 -0.317319 -0.3581627
0.2341596 0.45579824 -0.118280545 0.26772693 0.16961327 -0.17332709 0.29726085 0.15045245
0.02700089 -0.23108521 -0.17170005 -0.024608785 -0.10536498 -0.29811522 0.2711859 -0.3807554
-0.08155511 -0.26874864 0.35213402 -0.06983746 0.18738478 0.30677873 -0.2833381 0.13870366
00000000: 13f5 23bf bd4e 8dbd 239d 7dbd 39f7 883e
00000010: 2fce 353e 44de 23bd 97cc 1ebd 3b9b 903d
00000020: e0f6 833d 1f90 ac3d f0d6 ac3e fddc a2be
00000030: b641 35be be9d a13e 4004 8abe 7b56 b6bc
00000040: 9f3f b43e e0f9 30be bf80 6bbe 0059 853e
00000050: 91e7 d73e eaca 3cbe f4b4 f6bd 0b30 163e
00000060: c539 233d 3a97 dfbd aa24 2a3e 84cb 9a3b
00000070: bf46 c8be 27ec d13d 0ea8 9c3e 6ea3 7abe
00000080: 9e52 e5bd 925d 853e 8c88 fbbd d9a7 b2be
00000090: 86bc fa3b e755 aebd a377 a2be 1a61 b7be
000000a0: 89c7 6f3e 635e e93e 123d f2bd 8113 893e
000000b0: 1aaf 2d3e a87c 31be 9332 983e 3510 1a3e
000000c0: f830 dd3c 9aa1 6cbe 23d2 2fbe 5d98 c9bc
000000d0: 98c9 d7bd 8fa2 98be e1d8 8a3e 5ff2 c2be
000000e0: 5e06 a7bd 6c99 89be e94a b43e f106 8fbd
000000f0: cce1 3f3e 1a12 9d3e b111 91be 5508 0e3e

feature_exact.j_encoder.linears.2.bias f4 [8]
0.19271751 -0.05822102 -0.102516145 -0.0051990855 -0.20640242 -0.32668534 0.18461713 -0.2502956
00000000: bd57 453e 2a79 6ebd fcf3 d1bd 175d aabb
00000010: 285b 53be 4d43 a7be 460c 3d3e bf26 80be

feature_exact.m_encoder.linears.0.weight f4 [8, 8]
-0.59908855 -0.113265336 0.1642012 0.23270777 -0.2702987 0.30837438 -0.18903093 0.12071114
0.11259858 -0.003917641 -0.24553904 -0.30201793 -0.23341987 -0.13361554 -0.08306247 -0.14227815
-0.14169936 0.20689356 0.4020952 -0.3254283 -0.26429516 -0.17874618 0.22139683 0.30087125
0.17988689 -0.010076807 0.39146674 0.25164294 0.19690289 -0.09816802 0.12868431 0.032590445
-0.0154554825 -0.55835617 -0.14659105 -0.25790343 -0.18617338 0.109749034 -0.30922434 -0.23507567
0.17016952 -0.31036237 0.03475937 0.41733307 -0.29326686 -0.09670546 -0.21061993 0.17151996
-0.22702198 0.09033324 -0.17889604 0.08698828 0.124355935 0.2216422 -0.043181308 0.08068928
0.3924997 0.11015705 -0.099477835 -0.028532153 -0.21131815 0.14956139 -0.34746155 -0.06814831
00000000: de5d 19bf a8f7 e7bd 5c24 283e f24a 6e3e
00000010: 9764 8abe 3fe3 9d3e 5391 41be 6737 f73d
00000020: 169a e63d 8e5f 80bb 966e 7bbe 18a2 9abe
00000030: 9e05 6fbe 83d2 08be a81c aabd 5db1 11be
00000040: a319 11be e8db 533e 6cdf cd3e 8a9e a6be
00000050: b251 87be 3d09 37be dab5 623e cc0b 9a3e
00000060: 4534 383e 3119 25bc 546e c83e 58d7 803e
00000070: e9a0 493e 510c c9bd d2c5 033e 8f7d 053d
00000080: fe38 7dbc 6ef0 0ebf f71b 16be eb0b 84be
00000090: 3ca4 3ebe 1ac4 e03d a752 9ebe adb7 70be
000000a0: eb40 2e3e d1e7 9ebe d75f 0e3d aeac d53e
000000b0: 1327 96be 830d c6bd c0ac 57be eea2 2f3e
000000c0: 7378 68be a200 b93d 8630 37be e926 b23d
000000d0: 53ae fe3d 2cf6 623e e2de 30bd 6c40 a53d
000000e0: b8f5 c83e 059a e13d 09bb cbbd 43bc e9bc
000000f0: c963 58be 9f26 193e 7be6 b1be 5791 8bbd

feature_exact.m_encoder.linears.0.bias f4 [8]
0.024733292 0.23518257 -0.34980223 -0.071488164 -0.13006864 -0.11902663 0.5264048 -0.17807317
00000000: 799d ca3c b3d3 703e 4719 b3be 6368 92bd
00000010: b730 05be 3cc4 f3bd 77c2 063f d058 36be

feature_exact.m_encoder.linears.1.weight f4 [8, 8]
0.087935686 0.1266139 0.0380712 0.18099312 0.15879838 0.3911943 0.030320318 -0.31962255
0.16536726 0.082882755 0.013007569 0.2807311 0.06836657 0.016989542 -0.11396675 0.13173942
0.1283946 0.20157348 -0.11199978 0.20689996 0.043854225 -0.25153914 -0.018553369 -0.23673989
0.37730226 -0.055701353 0.15612327 0.122759394 0.24853821 0.14509161 0.3623779 -0.07737965
0.11865477 -0.044070642 0.41771758 0.029107502 0.005234607 0.2117858 0.12395345 -0.026597904
0.30145964 0.21524708 -0.16408357 0.38468415 0.023127478 -0.1535716 -0.22869337 -0.3172804
0.47494248 0.06280995 0.1885839 -0.061420307 -0.3663053 -0.29205576 -0.22384225 0.2545566
-0.34118956 -0.084810816 0.2381989 0.38312355 -0.010105172 -0.1944676 -0.40572608 0.37661582
00000000: a017 b43d 13a7 013e 8cf0 1b3d 4356 393e
00000010: 0b9c 223e 9f4a c83e 5162 f83c 91a5 a3be
00000020: 0956 293e 6fbe a93d b31d 553c fdbb 8f3e
00000030: c603 8c3d a72d 8b3c 6667 e9bd b3e6 063e
00000040: e079 033e 4769 4e3e 2460 e5bd 95dd 533e
00000050: 7da0 333d bdc9 80be 3cfd 97bc f16b 72be
00000060: c32d c13e 1a27 64bd c7de 1f3e 4769 fb3d
00000070: cd80 7e3e e592 143e 9989 b93e 3979 9ebd
00000080: 4601 f33d 6b83 34bd 14df d53e db72 ee3c
00000090: 1187 ab3b 60de 583e 4edb fd3d d9e3 d9bc
000000a0: eb58 9a3e bb69 5c3e 8605 28be 52f5 c43e
000000b0: d675 bd3c e041 1dbe 982e 6abe 9472 a2be
000000c0: a92b f33e 81a2 803d 231c 413e dc93 7bbd
000000d0: 5e8c bbbe 5588 95be e736 65be 3e55 823e
000000e0: 66b0 aebe 4bb1 adbd 6aea 733e c528 c43e
000000f0: 2a90 25bc 8422 47be 54bb cfbe cad3 c03e

feature_exact.m_encoder.linears.1.bias f4 [8]
0.18888472 0.068866596 -0.28751618 -0.07945704 0.08899819 -0.11004952 -0.02776152 0.1374847
00000000: ff6a 413e ee09 8d3d 5235 93be 5fba a2bd
00000010: af44 b63d a561 e1bd 216c e3bc cac8 0c3e

feature_exact.m_encoder.linears.2.weight f4 [8, 8]
0.15188237 0.22841874 0.03804786 0.21972208 0.23596752 -0.28197503 -0.15238112 -0.3094983
0.16695273 -0.038694125 -0.32145396 0.11111571 0.20259951 -0.18876962 0.08796402 0.29887503
-0.41801178 -0.03112818 -0.26326305 0.12834704 0.13651721 0.13252626 -0.038152765 0.34211686
-0.07664068 0.18721971 0.19180018 -0.13091561 -0.071331315 0.1406573 0.12740822 -0.2553567
-0.08595352 0.0050737537 -0.27727246 0.292831 -0.27331576 -0.13338225 0.009876201 0.20290273
-0.23841882 -0.18426967 0.30250606 -0.31935093 -0.14675006 0.02590769 -0.45006883 0.0310048
0.18252489 -0.21023229 0.22304551 -0.25170246 -0.19298321 0.3815734 -0.06967059 0.20004883
0.11329146 -0.28619027 0.25183645 0.16950266 0.25633523 -0.15462585 -0.083019525 -0.28278816
00000000: 0d87 1b3e 9ae6 693e 13d8 1b3d d3fe 603e
00000010: 78a1 713e 085f 90be cc09 1cbe 9076 9ebe
00000020: a8f5 2a3e bb7d 1ebd 9d95 a4be a290 e33d
00000030: 3f76 4f3e d34c 41be 7b26 b43d 2606 993e
00000040: a405 d6be 8600 ffbc 6aca 86be 686d 033e
00000050: 2bcb 0b3e f7b4 073e 1346 1cbd f129 af3e
00000060: caf5 9cbd 86b6 3f3e 4467 443e be0e 06be
00000070: 2716 92bd 7808 103e 4d77 023e 1dbe 82be
00000080: 6608 b0bd bb41 a63b a8f6 8dbe f2ed 953e
00000090: 0bf0 8bbe 5b95 08be cacf 213c bcc5 4f3e
000000a0: 1024 74be 30b1 3cbe 13e2 9a3e f781 a3be
000000b0: a645 16be 5d3c d43c 6c6f e6be c7fd fd3c
000000c0: cee7 3a3e 2247 57be 0b66 643e 25df 80be
000000d0: 649d 45be 975d c33e 74af 8ebd 9ad9 4c3e
000000e0: 5a05 e83d 8887 92be b5f0 803e 1b92 2d3e
000000f0: 5f3e 833e 3d56 1ebe 2406 aabd 9cc9 90be

feature_exact.m_encoder.linears.2.bias f4 [8]
-0.082158126 -0.1005738 -0.11634163 -0.0064845406 -0.10851864 0.35895962 0.29742655 -0.119820036
00000000: 8542 a8bd a3f9 cdbd 8544 eebd 457c d4bb
00000010: 053f debd 8ec9 b73e 4b48 983e 3564 f5bd

feature_exact.j_ln.weight f4 [8]
1.0822097 1.0789115 1.1969166 1.1228575 0.98485917 1.0913912 0.93894863 1.0216643
00000000: d985 8a3f c619 8a3f 9034 993f cbb9 8f3f
00000010: bb1f 7c3f b5b2 8b3f f05e 703f e5c5 823f

feature_exact.j_ln.bias f4 [8]
-0.010516616 0.005530288 0.0029499088 -0.016522527 0.053127024 0.0022363255 -0.044442274 0.036916114
00000000: e24d 2cbc 6b37 b53b 4253 413b 405a 87bc
00000010: b99b 593d 518f 123b 1a09 36bd 5a35 173d

feature_exact.m_ln.weight f4 [8]
1.0212483 0.96086997 1.037796 0.9777639 0.92259645 0.92939526 0.9400411 1.0026165
00000000: 44b8 823f 93fb 753f 80d6 843f bc4e 7a3f
00000010: 482f 6c3f d9ec 6d3f 89a6 703f bd55 803f

feature_exact.m_ln.bias f4 [8]
0.016852587 -0.01956797 -0.024783654 0.012119951 0.043632295 -0.08756122 -0.055598605 0.047438737
00000000: 700e 8a3c 024d a0bc 1707 cbbc c292 463c
00000010: c7b7 323d 4c53 b3bd 5dbb 63bd 1f4f 423d

actor.linears.0.weight f4 [64, 40]
0.054679297 0.23093963 -0.044285454 0.0057171592 -0.032102242 -0.07677609 -0.13472053 0.03534484
0.0056568705 -0.015977284 -0.1821605 0.133025 0.02976077 -0.0798441 0.09529324 0.09189073
-0.04861492 -0.09527148 -0.16926421 0.19128723 -0.20029517 0.02035879 0.18361199 -0.015932992
-0.07517986 -0.037703022 -0.14142302 -0.22186476 0.07476826 -0.054066103 0.016466428 0.046066865
0.0039518555 -0.1135361 -0.14430252 -0.15158328 0.019044798 0.079202235 -0.08577075 0.20272475
-0.18246919 0.019959202 -0.061147433 0.24135558 0.11087521 0.08206585 0.11622439 -0.09952383
0.14800538 -0.011867215 -0.03528679 0.13358323 -0.14933504 -0.049627803 -0.0069413 -0.003896496
0.20918694 -0.13094513 0.32187572 -0.20607184 -0.10027655 0.060671456 0.020841211 0.0034938448
0.038160756 -0.08131961 -0.18080498 -0.09573416 -0.14579059 -0.10111172 -0.029971782 -0.06327269
0.057361543 -0.07961025 0.072964914 0.2075418 -0.019203758 0.14289367 -0.045351036 0.031951133
0.09599064 -0.03155759 0.14473905 0.036769107 -0.007905003 -0.031238025 -0.020165598 0.06160439
-0.16805685 -0.07195445 0.18400228 0.08098277 0.038609315 0.001729063 -0.15439068 0.10712298
-0.105661035 0.16537815 -0.2933664 0.17731072 -0.02370397 -0.041192055 0.07367814 -0.030066017
-0.062283657 -0.16606015 0.06535477 0.059698068 -0.12960269 0.20940962 0.0745832 0.16384773
-0.18684605 -0.02332573 0.016761905 -0.080712445 -0.03148167 -0.027459692 -0.10379176 0.004385294
0.12135785 0.07313343 0.23737954 -0.15847519 -0.07651469 -0.038649246 -0.024753558 -0.07335197
0.006684874 0.12346952 0.1746012 0.037344515 -0.052529246 -0.01028019 -0.027535083 0.015689572
-0.02261224 0.113692 -0.33374265 -0.010926602 -0.010976634 -0.14185202 -0.10489862 -0.008801714
0.064327426 0.08462007 0.10096346 0.07859662 0.06627558 0.008237823 -0.073294334 0.1423484
0.057563774 0.057009652 -0.04284064 -0.19672716 -0.15080291 0.08056247 0.06595625 0.21937062
0.047251575 -0.023894079 -0.07262236 0.17691906 0.04649742 0.0916184 -0.088869 -0.032288972
0.07774546 -0.12901098 -0.04534742 0.06277572 0.09060754 -0.016424097 -0.082573056 -0.024631653
-0.07011333 -0.06082579 0.00695224 0.0070287604 0.104497395 0.042541057 0.01799051 0.018977493
-0.24915558 -0.10708541 0.096831486 -0.023176832 -0.11208698 0.108297296 -0.0062285396 -0.14432347
0.089504816 0.117976144 -0.113427654 -0.012994965 0.081038415 0.11955155 0.065247506 -0.27379584
0.041032266 -0.04050422 -0.2300635 0.026058469 0.14995657 0.1359742 0.15374035 -0.110502996
-0.09611732 0.17916583 0.060645364 -0.1478948 0.10248213 0.010474926 -0.03900972 -0.012893023
0.07352525 -0.25267565 -0.015175549 -0.03732534 -0.12624514 0.067870475 -0.083674565 0.03447026
0.015939362 0.0030095438 0.13402304 -0.14440271 0.0033435095 -0.0776277 -0.03851038 -0.07915134
-0.013959762 0.20526396 0.10000256 0.042439733 0.04889914 0.12277217 -0.15397842 -0.22240008
-0.17956837 0.045259666 -0.02353411 -0.11767989 0.083758995 0.23293293 0.03828657 -0.0016324401
-0.14879857 -0.13794193 0.16040182 0.0019793701 -0.0053248135 -0.01565273 -0.1422554 -0.18041608
00000000: 66f7 5f3d 707b 6c3e aa64 35bd 0257 bb3b
00000010: a47d 03bd c83c 9dbd 2ef4 09be c0c5 103d
00000020: 455d b93b cbe2 82bc 4888 3abe b537 083e
00000030: dccc f33c 4e85 a3bd 1a29 c33d 3531 bc3d
00000040: 7020 47bd b21d c3bd 9953 2dbe cde0 433e
00000050: 2d1a 4dbe 7ac7 a63c c804 3c3e e885 82bc
00000060: e6f7 99bd 7c6e 1abd 32d1 10be 8430 63be
00000070: 1a20 993d 6b74 5dbd 9ae4 863c 9cb0 3c3d
00000080: 917e 813b 9d85 e8bd 0ac4 13be a638 1bbe
00000090: d603 9c3c c834 a23d 93a8 afbd 1497 4f3e
000000a0: 34d9 3abe 7b81 a33c bb75 7abd eb25 773e
000000b0: 8b12 e33d 2412 a83d 0e07 ee3d 26d3 cbbd
000000c0: b98e 173e b56e 42bc e288 10bd 0bca 083e
000000d0: 49eb 18be 8646 4bbd d873 e3bb 5b5c 7fbb
000000e0: 1a35 563e 7b16 06be e5cc a43e 7f04 53be
000000f0: cb5d cdbd a282 783d 30bb aa3c fdf8 643b
00000100: 744e 1c3d e58a a6bd f124 39be 4510 c4bd
00000110: 214a 15be a913 cfbd 6287 f5bc 1d95 81bd
00000120: f0f3 6a3d b30a a3bd a16e 953d d685 543e
00000130: 3351 9dbc b852 123e 02c2 39bd 31df 023d
00000140: be96 c43d 8842 01bd 7936 143e 349b 163d
00000150: fc83 01bc e3e6 ffbc 5332 a5bc e354 7c3d
00000160: 1817 2cbe db5c 93bd 186b 3c3e 4bda a53d
00000170: cd24 1e3d baa1 e23a 9718 1ebe 4b63 db3d
00000180: d064 d8bd e458 293e 1f34 96be f190 353e
00000190: d42e c2bc 00b9 28bd 91e4 963d 024d f6bc
000001a0: 261d 7fbd ac0b 2abe b9d8 853d f685 743d
000001b0: 91b6 04be 7a6f 563e 14bf 983d b3c7 273e
000001c0: 9254 3fbe 9a15 bfbc 4350 893c 914c a5bd
000001d0: ecf2 00bd 26f3 e0bc c690 d4bd 83b2 8f3b
000001e0: 778a f83d fbc6 953d 9f13 733e 5247 22be
000001f0: bcb3 9cbd ac4e 1ebd f9c7 cabc 8f39 96bd
00000200: ca0c db3b 96dd fc3d a8ca 323e 90f6 183d
00000210: e828 57bd 3e6e 28bc 4191 e1bc 6b87 803c
00000220: 4e3d b9bc 5ad7 e83d 51e0 aabe 7e05 33bc
00000230: 57d7 33bc a841 11be 16d5 d6bd 1035 10bc
00000240: 19be 833d 4a4d ad3d eec5 ce3d 44f7 a03d
00000250: 7ebb 873d eff7 063c 571b 96bd c7c3 113e
00000260: fec7 6b3d f482 693d ab79 2fbd d872 49be
00000270: 146c 1abe f0fd a43d 1214 873d b1a2 603e
00000280: de8a 413d 84bd c3bc 08bb 94bd 452a 353e
00000290: 1474 3e3d 6da2 bb3d f300 b6bd 7141 04bd
000002a0: 0339 9f3d 741b 04be 37be 39bd 8f90 803d
000002b0: 7290 b93d d48b 86bc 101c a9bd 52c8 c9bc
000002c0: 9497 8fbd 7724 79bd 9ecf e33b 8451 e63b
000002d0: bb02 d63d 883f 2e3d d660 933c b076 9b3c
000002e0: a422 7fbe 984f dbbd 964f c63d 57dd bdbc
000002f0: dc8d e5bd f9ca dd3d c718 ccbb 88c9 13be
00000300: 4d4e b73d 7a9d f13d c24c e8bd d5e8 54bc
00000310: 78f7 a53d 71d7 f43d 7ca0 853d f82e 8cbe
00000320: 7311 283d c1e7 25bd c495 6bbe 9278 d53c
00000330: 378e 193e d23c 0b3e 1c6e 1d3e 654f e2bd
00000340: 28d9 c4bd 3f77 373e 4667 783d bc71 17be
00000350: 27e2 d13d 069f 2b3c a8c8 1fbd 423d 53bc
00000360: 6894 963d b45e 81be dea2 78bc 75e2 18bd
00000370: 6846 01be adff 8a3d 925d abbd b030 0d3d
00000380: 4493 823c c43b 453b 563d 093e 4ede 13be
00000390: c81e 5b3b 46fb 9ebd 0fbd 1dbd 191a a2bd
000003a0: 7cb7 64bc b730 523e 24ce cc3d 49d5 2d3d
000003b0: 774a 483d fa6f fb3d 85ac 1dbe d9bc 63be
000003c0: c5e0 37be 3362 393d 9bca c0bc 2702 f1bd
000003d0: d689 ab3d f885 6e3e 61d2 1c3d 9af7 d5ba
000003e0: a75e 18be a640 0dbe 6040 243e 52b8 013b
000003f0: c67b aebb 273a 80bc 66ab 11be febe 38be

actor.linears.0.bias f4 [64]
0.09237526 0.16634735 0.054209236 -0.11041035 0.037195995 -0.043091923 -0.1040755 -0.03373625
-0.16153464 -0.13933553 0.027938867 -0.09210723 -0.00092800986 -0.14082518 -0.027045675 -0.13996692
0.15406977 -0.102512725 -0.03312012 -0.06637082 0.00825586 -0.020848865 0.13630724 -0.04359266
0.18367162 -0.010641112 -0.1139365 -0.018256994 -0.21630245 0.12916248 0.15536541 0.18134755
-0.032981638 -0.05321465 -0.09811836 -0.11636907 -0.112365484 -0.12848112 -0.062070724 0.03546759
-0.08661203 0.080624364 -0.12749468 -0.050697345 0.014069713 0.08592815 0.109999 -0.09229043
0.1550838 -0.004411304 -0.1514249 -0.053984694 -0.0008777601 -0.030848192 -0.07074658 -0.0035604592
-0.013072632 -0.08248422 0.10524094 -0.040161047 0.040838327 -0.1320685 -0.07998748 0.07813645
00000000: 3e2f bd3d f656 2a3e 810a 5e3d d21e e2bd
00000010: d45a 183d 2881 30bd 8925 d5bd 062f 0abd
00000020: 5669 25be f9ad 0ebe 0de0 e43c b7a2 bcbd
00000030: b045 73ba 7a34 10be e48e ddbc 7d53 0fbe
00000040: 77c4 1d3e 31f2 d1bd f7a8 07bd 6ded 87bd
00000050: 9643 073c 3dcb aabc 2094 0b3e 388e 32bd
00000060: 6a14 3c3e 0f58 2ebc 8a57 e9bd b18f 95bc
00000070: 647e 5dbe 2b43 043e 1c18 1f3e 2cb3 393e
00000080: c117 07bd 9bf7 59bd 47f2 c8bd e852 eebd
00000090: e01f e6bd 8e90 03be df3d 7ebd 7746 113d
000000a0: a661 b1bd 631e a53d f78d 02be 05a8 4fbd
000000b0: a784 663c 19fb af3d 2847 e13d c402 bdbd
000000c0: 4ace 1e3e b38c 90bb 210f 1bbe 0e1f 5dbd
000000d0: 7c19 66ba 59b5 fcbc 95e3 90bd 9856 69bb
000000e0: 982e 56bc 7ded a8bd 9088 d73d e97f 24bd
000000f0: 1746 273d f73c 07be 7ad0 a3bd 0106 a03d

actor.linears.1.weight f4 [64, 64]
-0.043580297 -0.037832502 -0.001176692 0.09624654 -0.04456142 0.036945377 -0.2895464 0.032134317
-0.044656634 -0.04308773 -0.029491022 -0.13654567 -0.01208144 0.00998442 0.05285583 0.06657374
0.19270648 -0.07174565 -0.1862551 0.17657733 0.045728065 -0.027985362 -0.073682964 0.096309625
-0.16247092 0.13353448 0.12415245 -0.08111046 0.011879971 0.14010783 0.24154365 0.063752964
-0.11524439 -0.010226212 0.06256222 -4.206202e-05 -0.19017538 -0.17173615 -0.012909535 0.12092117
0.089209385 -0.104100466 0.110382214 0.08762296 0.10282285 0.3783706 -0.12181189 -0.1415626
-0.032469757 -0.14457208 -0.009238123 -0.081625335 -0.11870339 0.019426512 -0.049734633 0.106212854
-0.04256459 -0.10192703 -0.011768071 0.00706725 -0.14559588 0.024631925 -0.08597223 0.023584986
0.035826795 0.15836355 -0.06875693 -0.15038042 -0.0033215557 0.15250047 0.14838721 -0.08583537
0.15580484 -0.06252267 -0.036671918 -0.051679965 0.13053499 0.094331935 -0.17480098 -0.12384619
-0.060618278 0.066643015 0.1528095 -0.010935817 -0.008408697 -0.21118361 0.1941889 -0.04725008
0.12631036 -0.1941006 -0.09892617 0.119377464 -0.11977902 -0.17584315 0.081927754 0.14270091
0.04493097 -0.15941201 -0.0103570875 -0.11949317 0.08170229 0.10620323 -0.046017602 0.050363332
-0.11552662 0.005742434 0.048977837 0.10672569 0.07650331 -0.123341486 0.08987996 -0.14372166
0.16180544 0.01766511 -0.06523129 0.17666125 0.16574451 -0.21117026 -0.09545784 0.04399949
0.0900045 -0.106900945 -0.1275476 -0.05670877 -0.0055250186 -0.041350044 0.106942005 -0.0366515
0.09100613 0.15268041 0.04357996 0.08764159 0.11924984 0.056172565 0.13058713 -0.06164983
0.074197344 0.05131378 -0.11318997 0.131934 -0.028147876 0.067029804 -0.13550115 -0.0046134735
-0.19588378 0.057171237 0.09125881 -0.12554531 -0.21088137 -0.07383873 -0.0050699897 -0.21700318
0.1483215 -0.004919848 0.010278085 0.14606157 -0.11980173 -0.06641308 -0.053962354 -0.12657386
0.13252294 0.10253291 -0.06766352 -0.05887761 0.1613716 -0.06405117 -0.21403044 -0.22017731
0.03469935 0.044214323 -0.21130204 0.047984634 -0.067146175 -0.31268775 0.09975888 -0.03351702
0.14586656 0.040919524 0.05749243 0.086602084 -0.0629517 -0.13270162 -0.0122397505 -0.16137373
0.19787727 -0.10936189 -0.19728132 -0.15907748 0.13499083 0.090862 0.0036166387 -0.07768034
-0.010124685 -0.0644921 -0.16765654 0.062088422 -0.048809223 -0.13952443 -0.10266421 0.08741917
-0.07102553 0.02715919 0.035367794 -0.22617231 -0.10083345 -0.10933555 0.10379842 0.034043822
0.071407504 -0.10761871 0.082072586 0.16485524 0.2665458 0.029441139 -0.06272703 0.05739891
-0.09434967 0.27565214 0.016716627 0.08270938 0.036125194 0.15281837 0.2681172 0.051357627
0.004705714 0.06363642 -0.089570805 -0.048688393 -0.23464037 -0.023196682 0.22950895 -0.10302525
-0.032895487 0.06607019 -0.008363311 -0.039544363 0.02840831 0.22591612 0.034319997 -0.11835536
-0.03131425 0.008681966 -0.076527745 0.012468323 0.08763824 0.14067805 0.095950015 0.21206641
-0.19285488 0.07667982 0.004116415 0.04553181 -0.23245001 0.07430639 -0.050350066 -0.029903352
00000000: 4181 32bd 41f6 1abd 3b3b 9aba e81c c53d
00000010: 0986 36bd 0954 173d 6d3f 94be 469f 033d
00000020: e0e9 36bd c27c 30bd 2897 f1bc a1d2 0bbe
00000030: 3bf1 45bc b195 233c 5b7f 583d d057 883d
00000040: d954 453e 62ef 92bd a8b9 3ebe b0d0 343e
00000050: 5a4d 3b3d 8f41 e5bc 18e7 96bd fb3d c53d
00000060: c75e 26be 43bd 083e a443 fe3d 3e1d a6bd
00000070: 36a4 423c 6d78 0f3e 3857 773e ea90 823d
00000080: 4005 ecbd d88b 27bc 9f20 803d c06b 30b8
00000090: 56bd 42be 9adb 2fbe 8482 53bc 85a5 f73d
000000a0: 69b3 b63d a032 d5bd 1210 e23d ab73 b33d
000000b0: c994 d23d cbb9 c13e 8378 f9bd c9f5 10be
000000c0: 02ff 04bd b40a 14be 7f5b 17bc 2f2b a7bd
000000d0: c31a f3bd 5924 9f3c 8bb6 4bbd 2086 d93d
000000e0: 3558 2ebd 1ebf d0bd dece 40bc 6494 e73b
000000f0: 1617 15be e4c8 c93c 3512 b0bd 4d35 c13c
00000100: 1ebf 123d 0e2a 223e 6fd0 8cbd 53fd 19be
00000110: 75ae 59bb 1529 1c3e d1f2 173e 74ca afbd
00000120: 4e8b 1f3e e30b 80bd 4b35 16bd 5fae 53bd
00000130: f7aa 053e 1a31 c13d 07ff 32be 12a3 fdbd
00000140: df4a 78bd 227c 883d 187a 1c3e 242c 33bc
00000150: a2c4 09bc 8440 58be 74d9 463e 4d89 41bd
00000160: 8157 013e 4fc2 46be ce99 cabd 2c7c f43d
00000170: b44e f5bd 3a10 34be bdc9 a73d 3020 123e
00000180: 8909 383d e73c 23be c6b0 29bc d6b8 f4bd
00000190: 8853 a73d 1481 d93d f47c 3cbd c849 4e3d
000001a0: 3899 ecbd 072b bc3b fc9c 483d 0093 da3d
000001b0: c4ad 9c3d 769a fcbd fc12 b83d c52b 13be
000001c0: 53b0 253e 6cb6 903c fc97 85bd b0e6 343e
000001d0: eeb8 293e 043d 58be 667f c3bd cf38 343d
000001e0: 4754 b83d e2ee dabd d79b 02be 7547 68bd
000001f0: 370b b5bb aa5e 29bd 6904 db3d e21f 16bd
00000200: 6c61 ba3d 4158 1c3e e680 323d 6f7d b33d
00000210: 4339 f43d 3415 663d a2b8 053e 8884 7cbd
00000220: c7f4 973d 662e 523d 25d0 e7bd b519 073e
00000230: 6096 e6bc ec46 893d d0c0 0abe 9f2c 97bb
00000240: c295 48be 632c 6a3d e6e5 ba3d f38e 00be
00000250: 49f1 57be c338 97bd 2822 a6bb 1536 5ebe
00000260: 97e1 173e ad36 a1bb 6a65 283c 2a91 153e
00000270: 9c5a f5bd 9503 88bd a107 5dbd 949c 01be
00000280: 18b4 073e c6fc d13d 2c93 8abd a629 71bd
00000290: 993e 253e 432d 83bd cc2a 5bbe 2976 61be
000002a0: e820 0e3d 141a 353d 905f 58be 898b 443d
000002b0: ef83 89bd 9c18 a0be 624e cc3d 2549 09bd
000002c0: 0b5e 153e 3b9b 273d 2f7d 6b3d 6f5c b13d
000002d0: d2ec 80bd efe2 07be 3c89 48bc 283f 25be
000002e0: 57a0 4a3e 20f9 dfbd 1d04 4abe 35e5 22be
000002f0: 093b 0a3e db15 ba3d 2105 6d3b df16 9fbd
00000300: 02e2 25bc 6f14 84bd 28ae 2bbe 6e50 7e3d
00000310: 2eec 47bd 7edf 0ebe 9d41 d2bd d208 b33d
00000320: d575 91bd f37c de3c d2dd 103d b799 67be
00000330: c581 cebd 51eb dfbd 4494 d43d 8971 0b3d
00000340: 193e 923d 3367 dcbd ac15 a83d d0cf 283e
00000350: b178 883e 8b2e f13c 0777 80bd 1f1b 6b3d
00000360: 663a c1bd 4722 8d3e 4ff1 883c 8963 a93d
00000370: 03f8 133d 6b7c 1c3e a846 893e 605c 523d
00000380: 6432 9a3b d053 823d e670 b7bd 7b6d 47bd
00000390: 9145 70be f806 bebc 6504 6b3e e7fe d2bd
000003a0: 6bbd 06bd cf4f 873d 4506 09bc 45f9 21bd
000003b0: 8bb8 e83c 8e56 673e 2093 0c3d 4c64 f2bd
000003c0: 5f43 00bd ce3e 0e3c 94ba 9cbd f047 4c3c
000003d0: ad7b b33d e80d 103e 7181 c43d f027 593e
000003e0: c07b 45be 4f0a 9d3d fee2 863b 907f 3a3d
000003f0: 6007 6ebe f32d 983d df3b 4ebd e0f7 f4bc

actor.linears.1.bias f4 [64]
0.10030182 0.021166809 0.010355662 -0.019891987 0.2156655 0.013640128 0.072657235 -0.05655946
0.035822872 0.04117497 -0.14789477 0.12883659 -0.054957036 -0.101383775 -0.07381674 0.058022704
-0.08356896 -0.12393535 0.01687982 -0.06259779 0.012360686 -0.0039793486 0.08063565 -0.0119946515
-0.014305688 -0.0026134718 0.018562417 0.027818402 -0.04850278 -0.11800611 0.03350677 -0.0074745
0.038309466 -0.1077843 -0.038457885 0.019375278 -0.07086392 0.19135205 -0.022760145 0.12095868
0.01744553 0.019518958 -0.010679431 0.014436731 0.067542024 -0.040114656 -0.10521955 -0.12881531
-0.044755638 -0.013665991 0.1155309 -0.13688979 0.09635811 0.09628886 0.08392191 -0.08602887
0.0063896957 0.059092853 0.074284315 0.08533275 0.02622493 0.045368932 0.019408692 0.026991138
00000000: 0a6b cd3d 0466 ad3c cbaa 293c 85f4 a2bc
00000010: 6bd7 5c3e d87a 5f3c 51cd 943d e4aa 67bd
00000020: 01bb 123d 16a7 283d ba71 17be bded 033e
00000030: a11a 61bd 4ca2 cfbd 3b2d 97bd 37a9 6d3d
00000040: 3426 abbd d1d1 fdbd 8c47 8a3c 4533 80bd
00000050: 7a84 4a3c 3265 82bb 4e24 a53d 3785 44bc
00000060: 6862 6abc c846 2bbb 3610 983c 6be3 e33c
00000070: daaa 46bd 30ad f1bd 653e 093d a7ec f4bb
00000080: 63ea 1c3d 04be dcbd 0486 1dbd e7b8 9e3c
00000090: 1a21 91bd cbf1 433e 7c73 babc 2fb9 f73d
000000a0: eee9 8e3c 39e6 9f3c c8f8 2ebc 0a88 6c3c
000000b0: 7953 8a3d 444f 24bd 597d d7bd 29e8 03be
000000c0: b051 37bd 52e7 5fbc 779b ec3d d62c 0cbe
000000d0: 6757 c53d 1833 c53d 40df ab3d e72f b0bd
000000e0: a760 d13b 590b 723d 6022 983d f0c2 ae3d
000000f0: aad5 d63c c6d4 393d fafe 9e3c 851c dd3c

actor.linears.2.weight f4 [1, 64]
0.15435742 -0.2050271 -0.1942094 0.20961301 -0.26378983 -0.19624002 -0.20254949 0.14534262
0.1076827 0.18881997 -0.16528033 -0.30431944 -0.19425628 -0.19381838 -0.11300122 0.29540107
0.28055182 0.2869986 0.26848048 0.16464975 0.21526825 0.2129575 0.18465069 -0.19408894
-0.26165184 -0.22590984 -0.1436391 -0.21602829 0.2521439 0.28949156 -0.16726318 -0.15441307
-0.26676083 0.07467028 -0.16989863 0.22725585 0.31240365 0.17869957 -0.3047145 0.11438526
0.16141504 -0.2532143 0.19675025 -0.23051377 -0.19482143 -0.20604537 0.14429533 -0.1979418
0.17936164 -0.21936618 -0.115949586 0.20236433 -0.10831506 0.2758365 -0.25886288 -0.20328987
0.118964694 -0.29080576 -0.27143693 -0.12552886 0.22831227 -0.16529198 -0.23644198 -0.27004763
00000000: df0f 1e3e a0f2 51be d4de 46be cba4 563e
00000010: 760f 87be 25f3 48be 2269 4fbe b2d4 143e
00000020: bf88 dc3d 065a 413e 3f3f 29be c2cf 9bbe
00000030: 1eeb 46be 5378 46be 2f6d e7bd cf3e 973e
00000040: 7da4 8f3e 7bf1 923e 4676 893e f299 283e
00000050: 486f 5c3e 8811 5a3e 1215 3d3e 40bf 46be
00000060: 3bf7 85be e954 67be 2116 13be 8536 5dbe
00000070: 0119 813e 3d38 943e 0a47 2bbe 761e 1ebe
00000080: e094 88be bbec 983d e8f9 2dbe c2b5 683e
00000090: 5ff3 9f3e 05fd 363e 8a03 9cbe d242 ea3d
000000a0: fc49 253e 4ea5 81be e678 493e cd0b 6cbe
000000b0: 457f 47be 8ffd 52be 28c2 133e 41b1 4abe
000000c0: 94aa 373e 87a1 60be fa76 edbd 9838 4f3e
000000d0: 49d4 ddbd 713a 8d3e ad89 84be 382b 50be
000000e0: c3a3 f33d 7ee4 94be c8f9 8abe a38a 00be
000000f0: b1ca 693e 4d42 29be d91d 72be af43 8abe

critic.linears.0.weight f4 [64, 16]
-0.04656208 -0.1249475 -0.075011425 0.22847894 -0.013310613 0.19533192 0.12474081 0.15782759
0.069909625 -0.047939695 0.053600565 -0.08853721 -0.15200657 -0.04622006 -0.111957796 -0.21674085
-0.059148993 -0.27868742 -0.1362359 0.13402396 -0.11550288 -0.12912916 -0.09171093 -0.0060785715
0.07672001 -0.11546775 0.21407059 -0.09758053 -0.013140635 -0.29770163 0.11744266 -0.07424906
0.088042386 -0.13903388 0.4813946 -0.058124006 -0.18037823 -0.00032378937 -0.15035753 -0.23560433
-0.116234474 -0.034325007 0.0028691597 0.055857413 -0.06443298 0.14460044 -0.077352375 0.14090048
-0.028167555 0.04569782 0.028652582 -0.12347437 -0.20339486 0.099766046 0.092630364 -0.2505073
-0.19575879 -0.13616426 -0.016201675 0.15039018 0.019708913 0.061389532 -0.15168512 0.12880169
-0.033678573 -0.066869244 -0.05215921 0.027686616 0.024383858 -0.09454664 0.14747873 -0.268446
0.10276375 -0.273874 0.15458773 -0.20617683 0.1942599 0.07444508 -0.007345927 0.20060545
-0.036132798 0.2664603 0.10163751 -0.35634634 -0.15587316 -0.21752344 -0.2115159 -0.14594474
0.11999844 -0.109631576 -0.121254794 -0.20855011 -0.055362195 -0.09810073 -0.066935696 0.04120424
-0.2549813 0.42956087 -0.35068572 0.08861709 -0.14537142 -0.046413384 -0.30806288 -0.11693037
0.19006737 -0.0843919 0.07349274 -0.026526922 -0.14200266 0.105652474 0.03532512 0.041526224
0.20815247 -0.24419382 0.54452497 -0.28187656 0.13084805 0.027355552 -0.2171279 -0.16133197
0.15820272 -0.1773633 0.1543251 -0.26330292 -0.17932029 0.12267795 0.115243 -0.17839496
-0.0034078916 0.07375334 0.2208957 -0.2921191 0.1408765 0.13583241 0.2798697 0.07319641
0.1386648 -0.16596943 -0.02536309 -0.0053691217 -0.1415895 -0.1239713 -0.012381679 -0.018334147
0.14338343 -0.2060803 0.19862391 -0.055099938 -0.048061214 0.15737055 0.23003328 -0.2339867
0.14922316 0.023998823 0.17603447 0.12670763 0.0007845331 0.16125192 -0.101978466 0.041206695
-0.16901228 0.00893523 -0.22835247 -0.13289967 -0.012812266 0.19096687 -0.01161654 -0.010236523
-0.018642155 0.023268308 -0.24282858 -0.14751971 0.065741464 -0.15811126 0.17929584 0.14405829
-0.13074692 0.20851466 0.09888507 0.28982502 -0.105236486 -0.19125764 -0.11585085 0.13266045
0.069483906 0.07008517 -0.0809074 -0.023861293 0.026862154 -0.12706733 -0.20805785 -0.29216197
-0.017303085 -0.09761104 -0.013855162 0.18413834 -0.06721291 -0.14714652 -0.006166779 0.17363556
0.100391455 -0.052051604 0.09917889 -0.016399276 0.16504325 -0.2896827 -0.047640182 0.20154238
0.04251466 0.058828082 0.55204326 -0.16996379 0.01069809 0.022547333 0.19591357 0.14889035
0.14174902 0.26254213 -0.1810821 0.04629324 -0.19185892 0.021105861 -0.16445456 -0.2230368
-0.12380961 -0.03326526 -0.037812483 -0.017847767 0.083143644 0.0491096 -0.021005414 0.12651978
-0.0810532 0.1753464 -0.2262917 0.051356748 0.13776238 -0.012704853 0.044814993 -0.1858884
0.15097517 -0.010982767 0.07507981 -0.14254369 -0.13837343 0.13287412 0.16489895 -0.22799186
-0.026897354 -0.20546037 0.14419349 -0.020461153 0.19976923 -0.0017247924 -0.108805805 -0.15451504
00000000: e1b7 3ebd 7ae4 ffbd 979f 99bd 62f6 693e
00000010: c214 5abc 1705 483e 1c78 ff3d 8e9d 213e
00000020: c72c 8f3d 6a5c 44bd 448c 5b3d ff52 b5bd
00000030: 9ca7 1bbe 3f51 3dbd 214a e5bd 50f1 5dbe
00000040: 3746 72bd 1eb0 8ebe 6c81 0bbe 943d 093e
00000050: c68c ecbd 6f3a 04be f1d2 bbbd c12e c7bb
00000060: 611f 9d3d 5b7a ecbd 5235 5b3e 4dd8 c7bd
00000070: d14b 57bc 596c 98be c785 f03d e40f 98bd
00000080: 914f b43d e65e 0ebe 5a79 f63e 7013 6ebd
00000090: 12b5 38be 46c2 a9b9 53f7 19be 4342 71be
000000a0: 570c eebd 6198 0cbd 8308 3c3b beca 643d
000000b0: 70f5 83bd 2312 143e ec6a 9ebd 3748 103e
000000c0: a5bf e6bc a32d 3b3d d2b8 ea3c 21e0 fcbd
000000d0: be46 50be 2452 cc3d fdb4 bd3d 7e42 80be
000000e0: fe74 48be a56e 0bbe 60b9 84bc e2ff 193e
000000f0: 9674 a13c 9773 7b3d 5853 1bbe 97e4 033e
00000100: 8bf2 09bd bef2 88bd e5a4 55bd 0bcf e23c
00000110: a8c0 c73c aba1 c1bd aa04 173e c171 89be
00000120: cd75 d23d 3739 8cbe 3f4c 1e3e 0520 53be
00000130: 11ec 463e a976 983d 1ab6 f0bb 846b 4d3e
00000140: fcff 13bd 7c6d 883e 5427 d03d 0773 b6be
00000150: 379d 1fbe 77be 5ebe a097 58be 8a72 15be
00000160: bec1 f53d 8586 e0bd 6f54 f8bd 298e 55be
00000170: 78c3 62bd 09e9 c8bd 9515 89bd c7c5 283d
00000180: e98c 82be 67ef db3e 148d b3be e07c b53d
00000190: 3fdc 14be f61b 3ebd 6bba 9dbe 3179 efbd
000001a0: 05a1 423e a9d5 acbd 5d83 963d fd4e d9bc
000001b0: 2569 11be 5360 d83d 13b1 103d 6717 2a3d
000001c0: ec25 553e f20d 7abe fd65 0b3f 2052 90be
000001d0: 08fd 053e c018 e03c c756 5ebe 3534 25be
000001e0: e5ff 213e ba9e 35be 6607 1e3e a4cf 86be
000001f0: bd9f 37be 943e fb3d 8604 ec3d 2bad 36be
00000200: ef56 5fbb fe0b 973d 7b32 623e a290 95be
00000210: ee41 103e a717 0b3e 154b 8f3e 00e8 953d
00000220: 25fe 0d3e e4f3 29be 41c6 cfbc 75ef afbb
00000230: d6fc 10be aae4 fdbd 87dc 4abc 7e31 96bc
00000240: 1bd3 123e b706 53be 1164 4b3e 79b0 61bd
00000250: d6db 44bd bf25 213e d88d 6b3e 369a 6fbe
00000260: f5cd 183e 2e99 c43c 6142 343e a5bf 013e
00000270: 20a9 4d3a 391f 253e 16da d0bd 5ac8 283d
00000280: 8e11 2dbe 1265 123c 3bd5 69be da16 08be
00000290: 8aea 51bc d28c 433e 4d53 3ebc 17b7 27bc
000002a0: 6fb7 98bc 2e9d be3c 0ea8 78be 680f 17be
000002b0: 76a3 863d ebe7 21be 5499 373e 0484 133e
000002c0: 85e2 05be de84 553e 4184 ca3d f263 943e
000002d0: 3a86 d7bd 0bd9 43be 3643 edbd 24d8 073e
000002e0: 944d 8e3d d088 8f3d c7b2 a5bd c278 c3bc
000002f0: 050e dc3c f01d 02be 1e0d 55be 4196 95be
00000300: 33bf 8dbc 4ce8 c7bd c300 63bc c38e 3c3e
00000310: eca6 89bd 94ad 16be b112 cabb 85cd 313e
00000320: 099a cd3d 1034 55bd 4d1e cb3d c657 86bc
00000330: 1901 293e 4a51 94be 5a22 43bd 2061 4e3e
00000340: da23 2e3d b7f5 703d b552 0d3f fd0a 2ebe
00000350: 0b47 2f3c 2fb5 b83c 919d 483e b676 183e
00000360: a826 113e ec6b 863e 966d 39be fb9d 3d3d
00000370: aa76 44be 33e6 ac3c c766 28be c263 64be
00000380: e58f fdbd 2741 08bd 43e1 1abd 7b35 92bc
00000390: 3747 aa3d 2627 493d 8c13 acbc 678e 013e
000003a0: 38ff a5bd 028e 333e 03b9 67be 745b 523d
000003b0: 9511 0d3e 0428 50bc ed8f 373d 8759 3ebe
000003c0: 3c99 1a3e 10f1 33bc 72c3 993d f9f6 11be
000003d0: c4b1 0dbe 2710 083e 45db 283e b376 69be
000003e0: d757 dcbc 3464 52be 75a7 133e 269e a7bc
000003f0: 4e90 4c3e 6e12 e2ba 94d5 debd 3139 1ebe

critic.linears.0.bias f4 [64]
-0.045892034 -0.12585403 0.18561314 0.20734853 -0.10842505 -0.012859086 0.021941425 0.11789653
0.2663075 -0.073622726 -0.09738089 -0.089325815 0.15612468 0.031599246 0.11610103 0.025310798
-0.043390527 0.03759775 -0.007734728 -0.14018896 0.06421379 0.1093647 -0.14759773 -0.13101193
0.07321955 0.044267833 -0.27012527 -0.023679297 -0.05072051 0.043459482 -0.19804198 0.12873165
-0.08550132 -0.2282503 -0.11972384 0.020034282 -0.014459992 -0.061879013 0.15387397 -0.18255775
0.13087977 0.20823862 0.017570458 -0.06071827 0.06583349 -0.18358463 -0.12539157 -0.10054822
0.027358573 0.09902186 0.24017513 0.0038353351 0.022961011 0.014294066 -0.20470026 0.14436749
0.15552084 0.19921832 0.0011932028 0.12317008 0.11833345 -0.12848474 -0.17666505 -0.0690516
00000000: 49f9 3bbd e1df 00be 5f11 3e3e 2c53 543e
00000010: f40d debd eaae 52bc 81be b33c bc73 f13d
00000020: 7559 883e 83c7 96bd a26f c7bd 74f0 b6bd
00000030: 26df 1f3e 366e 013d 60c6 ed3d 9758 cf3c
00000040: 44ba 31bd 1900 1a3d 9a73 fdbb b28d 0fbe
00000050: 8582 833d 9afa df3d dc23 17be fe27 06be
00000060: 22f4 953d 3052 353d dc4d 8abe 16fb c1bc
00000070: 4fc0 4fbd 9202 323d 84cb 4abe 3bd2 033e
00000080: 511b afbd 72ba 69be c631 f5bd ef1e a43c
00000090: 9ae9 6cbc d974 7dbd 2391 1d3e 6bf0 3abe
000000a0: 5905 063e 813c 553e ecef 8f3c b8b3 78bd
000000b0: b5d3 863d 9cfd 3bbe a666 00be 3aec cdbd
000000c0: 161f e03c f9cb ca3d 78f0 753e 3f5a 7b3b
000000d0: bb18 bc3c a831 6a3c f29c 51be 12d5 133e
000000e0: db40 1f3e e3ff 4b3e 3e65 9c3a 9840 fc3d
000000f0: cf58 f23d 8191 03be afe7 34be ed6a 8dbd

critic.linears.1.weight f4 [64, 64]
-0.14071201 -0.05292689 0.2536681 -0.05634246 -0.020908715 0.28887734 -0.17969295 0.0952321
0.39375663 -0.048065934 -0.14373481 0.13912532 0.080732875 0.49389714 -0.12629502 0.04674883
-0.20346981 -0.09013601 0.1773743 -0.7349647 -0.06338347 -0.06323385 0.08559403 0.00087563426
-0.033353087 0.38207075 -0.052839447 0.2437826 -0.19772424 -0.42997912 -0.2834517 0.27260676
-0.056218695 0.12260696 -0.031701587 -0.119651854 0.2790583 -0.08262916 0.16344683 -0.33199456
-0.113562405 0.1872873 -0.47484362 -0.20444646 0.032301977 -0.06980268 0.3873451 -0.08687698
0.2136848 0.31155422 0.2615915 0.19617131 0.4818178 0.12948528 -0.04097506 0.3318382
-0.1494412 -0.48889217 0.13031232 0.14894947 0.14905281 -0.03354359 -0.6203104 -0.29998255
0.11942209 -0.050070003 0.08798727 -0.07749873 0.07870521 -0.10581266 -0.044435862 -0.0900142
-0.0015577292 0.013302894 0.058385294 0.015829312 -0.06623721 0.051196508 0.069376536 0.07361171
-0.09093629 -0.019798663 -0.08333481 0.13000242 0.11682784 -0.024269916 0.01802383 -0.10544636
-0.05078583 0.10538907 -0.08052031 0.003453523 -0.0779804 0.030020144 -0.068736196 -0.112867855
0.005987489 0.01108518 -0.13197987 -0.01852188 0.031544074 -0.049329594 0.095868275 -0.06277413
-0.07656744 -0.0009326755 0.16021709 0.08184126 0.0942136 -0.122574076 -0.009222499 -0.053678323
0.04172832 -0.08288092 -0.07173106 -0.10422509 -0.046431955 0.015671251 -0.0030069381 0.02020742
-0.03871602 0.11199104 -0.03691974 -0.08693212 -0.002701184 -0.16511026 0.13553402 -0.07688093
-0.0585786 -0.07289014 0.047427215 0.114060946 -0.038644668 0.08426833 0.11847029 0.08607176
-0.08830381 0.052733917 0.08147338 -0.0009892195 0.13997003 -0.083771326 0.050676312 0.08552521
-0.13306676 0.1163682 -0.06686448 -0.119772136 -0.051033404 -0.09392099 0.04003288 -0.104391456
0.0916272 0.1361944 -0.09192587 -0.16354693 0.041862346 -0.06487011 -0.092220046 -0.11813514
-0.061299473 0.09149745 -0.027515234 -0.07224774 -0.119928114 -0.061793007 -0.08838241 0.0064718463
0.05532119 -0.14117041 -0.07698637 0.09181368 0.020326877 -0.026882552 -0.025087241 -0.017354239
0.08061022 0.09039952 -0.10074406 0.012641805 0.044117674 0.12409768 -0.13646173 -0.11438145
-0.0802378 -0.09351128 -0.017661873 -0.05652876 0.0909882 0.049700465 0.07848146 -0.087868735
0.09149155 0.0033181007 -0.07282714 0.036806934 0.10758565 -0.060359523 0.0386318 0.0060418695
0.0882393 0.12439256 -0.003388613 0.034336153 -0.0799153 -0.00571193 -0.031887993 -0.12023602
-0.11471975 -0.061694313 -0.09141159 0.13572226 0.10927295 0.05787339 -0.14229082 -0.059550878
-0.04471235 -0.065644994 0.07451713 0.03515625 -0.11633516 0.014012673 0.09021256 -0.047394022
0.102539405 0.032859802 0.059592858 0.0046786647 -0.1188058 -0.030509582 -0.0010147892 -0.05595555
-0.049637876 -0.12694386 0.15039355 0.043972395 -0.020617815 -0.028879821 0.026972806 -0.0694895
-0.076214775 -0.062487226 -0.03654128 -0.061143927 -0.060087148 0.0035131865 0.018551229 0.011624656
-0.0035518773 0.14326987 0.103574924 0.11576167 0.045214877 0.053032964 -0.03431577 0.15115096
00000000: cf16 10be dec9 58bd c9e0 813e 5ac7 66bd
00000010: c148 abbc bbe7 933e 6e01 38be 0c09 c33d
00000020: 789a c93e c9e0 44bd 382f 13be de76 0e3e
00000030: 4757 a53d 16e0 fc3e 7b53 01be b37b 3f3d
00000040: 645a 50be 3a99 b8bd 9ca1 353e a626 3cbf
00000050: 31cf 81bd c080 81bd ec4b af3d d28a 653a
00000060: 3f9d 08bd c79e c33e 2d6e 58bd 25a2 793e
00000070: 3978 4abe 3926 dcbe 9520 91be 1d93 8b3e
00000080: 9345 66bd 5c19 fb3d 86d9 01bd 080c f5bd
00000090: bbe0 8e3e 7a39 a9bd 9b5e 273e 31fb a9be
000000a0: 6893 e8bd 3ec8 3f3e b41e f3be 6a5a 51be
000000b0: 144f 043d b5f4 8ebd 1952 c63e 8fec b1bd
000000c0: 30d0 5a3e 0984 9f3e 52ef 853e 22e1 483e
000000d0: d3b0 f63e ca97 043e 77d5 27bd b2e6 a93e
000000e0: 1d07 19be 1350 fabe 9870 053e 3686 183e
000000f0: 4da1 183e 0165 09bd aacc 1ebf 5097 99be
00000100: 9293 f43d 3416 4dbd ab32 b43d a7b7 9ebd
00000110: 3230 a13d 4fb4 d8bd 6102 36bd 5d59 b8bd
00000120: b82c ccba 62f4 593c 6b25 6f3d 79ac 813c
00000130: 60a7 87bd 6eb3 513d 4915 8e3d bcc1 963d
00000140: ce3c babd ce30 a2bc 71ab aabd 5b1f 053e
00000150: 6f43 ef3d b4d1 c6bc b6a6 933c 43f4 d7bd
00000160: cd04 50bd 3ad6 d73d d5e7 a4bd 8054 623b
00000170: 30b4 9fbd ceec f53c 90c5 8cbd 4327 e7bd
00000180: b332 c43b 9d9e 353c bb25 07be 33bb 97bc
00000190: 5c34 013d d40d 4abd 9656 c43d b98f 80bd
000001a0: 64cf 9cbd cb7e 74ba f30f 243e 649c a73d
000001b0: 0ff3 c03d 1e08 fbbd f719 17bc cddd 5bbd
000001c0: 51eb 2a3d 79bd a9bd bce7 92bd f773 d5bd
000001d0: 6f2f 3ebd ff60 803c 0d10 45bb 088a a53c
000001e0: b094 1ebd 8f5b e53d 2739 17bd 7809 b2bd
000001f0: 5906 31bb aa12 29be 6ec9 0a3e c073 9dbd
00000200: 1df0 6fbd 6d47 95bd 0a43 423d c998 e93d
00000210: df49 1ebd e094 ac3d 8da0 f23d 6446 b03d
00000220: a1d8 b4bd 85ff 573d 84db a63d b3a8 81ba
00000230: 4e54 0f3e 4d90 abbd f791 4f3d d727 af3d
00000240: a742 08be 7352 ee3d 3ff0 88bd 184b f5bd
00000250: 6708 51bd a659 c0bd 84f9 233d 30cb d5bd
00000260: 0ba7 bb3d 8b76 0b3e a143 bcbd d978 27be
00000270: da77 2b3d 9fda 84bd dddd bcbd d6f0 f1bd
00000280: 2815 7bbd 0463 bb3d a167 e1bc a0f6 93bd
00000290: df9c f5bd aa1a 7dbd d601 b5bd c811 d43b
000002a0: 7998 623d fa8e 10be 08ab 9dbd d008 bc3d
000002b0: 8d84 a63c cc38 dcbc c283 cdbc 7a2a 8ebc
000002c0: f916 a53d 6223 b93d e752 cebd 931f 4f3c
000002d0: bcb4 343d ed26 fe3d a0bc 0bbe d240 eabd
000002e0: b753 a4bd d882 bfbd a2af 90bc b38a 67bd
000002f0: 0558 ba3d b792 4b3d e3ba a03d 86f4 b3bd
00000300: ec5f bb3d 7e74 593b 6526 95bd dec2 163d
00000310: de55 dc3d 8c3b 77bd 613c 1e3d e0fa c53b
00000320: ceb6 b43d 87c1 fe3d 7e13 5ebb 11a4 0c3d
00000330: a2aa a3bd 242b bbbb fc9c 02bd 4d3e f6bd
00000340: 30f2 eabd 2db3 7cbd 0036 bbbd c7fa 0a3e
00000350: 7fca df3d a60c 6d3d afb4 11be 9feb 73bd
00000360: 4c24 37bd e270 86bd 709c 983d 0000 103d
00000370: 2141 eebd 6995 653c 5dc1 b83d 3c20 42bd
00000380: 2e00 d23d 0098 063d a417 743d 7c4f 993b
00000390: 7550 f3bd 3bef f9bc ad02 85ba a631 65bd
000003a0: 1651 4bbd 92fd 01be c400 1a3e 661c 343d
000003b0: b1e6 a8bc 6095 ecbc 13f6 dc3c 8350 8ebd
000003c0: 7e16 9cbd 9bf2 7fbd 4fac 15bd 0e72 7abd
000003d0: f11d 76bd 7d3d 663b bff8 973c 5775 3e3c
000003e0: 9dc6 68bb 56b5 123e 171f d43d 7414 ed3d
000003f0: 3c33 393d 1839 593d b18e 0cbd 51c7 1a3e

critic.linears.1.bias f4 [64]
0.10927489 -0.10349682 -0.020503435 -0.024134789 -0.09084279 -0.10999427 -0.029813485 0.029210694
0.09098574 0.029185565 0.04235098 -0.11599923 -0.010767159 0.101521924 -0.08577299 0.036620334
0.09045723 -0.06876508 -0.015401566 -0.070125446 0.024852248 -0.11834769 0.11640503 0.105322674
-0.007580223 -0.03114563 -0.010513824 -0.12788226 -0.113673605 -0.07562162 -0.06533778 0.07853045
-0.04279143 -0.13926533 -0.04403102 -0.023347925 -0.055385493 -0.07667152 0.1097018 -0.025661957
0.09548469 -0.013044683 0.119594835 0.0394519 -0.028280014 0.01743686 0.002907713 0.10379239
-0.11347326 0.08265208 0.13407685 0.0595405 -0.06586803 0.051265676 0.11832766 -0.023175849
0.039118137 0.13899939 0.122099906 -0.073508106 -0.028357694 0.023704428 -0.025466511 -0.051934455
00000000: 83cb df3d 24f6 d3bd d2f6 a7bc 52b6 c5bc
00000010: c90b babd ad44 e1bd 693b f4bc 444b ef3c
00000020: bb56 ba3d 9116 ef3c 3978 2d3d 0191 edbd
00000030: bd68 30bc baea cf3d c0a9 afbd 34ff 153d
00000040: a441 b93d b5d4 8cbd da56 7cbc ee9d 8fbd
00000050: f196 cb3c 4660 f2bd c365 ee3d 6ab3 d73d
00000060: 8563 f8bb 1f25 ffbc 2d42 2cbc 91f3 02be
00000070: b5cd e8bd 82df 9abd d0cf 85bd 93d4 a03d
00000080: 1146 2fbd 929b 0ebe df59 34bd 2644 bfbc
00000090: e6db 62bd f505 9dbd 56ab e03d 0639 d2bc
000000a0: 7a8d c33d 5eb9 55bc 23ee f43d 5198 213d
000000b0: 7dab e7bc bfd7 8e3c 548f 3e3b 1b91 d43d
000000c0: ab64 e8bd 7e45 a93d 714b 093e bde0 733d
000000d0: d1e5 86bd f5fb 513d c655 f23d 47db bdbc
000000e0: 573a 203d db55 0e3e 840f fa3d 6b8b 96bd
000000f0: 654e e8bc ca2f c23c 259f d0bc 39b9 54bd

critic.linears.2.weight f4 [1, 64]
-0.04369349 -0.0014134011 0.008600494 -0.0776835 0.00047842032 0.024977155 0.04760372 0.0006866152
0.07683707 0.037113205 -0.033751782 0.045552 -0.0011056063 0.08478861 0.0020448496 -0.0071110814
-0.06273158 0.0059381607 0.004068523 0.0026145072 0.062285297 0.018692521 -0.07485128 0.054673642
0.03551741 -0.0007440308 0.053033132 0.04730914 0.08001885 0.020020114 -0.0015686853 -0.10353598
0.0031212573 0.054136295 -0.03430388 0.071253926 3.519081e-05 0.09598624 -0.003237744 -0.004131522
-0.053370453 -0.0042171385 -0.017344637 0.00060922577 -0.060701046 0.03932557 0.010750033 0.0036548972
0.08938026 -0.0021105355 -0.102943964 -0.00027378317 0.0037841785 -0.0063026045 0.005559276 -0.0038920883
-0.0019992313 -0.09401414 -0.102287665 -0.05279843 0.0020579274 -0.0012663411 0.069406986 0.043598037
00000000: f2f7 32bd df41 b9ba 16e9 0c3c 8718 9fbd
00000010: 7dd4 fa39 e49c cc3c 1efc 423d f7fd 333a
00000020: c15c 9d3d 0404 183d 4f3f 0abd bc94 3a3d
00000030: fee9 90ba a7a5 ad3d e202 063b 1304 e9bb
00000040: 6a79 80bd e794 c23b 3f51 853b 2758 2b3b
00000050: de1e 7f3d 0f21 993c a14b 99bd 78f1 5f3d
00000060: b47a 113d 100b 43ba 4539 593d 3bc7 413d
00000070: ece0 a33d 3901 a43c 589c cdba ac0a d4bd
00000080: 028e 4c3b 05be 5d3d 3a82 0cbd 94ed 913d
00000090: d899 1338 6f94 c43d 5530 54bb b861 87bb
000000a0: fa9a 5abd ec2f 8abb 5716 8ebc 73b4 1f3a
000000b0: a9a1 78bd d913 213d e820 303c 0087 6f3b
000000c0: ff0c b73d e950 0abb 49d4 d2bd 8e8a 8fb9
000000d0: fbff 773b 1486 cebb 962a b63b 6812 7fbb
000000e0: 8905 03bb 7c8a c0bd 327c d1bd 2b43 58bd
000000f0: 4bde 063b 5bfb a5ba 4025 8e3d db93 323d
