trained_network/SD2/same_10_5_12.pth (torch, 61113 bytes, 26 tensors)

feature_exact.j_encoder.linears.0.weight f4 [8, 14]
0	0xbdc0968c	-0.094037145
1	0x3dcbb4cc	0.09946594
2	0xbe45ca85	-0.19315536
3	0x3e4dac47	0.2008525
4	0xbd8de1bd	-0.06927822
5	0x3d1cb1e6	0.038255595
6	0xbe99f29b	-0.30067906
7	0x3e53b608	0.20674908
8	0x3e970210	0.2949376
9	0x3e833c18	0.25631785
10	0x3d3aeb17	0.045634355
11	0xbc7c2605	-0.015389924
12	0xbe12862b	-0.14308994
13	0xbe862a1c	-0.26204002
14	0x3d696969	0.056985293
15	0x3e8957d7	0.2682483
16	0xbdb36e17	-0.08761232
17	0xbe899926	-0.26874655
18	0xbe01b90f	-0.1266825
19	0xbdbf4e25	-0.09341077
20	0xbd8cc89c	-0.06874201
21	0xbd45b219	-0.04826555
22	0x3e0e39b7	0.13889204
23	0xbe9805e7	-0.29692003
24	0x3d54ccad	0.051953007
25	0xbddfb473	-0.1092309
26	0x3ca19790	0.019725591
27	0xbd67e7b7	-0.056617465
28	0x3de0a9da	0.109698966
29	0x3eb53233	0.3538986
30	0xbe75011e	-0.23926207
31	0xbe276f28	-0.16350996
32	0xbc72fa3a	-0.0148301665
33	0xbe042a4f	-0.12906764
34	0x3d3688c4	0.044564024
35	0xbe16b0e7	-0.1471592
36	0xbe08c544	-0.13356501
37	0x3e2206d0	0.15822911
38	0x3de93d54	0.113886505
39	0xbc1031d6	-0.008800944
40	0xbccf7c15	-0.025327722
41	0x3e7545ff	0.23952483
42	0xbddd901c	-0.10818502
43	0x3e7e3a2c	0.24826878
44	0x3e57c546	0.21071348
45	0xbe53978b	-0.20663278
46	0x3dabb45d	0.08384011
47	0x3e6740ab	0.22583263
48	0xbe0e0531	-0.13869168
49	0xbe8f9c99	-0.28049162
50	0xbe4f78ce	-0.20260927
51	0xbca166bb	-0.019702306
52	0xbe92e4d9	-0.28690222
53	0xbe181e01	-0.14855196
54	0xbe96575a	-0.2936352
55	0x3e8794f8	0.26480842
56	0x3e44161e	0.19149062
57	0xbd423aac	-0.047419235
58	0xbdd38775	-0.10328571
59	0xbc1d8d30	-0.009616181
60	0x3d2f6f06	0.04283049
61	0xbdf92faf	-0.12167298
62	0xbdbd6a3e	-0.0924878
63	0xbbcf2eb4	-0.006322706
64	0x3e485fd6	0.19567809
65	0x3deed186	0.11661057
66	0x3e067160	0.13129187
67	0xbda352db	-0.07974788
68	0xbdfad14c	-0.122469515
69	0x3e6f4243	0.2336512
70	0xbb6e75ca	-0.0036386126
71	0xbe906ef2	-0.28209645
72	0xbcc49c98	-0.024000451
73	0x3cf8e7a6	0.030383896
74	0x3e2eb3f3	0.17060833
75	0xbe1771b4	-0.14789468
76	0xbe9c14b0	-0.30484533
77	0x3e58ba20	0.21164751
78	0x3def95cd	0.11698494
79	0x3c40257d	0.011727688
80	0xbe1ee945	-0.15518673
81	0xbd27e401	-0.040988926
82	0xbdd9a634	-0.10627404
83	0x3df7762a	0.12083085
84	0xbdae3c58	-0.085076034
85	0x3dd0d5fd	0.10197065
86	0x3de4daaf	0.11174523
87	0xbd9322a3	-0.07184341
88	0x3e9bbdc4	0.30418217
89	0x3ca24bc6	0.019811522
90	0xbe8ead05	-0.27866378
91	0x3e842b88	0.25814462
92	0xbb8e7d24	-0.004348414
93	0x3c0927a4	0.0083712675
94	0xbe057231	-0.13031842
95	0x3d07712d	0.033066917
96	0x3debb759	0.1150958
97	0xbe7a0e89	-0.24419607
98	0xbe329837	-0.17440878
99	0xbdd6b45e	-0.10483621
100	0x3eb752e5	0.3580543
101	0x3daeca2f	0.08534657
102	0xbe00267f	-0.12514685
103	0x3d8e2f1f	0.069425814
104	0x3e32b1c3	0.17450623
105	0xbe94e30c	-0.29079473
106	0x3c95d1d3	0.018288529
107	0x3d166204	0.03671457
108	0x3d7b7d42	0.061398752
109	0x3e314605	0.17311867
110	0xbe7ec802	-0.24880984
111	0xbe7ec67e	-0.24880406

feature_exact.j_encoder.linears.0.bias f4 [8]
0	0xbe27426c	-0.16333932
1	0xba23cce2	-0.00062484865
2	0xbdae2760	-0.08503604
3	0x3cb3dcf0	0.021955937
4	0xbe8c7363	-0.27431783
5	0xbd2bced5	-0.041945297
6	0x3df8369e	0.121197924
7	0xbe3ec9f8	-0.18631732

feature_exact.j_encoder.linears.1.weight f4 [8, 8]
0	0x3dd2a57c	0.1028547
1	0xbe5ff93e	-0.21872422
2	0xbdf9d499	-0.12198753
3	0xbdeec8c1	-0.116593845
4	0xbc822644	-0.015887387
5	0x3e9fb5bb	0.31193337
6	0xbe8371e2	-0.25672823
7	0xbebe380a	-0.3715213
8	0x3ca38c1f	0.019964276
9	0xbe709e93	-0.23497991
10	0xbed71feb	-0.4201654
11	0x3e55a70e	0.20864508
12	0xbe96c8f8	-0.29450202
13	0x3b36c428	0.0027887914
14	0x3e89ad53	0.26890048
15	0xbd989a22	-0.074512735
16	0x3c789984	0.01517332
17	0xbced47cd	-0.028964901
18	0xbdec4a8a	-0.11537655
19	0xbca497cf	-0.02009192
20	0xbe055258	-0.13019693
21	0x3e2cb695	0.16866525
22	0xbe95fcb9	-0.29294375
23	0xbe866bd2	-0.26254135
24	0x3dce16d7	0.1006295
25	0x3ea5db2a	0.3239377
26	0x3e1fd675	0.15609153
27	0xbd704ed2	-0.05866892
28	0xbec23da4	-0.37937653
29	0xbcbdb765	-0.023158738
30	0xbcd4e032	-0.02598581
31	0x3df79a37	0.12089961
32	0x3e0ad61d	0.1355824
33	0x3e956753	0.29180393
34	0x3d8e0bbb	0.06935831
35	0x3eb86d4d	0.3602089
36	0x3e1124b8	0.14174163
37	0x3e9ced8d	0.30649987
38	0xbc000301	-0.007813216
39	0xbe894306	-0.26808947
40	0xbd8d014d	-0.06885014
41	0xbc9a6873	-0.018848633
42	0xbe339177	-0.17535959
43	0x3e31d29c	0.17365497
44	0xbe9b6c3c	-0.30356014
45	0xbe5d132e	-0.21589348
46	0xbde0e407	-0.10980993
47	0xbebf86a1	-0.374074
48	0x3bf58c3d	0.0074935243
49	0xbe247d4f	-0.16063426
50	0xbe8143c1	-0.25247005
51	0x3d64a479	0.055820916
52	0x3e86b2d9	0.26308325
53	0xbeb7f356	-0.35927838
54	0x3e30d490	0.17268586
55	0x3ea6d7ea	0.32586604
56	0x3ea9caf3	0.3316265
57	0x3e3431b4	0.17597085
58	0x3dcd2558	0.100168884
59	0xbc83e00b	-0.016098043
60	0x3ea3e0d6	0.32007474
61	0x3e2a69ac	0.16641873
62	0xbe6114e2	-0.21980622
63	0xbe5e0388	-0.21681035

feature_exact.j_encoder.linears.1.bias f4 [8]
0	0xbe8319b0	-0.25605536
1	0xbeb270ec	-0.34851778
2	0x3ea46f5c	0.3211621
3	0xbe87bc77	-0.26510975
4	0x3d635a47	0.055506017
5	0xbdd2ec13	-0.10298934
6	0x3e1e5a63	0.15464167
7	0xbe51673e	-0.2044954

feature_exact.j_encoder.linears.2.weight f4 [8, 8]
0	0xbef0fb5c	-0.47066772
1	0x3d14d335	0.036334235
2	0xba6281c2	-0.0008640551
3	0x3eb7f5fb	0.35929856
4	0x3de23f90	0.1104728
5	0xbe270717	-0.16311298
6	0xbd91d9f4	-0.071216494
7	0x3dc96fd5	0.098357834
8	0x3ddb4dc1	0.1070819
9	0x3d990833	0.07472267
10	0x3e99be46	0.3002798
11	0xbf046634	-0.5171845
12	0xbda97c49	-0.08275659
13	0x3e68bb55	0.22727711
14	0xbe8b45b4	-0.27201617
15	0x3e37787e	0.17917058
16	0x3dea3ca0	0.114373446
17	0x3d45aaba	0.04825852
18	0xbe107ef0	-0.14110923
19	0x3d7c9e08	0.061674148
20	0x3eb7ed56	0.3592326
21	0xbdafb843	-0.08580067
22	0xbe2f6494	-0.17128211
23	0x3e0b6519	0.13612784
24	0x3d73fb6c	0.059565946
25	0xbe985689	-0.2975352
26	0x3de69c8e	0.11260329
27	0x3e94d499	0.2906845
28	0xbeb254e3	-0.34830388
29	0x3da0d2db	0.078527175
30	0x3ec411fa	0.38294965
31	0xbea15cd6	-0.3151614
32	0x3bf4bb64	0.0074686278
33	0x3ddb988d	0.10722456
34	0xbe7150e1	-0.23566009
35	0xbeb5a546	-0.35477656
36	0xbd8c6ae1	-0.06856323
37	0xbe83aacd	-0.25716248
38	0xbe3d90a3	-0.18512206
39	0xbe801ef1	-0.25023606
40	0x3d98ffcc	0.074706644
41	0x3ec76603	0.38945016
42	0xbd94e069	-0.07269365
43	0x3e22e2df	0.15906857
44	0x3e6d730a	0.23188415
45	0x3c1970f4	0.009365309
46	0x3e67ea04	0.22647864
47	0x3cec86bc	0.02887284
48	0x3d0946df	0.033514854
49	0xbe0f2e9d	-0.13982625
50	0xbe21e4d0	-0.15809941
51	0x3e79d9ab	0.2439944
52	0xbd322cfa	-0.043499924
53	0xbe85eaa2	-0.26155573
54	0x3ea24e88	0.3170054
55	0xbed6edb6	-0.41978234
56	0xbca7006c	-0.020385943
57	0xbe773024	-0.24139458
58	0x3eb60fc1	0.35558894
59	0xbe37ce62	-0.17949823
60	0x3e1e57cf	0.15463184
61	0x3e7bdbb0	0.24595523
62	0xbea74c6f	-0.32675502
63	0x3e8930b6	0.26794976

feature_exact.j_encoder.linears.2.bias f4 [8]
0	0x3e7f8ba9	0.2495562
1	0xbcf6bf70	-0.030120581
2	0xbdbf8af7	-0.09352677
3	0xbbd1cca4	-0.006402569
4	0xbe8f61ac	-0.28004205
5	0xbe995c25	-0.29953113
6	0x3e62bcec	0.2214238
7	0xbe8a660d	-0.27030984

feature_exact.m_encoder.linears.0.weight f4 [8, 8]
0	0xbec484b9	-0.3838251
1	0x3da4c78c	0.08045873
2	0x3e692305	0.22767265
3	0x3e7ccb3f	0.24686907
4	0xbe20eea6	-0.15716037
5	0x3eb642c2	0.35597807
6	0xbe96eec7	-0.29479048
7	0x3e2c10cc	0.16803282
8	0x3e0cd14f	0.1375172
9	0x3e13d25b	0.14435713
10	0xbea80b89	-0.328213
11	0xbe965ff3	-0.29370078
12	0xbd9f882d	-0.07789645
13	0xbe142f3b	-0.14471142
14	0xbe49b347	-0.19697295
15	0xbe394f13	-0.1809657
16	0xbd33aafe	-0.043864243
17	0x3e980295	0.2968947
18	0x3ea93be3	0.33053502
19	0xbeb3ba56	-0.351031
20	0xbe912f46	-0.2835638
21	0xbe8412fe	-0.2579574
22	0x3e7af703	0.2450829
23	0x3e4aed87	0.19817172
24	0x3e2d39c7	0.16916572
25	0x3cbd577c	0.023113005
26	0x3e92ab49	0.28646305
27	0x3e263996	0.16232905
28	0x3deff072	0.11715783
29	0xbd02e64b	-0.031957906
30	0x3e5e7c6c	0.2172715
31	0x3d6d70e1	0.057968978
32	0x3cfd70ed	0.030937636
33	0xbebebef8	-0.37255073
34	0xbd837eff	-0.06420707
35	0xbed11bda	-0.40841562
36	0xbe870379	-0.26369837
37	0x3e24417d	0.16040607
38	0xbe7657cc	-0.2405693
39	0xbe425d31	-0.18980862
40	0x3e54d9e3	0.20786242
41	0xbe7171a2	-0.23578504
42	0x3e582258	0.21106851
43	0x3ec46505	0.38358322
44	0xbe008dad	-0.12554045
45	0xbe38b4c1	-0.18037702
46	0xbea8cdcc	-0.3296951
47	0x3dfa1c12	0.12212385
48	0xbe95d21e	-0.2926187
49	0x3ddb3160	0.10702777
50	0xbe082205	-0.13294227
51	0x3e5e2863	0.21695094
52	0x3e53242e	0.2061927
53	0x3e9f5b26	0.31124228
54	0xbd933f6a	-0.0718983
55	0x3e095dac	0.13414639
56	0x3e8fc685	0.28081146
57	0xbd4891c9	-0.048967157
58	0xbe110b67	-0.14164506
59	0x3c98083a	0.01855861
60	0xbe4fc271	-0.20289017
61	0x3e5ad2d3	0.21369486
62	0xbe95b3f9	-0.2923887
63	0x3cc4569c	0.02396708

feature_exact.m_encoder.linears.0.bias f4 [8]
0	0xbd7806b3	-0.060553264
1	0x3e488c50	0.19584775
2	0xbea97fb4	-0.33105242
3	0xbc3949b9	-0.011309081
4	0xbe63ae0d	-0.22234364
5	0xbe3fb736	-0.18722233
6	0x3eb6cf3a	0.35704976
7	0xbe544957	-0.20731102

feature_exact.m_encoder.linears.1.weight f4 [8, 8]
0	0x3e06165e	0.1309447
1	0x3dcd5aa7	0.10027056
2	0xbcbf4075	-0.023346165
3	0x3e450091	0.19238497
4	0x3d8d9765	0.06913642
5	0x3ec8f292	0.39247566
6	0x3d83e52d	0.06440196
7	0xbea0713b	-0.31336388
8	0x3d849fec	0.06475815
9	0x3d406b23	0.046977174
10	0x3e5bddfc	0.21471399
11	0x3ea3f555	0.3202311
12	0x3e23fe5a	0.16014996
13	0x3d4e0dcf	0.050306138
14	0xbe4fbb41	-0.20286275
15	0x3d760f4d	0.060073186
16	0x3e0080a1	0.12549068
17	0x3e65f09a	0.22455063
18	0xbd8d8d42	-0.069117084
19	0x3e9cb96e	0.30610222
20	0x3e0c23d4	0.13685542
21	0xbd4bc01c	-0.049743757
22	0xbc425f3d	-0.011863527
23	0xbe3bac55	-0.18327458
24	0x3e3c1db5	0.18370707
25	0xbd10a74e	-0.035315804
26	0x3d24a0c2	0.040192373
27	0x3d1b779d	0.03795587
28	0xbd829085	-0.06375221
29	0x3e3c49c0	0.18387508
30	0x3e808924	0.2510463
31	0xbdf96df8	-0.12179178
32	0xbe9c800b	-0.3056644
33	0xbe07f210	-0.13275933
34	0x3eb647e9	0.35601738
35	0xbdc780e9	-0.097413845
36	0xbdc1a881	-0.09455968
37	0x3ca7b52d	0.020472134
38	0xbe9b6125	-0.30347553
39	0xbd4018f3	-0.046898793
40	0x3e978df4	0.2960049
41	0x3e41f7ad	0.18942137
42	0xbe885fe8	-0.2663567
43	0x3e8dc303	0.27687845
44	0xbde1c759	-0.11024351
45	0xbe88e730	-0.26738882
46	0xbe88caae	-0.26717132
47	0xbea14240	-0.31495857
48	0x3ec3fe55	0.38279977
49	0x3dd2e21b	0.102970324
50	0x3e88a4a9	0.26688126
51	0x3c522533	0.012826252
52	0xbe8d460f	-0.27592513
53	0xbe455d5f	-0.192739
54	0xbe48742c	-0.19575566
55	0x3e87d847	0.26532194
56	0xbe82a815	-0.2551886
57	0xbdb859e5	-0.09001521
58	0x3e8ee009	0.279053
59	0x3e8c33fe	0.27383417
60	0x3d53bd64	0.05169429
61	0xbe9e40b0	-0.30908728
62	0xbeb1134d	-0.34585038
63	0x3e92c2cd	0.28664246

feature_exact.m_encoder.linears.1.bias f4 [8]
0	0x3e033075	0.12811454
1	0x3b990d81	0.0046707992
2	0xbe807e54	-0.2509638
3	0xbe1fe807	-0.15615855
4	0xbdc58ec8	-0.09646374
5	0xbe392179	-0.18079175
6	0x3d9fda21	0.07805277
7	0x3e706d67	0.23479234

feature_exact.m_encoder.linears.2.weight f4 [8, 8]
0	0x3e116339	0.14198007
1	0x3e8779f9	0.26460245
2	0x3dd51b75	0.10405628
3	0x3e67727b	0.22602265
4	0x3e793536	0.24336705
5	0xbe88a59b	-0.26688847
6	0xbdc564b0	-0.09638345
7	0xbe861889	-0.26190594
8	0x3e37b982	0.1794186
9	0xbd5d3329	-0.05400387
10	0xbec8d807	-0.39227316
11	0x3c94445b	0.018099
12	0x3e9b62a5	0.30348697
13	0xbe19ee10	-0.1503222
14	0x3bfbdc1f	0.0076861526
15	0x3e58d1c8	0.21173775
16	0xbeae199e	-0.3400392
17	0xbda1e576	-0.07905094
18	0xbe495c34	-0.19664079
19	0x3df8a1d7	0.121402435
20	0x3e3f5f5d	0.18688722
21	0x3e582589	0.21108069
22	0xbe14937d	-0.14509387
23	0x3ea2c7cb	0.31793055
24	0xbcfb5131	-0.030678364
25	0x3e5aa3ef	0.21351598
26	0x3df21c35	0.11821786
27	0xbd8a01fa	-0.06738658
28	0x3bd9b3e2	0.006643758
29	0x3cbab380	0.02279067
30	0x3c9fa50f	0.019487886
31	0xbe8e6e6f	-0.2781863
32	0xbd9c384c	-0.07627925
33	0xbc9bed80	-0.019034147
34	0xbe2aaf7d	-0.16668506
35	0x3e4bd46b	0.1990525
36	0xbe539d8d	-0.2066557
37	0xbd863243	-0.065525554
38	0xbd7ab85f	-0.061210986
39	0x3e826b18	0.2547233
40	0xbeb56abb	-0.3543299
41	0xbe781ea0	-0.24230433
42	0x3e291941	0.1651354
43	0xbe79b068	-0.243837
44	0xbe7c6ec2	-0.24651626
45	0xbdd60d32	-0.104517356
46	0xbe92c7e5	-0.28668132
47	0x3da81297	0.08206671
48	0x3e3024a4	0.17201477
49	0xbe4ffd8f	-0.20311569
50	0x3e77f37f	0.2421398
51	0xbddc3906	-0.10753064
52	0xbe7c8838	-0.24661338
53	0x3e9fb0d4	0.31189597
54	0x3d9c2192	0.076235905
55	0x3de966a4	0.1139653
56	0x3d9a23cc	0.07526359
57	0xbe7ecfa9	-0.24883904
58	0x3e1eea72	0.15519121
59	0x3e082374	0.13294774
60	0x3e16039e	0.14649817
61	0xbe7ef323	-0.24897437
62	0xbc3a7b06	-0.01138187
63	0xbe9cfb86	-0.30660647

feature_exact.m_encoder.linears.2.bias f4 [8]
0	0xbdbe2764	-0.09284857
1	0xbdc61c9a	-0.09673424
2	0xbdabfb4c	-0.083975405
3	0xbc622882	-0.013803603
4	0xbe090f2e	-0.13384697
5	0x3e9525f6	0.29130524
6	0x3ea5f805	0.32415786
7	0xbe070439	-0.13185205

feature_exact.j_ln.weight f4 [8]
0	0x3f81183e	1.0085523
1	0x3f821956	1.0163982
2	0x3f8ce949	1.1008693
3	0x3f8db9f2	1.1072371
4	0x3f8034d2	1.001612
5	0x3f806c45	1.0033041
6	0x3f83c7a0	1.0295296
7	0x3f82ce3b	1.0219187

feature_exact.j_ln.bias f4 [8]
0	0x399b8073	0.00029659606
1	0x3b821f01	0.003970981
2	0xbc981d69	-0.018568711
3	0x3cd6b1e8	0.02620788
4	0xba4abc0f	-0.00077337114
5	0x3c5207d5	0.01281925
6	0x3c53fca6	0.012938654
7	0x3ab85afa	0.0014065199

feature_exact.m_ln.weight f4 [8]
0	0x3f808a57	1.0042218
1	0x3f7c2551	0.9849444
2	0x3f810663	1.0080074
3	0x3f7e9032	0.99438775
4	0x3f7fec82	0.9997026
5	0x3f77c401	0.96783453
6	0x3f7897c8	0.971066
7	0x3f831304	1.0240178

feature_exact.m_ln.bias f4 [8]
0	0x3b758f8e	0.0037469598
1	0x3b8a6174	0.004223043
2	0xbb8a4465	-0.004219579
3	0x3b9b42f4	0.004738206
4	0x3bb3c0d9	0.0054856357
5	0xbcf2cfac	-0.029640041
6	0xbcd95430	-0.026529402
7	0xbc0f8c96	-0.008761546

actor.linears.0.weight f4 [64, 40]
0	0xbca904ea	-0.020632226
1	0x3da636a0	0.08115888
2	0xbd0ca60a	-0.034338035
3	0x3cd5e434	0.026109792
4	0x3cdcdb80	0.026960135
5	0x3dcaeb6e	0.09908186
6	0xbdd15cd7	-0.10222786
7	0xbd889e08	-0.06670767
8	0x3d065160	0.03279245
9	0xbd0c6d24	-0.034283772
10	0xbe548671	-0.2075441
11	0x3e2af0dd	0.16693445
12	0xbc714136	-0.01472502
13	0xbdb3ce55	-0.08779589
14	0x3da37104	0.079805404
15	0x3e00dad5	0.12583478
16	0xbda6c9de	-0.08143972
17	0xbdd0d23d	-0.1019635
18	0xbe41dd43	-0.18932061
19	0x3e3864cb	0.180072
20	0xbe2b6531	-0.1673782
21	0x3d458513	0.048222613
22	0x3e1a9955	0.15097554
23	0x3c904e72	0.01761553
24	0xbdd17f75	-0.102293886
25	0xbcfbfa19	-0.030758904
26	0xbdd1e2e4	-0.10248354
27	0xbe46b2f4	-0.19404203
28	0x3dbdcd99	0.0926773
29	0xbd9bf7ce	-0.07615624
30	0xbc9ffd22	-0.019529883
31	0x3da2f97b	0.07957741
32	0x3c235837	0.0099697625
33	0xbe0323ba	-0.12806597
34	0xbe082865	-0.1329666
35	0xbe0196fd	-0.12655254
36	0x3ceb6dd2	0.02873889
37	0x3db8b415	0.09018723
38	0xbdf952f7	-0.121740274
39	0x3e03644b	0.12831227
40	0xbd502651	-0.05081779
41	0xbdb327c4	-0.08747819
42	0x3df9994f	0.121874444
43	0x3d991318	0.07474345
44	0x3dbdc544	0.09266141
45	0x3dff442e	0.12464176
46	0x3dda1017	0.106476
47	0xbd853418	-0.06504077
48	0x3de22d23	0.110437654
49	0x3cb35e49	0.021895545
50	0xbc0fec08	-0.008784302
51	0x3dbfdb17	0.0936796
52	0xbe0fe52f	-0.1405227
53	0xbd057a68	-0.03258744
54	0xbca408ed	-0.020023787
55	0x3adf7032	0.0017046987
56	0x3e3e4f8d	0.18585034
57	0x3da24c68	0.079247296
58	0x3daea896	0.08528249
59	0xbdcb3303	-0.09921839
60	0xbda82ff7	-0.082122736
61	0x3d34bb02	0.044123657
62	0x3cabeba5	0.020986388
63	0xb680136b	-3.816958e-06
64	0x3becdeb3	0.0072286963
65	0xbdb9d093	-0.090729855
66	0xbe29ba09	-0.16574873
67	0xbe1cb94f	-0.15305065
68	0xbe080d95	-0.13286431
69	0xbda62716	-0.08112924
70	0xbd2b186e	-0.041771345
71	0xbd5bd50e	-0.05366998
72	0xbda5ecde	-0.081018195
73	0xbe5028ac	-0.20328015
74	0xbd569bd0	-0.052394688
75	0x3d4bd42b	0.049762886
76	0xbdd0cd5a	-0.10195418
77	0x3b862b62	0.004094527
78	0xbd8c0de3	-0.06838586
79	0x3d8e287b	0.06941315
80	0x3c9334d7	0.017969532
81	0xbc53b678	-0.012921922
82	0x3d5f955b	0.054585796
83	0x3dd75798	0.10514754
84	0x3d2ff5d6	0.042959057
85	0xbd86d1ec	-0.06583008
86	0xbcb4f103	-0.02208758
87	0x3d8d3f35	0.068968214
88	0xbe2c96d3	-0.1685441
89	0xbe065f83	-0.13122372
90	0x3e2be014	0.16784698
91	0x3d91c56f	0.071177356
92	0x3d4ed303	0.050494205
93	0xbc2430a7	-0.010021365
94	0xbdc0f85b	-0.0942237
95	0x3de93433	0.11386909
96	0xbda0bbb5	-0.07848302
97	0xbdf65c7d	-0.120293595
98	0xbbd21fc6	-0.006412479
99	0x3d9a4c0a	0.075340346
100	0xbd483d8d	-0.048886824
101	0xbc073f78	-0.008254878
102	0x3db0acfe	0.08626746
103	0xbd429eb1	-0.04751462
104	0xbd41f64a	-0.04735402
105	0xbd7de323	-0.061984193
106	0x3d7822fd	0.060580242
107	0x3da31c61	0.07964397
108	0xbddf8e09	-0.10915763
109	0x3e1380cb	0.144046
110	0x3dad8827	0.084732346
111	0x3e153641	0.14571477
112	0xbd7a1440	-0.06105447
113	0x3d027305	0.031847972
114	0x3e1a8e73	0.15093403
115	0x3d641902	0.05568791
116	0x3d1c9999	0.03823242
117	0x3dc5c6c5	0.09657053
118	0xbe084779	-0.13308515
119	0xbdc8382e	-0.097763404
120	0x3dbb03a2	0.09131552
121	0x3deed921	0.11662508
122	0x3dea0164	0.114260465
123	0xbdb2e0a2	-0.087342516
124	0xbd373480	-0.044727802
125	0x3bdee6c3	0.0068024113
126	0xbda07b1d	-0.07835982
127	0xbd8139b2	-0.06309833
128	0x3cbe1986	0.02320553
129	0x3dcc9105	0.09988598
130	0x3e1cdf90	0.15319657
131	0x3cc2a8ed	0.02376219
132	0xbda2a28f	-0.07941162
133	0xbb6e1361	-0.0036327469
134	0xbc6780f2	-0.014129864
135	0x3ca6216f	0.020279614
136	0xbc1b2b62	-0.0094707925
137	0xbe25bfb8	-0.16186416
138	0xbdfe2dc6	-0.12411074
139	0xbda7c7b5	-0.08192388
140	0xbca4c691	-0.020114215
141	0xbdd4687d	-0.10371492
142	0xbddf8ce8	-0.109155476
143	0xbc31eab7	-0.010859183
144	0xbc9f2fd0	-0.019431978
145	0x3e2a90e6	0.16656837
146	0x3e00bdba	0.12572375
147	0x3d96644b	0.07343348
148	0x3d924932	0.07142867
149	0x3c33db4d	0.010977578
150	0xbd9d6582	-0.07685377
151	0x3e02beb3	0.12768058
152	0x3e37b841	0.17941381
153	0x3e29d6b6	0.16585812
154	0x3d8eee3b	0.069790326
155	0xbd60d100	-0.054886818
156	0xbdd98f12	-0.106229916
157	0x3e4f3ec6	0.2023879
158	0x3d6a0bc0	0.057140112
159	0x3e139cf6	0.14415345
160	0x3d3d1d27	0.04617038
161	0x3dfb1624	0.12260082
162	0xbd69bed2	-0.057066746
163	0x3e1b227f	0.15149878
164	0xb8f519ba	-0.00011687302
165	0xbd97ba2a	-0.07408555
166	0xbdf0b894	-0.117539555
167	0x3d952bdf	0.07283758
168	0x3dd2f851	0.10301269
169	0xbe0dc692	-0.1384528
170	0xbb209a81	-0.0024506154
171	0x3d39c066	0.0453495
172	0x3e066ce4	0.13127476
173	0xbd36a2db	-0.044588905
174	0xbda8fa53	-0.082508706
175	0xbc991ac9	-0.01868953
176	0xbd597a47	-0.05309513
177	0x3c7c5784	0.015401725
178	0x3c0ad4bf	0.008473574
179	0xbcb571ef	-0.022149054
180	0x3db49dcf	0.08819162
181	0x3c87d3e1	0.016580524
182	0x3d15cde8	0.03657332
183	0x3b6a28a1	0.0035729783
184	0xbe3eda10	-0.18637872
185	0xbe229898	-0.15878522
186	0x3d7895b4	0.060689643
187	0xbbeb37eb	-0.007178297
188	0xbe06e8f2	-0.13174799
189	0x3dd1ed72	0.10250367
190	0x3c967059	0.018364118
191	0xbe1b1c84	-0.15147597
192	0x3e02b905	0.12765892
193	0x3e1ab68f	0.15108703
194	0xbd9b7fb5	-0.075927176
195	0x3b912b9d	0.004430248
196	0x3e0c1f37	0.13683783
197	0x3e1e84bf	0.15480326
198	0x3dcc5da6	0.099787995
199	0xbe200e68	-0.15630496
200	0x3d57e4af	0.052708324
201	0x3d3ee778	0.046607465
202	0xbe63d4e8	-0.22249186
203	0x3bee70c9	0.0072766286
204	0x3ddd7330	0.10812986
205	0x3c0dd41f	0.008656531
206	0x3e1fcca1	0.15605403
207	0xbd2efbb0	-0.042720497
208	0xbde5d463	-0.1122215
209	0x3e08a154	0.13342792
210	0x3df04f10	0.1173383
211	0xbdf02516	-0.117258236
212	0x3e18a11e	0.14905211
213	0xbca6d4e3	-0.020365184
214	0xbd40cef7	-0.047072377
215	0xbc1e5958	-0.009664856
216	0x3d933458	0.07187718
217	0xbdf81eb3	-0.121152304
218	0xbdeaabd5	-0.114585556
219	0x3b683790	0.0035433508
220	0xbe0627be	-0.13101098
221	0x3d2d2777	0.042273965
222	0xbd91d2a4	-0.07120255
223	0x3cccb8be	0.024990436
224	0x3d7870f2	0.060654588
225	0xbd2b2b15	-0.041789133
226	0x3de475f9	0.11155314
227	0xbe0f837f	-0.14015006
228	0x3bf55bdc	0.007487757
229	0xbdc0248a	-0.09381969
230	0xbce1a72b	-0.027545532
231	0xbd8f6297	-0.070012264
232	0xbcf18a10	-0.029484779
233	0x3e29a4fa	0.1656684
234	0x3d99bd6d	0.07506833
235	0x3c186dd5	0.00930353
236	0x3d396eaa	0.045271553
237	0x3dd17247	0.10226875
238	0xbe1c54ae	-0.15266678
239	0xbe13ba58	-0.14426553
240	0xbdf6244d	-0.120186426
241	0x3e36b122	0.17841008
242	0xbdaa52d2	-0.08316578
243	0xbde2f85a	-0.110825256
244	0x3d7924e4	0.060826197
245	0x3d355efa	0.04428003
246	0x3ca821e3	0.020523971
247	0x3ddda539	0.10822529
248	0xbd64ea47	-0.055887487
249	0xbe31577c	-0.17318529
250	0x3db1036c	0.08643231
251	0xbc734179	-0.014847153
252	0xbd0a658d	-0.033788253
253	0xbcd64fc4	-0.026161082
254	0xbe0fd10d	-0.1404459
255	0xbe0ff571	-0.14058472

actor.linears.0.bias f4 [64]
0	0x3d7a4fbc	0.061111197
1	0x3e2124b4	0.15736657
2	0x3d8b78aa	0.06810124
3	0xbde198ab	-0.11015447
4	0x3d606606	0.054784797
5	0xbd0c8197	-0.034303274
6	0xbdb0a782	-0.086256996
7	0xbd3fe5e9	-0.04685012
8	0xbe15d889	-0.14633383
9	0xbd900879	-0.07032866
10	0x3dbe8394	0.0930244
11	0xbdbdecff	-0.09273719
12	0xbc59de2d	-0.0132976
13	0xbe0ac540	-0.13551807
14	0x3c797ad5	0.015227039
15	0xbe0f0c59	-0.13969554
16	0x3df8a0a6	0.12140016
17	0xbe18ee7a	-0.14934722
18	0xbd8be16a	-0.06830104
19	0xbd7da3e2	-0.06192387
20	0xbcdb86f6	-0.026797753
21	0xbceb8a1c	-0.02875238
22	0x3dd5c3d0	0.10437739
23	0xbd5e4349	-0.054263387
24	0x3e26cfc3	0.16290192
25	0xbccb6ece	-0.02483311
26	0xbe11c059	-0.14233531
27	0x3b98e31a	0.0046657445
28	0xbe470ea6	-0.19439182
29	0x3dd5887c	0.10426423
30	0x3e12276e	0.14272854
31	0x3e0b00db	0.13574545
32	0xbcdb47ac	-0.026767574
33	0xbc284608	-0.010270603
34	0xbdcce447	-0.10004478
35	0xbdc85005	-0.097808875
36	0xbdbff48a	-0.09372814
37	0xbdfe6fd7	-0.124236755
38	0xbddd005b	-0.107910834
39	0x3c61bccb	0.013777922
40	0xbd839b42	-0.064260975
41	0x3dfd3018	0.12362689
42	0xbe2335d9	-0.1593851
43	0xbdacd366	-0.084387586
44	0xbcfd293d	-0.030903453
45	0x3d36530e	0.0445128
46	0x3dec9df6	0.11553566
47	0xbdac538d	-0.084143735
48	0x3e273bae	0.1633136
49	0x3a83c459	0.0010053023
50	0xbdfa4f7a	-0.1222219
51	0xbd8498b3	-0.064744376
52	0xbd0a1847	-0.03371456
53	0xbd08fcd5	-0.033444244
54	0xbdd520e4	-0.10406664
55	0xbc76ff2e	-0.015075488
56	0x3b05768f	0.0020364856
57	0xbd69a8b5	-0.057045657
58	0x3e030d98	0.12798154
59	0xbd435f07	-0.047698047
60	0x3d6b4d64	0.057446852
61	0xbdc29591	-0.09501184
62	0xbdfb441f	-0.122688524
63	0x3da56406	0.080757186

actor.linears.1.weight f4 [64, 64]
0	0xbd64d94a	-0.055871285
1	0x3db6fb10	0.08934605
2	0xbc19da4a	-0.009390423
3	0x3d6159a4	0.05501713
4	0xbd5e1bc1	-0.054225687
5	0x3d8b1fbd	0.06793163
6	0xbe4c88d4	-0.19974071
7	0x3b8c79bb	0.0042869723
8	0xbd4d18be	-0.050072424
9	0x3c9a59ef	0.018841712
10	0xbdc12b02	-0.09432031
11	0xbd8bd2e2	-0.06827332
12	0x3d4a7b8c	0.04943423
13	0xbd05fc37	-0.032711234
14	0x3ca53d9e	0.020170983
15	0x3c934728	0.017978266
16	0x3deb7343	0.11496594
17	0xbdf075f4	-0.11741248
18	0xbe0c4e95	-0.13701852
19	0x3dfcb80a	0.1233979
20	0xbca4ea47	-0.020131243
21	0xbc899d20	-0.016798556
22	0xbd7ae65a	-0.061254837
23	0x3d920ada	0.07130976
24	0xbd8d080c	-0.068863004
25	0x3dd53a51	0.104115136
26	0x3dbc97c1	0.09208632
27	0xbcad6d25	-0.021170208
28	0x3c6b717a	0.014370317
29	0x3c2ee47f	0.010674595
30	0x3de41e3a	0.11138578
31	0xba9f50d3	-0.0012154825
32	0xbdb38ba8	-0.08766872
33	0xbd3da742	-0.046302088
34	0x3d203c3a	0.039119937
35	0xbc2215c1	-0.009892882
36	0xbd94bf17	-0.0726301
37	0xbe0ffc45	-0.14061077
38	0xbd91d16b	-0.071200214
39	0x3df0f389	0.11765201
40	0x3d765b0a	0.060145415
41	0xbbec55a8	-0.0072123595
42	0x3c2bfc18	0.010497116
43	0x3c6642ad	0.014053983
44	0x3d4ba236	0.049715243
45	0x3e286313	0.16444044
46	0xbd95e2a3	-0.07318618
47	0xbdc1884c	-0.09449825
48	0x3d1e6a51	0.03867561
49	0xbe17df82	-0.14831355
50	0x3dc5fb9b	0.096671306
51	0xbde3197c	-0.11088845
52	0xbe2b9b62	-0.16758493
53	0x3cc8152b	0.024424156
54	0xbd321294	-0.04347475
55	0x3db3ba4b	0.08775767
56	0x3c91be21	0.017790856
57	0xbc848c5a	-0.016180206
58	0xbdaaff33	-0.08349457
59	0xbd1b9b4a	-0.037989892
60	0xbc25a648	-0.010110445
61	0x3d5b2dcb	0.05351047
62	0xbda81ab9	-0.08208222
63	0x3c8cc447	0.017183436
64	0x3c5c5230	0.013447329
65	0x3c2bfabd	0.010496792
66	0x3d2391cb	0.03993396
67	0xbd8ba85d	-0.06819222
68	0x3bd8cb32	0.0066160196
69	0x3d992905	0.07478527
70	0x3e37a148	0.17932618
71	0xbdee2043	-0.11627247
72	0x3e1806a1	0.14846279
73	0xbdd134e1	-0.10215164
74	0x3d3624a4	0.044468537
75	0xbd96b256	-0.07358234
76	0x3da695e5	0.08134059
77	0x3dd6ea7c	0.10493943
78	0xbdc9ae97	-0.098477535
79	0xbd4e29be	-0.050332777
80	0xbda1c39a	-0.07898636
81	0x3d42a116	0.047516905
82	0x3cd3eca8	0.025869682
83	0xbd5412d5	-0.051775772
84	0xbdc9da23	-0.098560594
85	0xbe37d1e6	-0.17951164
86	0x3e0e4a93	0.13895635
87	0xbd6bcea8	-0.05757013
88	0x3d4a292a	0.049355663
89	0xbe151b1f	-0.14561127
90	0xbd7cf538	-0.061757296
91	0x3d8924e0	0.066964865
92	0xbe03bfc1	-0.12866117
93	0xbe1f86ac	-0.15578717
94	0x3ca4a6ed	0.020099128
95	0x3dc3194d	0.0952631
96	0x3d67eff3	0.056625318
97	0xbd1cacac	-0.03825061
98	0x3d0d7a47	0.03454044
99	0xbd5166ea	-0.051123537
100	0x3dcccee9	0.100004025
101	0x3d232857	0.039833393
102	0xbcbd501c	-0.023109488
103	0x3b296beb	0.0025851678
104	0xbda44b43	-0.080221675
105	0x3c29f3cf	0.01037307
106	0x3ced19a6	0.028942894
107	0x3dc79bd5	0.097465195
108	0x3b20a658	0.002451321
109	0xbde0843f	-0.10962724
110	0x3d9899e4	0.07451227
111	0xbd90f054	-0.07077089
112	0x3e1709f3	0.14749889
113	0xbbd1c757	-0.006401937
114	0xbdd024df	-0.101632826
115	0x3daf82ad	0.08569846
116	0x3e2c15de	0.16805217
117	0xbe3ba5b5	-0.18324931
118	0xbd85bde2	-0.06530358
119	0xbb951ba2	-0.004550413
120	0x3e1fee4a	0.15618244
121	0xbe13029d	-0.14356466
122	0xbaabcfe5	-0.0013108222
123	0xbdb386f4	-0.08765975
124	0x3c603797	0.013685129
125	0x3c203340	0.009777844
126	0x3dcc4043	0.099731945
127	0xbbfeee10	-0.007779844
128	0x3dcf006d	0.10107503
129	0xbcbdd277	-0.023171647
130	0x3d8eff32	0.069822684
131	0x3e067f2e	0.13134453
132	0x3e0e074e	0.13869974
133	0x3c1ba4e8	0.009499766
134	0x3d904e73	0.07046213
135	0xbd516851	-0.051124875
136	0x3d872ff5	0.06600944
137	0xbd1d73f5	-0.038440663
138	0xbd964784	-0.07337859
139	0x3d8ffe18	0.070308864
140	0xbd9406c1	-0.07227851
141	0x3e0f44fc	0.13991159
142	0xbde3c0b4	-0.111207396
143	0x3da3301b	0.0796816
144	0xbde4b7c4	-0.11167863
145	0x3dee7857	0.11644047
146	0x3d8883e7	0.066657834
147	0xbdb0ab9d	-0.08626483
148	0xbe0d2056	-0.13781866
149	0xbd353b21	-0.044245843
150	0xbb49f21e	-0.003081448
151	0xbe3e76bf	-0.18599986
152	0x3d69592c	0.056969807
153	0x3d5eece6	0.054425143
154	0x3d95be93	0.0731174
155	0x3d8b8457	0.06812351
156	0xbe05f163	-0.13080363
157	0x3d054686	0.03253796
158	0x3d4bfacd	0.04979973
159	0xbdb27aea	-0.0871485
160	0x3de078c7	0.109605365
161	0x3e0be4eb	0.13661544
162	0x3b99f585	0.0046984577
163	0xbc97576e	-0.018474307
164	0x3d7789f2	0.06043429
165	0xbdbeb291	-0.093114026
166	0xbdef13cc	-0.11673698
167	0xbe55e924	-0.20889717
168	0x3d6a3fba	0.05718968
169	0xbd8756a9	-0.06608326
170	0xbdb59d76	-0.08867924
171	0x3e052646	0.13002881
172	0xbcabe8d0	-0.020985037
173	0xbdf38a4a	-0.11891611
174	0x3d770a3b	0.06031249
175	0xbdb44a8c	-0.08803281
176	0x3d206281	0.03915644
177	0x3bc82c1f	0.0061087753
178	0xbd95a849	-0.073074885
179	0x3ded2345	0.11578993
180	0xbcff1dba	-0.031142104
181	0xbe07a8a6	-0.13247928
182	0x3b686e23	0.0035466037
183	0xbe0778f5	-0.13229735
184	0x3e321a88	0.17392933
185	0xbe309cff	-0.1724739
186	0xbde46b18	-0.11153239
187	0xbe153242	-0.14569953
188	0x3c479434	0.0121813305
189	0x3d7ad181	0.061234955
190	0x3c8b57b1	0.017009588
191	0xbda553b6	-0.08072607
192	0xbda9cea3	-0.08291366
193	0x3d4502eb	0.048098486
194	0xbe2875d4	-0.16451198
195	0x3c73711c	0.01485851
196	0xbd8588fa	-0.06520267
197	0xbd5e1779	-0.054221604
198	0xbd98141c	-0.074257106
199	0xbc1f39dd	-0.0097183855
200	0xbe07546d	-0.132158
201	0x3df53dde	0.11974691
202	0xbd6a4f5f	-0.0572046
203	0xbd87c05d	-0.06628487
204	0xbab902aa	-0.0014115174
205	0xbe149b2d	-0.1451232
206	0x3e0c1f63	0.13683848
207	0xbd54f5af	-0.051992115
208	0x3d1ce22e	0.03830164
209	0xbe1b5de9	-0.15172543
210	0x3d92c2a3	0.0716603
211	0x3dd73963	0.105089925
212	0x3e034001	0.12817384
213	0x3d42d933	0.04757042
214	0xbdcc7e22	-0.099849954
215	0x3dd66617	0.10468691
216	0x3ddc7d01	0.1076603
217	0x3e1d052a	0.15334001
218	0xbc1ef653	-0.009702283
219	0x3de6fe39	0.11278958
220	0x3d58f1ce	0.052964978
221	0x3da37fb3	0.07983341
222	0x3e1c86b6	0.15285763
223	0x3dbf6ffc	0.09347531
224	0xba73c6c2	-0.00092993316
225	0xbb2e02cf	-0.0026551967
226	0xbde5d2a7	-0.11221819
227	0xbd08c447	-0.03339031
228	0xbd344f76	-0.044021092
229	0x3d982b3a	0.0743012
230	0x3df41b3f	0.11919259
231	0xbce964f5	-0.028490523
232	0xbb09e413	-0.0021040484
233	0x3dcd7657	0.10032337
234	0xbd93cf41	-0.07217265
235	0xbd82c74f	-0.06385671
236	0x3d3b396c	0.04570906
237	0x3d8690b4	0.06570569
238	0x3cfa5241	0.0305568
239	0xbd9f0559	-0.07764692
240	0x3d9d0b9a	0.076682284
241	0x3d6b3edb	0.05743299
242	0x3c4f8397	0.012665651
243	0xbbf21826	-0.0073881326
244	0x3d181c3a	0.037136294
245	0x3e33ada0	0.17546701
246	0x3d54cf7b	0.05195568
247	0x3de1317d	0.10995767
248	0xbe44a770	-0.19204497
249	0x3e0a9ce3	0.1353641
250	0xbd0e4f03	-0.03474332
251	0x3a926500	0.0011169016
252	0xbd064e15	-0.03278931
253	0x3ddf6078	0.10907072
254	0xbde1cb12	-0.11025061
255	0x3c725293	0.014790195

actor.linears.1.bias f4 [64]
0	0x3d0a57dd	0.0337752
1	0xbba72bfc	-0.005101679
2	0x3d600b1f	0.054698106
3	0xbd4afb40	-0.049556017
4	0x3dd7c4f7	0.10535615
5	0x3da32668	0.0796631
6	0xbc95660e	-0.01823714
7	0xbd474455	-0.04864915
8	0x3db6e449	0.08930261
9	0x3d07ffc6	0.03320291
10	0xbdf7a450	-0.12091887
11	0x3da5c337	0.08093875
12	0xbd685b72	-0.056727834
13	0xbd81e742	-0.06342937
14	0xbd75bd9b	-0.059995275
15	0x3d991b36	0.07475893
16	0xbce5f844	-0.028072484
17	0xbd53543d	-0.051594008
18	0x3cfd580f	0.030925779
19	0xbd80651b	-0.06269284
20	0x3dc28c90	0.094994664
21	0x3c8ddb80	0.01731658
22	0x3d883e16	0.06652467
23	0xbd8d1c46	-0.06890158
24	0x3c47d1d5	0.012196024
25	0x3d5ec74d	0.054389287
26	0x3c94ee3e	0.018180009
27	0x3cafd0c6	0.021461856
28	0xbcdcdd2c	-0.026960932
29	0xbca8403d	-0.020538444
30	0x3d03585e	0.032066695
31	0xbb66df44	-0.0035228292
32	0xbcbae765	-0.022815416
33	0xbd5b1fdb	-0.053497177
34	0xbd8a6a77	-0.06758588
35	0x3b90703c	0.0044079106
36	0xbd8a0af6	-0.06740372
37	0x3df4258f	0.11921226
38	0x3d3a9e22	0.045560963
39	0x3d9cc919	0.07655544
40	0xbc39950e	-0.011327041
41	0xb9e937d1	-0.0004448281
42	0xbc24cc58	-0.010058485
43	0x3d47bc16	0.048763357
44	0x3d57f7cc	0.052726552
45	0x3c45d170	0.01207386
46	0xbd98b1ed	-0.07455812
47	0xbdb86b77	-0.09004872
48	0xbda2ac90	-0.0794307
49	0xbca8e4c0	-0.020616889
50	0x3c186341	0.009301008
51	0xbdb73416	-0.089454815
52	0xbccb293f	-0.024799941
53	0x3d9917e7	0.07475262
54	0x3dc846b8	0.097791135
55	0xbd6204c1	-0.055180315
56	0xbd91ff4d	-0.07128773
57	0x3d6c5c8c	0.057705447
58	0x3db62acb	0.08894881
59	0x3da12c37	0.078697614
60	0x3dbab5d1	0.0911671
61	0x3d37cdd0	0.044874012
62	0x3c8568ea	0.016285378
63	0x3d4be1d3	0.04977591

actor.linears.2.weight f4 [1, 64]
0	0x3d634415	0.05548485
1	0xbddcd3fe	-0.10782622
2	0xbe09a119	-0.1344036
3	0x3e1a3f39	0.1506318
4	0xbe4235de	-0.18965861
5	0xbded333a	-0.11582036
6	0xbdf69b19	-0.12041301
7	0x3ddb5d70	0.10711181
8	0x3da6a881	0.08137608
9	0x3e173426	0.14765987
10	0xbe23aee3	-0.15984683
11	0xbe57606f	-0.2103288
12	0xbdfaaf07	-0.12240415
13	0xbdfb9ac3	-0.12285378
14	0xbdc67e93	-0.09692111
15	0x3e510ca0	0.20414972
16	0x3e44b54d	0.19209786
17	0x3e5315bb	0.20613758
18	0x3e40d5f5	0.18831618
19	0x3dfe954e	0.12430821
20	0x3e221fcc	0.15832442
21	0x3e011018	0.12603796
22	0x3ddf8eb7	0.109158926
23	0xbe26d623	-0.16292624
24	0xbe24164a	-0.16024128
25	0xbe29f369	-0.1659676
26	0xbd9c38aa	-0.07627995
27	0xbdd4c5e4	-0.10389307
28	0x3e291fd7	0.16516052
29	0x3e51e544	0.20497614
30	0xbddebff2	-0.108764544
31	0xbdca4ed5	-0.09878317
32	0xbe1e606e	-0.15466473
33	0x3dc84876	0.09779446
34	0xbdebb18f	-0.11508476
35	0x3e24807d	0.1606464
36	0x3e445ed4	0.19176799
37	0x3e387386	0.18012819
38	0xbe4f4967	-0.20242845
39	0x3d9f40f4	0.07776061
40	0x3dfbb349	0.12290055
41	0xbe236238	-0.15955436
42	0x3dc2468a	0.094861105
43	0xbe19768f	-0.14986633
44	0xbdd021df	-0.101627104
45	0xbdfbb53a	-0.122904256
46	0xbdb09cad	-0.086236335
47	0xbdc40c89	-0.095727034
48	0x3e191f7b	0.14953415
49	0xbe0a63d9	-0.13514651
50	0x3dd0c6d3	0.10194173
51	0x3ddd3e74	0.108029276
52	0x3d9236ea	0.0713938
53	0x3e2514ba	0.16121188
54	0xbe41aaa2	-0.18912748
55	0xbe1f36a6	-0.1554819
56	0xbdbdf09f	-0.092744105
57	0xbe3153e6	-0.17317161
58	0xbe3963ad	-0.1810443
59	0xbd8cd159	-0.068758674
60	0x3df3d96c	0.11906704
61	0xbdc2d927	-0.09514075
62	0xbe3c1da0	-0.18370676
63	0xbe4f761c	-0.20259899

critic.linears.0.weight f4 [64, 16]
0	0xbd571559	-0.052510593
1	0x3bf7b541	0.007559449
2	0xbb11cd8f	-0.0022247767
3	0x3e7caaba	0.24674502
4	0xbd3624c8	-0.04446867
5	0x3e195124	0.14972359
6	0x3e1cb7de	0.15304515
7	0x3e1b3917	0.15158497
8	0x3cbb8426	0.022890162
9	0x3b6e003f	0.0036316065
10	0x3d30881c	0.043098554
11	0xbe0e7209	-0.13910688
12	0xbe3a736d	-0.18208094
13	0xbd01bdb4	-0.031675056
14	0xbdc7d259	-0.097569175
15	0xbe555903	-0.20834737
16	0x3b3fac4f	0.002924699
17	0xbe527066	-0.20550689
18	0xbe45129a	-0.19245377
19	0x3e83be77	0.2573125
20	0xbe493ebf	-0.19652842
21	0xbe5667c9	-0.20938028
22	0xbbc53ced	-0.006019226
23	0xbdad2ac5	-0.08455423
24	0x3de56179	0.11200232
25	0xbd66ca37	-0.05634519
26	0x3e09bb83	0.13450436
27	0xbe4c609b	-0.19958727
28	0xbd68b627	-0.05681434
29	0xbe5b783e	-0.21432588
30	0x3e44f791	0.19235064
31	0xbe182292	-0.14856938
32	0x3dd0695e	0.10176347
33	0x3ce00f98	0.027351186
34	0x3ea3bc54	0.3197962
35	0xbc43e240	-0.011955798
36	0xbe39a676	-0.18129906
37	0xbcd67671	-0.026179524
38	0xbe1cefad	-0.15325804
39	0xbe6d7cba	-0.2319211
40	0xbda1aac6	-0.078939006
41	0xbcd0a5d4	-0.025469698
42	0xbb831e1f	-0.0040013934
43	0x3d9f2b4d	0.07771931
44	0xbd9e6cc1	-0.07735587
45	0x3e19ddbf	0.15025996
46	0xbd8b16f0	-0.06791484
47	0x3df40a1c	0.11915991
48	0xbd8083ab	-0.06275114
49	0x3db52e6d	0.08846746
50	0x3cfb3a6d	0.030667508
51	0xbe24eb9e	-0.16105506
52	0xbe249acd	-0.16074677
53	0x3e01a059	0.12658824
54	0x3d2f9a12	0.042871542
55	0xbe4af54e	-0.19820139
56	0xbe3a1e31	-0.1817558
57	0xbe2cdc94	-0.16881019
58	0x3d053601	0.032522205
59	0x3e4553bf	0.19270228
60	0x3d552174	0.052033857
61	0x3cca1422	0.024667803
62	0xbe42423d	-0.1897058
63	0x3e1f615e	0.15564486
64	0xbd819aa2	-0.06328322
65	0xbe23eb47	-0.1600772
66	0x3e1c7503	0.15279011
67	0xbd636ea4	-0.055525437
68	0x3d3ee9c4	0.046609655
69	0xbd524b73	-0.051341485
70	0x3dee9b34	0.116506964
71	0xbe6cfb3a	-0.2314271
72	0x3d3bc1b4	0.045839027
73	0xbe662625	-0.22475488
74	0x3e4d9fa8	0.20080435
75	0xbe6ae6a4	-0.22939545
76	0x3e5d0cf9	0.2158698
77	0x3d276a38	0.040872782
78	0xbd2c29b6	-0.042031966
79	0x3e812548	0.25223756
80	0x3b5f354a	0.0034058862
81	0x3e2c51e2	0.16828111
82	0xbd853a5b	-0.06505271
83	0xbead4ac0	-0.33846092
84	0xbe20603a	-0.15661708
85	0xbe5adfa8	-0.2137438
86	0xbe569fff	-0.20959471
87	0xbe2b727c	-0.16742891
88	0x3e3de7f2	0.18545511
89	0xbd9ff006	-0.07809453
90	0xbe188e9a	-0.14898148
91	0xbe358d9e	-0.17729804
92	0xbd7821ee	-0.060579233
93	0xbdb85007	-0.08999639
94	0xbd4ae083	-0.049530517
95	0x3ba32e37	0.0049798745
96	0xbe5575f9	-0.20845784
97	0x3e367d6f	0.17821287
98	0xbe4cca04	-0.19998938
99	0x3dc2a378	0.095038354
100	0xbe4e6676	-0.20156273
101	0xbd91b7a3	-0.07115104
102	0xbe7be809	-0.24600233
103	0xbe40911e	-0.18805358
104	0x3e08043e	0.13282868
105	0xbd542aa2	-0.05179847
106	0x3c5a0046	0.013305729
107	0xbdd9554e	-0.10611974
108	0xbe3ad946	-0.18246946
109	0x3e0f7fef	0.14013647
110	0x3dad7f84	0.08471587
111	0xbbbd6134	-0.00577941
112	0x3e556168	0.20837939
113	0xbd0a92f7	-0.033831563
114	0x3eb5735b	0.35439572
115	0xbe38f75b	-0.18063109
116	0x3e0dc490	0.13844514
117	0x3c8ca9fc	0.017170899
118	0xbe67396c	-0.22580498
119	0xbe1dc97c	-0.15408891
120	0x3e6163c0	0.22010708
121	0xbe145aa5	-0.14487703
122	0x3e1e2f8f	0.1544783
123	0xbe6fc1fd	-0.23413844
124	0xbe3a3b07	-0.1818658
125	0x3df06fcb	0.11740073
126	0x3dec01ec	0.11523804
127	0xbe4381ae	-0.19092438
128	0x3bb93a66	0.0056527136
129	0x3dcb3c86	0.09923653
130	0x3d008531	0.03137702
131	0xbe994128	-0.29932523
132	0x3e2b5012	0.16729763
133	0x3e1a905d	0.15094133
134	0x3e7fd29e	0.24982688
135	0x3dba6dcd	0.09102974
136	0x3e674110	0.22583413
137	0xbe843667	-0.25822756
138	0xbd169ebf	-0.036772486
139	0x3db2fd1f	0.08739685
140	0xbe03189b	-0.12802355
141	0xbe05e557	-0.13075767
142	0xbcc3c031	-0.023895355
143	0xbc6a81cb	-0.014313172
144	0x3e231037	0.15924154
145	0xbd83f581	-0.064433105
146	0x3e030473	0.12794666
147	0xbd5264ad	-0.051365543
148	0xbd6c8847	-0.05774715
149	0x3e07c9da	0.13260594
150	0x3e6ab0e6	0.22919044
151	0xbe69b4f4	-0.22822934
152	0x3e438f5e	0.19097659
153	0x3cf6f93b	0.03014814
154	0x3e294442	0.16529945
155	0x3e096bb9	0.13419999
156	0xbc551905	-0.013006453
157	0x3e2c86de	0.16848323
158	0xbdb62a62	-0.08894803
159	0x3c9665ba	0.018359054
160	0xbe39292f	-0.18082117
161	0xbc589420	-0.0132189095
162	0xbe30bed6	-0.17260298
163	0xbdfe032f	-0.12402951
164	0xbc5c6c9c	-0.013453629
165	0x3e42c69b	0.19021074
166	0xbba6eb75	-0.0050939866
167	0xbbfc2d96	-0.007695864
168	0x3db5642d	0.08856998
169	0x3dd81cee	0.10552393
170	0xbe776fd9	-0.2416376
171	0xbe2bab71	-0.16764618
172	0x3d8ba4c3	0.06818535
173	0xbe4bfd46	-0.19920835
174	0x3e2c28cd	0.1681244
175	0x3e31d3bc	0.17365927
176	0xbe24b76e	-0.16085598
177	0x3d5eb270	0.05436939
178	0x3db2f03e	0.08737229
179	0x3e8f0fa1	0.2794161
180	0xbd964de2	-0.07339074
181	0xbe185a50	-0.14878201
182	0xbe0cb6a9	-0.13741554
183	0x3e147b7d	0.14500232
184	0x3d0355cc	0.032064244
185	0x3d774d00	0.060376167
186	0xbd477fca	-0.048705854
187	0xbc162995	-0.009165187
188	0x3d7d29f0	0.061807573
189	0xbe259113	-0.16168623
190	0xbe72f75b	-0.23727171
191	0xbe8233fc	-0.25430286
192	0x3d1425fe	0.036169045
193	0xbe185dbd	-0.14879508
194	0xbd56a226	-0.05240073
195	0x3e84e670	0.2595706
196	0xbdfde8e7	-0.12397938
197	0xbe414fa3	-0.18878035
198	0x3d6956aa	0.056967415
199	0x3ddc99b0	0.10771501
200	0x3e13a3f3	0.1441801
201	0x3cc39e39	0.023879157
202	0x3d06f586	0.032948993
203	0xbdb71fed	-0.08941636
204	0x3deaca4c	0.11464366
205	0xbe78a9ae	-0.24283478
206	0x3bc00464	0.0058598984
207	0x3e281470	0.16414046
208	0x3d38110b	0.04493813
209	0x3ddf2992	0.10896601
210	0x3e666f14	0.2250331
211	0xbda701f4	-0.081546694
212	0x3d43ea45	0.04783084
213	0x3d27ab32	0.04093475
214	0x3e275f88	0.16345036
215	0x3e277274	0.16352254
216	0x3e748515	0.23878892
217	0x3e6d350e	0.2316477
218	0xbe31fa6e	-0.17380688
219	0x3e021fe1	0.12707473
220	0xbe29109e	-0.16510245
221	0xbcbe8507	-0.023256792
222	0xbe39dd9b	-0.18150942
223	0xbe5a5c0a	-0.21324173
224	0xbe4c5a4f	-0.19956325
225	0xbe3cf197	-0.18451534
226	0xbbcc6434	-0.006237531
227	0xbdd3dbe0	-0.10344672
228	0x3e278b55	0.16361745
229	0x3de982c7	0.11401897
230	0xbdbddeee	-0.09271036
231	0x3e4e8173	0.20166568
232	0xbdc7a6b7	-0.09748595
233	0x3de799a8	0.113086045
234	0xbe070ff1	-0.13189675
235	0x3dd98a80	0.1062212
236	0x3e5afa3e	0.21384522
237	0xbda42ddc	-0.080165595
238	0xbd0ef243	-0.034899008
239	0xbdcc8814	-0.09986892
240	0x3e2e83eb	0.1704251
241	0x3e01e1a5	0.12683733
242	0xbc9f4e0b	-0.019446393
243	0xbe06ca00	-0.13162994
244	0xbe18612d	-0.1488082
245	0x3dd617f5	0.10453788
246	0x3e2c8609	0.16848005
247	0xbe6b3f1e	-0.22973296
248	0x3c0b142b	0.008488695
249	0xbe453ae0	-0.1926074
250	0x3e07977a	0.13241377
251	0xbc891bf3	-0.01673696
252	0x3e3aeabd	0.18253608
253	0x3c6540a5	0.013992463
254	0xbdbe1361	-0.0928104
255	0xbe3b938d	-0.18318005

critic.linears.0.bias f4 [64]
0	0xbc3551f4	-0.011066902
1	0xbd39aec0	-0.04533267
2	0x3e40b0be	0.18817422
3	0x3e27d3bb	0.16389363
4	0xbe0a62cc	-0.1351425
5	0xbc1e3813	-0.009656924
6	0x3d9b85ef	0.07593905
7	0x3de68358	0.112555206
8	0x3e73d4a5	0.23811586
9	0xbd804389	-0.06262881
10	0xbdcdc611	-0.10047544
11	0xbdfb07f3	-0.122573756
12	0x3e598a9a	0.21244279
13	0xbb70d69d	-0.0036749013
14	0x3d04bbc6	0.032405637
15	0x3d1437f1	0.036186162
16	0xbcfdb7e3	-0.030971473
17	0x3d4c0074	0.04980512
18	0xbc9fcb80	-0.019506216
19	0xbde52891	-0.11189378
20	0x3daaec56	0.08345859
21	0x3e08dc87	0.13365375
22	0xbe30b80c	-0.17257708
23	0xbe351b17	-0.17686115
24	0x3dba4895	0.09095875
25	0x3b410582	0.0029452746
26	0xbe72e410	-0.23719811
27	0xbcb492f4	-0.022042729
28	0xbdb85854	-0.09001222
29	0x3d8f722c	0.070041984
30	0xbe189fc2	-0.14904693
31	0x3dfb7bc3	0.12279465
32	0xbc125a2d	-0.008932632
33	0xbe67c9a9	-0.22635521
34	0xbe30d767	-0.1726967
35	0x3ce7e58d	0.0283077
36	0xbc46b6b6	-0.012128523
37	0xbd25f2b8	-0.040514678
38	0x3de6cc5b	0.112694465
39	0xbe363b2d	-0.17796011
40	0x3e0b4552	0.13600662
41	0x3e1dbd92	0.15404347
42	0x3d0cd9b8	0.03438732
43	0xbdbe1da9	-0.09283001
44	0x3d947802	0.07249452
45	0xbe490533	-0.1963089
46	0xbe1314fc	-0.14363474
47	0xbdcb2fd9	-0.099212356
48	0x3cd6dfcb	0.02622976
49	0x3db02ee3	0.08602693
50	0x3e5d486f	0.21609662
51	0x3d9dc762	0.07704045
52	0xbca5f1fa	-0.020256985
53	0x3d16027f	0.036623474
54	0xbe521aef	-0.20518087
55	0x3dfe86d8	0.12428063
56	0x3e14c6e9	0.14529003
57	0x3e638ea4	0.22222382
58	0x3d0367d0	0.032081425
59	0x3df1733a	0.11789556
60	0x3e28d430	0.16487193
61	0xbddd7e25	-0.10815076
62	0xbdfbd539	-0.12296528
63	0xbd1db577	-0.038503136

critic.linears.1.weight f4 [64, 64]
0	0xbd74b45e	-0.059742324
1	0xbdb693d5	-0.089149155
2	0x3ded918b	0.11600026
3	0xbd9e5140	-0.07730341
4	0xbd73c341	-0.05951238
5	0x3e105967	0.14096604
6	0x3d2c1e41	0.04202104
7	0xbd49ac6f	-0.04923671
8	0x3da07d5e	0.07836412
9	0xbd95618f	-0.072939985
10	0xbdd5492d	-0.10414348
11	0x3d7d1fbd	0.061797846
12	0x3c0070d4	0.0078394
13	0x3dcf9067	0.101349644
14	0xbdfb5473	-0.12271967
15	0xbb1eb30e	-0.0024215612
16	0x3bddf245	0.0067732655
17	0xbb69ab1e	-0.0035654972
18	0x3c5dacb2	0.013529943
19	0xbe0cd445	-0.1375285
20	0xbdac9be6	-0.08428173
21	0xbd8e60f0	-0.06952083
22	0xbd1fd496	-0.039021097
23	0x3d0d5c3c	0.03451179
24	0xbd17daae	-0.037073784
25	0x3e32b417	0.17451511
26	0xbdc78d3c	-0.09743735
27	0x3d889d90	0.06670678
28	0xbdc017da	-0.09379549
29	0xbd55bfe3	-0.05218495
30	0x3d32a1fa	0.043611504
31	0x3d22dceb	0.039761465
32	0x3dac9761	0.08427311
33	0x3d96bd37	0.073603086
34	0xbcd43336	-0.025903326
35	0xbe11d0a0	-0.1423974
36	0x3d8e2499	0.06940574
37	0x3d48d979	0.049035523
38	0x3daebc17	0.08531969
39	0xbe09f908	-0.13473904
40	0xbd9da392	-0.07697214
41	0x3dcbb7fe	0.09947203
42	0x3b834851	0.0040064235
43	0xbd8a3bd6	-0.06749694
44	0xbdac58d7	-0.08415382
45	0xbcf81045	-0.030281195
46	0x3dee49c7	0.11635166
47	0x3de49f01	0.1116314
48	0x3db1f82b	0.086899124
49	0x3e15c8f1	0.14627434
50	0x3cfb40c4	0.030670531
51	0x3df1a4cb	0.1179901
52	0x3d06d16d	0.032914568
53	0xbd083e09	-0.033262286
54	0x3c3eaa90	0.011637345
55	0x3d8c6516	0.06855218
56	0xbdac7497	-0.08420675
57	0xbdfba450	-0.122871995
58	0x3d56c374	0.052432492
59	0x3df1db48	0.11809403
60	0x3df1ba30	0.118030906
61	0xbd82810f	-0.06372272
62	0xba82ab2c	-0.0009969226
63	0xbd8d3e13	-0.06896605
64	0x3dbee675	0.093213
65	0xbd62509c	-0.055252656
66	0x3dbc61f8	0.091983736
67	0xbdc092d8	-0.09403008
68	0x3db995ed	0.09061799
69	0xbdad4afe	-0.08461569
70	0xbd63003e	-0.055420153
71	0xbdaf0bf8	-0.08547205
72	0x3d3fa8ab	0.046791714
73	0x3cbddd82	0.023176912
74	0x3d815efd	0.06316946
75	0x3ca71745	0.020396838
76	0xbd9642df	-0.073369734
77	0x3da98669	0.0827759
78	0x3da512a7	0.08060198
79	0x3d8eeddc	0.06978962
80	0xbda92676	-0.08259289
81	0xbcf6584d	-0.030071402
82	0xbe0839a3	-0.13303237
83	0x3da21815	0.079147495
84	0x3de8e1b1	0.11371172
85	0xbd20c93a	-0.039254405
86	0x3c8be64e	0.017077591
87	0xbdd94b3e	-0.106100544
88	0xbd729bee	-0.059230737
89	0x3e1d1716	0.15340838
90	0xbd7cf1bb	-0.06175397
91	0x3cbb9c81	0.022901775
92	0xbdb566ae	-0.08857475
93	0x3bb0c223	0.0053942367
94	0xbd89c289	-0.06726558
95	0xbddad979	-0.10686011
96	0xbc26686e	-0.010156734
97	0x3d309c19	0.043117616
98	0xbdfcdea0	-0.1234715
99	0xbc9d8c21	-0.019231858
100	0x3d118471	0.035526697
101	0xbcd3d5a3	-0.025858706
102	0x3def41d3	0.11682477
103	0xbd213f3d	-0.03936695
104	0xbd661bf2	-0.056178994
105	0xbc6c70e7	-0.014431215
106	0x3def5200	0.11685562
107	0x3d8312bd	0.064000584
108	0x3dc4b9eb	0.096057735
109	0xbdf6fd60	-0.12060046
110	0xbb883a89	-0.0041573686
111	0xbd97db3c	-0.074148625
112	0x3d3c5d8a	0.045987643
113	0xbdb854d8	-0.09000558
114	0xbd5363a2	-0.05160869
115	0xbddd004e	-0.10791074
116	0x3c850a52	0.016240273
117	0xbb6e74c3	-0.0036385513
118	0x3c8b1eaa	0.016982395
119	0x3d197cfc	0.03747271
120	0xbd89c681	-0.06727315
121	0x3ce83762	0.028346721
122	0xbd102f90	-0.03520161
123	0xbdb44393	-0.08801951
124	0x37efa889	2.85695e-05
125	0xbdf85333	-0.12125244
126	0x3dabfb03	0.08397486
127	0xbda36383	-0.07977965
128	0xbd911687	-0.07084375
129	0xbdace305	-0.08441738
130	0x3d3a8df1	0.045545522
131	0x3dde4e8b	0.10854825
132	0xbd3994b2	-0.045307823
133	0x3df203e3	0.118171476
134	0x3df0b4f0	0.11753261
135	0x3db5e26a	0.08881076
136	0xbd68c943	-0.056832563
137	0x3d8232ca	0.063573435
138	0x3d75c4fd	0.060002316
139	0xbc5e9939	-0.013586336
140	0x3dee5847	0.11637931
141	0xbd58f0f6	-0.052964173
142	0x3cc57273	0.024102425
143	0x3d94ae47	0.07259803
144	0xbe01e5ce	-0.1268532
145	0x3dd569c3	0.10420563
146	0xbddf4464	-0.10901716
147	0xbe1b8c80	-0.15190315
148	0xbd5124ad	-0.051060367
149	0xbdb41ded	-0.087947704
150	0x3d965a16	0.07341401
151	0xbdc6b006	-0.097015426
152	0x3d94da69	0.07268221
153	0x3e28a661	0.16469719
154	0xbdbbc18c	-0.091677755
155	0xbe053371	-0.13007905
156	0x3d2c2b77	0.04203364
157	0xbdb152b0	-0.086583495
158	0xbdee4980	-0.11635113
159	0xbde83e9b	-0.11340066
160	0xbd88ecfc	-0.06685826
161	0x3dbcb25b	0.09213706
162	0xbca84beb	-0.020544013
163	0xbd9ffac6	-0.07811503
164	0xbded14a8	-0.115762055
165	0xbdbc15cf	-0.09183847
166	0xbda0822c	-0.07837328
167	0xbcc73ab2	-0.02431998
168	0x3d880be5	0.06642894
169	0xbddc37fd	-0.107528664
170	0xbdcc089d	-0.0996258
171	0x3dd2fbcb	0.10301932
172	0x3c4afa9f	0.012388854
173	0xbc8e285a	-0.017353225
174	0xbbb047e8	-0.0053796656
175	0x3c2ebc73	0.010665047
176	0x3d892cc2	0.0669799
177	0x3dafe792	0.085890904
178	0xbde3f698	-0.111310184
179	0x3c347737	0.011014751
180	0x3dcb05d8	0.09913224
181	0x3df36ef7	0.11886399
182	0xbdcfe18a	-0.1015044
183	0xbde3a657	-0.11115711
184	0xbdb35b25	-0.08757619
185	0xbe0abe3d	-0.13549133
186	0x3b8dfb6f	0.0043329517
187	0xbd855605	-0.065105475
188	0x3dbadfd9	0.09124727
189	0x3cfa33c0	0.030542254
190	0x3d82f669	0.06394655
191	0xbdf7060a	-0.12061699
192	0x3da1db40	0.07903147
193	0x3c88ef41	0.016715648
194	0xbd9bb0c6	-0.07602076
195	0x3cf25588	0.0295818
196	0x3dab903b	0.08377119
197	0xbc5d9716	-0.013524791
198	0x3d5ee82e	0.054420643
199	0x3cbcc74b	0.023044249
200	0x3dfc5b6c	0.12322125
201	0x3de77ed8	0.113034904
202	0xbd1ef9e9	-0.03881255
203	0x3d0211ef	0.031755384
204	0xbdeb76ee	-0.114972934
205	0x3cf7323a	0.030175317
206	0xbd5fd623	-0.054647576
207	0xbde21d31	-0.11040724
208	0xbdff3f81	-0.12463284
209	0xbdc6eade	-0.09712766
210	0xbe1ec7a3	-0.15505843
211	0x3da34943	0.07972958
212	0x3df2dc76	0.11858456
213	0x3d95b5d6	0.07310073
214	0xbdef3449	-0.116798945
215	0xbd809586	-0.06278519
216	0xbdbf042a	-0.09326966
217	0xb981ca62	-0.00024755584
218	0x3d2c2e1f	0.042036172
219	0x3d92abd3	0.07161679
220	0xbdee6a83	-0.11641409
221	0xbcb417b2	-0.021983955
222	0x3db450b9	0.08804459
223	0xbd21c83b	-0.039497595
224	0x3de4ea90	0.11177552
225	0x3d4094eb	0.04701702
226	0x3d46249c	0.048374757
227	0x3bc5b752	0.0060338164
228	0xbde1126b	-0.10989841
229	0xbd62a27a	-0.05533073
230	0x3c6def6d	0.014522416
231	0xbddec5ba	-0.10877557
232	0xbd9ca55f	-0.076487295
233	0xbddf43bd	-0.10901592
234	0x3de6ecf8	0.11275667
235	0x3d131f03	0.035918247
236	0xbc59a070	-0.01328288
237	0xbcc56820	-0.024097502
238	0x3d6a116c	0.05714552
239	0xbd8b05fb	-0.0678825
240	0xbdaaa82b	-0.08332857
241	0xbd414bd0	-0.04719144
242	0xbc9abb59	-0.018888162
243	0xbd5d67a5	-0.05405392
244	0x3c4954c0	0.012288272
245	0x3c783fce	0.015151931
246	0x3d68b0b9	0.05680916
247	0x3d1f06a0	0.038824677
248	0xbc804526	-0.015657973
249	0x3d8a9112	0.06765951
250	0x3e005426	0.125321
251	0x3deaf87f	0.11473178
252	0x3d4fe831	0.050758544
253	0x3d376876	0.044777356
254	0xbd6b1921	-0.05739701
255	0x3de36ffc	0.11105344

critic.linears.1.bias f4 [64]
0	0x3d826c97	0.06368368
1	0xbdd2b4b6	-0.10288374
2	0xbcede5cb	-0.029040238
3	0xbce4fcde	-0.027952608
4	0xbd9ce796	-0.07661359
5	0xbdebf506	-0.11521344
6	0xbcbf9d08	-0.023390308
7	0x3cc8753d	0.024469966
8	0x3dc9e3d4	0.09857908
9	0x3d1e3477	0.038624253
10	0x3d1a6085	0.037689704
11	0xbddda697	-0.1082279
12	0xbc64c013	-0.01396181
13	0x3de15acf	0.110036485
14	0xbddc98ec	-0.10771355
15	0x3cdabe0a	0.026701946
16	0x3db635a0	0.08896947
17	0xbdcfb0b9	-0.10141129
18	0xbd16521d	-0.036699403
19	0xbd968791	-0.07350076
20	0x3d1ef552	0.038808174
21	0xbdf24dec	-0.11831269
22	0x3dddbfc9	0.10827596
23	0x3deb0c91	0.11477006
24	0xbb16abf5	-0.0022990678
25	0x3bfb83e1	0.0076756333
26	0xbb9e7120	-0.004835263
27	0xbe013274	-0.12616903
28	0xbde14b6a	-0.11000712
29	0xbd9d90f0	-0.0769366
30	0xbda24404	-0.07923129
31	0x3d85249c	0.06501123
32	0xbd2a7703	-0.041617405
33	0xbe017d76	-0.12645516
34	0xbd5ecf77	-0.054397073
35	0xbca63b97	-0.020292087
36	0xbd12a0f7	-0.03579804
37	0xbcf4ed25	-0.029898236
38	0x3dce1b63	0.10063817
39	0x39b1f590	0.0003394303
40	0x3daf0704	0.0854626
41	0xbc5a865e	-0.0133377
42	0x3deed64c	0.11661968
43	0x3d5d91c6	0.0540941
44	0xbd19412f	-0.03741568
45	0x3cc89dda	0.024489332
46	0xbc561ece	-0.013068868
47	0x3ddf98e9	0.10917837
48	0xbddb2191	-0.10699762
49	0x3da3e36a	0.0800236
50	0x3df8fc5e	0.1215751
51	0x3d7e0d7c	0.06202458
52	0xbd90509e	-0.070466265
53	0x3d77f235	0.06053372
54	0x3dec7487	0.11545663
55	0x3ac4632d	0.001498317
56	0x3d1fec7b	0.039043885
57	0x3e034813	0.12820463
58	0x3deef471	0.11667717
59	0xbda35b09	-0.07976348
60	0xbd4605be	-0.04834532
61	0x3cabb00d	0.020957971
62	0xbc7c374e	-0.015394045
63	0xbd09b8b9	-0.03362343

critic.linears.2.weight f4 [1, 64]
0	0xbc4ab34a	-0.012371847
1	0xbd144ad4	-0.036204174
2	0xbdf0a0b1	-0.117493995
3	0xbde955c6	-0.11393313
4	0x3ca91847	0.02064146
5	0x3d2a7e16	0.04162415
6	0x3da021d1	0.0781895
7	0xba9a13a1	-0.0011755117
8	0x3db3eb91	0.08785165
9	0x3d5c76c3	0.053824198
10	0xbdb8e31f	-0.09027695
11	0x3dcce99d	0.10005496
12	0x3c78eaa9	0.015192666
13	0x3df109bb	0.11769434
14	0xbdc0c84e	-0.09413205
15	0xbda4605e	-0.08026193
16	0xbdc35f7d	-0.09539697
17	0xbd722af4	-0.059122995
18	0xbd0f1d24	-0.0349399
19	0x3d81c0f6	0.063356325
20	0x3da04ca1	0.07827116
21	0x3cfac4bc	0.030611388
22	0xbdf19ef7	-0.11797898
23	0x3dab787c	0.0837259
24	0x3dff6f77	0.12472432
25	0xbd3d543c	-0.04622291
26	0x3dc0dc07	0.09416967
27	0x3dfae17f	0.12250041
28	0x3dbb1ed5	0.0913674
29	0x3dcd6ae0	0.100301504
30	0xb9a9ff65	-0.00032424476
31	0xbdfacb46	-0.122458026
32	0xbc1027e6	-0.008798575
33	0x3d827d43	0.06371548
34	0xbd9767c6	-0.0739284
35	0x3db789ca	0.08961828
36	0x3c8f7e4f	0.017516283
37	0x3da5b3cf	0.080909364
38	0x3ba723f1	0.00510072
39	0xbcdb118c	-0.026741765
40	0xbdae6a0d	-0.08516321
41	0xbdc9acee	-0.09847437
42	0xbdf01b8e	-0.11724006
43	0xbcc3d648	-0.023905888
44	0xbdcc5f93	-0.09979167
45	0x3de61c16	0.11235826
46	0x3c54b067	0.012981511
47	0xbc435522	-0.011922153
48	0x3dd37cec	0.10326561
49	0xbca68216	-0.020325702
50	0xbdfa0176	-0.1220731
51	0x3dee54b4	0.116372496
52	0xbc7ab517	-0.015301964
53	0xbce9c236	-0.02853499
54	0xbcddc2f4	-0.0270705
55	0x3c4eac1c	0.012614276
56	0x3da47954	0.08030954
57	0xbdfdc5c1	-0.12391234
58	0xbdfb5d57	-0.122736625
59	0xbd9f9ae4	-0.07793215
60	0xbd04ebf0	-0.03245157
61	0xbce033e5	-0.027368495
62	0x3dbf9ff3	0.0935668
63	0x3d7127a1	0.058875684
