trained_network/unified/unified_ppo_final_100ep_load_ppo.pth (torch, 61729 bytes, 26 tensors)

feature_exact.j_encoder.linears.0.weight f4 [8, 10]
0.08874111 0.30835867 -0.2516713 -0.06263399 0.074759245 -0.6440583 -0.13897653 -0.072951734
0.041563448 0.0065479754 -0.123839356 0.034255896 0.104053386 0.086742625 -0.08159652 2.4914207
-0.053889412 -0.06381002 -0.025047092 0.009640462 -0.6508792 0.42180163 -0.111198194 -0.23408957
0.036365673 0.14484459 -0.35823032 0.17554745 0.16085379 0.04226612 0.19885994 0.3103873
-0.30203214 -0.09611698 0.050354235 -0.55709153 -0.2419595 0.02646149 -0.22751506 -0.17545539
-0.056338225 -0.03554116 -0.07915114 0.07427168 0.096419245 -0.6212096 -0.09482271 0.24813282
0.028793653 0.20179999 -0.32241008 -0.48359558 0.2542059 -0.29156318 0.17814465 0.26860568
-0.15722293 0.26347345 0.57292116 -0.17557465 0.23909971 0.5055802 0.061895173 -0.014515361
-0.1334295 -0.32579383 0.0083245635 0.092335634 -0.14795431 0.066710465 -0.39412633 0.34873
-0.15243468 0.29144722 -0.062849484 -0.041385327 -0.13494144 -0.053449776 -0.3498319 -0.105555065
00000000: e6bd b53d 30e1 9d3e 10db 80be 4046 80bd
00000010: 601b 993d 01e1 24bf dd4f 0ebe b867 95bd
00000020: 6f3e 2a3d 6690 d63b 7d9f fdbd e94f 0c3d
00000030: f119 d53d 1ea6 b13d 141c a7bd 7073 1f40
00000040: 25bb 5cbd d4ae 82bd 8f2f cdbc 07f3 1d3c
00000050: 05a0 26bf 62f6 d73e e1bb e3bd 2db5 6fbe
00000060: 2cf4 143d 2452 143e f769 b7be b6c2 333e
00000070: dbb6 243e 3d1f 2d3d f1a1 4b3e 16eb 9e3e
00000080: f5a3 9abe fbd8 c4bd 3e40 4e3d 8d9d 0ebf
00000090: 3bc4 77be c4c5 d83c b5f9 68be 94aa 33be
000000a0: e9c2 66bd 9b93 11bd fe19 a2bd c01b 983d
000000b0: 7477 c53d 9807 1fbf 6932 c2bd 8816 7e3e
000000c0: abe0 eb3c a8a4 4e3e ef12 a5be d799 f7be
000000d0: 4727 823e c547 95be 8d6b 363e af86 893e
000000e0: 0cff 20be fee5 863e f6aa 123f d7c9 33be
000000f0: 8ed6 743e b46d 013f cb85 7d3d d6d1 6dbc
00000100: bea1 08be 73ce a6be c063 083c 771a bd3d
00000110: 5681 17be 7f9f 883d edca c9be bd8c b23e
00000120: d617 1cbe 9238 953e 3bb7 80bd a983 29bd
00000130: 172e 0abe 27ee 5abd 2b1d b3be 412d d8bd

feature_exact.j_encoder.linears.0.bias f4 [8]
-0.071687326 -0.012674813 -0.15959746 -0.25287786 -0.17015906 -0.23284006 -0.27957582 -0.10819037
00000000: ced0 92bd 05aa 4fbc 846d 23be 3579 81be
00000010: 2d3e 2ebe a06d 6ebe 9024 8fbe ea92 ddbd

feature_exact.j_encoder.linears.1.weight f4 [8, 8]
0.046570145 0.9864929 -0.55743 0.048793517 0.10336194 0.34346503 0.27943572 0.10288405
0.12362347 -0.36693415 -0.1619364 0.29357335 -0.16739655 -0.2861625 0.3601325 -0.029802158
0.18787467 0.9471483 -0.3295246 -0.01805131 0.31804284 0.0834453 -0.22481602 -0.11373064
0.11379484 -0.5851104 0.037176173 0.24569723 0.251714 -0.08303665 0.0807218 0.34315735
-0.28945878 -0.8257772 0.19991349 -0.30825418 0.16493103 -0.10564422 0.0034166446 -0.11369946
-0.09732841 -0.4976179 -0.15562227 0.16482604 0.099991485 0.20713538 -0.23597594 -0.30729437
-0.18711524 -0.7909671 0.5661569 -0.25680956 -0.2441817 -0.33186248 -0.19754238 -0.07490397
-0.21512173 -0.4820673 -0.16357401 0.10267337 0.09833151 -0.20039202 -0.40141204 -0.2252115
00000000: 56c0 3e3d cc8a 7c3f bcb3 0ebf b6db 473d
00000010: 6daf d33d a6da af3e 3312 8f3e dfb4 d23d
00000020: 4d2e fd3d cbde bbbe a8d2 25be 3f4f 963e
00000030: 006a 2bbe e483 92be 4963 b83e a823 f4bc
00000040: 3862 403e 5078 723f 73b7 a8be 57e0 93bc
00000050: 83d6 a23e 5fe5 aa3d 2c36 66be 9ceb e8bd
00000060: 450d e93d ccc9 15bf 0b46 183d 0e98 7b3e
00000070: a8e0 803e 1f0f aabd 7951 a53d 52b2 af3e
00000080: f133 94be 2266 53bf 1fb6 4c3e 7ed3 9dbe
00000090: aee3 283e ff5b d8bd c9e9 5f3b 43db e8bd
000000a0: 1e54 c7bd c6c7 febe 725b 1fbe 28c8 283e
000000b0: 56c8 cc3d 4c1b 543e ada3 71be b055 9dbe
000000c0: 239b 3fbe d27c 4abf a9ef 103f 8b7c 83be
000000d0: c40a 7abe e1e9 a9be 8d48 4abe 4167 99bd
000000e0: df48 5cbe 86d1 f6be f27f 27be 6a46 d23d
000000f0: 0862 c93d 9133 4dbe e185 cdbe d89d 66be

feature_exact.j_encoder.linears.1.bias f4 [8]
0.009182778 -0.24943803 -0.09295926 0.120235495 0.33781707 0.14255159 0.4846615 0.32620224
00000000: 5d73 163c af6c 7fbe 6d61 bebd 073e f63d
00000010: 5cf6 ac3e 0bf9 113e 8d25 f83e fb03 a73e

feature_exact.j_encoder.linears.2.weight f4 [8, 8]
-0.28395894 -0.31253996 0.04621897 -0.23244819 0.23823 0.25487638 0.59098804 0.57067955
0.15678048 0.31035286 0.20698051 -0.1113087 -0.23709571 0.32264876 -0.1269264 -0.15580791
0.110148445 0.59732705 0.50086474 -0.24471068 -0.4696394 0.14200465 -0.41299784 -0.038593143
0.046250395 -0.21011104 -0.06747308 0.0540408 0.07500489 0.42329675 -0.23810846 -0.28716204
-0.2122206 0.0095126815 0.085363835 -0.11083788 -0.3849079 -0.2524791 0.39719638 0.17338839
-0.3642294 -0.57195646 -0.34292296 0.17589389 -0.28734025 0.29818836 0.36958912 -0.32893047
0.3529766 0.07693603 0.038750682 0.3802656 -0.1924567 0.12723874 -0.45006368 -0.29436415
-0.13520622 -0.53337765 -0.19746703 0.19404854 0.4568878 0.37977806 0.25032204 0.36988735
00000000: 1163 91be 3d05 a0be 1a50 3d3d e606 6ebe
00000010: 91f2 733e 287f 823e fe4a 173f 0e18 123f
00000020: 108b 203e 92e6 9e3e b3f2 533e d1f5 e3bd
00000030: 38c9 72be 3832 a53e fff8 01be 1c8c 1fbe
00000040: 8295 e13d 6dea 183f ac38 003f 7095 7abe
00000050: 9374 f0be ab69 113e 7474 d3be d813 1ebd
00000060: 0e71 3d3d 5927 57be 532f 8abd e359 5d3d
00000070: 2a9c 993d 5aba d83e b4d2 73be e706 93be
00000080: 5b50 59be 14db 1b3c 3cd3 ae3d f8fe e2bd
00000090: a612 c5be f144 81be 535d cb3e ba8c 313e
000000a0: 477c babe bd6b 12bf 9993 afbe 871d 343e
000000b0: 431e 93be 25ac 983e c93a bd3e 9369 a8be
000000c0: 59b9 b43e a390 9d3d 09b9 1e3d 2cb2 c23e
000000d0: 5f13 45be df4a 023e bf6e e6be e6b6 96be
000000e0: 8073 0abe 708b 08bf cc34 4abe a9b4 463e
000000f0: 33ed e93e 4572 c23e 362a 803e e061 bd3e

feature_exact.j_encoder.linears.2.bias f4 [8]
0.076498926 0.03447521 0.14529811 0.08984705 0.24164495 0.30374354 -0.06652385 -0.005290415
00000000: 78ab 9c3d e135 0d3d 07c9 143e bb01 b83d
00000010: c671 773e 4684 9b3e a83d 88bd 385b adbb

feature_exact.m_encoder.linears.0.weight f4 [8, 8]
0.21955009 0.059154686 0.050640568 0.006234564 1.2791848 0.28104106 -0.24193762 0.16219044
0.43722078 0.037180204 0.18384835 0.11122721 -1.2430612 -0.17067263 0.2875972 0.37298015
-0.12373274 -0.11486359 -0.06930824 -0.295722 0.08518744 -0.15070885 -0.05793206 0.31869516
-0.5364731 0.021964036 0.16804174 0.033474933 1.2291303 -0.13571581 0.014248049 -0.41559887
0.2459293 -0.06676095 0.04782029 -0.20220725 -0.07094639 0.16568741 0.18998034 -0.27940437
-0.15584002 -0.012362049 -0.10812401 -0.08179842 1.330685 0.07697218 -0.08179015 -0.105829
-0.108713455 0.026024636 -0.29615268 0.14731358 0.48448604 0.08037071 0.27788037 0.25152588
-0.12124726 -0.0072724917 -0.055140164 -0.0066222874 -0.46076122 0.17642763 -0.10491323 0.546128
00000000: bdd1 603e 2f4c 723d 7c6c 4f3d 504b cc3b
00000010: 54bc a33f 9de4 8f3e 7fbe 77be 4015 263e
00000020: 67db df3e 454a 183d be42 3c3e 17cb e33d
00000030: a11c 9fbf cec4 2ebe f13f 933e 41f7 be3e
00000040: 9767 fdbd 9a3d ebbd 7bf1 8dbd e068 97be
00000050: c176 ae3d 6c53 1abe 2b4a 6dbd 032c a33e
00000060: 4d56 09bf eced b33c 2213 2c3e 031d 093d
00000070: 2454 9d3f 16f9 0abe a670 693c 60c9 d4be
00000080: e4d4 7b3e f7b9 88bd 35df 433d 6b0f 4fbe
00000090: 574c 91bd f6a9 293e 358a 423e 170e 8fbe
000000a0: 8794 1fbe 318a 4abc 1f70 ddbd ee85 a7bd
000000b0: e353 aa3f 97a3 9d3d 9881 a7bd e0bc d8bd
000000c0: 29a5 debd 9e31 d53c 53a1 97be 5fd9 163e
000000d0: 8e0e f83e 6699 a43d 5646 8e3e 00c8 803e
000000e0: 7c50 f8bd 154e eebb a7da 61bd c6ff d8bb
000000f0: e5e8 ebbe 72a9 343e bfdc d6bd 0bcf 0b3f

feature_exact.m_encoder.linears.0.bias f4 [8]
-0.039360434 -0.06537528 -0.204434 -0.22868241 -0.042587917 -0.101512596 0.08205457 -0.43128598
00000000: 6838 21bd 7ae3 85bd 2657 51be b92b 6abe
00000010: ab70 2ebd d6e5 cfbd 3a0c a83d 84d1 dcbe

feature_exact.m_encoder.linears.1.weight f4 [8, 8]
-0.093971744 -0.5171783 -0.15723005 -0.45193428 0.16960067 -0.13747792 0.014358409 0.15722968
0.4698944 0.31368572 0.07104263 0.66108954 0.004460755 -0.15971164 0.22469634 0.5201067
-0.26522645 -0.36053073 0.32525828 -0.49757937 -0.04889531 -0.05675101 0.20546654 -0.30945212
-0.3397625 0.3735246 0.22160378 0.066099346 0.44752297 0.18251719 -0.05674124 0.06460202
0.36271247 0.48743382 -0.03761259 0.46595275 -0.031920277 0.7044215 -0.3307234 0.35374328
-0.054889437 -0.43771836 -0.3407836 -0.5553279 0.35186553 -0.058892827 -0.24131322 0.30049127
-0.5015155 -0.7576543 0.20102066 -0.07551685 0.15569279 0.26526445 -0.12600122 0.40029746
-0.09316394 -0.7689708 0.39501917 0.09693515 0.44490802 -0.14751428 -0.13582304 0.15611666
00000000: 4274 c0bd cc65 04bf ea00 21be ee63 e7be
00000010: ccab 2d3e 03c7 0cbe 883f 6b3c d100 213e
00000020: 0096 f03e 6a9b a03e cc7e 913d 2a3d 293f
00000030: 862b 923b 738b 23be cc16 663e b625 053f
00000040: c3cb 87be 7c97 b8be 4188 a63e b9c2 febe
00000050: 7346 48bd bf73 68bd d265 523e 8270 9ebe
00000060: 5af5 adbe 9e3e bf3e 1aec 623e 185f 873d
00000070: bb21 e53e c9e5 3a3e 8169 68bd 104e 843d
00000080: 73b5 b93e ed90 f93e a90f 1abd 5c91 ee3e
00000090: d6be 02bd f854 343f 9454 a9be d71d b53e
000000a0: bfd3 60bd 9f1c e0be 307b aebe f829 0ebf
000000b0: b827 b43e 9b39 71bd d01a 77be fed9 993e
000000c0: 5263 00bf a2f5 41bf 5cd8 4d3e 94a8 9abd
000000d0: ee6d 1f3e bed0 873e 7706 01be caf3 cc3e
000000e0: bccc bebd 45db 44bf f43f ca3e f085 c63d
000000f0: fcca e33e fc0d 17be 3215 0bbe 0cdd 1f3e

feature_exact.m_encoder.linears.1.bias f4 [8]
0.19421738 0.30311197 0.24724492 0.015909018 0.13001284 0.17302668 -0.018791582 -0.2063635
00000000: ece0 463e 7e31 9b3e c62d 7d3e a153 823c
00000010: 1622 053e e82d 313e cef0 99bc f450 53be

feature_exact.m_encoder.linears.2.weight f4 [8, 8]
0.03913438 -0.1257491 -0.3644588 -0.15082723 0.06141756 -0.064658724 -0.03733571 -0.34830585
0.35400355 -0.19320314 0.3838256 0.06999203 -0.44271386 0.45341668 0.005699045 0.32638183
0.021435112 0.3180826 -0.09105259 0.18838026 0.31863603 0.19483772 0.069689356 -0.3416089
-0.30966 -0.17050363 0.3810694 0.059413888 0.024515627 0.31757 0.16363959 -0.101459615
0.25352016 0.15356901 0.14678414 0.34574148 -0.2737675 -0.1959713 0.29107827 -0.033068128
-0.030812498 -0.23159033 0.25601134 -0.36319202 0.13393469 0.044059772 0.45719868 -0.23376088
-0.3045723 0.27215657 -0.29982182 0.068298206 0.46758193 -0.07353475 -0.13794437 -0.33388835
0.2728406 -0.2959164 0.21582066 -0.4822726 0.13138582 0.2343664 0.05569807 -0.2509875
00000000: 5f4b 203d 5fc4 00be 589a babe 7472 1abe
00000010: fb90 7b3d cb6b 84bd 54ed 18bd 2555 b2be
00000020: f43f b53e 0bd7 45be ca84 c43e fb57 8f3d
00000030: 64ab e2be 3b26 e83e 0ebf ba3b 851b a73e
00000040: b098 af3c b9db a23e c879 babd c1e6 403e
00000050: 4324 a33e 8a83 473e 4bb9 8e3d 5de7 aebe
00000060: c18b 9ebe 8198 2ebe 871b c33e fa5b 733d
00000070: ffd4 c83c 8998 a23e 2391 273e 0fca cfbd
00000080: 65cd 813e 3241 1d3e 954e 163e 0705 b13e
00000090: 412b 8cbe b3ac 48be 3608 953e 7272 07bd
000000a0: 7e6a fcbc 0426 6dbe eb13 833e 4ef4 b9be
000000b0: 2d26 093e 0578 343d f215 ea3e 035f 6fbe
000000c0: e7f0 9bbe 1b58 8b3e 3f82 99be eedf 8b3d
000000d0: e666 ef3e 6399 96bd 4a41 0dbe 6af3 aabe
000000e0: c3b1 8b3e 5b82 97be 1700 5d3e 6fec f6be
000000f0: 018a 063e bffd 6f3e a923 643d 6f81 80be

feature_exact.m_encoder.linears.2.bias f4 [8]
-0.097947374 0.20684795 -0.32039806 -0.16838847 -0.32414654 -0.107836224 -0.18335904 -0.089364685
00000000: a298 c8bd f3cf 533e 370b a4be 076e 2cbe
00000010: 89f6 a5be 3dd9 dcbd 79c2 3bbe d504 b7bd

feature_exact.j_ln.weight f4 [8]
1.1053865 1.120301 1.2508035 0.9209076 0.83491766 1.2634519 1.2112634 1.1581745
00000000: 4e7d 8d3f 0666 8f3f 541a a03f 9ac0 6b3f
00000010: 2abd 553f cbb8 a13f ae0a 9b3f 103f 943f

feature_exact.j_ln.bias f4 [8]
0.0063328417 0.062070437 0.030402074 -0.10591549 0.06669705 -0.022669764 -0.07373794 -0.044095423
00000000: ba83 cf3b 923d 7e3d c50d f93c 38ea d8bd
00000010: 7798 883d f1b5 b9bc eb03 97bd 679d 34bd

feature_exact.m_ln.weight f4 [8]
0.9370025 1.0311322 0.66097355 0.9393517 0.99641395 0.94892985 0.8998776 0.93160874
00000000: 65df 6f3f 24fc 833f 9035 293f 5a79 703f
00000010: fc14 7f3f 11ed 723f 615e 663f e97d 6e3f

feature_exact.m_ln.bias f4 [8]
0.07196323 -0.042431604 0.14026465 0.05000209 0.08257163 0.022233307 0.13179561 0.020665368
00000000: 7561 933d c3cc 2dbd 89a1 0f3e fece 4c3d
00000010: 511b a93d a022 b63c 6ef5 063e 6b4a a93c

actor.linears.0.weight f4 [64, 40]
0.123494886 -0.07454422 -0.06870227 0.085074395 0.0065636244 -0.021823334 0.14569317 -0.014384693
-0.00029554294 -0.13973594 0.15102667 0.13946694 -0.025764063 0.011804911 -0.033507038 -0.064495586
-0.0014693271 -0.06994609 0.11140413 0.084659085 0.10740606 0.065381 -0.10322175 -0.18278694
0.0682131 0.11145602 0.24176782 -0.038003497 0.14171757 0.03414652 0.13912097 -0.027218573
0.10599227 -0.45870924 -0.107839696 -0.09188724 0.19641839 0.030727563 0.48511893 0.0050917473
0.03361397 0.014219234 -0.07294803 0.026278017 -0.27626893 0.08198978 -0.038397115 -0.12238404
0.251784 -0.045404945 -0.063256875 0.023938652 -0.052346367 0.17235346 0.036737114 -0.107217334
0.39310578 0.037814487 -0.07928921 -0.30868506 0.3513744 -0.030051736 -0.27620462 0.13369492
0.11138824 -0.30826694 0.16450948 -0.13035145 -0.19916126 0.1609868 0.34890795 -0.023225332
-0.0050851023 0.33185703 0.11438048 0.034658223 0.012824334 0.08074033 -0.0364391 0.0018844159
0.24545754 -0.09268965 0.084629625 -0.39030483 0.1882388 -0.047964673 0.11369998 -0.20074902
0.1079542 0.029965201 0.022425517 0.23096173 0.12797256 -0.024508663 0.06932873 -0.087979384
-0.06419929 0.14216177 0.08847982 0.116886266 0.038317546 -0.23710778 0.22372288 -0.18343495
-0.0010099333 -0.08560383 -0.21968062 -0.031030629 0.088272125 0.11273441 -0.034450937 0.14438044
0.027960764 -0.25560933 -0.043418117 -0.031057287 -0.007732017 -0.038934182 0.45611086 0.07888374
0.06809875 -0.1278886 0.00489148 0.032332644 -0.0110061765 -0.020860855 0.0037868014 -0.13944332
-0.20178987 -0.0069282525 0.12713937 -0.059371408 0.12016197 -0.12856534 0.06929367 -0.07351104
-0.17368048 0.005039664 0.047346808 0.17592382 -0.1469773 0.10159587 0.24150622 0.08425603
-0.0271634 0.03983841 0.11332335 -0.21612957 -0.16974173 0.09234027 0.1998491 -0.07981905
-0.19354637 0.42153165 -0.028809594 -0.17019415 0.01333446 -0.13107768 -0.4541994 -0.0075693578
-0.17722479 -0.15209132 0.05138369 0.031247044 0.24205527 -0.0039091213 0.07509946 0.1250824
-0.1022578 -0.08448283 0.085584216 0.055926915 0.017911699 0.029299475 0.051708147 0.14256346
0.08820527 -0.110052265 -0.019319696 0.11513326 0.0990561 0.115195125 0.15560932 0.0022533801
-0.078418784 0.030703058 -0.102305725 0.08456086 -0.16313502 -0.13916147 0.18551694 -0.025843948
-0.07989517 -0.25514197 0.07541211 0.19061841 0.14053157 -0.12395391 0.4733806 -0.018526528
0.011774085 0.16969395 -0.017683173 0.1442155 0.028006062 0.14274733 -0.11337952 0.090175614
-0.086522944 0.09473214 0.23280926 -0.119027056 -0.0062759914 -0.2160772 0.0013445844 -0.073870994
0.2158541 -0.16709627 -0.2447966 0.004966879 0.033973612 0.29808518 -0.13012332 0.31036824
-0.34800792 0.32670397 0.021314954 -0.09188058 -0.1196558 -0.19051228 0.029352423 -0.25086984
0.18362619 0.2770877 -0.043089308 0.10030239 0.20020813 0.0705514 0.25751147 0.11651345
0.1361918 -0.008469363 0.025439702 0.12834135 -0.20306756 -0.019958429 0.085428715 0.03820423
0.079873025 0.1433242 0.12470043 0.030414393 0.11510867 0.055122532 -0.034184955 -0.20590356
00000000: e3ea fc3d a4aa 98bd c7b3 8cbd 7c3b ae3d
00000010: ac13 d73b d9c6 b2bc 9730 153e c6ad 6bbc
00000020: 1af3 9ab9 f016 0fbe bca6 1a3e 6cd0 0e3e
00000030: 280f d3bc 6369 413c ad3e 09bd 4316 84bd
00000040: 7096 c0ba e53f 8fbd d927 e43d be61 ad3d
00000050: b5f7 db3d 79e6 853d ed65 d3bd 802c 3bbe
00000060: 4fb3 8b3d 0e43 e43d fc91 773e 8ea9 1bbd
00000070: 691e 113e 39dd 0b3d ba75 0e3e 7cf9 debc
00000080: 7a12 d93d f0db eabe 0fdb dcbd 612f bcbd
00000090: e721 493e 5fb8 fb3c 8261 f83e acd8 a63b
000000a0: cdae 093d caf7 683c c765 95bd ff44 d73c
000000b0: 1f73 8dbe 42ea a73d 4b46 1dbd 7ca4 fabd
000000c0: d5e9 803e 89fa 39bd d28c 81bd fe1a c43c
000000d0: 2569 56bd 6d7d 303e a879 163d c394 dbbd
000000e0: 2945 c93e 5de3 1a3d 6262 a2bd f80b 9ebe
000000f0: 58e7 b33e 0f2f f6bc b16a 8dbe 52e7 083e
00000100: 841f e43d 2ad5 9dbe 2c75 283e da7a 05be
00000110: eef0 4bbe b9d9 243e 10a4 b23e 0d43 bebc
00000120: eea0 a6bb 2ae9 a93e 5040 ea3d c8f5 0d3d
00000130: 281d 523c 305b a53d 2a41 15bd 81fe f63a
00000140: 3959 7b3e 12d4 bdbd 4c52 ad3d 09d6 c7be
00000150: acc1 403e 9b76 44bd 89db e83d 2791 4dbe
00000160: 1717 dd3d 9579 f53c b8b5 b73c 3b81 6c3e
00000170: 3d0b 033e 64c6 c8bc 39fc 8d3d 892e b4bd
00000180: eb7a 83bd db92 113e e834 b53d 1162 ef3d
00000190: dcf2 1c3d 62cc 72be 9c17 653e 5fd6 3bbe
000001a0: bd5f 84ba 1051 afbd f5f3 60be f233 febc
000001b0: 04c8 b43d 4ce1 e63d 6d1c 0dbd 77d8 133e
000001c0: f90d e53c 3adf 82be 32d7 31bd da6b febc
000001d0: dc5c fdbb 7379 1fbd 5d87 e93e cc8d a13d
000001e0: 5c77 8b3d 3bf5 02be b548 a03b 3c6f 043d
000001f0: 4053 34bc 62e4 aabc fc2b 783b 3bca 0ebe
00000200: 01a2 4ebe 6506 e3bb d330 023e 6f2f 73bd
00000210: 7b17 f63d a2a6 03be d7e9 8d3d f58c 96bd
00000220: 4cd9 31be c423 a53b baee 413d 6025 343e
00000230: 3881 16be 7f11 d03d 684d 773e 6d8e ac3d
00000240: c785 debc 9a2d 233d 1316 e83d 1251 5dbe
00000250: c7d0 2dbe e51c bd3d 3ea5 4c3e 2c78 a3bd
00000260: 0531 46be ffd2 d73e 1902 ecbc 6047 2ebe
00000270: c778 5a3c 3a39 06be d38c e8be 6008 f8bb
00000280: 6a7a 35be d4bd 1bbe b477 523d cdf9 ff3c
00000290: 56dd 773e 1618 80bb bfcd 993d 9a15 003e
000002a0: 8a6c d1bd 5505 adbd c746 af3d 9f13 653d
000002b0: 8ebb 923c 7405 f03c eccb 533d 28fc 113e
000002c0: f7a4 b43d 1563 e1bd 5744 9ebc fdca eb3d
000002d0: eddd ca3d 6ceb eb3d 0d58 1f3e 72ad 133b
000002e0: 079a a0bd fb84 fb3c aa85 d1bd 3f2e ad3d
000002f0: de0c 27be 5880 0ebe 27f8 3d3e b0b6 d3bc
00000300: 14a0 a3bd f8a1 82be aa71 9a3d 7931 433e
00000310: 82e7 0f3e 8cdb fdbd f15e f23e f2c4 97bc
00000320: 18e8 403c 40c4 2d3e 4ddc 90bc 3aad 133e
00000330: f86c e53c 5b2c 123e 8633 e8bd fead b83d
00000340: f132 b1bd ed02 c23d 8d65 6e3e 75c4 f3bd
00000350: d5a6 cdbb 5743 5dbe c43c b03a ad49 97bd
00000360: db08 5d3e 491b 2bbe f6ab 7abe 33c1 a23b
00000370: ea27 0b3d 9f9e 983e 0c3f 05be 96e8 9e3e
00000380: 182e b2be be45 a73e b39c ae3c e32b bcbd
00000390: 1a0e f5bd a715 43be 7e74 f03c 0372 80be
000003a0: 8108 3c3e 70de 8d3e 6a7e 30bd 576b cd3d
000003b0: 5c03 4d3e 417d 903d 8bd8 833e 9b9e ee3d
000003c0: dd75 0b3e 15c3 0abc ec66 d03c ea6b 033e
000003d0: f1f0 4fbe dc7f a3bc 40f5 ae3d 0a7c 1c3d
000003e0: 7894 a33d 94c3 123e f062 ff3d 9b27 f93c
000003f0: 18be eb3d 2ac8 613d 8605 0cbd 62d8 52be

actor.linears.0.bias f4 [64]
0.044228055 -0.07479217 -0.18691024 0.0320313 0.06699507 0.110050015 0.1071513 0.34286347
0.16910985 -0.2691186 -0.1579913 0.16721539 0.37329713 0.32279384 0.10827152 0.1928747
0.17354052 -0.23865832 0.36693364 0.11436722 0.08413534 -0.3269014 0.23637149 0.16302976
0.01708379 0.09712234 0.058905937 -0.24559037 0.32605928 0.07717502 0.21709946 -0.106606096
-0.19230822 0.017440075 -0.1860435 0.20107181 -0.21506897 -0.18427798 -0.41048157 -0.5144868
0.0329079 0.040110227 -0.20675494 0.07333347 0.05256777 0.086731456 -0.41268075 -0.31317148
0.007986466 -0.28172836 0.0246298 0.2090691 0.22990482 0.029340362 0.20288472 -0.107230015
-0.05710276 0.109668076 -0.17983717 -0.12553489 0.09453802 -0.094527975 -0.14526911 0.10247475
00000000: 7a28 353d a32c 99bd 6665 3fbe 4133 033d
00000010: b634 893d e761 e13d 2472 db3d cd8b af3e
00000020: 222b 2d3e eac9 89be 79c8 21be 833a 2b3e
00000030: cd20 bf3e 3c45 a53e 75bd dd3d f280 453e
00000040: 9bb4 313e d962 74be bade bb3e 5c39 ea3d
00000050: 264f ac3d 9f5f a7be 5e0b 723e 46f1 263e
00000060: 4ef3 8b3c 14e8 c63d 5a47 713d 0b7c 7bbe
00000070: 3ef1 a63e f00d 9e3d 524f 5e3e 4c54 dabd
00000080: 72ec 44be 7dde 8e3c 3082 3ebe c5e5 4d3e
00000090: 0a3b 5cbe 5eb3 3cbe a42a d2be 68b5 03bf
000000a0: 6fca 063d 9f4a 243d 91b7 53be dc2f 963d
000000b0: 4d51 573d 43a0 b13d e44a d3be 0358 a0be
000000c0: abd9 023c b33e 90be 6fc4 c93c 3616 563e
000000d0: 2b6c 6b3e 335b f03c 03c1 4f3e 699b dbbd
000000e0: 95e4 69bd a899 e03d 3c27 38be 388c 00be
000000f0: 269d c13d e297 c1bd 6dc1 14be 48de d13d

actor.linears.1.weight f4 [64, 64]
0.09026699 -0.03141825 -0.15482603 -0.03774563 -0.0026041318 0.11690254 0.033954408 0.13007829
0.03915018 0.0253692 -0.18033907 0.12084637 -0.048878945 0.045726277 0.13798028 -0.07441365
0.08239121 0.0125673385 0.18211797 0.08739859 0.24299338 -0.043032616 -0.08864839 0.09237222
0.01690532 -0.055559725 0.17642754 0.0699677 0.07233999 0.0833862 -0.036587622 0.022301357
-0.07660664 0.10093461 -0.0136530595 0.07825479 -0.19972906 0.059408754 -0.051545337 -0.22024904
-0.04879605 0.033136085 0.26666492 0.007861782 -0.091116935 0.1271845 -0.13746941 -0.04867212
0.0047227056 -0.068612784 -0.25100145 0.07253588 -0.022195227 0.018403623 0.0388593 -0.12777875
0.087239705 -0.015962569 0.09558685 -0.030395791 -0.082606405 0.10099537 0.041722197 0.10525731
0.08865268 0.079117045 0.07048689 0.055728696 0.018560689 -0.07977963 0.14280231 -0.12431037
-0.11952108 0.1868613 0.06977246 -0.04947061 -0.15686738 -0.108371034 0.026496531 -0.09738995
-0.049626842 0.096462555 -0.14880782 -0.011562567 -0.011185773 0.2107171 0.0675487 -0.0891634
-0.17830583 0.032236733 -0.10842216 0.06958389 -0.029177848 0.009087165 -0.029179804 0.04476741
0.07357261 -0.17522019 0.26278013 0.12138623 0.09071758 0.061559666 0.20227635 0.048178893
-0.02502085 -0.06459331 -0.15599495 -0.14579149 -0.06553308 -0.1591013 0.03669673 -0.06519067
0.047839724 0.14777 -0.0068703927 -0.12482377 -0.12582175 -0.048683118 0.022761805 0.05222948
0.0728983 -0.06199205 -0.10938599 0.12055226 -0.090986274 -0.09227388 -0.0069049834 0.07196703
0.099860474 -0.022320863 0.1414869 0.003177188 0.11026339 -0.10813141 0.0033182332 -0.15908839
-0.15160085 0.066294916 0.1561006 -0.19566286 -0.04992263 -0.14537027 0.113247275 -0.006218703
-0.035520867 -0.048349217 -0.27484903 0.03301491 -0.037921082 0.043384552 -0.024575366 -0.12573594
-0.08872816 -0.119796805 0.024108673 0.0075624124 -0.11574858 -0.019108595 -0.024337744 0.022082835
0.0897963 -0.14770295 0.07996705 -0.039667998 0.21757092 -0.040821802 0.06148384 0.2844931
0.103159316 0.017708639 -0.20894356 -0.11575911 0.04358704 -0.097945735 0.32746515 0.0029953087
0.040753663 -0.021136388 0.17653625 -0.20145608 -0.19916856 -0.031662717 -0.047559485 -0.0072117243
-0.086183056 0.07588452 0.04146876 0.10777477 -0.0496524 0.027144209 -0.07381543 0.0009716067
0.15807682 -0.0025212318 0.03274889 -0.053362537 0.024997568 0.053028144 0.089579925 0.019213896
0.026184753 -0.20738575 -0.14530183 0.13648018 0.2605479 0.19263513 0.023354825 0.1365029
-0.063024044 -0.015172417 0.17481564 0.09448036 0.2140917 -0.11403898 -0.017345587 0.10225179
-0.10908147 0.028965134 -0.035605647 -0.008485853 -0.035020087 0.059675362 0.054596957 0.0053508887
-0.08794374 0.18543348 -0.05882901 0.054802172 -0.0015008929 0.05559862 -0.07373386 -0.22929145
0.0070871445 0.13988279 0.093121395 0.01933704 0.09966832 0.13703674 -0.22521748 0.105639264
-0.08137338 -0.053591084 -0.23150273 0.11131668 0.17902242 -0.03239933 -0.09106547 -0.10390158
0.04490408 -0.051681276 -0.04230785 0.05872695 0.07337404 -0.023372605 0.010307726 0.028023986
00000000: e6dd b83d 6cb0 00bd b78a 1ebe 299b 1abd
00000010: 15aa 2abb 996a ef3d c713 0b3d 3e33 053e
00000020: f05b 203d 12d3 cf3c ceaa 38be 4d7e f73d
00000030: 4a35 48bd 7a4b 3b3d b44a 0d3e 2f66 98bd
00000040: b9bc a83d 3de7 4d3c 227d 3a3e 08fe b23d
00000050: 42d3 783e f842 30bd 498d b5bd a52d bd3d
00000060: 077d 8a3c 9892 63bd 6ca9 343e 3a4b 8f3d
00000070: fd26 943d 62c6 aa3d e7dc 15bd 56b1 b63c
00000080: f1e3 9cbd ceb6 ce3d 15b1 5fbc 0c44 a03d
00000090: c685 4cbe 9856 733d 3421 53bd f788 61be
000000a0: 5ede 47bd b4b9 073d 4e88 883e b4ce 003c
000000b0: 849b babd a73c 023e c8c4 0cbe 6b5c 47bd
000000c0: edc0 9a3b dc84 8cbd 4383 80be b18d 943d
000000d0: c4d2 b5bc 32c3 963c ee2a 1f3d 6fd8 02be
000000e0: bbaa b23d efc3 82bc 0ac3 c33d 9800 f9bc
000000f0: 8c2d a9bd a9d6 ce3d e5e4 2a3d 2591 d73d
00000100: 898f b53d 1e08 a23d 6e5b 903d c643 643d
00000110: 960c 983c 8163 a3bd c53a 123e 6f96 febd
00000120: 78c7 f4bd 9258 3f3e dde4 8e3d b2a1 4abd
00000130: d8a1 20be a2f1 ddbd 410f d93c 6274 c7bd
00000140: 8445 4bbd 298e c53d 1461 18be ec70 3dbc
00000150: 8844 37bc 39c6 573e f956 8a3d 4d9b b6bd
00000160: ce95 36be aa0a 043d 700c debd 0082 8e3d
00000170: 6206 efbc 55e2 143c 7c0a efbc 085e 373d
00000180: 3dad 963d ec6c 33be 1e8b 863e 5899 f83d
00000190: 23ca b93d fd25 7c3d 8821 4f3e 3b57 453d
000001a0: 87f8 ccbc 7f49 84bd 24bd 1fbe 5d4a 15be
000001b0: 3536 86bd 74eb 22be 4f4f 163d b082 85bd
000001c0: 96f3 433d 0551 173e 0821 e1bb 9ba3 ffbd
000001d0: 6bd7 00be f367 47bd f776 ba3c 94ee 553d
000001e0: b44b 953d 60eb 7dbd c305 e0bd 1ae4 f63d
000001f0: 0357 babd 17fa bcbd 3343 e2bb 7363 933d
00000200: a683 cc3d 3eda b6bc f1e1 103e 5f38 503b
00000210: c6d1 e13d 0074 ddbd b776 593b 11e8 22be
00000220: 413d 1bbe a1c5 873d d6d8 1f3e d85b 48be
00000230: ac7b 4cbd f2db 14be 30ee e73d 43c6 cbbb
00000240: 547e 11bd d409 46bd 03b9 8cbe a43a 073d
00000250: 2353 1bbd 00b4 313d 4752 c9bc ecc0 00be
00000260: 1cb7 b5bd 0758 f5bd 8d7f c53c 1dce f73b
00000270: 970d edbd a189 9cbc f35f c7bc 10e7 b43c
00000280: 1fe7 b73d 713f 17be c4c5 a33d e97a 22bd
00000290: e9ca 5e3e c334 27bd 7bd6 7b3d 14a9 913e
000002a0: 3145 d33d b511 913c 4df5 55be 1d13 edbd
000002b0: 5388 323d c697 c8bd 83a9 a73e f14c 443b
000002c0: 50ed 263d 3826 adbc ebc5 343e 814a 4ebe
000002d0: d8f2 4bbe c4b0 01bd bccd 42bd 5450 ecbb
000002e0: be80 b0bd 5869 9b3d 26db 293d 05b9 dc3d
000002f0: 5160 4bbd 885d de3c 8b2c 97bd 6cb3 7e3a
00000300: e4de 213e 403b 25bb b323 063d ad92 5abd
00000310: b3c7 cc3c 0a34 593d ae75 b73d 7666 9d3c
00000320: 6881 d63c ee5c 54be 01ca 14be 76c1 0b3e
00000330: 8966 853e 2542 453e 9e52 bf3c 6bc7 0b3e
00000340: c012 81bd bb95 78bc df02 333e eb7e c13d
00000350: db3a 5b3e 458d e9bd 5518 8ebc 6369 d13d
00000360: 1b66 dfbd 4a48 ed3c 3ad7 11bd 3f08 0bbc
00000370: 3971 0fbd 276e 743d 0fa1 5f3d 8256 af3b
00000380: d91b b4bd 46e2 3d3e b0f6 70bd 3e78 603d
00000390: 9cb9 c4ba 61bb 633d c701 97bd 61cb 6abe
000003a0: 473b e83b 6f3d 0f3e 6eb6 be3d b668 9e3c
000003b0: e71e cc3d 5c53 0c3e 699f 66be 6659 d83d
000003c0: 16a7 a6bd 5382 5bbd 0d0f 6dbe 00fa e33d
000003d0: a751 373e 29b5 04bd 8880 babd 5aca d4bd
000003e0: 57ed 373d bfaf 53bd ff4a 2dbd ac8b 703d
000003f0: 2145 963d e877 bfbc bde1 283c 8f92 e53c

actor.linears.1.bias f4 [64]
0.20757532 -0.21191993 -0.15961732 0.23586941 -0.3087255 0.11382088 0.13212703 -0.22145559
0.3903869 0.14898644 -0.1801357 -0.2508229 -0.10928489 0.27534544 0.32963067 0.1071576
-0.08389946 0.15508549 0.26200977 -0.22643802 -0.1937524 -0.021243239 0.16493392 -0.42357445
0.202157 0.086294524 -0.3260894 -0.07078262 -0.25694534 0.21622993 -0.24425216 -0.0113123255
-0.17705762 -0.088932134 0.13522775 -0.32066312 0.112628095 -0.28012076 -0.20828463 0.26325977
0.08542024 0.18117294 0.1279305 -0.1267865 -0.18422738 0.24219854 0.059977397 -0.011600377
0.094652206 0.2316352 -0.28737772 -0.15547161 0.20479412 0.12796149 -0.2835187 -0.023302877
0.17430986 -0.17916165 -0.13605386 0.0021424904 -0.2408837 0.049536888 0.14078301 -0.22588412
00000000: a08e 543e 8a01 59be b972 23be c087 713e
00000010: 4511 9ebe ec1a e93d 4f4c 073e 41c5 62be
00000020: cbe0 c73e e78f 183e 7e75 38be dc6b 80be
00000030: c2d0 dfbd 14fa 8c3e 5ac5 a83e 7275 db3d
00000040: 7bd3 abbd bbce 1e3e 2526 863e 5edf 67be
00000050: 0767 46be 4d06 aebc 70e4 283e c0de d8be
00000060: 3f02 4f3e 2fbb b03d 31f5 a6be 7af6 90bd
00000070: 578e 83be 616b 5d3e 3d1d 7abe 5557 39bc
00000080: 984e 35be 0d22 b6bd 2579 0a3e f52d a4be
00000090: 8fa9 e63d fd6b 8fbe 9148 55be fcc9 863e
000000a0: cff0 ae3d 6685 393e 3700 033e 52d4 01be
000000b0: 1aa6 3cbe e502 783e dcaa 753d 820f 3ebc
000000c0: 04d9 c13d c731 6d3e 2c23 93be f333 1fbe
000000d0: 8db5 513e 5608 033e 5d29 91be ade5 bebc
000000e0: 497e 323e 2776 37be b451 0bbe 0669 0c3b
000000f0: 37aa 76be 31e7 4a3d 6c29 103e 2b4e 67be

actor.linears.2.weight f4 [1, 64]
0.021971477 -0.032622542 -0.0022743584 -0.0038354793 -0.012793991 -0.009908665 0.09274771 -0.010251952
-0.008658393 -0.077905096 -0.024475375 0.05338064 -0.010976359 0.12387555 0.018484302 0.07775717
-0.08373263 0.038412128 0.0071351156 -0.03145729 -0.07163698 0.118103586 0.03159662 -0.017808884
0.0055008023 0.008403156 -0.006467239 0.049074084 -0.032594115 0.14413217 -0.009023297 -0.015849676
0.03743887 -0.06580994 0.08958228 -0.16508771 0.047541253 -0.010104509 -0.055490777 0.027148988
-0.002524895 0.11095052 0.007393031 0.0046527777 0.09737314 0.0016875324 -0.14612307 -0.014126805
0.0017140957 0.0055325376 -0.0013278369 0.16913635 0.0065944497 -0.06728585 -0.006116535 6.8496716e-05
0.01856946 -0.09121829 0.21691261 0.037716947 -0.022917757 0.0842382 0.03504029 -0.12044729
00000000: 87fd b33c 379f 05bd 670d 15bb aa5c 7bbb
00000010: e39d 51bc f457 22bc 83f2 bd3d cef7 27bc
00000020: efdb 0dbc b58c 9fbd 9580 c8bc a8a5 5a3d
00000030: 30d6 33bc 77b2 fd3d 646c 973c 273f 9f3d
00000040: 037c abbd 0956 1d3d b0cd e93b 5cd9 00bd
00000050: 69b6 92bd 4be0 f13d 756b 013d f0e3 91bc
00000060: 1340 b43b 64ad 093c 22eb d3bb e801 493d
00000070: 6881 05bd 6297 133e 73d6 13bc 2ed7 81bc
00000080: 8059 193d 5dc7 86bd ea76 b73d c10c 29be
00000090: 9eba 423d 628d 25bc 4c4a 63bd 8e67 de3c
000000a0: b578 25bb 073a e33d 3d41 f23b 5476 983b
000000b0: 926b c73d 3130 dd3a 49a1 15be 1d74 67bc
000000c0: 82ab e03a 4a4a b53b d00a aeba 1432 2d3e
000000d0: 4116 d83b 2acd 89bd 376d c8bb e5a5 8f38
000000e0: fb1e 983c a8d0 babd 571e 5e3e 167d 1a3d
000000f0: 05be bbbc 1485 ac3d 6886 0f3d 12ad f6bd

critic.linears.0.weight f4 [64, 16]
0.14730094 -0.1644365 -0.34566626 -0.049727984 0.15580298 0.43807992 -0.06003002 0.16714883
0.21919316 -0.2515303 0.08855596 -0.15899654 0.3403489 0.03751387 -0.19008774 -0.13367538
0.6083527 -0.17286146 -0.2966861 -0.17927772 0.548803 0.34222966 -0.30216968 0.629521
-0.14697942 0.20132151 -0.11300034 -0.2749355 -0.07977019 -0.15966699 -0.17995302 -0.3382443
0.19278063 -0.20200913 -0.065356255 -0.33263487 0.09129703 -0.121289715 -0.3352124 -0.20012878
-0.14521915 0.020352624 0.3142343 -0.24200113 -0.2987 -0.28990656 0.01750066 0.033049308
0.10267507 -0.07080911 0.117540866 -0.26817894 0.2508981 -0.22975414 -0.15319817 -0.10278137
-0.055523854 0.093989104 0.09833008 -0.06822079 0.07403244 0.15787652 -0.080838576 -0.20231852
0.06700897 0.16027334 0.33439296 -0.20134687 -0.10746656 -0.3268857 0.36288965 -0.13416995
-0.13934462 0.30629122 0.128136 -0.05636667 -0.13069451 -0.092401 -0.043782383 0.032932363
0.38107488 -0.16453417 -0.50053924 -0.17034821 0.34467977 0.35141578 -0.31106964 0.3850152
0.018151246 0.25983173 0.21538256 -0.12647267 -0.24964862 0.03390677 0.08869811 -0.13522868
-0.26147905 0.30134332 0.17583726 -0.1067962 0.15769506 -0.52524805 0.21144347 -0.012630551
-0.19886836 0.26147234 -0.14616917 -0.13687466 -0.21555439 -0.09308705 0.063939616 -0.10817382
-0.27836525 0.48842037 0.552749 0.026509162 0.002948368 -0.097790055 0.360343 -0.48824024
-0.06306414 -0.38396114 -0.06547196 0.062025595 0.21603382 -0.16595988 0.026568618 -0.046478223
0.2754557 -0.16940083 -0.2095281 -0.37535182 -0.0628352 -0.02978035 -0.36103597 -0.013409573
0.09789681 0.03294968 0.18960714 -0.050101597 0.17912605 0.03263175 -0.16909154 0.033505276
0.34979486 -0.08636841 -0.22586296 0.007935369 -0.016025268 0.15477628 -0.24369147 0.34482834
0.032332726 -0.28010342 0.028477164 -0.092094496 0.1749109 0.1532164 0.110886924 0.1745248
-0.27102858 0.012717833 0.21147221 0.01600556 -0.22923677 0.11646758 0.36746496 -0.21864837
-0.12329143 0.15305658 -0.018192207 -0.17130071 -0.10635347 0.0134161925 0.12807167 -0.18845306
-0.30370972 -0.038322326 0.16168934 -0.20203035 -0.31743434 -0.10042164 0.2775844 -0.111643836
0.017858686 -0.045125086 0.15184729 -0.091825224 -0.1500769 0.12712666 0.042983577 0.05648528
-0.0639874 0.09612788 0.12577999 -0.11479197 0.011235845 -0.35785478 0.03221859 -0.335494
-0.15251487 -0.17026049 -0.39509407 -0.06350696 0.2761333 -0.109659106 -0.3661413 0.17728841
-0.45589188 0.45880237 0.5980159 -0.0044373823 0.0056395438 -0.5325654 0.44075423 -0.4268204
0.19486901 -0.2331206 -0.09287136 0.065809205 -0.019617163 -0.14376798 -0.2208647 0.16002144
0.13185905 -0.19631663 -0.37622368 0.083981924 0.10285044 0.14770105 -0.17099568 0.01903487
0.026621332 -0.26013035 -0.017994383 0.35694945 0.046617303 -0.04223952 0.09301579 0.00051795354
-0.39463696 0.21403249 -0.17212836 0.14198919 -0.40269506 0.26695463 0.045128666 -0.23614366
0.17905936 0.07343221 0.1989359 -0.22501525 -0.11477736 -0.05904485 0.2575332 0.11445934
00000000: 0fd6 163e 0b62 28be 2bfb b0be 92af 4bbd
00000010: d18a 1f3e 034c e03e 0ae2 75bd 1029 2b3e
00000020: 2c74 603e 94c8 80be d45c b53d fdcf 22be
00000030: 3642 ae3e 25a8 193d 5ca6 42be 33e2 08be
00000040: 01bd 1b3f 9802 31be 3ee7 97be 9494 37be
00000050: 5a7e 0c3f ba38 af3e fcb5 9abe 4a28 213f
00000060: c681 16be 3a27 4e3e b96c e7bd 59c4 8cbe
00000070: 8e5e a3bd be7f 23be 9b45 38be 5b2e adbe
00000080: 4968 453e 7bdb 4ebe 80d9 85bd 1e4f aabe
00000090: f0f9 ba3d be66 f8bd f6a0 abbe 8fee 4cbe
000000a0: 54b4 14be 8cba a63c 51e3 a03e 25cf 77be
000000b0: 35ef 98be a26e 94be 8b5d 8f3c b65e 073d
000000c0: 4f47 d23d 5e04 91bd 44b9 f03d c04e 89be
000000d0: b775 803e ab44 6bbe fbdf 1cbe 0a7f d2bd
000000e0: fb6c 63bd 5c7d c03d 4861 c93d 57b7 8bbd
000000f0: 529e 973d 62aa 213e b28e a5bd 962c 4fbe
00000100: 003c 893d b21e 243e 8e35 ab3e e02d 4ebe
00000110: 6e17 dcbd 905d a7be accc b93e d963 09be
00000120: 5bb0 0ebe 34d2 9c3e 1536 033e bde0 66bd
00000130: c8d4 05be bc3c bdbd 2855 33bd 16e4 063d
00000140: 3f1c c33e a57b 28be 5723 00bf c36f 2ebe
00000150: de79 b03e c5ec b33e 8544 9fbe b620 c53e
00000160: ecb1 943c aa08 853e 3f8d 5c3e 0d82 01be
00000170: e3a3 7fbe d3e1 0a3d 5ba7 b53d 6379 0abe
00000180: 95e0 85be ac49 9a3e af0e 343e f7b7 dabd
00000190: d07a 213e a876 06bf a384 583e 5ff0 4ebc
000001a0: 26a4 4bbe b4df 853e 5fad 15be df28 0cbe
000001b0: 4aba 5cbe 6ca4 bebd c6f2 823d 3c8a ddbd
000001c0: e485 8ebe 3c12 fa3e f580 0d3f be29 d93c
000001d0: 6839 413b 2746 c8bd e17e b83e a0fa f9be
000001e0: c627 81bd 8e96 c4be 2a16 86bd 8d0e 7e3d
000001f0: f837 5d3e 63f1 29be 6ea6 d93c f35f 3ebd
00000200: 8808 8d3e 6977 2dbe 898e 56be 1d2e c0be
00000210: beaf 80bd ecf5 f3bc b5d9 b8be d3b3 5bbc
00000220: 1f7e c83d 3ef6 063d 6028 423e 5537 4dbd
00000230: d26c 373e dfa8 053d 5526 2dbe d43c 093d
00000240: 5018 b33e ece1 b0bd 9f48 67be 5a03 023c
00000250: 6c47 83bc ac7d 1e3e 428a 79be 578d b03e
00000260: 526f 043d b769 8fbe f148 e93c 0a9c bcbd
00000270: d81b 333e c3e4 1c3e af18 e33d a1b6 323e
00000280: 42c4 8abe 755e 503c 2c8c 583e 181e 833c
00000290: 0bbd 6abe 8e86 ee3d 5e24 bc3e 5ce5 5fbe
000002a0: 3880 fcbd ddba 1c3e d307 95bc 7469 2fbe
000002b0: d9cf d9bd 97cf 5b3c 3825 033e d7f9 40be
000002c0: d77f 9bbe dff7 1cbd e491 253e 0be1 4ebe
000002d0: c186 a2be dca9 cdbd 8b1f 8e3e 86a5 e4bd
000002e0: 614c 923c 15d5 38bd db7d 1b3e dd0e bcbd
000002f0: c2ad 19be 7e2d 023e 8c0f 303d 1c5d 673d
00000300: d30b 83bd b2de c43d 78cc 003e 0d18 ebbd
00000310: 8d16 383c be38 b7be a4f7 033d dfc5 abbe
00000320: dc2c 1cbe c458 2ebe c549 cabe f00f 82bd
00000330: 5861 8d3e f494 e0bd df76 bbbe 188b 353e
00000340: a96a e9be 25e8 ea3e 9217 193f 7667 91bb
00000350: eccb b83b 3556 08bf 8aaa e13e 3488 dabe
00000360: be8b 473e 2bb7 6ebe 5733 bebd fac6 863d
00000370: 2cb4 a0bc ea37 13be 5b2a 62be a9dc 233e
00000380: 0f06 073e 3a07 49be 64a0 c0be b7fe ab3d
00000390: 40a3 d23d f23e 173e 7e19 2fbe 04ef 9b3c
000003a0: fb14 da3c ce2f 85be f568 93bc 14c2 b63e
000003b0: c9f1 3e3d 5903 2dbd 107f be3d 46c7 073a
000003c0: db0d cabe 552b 5b3e 6b42 30be 9d65 113e
000003d0: 0c2e cebe 47ae 883e d6d8 383d a5cf 71be
000003e0: 565b 373e a063 963d dab5 4b3e 666a 66be
000003f0: 6410 ebbd 03d9 71bd 64db 833e a969 ea3d

critic.linears.0.bias f4 [64]
-0.121386826 0.4660036 0.025754092 0.036554504 -0.033657696 0.2138957 0.06479657 -0.3002014
-0.13411337 -0.15651178 -0.1831903 0.074670896 0.19120994 0.033798665 0.14307302 0.105276585
0.15253341 -0.0596261 0.1828178 0.23352072 -0.021402454 0.10703346 -0.2532052 -0.22923216
-0.17698805 -0.15597339 -0.10862616 0.07353833 -0.049561787 -0.09001195 0.21287861 0.07604921
0.024438275 -0.20074141 -0.60912293 -0.21741854 -0.026009137 -0.11850137 -0.036326617 -0.22306703
0.11033386 -0.1702301 0.02645932 -0.14071216 -0.2333245 0.13677764 -0.11539839 0.42101258
-0.061437678 -0.14845984 -0.18193223 -0.099120334 -0.13858649 0.20990735 -0.04587056 -0.27161497
-0.23430108 0.3551958 0.17220896 0.14979549 -0.19674748 -0.20075427 0.22987005 -0.08140887
00000000: a899 f8bd 0698 ee3e 3ffa d23c 2dba 153d
00000010: a7dc 09bd 7907 5b3e 10b4 843d ffb3 99be
00000020: 0455 09be a044 20be 3d96 3bbe 0eed 983d
00000030: 8acc 433e 7870 0a3d bc81 123e 409b d73d
00000040: b831 1c3e 7f3a 74bd 9734 3b3e 0e20 6f3e
00000050: 3354 afbc 5c34 db3d 1da4 81be d6bb 6abe
00000060: 5b3c 35be 7db7 1fbe 6477 debd 449b 963d
00000070: 4d01 4bbd 2f58 b8bd dafc 593e b0bf 9b3d
00000080: c732 c83c 288f 4dbe 7bef 1bbf f7a2 5ebe
00000090: 1d11 d5bc d9b0 f2bd 38cb 14bd af6b 64be
000000a0: b8f6 e13d cd50 2ebe 37c1 d83c d916 10be
000000b0: 9eec 6ebe 700f 0c3e fe55 ecbd f68e d73e
000000c0: 13a6 7bbd db05 18be 714c 3abe 9aff cabd
000000d0: 9ee9 0dbe f4f1 563e c5e2 3bbd 1e11 8bbe
000000e0: 9fec 6fbe 39dc b53e 8c57 303e fd63 193e
000000f0: 2c78 49be 8792 4dbe 0e63 6b3e b2b9 a6bd

critic.linears.1.weight f4 [64, 64]
-0.31565863 0.15424679 0.09833181 -0.048098706 0.37674403 -0.02607085 0.4853158 0.02557379
-0.088890605 -0.19272873 0.04925897 -0.01527503 0.012639475 -0.1187411 -0.22573656 -0.037928376
0.18761818 -0.008914416 0.058329627 0.17896186 0.14762561 -0.02501364 -0.19334343 0.045731183
0.044726588 0.0347499 0.13423431 0.023927478 -0.06239932 -0.04662458 0.20234971 0.14921574
0.41942018 0.11892385 -0.11455081 -0.0863872 0.021577105 -0.31979105 -0.11850792 -0.25142112
0.0532408 -0.16972022 -0.008774668 -0.03473995 -0.1275616 -0.32846814 -0.03546456 0.25546923
-0.28024966 -0.1685799 0.09199769 -0.089242436 -0.1588118 0.19643296 0.061745547 -0.12932649
-0.006350502 -0.15790685 0.04505476 0.06929515 0.2953241 -0.14259796 0.016037019 -0.0024760058
-0.26519006 -0.018653058 -0.16161847 0.11268164 0.31730372 -0.20174362 0.114402294 0.17343637
-0.21986982 -0.12284346 0.06148336 0.12416435 0.20606801 0.164747 -0.456884 -0.12078259
0.32069752 -0.18762222 0.20310687 0.08689986 -0.2050995 -0.49653512 0.07951774 0.35796055
0.4423585 0.22877349 0.22370325 0.0566749 0.19399053 -0.105045676 0.15835924 0.5036467
0.077167355 0.17471687 -0.061860416 0.13749133 -0.061955646 -0.07827272 -0.21192028 -0.006824602
0.119463295 -0.4837869 0.17867611 0.57105 -0.17841046 -0.005944131 0.25408545 -0.13258348
-0.1704194 -0.32671696 -0.25163865 -0.16007845 -0.47399417 0.104963645 -0.11266213 -0.24253015
0.18877202 -0.2473646 -0.025614746 0.48166338 0.21761939 0.19320643 0.19912957 -0.42210954
0.4031248 -0.06846012 0.036277182 0.022549957 -0.62694156 0.0985934 -0.44601437 0.0013231074
0.23326859 0.40129277 -0.19875091 -0.040598754 -0.019444322 -0.13840725 0.12592979 -0.030618548
-0.1261841 -0.034319308 -0.21422526 0.0049187755 -0.11838998 -0.07515487 0.17430611 -0.05342049
-0.12988386 -0.124481715 -0.3426217 0.04627226 0.09443472 0.0011941671 -0.031981505 -0.25971824
-0.47343516 -0.16190095 0.031675357 -0.09272931 -0.030491471 0.30805886 0.4630462 0.1700645
0.014044605 0.1973662 -0.09962282 -0.11743089 0.3343263 0.21415372 -0.1340878 0.09138655
0.2520262 0.08704125 -0.14351018 0.28542528 0.10403608 -0.26037896 0.18787095 0.2344678
0.107083365 0.0297511 -0.07346837 -0.123089775 -0.17695536 -0.06950842 -0.06873218 -0.08416339
0.3068678 0.09725127 0.053136088 -0.0056394753 -0.2554732 0.07996661 -0.25520948 0.07859601
0.22444586 0.26533103 -0.004706574 -0.040203635 -0.018585516 -0.11598638 0.4375187 0.098437674
-0.22730145 0.27309692 -0.052304994 0.03516922 0.036686763 0.22224922 0.1148505 -0.17742695
-0.23060116 -0.17728323 -0.23761006 0.021834916 -0.06077747 0.079952054 -0.22016475 -0.48238775
-0.24183156 -0.24755593 0.08880877 -0.11695798 0.1797347 0.07936095 0.3359383 0.20625849
0.063664466 0.4627484 -0.044662815 -0.24554707 0.36182442 0.23589075 -0.054159395 -0.13668281
0.26643103 0.2718784 0.030266264 0.18201523 0.20564187 -0.2275938 0.023210367 0.41376263
-0.15011989 0.0368333 0.08971653 -0.36069587 -0.17028624 0.07469122 -0.041743148 0.06241426
00000000: 029e a1be dff2 1d3e 3062 c93d 2603 45bd
00000010: 98e4 c03e 8992 d5bc 507b f83e 2080 d13c
00000020: 470c b6bd ae5a 45be c6c3 493d 1f44 7abc
00000030: cd15 4f3c 892e f3bd 7c27 67be c95a 1bbd
00000040: fb1e 403e c50d 12bc 0ceb 6e3d c741 373e
00000050: 2b2b 173e 68e9 ccbc d2fb 45be 9f50 3b3d
00000060: 3a33 373d e955 0e3d b874 093e 8f03 c43c
00000070: 6e96 7fbd 6af9 3ebd c334 4f3e 03cc 183e
00000080: 3ebe d63e 598e f33d 9d99 eabd c6eb b0bd
00000090: 78c2 b03c a7bb a3be 48b4 f2bd 45ba 80be
000000a0: 0613 5a3d 23cb 2dbe a0c3 0fbc 7a4b 0ebd
000000b0: 829f 02be fa2c a8be 4943 11bd ddcc 823e
000000c0: e27c 8fbe 36a0 2cbe 4969 bc3d bdc4 b6bd
000000d0: 8f9f 22be b925 493e e6e8 7c3d 2a6e 04be
000000e0: df17 d0bb 55b2 21be 578b 383d 9eea 8d3d
000000f0: b834 973e 3305 12be 1160 833c 7c44 22bb
00000100: fec6 87be 4cce 98bc 507f 25be a2c5 e63d
00000110: a275 a23e e195 4ebe c04b ea3d 4e99 313e
00000120: 8e25 61be 5a95 fbbd fad5 7b3d e149 fe3d
00000130: 7e03 533e 70b3 283e b3ec e9be dd5c f7bd
00000140: 7732 a43e 0a20 40be 3ffb 4f3e 8ef8 b13d
00000150: 9a05 52be da39 febe 32da a23d 9b46 b73e
00000160: d07c e23e 9943 6a3e 7712 653e f123 683d
00000170: 74a5 463e 3022 d7bd ed28 223e fdee 003f
00000180: eb09 9e3d fbe8 323e 5961 7dbd 87ca 0c3e
00000190: 34c5 7dbd 734d a0bd a101 59be e9a0 dfbb
000001a0: 2ca9 f43d ebb2 f7be dff6 363e 5530 123f
000001b0: 3bb1 36be fcc6 c2bb 7d17 823e f7c3 07be
000001c0: 6c82 2ebe 7247 a7be c8d6 80be 9beb 23be
000001d0: 5daf f2be 2ef7 d63d 67bb e6bd d359 78be
000001e0: 744d 413e 254d 7dbe 04d6 d1bc 959c f63e
000001f0: 9ed7 5e3e e8d7 453e 9fe8 4b3e be1e d8be
00000200: 6066 ce3e d234 8cbd 6297 143d b0ba b83c
00000210: 3e7f 20bf 56eb c93d ff5b e4be 1e6c ad3a
00000220: f6dd 6e3e 3f76 cd3e 5c85 4bbe e14a 26bd
00000230: b349 9fbc a1ba 0dbe bdf3 003e c0d3 fabc
00000240: 6836 01be 6792 0cbd de5d 5bbe ae2d a13b
00000250: 7276 f2bd ccea 99bd 4d7d 323e 72cf 5abd
00000260: 4600 05be 45f0 febd 1d6c afbe fb87 3d3d
00000270: fe66 c13d 9985 9c3a 0aff 02bd caf9 84be
00000280: 1866 f2be 5dc9 25be 05be 013d dde8 bdbd
00000290: 40c9 f9bc e4b9 9d3e 6414 ed3e 6325 2e3e
000002a0: 581b 663c 5d1a 4a3e 0d07 ccbd 9b7f f0bd
000002b0: d12c ab3e 1d4b 5b3e 504e 09be df28 bb3d
000002c0: 9409 813e af42 b23d 55f4 12be 4323 923e
000002d0: de10 d53d 6450 85be 3e61 403e 5418 703e
000002e0: 864e db3d 94b8 f33c 9676 96bd 7e16 fcbd
000002f0: c933 35be 6e5a 8ebd 75c3 8cbd db5d acbd
00000300: c71d 9d3e ad2b c73d 3aa5 593d 59cb b8bb
00000310: 62cd 82be 89c5 a33d d1aa 82be f2f6 a03d
00000320: 23d5 653e 78d9 873e 9b39 9abb 91ac 24bd
00000330: a740 98bc 448a edbd 7302 e03e b199 c93d
00000340: b6c1 68be 5cd3 8b3e c33d 56bd 9a0d 103d
00000350: dc44 163d 4d95 633e bd36 eb3d 69af 35be
00000360: b622 6cbe bc89 35be 0d50 73be 23df b23c
00000370: ccf1 78bd e7bd a33d de72 61be 87fb f6be
00000380: b1a2 77be 4d7f 7dbe 5fe1 b53d aa87 efbd
00000390: 600c 383e fe87 a23d 1b00 ac3e 6d35 533e
000003a0: 8462 823d 5ced ec3e 5bf0 36bd b170 7bbe
000003b0: 0d41 b93e 588d 713e 3ed6 5dbd 94f6 0bbe
000003c0: a669 883e a533 8b3e f5f0 f73c 3362 3a3e
000003d0: c893 523e 590e 69be ab23 be3c b2d8 d33e
000003e0: 07b9 19be 84de 163d 4dbd b73d 21ad b8be
000003f0: 845f 2ebe b6f7 983d ddfa 2abd 18a6 7f3d

critic.linears.1.bias f4 [64]
0.27222526 0.009209313 -0.15204397 0.020214481 -0.31049818 0.13456427 0.09442891 -0.07810746
0.053827226 0.067517534 -0.46929413 -0.07050382 0.33451426 -0.2790796 0.17887335 -0.014448014
-0.061084058 0.19233935 -0.2941788 0.01439254 -0.052402988 -0.41366816 0.12853287 0.010753861
0.058072712 0.023666158 -0.11627422 0.22856674 0.016295414 0.42543486 0.12059196 -0.4754439
-0.13080049 -0.32934815 0.47278106 -0.008259187 0.47541377 -0.27126452 -0.012816497 0.12865593
0.00029901732 0.002123178 0.05739853 0.29905343 0.10217833 0.28983873 0.03522749 0.30634665
-0.021252723 -0.3702242 0.22909495 0.03532718 0.06711808 0.46116263 -0.25228196 0.043959316
-0.26434517 -0.11749182 0.2967943 -0.15067312 -0.036594927 -0.45332542 -0.08652344 0.171914
00000000: 1c61 8b3e a9e2 163c 6ab1 1bbe d798 a53c
00000010: 9ef9 9ebe 37cb 093e f263 c13d cef6 9fbd
00000020: f079 5c3d a246 8a3d 5247 f0be 4f64 90bd
00000030: 7445 ab3e 85e3 8ebe 932a 373e 5db7 6cbc
00000040: 4733 7abd 9bf4 443e 9b9e 96be b0ce 6b3c
00000050: 84a4 56bd 50cc d3be 1f9e 033e f630 303c
00000060: a7dd 6d3d 88df c13c 2e21 eebd 660d 6a3e
00000070: f67d 853c 99d2 d93e ebf8 f63d 626d f3be
00000080: 90f0 05be 52a0 a8be 5c10 f23e 8b51 07bc
00000090: 6f69 f33e 2fe3 8abe 49fc 51bc 61be 033e
000000a0: 6dc5 9c39 0425 0b3b b91a 6b3d 881d 993e
000000b0: df42 d13d be65 943e b34a 103d 78d9 9c3e
000000c0: 311a aebc 078e bdbe de97 6a3e 3cb3 103d
000000d0: 3475 893d 821d ec3e 1a2b 81be af0e 343d
000000e0: 4058 87be 8d9f f0bd 6cf5 973e 0e4a 1abe
000000f0: 90e4 15bd 451a e8be 3433 b1bd 390a 303e

critic.linears.2.weight f4 [1, 64]
-0.37538576 0.084748834 0.2196093 0.045465562 0.55729717 -0.63849264 -0.07235361 0.24088559
-0.023752129 0.044663426 0.7267282 -0.07481596 -0.74234116 0.7129784 -0.36643165 -0.05208715
0.04106669 -0.22039388 0.67345893 -0.0629242 -0.09241789 0.6414658 -0.12589131 0.02101063
0.0347909 -0.06743841 0.01693508 -0.4760203 -0.2017967 -0.66443 -0.3973827 0.7138678
0.044047747 0.41219392 -0.67539865 0.06197271 -0.6520218 0.6271582 0.2687226 -0.10417422
0.002030119 0.08057799 0.13151759 -0.5870098 -0.12493114 -0.5958885 -0.015000048 -0.5939086
0.005502079 0.7228854 -0.77507406 0.1163166 -0.040317908 -0.74119747 0.73558164 0.11910394
0.68934476 0.44614518 -0.64997137 0.11691084 0.013966225 0.7086437 0.1905406 -0.5006551
00000000: 9032 c0be cc90 ad3d 43e1 603e 193a 3a3d
00000010: 07ab 0e3f 4174 23bf 212e 94bd b6aa 763e
00000020: d393 c2bc fff0 363d dc0a 3a3f 1c39 99bd
00000030: 120a 3ebf c185 363f ee9c bbbe 5659 55bd
00000040: 8c35 283d efae 61be ce67 2c3f 67de 80bd
00000050: 9745 bdbd 1a37 243f a7e9 00be 7c1e ac3c
00000060: e780 0e3d 261d 8abd 70bb 8a3c efb8 f3be
00000070: cba3 4ebe 1618 2abf bf75 cbbe 0ac0 363f
00000080: 696b 343d 150b d33e ede6 2cbf 19d7 7d3d
00000090: e7ea 26bf 718d 203f 0296 893e 4b59 d5bd
000000a0: bf0b 053b 1306 a53d 8cac 063e 4646 16bf
000000b0: e6db ffbd 268c 18bf c3c2 75bc 650a 18bf
000000c0: c94a b43b 040f 393f 416b 46bf 6637 ee3d
000000d0: 6424 25bd 1ebf 3dbf 144f 3c3f c4ec f33d
000000e0: e678 303f 246d e43e 8664 26bf f36e ef3d
000000f0: 98d2 643c ac69 353f 131d 433e ef2a 00bf
