temp/compare.pth (torch, 72641 bytes, 6 tensors)

net.0.weight f4 [128, 3]
00000000: 0386 cdbc c9f8 e7be 344e e9bd 2095 3fbd
00000010: ef38 08bf 38ba e83e f77a 483e c561 ec3e
00000020: 8b11 ffbe 89c6 97be db09 153e f089 993b
00000030: cc0a a6be eace dd3e ba63 7c3e b1ef efbc
00000040: 1048 0f3f f55d 0fbf 0610 0cbf 8b8c 043e
00000050: 666b 093f 25a0 b03e d938 a4be 82fa d03e
00000060: f8bc a63e 3e75 f73c 311a b73e 8907 123e
00000070: 3c38 9d3d 3103 dbbd 720c 9dbe f655 babe
00000080: 486f 9bbd 6a28 cabe 8c13 833e f247 303e
00000090: 461b 10bf a86f d9be a63f d33e fcf7 9abe
000000a0: 0020 c3bb 3756 bdbe 98e3 66bd 7a31 8e3e
000000b0: 02b6 0c3e 73b4 9a3e e44f c93d dc8f a7be
000000c0: ebb9 5aba 01a8 b03e ed17 073e 61b0 0f3e
000000d0: effc d53d 7406 ee3e 3229 a43e b1ee 603d
000000e0: da0a 29be df4d f83e d712 72be 6a52 b4be
000000f0: 0620 563e c4f0 b7be 6eea febe cd5e efbe
00000100: b723 133e 1623 b9be 30a0 043f eb49 d13d
00000110: 5882 0bbe b242 b5be 73a4 27be f8d0 023f
00000120: 5757 87be 2ea5 bcbe 9d2c b23e 8445 7f3e
00000130: cdac e7be 7c47 77be 26ad 043f 7777 68be
00000140: 026b 6b3e 565d e0bd 3669 a0be 538c afbe
00000150: ceec f23e f29e 293e 1faa 1b3e 5eb2 5c3e
00000160: 0828 5b3e 3c8c bc3e cf5c f13e 77b1 e03e
00000170: e2d0 353e 1e04 f73d dc03 593e cdd9 dfbe
00000180: 2a78 803e ee6e 193e 3025 803e 88e2 11be
00000190: 4abc fb3e 52ae a23d b022 0cbe 20b0 85bc
000001a0: bef9 6bbe 897c 80bd 618c f53e 4023 363e
000001b0: 3163 1cbd 8c58 933c 2660 003e 4a98 aabe
000001c0: 336d a1be 14e3 023f 0030 4e3b 24d2 233e
000001d0: b219 8ebe 1e49 d9be 7f7c fc3d 4c53 a33e
000001e0: 6635 0bbf d82d 12bf 1c2c 45be b9ed c93e
000001f0: 8245 f4be e83a f63e 48d5 0b3f ddfd 82bd
00000200: d03f 1c3d abd9 05bd c33c 113f 36d1 8a3d
00000210: 841b 353e 258b bcbd 8d58 713d 4992 07be
00000220: 001e 293d 9c15 8ebd e928 fc3d a231 393e
00000230: fca5 e4be 0375 cd3e 8bf0 9e3e 3771 cb3e
00000240: e0f7 db3e f80a 243e 7d65 a73e 9864 9f3e
00000250: a3d6 aa3e f1e9 b8be e69b 993e 0106 5fbd
00000260: 0ead 583e c7c7 753e ef9f 8dbe 8bc0 e7bd
00000270: 2a0f 8abe 6f9c 26be 0136 343e 4800 483e
00000280: b8e5 f83e eb82 c7be b7ea 5d3e e2c4 ed3e
00000290: f402 eabe 3082 debe 8448 0e3e f0f3 6fbe
000002a0: 1673 2f3e c6be 29be 6ffd 2f3e 2a82 bcbe
000002b0: c12f ea3e a421 c2be 70a1 07bf 8e18 99be
000002c0: 80e5 483c c35a 113f 64f3 ec3d f1f8 12be
000002d0: 96df babe 9844 8b3e 83d6 3c3d a835 2bbe
000002e0: 7aca 25be 505e ad3d ccbc b93e 5a57 60be
000002f0: ed31 5bbc fde8 933e c206 c8be fa1e 6eb9
00000300: 2e18 fd3e 3c54 c23e 6e37 02bf 2d42 8fbe
00000310: b65b b13d dc32 b73e e414 d7bd 4734 a5be
00000320: ed3e 1e3e 0bd2 c73e 573a 26be 062c d1be
00000330: 4c50 6d3d e784 f13e d7b2 f4be dff6 1c3e
00000340: 40eb b73e fba9 813b e66c 9ebe 4aea 55be
00000350: 226e c2be 69b5 a33c 3f5d 91be fa49 cbbd
00000360: d220 02be 5fb1 cbbe f6b0 0f3f 8db5 213e
00000370: 02bd 903e 337d ab3e 381a 8b3e 1e80 0abd
00000380: a6a7 97bd 45b1 88be 931b bdbe c078 87be
00000390: a026 61be 38c4 173f e10d 00bf eb2f babe
000003a0: 68f3 e5be d01e cfbe 520b fb3e 9964 bdbe
000003b0: 8e64 9dbe 268a 35be 0198 183e 9f93 41be
000003c0: 46d4 c4be dc43 fb3e 92fa ce3d 6586 bbbe
000003d0: 82c6 54be f486 b83e 05e2 613e 3d60 67be
000003e0: 99e1 03be a3bb ddbd 2ea3 8d3e 3c3f e1be
000003f0: e771 0e3f a0ed 433d 31d8 603e 3df0 463e
-0.025088316 -0.45306996 -0.11391869 -0.046773076 -0.53211874 0.45454574 0.19578157 0.46168342
-0.49818072 -0.29643658 0.14554541 0.004685633 -0.32430112 0.43321925 0.24647418 -0.029289098
0.55969334 -0.5600274 -0.5471195 0.12944238 0.536795 0.3449718 -0.3207462 0.40816122
0.32566047 0.030207273 0.3576217 0.14260687 0.076767415 -0.10693968 -0.30673558 -0.36393708
-0.075895846 -0.39483958 0.2560085 0.17214945 -0.56291616 -0.42468 0.41259497 -0.30267322
-0.0059547424 -0.3697984 -0.056369394 0.27772123 0.13741305 0.30215797 0.09829691 -0.32726943
-0.0008343744 0.34503177 0.1319272 0.14032127 0.10448634 0.46489298 0.3206268 0.054915134
-0.16508046 0.4849691 -0.2364 -0.35219127 0.20910653 -0.35925877 -0.4978823 -0.46752015
0.14369093 -0.3615958 0.51806927 0.10219177 -0.13623941 -0.35402447 -0.16371326 0.5110011
-0.26433823 -0.36844772 0.34799662 0.24928862 -0.45249024 -0.24148363 0.51826704 -0.22701822
0.22990039 -0.109553024 -0.3133027 -0.34286746 0.47446293 0.16564539 0.15201615 0.21552417
0.2140199 0.3682574 0.4714112 0.43885395 0.17755464 0.12061332 0.21192878 -0.43720856
0.25091678 0.14983723 0.25028372 -0.14246571 0.4916709 0.07943405 -0.13685107 -0.016319335
-0.23044488 -0.06273753 0.47958663 0.17786884 -0.038180534 0.017986558 0.12536678 -0.33319312
-0.31528625 0.51127744 0.0031461716 0.15998131 -0.2775398 -0.42438596 0.12328433 0.31899488
-0.54378355 -0.571012 -0.19255108 0.3943918 -0.4770928 0.48091817 0.54622316 -0.06396077
0.038146794 -0.032678287 0.5673334 0.06778185 0.17686278 -0.09206227 0.05892234 -0.13239397
0.041288376 -0.069377154 0.123124905 0.1808534 -0.44657886 0.40128335 0.31042895 0.39734814
0.4296255 0.16019809 0.32694617 0.31131434 0.3336688 -0.36115983 0.30001754 -0.054449085
0.21159765 0.2400199 -0.27661082 -0.113160215 -0.26964694 -0.16270612 0.17598726 0.19531357
0.48612761 -0.3896707 0.21671568 0.46439272 -0.45705378 -0.434587 0.1389485 -0.23432899
0.17133746 -0.1657668 0.17186521 -0.36818057 0.45739558 -0.3791629 -0.5298071 -0.29901546
0.012261748 0.56779116 0.115698606 -0.14352776 -0.36498708 0.2720077 0.04610301 -0.16719687
-0.1619052 0.08465254 0.36276853 -0.21908322 -0.013378602 0.28888693 -0.39067656 -0.00022708988
0.4943251 0.3795489 -0.5086583 -0.27980176 0.086600706 0.3578099 -0.105020314 -0.32266447
0.15453692 0.39027438 -0.16233192 -0.408539 0.057937905 0.4717171 -0.47792694 0.15328549
0.3592167 0.003957031 -0.30942458 -0.20890155 -0.3797465 0.019983964 -0.28391454 -0.09926219
-0.12707832 -0.3978376 0.56129396 0.15791912 0.28269202 0.33493957 0.2716844 -0.03381359
-0.07405023 -0.26697746 -0.369351 -0.26459312 -0.2198739 0.5928378 -0.5002118 -0.36364684
-0.44912267 -0.40453196 0.49032074 -0.36990812 -0.3074078 -0.1772848 0.14901735 -0.18903969
-0.38443202 0.4907521 0.10106386 -0.36625972 -0.2077885 0.3604046 0.22058876 -0.22595306
-0.12879027 -0.108268045 0.2766356 -0.43993556 0.5564255 0.04783404 0.2195747 0.19427581

net.0.bias f4 [128]
00000000: 23db 8a3e 209a bebe 08ae fd3e 4a6f c9be
00000010: 7390 9c3e 36ec c43d aa0e a8bd 834f 673e
00000020: 64cb 173e 2f45 e43e d01e 3dbd f882 88be
00000030: 1088 763d d415 adbe 5bbe ca3e 83c7 373e
00000040: 1ad1 e73e 7e4c 97bc 5c91 083e c429 52be
00000050: 4dbb 76be dabb 843c bc26 df3e fbee 92be
00000060: 214e 1e3f a1d2 20be 5b13 33bc e3a6 263f
00000070: 1d1b 3d3d 14eb ed3e de5e c03d 2b7f f63e
00000080: 7c0b 413e a1c7 aebe 4eb9 c2be bae2 f93e
00000090: eff4 973e 02df 1abe 852a fabd 8943 abbe
000000a0: 50bf ccbe 9b85 893e dee5 dbbe 2c84 92bd
000000b0: 4880 183f 1231 f03e 5f8c de3e 81f5 823e
000000c0: 4339 e7be dca6 eb3e 46b8 1c3f 61a4 c73e
000000d0: b57d 173f a138 ffbe bf33 fcbe 70eb 08be
000000e0: a4a8 9e3e 7990 083f 6892 2dbe 261d 07be
000000f0: d1b4 cd3e a0f2 90bc acb7 2a3e 0506 13bf
00000100: d725 8d3d 36db 903e 9372 3e3f c725 3e3e
00000110: f48f 043f f496 743e 7b49 e9be a254 043d
00000120: 9024 8cbe 77a2 6b3d d42f d8bd b812 0a3f
00000130: 5695 fdbe 60ae b1be d770 a2bd aa86 2c3f
00000140: 060c 5cbe 2149 873e de0f d33e a178 2c3f
00000150: f7d1 55bc 0b0b 853e 018e b8be dec7 fcbd
00000160: 9753 fdbe 2d54 ddbe 09f9 9e3e 624f e5be
00000170: 5b0b 013f f3d1 1a3f cdd3 943e b164 da3e
00000180: 0f49 06bf e64a 5dbe 2972 01bf 131f 0cbf
00000190: 53c3 be3e 47b3 083d 6587 303f f286 81be
000001a0: 0d04 cbbe 1795 10bf ac1d 483e 6467 d0be
000001b0: 6844 e13d 70cc 113f 9cb0 273f f0d0 6fbd
000001c0: 4238 c0be dc05 c8be 67eb 0c3f 0284 323d
000001d0: 5924 c13d 119a 0fbf 7dde 703e aa10 fc3e
000001e0: d72b 5c3e 2010 d5bd 4c25 bdbe d74e 123e
000001f0: 04e1 253e 63a8 a13e 045e e3bd 2d59 2b3f
0.27120313 -0.37226963 0.49546838 -0.3934272 0.30578956 0.09615366 -0.08205922 0.22588925
0.14823681 0.44584033 -0.046171963 -0.2666242 0.060188353 -0.33805716 0.39598355 0.17947201
0.4527672 -0.018469092 0.133367 -0.20523745 -0.24094887 0.016202856 0.4358424 -0.28697953
0.61837965 -0.15705349 -0.010929908 0.650984 0.046168435 0.46468413 0.093930945 0.48143896
0.18852037 -0.3413668 -0.38032 0.4880579 0.29679057 -0.15124133 -0.12215141 -0.33449963
-0.3998971 0.26859745 -0.42948812 -0.07154116 0.5957074 0.46912438 0.4346647 0.2557793
-0.45160875 0.4602574 0.6121868 0.389926 0.5917619 -0.49847892 -0.4925823 -0.13371062
0.30988038 0.5334545 -0.16950381 -0.13194713 0.40177014 -0.017693818 0.16671628 -0.5743106
0.06891983 0.28292245 0.74393576 0.18569098 0.51782155 0.23885709 -0.45563874 0.032307275
-0.27371645 0.057527985 -0.105559975 0.5393481 -0.49527997 -0.3470335 -0.07931679 0.6739298
-0.21488962 0.2642298 0.41223043 0.67371565 -0.013050548 0.25984988 -0.3604584 -0.12342809
-0.49477836 -0.43228284 0.31049374 -0.44787127 0.5040795 0.6047661 0.2906784 0.42654946
-0.5245523 -0.21610603 -0.5056482 -0.54734915 0.37258396 0.033374097 0.68956596 -0.25298268
-0.39651528 -0.56477493 0.19542569 -0.4070388 0.109993756 0.5695257 0.6550386 -0.058548868
-0.3754292 -0.3906697 0.55046695 0.043582924 0.09430761 -0.5609446 0.23522373 0.49231464
0.21501099 -0.10403466 -0.36942518 0.14287888 0.16199118 0.3157378 -0.111019164 0.66932946

net.2.weight f4 [128, 128]
00000000: fa5e 693d 5079 a33c 03db aebd e194 38bd
00000010: 12f4 fc3c 47b9 7fbd 24ac ac3c 9b7c 963c
00000020: 6825 72bd c412 083c 104c 3bbc d062 7f3d
00000030: 8cbe 9fbc 7ff9 9d3d 30b6 953d 4810 f0bc
00000040: 4edf 353c 738e e2bc 8df4 903d 6e94 2d3d
00000050: 0010 7e39 e2f1 5a3d 4d59 91bd 5b2b d4bc
00000060: 10ce 933c d17f abbd e537 9e3d 00f5 ed3b
00000070: 7dc9 983d 96db f0bc d0a4 dd3a 04b4 c7bc
00000080: e33d 23bd 1191 14bd 3a64 7a3d 6215 9b3d
00000090: 05f5 b13c 541f 3d3d f67b 1d3d 95ac 58bb
000000a0: 8dbd 86bd c8a4 b53c 74ce f8bc d394 f73c
000000b0: 5d92 6bbd 0840 64bc a94e 0ebd 6bd1 aebd
000000c0: 8f4c aebd de33 9d3d d099 83bb ee0b 9cbd
000000d0: 2c40 263c 68fe e4bb 36e4 9c3d 299a aa3d
000000e0: 481c babc 8dc3 6abd a179 4fbd 7886 c0bc
000000f0: 2d7f 56bd 2929 a33d 3f62 0abd c286 3a3d
00000100: 701a 243d 1739 8b3c 527e 303d 6f49 993d
00000110: 54da 063d 5748 103d abe2 97bd 8856 00bc
00000120: 5711 f1b9 3a85 863d 3eb3 1a3d 57c7 8c3d
00000130: 57d5 9b3d 14e0 28bd e871 4d3c ceed a13d
00000140: 56b1 e23c 743b 3d3d bc28 133d 67cb 0fbd
00000150: 61fe 903c 1cbf 84bd 8f91 a53d 2d3c c93a
00000160: d346 8c3d 0380 7ebd d660 aebd 2065 2d3c
00000170: e244 7bbc d1f8 14bd 3cfc 2e3d fae4 7abd
00000180: f59f 9e3d a0b6 b0bd 385b 743c f6ae 53bd
00000190: f5b3 7d3c ce69 ab3d a8ca 6bbc 0a65 8b3c
000001a0: ed79 0ebd 4ac6 45bd 910c a3bd 048f 493d
000001b0: c5ac aebb 4db0 db3c 393c 93bd 90f4 9dbd
000001c0: 3999 a4bd 0dd7 5ebd 41d9 79bc 6379 8abc
000001d0: 8630 1f3d 0af6 2dbd a6bc a83d db0c 34bd
000001e0: 0828 b2bd 33ef 883d ef0f 77bd cfa1 9f3b
000001f0: 6b58 b3bb 0b96 b5bc da97 6bbb f401 b2bd
00000200: 69c7 a23d 1607 6bbd b812 583d 331a 5abd
00000210: e67d babc 802a 4dbb 5ec7 12bd c7ea 20bd
00000220: 1669 9abd 38a9 78bd c0e4 87bb b7d0 dbbc
00000230: 705f 4bbc 50b6 b83c a708 4abc 215c abbd
00000240: 993f 09bd 0d78 d53c 464c 023d 8e31 2f3d
00000250: 8063 a03b a284 773d 3fbf 77bd 32f1 99bd
00000260: bc0e c1bc 8042 1c3a d56e 833d b0c8 50bd
00000270: 2cd1 80bd 9736 5ebb a4f6 af3c 861a a5bd
00000280: 0107 16bd 2b3d 90bd 0836 a93c 356c ed3b
00000290: c304 a3bd 9420 75bd 00ee 853b a204 c8bc
000002a0: 2a03 8cbd 2c6a dbbc b53e a6bd 74b6 35bc
000002b0: 50cc 28bc 777f 643b 3000 f63b 914c 86bc
000002c0: 0d6d 8e3d 06d7 05bd 967e 1f3d 0ab0 083d
000002d0: 2a22 42bc cf8f 86bd 4c2e 9abd f86d c83c
000002e0: 4860 dd3c 936f 573d 3241 20bd e526 923d
000002f0: 67f1 b23d 3055 66bc 5315 0dbd 7470 e3bc
00000300: c60c 9cbd 3f9e 4c3d 10d3 1d3c 66cb 263d
00000310: 816b 643d 32d7 1dbd 00c2 573a c355 923d
00000320: 648d 8dbd c21c 9d3d fe42 3c3d a867 e3bc
00000330: 79b1 91bd ca5f 413d 2abb 2c3d cc38 28bd
00000340: d546 283d e6b2 ce3c 2730 b23d ce30 393d
00000350: 674b 4f3c f239 b5bd d463 913d 0062 993d
00000360: 90b4 c8bc 007f e2bb bdc6 91bb 70db b0bb
00000370: e0af 403d f8bd 433c b879 9fbd 55c0 e03c
00000380: 5362 5ebd 00bc ce3c 5088 193d cddf 2cbd
00000390: af28 713d 9e14 a53a 7931 3abd 0013 993d
000003a0: 4657 673d 815a 823d 75c9 7dbd 98ee 8bbd
000003b0: a43c a1bd fcf6 653d d208 4f3d 2fc6 60bd
000003c0: cced 0d3d e162 893c 4e35 1ebd dc73 053b
000003d0: b66a 5abd 3cff d3bc d90d 0b3d ef1f 3c3c
000003e0: 58c4 88bd 9837 b63c 37a6 98bc 5c05 87bd
000003f0: 925d a7bd 4f3d 383b 2a46 87bd c94e 5dbd
0.056975342 0.019955307 -0.08537867 -0.045063857 0.0308781 -0.062432554 0.021078177 0.018369963
-0.059117705 0.008305255 -0.011431709 0.062350094 -0.01950004 0.07713603 0.0731014 -0.029304639
0.011100603 -0.027655816 0.07077894 0.04237788 0.00024229288 0.053453334 -0.07097111 -0.02589958
0.018042594 -0.083739884 0.07725505 0.0072618723 0.07460306 -0.029401582 0.001691008 -0.02437783
-0.03985394 -0.03627116 0.06113074 0.07572438 0.02172328 0.046172455 0.038448296 -0.0033061851
-0.06579123 0.0221733 -0.030371882 0.030222332 -0.05751263 -0.013931282 -0.034742985 -0.08536037
-0.08510696 0.076759085 -0.0040161386 -0.07619463 0.010147136 -0.0069883354 0.07660715 0.08330185
-0.022718564 -0.057315398 -0.050653104 -0.02350162 -0.052367378 0.07966835 -0.0337851 0.04553867
0.040064275 0.016994996 0.04308922 0.074847095 0.032923058 0.03522524 -0.0741628 -0.007833131
-0.0004598002 0.0656838 0.037768595 0.068739586 0.07609051 -0.041229323 0.012539364 0.07906686
0.027672451 0.046199277 0.03592752 -0.03510609 0.017699422 -0.06481764 0.08084404 0.0015353017
0.06849446 -0.0621338 -0.08514564 0.010583192 -0.015336247 -0.036370102 0.04272102 -0.061253525
0.07745353 -0.08628583 0.014914326 -0.051680528 0.0154848 0.0836979 -0.014391579 0.017015953
-0.034784246 -0.048284806 -0.07961381 0.049208656 -0.0053306543 0.026817465 -0.07189221 -0.07712662
-0.080370374 -0.054404307 -0.015249551 -0.016903585 0.038864635 -0.04247097 0.08239107 -0.043957572
-0.086990416 0.06686249 -0.06031793 0.004871584 -0.0054731867 -0.022166273 -0.0035948665 -0.08691779
0.07948191 -0.057379805 0.052752227 -0.05324764 -0.022765111 -0.003130585 -0.035834663 -0.0392864
-0.07539575 -0.060708255 -0.004147142 -0.026832921 -0.012412891 0.02254787 -0.012331164 -0.083671816
-0.033507917 0.026058221 0.03181102 0.04277187 0.004894674 0.060429223 -0.06048512 -0.075167075
-0.023566596 0.0005960837 0.06417624 -0.05097264 -0.06289896 -0.003390705 0.021479912 -0.080616996
-0.036627773 -0.07042917 0.020655647 0.0072455653 -0.079598926 -0.059845522 0.0040872097 -0.024416272
-0.06836541 -0.026784025 -0.08117429 -0.0110908635 -0.010302618 0.0034866014 0.0075073466 -0.016393932
0.069543935 -0.032675765 0.03893908 0.03337101 -0.011848966 -0.06570398 -0.07528362 0.0244665
0.02702345 0.05259664 -0.039124675 0.07136325 0.0873745 -0.014058396 -0.034444164 -0.027763583
-0.07619624 0.049955603 0.009632841 0.04072132 0.055766586 -0.038535304 0.00082305074 0.07145264
-0.06911734 0.07671501 0.045962326 -0.027759388 -0.07113928 0.047210492 0.04217068 -0.04106979
0.041083176 0.02523179 0.087005906 0.04521256 0.012652255 -0.08848943 0.07099119 0.07489395
-0.024500161 -0.0069121122 -0.0044487403 -0.0053972527 0.047042727 0.011947148 -0.07786888 0.027435461
-0.054292988 0.02523613 0.037483513 -0.04220562 0.05887669 0.0012594645 -0.045457337 0.07474327
0.056479715 0.063649185 -0.061959703 -0.068326175 -0.078728944 0.056143746 0.05054552 -0.054876503
0.03465061 0.016770782 -0.038625054 0.0020363247 -0.053324424 -0.025878541 0.033948753 0.011482223
-0.066780746 0.022243306 -0.018633945 -0.06592819 -0.08172144 0.0028112715 -0.066051796 -0.054030214

net.2.bias f4 [128]
00000000: 9003 c6b9 39db 7bbd 319c 623c 3238 443d
00000010: 72a3 013e e170 f53c 161f f1bb caf3 543e
00000020: abaf a5bd 588c 903d 6646 e4bd a907 023e
00000030: 427e 013e 2eb0 c0bd a335 363d 4827 023e
00000040: 90bd d3bc f35d 803c bb6b d23c 7203 a23d
00000050: b3c0 0a3d 196e a53d dfd2 dabd 3990 013e
00000060: 150e c5bd 38f6 543e 7a2a b03d 747a b6bc
00000070: f5e9 3bbd b6d0 90bd 99d5 09be 637e c6bd
00000080: 487e 043d 80c2 f1ba ac0e b3bd e5ef bd3d
00000090: 3817 053e 434e 303e 7acb e93d 1289 913d
000000a0: ec72 c63c bec0 3a3e a68f 9f3b e80c 8abd
000000b0: 273b 9bbd b1a5 a5bd 7dc8 543e 2d3d 583e
000000c0: 8a13 9c3c 1368 b6bd 9a6a bcbc cc78 233d
000000d0: 2518 813d 332e ba3b f000 043e f022 62bc
000000e0: 05d7 e83b 1ad5 c83d 7a39 d1bd d878 8b3d
000000f0: 0175 173e 9fb4 d23d 3ceb 583e f205 113d
00000100: 6967 53bd e579 143e 1dee a73c 3f6b d63d
00000110: b426 be3d 9366 693d b175 e1bc 29b3 22bd
00000120: f0d7 6d3d 480e 98bd 486a c23c 89e7 cc3d
00000130: 60e1 9bbb e8dd 813e 4d7c 6fbd 54f5 acbd
00000140: 0077 e939 177c 24be 29e3 9d3d bfa3 a4bd
00000150: 4f55 d2bd 5a12 98bc 6d1f eebd 857a c3bd
00000160: dd4d 363e f67e 923d d7ad b1bd 8ae7 273e
00000170: 8415 cabd 8bcc 9f3d 9450 0cbd 451b 91bd
00000180: 17d7 12be 58e7 483e fe1d 613e 3093 79bd
00000190: d870 3a3e edd2 13be 4d6a 02be 4e59 123c
000001a0: f55b 4f3e 30ba e43d ee3b 0bbd 5932 38bd
000001b0: 9376 6a3e 9d6a 003e 1992 03be 18dd 603e
000001c0: 4083 943a bdb1 b4bd 5356 4dbd 667b 923d
000001d0: d603 d2bc 3837 5d3c 2f19 04bd 3ad1 3d3d
000001e0: fe81 fc3d bc6e a73d a7e1 9dbd 69d6 93bd
000001f0: 521e 9b3d 0c76 883d 41cf ab3d 27f7 de3d
-0.00037768157 -0.061488364 0.013831184 0.047905155 0.12660006 0.029961051 -0.007358442 0.20796123
-0.08090147 0.070580184 -0.1114624 0.12698235 0.1264582 -0.094086036 0.044484746 0.12710297
-0.025847226 0.015669798 0.025686136 0.079108134 0.03387518 0.0807764 -0.10684752 0.12652673
-0.096218266 0.2079705 0.08601852 -0.022275187 -0.045877416 -0.070710585 -0.13460387 -0.09692075
0.032346994 -0.0018444806 -0.08743033 0.09274272 0.12997139 0.17217354 0.11415763 0.07106222
0.02422472 0.18237588 0.004869419 -0.06740743 -0.07579642 -0.08088244 0.20779605 0.21117087
0.019052286 -0.08906569 -0.02300005 0.039910123 0.06303433 0.005681777 0.12890983 -0.013802275
0.0071057105 0.09806271 -0.10216041 0.068101585 0.14790727 0.10288357 0.21183485 0.03540606
-0.05161229 0.14499624 0.020499283 0.10469674 0.09284726 0.056982588 -0.02752194 -0.03972164
0.058067262 -0.07424599 0.02373232 0.10005099 -0.0047570914 0.25364614 -0.05846815 -0.0844523
0.00044529885 -0.16062962 0.07709343 -0.080390446 -0.102701776 -0.018563438 -0.11627088 -0.09544853
0.1780314 0.07153122 -0.086757354 0.16396919 -0.09867385 0.07802685 -0.034256533 -0.070852794
-0.14339863 0.196195 0.21984097 -0.060931385 0.18207109 -0.1443593 -0.12735863 0.008932425
0.20249923 0.11168325 -0.0339927 -0.04496989 0.22896795 0.1254067 -0.128487 0.2195934
0.001133062 -0.088229634 -0.050131153 0.07152443 -0.025636595 0.013501935 -0.03225058 0.046342112
0.123294815 0.08175418 -0.077090554 -0.0721863 0.075741425 0.06663141 0.0838914 0.10886984

net.4.weight f4 [2, 128]
00000000: a8ae 823d 29c4 693d 3753 92bc a7ac 97bd
00000010: 1bdf 05bd c201 c0bc e912 363c fed9 09be
00000020: 2d48 7bbd cbc0 a63d 094b a33d 6cb1 2abe
00000030: 5357 f1bd ae3d 023e c7f5 80bd 85e5 b6bd
00000040: b6fe 373d 3838 e0bb 7b23 4f3d 133d 11be
00000050: b3ef 37bd 61db 9e3d edb4 acbc 1220 0fbe
00000060: 768c e93d f845 a9bd 2e0f 1ebd 915a 86bc
00000070: 61c9 843d c9ff f53b 912b 863c c62b 473d
00000080: 8ce9 87bb 48df a7bd 18a9 973c 9612 abbb
00000090: 862a bfbd e11a 12be e13b 1b3d 3fc7 07bd
000000a0: c01e a33c ee02 80bd 6180 933d 007c 523c
000000b0: 3ee4 003d 73e8 e63d d8bb eebd 979d c2bd
000000c0: f9e4 483d 236f 9b3d b2d5 eb3d 9ed8 9dbd
000000d0: df6b 08bd 94fe 6dbd e5bf 1abe 0250 143d
000000e0: c8f9 23bc c196 e3bd 5c98 b0bc 57a7 a7bb
000000f0: ed9f 26be 03ee 05be 8d9e 15be 4903 b03d
00000100: ecc8 03bd 1d13 04be 1fae af3c 914a 113d
00000110: d076 dd3c 3d82 03be 4b3d 5e3d e47a a83d
00000120: 6941 cfbd 7b22 7d3b c190 8d3d 7f48 89bd
00000130: 894f 9bba f7cc 04be bece a8bd 1440 dc3c
00000140: 59f3 a73d bdfc bf3d c0ac ff3a 3255 8c3d
00000150: b272 513d fd0e f43c 3ee5 b23d 661a 143e
00000160: 3eab febd d4b8 72bc d1d1 ae3b ffa8 06bd
00000170: 929d 963d ce58 93bd 5cd6 75bd 3122 0a3d
00000180: ae09 d53d a1d4 a6bd ba62 30be c1c5 663d
00000190: eade 45be 9188 c63d 3a2c 8b3d 7b02 80bb
000001a0: dfdf 97bd 1d33 8d3c cc5b 213d 1ef9 433d
000001b0: cc28 8cbd 5d23 10be 2794 37bc 00da 07be
000001c0: dcc9 aabd 19ae 3abd 9073 5dbd e9fa 0fbe
000001d0: 5502 87bc 3011 ba3b e6e4 5e3d e931 6c3d
000001e0: d516 aebd c890 c93c 4478 fe3c f089 a43b
000001f0: a248 25bc ef5b eb3c a4fe 5ebd 6d30 04be
00000200: 2e6b 20bd 9609 98bd 34fa 2bbd 2d21 843d
00000210: fb95 8bbd 8774 ecbd 2bb7 3abd 4e76 8abd
00000220: 1151 213d 7968 853d 0b2f dc3d 2483 02be
00000230: 9737 f3bd e60f b33c adbd fbbd 0d27 adbd
00000240: d063 e33c 00b6 b03d 94eb a3bd e533 80bd
00000250: 2ec9 393d 9f26 9d3d 9209 803d 4b39 9ebd
00000260: 9f76 073d 91df cdbd 5ab9 ccbd 468c 6dbd
00000270: 146e d23b 02f0 983d 30d3 143d 9810 dcbc
00000280: 62ea ac3d 3fc5 9abd b9b0 ab3d 8f36 b6bd
00000290: 6c9a 99bd 6eea 34be 7c20 d3bd 41c0 1a3d
000002a0: 19bb 93bd dd61 22be 0170 713d 50e1 513d
000002b0: 0061 393a 0f07 c53d 3b32 19be e406 9cbd
000002c0: 09d6 c7bd 5b73 8f3d 4622 b93d db0d 1e3c
000002d0: 0fb1 e93c 79dc d23d daaf febd 3bbe f6bd
000002e0: 5022 843d 3e12 ccbd bf44 ba3d b7ab a9bd
000002f0: d9be ffbd f9d6 99bd 460b b5bd 5259 19bd
00000300: 8d22 a23d 9029 adbd f6f7 85bd c3b0 cabd
00000310: e0a9 8cbd 16d2 f7bd 35bd 853d 7506 823b
00000320: f1b8 e2bd 7771 863d 183d 4bbc 0a5d cbbd
00000330: 4476 63bd 61f0 9dbd c4b9 91bd badb 373d
00000340: 8057 29bd 69dc 363d 0e51 4d3d 5084 ad3d
00000350: 4bf5 ed3d 18aa 8a3d e23b df3d f20c f73c
00000360: 2b1d 28be 5371 fd3c f8bf 033c 9ab9 f0bd
00000370: 2ffb a4bc 195e da3c 91d8 f23c 9df0 b93d
00000380: 3630 973d 6b65 03be e1f5 95bd 8139 d23d
00000390: 5e03 91bd 2d3f 743d 424e 813d 3ca1 8a3d
000003a0: 5510 96bd 98fe 7fbd 9200 e4bc a877 883d
000003b0: a9b6 02bd 5506 07bd b9b5 c93d b69d c8bd
000003c0: 3298 373d ce60 adbd f32c 953d 1924 e3bd
000003d0: eac0 423d 4264 223d 8710 31bd a3bc 983d
000003e0: a2c5 6ebd 133c 2a3d fe26 7f3d f431 98bc
000003f0: e055 aabd 11f5 133c b212 00be 87c2 bdbd
0.06380969 0.05707184 -0.017861946 -0.07405978 -0.032683473 -0.023438338 0.011112907 -0.13462064
-0.06134813 0.08142241 0.07973296 -0.16669244 -0.11784234 0.12718841 -0.06296878 -0.08930496
0.044920646 -0.0068426393 0.050570946 -0.14183454 -0.04490633 0.07756687 -0.021082366 -0.13977078
0.11403744 -0.082652986 -0.038588695 -0.016400607 0.064837225 0.0075072986 0.016378196 0.04862573
-0.004147714 -0.081968844 0.018513247 -0.0052207215 -0.093342826 -0.14268066 0.0378989 -0.033149
0.019912124 -0.06250559 0.07202221 0.012846947 0.03146767 0.11274805 -0.11656922 -0.09502714
0.04904649 0.07589557 0.115153685 -0.07707332 -0.033306 -0.058104113 -0.15112264 0.036209114
-0.010008283 -0.111127384 -0.021557026 -0.005116384 -0.16271944 -0.13079076 -0.14611264 0.085943766
-0.032174036 -0.12897916 0.021445332 0.035471503 0.027034193 -0.1284265 0.054257672 0.082265645
-0.10119898 0.0038625288 0.06912375 -0.06703281 -0.0011849265 -0.12968813 -0.08242558 0.026886024
0.08200712 0.09374378 0.001950644 0.06852187 0.051134773 0.029792303 0.08735131 0.14463195
-0.124350056 -0.014814574 0.0053350707 -0.03287601 0.07354273 -0.071946725 -0.060018882 0.033724014
0.10402237 -0.081460245 -0.17225161 0.056340937 -0.19323316 0.09694017 0.06795545 -0.0039065457
-0.07415747 0.017236287 0.039394185 0.047845 -0.06843719 -0.1407599 -0.011204756 -0.13266754
-0.08339283 -0.04557619 -0.054065287 -0.14060558 -0.016480604 0.0056783184 0.054417513 0.057664786
-0.085004486 0.02460517 0.031063206 0.0050213262 -0.010088118 0.02873036 -0.054442063 -0.12909098
-0.039164715 -0.07423703 -0.04198666 0.0645164 -0.06815716 -0.11545663 -0.04558484 -0.06760846
0.03938395 0.06514067 0.1075116 -0.12745339 -0.11875837 0.021858167 -0.12292037 -0.08454714
0.027757555 0.08628464 -0.08003917 -0.06259898 0.045357876 0.07673382 0.062518254 -0.077257715
0.03307211 -0.100524075 -0.099962905 -0.057995103 0.0064218137 0.07467653 0.036334217 -0.026863381
0.084431425 -0.07557153 0.083833165 -0.08897125 -0.07500157 -0.17667553 -0.1030893 0.037781004
-0.072134204 -0.15857644 0.058944706 0.051240265 0.0007071644 0.09620487 -0.14960568 -0.07618502
-0.09757621 0.07004424 0.0903974 0.009646858 0.02852681 0.10295958 -0.12435885 -0.12048002
0.06451857 -0.09964417 0.090951435 -0.08284705 -0.12487573 -0.07511706 -0.08840041 -0.037438698
0.07916746 -0.08455193 -0.065414354 -0.09896996 -0.068683386 -0.121006176 0.06530229 0.003968055
-0.11070431 0.065646105 -0.012404703 -0.09929855 -0.05553271 -0.07711864 -0.0711551 0.044887282
-0.041343212 0.044643793 0.050126128 0.08472502 0.116190515 0.06770724 0.109000936 0.03015754
-0.16417377 0.030937826 0.008041374 -0.11754151 -0.020139305 0.026656197 0.029644283 0.090790965
0.073822424 -0.12831657 -0.07322288 0.10264874 -0.0708072 0.05963056 0.063137546 0.06769034
-0.07327334 -0.06249866 -0.027832303 0.066634476 -0.03191248 -0.032965023 0.09849114 -0.09795706
0.04482288 -0.0846573 0.07283964 -0.110908695 0.04754726 0.039646395 -0.043228652 0.074578546
-0.058293946 0.041561197 0.062293045 -0.018578507 -0.083171606 0.009030596 -0.12507132 -0.09265619

net.4.bias f4 [2]
00000000: f257 00be aee0 06be
-0.12533548 -0.13171646
