temp/original.pth (torch, 72225 bytes, 6 tensors)

net.0.weight f4 [128, 3]
000000 6d 1b 45 bc 7b d6 05 bf ba a7 2c be 20 95 3f bd
       -0.012030465 -0.52280396 -0.16860858 -0.046773076
000010 ef 38 08 bf 38 ba e8 3e 6d 6d 3f 3e b2 60 e8 3e
       -0.53211874 0.45454574 0.18694086 0.45386273
000020 5a 28 00 bf 89 c6 97 be 02 2d 15 3e 3e 74 3f 3b
       -0.5006157 -0.29643658 0.1456795 0.0029213573
000030 33 f4 b7 be 03 f3 dc 3e 64 8a 79 3e 5f bb 44 bd
       -0.35928497 0.43154153 0.24369198 -0.048030253
000040 7b 1d 0f 3f 6e 0a 0f bf 9e af 00 bf 36 28 ff 3d
       0.5590436 -0.5587529 -0.5026797 0.124588415
000050 ee d7 07 3f 81 9d af 3e 46 eb a3 be b7 f1 d2 3e
       0.5306386 0.34299853 -0.32015437 0.4120004
000060 7c 64 a3 3e 83 79 f8 3c 14 be b8 3e 9f 2f 0d 3e
       0.319126 0.030331379 0.36082518 0.13787697
000070 ef fd 31 3d 4f e3 99 bd 72 0c 9d be f6 55 ba be
       0.04345506 -0.07514059 -0.30673558 -0.36393708
000080 48 6f 9b bd 6a 28 ca be 60 0c 80 3e 63 3b 2a 3e
       -0.075895846 -0.39483958 0.2500944 0.16624217
000090 46 1b 10 bf 24 cd d4 be 19 da d7 3e fc f7 9a be
       -0.56291616 -0.4156276 0.42158583 -0.30267322
0000a0 00 20 c3 bb 37 56 bd be 0e aa b7 bd 4b e6 8e 3e
       -0.0059547424 -0.3697984 -0.08967982 0.27910075
0000b0 1a b1 0f 3e c9 a1 96 3e 6b 57 b3 3d 7b e5 82 be
       0.14032403 0.29420307 0.08756908 -0.25565705
0000c0 e7 7d 82 ba c2 00 b0 3e bc ad 09 3e f0 bf 02 3e
       -0.0009955735 0.34375578 0.1344518 0.12768531
0000d0 6a b3 d4 3d 8f cf ee 3e 48 3c 9c 3e 49 7e 0b 3d
       0.10385783 0.4664273 0.3051474 0.03405598
0000e0 79 c2 c3 bd 01 cc f5 3e c2 4c 98 be 53 69 90 be
       -0.09558577 0.48007205 -0.29746062 -0.28205356
0000f0 fc 53 48 3e 26 b7 c3 be 47 61 06 bf 1e dc ec be
       0.19563287 -0.3822567 -0.52492183 -0.46261686
000100 d6 f1 3a 3e 32 a3 aa be 2b 06 04 3f a0 9a bf 3d
       0.18256316 -0.33327633 0.5157191 0.09355664
000110 7b 20 0b be b2 42 b5 be 59 f1 28 be 88 3d 02 3f
       -0.13586609 -0.35402447 -0.16498317 0.5087514
000120 d6 e8 43 be c8 6a b1 be 44 b5 9b 3e 6b 14 84 3e
       -0.19131789 -0.3465178 0.30411732 0.25796828
000130 19 50 d9 be e0 bc ab be 5d 7b 04 3f c5 bb 8b be
       -0.42443922 -0.33542538 0.5175074 -0.27291694
000140 cb 30 8f 3e 62 9a 01 be 31 fd a0 be 0a d8 c0 be
       0.27966914 -0.12656549 -0.3144317 -0.37664825
000150 40 1d ef 3e 17 f9 2c 3e e9 a8 20 3e f1 f2 57 3e
       0.46702003 0.16891895 0.15689434 0.21088769
000160 3c 44 5d 3e 53 4f c0 3e 42 01 ed 3e 28 10 e1 3e
       0.2160806 0.3756052 0.46290022 0.4395764
000170 53 31 38 3e 21 4e f7 3d 02 fd 4b 3e 1e d5 b3 be
       0.17987566 0.12075449 0.19920734 -0.35123533
000180 81 15 83 3e ba 6c 15 3e b3 41 81 3e 88 e2 11 be
       0.25602344 0.14592257 0.25245437 -0.14246571
000190 38 12 fb 3e e8 98 9e 3d b0 22 0c be 20 b0 85 bc
       0.49037337 0.07744008 -0.13685107 -0.016319335
0001a0 be f9 6b be 09 62 a6 bd e8 c3 f5 3e 1c 28 3a 3e
       -0.23044488 -0.081241675 0.48001027 0.18179363
0001b0 1f 47 2e bd 5d e6 88 3c 71 0d 01 3e 4a 98 aa be
       -0.042548295 0.016711408 0.12602784 -0.33319312
0001c0 12 c2 a3 be 7f 79 01 3f 7f 7c d3 ba da 2e 42 3e
       -0.31984 0.50576013 -0.0016135125 0.18963185
0001d0 04 41 85 be 1e 49 d9 be 40 29 fb 3d 02 be a2 3e
       -0.26026165 -0.42438596 0.12263727 0.3178559
0001e0 66 35 0b bf d8 2d 12 bf 1c 2c 45 be e2 d8 c6 3e
       -0.54378355 -0.571012 -0.19255108 0.38837343
0001f0 30 06 fa be 7d 85 03 3f de 11 0e 3f c7 8c dc bd
       -0.48832846 0.5137556 0.55496013 -0.10769039
000200 1f ed 2e 3d f0 61 dd ba 66 bd 10 3f 55 db 82 3d
       0.042706605 -0.001689015 0.56539 0.063894905
000210 96 7d 2d 3e 57 c2 03 be 19 98 ad 3d d9 4f 08 be
       0.16942438 -0.12867104 0.08476276 -0.1331171
000220 00 7d 25 3d 9b 29 91 bd 29 5c fb 3d be 3b 2d 3e
       0.040402412 -0.07088014 0.122734375 0.16917321
000230 1c 2a ba be 90 27 c9 3e fd 25 9e 3e 13 f8 cb 3e
       -0.36360252 0.39287996 0.30888358 0.39837703
000240 00 db e4 3e f9 28 24 3e 4d e3 a5 3e f5 2e 9c 3e
       0.44698334 0.16031255 0.3239998 0.30504575
000250 da 09 ab 3e 83 72 b6 be 3d 42 98 3e c1 fa 58 bd
       0.33405954 -0.3563424 0.29738036 -0.052973513
000260 8e d5 5c 3e 17 4a 65 3e 32 ac a7 be e6 c3 8d bd
       0.2156584 0.22391544 -0.32748562 -0.0692213
000270 bb aa 91 be a1 13 25 be fd 23 36 3e bc ab 5a 3e
       -0.2845057 -0.16120769 0.17787166 0.21354574
000280 51 2c fd 3e e9 74 c5 be 93 39 59 3e 8e 37 e5 3e
       0.49447873 -0.38565758 0.21213369 0.44768947
000290 d6 4b f0 be 30 82 de be 41 1b 2a 3e 9c 59 5f be
       -0.46932858 -0.434587 0.16611959 -0.21811527
0002a0 57 f9 2f 3e 2c 5a 57 be 89 8d 4e 3e 89 59 c5 be
       0.1718496 -0.21030492 0.20171179 -0.38544872
0002b0 1e cd ea 3e f0 34 c0 be 70 a1 07 bf 8e 18 99 be
       0.45859617 -0.37540388 -0.5298071 -0.29901546
0002c0 80 e5 48 3c 1f 56 11 3f c3 e2 f2 3d 8c d2 f8 bd
       0.012261748 0.56772035 0.118596576 -0.12149534
0002d0 1b a8 a5 be fa f9 89 3e 82 22 36 3d a8 35 2b be
       -0.32354817 0.2694853 0.044466503 -0.16719687
0002e0 7a ca 25 be 50 5e ad 3d c2 85 b2 3e 34 25 7b be
       -0.1619052 0.08465254 0.34867674 -0.2452591
0002f0 d1 76 72 3d 15 78 99 3e 70 c0 b9 be 35 33 5b bc
       0.059195343 0.29974428 -0.3627963 -0.013378908
000300 c4 77 f8 3e b8 36 d8 3e 96 ef e6 be 48 13 64 be
       0.48528874 0.42229247 -0.45104665 -0.2227298
000310 99 31 b0 3d 02 bd b7 3e df aa 03 be b5 98 b7 be
       0.0860321 0.3588639 -0.12858151 -0.35858694
000320 b3 3d 40 3e d7 1f c8 3e c5 0a 4a be b1 8e b3 be
       0.18773536 0.39086792 -0.19730671 -0.35069802
000330 30 c4 5e 3d 67 f9 f1 3e 4d 08 f3 be f1 e5 15 3e
       0.054386318 0.4726059 -0.4746727 0.14638497
000340 90 10 b9 3e b5 96 26 3c e6 6c 9e be 4a ea 55 be
       0.3614545 0.010167767 -0.30942458 -0.20890155
000350 22 6e c2 be fa e8 e9 3c 16 5b cb be d3 af fe bd
       -0.3797465 0.028553475 -0.3971793 -0.124358796
000360 d2 20 02 be ac b0 cb be 06 d8 0e 3f ab e5 17 3e
       -0.12707832 -0.39783227 0.55798376 0.14833705
000370 4f 28 90 3e 02 8e ac 3e ec fd 85 3e e0 ae f2 bd
       0.28155753 0.33702093 0.2617029 -0.11849761
000380 b7 e2 29 be 61 38 84 be 74 22 b7 be 1a 60 c0 be
       -0.16590391 -0.25824264 -0.35768473 -0.3757332
000390 a0 26 61 be db 9d 0c 3f 83 57 0d bf eb 2f ba be
       -0.2198739 0.5492837 -0.5521166 -0.36364684
0003a0 68 f3 e5 be d0 1e cf be 58 85 f6 3e e2 6f df be
       -0.44912267 -0.40453196 0.48148608 -0.43640047
0003b0 27 85 a3 be f5 09 36 be 85 9c 1b 3e 2a f3 3d be
       -0.31937525 -0.17777236 0.15196426 -0.18549791
0003c0 46 d4 c4 be a3 44 f9 3e a3 f8 c4 3d f3 2d b4 be
       -0.38443202 0.48685178 0.09617736 -0.35191306
0003d0 9c 09 59 be e3 0a b6 3e 6c cf 5c 3e c1 01 8a be
       -0.21195072 0.3555518 0.215635 -0.26954463
0003e0 25 44 0b be 3c ac 23 be d1 64 9f 3e b3 b3 be be
       -0.13600214 -0.15983671 0.31131604 -0.37246475
0003f0 5c 17 0d 3f ad c8 48 3d 72 f1 63 3e 72 4e 41 3e
       0.5511377 0.049019504 0.22260073 0.18877581

net.0.bias f4 [128]
000000 da 6b 89 3e 20 9a be be 36 7e f0 3e 0d 64 bb be
       0.26840097 -0.37226963 0.4697129 -0.3659977
000010 83 e1 a9 3e 24 8a bb 3d 68 0b 2f bd f2 f4 5b 3e
       0.33179864 0.091572076 -0.042735487 0.21480158
000020 0b 90 f8 3d 36 17 dc 3e d0 1e 3d bd 8d 3b 7e be
       0.12136849 0.4298646 -0.046171963 -0.24827404
000030 8e da af 3d d4 15 ad be f4 75 c2 3e 03 88 32 3e
       0.08586608 -0.33805716 0.37980616 0.17434697
000040 1c db d4 3e 50 75 bb bd ad 5f 07 3e 90 22 67 be
       0.41573417 -0.09153235 0.13220091 -0.22571778
000050 1d 34 8e be 59 38 a3 3d 85 bd ce 3e be a2 8a be
       -0.27774134 0.07969732 0.40378967 -0.27077287
000060 ce 82 24 3f ff 8d 15 be f5 1b ad bc 0d 2b 26 3f
       0.6426209 -0.14604948 -0.021131495 0.6490944
000070 55 23 98 3c 17 31 e0 3e ba 5e a1 3d 87 e8 f6 3e
       0.018571535 0.43787453 0.07879396 0.4822428
000080 7e 8c 1f 3e 10 bf a6 be 4e b9 c2 be ac 3e ea 3e
       0.15580937 -0.32567644 -0.38032 0.4575094
000090 da 76 8f 3e dd 1d cb bd 51 97 aa bd e0 8d 9c be
       0.28020364 -0.09917805 -0.083296426 -0.30576992
0000a0 50 bf cc be c3 04 84 3e 51 44 d6 be 35 f7 71 3d
       -0.3998971 0.25784883 -0.41848996 0.059073646
0000b0 3f 9f 0f 3f 3e 52 e1 3e ac 3f e4 3e bf 64 59 3e
       0.56102365 0.44008058 0.44579828 0.21229838
0000c0 12 0c ce be 00 15 e2 3e 0b 17 18 3f fc 70 bd 3e
       -0.40243584 0.44156647 0.5941016 0.37000263
0000d0 8d 32 0d 3f d8 45 dc be 80 de fd be b9 72 c6 bd
       0.5515526 -0.43022037 -0.49583817 -0.0968985
0000e0 db 37 95 3e 6f b6 01 3f 68 92 2d be 72 3c 19 be
       0.29144177 0.50668997 -0.16950381 -0.14964464
0000f0 c1 31 ee 3e a0 f2 90 bc 99 9f 2a 3e fc 0e 0c bf
       0.46522334 -0.017693818 0.16662444 -0.54710364
000100 d6 9e 8b 3d 7e b1 a5 3e 18 ca 3d 3f fc df 37 3e
       0.06817405 0.32361978 0.74136496 0.17956537
000110 45 1a ff 3e 18 de 57 3e 7b 49 e9 be 13 f3 39 3c
       0.4982473 0.21080816 -0.45563874 0.011349457
000120 51 bf 81 be 62 f7 07 3d 2f 91 39 be 3d 44 09 3f
       -0.25341275 0.033194907 -0.1812179 0.5361975
000130 2c c0 db be 60 ae b1 be 44 c8 0a be 5d a1 2a 3f
       -0.42920053 -0.3470335 -0.13552958 0.6665247
000140 8e 8c 3a be 04 1c 95 3e 27 44 c7 3e c9 f1 2c 3f
       -0.1821768 0.29122937 0.38919184 0.67556435
000150 27 96 0e bd 38 99 73 3e 6b 3c a6 be 5b ce d0 bd
       -0.034811165 0.23788917 -0.3246797 -0.10195609
000160 97 53 fd be 45 c9 f6 be b0 3e 93 3e 82 9c d7 be
       -0.49477836 -0.4820043 0.28758764 -0.42111593
000170 06 71 ec 3e cb af 15 3f f5 ad 99 3e 6b 98 ce 3e
       0.4617998 0.58471364 0.3001553 0.4035066
000180 0f 49 06 bf 27 7a 68 be 7a 7b e6 be 10 75 09 bf
       -0.5245523 -0.22702847 -0.4501608 -0.5369425
000190 03 12 b1 3e 57 5f 21 3d a2 86 2c 3f 75 4f 68 be
       0.34584054 0.039397564 0.67392933 -0.2268656
0001a0 69 c1 cd be 78 4e 06 bf 02 1a 37 3e ba 17 b5 be
       -0.40186623 -0.52463484 0.17881015 -0.35369664
0001b0 06 1f 88 3d 21 7f 0d 3f 36 e9 23 3f 5d d3 f3 bd
       0.06646542 0.5527211 0.64027727 -0.11905549
0001c0 42 38 c0 be 33 23 c0 be b2 d5 07 3f b8 93 b8 3d
       -0.3754292 -0.37526855 0.5306045 0.0901255
0001d0 76 8a 42 3d 11 9a 0f bf ea 07 78 3e d7 54 fa 3e
       0.047495328 -0.5609446 0.24221769 0.48892853
0001e0 85 c1 46 3e 20 10 d5 bd e6 1b b0 be eb 61 c9 3d
       0.1940976 -0.10403466 -0.34396285 0.098331295
0001f0 07 0c 2a 3e b9 3e 9a 3e b3 96 c3 bd 64 ff 2b 3f
       0.1660615 0.3012598 -0.09550228 0.6718657

net.2.weight f4 [128, 128]
000000 fa 5e 69 3d 50 79 a3 3c af 3f ad bd be a0 3b bd
       0.056975342 0.019955307 -0.08459412 -0.045807593
000010 37 db fc 3c 5f 63 80 bd cf eb ab 3c 77 48 96 3c
       0.030866249 -0.062689535 0.020986466 0.0183451
000020 87 89 72 bd f1 c5 c8 3b 10 4c 3b bc 39 ad 7e 3d
       -0.059213188 0.006127112 -0.011431709 0.062176917
000030 8c be 9f bc 7f f9 9d 3d 9a ae 95 3d 48 10 f0 bc
       -0.01950004 0.07713603 0.07308693 -0.029304639
000040 85 d2 35 3c 5b a5 e3 bc 8d f4 90 3d 6e 94 2d 3d
       0.011097555 -0.027788809 0.07077894 0.04237788
000050 00 10 7e 39 e2 f1 5a 3d 4d 59 91 bd 2a 2a d6 bc
       0.00024229288 0.053453334 -0.07097111 -0.026143152
000060 10 ce 93 3c d1 7f ab bd e5 37 9e 3d 00 f5 ed 3b
       0.018042594 -0.083739884 0.07725505 0.0072618723
000070 40 76 98 3d 78 02 f1 bc fc 41 cf 3a 04 b4 c7 bc
       0.074444294 -0.029420123 0.0015812512 -0.02437783
000080 f3 7b 23 bd 27 47 15 bd 3a 64 7a 3d e9 0a 9b 3d
       -0.03991313 -0.03644481 0.06113074 0.0757044
000090 04 4e b2 3c dd 39 3c 3d f6 7b 1d 3d 8d 05 66 bb
       0.021765716 0.04595362 0.038448296 -0.0035098523
0000a0 8d bd 86 bd c8 a4 b5 3c 74 ce f8 bc 70 cc f6 3c
       -0.06579123 0.0221733 -0.030371882 0.03012678
0000b0 5d 92 6b bd e2 30 19 bc a9 4e 0e bd a6 f8 ae bd
       -0.05751263 -0.0093500335 -0.034742985 -0.0854352
0000c0 a7 c5 ae bd 12 fd 9d 3d 4f 41 79 bb ee 0b 9c bd
       -0.08533793 0.07714285 -0.0038033312 -0.07619463
0000d0 c4 27 31 3c 69 59 1e bc 1a 52 8f 3d 29 9a aa 3d
       0.0108127035 -0.009664872 0.069980815 0.08330185
0000e0 48 1c ba bc a5 d6 69 bd a1 79 4f bd 78 86 c0 bc
       -0.022718564 -0.057089467 -0.050653104 -0.02350162
0000f0 ab 32 56 bd 29 29 a3 3d 3f 62 0a bd c2 86 3a 3d
       -0.052294414 0.07966835 -0.0337851 0.04553867
000100 f0 a7 1a 3d 31 38 8b 3c 52 7e 30 3d 6f 49 99 3d
       0.037757814 0.016994568 0.04308922 0.074847095
000110 33 44 08 3d e0 07 10 3d ab e2 97 bd 88 56 00 bc
       0.033268165 0.03516376 -0.0741628 -0.007833131
000120 66 07 8b ba 6c 47 86 3d 3e b3 1a 3d 57 c7 8c 3d
       -0.0010607063 0.065565914 0.037768595 0.068739586
000130 a7 57 85 3d 14 e0 28 bd e8 71 4d 3c 96 c6 a3 3d
       0.06510859 -0.041229323 0.012539364 0.07996862
000140 d6 af e1 3c 72 e1 3d 3d bc 28 13 3d c6 32 1c bd
       0.027549665 0.04635758 0.03592752 -0.03813436
000150 fb 69 8f 3c de d1 84 bd f2 bc a0 3d ee fe ba 3a
       0.01750659 -0.064853415 0.078485385 0.0014266649
000160 d3 46 8c 3d 03 80 7e bd 9d 2f ae bd 20 65 2d 3c
       0.06849446 -0.0621338 -0.08505175 0.010583192
000170 72 10 79 bc 0e 10 17 bd cf f8 2e 3d 8a 80 79 bd
       -0.015201675 -0.036880545 0.04271775 -0.0609136
000180 f5 9f 9e 3d a0 b6 b0 bd 72 53 6f 3c f6 ae 53 bd
       0.07745353 -0.08628583 0.014607297 -0.051680528
000190 95 23 7d 3c 6e 42 ab 3d 2a fa 69 bc 71 61 8a 3c
       0.015450378 0.0836228 -0.014280835 0.016892167
0001a0 ed 79 0e bd f3 27 48 bd c2 9b a5 bd 1c 64 41 3d
       -0.034784246 -0.048866224 -0.08086349 0.047214612
0001b0 73 7e ad bb 06 bf dd 3c cc b5 92 bd c4 32 9e bd
       -0.005294615 0.027068626 -0.07163581 -0.077245265
0001c0 39 99 a4 bd a7 86 5f bd 04 a8 77 bc 0d c6 89 bc
       -0.080370374 -0.054571774 -0.015115742 -0.01681807
0001d0 86 30 1f 3d 0a f6 2d bd c8 b9 a8 3d 61 24 34 bd
       0.038864635 -0.04247097 0.0823856 -0.043980006
0001e0 70 32 b2 bd 33 ef 88 3d 15 a7 77 bd 7b 6d 9c 3b
       -0.087010264 0.06686249 -0.060462076 0.0047737933
0001f0 46 79 13 bc b3 a2 b5 bc 56 62 72 bb f4 01 b2 bd
       -0.009001082 -0.022172308 -0.0036984882 -0.08691779
000200 69 c7 a2 3d 16 07 6b bd 28 e3 57 3d 50 11 5a bd
       0.07948191 -0.057379805 0.052706867 -0.053239167
000210 e3 5e ba bc db fb 50 bb 00 b8 12 bd 3b d6 20 bd
       -0.022750324 -0.0031888399 -0.035820007 -0.039266806
000220 5e 61 9a bd 38 a9 78 bd c0 e4 87 bb 9b b4 db bc
       -0.075381026 -0.060708255 -0.004147142 -0.026819518
000230 70 5f 4b bc 50 b6 b8 3c c1 ca 49 bc 21 5c ab bd
       -0.012412891 0.02254787 -0.012316407 -0.083671816
000240 18 30 09 bd 31 96 d5 3c 46 4c 02 3d 8e 31 2f 3d
       -0.03349313 0.026072593 0.03181102 0.04277187
000250 80 63 a0 3b a2 84 77 3d 3f bf 77 bd 9a e9 99 bd
       0.004894674 0.060429223 -0.06048512 -0.07515259
000260 bc 0e c1 bc 80 42 1c 3a d5 6e 83 3d b0 c8 50 bd
       -0.023566596 0.0005960837 0.06417624 -0.05097264
000270 f1 c9 80 bd 90 39 5d bb d1 13 b0 3c 86 1a a5 bd
       -0.06288517 -0.0033756234 0.021493824 -0.080616996
000280 9f f7 15 bd 49 36 90 bd 08 36 a9 3c 2b e7 ed 3b
       -0.036613103 -0.07041604 0.020655647 0.0072602234
000290 7b fc a2 bd dc 0f 75 bd 00 ee 85 3b d3 e7 c7 bc
       -0.07958313 -0.059829578 0.0040872097 -0.024402535
0002a0 2a 03 8c bd 2c 6a db bc b5 3e a6 bd 85 7c 35 bc
       -0.06836541 -0.026784025 -0.08117429 -0.011077051
0002b0 50 cc 28 bc 05 9b 62 3b 30 00 f6 3b 19 2e 86 bc
       -0.010302618 0.0034577262 0.0075073466 -0.016379403
0002c0 21 74 8e 3d f1 cb 05 bd 16 91 1f 3d 0a b0 08 3d
       0.069557436 -0.032665197 0.038956724 0.03337101
0002d0 1a bd 41 bc dd 97 86 bd 30 fa 96 bd f8 6d c8 3c
       -0.0118248705 -0.06571934 -0.07371938 0.0244665
0002e0 48 60 dd 3c f1 7d 57 3d 32 41 20 bd e5 26 92 3d
       0.02702345 0.05261034 -0.039124675 0.07136325
0002f0 6e f9 b2 3d 30 55 66 bc 53 15 0d bd 74 70 e3 bc
       0.08738981 -0.014058396 -0.034444164 -0.027763583
000300 9e 60 9d bd 59 ae 4c 3d 10 d3 1d 3c 66 cb 26 3d
       -0.07684444 0.04997096 0.009632841 0.04072132
000310 eb 76 64 3d 81 c8 1d bd 00 c2 57 3a c3 55 92 3d
       0.05577747 -0.038521294 0.00082305074 0.07145264
000320 98 85 8d bd 2f 24 9d 3d fe 42 3c 3d a8 67 e3 bc
       -0.069102466 0.07672917 0.045962326 -0.027759388
000330 e3 cd 93 bd ca 5f 41 3d 2a bb 2c 3d c0 22 28 bd
       -0.07217004 0.047210492 0.04217068 -0.041048765
000340 20 55 28 3d 85 d9 ce 3c 27 30 b2 3d ce 30 39 3d
       0.041096807 0.025250206 0.087005906 0.04521256
000350 ea 85 4f 3c dd 32 b5 bd 83 5d 91 3d c1 69 99 3d
       0.012666205 -0.08847592 0.07097914 0.07490874
000360 90 b4 c8 bc 00 7f e2 bb 95 50 91 bb 70 db b0 bb
       -0.024500161 -0.0069121122 -0.004434655 -0.0053972527
000370 96 bf 40 3d f8 bd 43 3c 2e 71 9f bd 6d ef e0 3c
       0.04705771 0.011947148 -0.07785259 0.027457917
000380 53 62 5e bd 00 bc ce 3c b2 96 19 3d cd df 2c bd
       -0.054292988 0.02523613 0.03749723 -0.04220562
000390 ae 37 71 3d 4f fc a6 3a d2 1f 3a bd 5f 1a 99 3d
       0.05889099 0.0012739989 -0.045440502 0.07475733
0003a0 46 57 67 3d 33 60 82 3d 0b 1c 7e bd ac f0 8b bd
       0.056479715 0.06366005 -0.062038463 -0.06833014
0003b0 74 39 a1 bd 55 0c 66 3d 10 1d 4f 3d 42 b7 60 bd
       -0.078722864 0.056164104 0.050564826 -0.05486227
0003c0 cc ed 0d 3d 0a 80 89 3c 66 22 1e bd 6c b3 06 3b
       0.03465061 0.016784687 -0.038607024 0.002055372
0003d0 b6 6a 5a bd 3c ff d3 bc 2a 1d 0b 3d fc 5d 3c 3c
       -0.053324424 -0.025878541 0.03396336 0.011497017
0003e0 1b be 88 bd 98 37 b6 3c f1 88 98 bc af fd 86 bd
       -0.06676885 0.022243306 -0.018619986 -0.06591355
0003f0 92 5d a7 bd b7 2f 39 3b 9d 40 87 bd c9 4e 5d bd
       -0.08172144 0.00282572 -0.06604121 -0.054030214

net.2.bias f4 [128]
000000 79 eb f5 39 0a c2 7b bd 81 49 1b 3c 32 38 44 3d
       0.00046905482 -0.061464347 0.009477974 0.047905155
000010 06 4e ce 3d 8b 4d 82 3c 30 8b 8e bd 88 2c 23 3e
       0.100734755 0.015906116 -0.06960142 0.15934956
000020 db ad 76 bc f8 6d 90 3d 98 f0 bc bd e2 75 04 3d
       -0.015056099 0.07052225 -0.09225577 0.032338984
000030 a6 8b d8 3d 27 1b 91 bd 16 7f 0c 3d 38 45 f6 3d
       0.10573511 -0.07085257 0.034300886 0.12024921
000040 90 bd d3 bc bd 20 10 3d 2b 6d f0 bb 3c ec fc 3d
       -0.025847226 0.03518747 -0.0073372326 0.12349746
000050 3a 28 0b 3d 1c d8 a3 3d c1 39 ba bd 67 41 b7 3d
       0.03397391 0.08000204 -0.09093047 0.089480214
000060 4a 32 14 bd 9f ea 44 3e e1 e9 7d 3d d0 fd ac bc
       -0.036180772 0.19230126 0.061990622 -0.021117121
000070 53 11 37 bd 50 54 4c bd c5 e5 e6 bd 78 45 d0 bd
       -0.044694256 -0.049885094 -0.11274294 -0.101695
000080 88 8e 04 3d 80 c2 f1 ba 19 ad b3 bd 6f 8e 83 3d
       0.03236249 -0.0018444806 -0.0877325 0.064236514
000090 87 d7 d0 3d 28 41 1f 3e 81 e9 95 3d bf bf c5 3d
       0.101973586 0.15552199 0.07319928 0.09655713
0000a0 ec 72 c6 3c d0 93 31 3e ff d8 06 3d bc d5 70 bd
       0.02422472 0.17341542 0.032921787 -0.058797583
0000b0 27 3b 9b bd d9 41 82 bd f9 4d 47 3e 7d 24 38 3e
       -0.07579642 -0.06360216 0.19463338 0.17982669
0000c0 30 09 ae bb 26 da 7c bd a1 55 e1 3b 63 31 a7 3d
       -0.005311154 -0.06173148 0.006876663 0.08163717
0000d0 af 48 81 3d ab 97 8e 3c c5 4f d3 3d 0a f3 13 bd
       0.063126914 0.017406305 0.10317949 -0.036120452
0000e0 99 18 e4 3c 3b 7b 9a 3d dd 47 a1 bd f4 c8 25 3d
       0.02784376 0.075430356 -0.07875035 0.040474847
0000f0 de e2 f6 3d 62 91 64 3d 84 04 35 3e f2 05 11 3d
       0.1205499 0.05580271 0.17677504 0.03540606
000100 09 9e 2f bd b9 73 dd 3d 1a 19 45 bc 75 21 a4 3d
       -0.042875323 0.10813088 -0.01202991 0.08014194
000110 05 d8 6f 3d 0d d5 0d 3d 41 7d e7 bc f7 b7 0d bd
       0.05855562 0.03462701 -0.028257968 -0.03459927
000120 26 1f 1b 3d f9 b4 97 bd 48 6a c2 3c 2a c8 b4 3d
       0.037871502 -0.07407565 0.02373232 0.08827241
000130 b9 06 f4 bc 18 c3 51 3e 4d 7c 6f bd 54 f5 ac bd
       -0.029788362 0.20484579 -0.05846815 -0.0844523
000140 00 77 e9 39 68 60 f6 bd c3 a4 9a 3d b3 10 68 bd
       0.00044529885 -0.12030107 0.07550957 -0.05665655
000150 e6 d7 ac bd b5 86 d4 3b b8 79 c3 bd 78 42 8b bd
       -0.08439617 0.006485785 -0.095447004 -0.06799787
000160 e4 92 24 3e 5d 9c 92 3d 47 63 b6 bd 9d 18 18 3e
       0.1607166 0.0715873 -0.089056544 0.14853139
000170 8c d3 b0 bd ff 41 b6 3d 65 3a 88 bd 20 1b 77 bd
       -0.08634099 0.088993065 -0.06651763 -0.060328603
000180 9c 41 e4 bd e5 a9 38 3e 9b 3b 21 3e db 76 1f bd
       -0.111453265 0.1803356 0.15745394 -0.03893171
000190 d7 b5 4c 3e 40 bb 03 be e4 fb c9 bd 1e 78 ef 3c
       0.19991241 -0.12864399 -0.098624974 0.029232081
0001a0 04 45 3d 3e 30 ff ac 3d 34 1e 05 bd 1f 20 38 bd
       0.18483359 0.08447111 -0.032499507 -0.044952508
0001b0 06 08 44 3e b1 17 b8 3d 6a d9 df bd 81 a0 41 3e
       0.19143686 0.08988894 -0.1093014 0.18908884
0001c0 54 3a ec b9 bd b1 b4 bd 74 05 50 bd 8e 69 3a 3d
       -0.00045056886 -0.088229634 -0.05078645 0.04551082
0001d0 b9 2a d6 bc 38 37 5d 3c 2f 19 04 bd a1 af 36 3d
       -0.026143419 0.013501935 -0.03225058 0.044601087
0001e0 17 f4 ab 3d 48 29 a8 3d a7 e1 9d bd 69 d6 93 bd
       0.08396166 0.08210999 -0.077090554 -0.0721863
0001f0 8d 71 5b 3d 91 c6 1b 3d 90 f3 92 3d 25 17 97 3d
       0.053575087 0.038031165 0.07175362 0.07377461

net.4.weight f4 [2, 128]
000000 80 26 83 3d 98 b1 69 3d d9 07 b2 bc a7 ac 97 bd
       0.06403828 0.057054132 -0.021732258 -0.07405978
000010 4f b2 cf bc f1 e8 88 bc a5 df 66 3d cd 97 f3 bd
       -0.025353579 -0.016712638 0.056365628 -0.11894188
000020 e6 07 19 be 5f 37 a8 3d 96 35 99 3d a8 b4 a6 bd
       -0.1494442 0.08213686 0.07480924 -0.08139926
000030 31 ac dc bd 61 d7 e7 3d 26 a5 71 bd eb 16 ba bd
       -0.107750304 0.11320377 -0.05899539 -0.090864025
000040 b6 fe 37 3d f9 bf 05 bc 97 29 9a 3d 08 59 21 be
       0.044920646 -0.008163446 0.07527464 -0.15756619
000050 03 24 34 bd e5 79 9c 3d e6 7a bc bc 0e da ff bd
       -0.043979656 0.07640437 -0.023007821 -0.124927625
000060 a6 7a 9c 3d 75 27 97 bd cf ba bd bc 44 72 8b bc
       0.07640581 -0.07380573 -0.023160366 -0.01702226
000070 ca 8d 9e 3d d9 4c 45 3c df 49 7e 3c 84 fc 6b 3d
       0.07741888 0.012042248 0.015520542 0.057613865
000080 d0 c3 3b bb 48 df a7 bd 06 ce 94 3c 09 5b 25 3c
       -0.002865065 -0.081968844 0.018164646 0.010092505
000090 a5 ab a5 bd c1 4d 03 be 5c bb 77 3d 6f db 5d bd
       -0.08089379 -0.1282263 0.060481414 -0.054164346
0000a0 c0 1e a3 3c 1f 3e 7c bd 50 79 89 3d aa 59 73 3c
       0.019912124 -0.06158268 0.06712592 0.014852921
0000b0 3e e4 00 3d 2e 94 d9 3d 36 d1 e0 bd 8b 57 b3 bd
       0.03146767 0.10623966 -0.10977404 -0.08756932
0000c0 79 79 7d 3d 50 27 85 3d de 9a db 3d 13 06 03 be
       0.061883423 0.06501639 0.10722898 -0.12795286
0000d0 27 cd 06 bd 6b fd 74 bd e8 db 03 be 7c c5 48 3d
       -0.032910492 -0.05981199 -0.12876856 0.04901646
0000e0 f4 cf 56 bc a0 b4 cd bd c1 cd cf bc 91 4d a8 3b
       -0.013111103 -0.10044217 -0.025366666 0.0051361998
0000f0 a7 f4 1a be 2f 92 f0 bd 1c be 09 be 49 03 b0 3d
       -0.1513239 -0.11746632 -0.13451427 0.085943766
000100 68 37 14 bd 91 3c f1 bd 6d 7d 22 3d fd 35 43 3d
       -0.036185652 -0.1177913 0.039670397 0.04765891
000110 3d f5 43 3d 31 77 f2 bd 6d 86 5c 3d e7 ef a6 3d
       0.0478413 -0.1183914 0.053839136 0.081512265
000120 e4 c3 b9 bd 6a 5a a5 3b c1 90 8d 3d e0 e1 83 bd
       -0.09070566 0.0050461786 0.06912375 -0.064395666
000130 56 7a 02 3c f6 98 e8 bd be ce a8 bd 14 40 dc 3c
       0.0079637375 -0.113573 -0.08242558 0.026886024
000140 59 f3 a7 3d 57 2f b1 3d c0 ac ff 3a 90 6e 8a 3d
       0.08200712 0.086516075 0.001950644 0.067593694
000150 c2 4b 4c 3d 65 1c 67 3c 46 2d af 3d 6a 63 06 3e
       0.049876936 0.014105891 0.08553557 0.13123861
000160 15 ca de bd f7 d5 6a bc e4 a4 9a 3c 88 04 cd bc
       -0.10878388 -0.01433324 0.018877454 -0.025026575
000170 e2 23 0f 3d fd 4f 94 bd d9 0c 10 bd 50 41 18 3d
       0.03494633 -0.07241819 -0.035168502 0.03717166
000180 2c 47 c8 3d 5f 52 8e bd 0e 0e 2b be 4e 7d 44 3d
       0.097792 -0.06949305 -0.1670458 0.047971062
000190 cb 6d 5a be be 52 bb 3d 79 0b 8f 3d 5b e4 1c bc
       -0.21330945 0.09146641 0.0698461 -0.009575929
0001a0 7d d7 84 bd cc b2 cf 3c ce ec 21 3d 06 54 46 3d
       -0.06486414 0.025353812 0.039532475 0.048419975
0001b0 b5 2b 5a bd 20 3f ff bd 82 31 33 bc 5d aa f8 bd
       -0.05326434 -0.12463212 -0.010937097 -0.12141869
0001c0 dc c9 aa bd 19 ae 3a bd 5f 3f 5e bd 09 5d 06 be
       -0.08339283 -0.04557619 -0.054259654 -0.13121428
0001d0 48 c7 91 bc 30 11 ba 3b e6 e4 5e 3d f9 51 60 3d
       -0.01779522 0.0056783184 0.054417513 0.054765675
0001e0 fc 53 97 bd 73 f6 b5 3c 44 78 fe 3c f0 89 a4 3b
       -0.073890656 0.022212243 0.031063206 0.0050213262
0001f0 77 56 1a bb 65 e6 82 3d c7 f0 52 bd f0 9b ee bd
       -0.0023550072 0.063916005 -0.051499154 -0.116508365
000200 ec c1 20 bd ad 05 98 bd 30 11 3f bd 2d 21 84 3d
       -0.03924744 -0.074229576 -0.04664725 0.0645164
000210 96 fc 81 bd 12 6a e3 bd b0 4e 6c bb f6 73 6a bd
       -0.06347005 -0.11104216 -0.0036057644 -0.057239495
000220 c3 32 25 bd a7 98 85 3d 0b 8b c7 3d 6f 1d 62 bd
       -0.040331613 0.06523257 0.09743317 -0.05520385
000230 29 f0 ec bd 01 89 e7 3b c1 45 07 be c4 a6 ba bd
       -0.115692444 0.0070658927 -0.13210203 -0.09113839
000240 d0 63 e3 3c 9f 1d 9b 3d 50 7f 79 bd 2e e5 c5 bd
       0.027757555 0.07574009 -0.06091243 -0.09662853
000250 cf 94 3a 3d f9 2e 9d 3d 6e e9 78 3d 98 fa 8e bd
       0.04555207 0.07674975 0.06076949 -0.06981391
000260 ff e1 ed ba 34 cc c7 bd fb b6 c8 bd 46 8c 6d bd
       -0.0018149017 -0.097557455 -0.09800526 -0.057995103
000270 eb a2 8f 39 f3 eb 8e 3d bb 87 01 3d 9c f8 a2 bc
       0.0002739647 0.069785975 0.031623583 -0.019893937
000280 3a 47 ad 3d 3f c5 9a bd 48 b1 ab 3d 04 13 be bd
       0.08460851 -0.07557153 0.08383423 -0.09280971
000290 1a 95 8a bd 8c cd 31 be f0 cd b4 bd ca 29 ba 3c
       -0.0676672 -0.17363566 -0.08828342 0.022725005
0002a0 19 bb 93 bd ad 16 2e be 15 a0 4f 3d 3b e6 64 3d
       -0.072134204 -0.17000838 0.050689775 0.055883627
0002b0 00 61 39 3a 1a 0e a7 3d 88 2c 18 be 60 60 93 bd
       0.0007071644 0.081569865 -0.14860737 -0.071961164
0002c0 2a 65 b4 bd 76 8b 6e 3d 77 97 9c 3d de f7 21 3b
       -0.08808358 0.05823847 0.07646077 0.002471439
0002d0 e2 54 eb 3c 31 1f cc 3d 52 83 f7 bd 42 18 e4 bd
       0.028726999 0.09966887 -0.12085594 -0.11137439
0002e0 8a 23 5f 3d 89 be c1 bd 17 01 af 3d 9b 03 9a bd
       0.054477252 -0.0946017 0.0854513 -0.07520219
0002f0 bb 85 ff bd ed 64 8c bd af 6e a4 bd 52 59 19 bd
       -0.12476679 -0.068551876 -0.08028924 -0.037438698
000300 2d 25 a7 3d ee 34 9b bd 30 87 36 bd 47 c7 b9 bd
       0.081613876 -0.07578455 -0.04456252 -0.09071212
000310 53 2a 5b bd b3 e7 ef bd 5f 7d 85 3d 68 e5 5a 3b
       -0.05350716 -0.11714115 0.06518053 0.0033400897
000320 f4 ba d7 bd ec 54 85 3d 18 3d 4b bc 05 6d c9 bd
       -0.10533705 0.06510338 -0.012404703 -0.09835247
000330 c7 71 49 bd 31 22 97 bd c4 b9 91 bd ba db 37 3d
       -0.049180772 -0.07379568 -0.0711551 0.044887282
000340 80 57 29 bd 10 87 fb 3c ff d4 46 3d f0 ea 99 3d
       -0.041343212 0.030704051 0.048542973 0.07515514
000350 0e 2a df 3d aa 6f 33 3d ea cc db 3d 80 a7 87 3c
       0.10896693 0.043807663 0.10732444 0.016559362
000360 62 20 1f be f9 bf fd 3c 2e 33 0d 3c 99 ee e8 bd
       -0.15539697 0.030975329 0.008618159 -0.11373634
000370 61 48 3f bd 93 37 9f 3c ba dd 93 3d e2 c7 b9 3d
       -0.046699885 0.01943568 0.07220025 0.09071328
000380 01 ad 83 3d 89 2a fb bd 72 29 8b bd 7e 37 bf 3d
       0.06429482 -0.12263972 -0.067950144 0.09336756
000390 7a ca c7 bd 2b 14 57 3d 8e 47 63 3d 02 4e 76 3d
       -0.09755416 0.052509468 0.05548816 0.060132988
0003a0 e5 28 87 bd 64 10 5b bd 92 00 e4 bc 8f b8 88 3d
       -0.06599597 -0.05348243 -0.027832303 0.06675827
0003b0 6d bf de bc 23 a8 bd bc 18 e4 c3 3d 17 7e c1 bd
       -0.027190888 -0.023151463 0.0956499 -0.09447878
0003c0 ee 1c 31 3d ce 60 ad bd ad 7c 94 3d 4e 30 d7 bd
       0.04324048 -0.0846573 0.072503425 -0.1050726
0003d0 b7 00 41 3d 42 64 22 3d 87 10 31 bd c2 96 93 3d
       0.047119822 0.039646395 -0.043228652 0.07206489
0003e0 e9 c5 55 bd e5 46 2b 3d fe 26 7f 3d f4 31 98 bc
       -0.052190695 0.041815657 0.062293045 -0.018578507
0003f0 f3 d7 9e bd 99 a6 33 3d a3 87 00 be 9f a6 a9 bd
       -0.07756033 0.04386005 -0.12551741 -0.082837336

net.4.bias f4 [2]
000000 7b 62 b0 bd cb 5b f4 bd
       -0.08612534 -0.119315706
