temp/stability025_300.pth (torch, 72385 bytes, 6 tensors)

net.0.weight f4 [128, 3]
00000000: 1878 8cbd 014a 13bf 42da 66be 2095 3fbd
00000010: ef38 08bf 38ba e83e 4496 393e eff3 eb3e
00000020: 400d fdbe 7c66 90be bff6 0b3e 8c46 09b9
00000030: 21e9 adbe f92a da3e 92f2 743e 7388 97ba
00000040: 5011 113f c5f2 0cbf a3f9 15bf 2163 9d3d
00000050: c9af fb3e 83a0 a43e f1ac a1be 3c24 d63e
00000060: ba07 a43e 97ef 013d 7af8 b93e d8c9 fc3d
00000070: 5305 893d b7b1 b8bd 720c 9dbe f655 babe
00000080: 486f 9bbd 9cee bdbe 82dc 773e 92c0 233e
00000090: 461b 10bf 1e0e dbbe 4ba1 d13e fcf7 9abe
000000a0: 0020 c3bb 3756 bdbe 03dd 07be 728a 933e
000000b0: dd7c 1a3e 94c4 b93e 9da6 d43d 928d 98be
000000c0: 9a5d 15bc add2 b23e 37d1 0e3e c512 cb3d
000000d0: eed4 d03d df74 ed3e 5969 bb3e 7e6d 833d
000000e0: 92c4 17be 37e8 103f 2c62 4abe 35ca a7be
000000f0: a41a 603e 1c04 1cbf a178 29bf 4fd5 fcbe
00000100: 6dd0 2a3e 8209 c5be 1487 0b3f 2047 873d
00000110: acd6 1cbe a6f8 b4be 0749 39be 0692 fe3e
00000120: 0eb1 bcbe ced8 08bf 8ce7 2f3e b209 5e3e
00000130: 787c 40bf abfd e8be 1462 0c3f d5a1 80be
00000140: ed40 843e d417 85be 724b bebe df10 ffbe
00000150: fe5b 003f 0db8 483e 61c9 383e 2c22 533e
00000160: ed20 643e 3620 c43e 2eb0 ef3e 1f6d ea3e
00000170: 9d65 4a3e f884 083e 4dfe 853e cb0d 9fbe
00000180: 807c 8f3e 8ce3 1c3e b129 853e 92e1 22be
00000190: 725c ee3e 62b9 5f3d b022 0cbe 20b0 85bc
000001a0: bef9 6bbe 58c9 78bd 7f03 003f e000 4e3e
000001b0: dcaf a7bd 50ec 013d ed70 113e 768d 97be
000001c0: f9c7 9fbe 7bbd 023f f4d9 c03d b17e 723e
000001d0: 3b6b 64be 047a edbe 8b24 cc3d 180f 993e
000001e0: 6635 0bbf d82d 12bf 1c2c 45be 20eb c93e
000001f0: 292f f2be 83d5 003f f465 113f 9f1f aabd
00000200: e2cb 983d 5ff1 39bd 5579 0f3f c39e 783d
00000210: 5f01 253e e845 e9bd 1783 a53d cd9b 99be
00000220: d73d 273d 62bf 8dbd edb8 093e 691e 7e3e
00000230: c69a 9cbe 3796 d43e 4d29 a43e dc01 d13e
00000240: be11 ff3e 1dee 243e 6efb a53e 617b 9a3e
00000250: 4fbc b53e cd72 acbe b1a8 953e 7c1c 27bd
00000260: 150f 6b3e 7eef 743e 9038 e2be eeb1 43be
00000270: 6801 cbbe 1c30 15be 2db7 443e 41dc 663e
00000280: eb8a 023f 8408 bebe a3c0 843e d9ef 063f
00000290: e172 c9be 3082 debe 0d16 1f3e 4289 86be
000002a0: 5beb 333e 8a26 48be 23ce 303e 6f7d ecbe
000002b0: 88a8 f43e 2f64 b7be 70a1 07bf 8e18 99be
000002c0: 80e5 483c 5c42 153f 5233 f43d d7c7 02be
000002d0: d095 f4be 4747 873e f955 1e3d a835 2bbe
000002e0: 7aca 25be 505e ad3d 6cf4 d03e 5b11 76be
000002f0: 3598 ebbb c53e d03e b7bf 5bbe eb3f dc3d
00000300: dedb fb3e dd7c dc3e 2b6b dfbe 3164 a6be
00000310: 9d7e 963d 4aae af3e c651 d5bd 27f6 97be
00000320: 18ca 283e e785 e83e e69a 22be 30cc afbe
00000330: 1da6 2b3d 3482 f83e e644 ecbe a261 323e
00000340: 762e c63e 8d96 143d e66c 9ebe 4aea 55be
00000350: 226e c2be b9a1 833d c23f f9be 70d9 b0bd
00000360: b920 ffbd d878 cdbe 6098 0e3f c28e 103e
00000370: bfb2 943e 5594 b13e 5f14 ab3e f502 07bd
00000380: bf27 e7bd 56fd a2be 057c 03bf aab5 e1be
00000390: 023a 38be 6fed 0b3f 9499 11bf eb2f babe
000003a0: 68f3 e5be d01e cfbe c8ab 093f 8e1f c0be
000003b0: e5a0 e1be 997a 47be f612 223e 8648 38be
000003c0: b2c5 c7be a68d ef3e 3414 a83d 4ac6 0bbf
000003d0: c136 7abe 0a47 a63e 4ec9 9b3e e251 f8bd
000003e0: 29fb c4bc a792 0fbe b6cd 783e b45a d4be
000003f0: 00fa 0c3f d8bf 7f3d 75ef 703e 4f23 383e
-0.068588436 -0.57534796 -0.22544196 -0.046773076 -0.53211874 0.45454574 0.18123728 0.46084544
-0.4942417 -0.2820319 0.13668345 -0.00013091619 -0.33966926 0.4261091 0.23920658 -0.0011561051
0.5666704 -0.55057937 -0.5858404 0.07684923 0.4915755 0.3215371 -0.31577256 0.4182452
0.32037145 0.03172263 0.36322385 0.12343186 0.06690469 -0.090182714 -0.30673558 -0.36393708
-0.075895846 -0.37096107 0.24205211 0.15991428 -0.56291616 -0.42784208 0.4094337 -0.30267322
-0.0059547424 -0.3697984 -0.13267903 0.28816563 0.15086694 0.3628279 0.103833415 -0.2979551
-0.009116555 0.34926358 0.13946997 0.099156894 0.10196863 0.46378228 0.3660381 0.06417368
-0.1482108 0.5660433 -0.19764012 -0.3277146 0.21885163 -0.6094377 -0.6619969 -0.49381492
0.1668107 -0.38483816 0.5450299 0.06605363 -0.15316266 -0.35345954 -0.18094264 0.49720782
-0.36853832 -0.5345582 0.17178172 0.21683386 -0.75189924 -0.45506033 0.54837155 -0.25123468
0.25830784 -0.25994742 -0.37166935 -0.4981756 0.5014037 0.1960146 0.1804557 0.20618504
0.22278185 0.38305825 0.46814102 0.45786378 0.19765325 0.13331974 0.2617058 -0.3106521
0.28024673 0.15321177 0.2600837 -0.15906361 0.46554905 0.054620154 -0.13685107 -0.016319335
-0.23044488 -0.06073889 0.50005335 0.20117521 -0.081878394 0.031719506 0.14203234 -0.29600114
-0.31207255 0.51070374 0.09416571 0.23681141 -0.2230653 -0.46382153 0.099679075 0.29894328
-0.54378355 -0.571012 -0.19255108 0.394372 -0.47301605 0.50325793 0.56796193 -0.083068125
0.074607626 -0.045396205 0.56044513 0.060698282 0.16113804 -0.11390287 0.08081644 -0.3000168
0.04083046 -0.06921269 0.1344945 0.24816288 -0.30586833 0.41520855 0.3206276 0.4082173
0.49818224 0.16106458 0.32418388 0.30172256 0.3549523 -0.33681336 0.29230264 -0.04079865
0.22954972 0.23919484 -0.4418378 -0.19110844 -0.3964951 -0.14569134 0.19210501 0.22544958
0.5099322 -0.37115872 0.2592822 0.5270973 -0.39345458 -0.434587 0.15535755 -0.26276594
0.1757025 -0.19545951 0.17266135 -0.46189448 0.4778483 -0.35818622 -0.5298071 -0.29901546
0.012261748 0.5830438 0.11923851 -0.12771545 -0.47770548 0.26421568 0.03865621 -0.16719687
-0.1619052 0.08465254 0.4081148 -0.24030058 -0.0071897754 0.4067289 -0.21459852 0.10754379
0.49191183 0.43064013 -0.4363645 -0.32498315 0.07348368 0.3431266 -0.10415988 -0.29679987
0.16483343 0.4541466 -0.15879402 -0.3433547 0.041906465 0.48536837 -0.46146315 0.17420056
0.38707322 0.03627639 -0.30942458 -0.20890155 -0.3797465 0.064273305 -0.48681456 -0.08635223
-0.12457413 -0.4013126 0.55701256 0.14116958 0.29042622 0.3468348 0.3341398 -0.032961804
-0.11286878 -0.31833905 -0.51361114 -0.4408391 -0.17990878 0.5465917 -0.56874967 -0.36364684
-0.44912267 -0.40453196 0.5377774 -0.37524074 -0.44068065 -0.19480361 0.15827546 -0.17996415
-0.39018017 0.46787757 0.082069784 -0.5459944 -0.2443495 0.32476074 0.3042702 -0.12124993
-0.024045544 -0.14020787 0.24297222 -0.4147545 0.5506897 0.062438816 0.23528846 0.17982219

net.0.bias f4 [128]
00000000: 10b7 073e 209a bebe a011 0b3f f46b ccbe
00000010: 748d e13e a229 203e 814a 08be 597f 873e
00000020: f2ab 323e d717 0b3f d01e 3dbd 2965 afbe
00000030: 7b9d 693d d415 adbe 5979 d53e c921 fe3e
00000040: 5792 e43e 1412 0fbc 5963 ce3e 8da8 50be
00000050: 00c2 38be 1adf f63d 0bb5 0e3f 59ab b8be
00000060: 7c4f e83e 2e08 07be 8ebf 923c 8a2a 053f
00000070: 075a 043e f6ff eb3e 1628 1f3e 4e91 393f
00000080: 92ea 663e 6bb4 e5be 4eb9 c2be d68d 0d3f
00000090: d362 af3e 00c6 35be dd8a f9bd ada5 c2be
000000a0: 50bf ccbe 944c b23e 520f 0fbf 44be 5c3e
000000b0: 13e2 353f 997b ec3e 748b 353f bfe8 963e
000000c0: ccaa e3be 1cdf 033f 5474 2c3f 98c1 0a3f
000000d0: ff37 0a3f 51a7 fcbe 0308 febe 644f 8bbd
000000e0: 8990 f63e 3dd6 033f 6892 2dbe ddf7 57be
000000f0: 69ce e63e a0f2 90bc 4c7b c63e 1940 04bf
00000100: 9bc1 073e f7a5 a83e f11b 673f 0489 e83e
00000110: 9c08 123f c839 963e 7b49 e9be 08ef 493d
00000120: 8454 98be 68b8 e43d 4dca 5fbe 04fb dc3e
00000130: 07a4 cfbe 60ae b1be d398 78be 8ffe 333f
00000140: 9c03 80be a69b 8d3e af5c 413f 48a6 4b3f
00000150: 26f3 2f3d 5757 a03e c009 cbbe 84ae 2e3e
00000160: 9753 fdbe 1a98 fbbe f965 b43e 7fc8 cebe
00000170: 5310 eb3e d10c 2a3f a5f7 a03e 00de a83e
00000180: 0f49 06bf 230f 27be 9778 07bf 8c8f 02bf
00000190: 0019 d63e 3dfb 50bd 86ae 3f3f 2a1c 9ebe
000001a0: a039 c3be 7d36 15bf 40c5 8b3e ba47 dfbe
000001b0: 906c 0abb 1d50 1a3f e425 333f c5bc a63d
000001c0: 4238 c0be db02 e4be 4ec1 163f e8b7 143e
000001d0: 60bc 153d 119a 0fbf 8ab4 a93e b7cb 123f
000001e0: 3d83 8c3e 2010 d5bd cbe1 edbe febd f13d
000001f0: d9b6 a53e 6d44 bd3e 6574 1dbe d55f 153f
0.13253427 -0.37226963 0.5432377 -0.39926112 0.44053233 0.15640882 -0.13309671 0.26464346
0.17448404 0.5433325 -0.046171963 -0.34256867 0.05703495 -0.33805716 0.41694143 0.4963515
0.44642898 -0.0087323375 0.4031017 -0.20376797 -0.18042755 0.12054272 0.55745 -0.36068228
0.45373142 -0.13186714 0.017913606 0.52018034 0.12924968 0.4609372 0.15542635 0.7248734
0.22550419 -0.4486421 -0.38032 0.5529455 0.34255084 -0.17751312 -0.12184689 -0.38017026
-0.3998971 0.3482405 -0.5588275 0.21556956 0.71048087 0.46188048 0.70915914 0.29474446
-0.44466245 0.5151231 0.67365 0.5420165 0.53991693 -0.49346402 -0.49615487 -0.06802252
0.48157147 0.51498777 -0.16950381 -0.21090646 0.45079353 -0.017693818 0.38765943 -0.51660305
0.13257448 0.3293912 0.9027701 0.45417035 0.57044387 0.2934096 -0.45563874 0.049300224
-0.2975198 0.11167985 -0.21854515 0.4316026 -0.4055483 -0.3470335 -0.24277048 0.703103
-0.25002754 0.27657813 0.7553205 0.795506 0.042956494 0.31316635 -0.39655876 0.1705876
-0.49477836 -0.49139482 0.3523405 -0.4038734 0.45910892 0.66425806 0.31438938 0.32981873
-0.5245523 -0.16314368 -0.5291838 -0.51000285 0.41815948 -0.05102085 0.74875677 -0.30880862
-0.38129902 -0.5828627 0.27298927 -0.4360941 -0.0021121837 0.60278493 0.6997969 0.08141474
-0.3754292 -0.4453343 0.5888871 0.1452328 0.0365566 -0.5609446 0.33145553 0.57342094
0.27443877 -0.10403466 -0.4646133 0.11803816 0.32366064 0.36966267 -0.15376432 0.58349353

net.2.weight f4 [128, 128]
00000000: fa5e 693d 5079 a33c af64 a2bb 61a5 a8bd
00000010: 23e7 3e3d ade1 66bd ca50 e13c 8092 5a3d
00000020: 448e 3dbd 2b6e 3f3e 104c 3bbc 5fd0 7c3d
00000030: ac73 a9bc 7ff9 9d3d 657b c13d 51dd 3c3c
00000040: 7c29 023d a7c2 a9bc 8b3a c63d e017 aebb
00000050: b43c 84be 31e9 653d e868 613d f5c3 f9bc
00000060: 10ce 933c 0a0b aabe de50 d73d b4dd e6bd
00000070: 95bd a93d ef4d 2bbc 0a23 333c 165d 373e
00000080: bf9a d2bc 3b63 2abd 3a64 7a3d c805 c33d
00000090: 1bde 653d 3bf7 333d ea06 a73d 68ec 80bb
000000a0: 8dbd 86bd 6906 db3d 1df6 64bd 3c0f 2a3d
000000b0: dcd0 fc3d 1337 4d3e 9785 133e e3b0 93bd
000000c0: 770b bbbd f206 053e 8e5b 253d 067d 88bd
000000d0: 8712 ce3d 6d8f cabd 6324 97bc bb6b 853d
000000e0: e0ac 403e 6519 5cbc a179 4fbd d649 03bc
000000f0: f7bd cabc 2929 a33d ada5 5f3c 385f 01bd
00000100: 2381 8e3d 62fe 133d e440 c23e 6a62 b43d
00000110: ce83 cb3d d08f 4f3d abe2 97bd b25d 43be
00000120: d1c2 aebc 8d61 993d 50e6 113c 57c7 8c3d
00000130: efe9 453e 14e0 28bd bf42 6dbd 3d62 603e
00000140: a8cc ec3c 382d b53d 7347 d93d bfaa af3c
00000150: 7071 be3c 5702 41bd 563f 0c3c 92f6 543c
00000160: d346 8c3d 8034 0abe 78b1 6abd e221 21be
00000170: 3b89 af3c bb42 a93d e797 863d 5875 073b
00000180: f59f 9e3d 7704 c3be 350a c43b f15d bbbd
00000190: f270 fb3c d359 bc3d b26f b53c 21a8 9c3c
000001a0: 4491 8cbe 2d73 a8bd 877d 2abd 26d1 123d
000001b0: 4e98 963c d59f b93d 131f 81bc d40a 8ebd
000001c0: 3999 a4bd f2cb 62bd be11 eb3c 8468 a83b
000001d0: 8630 1f3d 0af6 2dbd 5137 cb3d 1327 cbbc
000001e0: 7807 88bd 33ef 883d 7c78 74bd ded1 793c
000001f0: 4f0b 053d b7fe 5abb 167a 11bc 151e 61be
00000200: 69c7 a23d 1607 6bbd c6cb 693d c4bd 65bd
00000210: ab60 c1bc cd90 94bb ed4f 17bd 6a7e 18bd
00000220: 79a3 9abd fb1b 6dbd c0e4 87bb 3e88 e6bc
00000230: 705f 4bbc 50b6 b83c 99e3 55bc 215c abbd
00000240: 0e89 0bbd fa38 d13c 464c 023d 8e31 2f3d
00000250: 8063 a03b a284 773d 35a6 6cbd a0e8 9cbd
00000260: bc0e c1bc 8042 1c3a c7fd 8a3d b0c8 50bd
00000270: d967 80bd a3c9 75bb 524e ae3c 861a a5bd
00000280: fdd7 16bd 5d0d 92bd 0836 a93c 608c d83b
00000290: ab81 a4bd dbb0 7cbd 00ee 853b 410f d3bc
000002a0: 2a03 8cbd eec5 bcbc 2518 9fbd b6a7 40bc
000002b0: 86d1 fabb 6927 673b 3000 f63b 5385 88bc
000002c0: c244 8e3d 48d6 f7bc 6053 213d 0ab0 083d
000002d0: 378b 60bc 2eef 80bd f7b2 91bd f86d c83c
000002e0: 4860 dd3c 193b 503d 3241 20bd a986 993d
000002f0: 12a1 b03d 3055 66bc 5315 0dbd 7470 e3bc
00000300: bef7 95bd 4f17 493d 10d3 1d3c 66cb 263d
00000310: cb9d 643d 5f98 1fbd 00c2 573a c355 923d
00000320: 3da9 90bd 9410 9c3d fe42 3c3d a867 e3bc
00000330: 4398 8ebd ca5f 413d 2abb 2c3d 4ac7 2ebd
00000340: b4e5 233d 510a c03c 2730 b23d ce30 393d
00000350: be89 5a3c c8bd b5bd 1e33 8b3d 28f6 973d
00000360: 90b4 c8bc 007f e2bb 3053 45bb 70db b0bb
00000370: da87 3c3d 622d 803c e365 a2bd 8f73 d43c
00000380: 5362 5ebd 00bc ce3c e109 143d cddf 2cbd
00000390: 08c9 703d 76d5 443a 2acc 3bbd 7d84 973d
000003a0: 4657 673d 8e2f 823d c6d3 6abd ca9b 92bd
000003b0: 579c a6bd 5f3e 623d 8f2d 4d3d 3a7d 61bd
000003c0: cced 0d3d 18cf 823c 0dfe 20bd e5b6 f739
000003d0: b66a 5abd 3cff d3bc 712f 083d cce1 313c
000003e0: 8ad8 85bd 9837 b63c b14b 9dbc f0f5 86bd
000003f0: 925d a7bd c339 633b 283e 8dbd c94e 5dbd
0.056975342 0.019955307 -0.00495585 -0.082346685 0.046607148 -0.056367565 0.027504344 0.05336237
-0.046278253 0.1869437 -0.011431709 0.061722156 -0.02068504 0.07713603 0.09447364 0.011527375
0.031777844 -0.0207227 0.09679135 -0.0053129047 -0.25827563 0.05613059 0.055031687 -0.030488947
0.018042594 -0.33211547 0.10513471 -0.11272755 0.08288113 -0.010455593 0.010933647 0.17906603
-0.025708554 -0.04159854 0.06113074 0.09522587 0.05612002 0.04393695 0.08155616 -0.003934432
-0.06579123 0.10694582 -0.055898774 0.041518435 0.12344524 0.2004054 0.14406429 -0.07211473
-0.09133046 0.1299093 0.040370516 -0.06664471 0.100621276 -0.098906375 -0.018449968 0.065146886
0.18815947 -0.013433789 -0.050653104 -0.008013209 -0.024748785 0.07966835 0.01365034 -0.03158495
0.069582246 0.03613127 0.37940133 0.088078335 0.09937249 0.05067426 -0.0741628 -0.1907871
-0.02133313 0.074893095 0.008905008 0.068739586 0.1932752 -0.041229323 -0.057924982 0.21912475
0.028906181 0.088465154 0.10609331 0.021443723 0.02324745 -0.047121372 0.008560022 0.01299824
0.06849446 -0.1349659 -0.057298154 -0.15735582 0.021427741 0.08264681 0.06571942 0.0020669308
0.07745353 -0.38089344 0.005982662 -0.09148777 0.030693505 0.0919682 0.022147987 0.019123139
-0.2745458 -0.08225093 -0.04162362 0.03584399 0.018383171 0.09063689 -0.015761888 -0.06935659
-0.080370374 -0.05537028 0.028694984 0.0051394124 0.038864635 -0.04247097 0.0992266 -0.024798905
-0.066420496 0.06686249 -0.059685215 0.01524779 0.032481488 -0.0033415982 -0.008879205 -0.21984132
0.07948191 -0.057379805 0.0570791 -0.056089178 -0.023605665 -0.004533863 -0.036941458 -0.037229933
-0.07550711 -0.057888012 -0.004147142 -0.028141137 -0.012412891 0.02254787 -0.013054752 -0.083671816
-0.034066252 0.025539864 0.03181102 0.04277187 0.004894674 0.060429223 -0.057775695 -0.07661557
-0.023566596 0.0005960837 0.067866854 -0.05097264 -0.06269807 -0.0037504218 0.02127758 -0.080616996
-0.036827076 -0.07131455 0.020655647 0.006608531 -0.08032545 -0.0616921 0.0040872097 -0.02576411
-0.06836541 -0.023043599 -0.07768277 -0.011758735 -0.0076543717 0.0035271293 0.0075073466 -0.016665136
0.06946708 -0.030253544 0.039386153 0.03337101 -0.013705066 -0.0629562 -0.07114213 0.0244665
0.02702345 0.05083761 -0.039124675 0.074963875 0.08624472 -0.014058396 -0.034444164 -0.027763583
-0.07322644 0.049094494 0.009632841 0.04072132 0.055814546 -0.03896367 0.00082305074 0.07145264
-0.0706353 0.076203495 0.045962326 -0.027759388 -0.06962635 0.047210492 0.04217068 -0.042670526
0.040013984 0.02344242 0.087005906 0.04521256 0.013338504 -0.088740885 0.06796859 0.074199975
-0.024500161 -0.0069121122 -0.0030109398 -0.0053972527 0.046027996 0.01564664 -0.079295896 0.025934009
-0.054292988 0.02523613 0.036142234 -0.04220562 0.05878547 0.0007508615 -0.045849003 0.07398317
0.056479715 0.063567266 -0.05733087 -0.07158621 -0.08135288 0.055235263 0.050092276 -0.055051066
0.03465061 0.01596789 -0.03930478 0.00047247778 -0.053324424 -0.025878541 0.03324837 0.010857057
-0.06535442 0.022243306 -0.019201132 -0.065898776 -0.08172144 0.003467188 -0.06896621 -0.054030214

net.2.bias f4 [128]
00000000: 748f fe3d 8b62 7abd b76d 5a3e 3238 443d
00000010: 309c 483e 218b aa3d b60b 003e 67d2 513e
00000020: 9ac9 c73d 1f81 8b3d 71f3 fbbd eb25 2b3e
00000030: c71e 323e 9279 d4bc e145 9bbd 0254 3d3e
00000040: 90bd d3bc 2f14 443e edf6 eebb 1016 c3bb
00000050: 2047 0d3d 2de5 713d 2333 cabd d549 193e
00000060: 72e0 8cbc 47da 883e 3060 f33d 39ea c3bc
00000070: 910f 4ebd 2784 cbbd 6a03 1fbe b6a6 12be
00000080: b417 f33c 80c2 f1ba 17cf b6bd 470a 633e
00000090: 9110 253e 5933 2e3e c39c f83d 1243 d23c
000000a0: ec72 c63c 3180 903e 495b 993c 691e 17bd
000000b0: 273b 9bbd a8c6 24bc bd77 863e c304 7e3e
000000c0: 4ce2 e33c c68a a8bd 044e 563d 6a8a 943e
000000d0: 7d80 773d fb26 23bc 0af7 09bd 8e2e 04bb
000000e0: 298b 5ebc 95c2 153e 0173 f1bd 8ec6 d83d
000000f0: e27b 473e 0abe 843d e90c 763e f205 113d
00000100: dcae 9bbd e288 353e e054 ce3d ed79 f73d
00000110: 40ab ce3d 4675 e43d 2fe4 01bd 3869 2dbd
00000120: 9306 f13d 4613 20be 486a c23c f5d1 2a3e
00000130: 0ead 473d f90e 743e 4d7c 6fbd 54f5 acbd
00000140: 0077 e939 2c2f 22be 29e3 9d3d 8abf a4bd
00000150: 11db ffbd f69b 3fbd 21bc 06be 445f a7bc
00000160: 4995 793e 20da 8e3d da93 b5bd 9745 693e
00000170: 3169 b1bd 002d cf3d 5ba2 e13d a7bf c5bd
00000180: a6ed 10be 6cfd 863e 50c1 9a3e 5853 b8bd
00000190: d046 a83e 695f 35be 88f7 0fbe ee89 f3bb
000001a0: 40ab 823e 6217 143e bf3b 19bd f968 36bd
000001b0: ef91 5f3e 89bf e73d 0867 15be 3438 863e
000001c0: d93c 0a3e ef2f 103e 5e39 50bd 8cb8 f33d
000001d0: d4ad c9bc 3837 5d3c 2f19 04bd fa70 8d3d
000001e0: 7c46 113e 2518 ab3d 405f a4bd 69d6 93bd
000001f0: 681f ec3d 5804 373c d186 183e 7408 ff3d
0.12429705 -0.061129134 0.21330915 0.047905155 0.19590831 0.08327318 0.12504467 0.20490418
0.09755249 0.06811737 -0.12302292 0.16713683 0.17394553 -0.025936875 -0.07581688 0.18489078
-0.025847226 0.19148324 -0.0072926194 -0.005953558 0.03449166 0.05905645 -0.09873035 0.14969571
-0.017196868 0.26729032 0.11883581 -0.023915397 -0.050307814 -0.099373154 -0.15528646 -0.14321408
0.029674388 -0.0018444806 -0.08926218 0.22171889 0.16119601 0.17011775 0.12139275 0.025666747
0.02422472 0.28222802 0.018720286 -0.036894236 -0.07579642 -0.010057129 0.26263228 0.24806504
0.027817868 -0.08229594 0.052320495 0.29011852 0.06042527 -0.009958024 -0.03368286 -0.002016935
-0.013582983 0.14625008 -0.117895134 0.10584746 0.19480851 0.064815596 0.24028362 0.03540606
-0.07601711 0.17727998 0.10074782 0.12083802 0.10091257 0.11155181 -0.031711753 -0.042336673
0.11768832 -0.15632352 0.02373232 0.16681655 0.048749022 0.23833837 -0.05846815 -0.0844523
0.00044529885 -0.15838307 0.07709343 -0.08044346 -0.124929555 -0.046779595 -0.13157703 -0.020431168
0.24373354 0.06975198 -0.08866091 0.22780453 -0.08662642 0.10116005 0.11017295 -0.096556954
-0.14153156 0.2636522 0.3022561 -0.090002716 0.32866526 -0.17712177 -0.1405927 -0.007432214
0.25521278 0.14462045 -0.037410494 -0.044533703 0.21833013 0.11315829 -0.14590085 0.26214755
0.13499774 0.14080785 -0.05083596 0.11900434 -0.02461902 0.013501935 -0.03225058 0.06906314
0.14187044 0.083542146 -0.0802598 -0.0721863 0.11529428 0.011170469 0.14895178 0.12452784

net.4.weight f4 [2, 128]
00000000: f62f 0dbd 580b 5f3d 1c4b cebd a7ac 97bd
00000010: da89 89bd 42e3 0ebd 11a5 a4bd 8a42 09be
00000020: 597e 0ebf 9a50 ad3d efb4 b23d 22d5 12be
00000030: f538 efbd c52c 843d 8645 213d caad dcbd
00000040: b6fe 373d 9ee3 44be ba0f 993d 4f01 87bd
00000050: aa40 39bd cc63 ab3e e9c7 bfbc 1660 0ebe
00000060: 4dee 3f3d 54d2 edbd 7521 1cbd 5af8 68bc
00000070: 43a0 873d f42a 953c 5243 bf3c b974 213e
00000080: 80ee c4ba 48df a7bd d079 9e3c d489 dbbd
00000090: 7e4a ccbd a864 c2bd c518 db3c 7507 ef3b
000000a0: c01e a33c 352e bcbd b74e 683d 3b0a 4fbd
000000b0: 3ee4 003d 3c3d b23d 02d9 f4bd 414b 01be
000000c0: 3aad 073d 6d72 6d3d 4871 aa3d 1d6c bbbe
000000d0: ff2a eebc 9806 09bd 78b0 f3bc e50e ae3c
000000e0: e866 203c 5072 05be 7d96 ebba f789 1dbd
000000f0: 060c 32be 65b0 15be b9f4 14be 4903 b03d
00000100: 258a 3abc bd2b 15be fcb2 3cbd 4c11 973c
00000110: 57f4 e53b a4d6 0cbe 6eb6 633d c439 ad3d
00000120: a7e9 dabd 1c45 3b3d c190 8d3d f3fd b4bd
00000130: 9881 80bc c21f 2abe bece a8bd 1440 dc3c
00000140: 59f3 a73d fe8b 193e c0ac ff3a a12d 813d
00000150: c00e 583d 73e6 023d 9d83 c03d 9bb6 bc3d
00000160: 29d8 0bbe 70b4 51bc e83d 0b3c b001 42bd
00000170: 23c9 023d 5b0f acbd dc22 64be d928 393d
00000180: 2829 e93d 1e5e a6bd 28f0 abbe 61f4 853d
00000190: 657c bbbe df03 0e3e 9af0 aa3d d5d0 c23a
000001a0: 7faf b3bd 3600 6039 5809 0f3d d85c 503d
000001b0: 8ce6 84bd c989 f7bd a610 b7bb 7c9b 22be
000001c0: 5595 e5be 558e 60be 91e6 42bd 05ad 1abe
000001d0: 48c7 91bc 3011 ba3b e6e4 5e3d bc49 acbc
000001e0: bcc9 b9bd 5d99 f53c 4478 fe3c f089 a43b
000001f0: 1ebd a4bc 2f38 7f3e 3b8e 83bd 5423 08be
00000200: 8eda 20be f830 96bd 0852 debd 2d21 843d
00000210: cb28 ccbd 9296 05be 4b17 12be 3bdc 91bd
00000220: b933 0abf abcc 803d 3df7 f73d 185c 06be
00000230: cadf 15be 28ba 96bc 63e9 e6bc 93fb dbbd
00000240: d063 e33c 8f6d d6bd a55f 74bd 407a af3b
00000250: 6ca8 373d bf14 463e 61f3 4b3d 5789 abbd
00000260: 4248 39bc 61f0 0abe bfcb c8bd 468c 6dbd
00000270: 7354 1abb d497 ad3d c399 3e3d d789 0f3d
00000280: 29b9 9f3d 3fc5 9abd 1ed9 a73d 00d4 9bbe
00000290: 3bb7 b5bd f707 19be 9fdc e2bd fc26 613d
000002a0: 19bb 93bd e15d 57be 3a88 603d 01fc 4f3d
000002b0: 0061 393a 67aa 763d 19aa 29be eb97 e8bd
000002c0: 8719 e0bd d115 953d 23dc 773d aeee 5dbe
000002d0: 4381 e13c 7d8d ee3d 1b82 afbc 5a00 f3bd
000002e0: 51e0 913d 44bc 0ebe b631 da3d ffa2 bbbd
000002f0: b371 22be d3f4 b3bd 3593 c5bd 5259 19bd
00000300: 93b8 aa3d 520c e8bd c625 e1bd e963 e6bd
00000310: 4144 92bd 9be8 05be a899 823d 4069 0a3c
00000320: 4f49 f7bd f19c f93d 183d 4bbc 20e7 f8bd
00000330: 0e8a 8abd 69b4 16be c4b9 91bd badb 373d
00000340: 8057 29bd 37f5 b13d 0e51 4d3d 733e 9a3d
00000350: bec6 023e 33d0 7c3d 0f01 fe3d 2579 4cbc
00000360: 38fa 3dbe e85a ec3c 3681 a63b 0047 11be
00000370: bfa4 39bd a719 f73b b1d9 0abd 9955 c73d
00000380: 596b bb3d 7361 0fbe 26e9 45be 5a55 e13d
00000390: 4df0 7fbe 3586 063e 5e4c a23d 7356 7b3d
000003a0: 0d7b bfbd a2f0 97bd 6f01 cabc 374c 883d
000003b0: fe7f 17bd 9349 11bd 280c c93d c832 13be
000003c0: 3de0 92be 2ecf 78be d542 943d 8c90 04be
000003d0: 067d 453d 4264 223d 8710 31bd 8715 353e
000003e0: 6027 8abd a34a 2e3d ba67 743d f431 98bc
000003f0: 4a82 b4bd 0a19 933d 0aed 0fbe 7326 c8bd
-0.034469567 0.054454178 -0.1007292 -0.07405978 -0.06715746 -0.0348847 -0.080392964 -0.13404289
-0.5566154 0.08462639 0.087259166 -0.14339116 -0.116807856 0.064538516 0.039372943 -0.10775335
0.044920646 -0.19227454 0.07473703 -0.065920465 -0.045227684 0.33474576 -0.023410754 -0.13903841
0.04685812 -0.116123825 -0.038117845 -0.014219368 0.06622364 0.018208958 0.02334753 0.15767182
-0.0015024692 -0.081968844 0.019345194 -0.10719648 -0.09975146 -0.09491855 0.02674521 0.00729459
0.019912124 -0.09188501 0.056715693 -0.050546866 0.03146767 0.08703086 -0.119554535 -0.12626363
0.033124186 0.057970453 0.08322388 -0.3660592 -0.029073237 -0.033453554 -0.029747233 0.021247337
0.00979016 -0.13031888 -0.0017973926 -0.03846165 -0.17387399 -0.1461807 -0.1454648 0.085943766
-0.011385475 -0.14567466 -0.04606913 0.018440865 0.007017653 -0.13753754 0.0555939 0.084582835
-0.10689097 0.045720205 0.06912375 -0.088374995 -0.015686795 -0.16613677 -0.08242558 0.026886024
0.08200712 0.14994809 0.001950644 0.06307531 0.05274844 0.031958055 0.09400103 0.09214517
-0.13656677 -0.012799367 0.008498646 -0.04736489 0.0319301 -0.08401366 -0.22278923 0.04520497
0.11384803 -0.0812342 -0.33581662 0.06540752 -0.36618343 0.13868664 0.08346672 0.0014863262
-0.087737076 0.00021362383 0.03492102 0.050869793 -0.06489286 -0.12086827 -0.0055867014 -0.15879625
-0.44840494 -0.21929295 -0.047583167 -0.15105064 -0.01779522 0.0056783184 0.054417513 -0.021031253
-0.09071681 0.029980356 0.031063206 0.0050213262 -0.02010971 0.24923776 -0.06423613 -0.13294727
-0.15708372 -0.07333559 -0.1085549 0.0645164 -0.09968718 -0.1304572 -0.14266698 -0.07122084
-0.5398517 0.06289037 0.12107704 -0.13121068 -0.1463615 -0.018399313 -0.02818746 -0.10741343
0.027757555 -0.104701154 -0.059661526 0.0053551495 0.044838354 0.19343852 0.04979265 -0.08375805
-0.0113087315 -0.1356826 -0.098044865 -0.057995103 -0.002354887 0.084762245 0.046533357 0.035043564
0.07798988 -0.07557153 0.08195709 -0.3043518 -0.08872839 -0.14944445 -0.110772364 0.05496882
-0.072134204 -0.21031906 0.054817416 0.05077744 0.0007071644 0.060221102 -0.16568793 -0.11357101
-0.10942369 0.07279552 0.060512673 -0.2167308 0.027527457 0.116480805 -0.021424344 -0.118653014
0.07122863 -0.13939005 0.10654013 -0.091619484 -0.15863685 -0.08786931 -0.09647218 -0.037438698
0.08335986 -0.11330475 -0.10993533 -0.11249525 -0.07141925 -0.13077013 0.06376964 0.008447945
-0.120745294 0.12188137 -0.012404703 -0.121534586 -0.06764613 -0.14717259 -0.0711551 0.044887282
-0.041343212 0.08689349 0.050126128 0.075314425 0.12771127 0.06172199 0.12402546 -0.012480055
-0.18552482 0.028851941 0.005081321 -0.1418724 -0.04532313 0.0075409 -0.033899013 0.09733123
0.09151334 -0.14002018 -0.1932722 0.11002608 -0.24994011 0.13137133 0.07924722 0.06136174
-0.09349642 -0.07418944 -0.024658887 0.06655162 -0.036987297 -0.035470556 0.09816772 -0.1437484
-0.28686705 -0.24297783 0.0723931 -0.12945765 0.048214935 0.039646395 -0.043228652 0.17683993
-0.067457914 0.042551648 0.059669234 -0.018578507 -0.08813913 0.0718251 -0.14055267 -0.097729586

net.4.bias f4 [2]
00000000: 15ee f5bd 0c23 45be
-0.12008301 -0.1925165
