temp/stability10.pth (torch, 72325 bytes, 6 tensors)

net.0.weight f4 [128, 3]
000000 9a 8d 0c bc 04 c4 f8 be 7a a8 d3 bd 20 95 3f bd
       -0.008578682 -0.48587048 -0.10334869 -0.046773076
000010 ef 38 08 bf 38 ba e8 3e 4f af 41 3e db 65 ea 3e
       -0.53211874 0.45454574 0.18914531 0.45780835
000020 1f ec 01 bf 89 c6 97 be ea be 1a 3e 3e e6 47 3c
       -0.5075092 -0.29643658 0.1511189 0.01220089
000030 7c 70 67 be 62 37 e2 3e e8 54 7e 3e a1 3e 0e bd
       -0.22601503 0.4418288 0.24837077 -0.034727696
000040 af 78 0c 3f 36 ac 11 bf 78 40 06 bf b4 7a 07 3e
       0.5487165 -0.569034 -0.5244212 0.13230401
000050 fc 8e 0a 3f 15 3a b2 3e 45 f7 a3 be f2 f0 cd 3e
       0.54124427 0.34809938 -0.3202459 0.4022289
000060 f7 a8 af 3e f0 76 d1 3c 5d b5 b3 3e e7 4d 11 3e
       0.34308597 0.02556941 0.35099307 0.14189874
000070 b6 c8 81 3d c6 46 cd bd 72 0c 9d be f6 55 ba be
       0.06337111 -0.100232646 -0.30673558 -0.36393708
000080 48 6f 9b bd 6a 28 ca be 6b 86 86 3e ec b4 39 3e
       -0.075895846 -0.39483958 0.26274428 0.18135422
000090 46 1b 10 bf a8 6f d9 be a6 3f d3 3e fc f7 9a be
       -0.56291616 -0.42468 0.41259497 -0.30267322
0000a0 00 20 c3 bb 37 56 bd be 04 c1 85 bd 42 69 8d 3e
       -0.0059547424 -0.3697984 -0.065309554 0.27619368
0000b0 4d f3 07 3e 2e 92 98 3e 50 a5 38 3d 71 e8 9f be
       0.13276406 0.29799026 0.04507953 -0.31232026
0000c0 7a 20 cc 3b 00 37 ac 3e 94 db 01 3e d0 93 16 3e
       0.0062294574 0.33635712 0.12681419 0.14704823
0000d0 c5 ec e1 3d 15 c6 f0 3e be 43 a3 3e ea d8 8e 3a
       0.11031488 0.47026125 0.3188762 0.0010898386
0000e0 9e 78 10 be 69 65 f7 3e 43 b7 8e be ff 07 a1 be
       -0.14108512 0.48319557 -0.27874193 -0.31451413
0000f0 6a e1 56 3e 02 6b ae be 0a 74 cf be cd 5e ef be
       0.20984426 -0.34066015 -0.40518218 -0.46752015
000100 e8 c8 11 3e 22 c2 b9 be 0f a1 04 3f 9e 1d 2f 3d
       0.14236796 -0.36280924 0.51808256 0.042752855
000110 ee a1 33 be b2 42 b5 be fe 1f 25 be 03 ee 03 3f
       -0.1754224 -0.35402447 -0.16125485 0.5153505
000120 7c 5c 8f be 14 94 bb be c7 9f ab 3e 95 70 80 3e
       -0.28000247 -0.36636412 0.33520338 0.25085893
000130 c8 1c ba be df 62 1a be a0 21 07 3f 6f 19 6b be
       -0.36350083 -0.15076779 0.5278568 -0.22958921
000140 e7 aa 80 3e d0 39 ce bd 0d 8b b0 be 95 84 a7 be
       0.25130388 -0.100696206 -0.34481087 -0.3271834
000150 e6 ba f1 3e 36 6b 2b 3e d9 46 18 3e f5 84 62 3e
       0.47212905 0.16740116 0.14870776 0.22121032
000160 9a 64 5a 3e 70 fe ba 3e 79 94 f0 3e c5 37 e0 3e
       0.21327439 0.36522245 0.46988276 0.4379255
000170 2b 7a 30 3e 51 9c 00 3e 90 d4 41 3e 21 20 d6 be
       0.17234103 0.1255963 0.18928742 -0.41821387
000180 b7 38 92 3e 9c cd 19 3e 5c 85 82 3e 88 e2 11 be
       0.28558895 0.1501984 0.2549237 -0.14246571
000190 83 bc fc 3e 7f 81 ab 3d b0 22 0c be 20 b0 85 bc
       0.49362573 0.08374309 -0.13685107 -0.016319335
0001a0 be f9 6b be 98 fe 96 bd b3 57 f6 3e f2 22 34 3e
       -0.23044488 -0.07372779 0.48113784 0.17591456
0001b0 d4 c9 27 bd e6 e1 8a 3c cb cf f3 3d 4a 98 aa be
       -0.040963963 0.01695342 0.11904868 -0.33319312
0001c0 b0 70 9c be 21 76 05 3f 00 30 4e 3b e4 f4 2f 3e
       -0.30554724 0.52133375 0.0031461716 0.17183262
0001d0 81 08 88 be 1e 49 d9 be 29 54 03 3e ae ab a6 3e
       -0.26568988 -0.42438596 0.12825073 0.32552856
0001e0 66 35 0b bf d8 2d 12 bf 1c 2c 45 be c0 d7 c9 3e
       -0.54378355 -0.571012 -0.19255108 0.39422417
0001f0 e4 1a f6 be ee 9c f6 3e f6 2d 0d 3f dc 0b 8a bd
       -0.4806739 0.48166603 0.55148256 -0.06740543
000200 5e 3a 1f 3c c1 18 f7 3c 20 a8 10 3f e0 42 8c 3d
       0.009718506 0.03016317 0.5650654 0.06848693
000210 ec 90 31 3e 74 d7 f2 bd 91 f9 9b 3d 19 72 c0 bd
       0.1734044 -0.11857501 0.076159604 -0.093967624
000220 78 1e 21 3d 58 0f a2 bd d9 5f 03 3e f0 1d 3d 3e
       0.039335698 -0.07913083 0.12829532 0.18468451
000230 02 35 cd be 23 b6 cf 3e b6 f2 9b 3e 24 fa c6 3e
       -0.40079504 0.40568647 0.3045861 0.38862717
000240 74 7e e6 3e 5a f6 2d 3e 34 bb ab 3e d6 cb 9e 3e
       0.4501835 0.16988507 0.33541262 0.3101489
000250 0f 7d a9 3e 3f 6f bc be 69 f4 99 3e d4 1d 66 bd
       0.33103225 -0.36803624 0.30069283 -0.05618079
000260 f7 aa 51 3e 39 3d 74 3e f3 87 a7 be 8c 4e be bd
       0.20475374 0.2385148 -0.3272091 -0.092923254
000270 92 de 7c be 65 80 2a be d0 ad 2c 3e 77 a5 4c 3e
       -0.24694279 -0.16650541 0.16863179 0.19984995
000280 7b 75 fd 3e 2c 9e c3 be 0c b7 65 3e fc 4e 04 3f
       0.49503693 -0.38206613 0.22433108 0.5168302
000290 26 a1 cd be 30 82 de be 84 48 0e 3e f0 f3 6f be
       -0.4016201 -0.434587 0.1389485 -0.23432899
0002a0 14 6f 34 3e ea 56 29 be 34 e0 28 3e 6b 95 c3 be
       0.17620498 -0.16537061 0.16491777 -0.38199934
0002b0 10 e8 ea 3e 92 77 c7 be 70 a1 07 bf 8e 18 99 be
       0.45880175 -0.38958412 -0.5298071 -0.29901546
0002c0 80 e5 48 3c 97 f2 11 3f cb 6a fc 3d 70 5d 17 be
       0.012261748 0.5701079 0.12325057 -0.14781737
0002d0 a2 a7 94 be 1b 2d 89 3e 9b 8a 2e 3d a8 35 2b be
       -0.29034144 0.26792225 0.042612653 -0.16719687
0002e0 7a ca 25 be 50 5e ad 3d d9 22 bb 3e f6 e6 82 be
       -0.1619052 0.08465254 0.36550024 -0.25566834
0002f0 6b 55 07 3d b9 4d 9f 3e 60 c4 9a be a9 48 c9 3d
       0.033040445 0.31113985 -0.30227947 0.09828312
000300 04 1e fb 3e cd cd db 3e c5 e2 e1 be 67 e8 4d be
       0.49046338 0.4293045 -0.44118324 -0.20108186
000310 94 87 a2 3d ea 38 b3 3e 09 0e dc bd e3 c9 b4 be
       0.07936016 0.3500436 -0.107448645 -0.35310277
000320 23 10 22 3e fc 0a c9 3e 77 8e 51 be 46 97 b9 be
       0.15826468 0.39266193 -0.20464502 -0.36248225
000330 7c c0 6b 3d 97 93 f0 3e 99 28 f7 be fb 2a 1e 3e
       0.057556614 0.46987602 -0.4827316 0.15446083
000340 cd dd b9 3e 78 18 dd 3a e6 6c 9e be 4a ea 55 be
       0.36302033 0.0016868254 -0.30942458 -0.20890155
000350 22 6e c2 be 08 eb 05 3d 23 1e 9c be f1 d7 a8 3c
       -0.3797465 0.032694846 -0.30491742 0.020610781
000360 d2 20 02 be 30 00 c8 be 54 e9 10 3f 3a 8a 20 3e
       -0.12707832 -0.39062643 0.5660603 0.15677729
000370 ce ce 8c 3e c1 4d a7 3e 5e 2a 89 3e 10 de b5 bd
       0.2750153 0.3267651 0.26790136 -0.08880246
000380 83 83 18 be 72 59 4c be b4 25 be be 3d 57 5e be
       -0.14893918 -0.19955996 -0.3713814 -0.21712966
000390 a0 26 61 be a6 21 1a 3f 32 0a fc be eb 2f ba be
       -0.2198739 0.60207593 -0.49226528 -0.36364684
0003a0 68 f3 e5 be d0 1e cf be 72 65 f9 3e c0 5e cd be
       -0.44912267 -0.40453196 0.4871021 -0.4011135
0003b0 81 51 8c be 3f aa 1f be 52 f7 16 3e 2a 45 48 be
       -0.27405933 -0.15592287 0.14742783 -0.19557634
0003c0 1f be bd be c9 7d fc 3e d4 66 d6 3d ed da 9a be
       -0.37059113 0.49314716 0.10468832 -0.30245152
0003d0 fb 29 50 be 1a fc b9 3e 47 cc 5f 3e c9 98 96 be
       -0.20328514 0.3632515 0.2185527 -0.2941344
0003e0 4f d8 0d be 60 3e ea bd 0d 01 91 3e 8b b8 dd be
       -0.13852046 -0.11437678 0.28321114 -0.43304858
0003f0 86 5a 0f 3f dc 35 44 3d 52 15 5c 3e 96 53 46 3e
       0.559975 0.047902927 0.21492508 0.19367823

net.0.bias f4 [128]
000000 3e a1 95 3e 20 9a be be ec e2 fa 3e f3 d0 c7 be
       0.2922458 -0.37226963 0.49001253 -0.39026603
000010 79 28 fa 3e 3e c3 4a 3e 87 81 a6 bd d2 0e 77 3e
       0.48859003 0.19801041 -0.08130174 0.24126747
000020 06 42 04 3e 5b 3b e5 3e d0 1e 3d bd 05 67 90 be
       0.12915811 0.44771847 -0.046171963 -0.28203598
000030 10 88 76 3d d4 15 ad be 8a b0 c3 3e 91 0b 40 3e
       0.060188353 -0.33805716 0.38220626 0.18754412
000040 70 c6 ec 3e 31 c8 00 be fa 87 06 3e ad c8 49 be
       0.46245146 -0.12576367 0.13137808 -0.19705458
000050 91 fb 7b be 00 fc 69 3c 8a d5 d5 3e 18 02 96 be
       -0.24607684 0.014281273 0.4176448 -0.29298472
000060 05 21 1a 3f 19 20 37 be f9 e3 ec bb 33 93 2a 3f
       0.60206634 -0.17883338 -0.007229325 0.6663086
000070 1f d9 19 3d fe 75 f3 3e 5f f8 91 3d 60 3a fc 3e
       0.03756058 0.47550958 0.07127451 0.49263287
000080 2e a8 59 3e fc 6e b0 be 4e b9 c2 be 7c 5b f6 3e
       0.21255562 -0.34459674 -0.38032 0.48116672
000090 01 25 99 3e 8a 74 35 be 98 e7 e1 bd 10 81 aa be
       0.29911044 -0.17720237 -0.11030501 -0.33301592
0000a0 50 bf cc be 4b 66 85 3e bb 73 eb be 9a 32 a6 bd
       -0.3998971 0.26054606 -0.45986733 -0.0811512
0000b0 2b 99 18 3f be 0c fc 3e f3 80 e4 3e 48 70 80 3e
       0.59608716 0.49228472 0.4462963 0.25085664
0000c0 00 9b d5 be fe 7c eb 3e 74 95 1c 3f b2 15 cd 3e
       -0.41719818 0.459938 0.6116555 0.40055615
0000d0 a2 64 1b 3f e0 f5 f7 be 37 a4 06 bf 70 eb 08 be
       0.6070043 -0.48429775 -0.5259432 -0.13371062
0000e0 24 20 a2 3e 8c fe 07 3f 68 92 2d be 62 23 fa bd
       0.31665146 0.5312278 -0.16950381 -0.1221378
0000f0 d0 f8 05 3f a0 f2 90 bc 06 bf 38 3e 8f 87 10 bf
       0.5233278 -0.017693818 0.1804162 -0.56456846
000100 9b dd be 3d 24 1b c5 3e 4e 00 40 3f 7f 18 46 3e
       0.09319612 0.3849727 0.75000465 0.19345282
000110 f4 65 04 3f 8a 98 66 3e 7b 49 e9 be 5b 81 10 bd
       0.5171807 0.22519127 -0.45563874 -0.035279613
000120 dc 39 90 be 3c f3 e3 3c e3 39 3f be 53 ba 13 3f
       -0.28169143 0.027825944 -0.18674426 0.57706183
000130 d3 5e f5 be 60 ae b1 be aa c9 e9 bd d2 36 31 3f
       -0.47923908 -0.3470335 -0.114154175 0.69224274
000140 cc 78 47 be c3 8a bb 3e 91 d8 d4 3e 43 e9 2b 3f
       -0.19479674 0.36629304 0.41571477 0.67152804
000150 76 11 aa bc a4 9c 81 3e 4a 13 ae be a5 52 01 be
       -0.02076028 0.2531482 -0.3399909 -0.12629183
000160 97 53 fd be 78 f5 e3 be 64 a0 9e 3e d5 26 d2 be
       -0.49477836 -0.44523215 0.30981743 -0.4104525
000170 1b 44 02 3f e3 85 1a 3f a0 16 1d 3e 6b b6 dd 3e
       0.5088517 0.60360545 0.15340662 0.43303236
000180 0f 49 06 bf da 57 7c be 24 85 f8 be 59 63 11 bf
       -0.5245523 -0.24642888 -0.48539078 -0.5679222
000190 0f e5 c0 3e f0 0e 9d 3c 3c e2 31 3f 2e ca 75 be
       0.37674758 0.019172162 0.6948583 -0.24002907
0001a0 59 9b c5 be d0 17 10 bf 4a b8 4d 3e db ec bf be
       -0.38595083 -0.56286335 0.20089832 -0.37485394
0001b0 9d 91 8b 3e 9e 41 14 3f 87 d5 27 3f ca 4d d6 bd
       0.27259532 0.57912624 0.6556019 -0.10464056
0001c0 42 38 c0 be e3 00 c7 be c9 91 0c 3f 51 e7 80 3d
       -0.3754292 -0.38867864 0.5490995 0.0629412
0001d0 f5 d8 2e 3e 11 9a 0f bf dd 88 d9 3e ae ca fa 3e
       0.1707495 -0.5609446 0.4248723 0.48982757
0001e0 23 1a 5c 3e 20 10 d5 bd 94 75 b7 be 0a 33 1c 3e
       0.21494345 -0.10403466 -0.35831892 0.15253845
0001f0 26 d9 2d 3e e3 7f 9e 3e 5f 8b e9 bd 06 6f 21 3f
       0.16977367 0.30956945 -0.11403536 0.63060033

net.2.weight f4 [128, 128]
000000 fa 5e 69 3d 50 79 a3 3c 9c b6 99 bd c0 3b 45 bd
       0.056975342 0.019955307 -0.07505533 -0.048152685
000010 3c a0 fe 3c 62 82 73 bd db d7 ab 3c a8 b3 97 3c
       0.031082265 -0.059450515 0.020976951 0.018518284
000020 fc 82 72 bd 5d b2 ad 3b 10 4c 3b bc 4c 2b 7d 3d
       -0.059206948 0.0053008036 -0.011431709 0.06180887
000030 8c be 9f bc 7f f9 9d 3d 61 2d 96 3d 48 10 f0 bc
       -0.01950004 0.07713603 0.07332874 -0.029304639
000040 ed 28 3a 3c ea 75 e4 bc 8d f4 90 3d 6e 94 2d 3d
       0.0113622965 -0.027888257 0.07077894 0.04237788
000050 00 10 7e 39 e2 f1 5a 3d 4d 59 91 bd 05 66 d9 bc
       0.00024229288 0.053453334 -0.07097111 -0.026537905
000060 10 ce 93 3c d1 7f ab bd 6b 89 a7 3d 00 f5 ed 3b
       0.018042594 -0.083739884 0.08180507 0.0072618723
000070 96 0d 98 3d cb f9 ee bc f8 9b c2 3a 04 b4 c7 bc
       0.07424466 -0.029171845 0.0014847508 -0.02437783
000080 94 4b 23 bd 53 c5 16 bd 3a 64 7a 3d ba 7c 9b 3d
       -0.039867 -0.036809277 0.06113074 0.07592149
000090 e7 0a b6 3c e2 44 3b 3d f6 7b 1d 3d 7e b9 7c bb
       0.022221996 0.04571999 0.038448296 -0.003856271
0000a0 8d bd 86 bd fd 7e a9 3c 74 ce f8 bc 2b 60 f6 3c
       -0.06579123 0.020690436 -0.030371882 0.030075153
0000b0 f8 b0 ac bd c4 7b bc 3b a9 4e 0e bd 95 da ae bd
       -0.084321916 0.0057520587 -0.034742985 -0.08537785
0000c0 8f c9 af bd 97 f8 a3 3d 78 b9 2f bb ee 0b 9c bd
       -0.08583366 0.08006399 -0.002681343 -0.07619463
0000d0 35 8b 64 3c f2 c6 be bc 17 93 59 3d 29 9a aa 3d
       0.013949205 -0.023288224 0.05311879 0.08330185
0000e0 48 1c ba bc 7c 48 65 bd a1 79 4f bd a4 11 14 bd
       -0.022718564 -0.05597733 -0.050653104 -0.036149636
0000f0 45 11 54 bd 29 29 a3 3d 3f 62 0a bd c2 86 3a 3d
       -0.051774282 0.07966835 -0.0337851 0.04553867
000100 e9 8a db 3c 24 f5 8d 3c 52 7e 30 3d 6f 49 99 3d
       0.026799636 0.017328806 0.04308922 0.074847095
000110 ad 1b 11 3d af 32 10 3d ab e2 97 bd 88 56 00 bc
       0.035426784 0.035204586 -0.0741628 -0.007833131
000120 96 7c 42 bb d7 13 86 3d 3e b3 1a 3d 57 c7 8c 3d
       -0.002967631 0.06546753 0.037768595 0.068739586
000130 e3 3b 4e 3d 14 e0 28 bd e8 71 4d 3c 7d 7d ae 3d
       0.05035008 -0.041229323 0.012539364 0.08520029
000140 5e 23 e0 3c 2b 5e 41 3d bc 28 13 3d f2 59 7d bd
       0.027360614 0.047208946 0.03592752 -0.061853357
000150 f2 2f 8d 3c a9 a1 84 bd c1 98 92 3d 02 70 b8 3a
       0.017234776 -0.06476147 0.07158042 0.0014071467
000160 d3 46 8c 3d 03 80 7e bd e4 f5 ac bd 20 65 2d 3c
       0.06849446 -0.0621338 -0.084453374 0.010583192
000170 e9 40 6c bc 2c 2c 40 bd 22 95 30 3d 79 d2 72 bd
       -0.014419773 -0.046917126 0.043110974 -0.059282754
000180 f5 9f 9e 3d a0 b6 b0 bd 89 61 66 3c f6 ae 53 bd
       0.07745353 -0.08628583 0.01406134 -0.051680528
000190 a7 7d 7f 3c eb 58 ab 3d 07 b0 5d bc df 53 89 3c
       0.015593923 0.08366569 -0.013530738 0.016763626
0001a0 ed 79 0e bd 58 d8 4d bd a3 41 9f bd e8 70 24 3d
       -0.034784246 -0.05025515 -0.07776191 0.04014674
0001b0 2d d1 9f bb eb 3b ea 3c 41 10 90 bd 85 62 9e bd
       -0.0048772306 0.028593024 -0.0703435 -0.07733635
0001c0 39 99 a4 bd 6c 8e 60 bd 4c 25 69 bc 96 2d 84 bc
       -0.080370374 -0.054823324 -0.014230084 -0.016135018
0001d0 86 30 1f 3d 0a f6 2d bd 80 36 a9 3d 12 43 33 bd
       0.038864635 -0.04247097 0.08262348 -0.043765135
0001e0 bb 11 b2 bd 33 ef 88 3d 5f 83 78 bd 8b c1 9b 3b
       -0.08694788 0.06686249 -0.06067216 0.0047532967
0001f0 ed 59 03 bd 57 85 b3 bc 8c 4a 85 bb f4 01 b2 bd
       -0.03206818 -0.021914167 -0.0040677246 -0.08691779
000200 4b 32 3e 3d 16 07 6b bd a7 4a c5 3d ca ca 82 bd
       0.04643468 -0.057379805 0.096333794 -0.06386335
000210 67 13 9c bc e9 7c 61 3c 86 ce 0c bd 91 aa 0d bd
       -0.01905222 0.013762691 -0.034376644 -0.034586493
000220 00 63 96 bd 7d 3c 33 bd c0 e4 87 bb 08 bc df bc
       -0.073431015 -0.043758858 -0.004147142 -0.02731134
000230 70 5f 4b bc 50 b6 b8 3c 8a fd 07 bc bd f6 fc bd
       -0.012412891 0.02254787 -0.0083001945 -0.12351749
000240 08 da ef bc 75 d0 dc 3c e1 a3 21 bc 8e 31 2f 3d
       -0.02927877 0.026954869 -0.009865732 0.04277187
000250 80 63 a0 3b a2 84 77 3d 80 e0 93 bd 14 a1 9d bd
       0.004894674 0.060429223 -0.07220554 -0.07696739
000260 85 f5 8b bc 80 42 1c 3a 2c 51 08 3e 1c 79 ac bd
       -0.017084846 0.0005960837 0.13312215 -0.08421537
000270 77 9a 7d bd f9 e2 dc 39 24 03 bd 3c 19 ea 09 bd
       -0.061914887 0.00042130778 0.023072787 -0.03367052
000280 49 d8 0a bd 88 ed 90 bd 08 36 a9 3c db 2e 33 3c
       -0.03389767 -0.070765555 0.020655647 0.010936464
000290 73 75 96 bd 09 69 7b bd 00 ee 85 3b 30 cc d0 bc
       -0.073466204 -0.061379466 0.0040872097 -0.02548799
0002a0 2a 03 8c bd 6e 25 fa 3b b5 3e a6 bd 3f e2 1b bc
       -0.06836541 0.0076338565 -0.08117429 -0.0095143905
0002b0 69 e1 e2 3a b6 e3 83 3d aa e2 e6 3c 4a 11 65 bc
       0.0017309609 0.06439917 0.028184254 -0.013981173
0002c0 e6 22 8b 3d 38 e3 b6 bb 80 50 48 3d ea aa a0 bb
       0.06793766 -0.005581286 0.048904896 -0.004903187
0002d0 a4 d4 74 3c d2 ba cb bd 3d 4c d6 bd f8 6d c8 3c
       0.014943276 -0.099477425 -0.1046376 0.0244665
0002e0 c6 84 fd 3c bd 44 84 3d 32 41 20 bd 81 af f1 3a
       0.0309471 0.06458423 -0.039124675 0.0018439145
0002f0 a0 47 bf 3d 30 55 66 bc bd 71 9b bd 74 70 e3 bc
       0.09339833 -0.014058396 -0.07590053 -0.027763583
000300 cf d5 75 bd 6f cb 5c 3d b4 5f 8a bc 3b 82 b0 3b
       -0.060018357 0.053904947 -0.016891338 0.0053866184
000310 79 61 9a 3d 1f 99 11 bd 00 c2 57 3a c3 55 92 3d
       0.07538123 -0.03554642 0.00082305074 0.07145264
000320 58 85 a1 bd 78 f4 9f 3d fe 42 3c 3d 8e c6 73 bd
       -0.078867614 0.078103006 0.045962326 -0.05951553
000330 cc ce bb bd ca 5f 41 3d 3f b3 23 3d 42 c8 31 bb
       -0.09170303 0.047210492 0.039965864 -0.002712742
000340 ba 84 2b 3d 38 7d 04 3d 2d 82 48 3d f7 37 9a 3c
       0.041874625 0.03234598 0.04895227 0.018825514
000350 ff c8 50 3c b1 2d ad bd d3 5c 45 3d fa 4d 9b 3d
       0.012743234 -0.084559806 0.048184227 0.07583232
000360 90 b4 c8 bc 00 7f e2 bb 5c a5 8a 3b 70 db b0 bb
       -0.024500161 -0.0069121122 0.004231138 -0.0053972527
000370 48 97 65 3d d4 64 5d 3d 55 fe 97 bd 29 e4 33 3d
       0.056052476 0.054051235 -0.07421557 0.043918762
000380 53 62 5e bd 00 bc ce 3c c6 09 0e 3d cd df 2c bd
       -0.054292988 0.02523613 0.03467729 -0.04220562
000390 64 a4 7e 3d 98 61 52 3b 27 1b 1e bd f8 e6 9a 3d
       0.062168494 0.0032101627 -0.038600113 0.07563585
0003a0 ad 8e 7c 3d e3 51 63 3d 9c a0 f7 bc 31 99 bc bd
       0.061659504 0.055498015 -0.030227952 -0.092089064
0003b0 d4 cc 88 bd 61 ce 8b 3d 33 6a 79 3d 9f 0f 5c bd
       -0.06679693 0.06826473 0.060892295 -0.053725835
0003c0 cc ed 0d 3d 72 5a 88 3c 11 aa fd bc 57 22 c6 3b
       0.03465061 0.01664469 -0.030964883 0.006046574
0003d0 da 02 22 bd 3c ff d3 bc 61 d2 1a 3d 85 b0 76 3c
       -0.0395535 -0.025878541 0.03779829 0.015056734
0003e0 f2 7e 75 bd 98 37 b6 3c 68 98 94 bc 2a e7 82 bd
       -0.059935518 0.022243306 -0.01813908 -0.06391747
0003f0 cd d4 bf bd 7a cb ec 3b 69 60 8c bd 5a b0 b3 bd
       -0.093667604 0.0072264047 -0.06854326 -0.08773871

net.2.bias f4 [128]
000000 2b 0e 99 3b 99 84 0d bd bd a2 56 3c 32 38 44 3d
       0.0046708784 -0.034550283 0.013100323 0.047905155
000010 f3 20 0e 3e 6d 67 c7 3c 50 88 4b 3c 2c 94 44 3e
       0.13879757 0.02434131 0.012422636 0.19197148
000020 e7 5e a7 bd b9 75 90 3d 39 e5 f8 bd ea 45 de 3d
       -0.08172398 0.07053704 -0.12153096 0.10853179
000030 8c 66 f0 3d 3b d9 4a bd cf 23 48 3d 26 54 09 3e
       0.11738309 -0.049523573 0.048862275 0.13411006
000040 90 bd d3 bc 93 3c 66 3d 0f ff 91 3c 8a f0 14 bc
       -0.025847226 0.05621011 0.017821817 -0.009090552
000050 d8 cf 0a 3d 21 84 a5 3d 09 8a 9a bd dd 23 de 3d
       0.03388962 0.08081842 -0.07545859 0.10846684
000060 94 56 8c bc 5d c9 4e 3e 61 1d a6 3d 2a 5c b1 bc
       -0.017131127 0.20194001 0.08111072 -0.021650393
000070 06 13 3a bd 23 74 8b bd cb 44 0a be 23 db 87 bd
       -0.0454283 -0.06809261 -0.13502805 -0.06633594
000080 f3 80 04 3d 80 c2 f1 ba 1d 10 b3 bd 37 5f cc 3d
       0.032349538 -0.0018444806 -0.08743308 0.09979098
000090 0b 72 e9 3d 9b 14 26 3e ee 49 b4 3d a7 ed c6 3d
       0.11398705 0.16218798 0.088031635 0.09713297
0000a0 ec 72 c6 3c ab 3b 39 3e 11 59 1f 3c 78 93 4c bd
       0.02422472 0.18089168 0.009725825 -0.049945325
0000b0 27 3b 9b bd b3 1f 2d bc 29 40 46 3e ef 2e 50 3e
       -0.07579642 -0.01056664 0.19360413 0.20330404
0000c0 c4 da 67 bb 3f 3e 90 bd af ec 4c 3d 1d ea 27 3d
       -0.0035378197 -0.070431225 0.050030407 0.040994752
0000d0 bd e3 80 3d dd 27 0d 3d 55 1f f0 3d fe 31 09 bd
       0.06293438 0.034461845 0.11724726 -0.033494942
0000e0 e0 95 ec 3c 7e 79 b3 3d b5 93 95 bd 2a e4 a5 3d
       0.02888006 0.08763407 -0.073035635 0.081001595
0000f0 f0 87 07 3e 66 c0 b5 3d 86 d5 46 3e f2 05 11 3d
       0.1323545 0.08874588 0.1941739 0.03540606
000100 9e 68 12 bd 7f c3 05 3e f2 10 10 3d bd 43 b1 3d
       -0.035744302 0.13062857 0.03517241 0.08655498
000110 05 db b2 3d 2a 94 27 3d cd 2a e4 bc bc e4 d2 bb
       0.08733181 0.040912785 -0.02785244 -0.0064359587
000120 c3 b8 32 3d 56 30 08 be 48 6a c2 3c a9 33 c7 3d
       0.043633234 -0.13299689 0.02373232 0.0972665
000130 7b 41 71 bc a7 35 78 3e 4d 7c 6f bd 54 f5 ac bd
       -0.014725084 0.24239217 -0.05846815 -0.0844523
000140 00 77 e9 39 2d 0e 07 be 29 e3 9d 3d fe a5 9c bd
       0.00044529885 -0.13189001 0.07709343 -0.07648848
000150 11 a4 d4 bd bc e3 c4 3c 1f 6b f0 bd 8c e3 94 bd
       -0.10382856 0.024034373 -0.11739182 -0.072699636
000160 c8 c7 2a 3e c5 d0 92 3d 1a ee b0 bd a1 dd 1d 3e
       0.16677773 0.07168726 -0.08639164 0.15416576
000170 50 3d ac bd 4b 8c 8d 3d 0d 4d 5d bd 08 1d 4f bd
       -0.08410132 0.069115244 -0.05402856 -0.050564796
000180 f7 95 02 be 6e 93 3c 3e d0 7d 57 3e 55 13 33 bd
       -0.1275252 0.18415615 0.21044087 -0.04371961
000190 aa 83 a4 3d f0 2a 13 be ad 16 4e bd d3 5f ff 3c
       0.080329254 -0.14371848 -0.050314594 0.031173622
0001a0 16 9a 4c 3e 32 be c5 3d 34 1e 05 bd 15 96 37 bd
       0.19980654 0.096554175 -0.032499507 -0.044820864
0001b0 15 97 5c 3e 8d 8c bc 3d c0 0d ee bd a3 e0 51 3e
       0.21542008 0.092064954 -0.11623716 0.20495848
0001c0 40 83 94 3a bd b1 b4 bd 7e cd 50 bd 18 48 60 3d
       0.001133062 -0.088229634 -0.050977223 0.054756254
0001d0 3f 0c d4 bc 38 37 5d 3c 2f 19 04 bd 92 67 3f 3d
       -0.025884746 0.013501935 -0.03225058 0.04672963
0001e0 93 ae e4 3d 02 61 a7 3d 79 b6 a0 bd 69 d6 93 bd
       0.1116611 0.081728 -0.07847304 -0.0721863
0001f0 ba e4 9d 3d b7 49 88 3d 9d e1 a7 3d 2e b5 bc 3d
       0.07709642 0.06654685 0.08197329 0.09214245

net.4.weight f4 [2, 128]
000000 94 14 7c 3d 73 99 1b 3c b4 64 11 bd a7 ac 97 bd
       0.061543062 0.009497034 -0.03549643 -0.07405978
000010 8b 63 60 bd 7a cc 1e bd 03 5b 1c bc 0a 28 0d be
       -0.05478243 -0.038769223 -0.009543183 -0.13784805
000020 d3 69 06 bd 24 ad a8 3d 5c a7 bb 3d 37 5f 4b be
       -0.032815766 0.08236149 0.09162781 -0.1986054
000030 e9 41 0c be 1f 55 c7 3d 3f 7d bb bd c7 61 da bd
       -0.13697018 0.097330324 -0.09154748 -0.10663181
000040 b6 fe 37 3d a3 ab 0e bc f3 61 10 3d 39 3d 88 bd
       0.044920646 -0.008707914 0.03524966 -0.06652302
000050 95 61 33 bd 0a 4e f5 3d ee 9a 99 bc f1 7d 14 be
       -0.043794233 0.119777754 -0.018750634 -0.14501168
000060 58 f6 3d 3d 10 d5 c4 bd 0c 09 46 bd 44 72 8b bc
       0.04637751 -0.09610951 -0.04834847 -0.01702226
000070 83 0f 89 3d c6 9a 29 3c 42 08 6b 3c d6 20 cc 3c
       0.06692412 0.010351842 0.014345231 0.024918001
000080 f8 56 51 bb 48 df a7 bd 3a a9 97 3c bb ec 06 bd
       -0.0031942707 -0.081968844 0.01851331 -0.032940608
000090 9b d4 d2 bd 33 3f 29 be a7 70 20 3d 07 3f 3e bd
       -0.102944575 -0.16528015 0.039169934 -0.046446826
0000a0 c0 1e a3 3c b0 3f a9 bd 5b 1f a3 3d ba fd 71 3b
       0.019912124 -0.082641006 0.07964965 0.0036924914
0000b0 3e e4 00 3d 99 62 b8 3d f7 0c 01 be 18 bc d6 bd
       0.03146767 0.09003181 -0.12602602 -0.10485095
0000c0 ca d6 34 3d 44 6b 83 3d 3a ee aa 3d df 53 9e bd
       0.04415015 0.06416944 0.08346219 -0.07730841
0000d0 5a 50 07 bd 73 12 72 bd 41 ad 24 be 2e ad e2 3c
       -0.033035614 -0.059099626 -0.16081716 0.02767047
0000e0 be a9 36 bc 22 85 f7 bd e7 b8 c4 bc 4b d8 0a bd
       -0.011148868 -0.1208594 -0.02401395 -0.03389768
0000f0 de d1 30 be 7f f6 0c be 89 44 18 be 49 03 b0 3d
       -0.17267558 -0.13765906 -0.14869894 0.085943766
000100 21 62 09 bd 29 db 09 be ef f0 0e bc 19 42 dd 3c
       -0.03354085 -0.13462509 -0.008724435 0.027009057
000110 00 a3 68 3c e0 dc 0c be e2 13 5e 3d b5 26 28 3d
       0.0141990185 -0.13756132 0.05421818 0.04105254
000120 51 fe de bd 60 b9 3d 3d c1 90 8d 3d 5d 9a b3 bd
       -0.10888351 0.046319366 0.06912375 -0.08769677
000130 a3 d4 2d bc 87 79 0b be be ce a8 bd 14 40 dc 3c
       -0.010609779 -0.13620578 -0.08242558 0.026886024
000140 59 f3 a7 3d af 40 af 3d c0 ac ff 3a 1b c7 b6 3d
       0.08200712 0.08557259 0.001950644 0.08924695
000150 4d 37 40 3d 30 9d c6 ba 09 3e c7 3d 09 0b 08 3e
       0.04692774 -0.0015153047 0.09728629 0.1328546
000160 ca d1 0b be ca 91 6d bc fa 25 d1 3b 3d 37 31 bd
       -0.13654247 -0.014500091 0.006382701 -0.04326557
000170 77 db 0e 3d 67 8a 7c bd 12 84 ef bc 45 b9 0f 3d
       0.034877267 -0.06165543 -0.02923778 0.035088796
000180 40 15 d0 3d b3 ed b3 bd 7a f0 3e be bf 03 5a 3d
       0.10160303 -0.08785572 -0.18646422 0.05322623
000190 f5 37 83 bd 05 4b be 3d 1d 47 45 3d c2 b2 64 bb
       -0.06407157 0.092916526 0.048163522 -0.0034896587
0001a0 42 a7 af bd f8 30 10 3c ce ec 21 3d 14 1f 48 3d
       -0.08576824 0.008800738 0.039532475 0.048857763
0001b0 a2 d6 92 bd a5 9a 05 be 98 1c 23 bc a1 c2 0d be
       -0.07169844 -0.13047273 -0.009955548 -0.13843776
0001c0 dc c9 aa bd 19 ae 3a bd 8d 01 52 bd 25 99 14 be
       -0.08339283 -0.04557619 -0.05127101 -0.14511545
0001d0 50 79 82 bc 30 11 ba 3b e6 e4 5e 3d d4 a3 f4 3d
       -0.015926987 0.0056783184 0.054417513 0.1194531
0001e0 4d f1 bd bd 8d 51 cf 3c cf 2d fd 3c f0 89 a4 3b
       -0.0927454 0.025307441 0.030905632 0.0050213262
0001f0 15 10 ed bc 47 bb eb 3c ec c9 a4 bd 5a 89 0b be
       -0.028938333 0.028775824 -0.08046326 -0.13626614
000200 bd 3f 24 bd 22 18 e1 bd cb fd 12 bd 2d 21 84 3d
       -0.040099848 -0.10990931 -0.035886567 0.0645164
000210 a2 58 bc bd 93 fd 07 be 8d ac 84 bd 03 45 9b bd
       -0.09196593 -0.13280325 -0.06478224 -0.07581522
000220 8e 54 2c 3d b3 65 85 3d 02 5e f7 3d ec 62 03 be
       0.042072825 0.06513538 0.120784774 -0.12830704
000230 19 59 04 be ea 9c 06 3c 43 83 11 be b5 0d dd bd
       -0.12924613 0.008216122 -0.14210229 -0.1079363
000240 d0 63 e3 3c fc bb 93 3d ee 2d e1 bd 15 fd 9c 3b
       0.027757555 0.072135895 -0.109950885 0.004790912
000250 08 59 3a 3d cf 51 95 3d 10 3b 8e 3d bb 26 b9 bd
       0.045495063 0.072909944 0.06944859 -0.090405904
000260 a6 c8 38 bc f4 8a da bd 81 cf 06 be 1b 61 6b bd
       -0.011278307 -0.106710345 -0.13165094 -0.057465654
000270 49 68 bb 3b 1d 1e 99 3d a2 4b 1d 3d d2 ba 86 bd
       0.005719219 0.07476447 0.038402207 -0.06578602
000280 87 f0 ac 3d 3f c5 9a bd e3 b0 ab 3d 29 77 ec bd
       0.084443145 -0.07557153 0.08383348 -0.115461655
000290 7a 01 bf bd 36 df 3f be bd b6 fd bd d2 fa 14 3d
       -0.093264535 -0.18737492 -0.1238837 0.036372013
0002a0 19 bb 93 bd aa 45 25 be 78 41 7c 3d 79 43 b7 3d
       -0.072134204 -0.16139856 0.061585873 0.08948416
0002b0 00 61 39 3a 2c cc 7c 3d 36 51 26 be d9 19 b1 bd
       0.0007071644 0.06171815 -0.16241917 -0.08647508
0002c0 c3 79 e5 bd 69 e4 88 3d 73 fc 72 3d 87 20 1b 3c
       -0.11204865 0.06684191 0.059322786 0.009468204
0002d0 e5 53 e9 3c 53 61 d6 3d 0d d2 03 be 4b 38 07 be
       0.028482387 0.10467782 -0.12873097 -0.13205068
0002e0 e1 3b 70 3d 67 8d e1 bd 6e 04 b4 3d 71 48 e5 bd
       0.058650855 -0.110132985 0.087899074 -0.11195458
0002f0 f7 e0 00 be 2f e9 b4 bd 61 c7 ba bd 52 59 19 bd
       -0.12585817 -0.08833539 -0.0912006 -0.037438698
000300 11 64 c2 3d 3c a4 ba bd 16 fe c2 bd 5b f6 eb bd
       0.094917424 -0.091133565 -0.09521119 -0.11521598
000310 88 7a c3 bd 44 fb 0f be 97 8d 85 3d 7e 71 39 bd
       -0.09544855 -0.14060694 0.06521147 -0.04527425
000320 4d 90 01 be 56 7f db 3d 18 3d 4b bc 6a 84 eb bd
       -0.12652703 0.10717647 -0.012404703 -0.11499865
000330 21 8f 8e bd 77 81 c2 bd c4 b9 91 bd ba db 37 3d
       -0.069608934 -0.0949735 -0.0711551 0.044887282
000340 80 57 29 bd cd 29 0f 3d 0e 51 4d 3d e9 8b c2 3d
       -0.041343212 0.034951974 0.050126128 0.09499342
000350 27 00 f1 3d 01 7a 28 3d df e3 eb 3d 6c 20 88 3c
       0.11767607 0.041131977 0.11518072 0.016617022
000360 1e fb 2a be f4 90 fd 3c 98 a9 03 3c 12 58 fb bd
       -0.16697356 0.030952908 0.00803604 -0.122726575
000370 f5 29 3f bd b2 46 02 3d 33 81 9b 3d 07 1b b0 3d
       -0.046670873 0.0318057 0.07593002 0.08598905
000380 1f 54 94 3d ea 53 0a be 9e cd a7 bd 7f 4c cd 3d
       0.07242607 -0.13508573 -0.08193515 0.10024356
000390 4c de b0 3c 34 22 74 3d 30 e5 03 3d 0a 4b 87 3d
       0.021590374 0.05960293 0.032200992 0.066061094
0003a0 89 be a9 bd 0d 07 99 bd 92 00 e4 bc 32 ae 88 3d
       -0.08288295 -0.07472048 -0.027832303 0.0667385
0003b0 24 a0 2f bd 45 23 8f bc 75 68 cb 3d 2b 7e cc bd
       -0.04287733 -0.017472873 0.09932033 -0.09985002
0003c0 32 98 37 3d ce 60 ad bd a0 b5 95 3d 3e ba ec bd
       0.04482288 -0.0846573 0.07310033 -0.115589604
0003d0 3a b7 3c 3d 42 64 22 3d 87 10 31 bd 06 da 8b 3d
       0.046073176 0.039646395 -0.043228652 0.06828694
0003e0 ce 5b 8c bd 47 2d 2a 3d fe 26 7f 3d f4 31 98 bc
       -0.06853448 0.041547086 0.062293045 -0.018578507
0003f0 85 82 d2 bd a0 98 13 3c 4f 7e 12 be 87 62 de bd
       -0.10278801 0.009008557 -0.14305995 -0.10858636

net.4.bias f4 [2]
000000 20 c1 da bd 31 04 e1 bd
       -0.10681367 -0.109871276
