temp/stability05.pth (torch, 72325 bytes, 6 tensors)

net.0.weight f4 [128, 3]
000000 be 9a 06 bc bf 98 f4 be 70 d2 92 bd 20 95 3f bd
       -0.008215604 -0.47772786 -0.07169044 -0.046773076
000010 ef 38 08 bf 38 ba e8 3e d1 f5 47 3e 82 d2 ec 3e
       -0.53211874 0.45454574 0.19527365 0.46254355
000020 dc 0e 01 bf 89 c6 97 be 4c 2f 14 3e d8 bc a2 3b
       -0.504133 -0.29643658 0.14471167 0.0049663596
000030 15 05 88 be f2 61 dc 3e ea 67 75 3e 42 69 f6 bc
       -0.26566377 0.43043476 0.23965421 -0.030079488
000040 70 08 0d 3f 52 c7 10 bf e0 7c 05 bf d2 47 02 3e
       0.55091 -0.5655414 -0.5214367 0.1272271
000050 ba 1a 09 3f 42 b9 b1 3e 1e 54 a5 be 8a fb ce 3e
       0.53556406 0.34711653 -0.3229074 0.40426284
000060 5c 68 a8 3e 06 b5 d5 3c 8e b2 b4 3e 5e 28 11 3e
       0.3289212 0.026087295 0.35292476 0.14175555
000070 a6 88 8d 3d 4c bb d0 bd 72 0c 9d be f6 55 ba be
       0.06910829 -0.10191974 -0.30673558 -0.36393708
000080 48 6f 9b bd 6a 28 ca be 39 e1 82 3e 7c 2e 31 3e
       -0.075895846 -0.39483958 0.25562456 0.17302889
000090 46 1b 10 bf a8 6f d9 be a6 3f d3 3e fc f7 9a be
       -0.56291616 -0.42468 0.41259497 -0.30267322
0000a0 00 20 c3 bb 37 56 bd be 11 d9 7a bd a5 4c 8c 3e
       -0.0059547424 -0.3697984 -0.061242167 0.27402225
0000b0 19 41 08 3e 83 a7 99 3e 5a 2b 11 3d 0b fa 97 be
       0.13306083 0.30010614 0.035441734 -0.29682955
0000c0 6f 11 a7 3c 6c 9d af 3e a6 b6 08 3e a9 d5 13 3e
       0.020394055 0.3429979 0.13350925 0.14436974
0000d0 23 43 d1 3d df e3 eb 3e 34 64 a4 3e b7 f8 12 3c
       0.102178834 0.4607229 0.321077 0.008970431
0000e0 1d a5 bc bd 58 ef f9 3e 0e cd 8b be 88 28 a4 be
       -0.0921118 0.48815417 -0.27304882 -0.32062173
0000f0 ef 3b 52 3e 31 c3 98 be d7 29 f9 be cd 5e ef be
       0.20530675 -0.2983642 -0.48664734 -0.46752015
000100 e8 c8 11 3e 22 c2 b9 be 3b 0d 05 3f b5 89 ae 3d
       0.14236796 -0.36280924 0.51973313 0.08522359
000110 3a 7c f3 bd b2 42 b5 be 89 72 24 be 05 e7 03 3f
       -0.11888929 -0.35402447 -0.16059317 0.5152438
000120 b9 b4 83 be 4f 24 b7 be 5d 71 a7 3e e1 9a 63 3e
       -0.25723818 -0.3576989 0.32703677 0.2222705
000130 bc 68 c6 be c5 18 3f be 95 45 05 3f f9 32 78 be
       -0.3875178 -0.18661793 0.520593 -0.24238195
000140 9d b2 7a 3e 69 73 ed bd cf 86 b4 be 84 f1 a8 be
       0.24482198 -0.11594278 -0.352591 -0.32996762
000150 b3 6f f0 3e 08 30 2b 3e d3 c4 19 3e 02 b7 5e 3e
       0.4696022 0.16717541 0.15016489 0.217495
000160 40 29 5d 3e 42 ec bd 3e 6b 81 ef 3e 60 28 df 3e
       0.21597767 0.37094313 0.46778426 0.4358549
000170 b7 e4 30 3e 99 13 02 3e 6e e7 6c 3e 8e 3e b8 be
       0.17274748 0.12702788 0.23135158 -0.35985225
000180 f3 55 96 3e 7f 73 16 3e f6 6e 81 3e 88 e2 11 be
       0.2936245 0.14692496 0.2527997 -0.14246571
000190 83 d8 fc 3e 0f fc a9 3d b0 22 0c be 20 b0 85 bc
       0.49383935 0.083000295 -0.13685107 -0.016319335
0001a0 be f9 6b be 16 15 91 bd a8 90 f6 3e 1c d5 35 3e
       -0.23044488 -0.070841 0.4815724 0.17757076
0001b0 d9 e0 27 bd dc 1e 81 3c 80 e0 f6 3d 4a 98 aa be
       -0.040985916 0.015761785 0.12054539 -0.33319312
0001c0 f3 e9 9e be 6e d1 03 3f 00 30 4e 3b e4 f4 2f 3e
       -0.31037864 0.5149144 0.0031461716 0.17183262
0001d0 81 08 88 be 1e 49 d9 be 9e f0 ff 3d 28 cb a4 3e
       -0.26568988 -0.42438596 0.12497066 0.32186246
0001e0 66 35 0b bf d8 2d 12 bf 1c 2c 45 be 0d d4 c8 3e
       -0.54378355 -0.571012 -0.19255108 0.39224282
0001f0 9f 88 fb be f3 9c f3 3e fd a9 0e 3f 43 4d 0e bd
       -0.4912767 0.4758068 0.5572813 -0.03474165
000200 2c 14 58 3c 2c 53 f2 bc cb 6b 10 3f 0d 10 8f 3d
       0.013188403 -0.029580675 0.5641448 0.06985483
000210 f1 35 33 3e 54 ad f0 bd 71 68 9f 3d 8f c8 c5 bd
       0.17501046 -0.1175181 0.077835925 -0.09657394
000220 79 ce 1f 3d 3e c9 98 bd 82 33 04 3e 93 5b 3d 3e
       0.039015267 -0.07460259 0.12910274 0.18491964
000230 46 72 bf be 94 1f cf 3e e7 a5 9d 3e 5b c3 c9 3e
       -0.3739187 0.4045378 0.30790636 0.39406857
000240 cb bc e3 3e 71 eb 26 3e d6 a5 a7 3e b7 cd 9f 3e
       0.44479975 0.16300751 0.3274371 0.31211635
000250 9e 63 ab 3e 75 42 b8 be c0 fe 9b 3e 78 6b 53 bd
       0.3347444 -0.35988203 0.30467796 -0.051616162
000260 99 5c 57 3e 80 d7 7d 3e cd ac a3 be 05 4f 05 bd
       0.21031417 0.24789238 -0.31967774 -0.032546062
000270 50 03 60 be 77 c1 27 be 9b f4 30 3e c9 9f 46 3e
       -0.21876264 -0.16382395 0.1728081 0.1939689
000280 8a 34 fb 3e 70 83 c6 be a9 74 59 3e 2f b6 02 3f
       0.49063522 -0.38772154 0.21235909 0.5105924
000290 7d 02 d1 be 30 82 de be 84 48 0e 3e f0 f3 6f be
       -0.4082221 -0.434587 0.1389485 -0.23432899
0002a0 4b e1 35 3e a1 44 3d be 38 8d 39 3e 71 e7 cd be
       0.17761724 -0.18483211 0.18120277 -0.40215638
0002b0 46 26 eb 3e d6 25 c3 be 70 a1 07 bf 8e 18 99 be
       0.45927638 -0.38114804 -0.5298071 -0.29901546
0002c0 80 e5 48 3c 5d 0d 12 3f ac 43 ea 3d 92 d8 fc bd
       0.012261748 0.5705164 0.11438689 -0.12345995
0002d0 5b 96 ab be 26 9a 88 3e 78 09 30 3d a8 35 2b be
       -0.3351315 0.26680106 0.04297778 -0.16719687
0002e0 7a ca 25 be 50 5e ad 3d e5 c0 bd 3e 73 b1 85 be
       -0.1619052 0.08465254 0.3706123 -0.26111946
0002f0 b8 1b 5a 3d 02 c8 99 3e 84 d4 8a be c8 0e db 3c
       0.05324909 0.30035406 -0.27115262 0.026740447
000300 a3 41 fc 3e cb 08 d6 3e 71 ea f1 be 59 31 78 be
       0.49268827 0.41803584 -0.47249177 -0.24237575
000310 65 c1 9e 3d 57 04 b3 3e 3f 6b f6 bd cb f9 c2 be
       0.07751731 0.3496425 -0.12032174 -0.38081202
000320 4d 43 38 3e 7e b6 ca 3e 9c 81 53 be a0 1d a7 be
       0.17994423 0.39592355 -0.20654911 -0.3263979
000330 8d 24 6d 3d 40 1a f1 3e 12 fe f5 be a8 23 1e 3e
       0.057896186 0.4709034 -0.48045403 0.1544329
000340 fb 82 b9 3e b8 6b e3 3b e6 6c 9e be 4a ea 55 be
       0.36232743 0.0069403313 -0.30942458 -0.20890155
000350 22 6e c2 be cc 5e 34 3d 47 4d 56 be c7 61 82 3d
       -0.3797465 0.044035718 -0.20927916 0.06366306
000360 d2 20 02 be 8f d6 cb be 76 b7 0e 3f 91 e2 1f 3e
       -0.12707832 -0.39812133 0.5574869 0.15613772
000370 5b 22 8f 3e 74 1f aa 3e 0b 6a 87 3e 43 26 86 bd
       0.279559 0.33227122 0.26448092 -0.065502666
000380 d6 73 11 be fe 8f 85 be a6 96 cc be c6 e4 80 be
       -0.14204344 -0.2608642 -0.39958686 -0.2517454
000390 a0 26 61 be dd 0f 18 3f e6 97 00 bf eb 2f ba be
       -0.2198739 0.59399205 -0.5023178 -0.36364684
0003a0 68 f3 e5 be d0 1e cf be c3 a4 f6 3e 48 f7 c6 be
       -0.44912267 -0.40453196 0.48172578 -0.38860536
0003b0 21 f5 a2 be 88 04 2a be 8b c3 18 3e e9 d6 42 be
       -0.31827644 -0.16603291 0.14918344 -0.19027294
0003c0 46 d4 c4 be 78 fd f9 3e fc 23 cc 3d ad d3 ad be
       -0.38443202 0.48826194 0.09967801 -0.33950558
0003d0 8d 67 56 be d4 74 b8 3e b0 b3 63 3e 04 2c 90 be
       -0.20937939 0.36026633 0.22236514 -0.2815858
0003e0 e8 44 8b bd 3c 32 02 be 0a 9e a2 3e f6 67 c1 be
       -0.06800252 -0.12714475 0.317612 -0.37774628
0003f0 8e 6d 0f 3f c7 15 46 3d 9b a5 5d 3e 75 94 46 3e
       0.5602654 0.048360612 0.21645205 0.1939257

net.0.bias f4 [128]
000000 c4 e3 96 3e 20 9a be be 40 27 f5 3e 84 73 bc be
       0.29470646 -0.37226963 0.47881508 -0.3680688
000010 54 af eb 3e 16 16 41 3e 5c 90 62 bd c1 2f 65 3e
       0.46032202 0.18856081 -0.055313453 0.22381498
000020 5e e1 e8 3d 6d c5 df 3e d0 1e 3d bd bd f0 81 be
       0.113711104 0.4370531 -0.046171963 -0.2537898
000030 10 88 76 3d d4 15 ad be ec 55 c2 3e e5 31 3b 3e
       0.060188353 -0.33805716 0.37956178 0.18280752
000040 25 90 ec 3e 77 f2 b5 bd 1c ae 12 3e f4 05 4b be
       0.46203724 -0.08884137 0.1432423 -0.1982649
000050 a3 e1 90 be 00 fc 69 3c 0e 21 d6 3e fc be 8a be
       -0.28297147 0.014281273 0.41822094 -0.27098835
000060 25 db 1c 3f 64 71 63 be 98 dc 36 bc 55 56 2a 3f
       0.6127189 -0.22211224 -0.011160992 0.6653798
000070 0b b5 f4 3c 55 82 e7 3e 81 7e 96 3d c9 ec fd 3e
       0.029871484 0.45216623 0.073483475 0.49594715
000080 07 7d 1a 3e c1 02 a4 be 4e b9 c2 be 88 5f ee 3e
       0.15086757 -0.3203335 -0.38032 0.4655726
000090 a7 ac 91 3e 0d a2 12 be 98 e7 e1 bd 2d 78 9b be
       0.28452036 -0.1431963 -0.11030501 -0.30365124
0000a0 50 bf cc be da 67 81 3e 93 ae e2 be 34 38 8f bb
       -0.3998971 0.25274545 -0.44273815 -0.0043707136
0000b0 08 7e 16 3f 68 34 f9 3e 51 f5 e4 3e f2 eb 77 3e
       0.5878606 0.48672795 0.44718412 0.242111
0000c0 65 c2 c6 be da a9 e6 3e 58 3e 1a 3f 88 c7 cf 3e
       -0.38820186 0.4505146 0.6025138 0.40581918
0000d0 8e 4c 1a 3f 37 db ed be 75 a8 02 bf 70 eb 08 be
       0.60273063 -0.4645631 -0.51038295 -0.13371062
0000e0 f3 de 9d 3e e1 f8 02 3f 68 92 2d be df 84 04 be
       0.3083416 0.5116101 -0.16950381 -0.12941311
0000f0 d3 37 f7 3e a0 f2 90 bc 40 ad 3a 3e d6 20 13 bf
       0.48284778 -0.017693818 0.18230152 -0.5747198
000100 7a d3 86 3d 67 8f b8 3e 64 30 3f 3f 0e 81 46 3e
       0.06583305 0.36046907 0.74683213 0.19385168
000110 dd f8 00 3f f1 bf 5d 3e 7b 49 e9 be 77 c8 91 bd
       0.50379735 0.21655251 -0.45563874 -0.07118314
000120 c6 f5 85 be 2c 42 1d 3d 64 29 40 be 7c 27 0a 3f
       -0.26164073 0.038393185 -0.1876579 0.539665
000130 a1 55 e8 be 60 ae b1 be 8a 09 0d be 95 a2 2d 3f
       -0.4537783 -0.3470335 -0.1377317 0.67826205
000140 76 6b 34 be 82 77 a2 3e 7c 8a d2 3e bc 75 2f 3f
       -0.17619118 0.31731802 0.4112128 0.68539023
000150 35 71 f1 bc 23 62 79 3e 1c de a8 be e7 39 c3 bd
       -0.029472927 0.24353842 -0.32981956 -0.09532528
000160 97 53 fd be bf 17 ff be 26 9b 96 3e 13 f0 d9 be
       -0.49477836 -0.49822804 0.29415244 -0.42565975
000170 d2 c4 fa 3e 04 3c 18 3f 34 9a 47 3e a0 3f d8 3e
       0.48978287 0.59466577 0.19492418 0.42236042
000180 0f 49 06 bf e7 b7 86 be 77 11 f0 be a6 39 0f bf
       -0.5245523 -0.2631218 -0.46888325 -0.5594734
000190 7e b8 ba 3e fa 81 52 3d 94 9f 2d 3f 63 ad 5b be
       0.3646888 0.051393487 0.6782162 -0.2145286
0001a0 70 5a cd be b7 6e 0f bf 19 33 41 3e bb 09 b8 be
       -0.4010806 -0.5602831 0.18867148 -0.35944924
0001b0 c5 5d 83 3e 94 dd 0f 3f 6e e8 26 3f 28 7c 92 bd
       0.25657478 0.56197476 0.6519841 -0.07152587
0001c0 42 38 c0 be b6 9f bc be c8 4e 08 3f 48 46 c0 3d
       -0.3754292 -0.368406 0.5324521 0.09388405
0001d0 20 8d fd 3c 11 9a 0f bf cf 50 bb 3e fb 57 f9 3e
       0.030951083 -0.5609446 0.3658509 0.48699936
0001e0 ea 63 57 3e 20 10 d5 bd d4 90 b6 be 68 23 10 3e
       0.21034208 -0.10403466 -0.3565737 0.14076006
0001f0 1d a8 2d 3e 8a bd 9d 3e 15 e2 b5 bd 70 3b 24 3f
       0.16958661 0.3080867 -0.08881012 0.64153194

net.2.weight f4 [128, 128]
000000 fa 5e 69 3d 50 79 a3 3c a1 15 ef bd 77 77 0f bd
       0.056975342 0.019955307 -0.11674047 -0.03502604
000010 a3 41 0d 3d 9c 5e 9f bd 3e ce d6 3c a8 53 bf 3c
       0.034486424 -0.07781717 0.02622139 0.02335532
000020 57 5f 5e bd 93 41 46 3b 10 4c 3b bc 88 86 8b 3d
       -0.054290142 0.0030251488 -0.011431709 0.06812769
000030 8c be 9f bc 7f f9 9d 3d 0a 49 9c 3d 48 10 f0 bc
       -0.01950004 0.07713603 0.076311186 -0.029304639
000040 b9 0b 69 3c c3 87 b7 bc 13 5f ae 3d 6e 94 2d 3d
       0.014223986 -0.022403603 0.08514228 0.04237788
000050 00 10 7e 39 e2 f1 5a 3d 2b ae 76 bd 32 41 98 bc
       0.00024229288 0.053453334 -0.060224693 -0.018585775
000060 0a e7 9b bc d1 7f ab bd d7 76 dd 3d 00 f5 ed 3b
       -0.019031066 -0.083739884 0.108136825 0.0072618723
000070 52 a1 a2 3d 55 37 d3 bc 7c 0b ca 3b 76 21 86 3d
       0.07940926 -0.02578322 0.00616592 0.06549351
000080 48 49 11 bd 66 54 fc bc 3a 64 7a 3d 95 1c a2 3d
       -0.035470277 -0.030801963 0.06113074 0.07915608
000090 b0 a6 c4 3c d2 8a 60 3d f6 7b 1d 3d 26 a6 43 3b
       0.024005264 0.05481989 0.038448296 0.002985367
0000a0 8d bd 86 bd eb ba 8e 3b 74 ce f8 bc b9 33 0e 3d
       -0.06579123 0.0043557785 -0.030371882 0.034717295
0000b0 f6 46 e0 bd de 69 51 bd d8 9f 29 3d eb 06 a6 bd
       -0.10951035 -0.051126353 0.041412205 -0.08106788
0000c0 be de a0 bd c6 d0 70 3d 54 86 6c bb ee 0b 9c bd
       -0.07854985 0.058792852 -0.0036090808 -0.07619463
0000d0 0d 21 a1 3a 7f d9 a0 3b 4e ae fb 3d 29 9a aa 3d
       0.0012293175 0.00490874 0.12289105 0.08330185
0000e0 5b 20 51 bd 8f 59 77 bd a1 79 4f bd fd f1 3c bc
       -0.051056247 -0.060388144 -0.050653104 -0.011532304
0000f0 58 1e 4d bd 29 29 a3 3d 3f 62 0a bd c2 86 3a 3d
       -0.050077766 0.07966835 -0.0337851 0.04553867
000100 d3 db a1 3d 51 97 a9 3c d2 fc 08 3c 6f 49 99 3d
       0.07903256 0.020702036 0.008361058 0.074847095
000110 cf 68 a9 3c 00 ef 1e 3d ab e2 97 bd 88 56 00 bc
       0.02067986 0.038802147 -0.0741628 -0.007833131
000120 7a 3c 58 3c 05 58 90 3d 3e b3 1a 3d 57 c7 8c 3d
       0.0131980125 0.070480384 0.037768595 0.068739586
000130 df f6 cb 3d 14 e0 28 bd e8 71 4d 3c b3 0a 64 3d
       0.09959196 -0.041229323 0.012539364 0.055674266
000140 41 b3 05 3d 47 3d 4b 3d bc 28 13 3d b3 ec 25 bd
       0.032641653 0.049618986 0.03592752 -0.040508937
000150 aa 9f be 3c be a0 7f bd a3 c2 d4 3d c7 35 e7 3b
       0.023269493 -0.062409155 0.103886865 0.0070559713
000160 d3 46 8c 3d 03 80 7e bd 62 76 b0 bd 20 65 2d 3c
       0.06849446 -0.0621338 -0.0861633 0.010583192
000170 25 99 79 bc ac f9 04 3c bb 2f 41 3d c7 94 81 bd
       -0.015234266 0.008116167 0.04716466 -0.06327205
000180 f5 9f 9e 3d a0 b6 b0 bd 9c 8d b8 3c f6 ae 53 bd
       0.07745353 -0.08628583 0.022528462 -0.051680528
000190 39 32 9b 3c 46 f4 b4 3d a9 0e 45 bc a7 96 b5 3c
       0.018944846 0.08835654 -0.012027421 0.022166563
0001a0 ed 79 0e bd 41 04 1e bd f9 c9 7c bd 21 a7 77 3d
       -0.034784246 -0.038578276 -0.061716054 0.06046212
0001b0 ac 1f 40 bc 75 4b e2 3c 3f 65 90 bd 86 b5 93 bd
       -0.011726301 0.027623871 -0.07050561 -0.07212357
0001c0 39 99 a4 bd 16 13 47 bd aa 71 4b bc 70 8a 34 bc
       -0.080370374 -0.048602186 -0.012417236 -0.011019334
0001d0 86 30 1f 3d 0a f6 2d bd 9b e1 af 3d b9 60 25 bd
       0.038864635 -0.04247097 0.08587953 -0.040375445
0001e0 23 7d b4 bd 33 ef 88 3d e9 f9 60 bd 15 c4 1c 3c
       -0.088129304 0.06686249 -0.054925833 0.009568234
0001f0 e9 e2 98 3d 55 7e a0 bc 43 65 16 3b 8c 6e ac bd
       0.07465155 -0.01959149 0.002294854 -0.08419523
000200 fd 37 12 3e 16 07 6b bd 56 f9 bb 3d 49 2a 8f bd
       0.1427917 -0.057379805 0.091784164 -0.06990487
000210 4e 69 5f bc fc 13 e9 3c 06 18 14 bd 6b ee 88 bc
       -0.013635946 0.028451912 -0.036155723 -0.016715249
000220 0d c3 90 bd e3 bd b0 3c c0 e4 87 bb a9 e8 f5 bc
       -0.07068453 0.02157492 -0.004147142 -0.030018168
000230 70 5f 4b bc 50 b6 b8 3c 8d 9a d1 39 0f ae 79 bd
       -0.012412891 0.02254787 0.00039978736 -0.06095701
000240 2b 13 a5 bc d4 c2 c9 3c e5 de 4e 3d cc 0f 80 3c
       -0.020150742 0.024629034 0.050505538 0.015632533
000250 f2 dd 16 bc a2 84 77 3d 60 89 f4 bc 26 38 a1 bd
       -0.009208189 0.060429223 -0.029850662 -0.078720376
000260 ca f4 99 3d ac 0b e7 bc 24 eb 8a 3d f3 7d e3 3c
       0.07517393 -0.028203808 0.06783131 0.027770018
000270 41 ba 7a bd ed 23 03 3c ff 15 c1 3c 12 51 37 bc
       -0.06121278 0.008004171 0.023570059 -0.011188762
000280 04 6e fa bc 0e cd 96 bd 08 36 a9 3c 34 a7 8e 3c
       -0.030570038 -0.0736333 0.020655647 0.017413713
000290 31 b9 61 bd 4f 99 7d bd 00 ee 85 3b e7 08 e5 bc
       -0.055108253 -0.061913785 0.0040872097 -0.027958347
0002a0 2a 03 8c bd 15 dc 27 bc 91 bf ed bd 81 6e 33 bc
       -0.06836541 -0.010245343 -0.11608804 -0.010951639
0002b0 84 15 8c 3d 8c 94 d6 3d 56 fa 5e 3d f0 8f 30 bc
       0.06840041 0.10477552 0.054437958 -0.010776505
0002c0 53 32 80 3d 2f a9 4a 3b 35 f7 8c 3d cc 91 8d 3d
       0.062595986 0.0030923595 0.068830885 0.06912574
0002d0 4a 23 96 3d 8f bd f6 bd a6 e5 0f be f8 6d c8 3c
       0.073309496 -0.12047874 -0.14052448 0.0244665
0002e0 a3 0c 8c 3d 43 fd bc 3d 32 41 20 bd bb d4 1c 3d
       0.06838348 0.09227993 -0.039124675 0.038288813
0002f0 11 89 d7 3d 30 55 66 bc e6 63 85 bc 58 46 b1 bc
       0.1052419 -0.014058396 -0.016282987 -0.021639988
000300 54 a7 cb bd 6d d0 77 3d f3 2c b2 3d 4e ac 72 3d
       -0.09944025 0.060501505 0.0869998 0.059246354
000310 5c 0e d0 3d f1 f3 fb bc 00 c2 57 3a 68 3c b5 3d
       0.10158989 -0.030755969 0.00082305074 0.08849412
000320 6d 89 a2 bd 64 67 9e 3d a0 70 4b 3c d1 e3 80 3d
       -0.07936368 0.07734564 0.012416989 0.062934525
000330 0f be 00 be ca 5f 41 3d 05 04 b6 3c ff f2 57 3d
       -0.12572502 0.047210492 0.022218714 0.052721974
000340 e8 a3 20 3d 64 50 2b 3d db 18 ff 3d b3 2c 1e 3e
       0.039218813 0.041824713 0.12455913 0.15446739
000350 76 7b 48 3c b5 1a 9e bd 95 80 62 3d 5f fe 97 3d
       0.012236467 -0.07719938 0.055298407 0.07421564
000360 90 b4 c8 bc b8 e9 d2 bc 43 30 77 3c d3 82 b6 bc
       -0.024500161 -0.025746211 0.01508719 -0.022279179
000370 2a 38 a0 3d 96 57 c2 3d dc de 96 bd 76 1f c3 3d
       0.078232124 0.09489362 -0.07366726 0.09527485
000380 53 62 5e bd ff 45 d3 bb 93 0a 04 3d d7 4a 62 bd
       -0.054292988 -0.006447553 0.032236647 -0.055247154
000390 04 2f 8a 3d 79 79 43 3b f2 5f a5 bc 4e 6a 96 3d
       0.06747249 0.0029827042 -0.020187352 0.07344495
0003a0 79 0e 19 3d a6 8c 3a 3d c8 cd 62 bd 43 e2 d4 bd
       0.037367318 0.04554429 -0.05537203 -0.103947185
0003b0 c9 a2 5c bd 2b 12 da 3d 1e 18 b8 3d 08 08 62 bd
       -0.05386618 0.106479965 0.08988975 -0.05518344
0003c0 cc ed 0d 3d 1f 0a 6b 3c ff db 10 bc 86 bf 03 3c
       0.03465061 0.014345675 -0.008841514 0.008041268
0003d0 6f 59 f2 bb 3c ff d3 bc 78 f1 2f 3d d8 52 ae 3c
       -0.007395915 -0.025878541 0.042954892 0.021279737
0003e0 ba 10 53 bd 98 37 b6 3c a0 5a af bc cf c6 79 bd
       -0.051529624 0.022243306 -0.021405518 -0.060980614
0003f0 39 16 32 bd 79 c3 7b 3c d9 d7 96 bd 2a 37 27 3d
       -0.043478224 0.0153664285 -0.073653884 0.040824093

net.2.bias f4 [128]
000000 24 ff 37 bc c9 b4 8e 3b 67 6b 5c 3c 32 38 44 3d
       -0.011230264 0.0043550474 0.013453341 0.047905155
000010 5b 25 02 3e 49 1e e2 3c 59 4b 92 bc 67 13 36 3e
       0.12709562 0.027602332 -0.017858194 0.17780839
000020 64 16 a8 bd d0 e4 90 3d bb 65 d4 bd b1 6b d3 3d
       -0.08207396 0.070748925 -0.10370966 0.10323275
000030 3d c6 e1 3d 7c 33 73 bd 41 59 22 3d 24 be c4 3d
       0.11024139 -0.05937527 0.0396359 0.09606579
000040 90 bd d3 bc 8c 7b 83 3d f5 9c 3c 3b fc 23 0f bc
       -0.025847226 0.06420049 0.0028780077 -0.008736607
000050 fa 45 0b 3d 4a 12 a5 3d 49 c5 ab bd 57 ab c8 3d
       0.03400228 0.08060129 -0.083872385 0.097983055
000060 6b 77 93 bd 90 8a 48 3e 3a 46 8b 3d d0 fd ac bc
       -0.072005115 0.19584107 0.06800504 -0.021117121
000070 70 25 3b bd f1 c0 75 bd 21 c4 f8 bd 01 74 b3 bd
       -0.04569 -0.059998456 -0.121467836 -0.0876236
000080 fa 81 05 3d 80 c2 f1 ba f0 1b b3 bd c8 6b dd 3d
       0.03259466 -0.0018444806 -0.08745563 0.10811573
000090 09 be e2 3d 86 e5 1f 3e fc 62 b4 3d 76 fa a6 3d
       0.110714026 0.156149 0.08807942 0.081532404
0000a0 ec 72 c6 3c cc 9d 33 3e 4a ed 21 3d a0 d8 54 bd
       0.02422472 0.17540663 0.039532937 -0.051964402
0000b0 27 3b 9b bd 01 c8 82 bd 97 99 41 3e 35 96 4a 3e
       -0.07579642 -0.06385804 0.18906246 0.19783862
0000c0 eb de 0e bc 43 51 69 bd e0 e1 55 3c 30 17 29 3d
       -0.00872014 -0.056962263 0.013054341 0.04128188
0000d0 d5 29 81 3d ae ea 06 3d 5c 5f e0 3d 2f 0b 15 bd
       0.06306807 0.03293865 0.10955688 -0.03638762
0000e0 4b 08 e0 3c a5 89 ab 3d dc 9c 96 bd 4e fa 76 3d
       0.027347704 0.08375863 -0.07354137 0.060297303
0000f0 d8 ce fe 3d 44 ab 98 3d 78 11 3d 3e f2 05 11 3d
       0.12441796 0.07454541 0.18463695 0.03540606
000100 73 3e 10 bd 07 bf f7 3d 52 ef 77 3c a8 49 a0 3d
       -0.035215806 0.120969824 0.015132742 0.07826549
000110 7b 71 93 3d 1e 1d 0d 3d 11 ee e4 bc c6 b4 8d bc
       0.07199379 0.034451596 -0.02794555 -0.017298114
000120 9b fc 17 3d d2 1b f0 bd 48 6a c2 3c 82 bf b9 3d
       0.037106138 -0.11724056 0.02373232 0.0906973
000130 1b 87 ba bc aa ff 6c 3e 4d 7c 6f bd 54 f5 ac bd
       -0.022769501 0.23144403 -0.05846815 -0.0844523
000140 00 77 e9 39 64 84 e7 bd 29 e3 9d 3d 9b b3 60 bd
       0.00044529885 -0.113045484 0.07709343 -0.054858785
000150 4b 52 c2 bd 0e bc c8 3c 4b 9f cc bd ee c2 54 bd
       -0.094883524 0.024503734 -0.0999132 -0.051943712
000160 65 eb 24 3e 57 20 93 3d ee cb b0 bd 4f 80 18 3e
       0.16105421 0.07183903 -0.086326465 0.14892696
000170 27 3f b0 bd ab 4b c8 3d ac 4a 8b bd b5 79 26 bd
       -0.08605795 0.097800575 -0.06801352 -0.040643413
000180 a7 8e e2 bd 4b 68 37 3e d7 35 42 3e 4c 2f 0d bd
       -0.11062365 0.17910878 0.18965851 -0.034468934
000190 7c 5d 3e 3e 40 d2 ff bd 1e b4 d2 bd 6f 24 00 3d
       0.18590349 -0.12491274 -0.10288261 0.031284746
0001a0 c5 19 45 3e 85 32 c3 3d 33 21 9f 3c d0 7c 37 bd
       0.19248112 0.0953112 0.01942501 -0.044796765
0001b0 ac b5 5d 3e 61 f4 ba 3d ae 42 da bd 19 b8 48 3e
       0.21651334 0.09128643 -0.106572494 0.19601478
0001c0 40 83 94 3a bd b1 b4 bd 1f 4e 4e bd 66 51 43 3d
       0.001133062 -0.088229634 -0.05036747 0.04768505
0001d0 fd 56 d4 bc 38 37 5d 3c 2f 19 04 bd ad a5 32 3d
       -0.025920385 0.013501935 -0.03225058 0.043615032
0001e0 32 48 cc 3d 44 aa a7 3d 99 11 a1 bd 69 d6 93 bd
       0.09974708 0.081867725 -0.078646846 -0.0721863
0001f0 92 06 7c 3d 8a 45 88 3d 9b 14 96 3d 78 30 b7 3d
       0.061529703 0.066538885 0.07328149 0.089447916

net.4.weight f4 [2, 128]
000000 90 55 95 3d 99 68 0c bd 70 3e ea bc a7 ac 97 bd
       0.072917104 -0.03427944 -0.028594226 -0.07405978
000010 21 25 31 bd 5b 47 0c bd fe e5 ac 3b b8 7c 06 be
       -0.0432483 -0.034247737 0.0052764406 -0.13133514
000020 46 94 6a bd a7 cb a8 3d 02 75 a3 3d 02 14 2f be
       -0.05727031 0.082419686 0.07981302 -0.17097476
000030 f0 76 01 be c7 69 d2 3d 75 10 96 bd 2d ed b3 bd
       -0.12643027 0.10274082 -0.07327358 -0.08785472
000040 b6 fe 37 3d 2a 5e a5 bd 91 d7 50 3d 9f 2f 88 bd
       0.044920646 -0.08074601 0.05098683 -0.06649708
000050 04 ac 37 bd 81 73 f3 3d 6c c8 b2 bc 0f c7 0a be
       -0.04484178 0.11887265 -0.021824084 -0.13552497
000060 33 1c e6 3d 3f b1 b3 bd d3 28 e0 bc 44 72 8b bc
       0.11235847 -0.087740414 -0.027363217 -0.01702226
000070 b5 1e 86 3d d5 b4 02 3b fa 82 dd 3b d9 f1 20 3d
       0.06548826 0.001994421 0.0067599984 0.039293144
000080 e4 c3 c7 bb 48 df a7 bd 57 a9 97 3c de 06 1a bd
       -0.00609635 -0.081968844 0.018513365 -0.037604205
000090 95 c0 c1 bd eb 9d 1b be 75 0b 2d 3d 45 28 09 bd
       -0.0946056 -0.1519696 0.042247254 -0.03348567
0000a0 c0 1e a3 3c 25 c6 97 bd 3d f5 78 3d 9b 93 2c 3c
       0.019912124 -0.0741084 0.060780752 0.010533239
0000b0 3e e4 00 3d 77 9f c7 3d 30 81 ee bd 4d e6 d0 bd
       0.03146767 0.097472124 -0.11645734 -0.102001764
0000c0 a6 2a 54 3d f2 af 71 3d 56 e9 cf 3d 17 a8 9f bd
       0.051798485 0.059005685 0.10151927 -0.077957325
0000d0 ca 09 07 bd dc d0 7b bd 40 83 18 be df 17 08 3d
       -0.03296832 -0.06147848 -0.14893818 0.03322589
0000e0 8a 6d 82 bc 75 b5 ec bd 41 e0 c0 bc 42 61 60 bc
       -0.015921373 -0.11558048 -0.023544433 -0.013695063
0000f0 e8 5b 25 be 28 e7 04 be b5 ac 12 be 49 03 b0 3d
       -0.1614834 -0.12978804 -0.14323695 0.085943766
000100 61 f0 0b bd 7d 04 04 be f5 0d c2 3b 6a c5 15 3d
       -0.03416479 -0.12892337 0.005922074 0.03656522
000110 de d5 df 3c 24 68 04 be 65 04 5e 3d b9 54 80 3d
       0.02732366 -0.12930351 0.05420341 0.062661596
000120 4e 68 ca bd d6 8c d9 3c c1 90 8d 3d 33 c4 9c bd
       -0.09883176 0.026556414 0.06912375 -0.076546095
000130 83 1c 64 bb e2 3a 02 be be ce a8 bd 14 40 dc 3c
       -0.0034807033 -0.12717775 -0.08242558 0.026886024
000140 59 f3 a7 3d f4 04 9f 3d c0 ac ff 3a c5 00 68 3d
       0.08200712 0.077646166 0.001950644 0.05664136
000150 f7 f6 3e 3d da 53 3c ba a1 34 ae 3d 3e 7e ea 3d
       0.046622243 -0.0007184126 0.08506132 0.1144986
000160 fb a9 00 be 45 95 74 bc d3 f9 b6 3b 49 a5 17 bd
       -0.12564842 -0.014928167 0.0055839806 -0.037022863
000170 d8 7d 0d 3d 70 bc a1 bd 12 27 b1 bc 39 48 36 3d
       0.034543842 -0.0789727 -0.021625075 0.04450247
000180 c0 50 c2 3d 35 36 a2 bd f1 f3 31 be 89 d9 45 3d
       0.09488058 -0.079204954 -0.17378213 0.04830316
000190 cc 39 74 be c0 2e b0 3d 89 42 74 3d a9 a1 f7 bb
       -0.23850173 0.08602667 0.059633765 -0.007557113
0001a0 3d d9 9b bd 47 b4 43 3c f8 6c 59 bd 05 6a 45 3d
       -0.07609794 0.011944837 -0.053082436 0.04819681
0001b0 c0 85 8e bd 66 4f 05 be 6f cf 20 bc 11 84 06 be
       -0.069591045 -0.1301857 -0.009815081 -0.13136317
0001c0 dc c9 aa bd 19 ae 3a bd c6 47 5d bd f5 7f 0f be
       -0.08339283 -0.04557619 -0.054023527 -0.14013655
0001d0 8f 4a 90 bc 30 11 ba 3b e6 e4 5e 3d 1f b3 8f 3d
       -0.017613677 0.0056783184 0.054417513 0.070165865
0001e0 f0 ca ae bd 12 af ce 3c b1 ab f2 3c f0 89 a4 3b
       -0.08534801 0.025229964 0.029622884 0.0050213262
0001f0 dc 68 54 bc a3 cc ea 3c bb 52 86 bd 36 1d 06 be
       -0.012964454 0.028662032 -0.06558748 -0.1309708
000200 98 d8 cb bc a4 03 2f be 83 e4 12 bd 2d 21 84 3d
       -0.024883553 -0.17091233 -0.035862457 0.0645164
000210 24 6b a3 bd e7 21 00 be c3 39 45 bd 03 70 8b bd
       -0.0797942 -0.12512933 -0.04815079 -0.06808474
000220 01 de 2b 3d 8c a1 85 3d cd 41 e0 3d 20 22 0b be
       0.041959766 0.06524953 0.109500505 -0.13587236
000230 a1 c3 fe bd 26 59 8b 3c 87 85 0b be 7c 12 ab bd
       -0.12439657 0.017010283 -0.13625155 -0.08353135
000240 d0 63 e3 3c dd a5 39 3d f7 d7 b4 bd b2 10 9d 3b
       0.027757555 0.045324195 -0.088302545 0.00479325
000250 8f 75 3a 3d 41 98 9c 3d 56 95 88 3d bc 32 a8 bd
       0.04552227 0.07646228 0.066691086 -0.08212802
000260 b0 18 1e 3d 73 26 cc bd 8a 17 de bd 46 8c 6d bd
       0.038597763 -0.09968271 -0.108443335 -0.057995103
000270 a9 55 c9 3b 57 c0 8e 3d cf 56 0d 3d 7e 62 3e bd
       0.0061442447 0.0697028 0.034506615 -0.04648065
000280 d8 a0 ad 3d 3f c5 9a bd f7 b0 ab 3d 19 6a de bd
       0.08477944 -0.07557153 0.08383363 -0.1086008
000290 47 a5 a6 bd 40 29 3b be d5 ae e4 bd 9e ad 2b 3d
       -0.08136993 -0.18277454 -0.11166159 0.04191362
0002a0 19 bb 93 bd fa 18 21 be 63 f0 54 3d 7c a3 5c 3d
       -0.072134204 -0.15732184 0.051987063 0.05386685
0002b0 00 61 39 3a 09 94 ad 3d ec 4d 1d be 65 a1 a5 bd
       0.0007071644 0.08475501 -0.15361756 -0.08087424
0002c0 80 dd d3 bd de b8 78 3d 75 bc a3 3d 9a 6d 0c 3c
       -0.10344982 0.060723178 0.0799493 0.008571053
0002d0 dd 07 ea 3c b9 3b ca 3d ac 7d fb bd d2 12 ff bd
       0.028568203 0.098746724 -0.122798294 -0.124547616
0002e0 79 71 69 3d 31 f4 d1 bd cc 64 b3 3d 24 75 c3 bd
       0.05699298 -0.10251654 0.0875946 -0.09543827
0002f0 b5 bf f4 bd 30 0c a4 bd d7 f6 af bd 52 59 19 bd
       -0.11950628 -0.08010137 -0.08592003 -0.037438698
000300 b1 55 b4 3d 26 03 ac bd 96 e8 a3 bd 40 e1 d5 bd
       0.08805407 -0.08399038 -0.080033466 -0.10443354
000310 72 31 a0 bd 4a 06 07 be f9 50 85 3d fb c1 b1 bc
       -0.07821931 -0.13185993 0.06509585 -0.021698942
000320 1e e4 ef bd 08 3e bf 3d 18 3d 4b bc f8 e8 d7 bd
       -0.11713432 0.093380034 -0.012404703 -0.10542482
000330 57 e7 81 bd 8b b5 ae bd c4 b9 91 bd ba db 37 3d
       -0.06342953 -0.0853072 -0.0711551 0.044887282
000340 80 57 29 bd 8e d8 10 3d 0e 51 4d 3d 8d a9 99 3d
       -0.041343212 0.035362773 0.050126128 0.07503042
000350 ee 2f ed 3d 7c 30 2a 3d 28 08 d6 3d c0 7d 82 3c
       0.115814075 0.041550145 0.104507744 0.015929103
000360 e5 43 23 be bb 93 fd 3c c1 12 04 3c 35 0b ef bd
       -0.15943868 0.030954232 0.008061112 -0.116720594
000370 90 f8 3a bd 03 84 9b 3c a1 4b 8f 3d e4 d4 b7 3d
       -0.045647204 0.018983847 0.06996847 0.089761525
000380 63 74 91 3d 68 54 02 be d2 a3 96 bd 81 39 c2 3d
       0.07102277 -0.12727511 -0.07355465 0.09483624
000390 ea 7d 90 bd 69 50 69 3d 2f f5 6b 3d 94 63 7a 3d
       -0.07055266 0.05696145 0.057606872 0.06113012
0003a0 e9 18 97 bd a4 aa 8d bd 7c 87 fd bd ec d7 88 3d
       -0.07377798 -0.06917313 -0.12379357 0.06681809
0003b0 0e c7 2c bd 31 d3 b3 bc df 8b d0 3d a4 9f c0 bd
       -0.04218202 -0.02195129 0.10182928 -0.09405449
0003c0 32 98 37 3d ce 60 ad bd 86 47 95 3d 48 3b e1 bd
       0.04482288 -0.0846573 0.07289033 -0.10997635
0003d0 06 7d 45 3d 42 64 22 3d 87 10 31 bd d8 dd a8 3d
       0.048214935 0.039646395 -0.043228652 0.08245438
0003e0 33 65 77 bd 73 64 2a 3d fe 26 7f 3d f4 31 98 bc
       -0.060399245 0.041599702 0.062293045 -0.018578507
0003f0 67 8e b8 bd f2 84 13 3c 09 fd 07 be 71 6b c9 bd
       -0.09011536 0.009003865 -0.13280119 -0.09834946

net.4.bias f4 [2]
000000 58 d3 cd bd 68 2c df bd
       -0.10050076 -0.10897142
