temp/stability01.pth (torch, 72325 bytes, 6 tensors)

net.0.weight f4 [128, 3]
00000000: 2614 c0bb 3c1f 0cbf 5457 d0bd 2095 3fbd
00000010: ef38 08bf 38ba e83e 97d0 403e d336 ea3e
00000020: b416 02bf 89c6 97be af48 143e 54a8 db3b
00000030: 2857 b4be 2bb5 df3e 3128 803e 174b 0dbd
00000040: 0cdc 0d3f 6849 10bf 851d 05bf 1ec3 023e
00000050: 52aa 093f 1d27 b13e 6e14 a2be 7017 d23e
00000060: c779 a33e d448 f83c 6dcd b73e ffc3 103e
00000070: df90 823d 6afa cdbd 720c 9dbe f655 babe
00000080: 486f 9bbd 6a28 cabe 2852 813e 5600 303e
00000090: 461b 10bf a86f d9be a63f d33e fcf7 9abe
000000a0: 0020 c3bb 3756 bdbe b532 8cbd 8090 8e3e
000000b0: e947 0c3e 29bc 983e 2b99 503d 8c14 8bbe
000000c0: d330 153c fb75 af3e 1897 063e 5852 0f3e
000000d0: 63ce e13d 1b3e f03e 14e9 9e3e 917b 383a
000000e0: bb22 d3bd 81cb f63e 8723 aabe 8d09 c9be
000000f0: 7537 413e c4c5 a0be 698b efbe cd5e efbe
00000100: e8c8 113e 22c2 b9be c79a 043f a69a 373d
00000110: fede 29be b242 b5be 8d36 29be b214 033f
00000120: f5db 71be 0f8b bdbe a7d7 ad3e 0597 7a3e
00000130: 7d73 acbe 1ccd 67be 3256 033f a78b 87be
00000140: 61b3 883e 953a e5bd 66b5 b1be 34a1 96be
00000150: 99e0 ef3e 0a62 303e b374 203e 5a8a 5d3e
00000160: c6d0 5c3e b0a9 bd3e a8bf ec3e e9b5 e03e
00000170: 4c6d 333e fd4e fb3d 844e 383e dfdc c4be
00000180: d4c3 7d3e 72f0 193e d186 853e 88e2 11be
00000190: 5a80 fa3e dc85 a33d b022 0cbe 20b0 85bc
000001a0: bef9 6bbe c8bc a0bd 8eaa f63e 7ae3 373e
000001b0: c317 29bd 651c 973c 939f ff3d 4a98 aabe
000001c0: 3267 a1be bf26 033f 0030 4e3b e4f4 2f3e
000001d0: 8108 88be 1e49 d9be ecf7 f53d f340 a33e
000001e0: 6635 0bbf d82d 12bf 1c2c 45be 0bb5 c83e
000001f0: eb1d fdbe d0c4 fd3e 3a35 0d3f ae01 8abd
00000200: 6578 14bd a49b 04bd a418 0f3f ee30 6f3d
00000210: a4c2 2f3e c7f5 fcbd af40 a33d 6b00 e9bd
00000220: 2dfd 1f3d fe0e a0bd 906d 003e 29b2 323e
00000230: ae23 bfbe dd5a c93e 8bd2 9d3e 59b7 c93e
00000240: c227 e03e ab3c 243e f042 a73e 22d4 9c3e
00000250: 9978 ac3e 6563 b7be 5211 983e 616d 52bd
00000260: 9ef7 583e 2085 6c3e 5cef abbe 1440 21bd
00000270: 5273 97be e130 24be 4b40 333e 7028 453e
00000280: 47a9 f93e 0aa8 c6be 47af 593e c995 003f
00000290: f259 d1be 3082 debe 8448 0e3e f0f3 6fbe
000002a0: c8df 2f3e ee52 50be 9931 453e 7889 c8be
000002b0: e1e8 eb3e c7a8 c1be 70a1 07bf 8e18 99be
000002c0: 80e5 483c 55c0 113f 7c6d fa3d 742f 16be
000002d0: d5ca c0be c3a0 893e 471b 373d a835 2bbe
000002e0: 7aca 25be 505e ad3d 03d0 b33e a7c6 8dbe
000002f0: 5a70 333d 4c21 943e aafc 91be 3c7a 103d
00000300: 0325 fc3e 4277 dc3e 5226 e6be eba2 7bbe
00000310: 9a76 a93d 523d b53e 2339 eebd 499b c0be
00000320: a2ed 393e a17e c73e 2822 5dbe 4e4e adbe
00000330: 0d8b 6d3d 20e4 f13e 233b f5be cabe 163e
00000340: 2481 ba3e 067d 263c e66c 9ebe 4aea 55be
00000350: 226e c2be 8764 dd3c 4902 9abe face a8bc
00000360: d220 02be 4b67 c9be 8433 103f 36d4 1e3e
00000370: a813 903e 3373 aa3e 2230 853e a1ec 85bd
00000380: 77c9 4abe 7477 58be a209 b6be ce62 42be
00000390: a026 61be c66d 183f bcc1 ffbe eb2f babe
000003a0: 68f3 e5be d01e cfbe 7f74 f63e 938a d6be
000003b0: 3830 bfbe a014 2dbe 6991 1c3e 8c3e 40be
000003c0: 46d4 c4be 1ed7 f83e 9e44 c93d c10a b4be
000003d0: 2bf3 50be 79b5 ba3e 42d6 5c3e b1aa 99be
000003e0: d209 d8bd 9743 13be 5e85 8a3e 6a40 ddbe
000003f0: 1b2a 0f3f cf0a 553d ac63 633e 9b10 453e
-0.005861777 -0.5473516 -0.101729065 -0.046773076 -0.53211874 0.45454574 0.1882957 0.45744953
-0.5081589 -0.29643658 0.14480852 0.006703416 -0.35222745 0.43692908 0.25030664 -0.03449544
0.5541389 -0.5636201 -0.5199817 0.12769744 0.53775513 0.34600154 -0.31656212 0.41033506
0.31928846 0.030308165 0.35898915 0.14137267 0.06375288 -0.10057528 -0.30673558 -0.36393708
-0.075895846 -0.39483958 0.25257993 0.17187628 -0.56291616 -0.42468 0.41259497 -0.30267322
-0.0059547424 -0.3697984 -0.06845609 0.2784462 0.13699307 0.29831055 0.050927322 -0.27164114
0.009105879 0.342697 0.13143575 0.13996255 0.11025693 0.46922383 0.310372 0.0007037456
-0.10309359 0.48202136 -0.3323023 -0.392651 0.18868811 -0.31400883 -0.4678605 -0.46752015
0.14236796 -0.36280924 0.5179867 0.04482522 -0.16588971 -0.35402447 -0.16524716 0.51203454
-0.23619063 -0.37020156 0.33953592 0.24471672 -0.3368186 -0.22636837 0.513034 -0.26473734
0.26699355 -0.11192814 -0.3470871 -0.29419863 0.46851042 0.17224899 0.15669517 0.21634808
0.21564016 0.37043524 0.46239972 0.43888786 0.17522162 0.12270925 0.17998701 -0.3844976
0.24781734 0.15033129 0.2607942 -0.14246571 0.4892605 0.07984516 -0.13685107 -0.016319335
-0.23044488 -0.07848507 0.48176998 0.17957869 -0.041282427 0.018446157 0.12481608 -0.33319312
-0.31524044 0.51230997 0.0031461716 0.17183262 -0.26568988 -0.42438596 0.12010178 0.3188549
-0.54378355 -0.571012 -0.19255108 0.39200625 -0.49436888 0.4956422 0.5515934 -0.067386016
-0.03624763 -0.032374993 0.55896974 0.058396272 0.17164093 -0.12351566 0.07971322 -0.11377033
0.039059807 -0.078153595 0.12541795 0.17450775 -0.3733191 0.39327136 0.30824694 0.39397696
0.43780333 0.16038768 0.32668257 0.30630594 0.3368576 -0.3581802 0.29700714 -0.051373843
0.21188208 0.23097658 -0.33581054 -0.03936775 -0.2958017 -0.16034271 0.17504995 0.19253707
0.4876196 -0.3880008 0.21258269 0.50228554 -0.40888935 -0.434587 0.1389485 -0.23432899
0.1717521 -0.20344135 0.19257201 -0.3916738 0.4607611 -0.3782408 -0.5298071 -0.29901546
0.012261748 0.569341 0.12227914 -0.1466654 -0.3765475 0.26880464 0.044703748 -0.16719687
-0.1619052 0.08465254 0.35119638 -0.27690622 0.04380832 0.28931653 -0.2851308 0.03527282
0.49246988 0.43059736 -0.4495111 -0.24573867 0.082745746 0.35398346 -0.11631992 -0.37618473
0.18157056 0.38963798 -0.21595061 -0.33848804 0.057993937 0.47244358 -0.4789668 0.14721218
0.3642665 0.010161644 -0.30942458 -0.20890155 -0.3797465 0.027025474 -0.30079868 -0.020606507
-0.12707832 -0.3933662 0.56328607 0.1551064 0.28139997 0.33291015 0.26013285 -0.06539274
-0.19803415 -0.21139318 -0.35554224 -0.18983003 -0.2198739 0.595425 -0.49952495 -0.36364684
-0.44912267 -0.40453196 0.48135754 -0.419026 -0.37341475 -0.16902399 0.15289845 -0.1877386
-0.38443202 0.4860162 0.09827541 -0.35164455 -0.20405261 0.36466578 0.21566108 -0.3001304
-0.10548748 -0.14381252 0.27054876 -0.43213207 0.5592362 0.05201226 0.2220599 0.19244616

net.0.bias f4 [128]
00000000: 88d6 913e 209a bebe 30f7 f83e c2bc c3be
00000010: 488e bc3e 3e1d 2a3e 7c15 81bd 6555 683e
00000020: 9177 fc3d 1bc5 e23e d01e 3dbd 5d10 87be
00000030: 1088 763d d415 adbe bbab c83e 0c55 3b3e
00000040: 7cf5 e13e 303c a2bd 7ee6 0b3e ffc5 5dbe
00000050: cd20 96be 00fc 693c 9612 cc3e 3930 90be
00000060: 1823 1f3f 7ecb 36be e5c4 a7bc fbe6 293f
00000070: 21b1 f83c 2325 e93e d82d ab3d 8fa7 f63e
00000080: 73f4 0f3e 04c4 a8be 4eb9 c2be b610 f33e
00000090: 540c 953e 86f5 17be 98e7 e1bd 673e a5be
000000a0: 50bf ccbe 73e3 853e 6f88 dcbe 9359 5d3d
000000b0: ab84 143f ad55 f43e a245 e63e 4f04 613e
000000c0: 725f cebe 911e e83e b11c 1b3f ce8c c73e
000000d0: 7e28 113f e1e9 e7be 0055 01bf 70eb 08be
000000e0: fa77 993e c6d7 053f 6892 2dbe d27f 02be
000000f0: 1bee e63e a0f2 90bc 9e08 2c3e 4bff 14bf
00000100: 274c b33d b949 b23e a798 3f3f fbc0 3f3e
00000110: 0298 033f 63b0 613e 7b49 e9be a7e8 90bd
00000120: dd3d 89be 6085 1f3d 3183 3fbe 4629 103f
00000130: 33e8 eabe 60ae b1be 37d3 0cbe 9c90 2e3f
00000140: 386c 3ebe 6db2 8f3e ff01 ca3e cac8 2b3f
00000150: 4d96 c3bc 4de2 7e3e e764 a9be 27ea e4bd
00000160: 9753 fdbe 805f 00bf a533 9a3e 317f d6be
00000170: a67c f63e bb5c 193f a3f6 893e c0a3 d63e
00000180: 0f49 06bf 3749 66be 92e1 f3be a7c2 11bf
00000190: 389a bc3e cb15 073d 93f3 2e3f 01b8 62be
000001a0: 4e45 c5be 594a 10bf 6fba 4f3e 825f bebe
000001b0: ad3e 5f3e 6e4a 123f c19e 273f 83d6 c9bd
000001c0: 4238 c0be cba9 c1be 9b57 0a3f 80a0 ad3d
000001d0: dc1d 1d3d 119a 0fbf e954 a73e 232a f83e
000001e0: 1704 553e 2010 d5bd be0c bbbe a437 da3d
000001f0: b545 2d3e 6229 a03e f16e cfbd a1d6 263f
0.28483987 -0.37226963 0.4862609 -0.38229948 0.36827302 0.16612718 -0.06302926 0.22688825
0.12327493 0.44291005 -0.046171963 -0.26379672 0.060188353 -0.33805716 0.3919352 0.18294162
0.44132602 -0.07921636 0.13662145 -0.21657561 -0.293219 0.014281273 0.3985793 -0.2816179
0.62162924 -0.17851064 -0.020479629 0.66368073 0.0303579 0.45536146 0.083583534 0.48174712
0.14058094 -0.32962048 -0.38032 0.47473687 0.29110968 -0.14839754 -0.11030501 -0.32274172
-0.3998971 0.26150092 -0.4307284 0.054040503 0.58014935 0.47721615 0.44975 0.219743
-0.40307194 0.4533582 0.60590655 0.38974613 0.5670241 -0.45295623 -0.50520325 -0.13371062
0.29974347 0.5228237 -0.16950381 -0.12744072 0.45103535 -0.017693818 0.16800162 -0.58202046
0.08754759 0.3482187 0.74842304 0.1872596 0.5140382 0.22039942 -0.45563874 -0.07075625
-0.2680501 0.038945556 -0.1870239 0.5631298 -0.4588028 -0.3470335 -0.13752447 0.68189406
-0.1859597 0.28065816 0.39454648 0.67103255 -0.02387538 0.24891014 -0.33084795 -0.111774735
-0.49477836 -0.5014572 0.30117527 -0.41893914 0.48141974 0.5990712 0.2694598 0.41921806
-0.5245523 -0.22488867 -0.47633034 -0.5693764 0.3683641 0.032979768 0.68340415 -0.22140504
-0.38529438 -0.56363446 0.20285963 -0.37182242 0.21801253 0.5714482 0.65476614 -0.09855368
-0.3754292 -0.37824854 0.54039925 0.084778786 0.038358554 -0.5609446 0.3268197 0.48469648
0.20802341 -0.10403466 -0.3653316 0.10655144 0.16921122 0.31281573 -0.10128582 0.6517125

net.2.weight f4 [128, 128]
00000000: fa5e 693d 5079 a33c 41eb abbd cc7c 3bbd
00000010: 3707 fd3c f8b4 7bbd 83da ab3c 9d58 943c
00000020: ee94 72bd a1c7 d33c 104c 3bbc 12c7 7e3d
00000030: 8cbe 9fbc 7ff9 9d3d c2bb 953d 4810 f0bc
00000040: a337 363c 8ba9 e3bc 8df4 903d 6e94 2d3d
00000050: 0010 7e39 e2f1 5a3d 4d59 91bd 41b1 d6bc
00000060: 10ce 933c d17f abbd e537 9e3d 00f5 ed3b
00000070: 0283 983d c5f4 f0bc 809b d33a 04b4 c7bc
00000080: 1774 23bd f819 15bd 3a64 7a3d aa19 9b3d
00000090: bc34 b23c 929a 3b3d f67b 1d3d cbcd 65bb
000000a0: 8dbd 86bd c8a4 b53c 74ce f8bc 6b26 f73c
000000b0: f5de 7cbd 457d 45bc a94e 0ebd fef1 aebd
000000c0: 38c2 aebd 8dca 9e3d c21a 7cbb ee0b 9cbd
000000d0: 0317 2e3c 0026 07bc c088 9f3d 299a aa3d
000000e0: 481c babc aa2c 69bd a179 4fbd 7886 c0bc
000000f0: 5215 56bd 2929 a33d 3f62 0abd c286 3a3d
00000100: 6851 493d 7b30 8b3c 527e 303d 6f49 993d
00000110: fcbc 093d 9236 103d abe2 97bd 8856 00bc
00000120: 483c b0ba d64f 863d 3eb3 1a3d 57c7 8c3d
00000130: 3089 a33d 14e0 28bd e871 4d3c def6 a33d
00000140: 1707 e23c 3858 3d3d bc28 133d 3871 a8bc
00000150: e16a 8f3c 1fa2 84bd 4167 9f3d 5337 b83a
00000160: d346 8c3d 0380 7ebd 95f7 adbd 2065 2d3c
00000170: 7ffd 77bc dd03 17bd 63bb 2e3d 6a99 7abd
00000180: f59f 9e3d a0b6 b0bd 9cd7 6e3c f6ae 53bd
00000190: c6cc 7d3c 0349 ab3d 429f 6abc 7b83 8a3c
000001a0: ed79 0ebd a508 48bd d473 a1bd 41ae 433d
000001b0: b1d9 9fbb aa4d dc3c 91f9 92bd bf2c 9ebd
000001c0: 3999 a4bd b381 5fbd 6f80 79bc 6a6f 8bbc
000001d0: 8630 1f3d 0af6 2dbd 90ca a83d 5e0f 34bd
000001e0: 9acf b1bd 33ef 883d 4c96 77bd de2f 9c3b
000001f0: da4b a73b 3044 b5bc bd4a 68bb f401 b2bd
00000200: 69c7 a23d 1607 6bbd 3706 593d 6625 5abd
00000210: fd87 babc 18a3 4dbb 3acd 12bd 4cef 20bd
00000220: 0a6c 9abd 38a9 78bd c0e4 87bb 7fde dbbc
00000230: 705f 4bbc 50b6 b83c 6b1d 4abc 215c abbd
00000240: 8944 09bd 716b d53c 464c 023d 8e31 2f3d
00000250: 8063 a03b a284 773d 3fbf 77bd c1f4 99bd
00000260: bc0e c1bc 8042 1c3a d56e 833d b0c8 50bd
00000270: 77d4 80bd 6887 5ebb 74ea af3c 861a a5bd
00000280: af0c 16bd 7c40 90bd 0836 a93c 8c42 ed3b
00000290: 2507 a3bd 1728 75bd 00ee 853b 4712 c8bc
000002a0: 2a03 8cbd 2c6a dbbc b53e a6bd d7cd 35bc
000002b0: 50cc 28bc d43a 663b 3000 f63b 1358 86bc
000002c0: 8969 8e3d 91d4 05bd 9a7b 1f3d 0ab0 083d
000002d0: a619 42bc 487f 86bd ea60 9abd f86d c83c
000002e0: 4860 dd3c 0c6d 573d 3241 20bd e526 923d
000002f0: 55ef b23d 3055 66bc 5315 0dbd 7470 e3bc
00000300: 9e60 9dbd 2299 4c3d 10d3 1d3c 66cb 263d
00000310: 6f6b 643d d2dc 1dbd 00c2 573a c355 923d
00000320: 9392 8dbd ab19 9d3d fe42 3c3d a867 e3bc
00000330: e3cd 93bd ca5f 413d 2abb 2c3d f92e 28bd
00000340: b140 283d 34ac ce3c 2730 b23d ce30 393d
00000350: cb2f 4f3c 9f3c b5bd 9455 913d ff5e 993d
00000360: 90b4 c8bc 007f e2bb c6e7 91bb 70db b0bb
00000370: 92ac 403d f8bd 433c 477c 9fbd d7bc e03c
00000380: 5362 5ebd 00bc ce3c 7f80 193d cddf 2cbd
00000390: 4d23 713d 745c a43a 6635 3abd e10f 993d
000003a0: 4657 673d 7c55 823d 902f 7cbd 9ef7 8bbd
000003b0: 683e a1bd 7ef4 653d 8d06 4f3d 40cc 60bd
000003c0: cced 0d3d b255 893c e938 1ebd 6b33 053b
000003d0: b66a 5abd 3cff d3bc df08 0b3d 0d0b 3c3c
000003e0: f9c6 88bd 9837 b63c d8b2 98bc 4e08 87bd
000003f0: 925d a7bd e5ea 373b 0549 87bd c94e 5dbd
0.056975342 0.019955307 -0.083944805 -0.045773312 0.03088723 -0.061451882 0.020978218 0.01810866
-0.05922406 0.025852026 -0.011431709 0.062201567 -0.01950004 0.07713603 0.073112026 -0.029304639
0.011121663 -0.027790805 0.07077894 0.04237788 0.00024229288 0.053453334 -0.07097111 -0.026207568
0.018042594 -0.083739884 0.07725505 0.0072618723 0.07446863 -0.02941359 0.0016144365 -0.02437783
-0.039905634 -0.03640172 0.06113074 0.075732544 0.021753661 0.045801707 0.038448296 -0.003506529
-0.06579123 0.0221733 -0.030371882 0.030169686 -0.061736066 -0.012053792 -0.034742985 -0.0854225
-0.08533138 0.07753477 -0.0038468097 -0.07619463 0.010625604 -0.008248806 0.07789755 0.08330185
-0.022718564 -0.05692736 -0.050653104 -0.02350162 -0.052266426 0.07966835 -0.0337851 0.04553867
0.0491499 0.01699089 0.04308922 0.074847095 0.033627495 0.035208292 -0.0741628 -0.007833131
-0.00134457 0.06558196 0.037768595 0.068739586 0.07985151 -0.041229323 0.012539364 0.080060706
0.027591271 0.04622671 0.03592752 -0.0205618 0.017507019 -0.06476235 0.07783366 0.0014054574
0.06849446 -0.0621338 -0.08494488 0.010583192 -0.015136122 -0.03686892 0.042659175 -0.061181463
0.07745353 -0.08628583 0.0145777725 -0.051680528 0.015490716 0.08363535 -0.014320197 0.016908398
-0.034784246 -0.04883637 -0.078834206 0.047773603 -0.0048782458 0.026892502 -0.07176507 -0.077233784
-0.080370374 -0.05456705 -0.015228375 -0.0170209 0.038864635 -0.04247097 0.08241761 -0.043959968
-0.08682175 0.06686249 -0.06044607 0.0047664484 0.0051054778 -0.02212724 -0.0035444938 -0.08691779
0.07948191 -0.057379805 0.052984443 -0.053258322 -0.022769922 -0.003137773 -0.03584025 -0.03929071
-0.07540138 -0.060708255 -0.004147142 -0.026839493 -0.012412891 0.02254787 -0.012336115 -0.083671816
-0.033512626 0.026052209 0.03181102 0.04277187 0.004894674 0.060429223 -0.06048512 -0.07517386
-0.023566596 0.0005960837 0.06417624 -0.05097264 -0.062905245 -0.003395522 0.0214741 -0.080616996
-0.03663319 -0.070435494 0.020655647 0.007240599 -0.07960347 -0.059852686 0.0040872097 -0.024422778
-0.06836541 -0.026784025 -0.08117429 -0.011096439 -0.010302618 0.003513028 0.0075073466 -0.016399419
0.06953723 -0.032673422 0.038936235 0.03337101 -0.011846935 -0.06567246 -0.07538016 0.0244665
0.02702345 0.05259423 -0.039124675 0.07136325 0.08737055 -0.014058396 -0.034444164 -0.027763583
-0.07684444 0.049950726 0.009632841 0.04072132 0.05576652 -0.03854067 0.00082305074 0.07145264
-0.069127224 0.076709114 0.045962326 -0.027759388 -0.07217004 0.047210492 0.04217068 -0.04106042
0.04107732 0.025228597 0.087005906 0.04521256 0.012645672 -0.08849453 0.07096401 0.07488822
-0.024500161 -0.0069121122 -0.0044526784 -0.0053972527 0.047039576 0.011947148 -0.07787376 0.027433796
-0.054292988 0.02523613 0.03747606 -0.04220562 0.058871556 0.001253976 -0.04546108 0.07473732
0.056479715 0.06363961 -0.061568797 -0.068343386 -0.07873231 0.05614137 0.050543357 -0.054882288
0.03465061 0.016764496 -0.038628493 0.0020324837 -0.053324424 -0.025878541 0.033944007 0.011477244
-0.06678576 0.022243306 -0.018639967 -0.06593381 -0.08172144 0.0028063592 -0.06605724 -0.054030214

net.2.bias f4 [128]
00000000: 683b cc39 14d5 7bbd 4c00 193c 3238 443d
00000010: 7fbd fa3d 2f12 d03c baab 83bd 6f9c 2e3e
00000020: 3152 a6bd ad9d 903d 81d0 d2bd 3ae3 c93d
00000030: 14aa eb3d d11a 91bd ef7d 483d c3b4 113e
00000040: 90bd d3bc 88d1 e83c be84 2fbc caf9 ffbb
00000050: ef15 0b3d 1d7b a43d 3fe7 c2bd 70b9 ca3d
00000060: 8a3a 93bc 8cba 4f3e 9835 933d d0fd acbc
00000070: 4106 3cbd 7836 62bd 8eab f4bd 2505 d0bd
00000080: e028 043d 80c2 f1ba c10f b4bd 7498 d83d
00000090: 2da3 e63d 405d 283e cdf2 9a3d 6db2 993d
000000a0: ec72 c63c 975e 393e 7af7 df3c 028c 44bd
000000b0: 273b 9bbd 7893 91bd bbc2 503e 3cf6 463e
000000c0: 977b 25bc 9e25 96bd 58fe d2ba 635b 253d
000000d0: 7e32 813d 74df cb3c 0bde eb3d a8e5 0dbd
000000e0: 9898 f03c 6313 b03d a90d 9cbd 0b18 4b3d
000000f0: aa67 043e 12c1 8a3d 85fe 3d3e f205 113d
00000100: 0fe5 fbbc cf5a f23d a224 93bc ee03 9d3d
00000110: 4c6b 6c3d 2e87 2d3d 88eb e1bc dab3 37bd
00000120: 5d15 3c3d 6aab f4bd 486a c23c 573a cb3d
00000130: 3802 b8bc 1fc6 623e 4d7c 6fbd 54f5 acbd
00000140: 0077 e939 e983 f9bd 29e3 9d3d 1278 85bd
00000150: 28e3 b1bd d14c 56bb c2c4 d7bd a354 79bd
00000160: 6f53 2d3e b8ee 923d fb7e b1bd 9fe5 1f3e
00000170: b1f9 a7bd fd61 883d e313 abbd f675 5fbd
00000180: 028e efbd 1321 413e 120b 333e 5262 3fbd
00000190: 63b1 4d3e 09e0 07be 5df8 d2bd 3144 0e3d
000001a0: 2251 493e c731 b93d c63e c5bc ea39 38bd
000001b0: c5a9 563e 5c85 c33d 51ff e7bd fd53 4a3e
000001c0: 4083 943a bdb1 b4bd 960a 4fbd cf12 5a3d
000001d0: 5be3 d3bc 3837 5d3c 2f19 04bd 0159 3a3d
000001e0: 2edc c33d 8625 a83d 210d a1bd 69d6 93bd
000001f0: cbda 783d 5446 883d 149a a53d 97b0 b03d
0.00038954173 -0.061482504 0.00933845 0.047905155 0.12243175 0.025399296 -0.064292386 0.17051862
-0.081211455 0.07061324 -0.10293675 0.09857793 0.11507049 -0.07085193 0.048948225 0.14229111
-0.025847226 0.028420225 -0.010712801 -0.0078117596 0.033956464 0.080312945 -0.09516763 0.09898651
-0.01797225 0.20286006 0.071879566 -0.021117121 -0.0459044 -0.055227727 -0.11946784 -0.10157231
0.032265544 -0.0018444806 -0.08792067 0.10575953 0.11261592 0.16441822 0.07565842 0.07504735
0.02422472 0.1810249 0.027339686 -0.047985084 -0.07579642 -0.071082056 0.20386784 0.19429868
-0.010100267 -0.07331394 -0.0016097529 0.040370356 0.06308459 0.024886824 0.11516961 -0.034642845
0.029369637 0.08597448 -0.07619793 0.049583476 0.1293017 0.067751065 0.18554123 0.03540606
-0.030748872 0.118337266 -0.017961804 0.07666765 0.057719514 0.042365246 -0.02757813 -0.044849254
0.04591881 -0.11946757 0.02373232 0.09923237 -0.022461995 0.2214589 -0.05846815 -0.0844523
0.00044529885 -0.12183363 0.07709343 -0.06517042 -0.08685905 -0.0032699595 -0.105355754 -0.06087173
0.16926359 0.07174438 -0.08666798 0.15614937 -0.08201922 0.06659315 -0.083534025 -0.054555856
-0.11697008 0.18860273 0.17484692 -0.046724625 0.20087199 -0.13269056 -0.10301278 0.034733
0.19659856 0.090426974 -0.024077784 -0.044977106 0.209632 0.09546921 -0.113279946 0.19758601
0.001133062 -0.088229634 -0.050547205 0.053240594 -0.025865247 0.013501935 -0.03225058 0.045495037
0.0956348 0.08210282 -0.07863832 -0.0721863 0.060755532 0.06654039 0.08086029 0.08627432

net.4.weight f4 [2, 128]
00000000: 8a11 833d 096b 693d 2c18 0cbd a7ac 97bd
00000010: 833e 1fbd 9606 d4bc 333c 3f3d 7c05 03be
00000020: 66c8 3cbd 4171 a83d 82af 983d 491d 35be
00000030: 357b f5bd 29bc e53d 0df3 92bd f61d d9bd
00000040: b6fe 373d 7a71 86bb 3f33 973d c338 88bd
00000050: 3509 35bd a731 e93d a2ed 9dbc 3adb 08be
00000060: 36c0 403d c276 a7bd fb47 00bd 4472 8bbc
00000070: 18c1 983d 0af3 bc3b 2563 353c 53fa 643d
00000080: c659 51bb 48df a7bd 3413 933c 127c 1fbd
00000090: e405 b9bd 82e5 10be c7ad 573d 211a 0abd
000000a0: c01e a33c 3639 8cbd 6015 883d 0d58 6d3c
000000b0: 3ee4 003d f6ca e73d a93b ecbd ffc7 cdbd
000000c0: 9d6b 6a3d 1007 8f3d 59e3 e03d 9c1b 9fbd
000000d0: 8a62 05bd bb1d 72bd aa3d 1bbe 56b4 1a3d
000000e0: 0cac 64bc 0761 e8bd d5e1 d4bc a5d4 debb
000000f0: 2320 28be f21c 02be fb0a 11be 4903 b03d
00000100: 5a7a 18bd cfad 01be 96bc 1e3d 3c01 2c3d
00000110: afb9 233d e282 01be 3e35 573d e95b b13d
00000120: 3672 c9bd 4da1 2e3d c190 8d3d eb77 96bd
00000130: e82c 8239 215c 00be bece a8bd 1440 dc3c
00000140: 59f3 a73d 6032 b13d c0ac ff3a 00be 8d3d
00000150: 63bf 2f3d 869a d73c 59e8 af3d 44f6 f23d
00000160: dc5d f6bd 0144 6bbc 57f8 ff3b d278 09bd
00000170: 7a5c 0f3d 18bc 81bd 80ad 0abc 9299 1c3d
00000180: 6c08 cf3d b5f2 9ebd 9c90 36be f551 553d
00000190: 2adb 70be 2fc5 b93d 28e5 823d 4081 22bc
000001a0: 5a14 95bd 0d25 973c 7a5a 9a3b 2d20 463d
000001b0: 276a 85bd e326 05be e9de 57bc 9bb3 01be
000001c0: dcc9 aabd 19ae 3abd af43 55bd 377e 0dbe
000001d0: 807f 98bc 3011 ba3b e6e4 5e3d 1da7 393e
000001e0: 12d3 a7bd 5f1c b93c c0a8 f23c f089 a43b
000001f0: abd9 2dbc 0415 ec3c 0c53 79bd b820 01be
00000200: 2e56 1fbd 030f 98bd 16fb 14bd 2d21 843d
00000210: cef3 95bd ae13 f5bd 387e 56bc 7135 84bd
00000220: 38b5 303d be95 853d 4a11 cf3d 6d3a 05be
00000230: be04 f4bd ea43 af3c e70e 0ebe e4ec dcbd
00000240: d063 e33c 0676 a33d 58d5 79bd e026 9d3b
00000250: d780 3a3d 388d 9a3d fd97 873d 220c a5bd
00000260: 2bc1 06bc 7e4e c6bd e3e0 e6bd 468c 6dbd
00000270: e6b3 043b bfe7 863d 31d5 ff3c 3168 bcbc
00000280: 7b54 ad3d 3fc5 9abd 4fb2 ab3d 388f d8bd
00000290: e87e 9cbd c3c4 36be bd72 cabd e9f0 383d
000002a0: 19bb 93bd 9786 25be c6a4 5d3d 39b4 693d
000002b0: 0061 393a a3bd c73d ccde 1abe c579 9abd
000002c0: 51bb bfbd 959f 883d baef ad3d f5bf 153c
000002d0: 3ff5 ea3c f0d5 d13d 1fe5 05be 9c36 f1bd
000002e0: 08a4 5f3d 186c c6bd f8c3 b23d b9eb acbd
000002f0: 8fc0 febd fc95 99bd 3a8c adbd 5259 19bd
00000300: f4ee ac3d b600 a3bd 4d70 40bd b682 c5bd
00000310: 0331 7dbd 8ec2 02be ce84 863d 7b5e 0a3c
00000320: 962a ecbd ffea c43d 183d 4bbc 0d8b d0bd
00000330: 4ebd 69bd c3d8 aebd c4b9 91bd badb 373d
00000340: 8057 29bd 9190 133d 0e51 4d3d 126b a43d
00000350: 0ead da3d 5b57 803d 01e9 de3d bdb3 603c
00000360: 3ee8 23be 1769 fd3c a14a 023c 10e3 efbd
00000370: 60de 44bd 0965 f33c 422a b23d 3ffb b93d
00000380: b49d 8d3d b074 04be 8197 90bd 0524 cb3d
00000390: a365 d1bd b2ff 613d 9c4d 603d f170 763d
000003a0: 26c0 91bd 0324 78bd 569c 8ebd eda3 883d
000003b0: 6a97 29bd 2e37 c9bc 281b c23d 3d83 bebd
000003c0: 3298 373d ce60 adbd 2e9a 953d 3aad ddbd
000003d0: f522 3f3d 4264 223d 8710 31bd 78d2 633d
000003e0: ec0a 6dbd d9a5 2b3d fe26 7f3d f431 98bc
000003f0: 5c02 b0bd 98cb 133c 8814 06be 3605 b8bd
0.0639983 0.056986842 -0.03420274 -0.07405978 -0.038877975 -0.025882047 0.04668827 -0.12795061
-0.046089552 0.082247265 0.074553505 -0.17686953 -0.119863905 0.11217529 -0.071752645 -0.10601418
0.044920646 -0.004102883 0.07382821 -0.066514514 -0.044198234 0.113864236 -0.019278351 -0.13364878
0.047058307 -0.08176948 -0.031318646 -0.01702226 0.07458705 0.005766277 0.011071001 0.05590279
-0.0031944378 -0.081968844 0.017953493 -0.038936682 -0.09034327 -0.1415005 0.05265596 -0.033716325
0.019912124 -0.068468496 0.06644702 0.014486325 0.03146767 0.113180086 -0.11534817 -0.10047912
0.057231534 0.06983769 0.10980863 -0.07768938 -0.032564677 -0.059110384 -0.15160242 0.037769638
-0.013957035 -0.113466315 -0.025986591 -0.0068002515 -0.16418509 -0.12706354 -0.14164345 0.085943766
-0.03722606 -0.12663959 0.03875407 0.041993365 0.039972004 -0.12647584 0.05254101 0.086601086
-0.09836237 0.042634297 0.06912375 -0.07347091 0.0002482899 -0.12535144 -0.08242558 0.026886024
0.08200712 0.086521864 0.001950644 0.06921005 0.04290713 0.0263188 0.08589239 0.11863378
-0.12029621 -0.014359475 0.007811587 -0.03356249 0.035000302 -0.06334704 -0.008464217 0.038232394
0.10109028 -0.077611364 -0.17828602 0.052080113 -0.23521104 0.09070813 0.06391364 -0.009918511
-0.072792724 0.018450284 0.0047104927 0.04837053 -0.065143876 -0.13003115 -0.0131757045 -0.1266617
-0.08339283 -0.04557619 -0.0520665 -0.13817678 -0.018615484 0.0056783184 0.054417513 0.18130155
-0.08194555 0.022596536 0.029621482 0.0050213262 -0.010610978 0.028818615 -0.060870215 -0.12610137
-0.038900547 -0.07424738 -0.036372267 0.0645164 -0.07321893 -0.11966644 -0.013091616 -0.06455506
0.043141574 0.06522702 0.101107195 -0.13010569 -0.11914967 0.021394689 -0.13872872 -0.10787371
0.027757555 0.079814956 -0.060994476 0.004795894 0.045533027 0.075464666 0.06620786 -0.08058955
-0.008224766 -0.0968294 -0.112733625 -0.057995103 0.002024883 0.06587171 0.031229587 -0.022998901
0.08463379 -0.07557153 0.08383619 -0.10574192 -0.07641393 -0.17848496 -0.09885166 0.045151625
-0.072134204 -0.16164623 0.05411222 0.05705664 0.0007071644 0.09752967 -0.15124053 -0.07542757
-0.093619 0.06671063 0.0849299 0.009140004 0.028681396 0.102458835 -0.13075684 -0.11777994
0.05459979 -0.09688586 0.08728784 -0.08443398 -0.124390714 -0.074993104 -0.08474012 -0.037438698
0.08444014 -0.0795912 -0.0469821 -0.09644072 -0.06181432 -0.12769529 0.06568299 0.008445377
-0.1153156 0.096151344 -0.012404703 -0.10182772 -0.0570653 -0.08537438 -0.0711551 0.044887282
-0.041343212 0.03602654 0.050126128 0.080282345 0.10677539 0.06266662 0.10884286 0.013714728
-0.16006562 0.0309339 0.007952363 -0.117132306 -0.048063636 0.029711263 0.08699466 0.090811245
0.06914845 -0.12935138 -0.07060147 0.099189796 -0.10224464 0.05517549 0.054761514 0.060166303
-0.071167275 -0.06058122 -0.069634125 0.06671891 -0.041404165 -0.024562445 0.09477836 -0.093023755
0.04482288 -0.0846573 0.07304798 -0.10824056 0.046664197 0.039646395 -0.043228652 0.05562064
-0.057871744 0.04190621 0.062293045 -0.018578507 -0.085942 0.0090207085 -0.1309377 -0.08985369

net.4.bias f4 [2]
00000000: 6e51 c1bd 235b f6bd
-0.094393596 -0.12029102
