legacy_archive/temp/5510050.pth (torch, 72405 bytes, 6 tensors)

net.0.weight f4 [128, 4]
0	0xbd734cb0	-0.059399307
1	0xbeff1cb8	-0.49826598
2	0xbe47ec98	-0.19523847
3	0xbd25ea50	-0.04050666
4	0xbef6c653	-0.48198184
5	0x3ec883cf	0.39163062
6	0x3e105fff	0.1409912
7	0x3e914993	0.28376445
8	0xbee50a2a	-0.44734317
9	0xbe837104	-0.25672162
10	0x3de6c880	0.11268711
11	0xbbf9b000	-0.007619858
12	0xbeaaa000	-0.33325195
13	0x3eb9d11b	0.36292347
14	0x3e4ff7ac	0.20309323
15	0x3e12e790	0.14346147
16	0x3efb27a8	0.49053693
17	0xbf04a022	-0.51806843
18	0xbefa5fc7	-0.48901197
19	0x3dcc3900	0.099718094
20	0x3f000126	0.5000175
21	0x3e8bfc74	0.27341044
22	0xbe91c3b5	-0.28469625
23	0x3ec4b75c	0.38421142
24	0x3e99bf98	0.30028987
25	0x3ced77ea	0.028987844
26	0x3ea1f44c	0.31631696
27	0x3e32150b	0.1739084
28	0x3d244557	0.04010519
29	0xbde9f5c0	-0.11423826
30	0xbe80479d	-0.25054637
31	0xbea15f1c	-0.31517875
32	0xbd869c40	-0.06572771
33	0xbeaf12e8	-0.34194112
34	0x3e590100	0.21191788
35	0x3e10944c	0.14119071
36	0xbef99990	-0.4874997
37	0xbebc4e24	-0.36778367
38	0x3eb6f25a	0.35731775
39	0xbe8634f2	-0.2621227
40	0xbba8fb80	-0.0051569343
41	0xbea3f870	-0.3202548
42	0xbddff480	-0.109353065
43	0x3e7c83a0	0.24659586
44	0x3db7c265	0.08972625
45	0x3e7aab5c	0.24479431
46	0xbcfaa2ad	-0.030595148
47	0xbe5b71c3	-0.21430115
48	0xbcbae9f1	-0.02281663
49	0x3e96c4fb	0.2944716
50	0x3ded8e16	0.11599366
51	0xbd96d060	-0.07363963
52	0x3d7d6100	0.061860085
53	0x3ed1ab86	0.40951174
54	0x3e8042a9	0.25050858
55	0x3ddf4580	0.10901928
56	0xbe986d1b	-0.2977074
57	0x3ecf7794	0.40520918
58	0xbe85c232	-0.26124722
59	0xbedc5158	-0.4303081
60	0x3e46ee21	0.19426776
61	0xbea82f71	-0.32848695
62	0xbee6495b	-0.4497784
63	0xbecf4d00	-0.40488434
64	0x3db0ef32	0.08639373
65	0xbea2250c	-0.3166889
66	0x3ee1b723	0.44085035
67	0xbe3559da	-0.17710057
68	0xbe59738c	-0.21235484
69	0xbe9cf9ea	-0.3065942
70	0xbe191024	-0.14947563
71	0x3edf5644	0.43620503
72	0xbea36968	-0.31916356
73	0xbeed069a	-0.462941
74	0x3e185678	0.14876735
75	0x3e2d9d94	0.16954643
76	0xbec584e7	-0.3857796
77	0xbe67260d	-0.22573109
78	0x3edd865b	0.43266568
79	0xbecf721a	-0.4051674
80	0x3e7c6d05	0.24650963
81	0xbe6f4041	-0.23364355
82	0xbee119b0	-0.4396491
83	0xbef6f448	-0.48233247
84	0x3eca804a	0.39551002
85	0x3e1b4da6	0.1516634
86	0x3e10d79f	0.14144753
87	0xbc7c9170	-0.015415534
88	0x3e4a68a6	0.19766483
89	0x3ea8b13d	0.32947722
90	0x3ec4aba4	0.384122
91	0x3e422134	0.18957978
92	0x3e002245	0.12513073
93	0x3db75596	0.08951871
94	0x3dda5b76	0.10661976
95	0xbe64d601	-0.22347261
96	0x3e65cc1a	0.2244114
97	0x3dfb3add	0.12267087
98	0x3e5f086c	0.21780556
99	0xbea2e243	-0.3181325
100	0x3ef3af6a	0.47594768
101	0x3dd03cfc	0.10167882
102	0xbd9c754f	-0.07639562
103	0xbe5d35c7	-0.21602546
104	0xbe202d41	-0.15642263
105	0xbd9629a6	-0.073321626
106	0x3ed94de3	0.42442235
107	0x3db663a3	0.08905723
108	0xbdcefbb9	-0.10106606
109	0x3c93d1f4	0.01804445
110	0x3de7edf2	0.11324681
111	0xbe29a1d1	-0.16565634
112	0xbe82f248	-0.2557547
113	0x3ee129f4	0.4397732
114	0x3b2f2e02	0.0026730304
115	0xbd16c6fb	-0.036810856
116	0xbe6b9dd0	-0.2300942
117	0xbebc2cc4	-0.36752903
118	0x3dcb22e0	0.09918761
119	0x3e8a44e2	0.27005678
120	0xbef11dca	-0.4709304
121	0xbefd308a	-0.49451095
122	0xbe2ac198	-0.16675413
123	0x3ea58d1c	0.3233422
124	0xbef05cb2	-0.4694572
125	0x3ecc5dea	0.399154
126	0x3ee6e6e7	0.4509804
127	0x3d94cd04	0.07265666
128	0x3d8356e6	0.06413059
129	0xbca64ae7	-0.020299388
130	0x3ef91c5d	0.48654452
131	0x3e5b6add	0.21427484
132	0x3e174a5d	0.14774461
133	0xbe4a9d64	-0.19786602
134	0xbd1f6787	-0.03891709
135	0xbe87c242	-0.26515394
136	0x3d916450	0.07099211
137	0xbd8dbc0a	-0.06920631
138	0x3dbecc20	0.093162775
139	0x3d32e845	0.04367854
140	0xbeb9c323	-0.3628169
141	0x3eaaa12f	0.33326098
142	0x3e8ceade	0.2752294
143	0x3e2b9009	0.16754164
144	0x3ed16d9d	0.4090394
145	0x3e040ee8	0.12896311
146	0x3e8bd57d	0.27311316
147	0x3e3937bd	0.18087669
148	0x3eb2618b	0.34840044
149	0xbe8a93da	-0.27065927
150	0x3e889adf	0.26680657
151	0x3be291ce	0.006914354
152	0x3e67ae20	0.22625017
153	0x3e60e1c3	0.21961121
154	0xbeabcb6c	-0.33553636
155	0xbe7d66ae	-0.247462
156	0xbed66173	-0.41871223
157	0xbe001856	-0.12509283
158	0x3e2c9571	0.16853882
159	0x3e8ae829	0.2713025
160	0x3edc323a	0.4300707
161	0xbea81cc8	-0.32834458
162	0x3e426ced	0.18986864
163	0x3ec9f25c	0.39442718
164	0xbec53728	-0.38518643
165	0xbec0b2b4	-0.3763634
166	0x3df67120	0.12033296
167	0xbe4fce28	-0.20293486
168	0x3e19a6db	0.15005057
169	0xbe8ab880	-0.27093887
170	0x3cfe4fa4	0.031043835
171	0xbed8fcf2	-0.42380482
172	0x3ed6cbca	0.41952354
173	0xbeb18cdd	-0.34677783
174	0xbefc82f2	-0.49318653
175	0xbe8495c0	-0.258955
176	0x3d5504b5	0.052006442
177	0x3ef049f1	0.46931413
178	0x3dd3dd5e	0.10344957
179	0xbd92cb4f	-0.07167684
180	0xbea388d5	-0.31940332
181	0x3e6920f6	0.2276648
182	0x3d170a57	0.036875095
183	0xbeaaa3ac	-0.33327997
184	0xbe3f53e3	-0.18684344
185	0x3d924507	0.07142072
186	0x3e959a54	0.29219306
187	0xbe1e32ac	-0.15449017
188	0xbdf754b8	-0.12076706
189	0x3e7175f0	0.23580146
190	0xbeaf5920	-0.34247684
191	0xbc4a7040	-0.012355864
192	0x3eeb5233	0.4596115
193	0x3ec4ad05	0.38413253
194	0xbebb58c8	-0.36591172
195	0xbec13144	-0.377329
196	0x3df4e1e6	0.11957149
197	0x3ea18833	0.31549224
198	0xbe4d24c0	-0.2003355
199	0xbf22ecf4	-0.6364281
200	0x3ccc589c	0.024944596
201	0x3ea0a045	0.31372276
202	0xbe832fb7	-0.2562234
203	0xbf2699fb	-0.65078706
204	0x3d7b01fd	0.061281193
205	0x3eda036c	0.42580736
206	0xbec95b62	-0.39327532
207	0xbe0ac3a1	-0.13551189
208	0x3ead775d	0.3388013
209	0x3d25d712	0.04048831
210	0xbe776030	-0.24157786
211	0xbe3deece	-0.18548128
212	0xbea861aa	-0.32887012
213	0x3d14dbb0	0.036342323
214	0xbe5ecad4	-0.2175706
215	0x3c8a3ec0	0.016875625
216	0xbd665089	-0.056229148
217	0xbeaefa77	-0.34175465
218	0x3ef85e73	0.4850956
219	0xbcb76a35	-0.02238951
220	0x3e95bff6	0.29248017
221	0x3e978fdb	0.2960194
222	0x3e4f1c51	0.20225646
223	0xbe9addfd	-0.3024749
224	0xbe1d22a0	-0.1534524
225	0xbe8d2734	-0.27568972
226	0xbee3bcde	-0.44480032
227	0xbec37864	-0.38177788
228	0xbe5755fe	-0.21028897
229	0x3efad9e5	0.48994365
230	0xbee9fc52	-0.45700318
231	0xbee190c5	-0.44055763
232	0xbee22c2a	-0.4417432
233	0xbeb20ba2	-0.347745
234	0x3ed26efe	0.41100305
235	0xbe8ba76c	-0.2727617
236	0xbeb72e36	-0.35777444
237	0xbe95c012	-0.292481
238	0x3e0942d4	0.13404399
239	0xbe200c20	-0.15629625
240	0xbea18645	-0.31547752
241	0x3ed3834e	0.41311115
242	0x3d9a9615	0.07548157
243	0xbe31ad8c	-0.17351359
244	0xbe6ea5d0	-0.2330544
245	0x3e9c5f73	0.30541572
246	0x3e3714dd	0.17879052
247	0xbe305529	-0.17219986
248	0xbe82114e	-0.25403827
249	0xbe48d434	-0.19612199
250	0x3e439154	0.19098407
251	0xbecd4cc4	-0.4009763
252	0x3ee8ceb2	0.45470196
253	0x3d43d1a5	0.047807354
254	0x3e4b4b63	0.19852977
255	0xbd0ffcb6	-0.035153113

net.0.bias f4 [128]
0	0x3ea504aa	0.3223012
1	0x3d81197d	0.0630369
2	0xbee346d0	-0.44389963
3	0xbe7c957a	-0.24666396
4	0x3e58c854	0.21170169
5	0xbe8f366a	-0.27971202
6	0x3e461f5b	0.19347899
7	0x3e25f820	0.16207933
8	0xbea0f2ba	-0.31435186
9	0x3dcb2028	0.09918243
10	0xbd847068	-0.06466752
11	0x3ec75bda	0.38937265
12	0xbe2b6271	-0.16736771
13	0x3eef20ba	0.46704656
14	0x3ec848f0	0.39118147
15	0xbe0516e2	-0.1299701
16	0x3c65dc7c	0.014029618
17	0xbe0bf59c	-0.13667911
18	0x3eccff6c	0.4003862
19	0x3e71817c	0.2358455
20	0x3d107ab6	0.035273276
21	0x3e8bc6c7	0.27300093
22	0xbee726d3	-0.45146808
23	0xbdc571e0	-0.096408606
24	0x3d47cd1c	0.048779592
25	0xbed3ad5f	-0.4134321
26	0x3ef28d99	0.47373655
27	0x3c697900	0.01425004
28	0x3ecabec1	0.3959866
29	0xbe15044c	-0.1455242
30	0x3cf3e1e0	0.029770792
31	0xbddda5c3	-0.10822632
32	0xbe158d03	-0.14604573
33	0xbe2509a0	-0.16116953
34	0x3ec4f8e8	0.3847115
35	0x3ed4a8df	0.41535088
36	0x3e3cc397	0.18433987
37	0x3ebcadbd	0.36851302
38	0x3e75a797	0.23989712
39	0xbc4681ea	-0.012115935
40	0xbeb1dd4c	-0.3473915
41	0x3e007104	0.12543112
42	0xbe19f098	-0.15033185
43	0x3e589ce8	0.21153605
44	0xbe8efe9c	-0.27928627
45	0xbd835075	-0.0641183
46	0xbe59db8d	-0.21275158
47	0xbeecd2d6	-0.46254605
48	0xbeca33cc	-0.39492643
49	0x3edf4479	0.43606928
50	0xbc62b01d	-0.013835934
51	0xbf016101	-0.5053864
52	0x3dd7ffef	0.10546862
53	0xbd0087c0	-0.03137946
54	0x3edb7523	0.42862806
55	0x3ee5d130	0.4488616
56	0xbe039998	-0.1285156
57	0xbeb67c58	-0.35641742
58	0xbe94e1c1	-0.29078487
59	0xbe0822cc	-0.13294524
60	0xbe7099b1	-0.23496129
61	0x3edd5f22	0.43236643
62	0xbe43b448	-0.1911174
63	0x3e61741b	0.22016947
64	0x3e8a059f	0.26957414
65	0x3e4d7713	0.20064954
66	0x3e799974	0.24374944
67	0x3ef1bbb8	0.4721353
68	0x3e59d8bc	0.21274084
69	0x3e2fa113	0.17151289
70	0xbed6cc66	-0.4195282
71	0xbb92baf0	-0.004477851
72	0x3c3d26c0	0.011544883
73	0x3ec87d56	0.39158124
74	0x3e818a91	0.2530103
75	0x3ee41a6f	0.44551417
76	0x3ea9d372	0.33169132
77	0xbe60ed09	-0.21965422
78	0x3e062664	0.13100582
79	0x3efeba6c	0.49751604
80	0x3e3500e0	0.17676115
81	0x3ea83322	0.3285151
82	0x3e87ac21	0.2649851
83	0xbdf6441f	-0.12024712
84	0x3df48650	0.119396806
85	0xbe99b6be	-0.30022234
86	0x3ef87a93	0.48531017
87	0x3cea5c20	0.028608382
88	0x3edca3c2	0.43093687
89	0xbea84c74	-0.3287083
90	0xbf09007f	-0.5351638
91	0x3d7537b0	0.05986756
92	0xbb913932	-0.004431867
93	0xbe2d0b93	-0.16898946
94	0x3e8ff03b	0.2811297
95	0xbea6886a	-0.3252595
96	0x3f07a904	0.5299227
97	0xbef45ad3	-0.47725543
98	0x3e268156	0.16260275
99	0xbe85f09d	-0.26160136
100	0x3e23c229	0.15992035
101	0x3ee16015	0.44018617
102	0xbcc2c8bf	-0.023777364
103	0x3e0644cf	0.13112186
104	0xbe3842c3	-0.17994218
105	0xbe6d916b	-0.23200004
106	0xbedaacf6	-0.42710084
107	0x3e8c0736	0.27349252
108	0xbc886f12	-0.016654525
109	0x3e4ecac0	0.2019453
110	0xbeae7b93	-0.34078655
111	0xbed00d02	-0.40634924
112	0xbf045d68	-0.51705027
113	0xbe8588a6	-0.26080817
114	0xbd852538	-0.065012395
115	0xbd9a81c8	-0.07544285
116	0x3e7e8f3d	0.24859329
117	0xbe7604a4	-0.24025208
118	0x3ef9715e	0.48719305
119	0xbe4f85e3	-0.20265917
120	0xbef0be08	-0.47019982
121	0x3ece802e	0.40332168
122	0xbea48616	-0.3213355
123	0x3dd8864f	0.10572492
124	0xbdcbb689	-0.09946925
125	0xbd9f4916	-0.07777612
126	0x3d11bcf9	0.03558061
127	0xbf074e1a	-0.5285355

net.2.weight f4 [128, 128]
0	0x3da2c769	0.07948191
1	0xbd6b0716	-0.057379805
2	0x3d5cbc8e	0.053890757
3	0xbd56149c	-0.05226575
4	0xbcb24cf0	-0.021765202
5	0xbb08fe80	-0.0020903647
6	0xbd0eb219	-0.034837816
7	0xbd1cd884	-0.038292423
8	0xbd985ea1	-0.07439924
9	0xbd78a938	-0.060708255
10	0xbb87e4c0	-0.004147142
11	0xbcd3aa3c	-0.02583801
12	0xbc4b5f70	-0.012412891
13	0x3cb8b650	0.02254787
14	0xbc39a778	-0.011331432
15	0xbdab5c21	-0.083671816
16	0xbd05269a	-0.032507516
17	0x3cdda04c	0.027053975
18	0x3d024c46	0.03181102
19	0x3d2f318e	0.04277187
20	0x3ba06380	0.004894674
21	0x3d7784a2	0.060429223
22	0xbd77bf3f	-0.06048512
23	0xbd97e94b	-0.07417544
24	0xbcc10ebc	-0.023566596
25	0x3a1c4280	0.0005960837
26	0x3d836ed5	0.06417624
27	0xbd50c8b0	-0.05097264
28	0xbd7d8e56	-0.06190332
29	0xbb1cb640	-0.002391234
30	0x3cb821f8	0.022477135
31	0xbda51a86	-0.080616996
32	0xbd11f0ac	-0.035629913
33	0xbd8e330a	-0.06943329
34	0x3ca93608	0.020655647
35	0x3c071768	0.008245327
36	0xbda0f867	-0.07859879
37	0xbd7113ac	-0.05885665
38	0x3b85ee00	0.0040872097
39	0xbcbfdfa8	-0.023422077
40	0xbd8c032a	-0.06836541
41	0xbcdb6a2c	-0.026784025
42	0xbda63eb5	-0.08117429
43	0xbc255be0	-0.0100927055
44	0xbc28cc50	-0.010302618
45	0x3b97d1e0	0.0046331733
46	0x3bf60030	0.0075073466
47	0xbc7c4030	-0.015396163
48	0x3d9075f5	0.070537485
49	0xbd019f46	-0.031646036
50	0x3d239c1e	0.039943807
51	0x3d08b00a	0.03337101
52	0xbc3180c0	-0.010833919
53	0xbd84a87a	-0.06477447
54	0xbd988737	-0.07447665
55	0x3cc86df8	0.0244665
56	0x3cdd6048	0.02702345
57	0x3d5b942a	0.053608097
58	0xbd204132	-0.039124675
59	0x3d9226e5	0.07136325
60	0x3db4ff1f	0.08837723
61	0xbc665530	-0.014058396
62	0xbd0d1553	-0.034444164
63	0xbce37074	-0.027763583
64	0xbd9d609e	-0.07684444
65	0x3d50b602	0.050954826
66	0x3c1dd310	0.009632841
67	0x3d26cb66	0.04072132
68	0x3d689c66	0.05678978
69	0xbd19bfaf	-0.03753632
70	0x3a57c200	0.00082305074
71	0x3d9255c3	0.07145264
72	0xbd8b8c73	-0.06813898
73	0x3d9f273d	0.07771156
74	0x3d3c42fe	0.045962326
75	0xbce367a8	-0.027759388
76	0xbd93cde3	-0.07217004
77	0x3d415fca	0.047210492
78	0x3d2cbb2a	0.04217068
79	0xbd23f439	-0.04002783
80	0x3d2c5c6e	0.042080335
81	0x3cd6e664	0.026232906
82	0x3db23027	0.087005906
83	0x3d3930ce	0.04521256
84	0x3c5f94f8	0.013646357
85	0xbdb32d34	-0.08748856
86	0x3d9352b1	0.071935065
87	0x3d9b6c31	0.07588995
88	0xbcc8b490	-0.024500161
89	0xbbe27f00	-0.0069121122
90	0xbb61ad80	-0.003443569
91	0xbbb0db70	-0.0053972527
92	0x3d44ceea	0.04804889
93	0x3c43bdf8	0.011947148
94	0xbd9d6e97	-0.07687109
95	0x3ce8f704	0.028438099
96	0xbd5e6253	-0.054292988
97	0x3ccebc00	0.02523613
98	0x3d1d96e6	0.038473986
99	0xbd2cdfcd	-0.04220562
100	0x3d7540da	0.0598763
101	0x3b13eda0	0.0022572055
102	0xbd36170d	-0.044455577
103	0x3d9b1d6b	0.075739704
104	0x3d675746	0.056479715
105	0x3d845ef9	0.06463427
106	0xbd7946b2	-0.060858436
107	0xbd89f581	-0.06736279
108	0xbd9f2878	-0.07771391
109	0x3d6a120e	0.057146125
110	0x3d5325de	0.051549785
111	0xbd5cb120	-0.053879857
112	0x3d0dedcc	0.03465061
113	0x3c9189ac	0.017765842
114	0xbd1a1bc3	-0.037624132
115	0x3b46cf20	0.0030335858
116	0xbd5a6ab6	-0.053324424
117	0xbcd3ff3c	-0.025878541
118	0x3d0f26ea	0.03494922
119	0x3c4c8010	0.012481704
120	0xbd86b5fd	-0.0657768
121	0x3cb63798	0.022243306
122	0xbc907d54	-0.017637886
123	0xbd84fab9	-0.06493134
124	0xbda75d92	-0.08172144
125	0x3b79ce00	0.003811717
126	0xbd8539a6	-0.06505136
127	0xbd5d4ec9	-0.054030214
128	0x3cae7a3c	0.02129852
129	0x3bd8e665	0.006619262
130	0xbd23e87d	-0.04001664
131	0x3c51e2d8	0.012810431
132	0x3da0c4ed	0.078500606
133	0xbc0988f8	-0.008394472
134	0xbcf78e32	-0.030219171
135	0x3d7b9637	0.061422553
136	0x3cb11dbc	0.021620624
137	0x3cfa4364	0.030549712
138	0x3d768cb2	0.06019277
139	0xbb0473ce	-0.0020210627
140	0x3ce89e90	0.028395921
141	0xbd49b133	-0.049241256
142	0xbb8ac2d4	-0.004234651
143	0x3ddccd04	0.10781291
144	0xbdb51343	-0.088415645
145	0xbd6e26ca	-0.05814246
146	0xbd9c7a58	-0.07640523
147	0x3d9609cd	0.07326088
148	0x3ce68701	0.028140547
149	0x3dac3dfc	0.0841026
150	0xbd4992b1	-0.04921216
151	0xbcdb8491	-0.026796611
152	0x3d68e435	0.05685826
153	0xbdbdec0b	-0.09273537
154	0xbdaaf7c3	-0.08348038
155	0xbd778f17	-0.060439195
156	0x3b92d7c5	0.004481288
157	0xbda688c4	-0.08131555
158	0x3c8610dc	0.016365461
159	0x3d982304	0.07428554
160	0xbca10a3a	-0.019658197
161	0x3c90f66f	0.017695634
162	0xbd6080ef	-0.05481046
163	0xbc873cf6	-0.01650856
164	0x3c117f41	0.008880437
165	0x3dae7a9f	0.08519482
166	0xbba849ef	-0.0051357667
167	0xbd2ef9a0	-0.04271853
168	0xbce0ca9a	-0.027440358
169	0x3d79a1f6	0.060945474
170	0xbc5df3e8	-0.013546921
171	0x3d25cc8e	0.04047828
172	0xbc8bc9aa	-0.017063934
173	0xbd15240a	-0.036411323
174	0xbbcd6897	-0.0062685716
175	0x3d88d40b	0.06681069
176	0x3d9a11d5	0.075229324
177	0xbc32462b	-0.010880987
178	0xbca79fe5	-0.020461986
179	0xbdfc24a8	-0.12311679
180	0xbc83cc27	-0.016088558
181	0xbc776040	-0.015098631
182	0x3d8ed3d8	0.06974
183	0x3c710dc8	0.014712758
184	0xbd9aee58	-0.07564992
185	0xbd891f24	-0.06695393
186	0xbdd0cb81	-0.10195065
187	0x3da748f1	0.08168209
188	0x3bdaee21	0.006681219
189	0xbca75636	-0.02042685
190	0x3d112c1e	0.035442464
191	0xbda367c6	-0.079787776
192	0xbb2b5338	-0.0026142132
193	0x3da5c38e	0.0809394
194	0x3d829ed3	0.063779496
195	0x3db1e8d1	0.08686984
196	0xbb41a240	-0.0029546171
197	0xbda71e0f	-0.0816003
198	0x3c85c2b4	0.016328193
199	0xbcb6026a	-0.022217948
200	0x3da344dd	0.07972119
201	0xbcc2f760	-0.023799598
202	0x3d97c739	0.074110456
203	0xbc29c6d8	-0.010362349
204	0x3dac3282	0.08408071
205	0x3d18346b	0.037159365
206	0xbcd5b092	-0.026085172
207	0x3ca02e66	0.019553374
208	0x3ce63b68	0.028104499
209	0x3c90a874	0.01765845
210	0x3d007199	0.031358335
211	0xbda244a4	-0.079232484
212	0xbd3aa0e5	-0.045563597
213	0x3d5f387d	0.05449723
214	0x3dea035c	0.11426422
215	0x3ce600fc	0.028076641
216	0xbb8b7775	-0.0042561837
217	0x3ced1a0b	0.028943082
218	0xbd9c888c	-0.07643232
219	0xbd910b64	-0.07082251
220	0xbd69bb41	-0.057063345
221	0x3d0be571	0.03415436
222	0x3d3dff59	0.046386097
223	0x3bd7a650	0.0065811053
224	0x3e392602	0.18080905
225	0xbd2ee12e	-0.042695217
226	0x3daa3337	0.0831055
227	0xbcbddb49	-0.023175852
228	0x3d0c2cf1	0.034222547
229	0x3c7a5c98	0.015280865
230	0x3d99108f	0.074738614
231	0x3cec5271	0.028847905
232	0x3e02c9e1	0.12772323
233	0xbc4aa61a	-0.012368703
234	0x3da9686b	0.08271869
235	0x3cf571b3	0.029961443
236	0x3cc07ab7	0.023496015
237	0x3d096d93	0.033551764
238	0xbd8c8787	-0.06861787
239	0xbbd7c632	-0.006584906
240	0x3c8a486f	0.016880242
241	0x3dc2a7ac	0.09504637
242	0x3d8536cf	0.065045945
243	0xbd99be3a	-0.07506986
244	0x3dac0238	0.08398861
245	0xbca6bc30	-0.020353407
246	0xbd728c4e	-0.059215836
247	0x3d9c9afd	0.07646749
248	0xbc6506d0	-0.013978675
249	0x3c80f2ca	0.01574077
250	0x3c595d68	0.013266899
251	0xbd431f20	-0.047637105
252	0x3d44a627	0.048010018
253	0x3d9c4a15	0.076313175
254	0x3dea0885	0.11427406
255	0xbd0c5ab4	-0.03426619

net.2.bias f4 [128]
0	0x3d828b5d	0.06374238
1	0x3deea860	0.11653209
2	0xbcf08456	-0.029359978
3	0xbda87885	-0.08226112
4	0x3ce276dc	0.027644567
5	0x3d968002	0.07348634
6	0x3c89990d	0.016796613
7	0xbca7015c	-0.02038639
8	0xbdb3d025	-0.08779935
9	0x3db6bf66	0.08923225
10	0x3d718b3e	0.058970682
11	0xbcf8228d	-0.030289913
12	0xbcf7d8ee	-0.030254807
13	0x3e0007aa	0.12502924
14	0x3d646d31	0.055768196
15	0xbd83744a	-0.06418665
16	0x3d905d8f	0.07049095
17	0xbc187188	-0.009304412
18	0x3e0e7067	0.13910066
19	0xbd87014f	-0.065920465
20	0xbd284984	-0.041085735
21	0x3d9dce99	0.07705421
22	0xbdac578c	-0.08415136
23	0xbdb375be	-0.08762692
24	0x3bfe7e2c	0.0077665057
25	0xbc67cd6d	-0.014148098
26	0x3d1b0a6e	0.037851743
27	0x3ccc51a6	0.024941277
28	0x3dae70c6	0.085176036
29	0xbd86e00a	-0.06585701
30	0xbd7701a6	-0.060304306
31	0x3e0084cb	0.12550656
32	0xbb94df51	-0.004543223
33	0xbd978339	-0.073980756
34	0xbd0f0fe4	-0.034927264
35	0x3dc80454	0.097664505
36	0xbc838261	-0.01605338
37	0xbd2b6950	-0.04184848
38	0x3db8ce3d	0.09023712
39	0xbdbd223e	-0.09235047
40	0x3ca31ec0	0.019912124
41	0x3d9dddd4	0.07708326
42	0x3d3afe5a	0.045652725
43	0xbb14e3c0	-0.0022718757
44	0x3da087db	0.078384124
45	0x3dab59d8	0.08366746
46	0x3d22e588	0.03976968
47	0xbd76aca4	-0.060223237
48	0x3e07a489	0.13246359
49	0x3d57bd87	0.05267098
50	0x3da6d7a6	0.081466004
51	0xbd976cf6	-0.073938295
52	0xbc959120	-0.018257678
53	0xbd96d4f5	-0.07364837
54	0xbcf3b078	-0.029747233
55	0x3d9a21cb	0.07525977
56	0xbcb7ff74	-0.022460677
57	0xbd48d528	-0.049031407
58	0xbd07f29a	-0.033190347
59	0x3d8909d8	0.06691331
60	0xbc043a6f	-0.008070572
61	0xbbcd0b12	-0.006257423
62	0xbdab58b2	-0.08366527
63	0x3dd98db9	0.106227346
64	0xbdbb89cf	-0.09157144
65	0x3c25d10f	0.010120644
66	0x3db0efdd	0.086395
67	0x3d990661	0.0747192
68	0x3d8a4251	0.0675093
69	0xbccd38bf	-0.025051473
70	0x3d0425fc	0.032262787
71	0x3de43e37	0.11144679
72	0x3c0db3ba	0.008648807
73	0xbd2ef221	-0.04271138
74	0x3dad177f	0.08451747
75	0xbbeaf903	-0.007170798
76	0x3c0cc423	0.0085916845
77	0xbc843573	-0.016138768
78	0xbda8cebe	-0.08242558
79	0xbc1db1ea	-0.009624938
80	0x3da7f359	0.08200712
81	0x3d758d82	0.059949405
82	0x3c335f26	0.010947978
83	0x3d45fc2e	0.0483362
84	0xbd06f4bc	-0.03294824
85	0x3b1119c0	0.0022140592
86	0x3b0fab0b	0.0021922018
87	0x3db053cb	0.08609732
88	0xbc8ab35f	-0.016931234
89	0xbcde5f67	-0.0271451
90	0x3c0015b7	0.007817677
91	0x3db9bc2d	0.09069095
92	0x3d52a93f	0.051430937
93	0xbdde9449	-0.10868127
94	0xbda0232e	-0.0781921
95	0xbd26eebe	-0.040755026
96	0x3dc74354	0.09729639
97	0xbc765143	-0.015034023
98	0xbd39a702	-0.045325287
99	0x3d1c86da	0.038214542
100	0xbdf35130	-0.1188072
101	0x3d951ec5	0.072812594
102	0x3d42a1c6	0.04751756
103	0xbd27e22c	-0.04098718
104	0x3d84dcd3	0.064874314
105	0x3cf30ad0	0.029668242
106	0x3c9bc6d6	0.01901571
107	0x3c14d23f	0.00908333
108	0x3cace520	0.021105349
109	0xbd9e7108	-0.07736403
110	0xbda06650	-0.078320146
111	0xbd890574	-0.06690493
112	0xbdaac9dc	-0.08339283
113	0xbd3aae19	-0.04557619
114	0xbd5760e0	-0.05258262
115	0xbd80fdec	-0.06298432
116	0xbc91c748	-0.01779522
117	0x3bba1130	0.0056783184
118	0x3d5ee4e6	0.054417513
119	0x3d2a830d	0.041628886
120	0xbc5b9f5a	-0.013404692
121	0x3ce570bc	0.028007858
122	0x3cfe7844	0.031063206
123	0x3c8bc579	0.017061936
124	0x3d828a06	0.06373982
125	0x3cb39aad	0.021924341
126	0x3da79616	0.081829235
127	0xbd8deb04	-0.06929591

net.4.weight f4 [2, 128]
0	0xbd27e319	-0.04098806
1	0xbdb0b74e	-0.086287126
2	0xbd1ed843	-0.038780462
3	0x3d6fb7e5	0.058524985
4	0xbbf0fcf0	-0.0073543712
5	0xbdbab226	-0.0911601
6	0xbba7640c	-0.005108362
7	0xbbc32d42	-0.005956323
8	0x3d438ebc	0.047743544
9	0x3d5e59ba	0.05428479
10	0x3da829df	0.08211111
11	0xbca303e4	-0.019899316
12	0xbd196f70	-0.03745979
13	0xbd0d2140	-0.034455538
14	0xbd7d5afe	-0.061854355
15	0xbd88be74	-0.06676951
16	0x3ce26de4	0.02764029
17	0x3d980cfd	0.07424352
18	0xbd66297e	-0.056191914
19	0x3baf7a40	0.0053551495
20	0x3d43f4c5	0.047840852
21	0x3d9dcc4a	0.07704981
22	0x3d31f2da	0.043444492
23	0xbcf685be	-0.03009307
24	0xbc587f94	-0.013214011
25	0xbd08a33a	-0.03335879
26	0xbd00a278	-0.031404942
27	0xbd74fc44	-0.05981089
28	0x3bd1283b	0.0063829697
29	0x3d596112	0.05307109
30	0x3c89bc31	0.01681337
31	0xbd0cf138	-0.03440973
32	0x3dad4d77	0.08462041
33	0xbd9b6540	-0.07587671
34	0x3db245f6	0.0870475
35	0xbd0ca2ae	-0.03433483
36	0xbcf34ff9	-0.02970122
37	0xbdb44817	-0.088028125
38	0xbdbcd1f3	-0.09219732
39	0x3d120fc2	0.03565956
40	0xbd93bb19	-0.072134204
41	0xbd9a9cde	-0.07549451
42	0x3d08f09e	0.033432595
43	0x3cea67e8	0.028614
44	0xbb095e94	-0.0020960914
45	0x3d76b98a	0.060235538
46	0xbd7ef35c	-0.062243804
47	0xbb933bbc	-0.004493205
48	0xbd9d56d0	-0.07682574
49	0x3d39c779	0.045356248
50	0x3d7cab99	0.061687086
51	0x3c81a49d	0.015825564
52	0x3d116462	0.035496123
53	0x3db42287	0.08795648
54	0xbccb30f8	-0.024803624
55	0xbda12e93	-0.078702115
56	0x3d315f6e	0.0433039
57	0xbcb453ee	-0.022012677
58	0x3d9e553b	0.077311
59	0xbd7d4a0f	-0.061838206
60	0xbd2e8ae6	-0.042612933
61	0xbbcf5f0b	-0.0063284687
62	0xbcfd4af8	-0.030919537
63	0xbd93d333	-0.072180174
64	0x3d9c8b10	0.076437116
65	0xbc9424ac	-0.018083893
66	0xbd35a58c	-0.04434733
67	0xbd7ca350	-0.061679184
68	0xbd2c7780	-0.04210615
69	0xbda8ddaa	-0.08245404
70	0x3d882a79	0.06648726
71	0xbd513bd8	-0.051082462
72	0xbd8b0f93	-0.0679008
73	0x3d91c372	0.07117356
74	0xbd42301f	-0.047409173
75	0xbce1fad4	-0.027585424
76	0xbd027030	-0.03184527
77	0xbd163f44	-0.03668143
78	0xbd91b9c4	-0.0711551
79	0x3d31bcd3	0.043392967
80	0xbd295780	-0.041343212
81	0x3ba137a0	0.004919961
82	0x3d51f047	0.051254537
83	0x3d641968	0.05568829
84	0x3db61f50	0.08892691
85	0x3d3eeac2	0.0466106
86	0x3da010bc	0.07815692
87	0xbc9e0e00	-0.019293785
88	0xbdb373cf	-0.08762323
89	0x3d309655	0.043112118
90	0x3c43f80b	0.0119609935
91	0xbd8f4c88	-0.06997019
92	0xbda770b2	-0.08175792
93	0x3d0ac5ad	0.033879925
94	0x3cedc94e	0.029026654
95	0x3dae20b6	0.08502333
96	0x3d48950e	0.048970275
97	0xbd8aa599	-0.067698665
98	0x3bca496a	0.0061733024
99	0x3dae72e5	0.08518008
100	0x3ce674fd	0.028131956
101	0x3d0dfc70	0.03466457
102	0x3d071040	0.03297448
103	0x3d6c2a39	0.057657454
104	0xbc3e834c	-0.011627983
105	0xbd562de3	-0.052289855
106	0xbcead8b4	-0.028667785
107	0x3d8ad5cb	0.06779059
108	0x3b333484	0.0027344534
109	0x3cb7da49	0.022442954
110	0x3db376d2	0.087628976
111	0xbc956450	-0.01823631
112	0x3d379832	0.04482288
113	0xbdad60ce	-0.0846573
114	0x3d96db52	0.07366051
115	0xbd80c255	-0.06287066
116	0x3d457d06	0.048214935
117	0x3d226442	0.039646395
118	0xbd311087	-0.043228652
119	0x3d9f885f	0.077896826
120	0xbc9a91a8	-0.018868282
121	0x3d39ba8e	0.045343928
122	0x3d7f26fe	0.062293045
123	0xbd587023	-0.052841317
124	0xbd83fb3a	-0.06444402
125	0x3c52415e	0.012832968
126	0xbd57d45b	-0.052692752
127	0xbd33bca4	-0.043881074
128	0x3c24ada8	0.0100511685
129	0xbd507505	-0.05089285
130	0x3c85c85c	0.01633089
131	0x3da5f40f	0.08103191
132	0x3d9cad33	0.07650223
133	0xbdad17d3	-0.0845181
134	0x3d29be75	0.0414414
135	0xbd50c731	-0.050971214
136	0x3da9f180	0.082980156
137	0xbda76fb1	-0.081756
138	0xbd296ef5	-0.041365582
139	0x3d713d10	0.058896124
140	0xbc995518	-0.018717334
141	0xbdaf3349	-0.08554704
142	0x3cfbc3f4	0.030733086
143	0xbc7ad7b8	-0.01531022
144	0xbd9530ef	-0.07284724
145	0xbdab1633	-0.083538435
146	0xbca62981	-0.020283462
147	0xbcec3a7e	-0.028836485
148	0xbd62e54d	-0.05539446
149	0xbd83bd8e	-0.06432639
150	0x3d031d3f	0.032010313
151	0x3da8edc1	0.08248473
152	0x3da3d678	0.07999891
153	0x3d37c291	0.044863287
154	0x3d247246	0.040148042
155	0x3b2d2992	0.0026422483
156	0xbc4fb28a	-0.012676844
157	0x3d970e9b	0.07375833
158	0x3d7d5ef4	0.061858132
159	0xbd30405e	-0.043030135
160	0x3d5667a6	0.05234494
161	0x3d87885d	0.06617806
162	0x3cea3818	0.0285912
163	0xbcf8c2aa	-0.03036626
164	0x3c6c2035	0.014411976
165	0xbb8524c0	-0.004063219
166	0xbac5d808	-0.001509429
167	0x3c34d6af	0.011037513
168	0x3d069194	0.032853678
169	0x3baa31db	0.0051939315
170	0x3a041d00	0.0005039722
171	0x3d63c1ee	0.055604868
172	0xbdac5b0a	-0.08415802
173	0x3d91f467	0.07126694
174	0xbd202694	-0.03909929
175	0x3cfc0a32	0.03076658
176	0xbd13d6dd	-0.03609358
177	0xbd94fcbb	-0.07274767
178	0x3d9ce066	0.07659988
179	0xbc52fbca	-0.012877414
180	0xbd4f7a75	-0.050653894
181	0xbc37e948	-0.011225052
182	0xbcb59e7c	-0.022170298
183	0x3c93991c	0.018017344
184	0x3d08a6ae	0.033362083
185	0x3d1605be	0.03662657
186	0x3d774c42	0.06037546
187	0xbd1735b7	-0.03691646
188	0xbd974e24	-0.07387951
189	0xbd0ef900	-0.034905434
190	0xbc81acfc	-0.015829556
191	0xbda7a454	-0.0818564
192	0x3baf9e48	0.005359445
193	0xbca9c0e9	-0.02072187
194	0xbdcf4d47	-0.10122161
195	0xbd1a467a	-0.037664868
196	0x3d15f828	0.036613613
197	0xbdb559ac	-0.08854994
198	0xbd0c79aa	-0.034295715
199	0xbcb77758	-0.022395775
200	0xbd917960	-0.071032286
201	0x3be67629	0.0070331288
202	0x3c2010c8	0.009769626
203	0x3d4def9b	0.050277334
204	0x3d61cf2f	0.055129226
205	0x3d6764db	0.056492668
206	0x3d400b5e	0.04688584
207	0xbbc7c48f	-0.0060964297
208	0x3d8ffc79	0.07030577
209	0x3c04fe20	0.008117229
210	0xbd928f65	-0.071562566
211	0x3d8f4db9	0.06997246
212	0x3d88cd8a	0.066798285
213	0xbb3bfc80	-0.0028684437
214	0x3d9ce033	0.0765995
215	0xbb837f50	-0.0040129796
216	0x3d6cdb57	0.057826366
217	0xbcb8f5d2	-0.022578154
218	0xbc4aab66	-0.012369966
219	0xbcf8fec2	-0.030394915
220	0xbbb72582	-0.005589188
221	0x3bd7779a	0.006575537
222	0x3d52e934	0.05149193
223	0x3d1d5ed7	0.038420524
224	0xbdab7351	-0.08371604
225	0x3db1a0d3	0.08673253
226	0xbd8ac0fb	-0.06775089
227	0xbd21f60c	-0.03954129
228	0x3cbfe663	0.023425287
229	0x3d912c11	0.07088483
230	0x3b3db480	0.0028946698
231	0xbccc1022	-0.024910036
232	0xbddc130a	-0.10745819
233	0x3d8c4c7b	0.06850525
234	0x3d6ac7de	0.057319514
235	0xbbcbb23c	-0.0062163156
236	0xbd39b878	-0.04534194
237	0xbce61e86	-0.028090727
238	0x3d9b0e47	0.075710826
239	0x3d755a5f	0.059900638
240	0xbd70fde0	-0.058835864
241	0x3d032b40	0.03202367
242	0xbda978f7	-0.08275025
243	0x3cfa1a5f	0.030530153
244	0xbcfcc292	-0.030854497
245	0xbd90d9c2	-0.07072784
246	0x3ac5df00	0.0015096366
247	0xbd872767	-0.06599312
248	0xbd9f1af6	-0.07768814
249	0xbda9d176	-0.08291905
250	0xbdb0390c	-0.08604631
251	0x3d18e9c9	0.03733233
252	0x3d2b59b2	0.041833587
253	0x3d3d4d33	0.0462162
254	0xbdba0cad	-0.09084449
255	0xbd46ad7c	-0.04850529

net.4.bias f4 [2]
0	0xbe078484	-0.13234144
1	0xbe050630	-0.12990642
